model_big_small_trained.pth (torch, 53313 bytes, 19 tensors)

fc1.weight f4 [128, 9]
0	0x962cf567	-1.3971485e-25
1	0x1709dae6	4.4543376e-25
2	0x96702f88	-1.9402044e-25
3	0x15e6d85f	9.3237634e-26
4	0x169f46f6	2.5732618e-25
5	0x96e69e6b	-3.725848e-25
6	0x1573d154	4.923859e-26
7	0x16811708	2.085561e-25
8	0x9738d84a	-5.97266e-25
9	0x00043cae	3.8911e-40
10	0x800089a6	-4.9379e-41
11	0x8004bcad	-4.35026e-40
12	0x800415cd	-3.75163e-40
13	0x00060f7e	5.5657e-40
14	0x80037083	-3.15868e-40
15	0x8007fb37	-7.32967e-40
16	0x80041e6d	-3.78257e-40
17	0x80040d67	-3.7215e-40
18	0x3e5630e6	0.20917091
19	0x3e50b908	0.20383084
20	0x3e590609	0.21193708
21	0x3e759065	0.23980863
22	0x3b5e9792	0.0033964855
23	0xbbca6ccb	-0.00617752
24	0xbd8982d4	-0.067144066
25	0xbc729f76	-0.014808526
26	0xbbe0aa5d	-0.0068562464
27	0x3e1082fc	0.14112467
28	0x3e1f4ff5	0.15557845
29	0x3e13a226	0.14417323
30	0x3e36c754	0.17849475
31	0x3cb8d3b2	0.022561882
32	0xbccd3d25	-0.02505357
33	0xbd85c4d8	-0.065316856
34	0x3c987aee	0.018613305
35	0x3d1198bd	0.035546053
36	0x3e380b1c	0.17972988
37	0x3e4f5447	0.20246993
38	0x3e398026	0.18115291
39	0x3e6e9175	0.23297675
40	0x3cbe7009	0.023246782
41	0x3bcc3817	0.0062322724
42	0xbd83c0ad	-0.06433234
43	0x3cd99b9d	0.02656346
44	0xbd08acc6	-0.033367895
45	0x37681e50	1.3835335e-05
46	0x3724c4a1	9.820943e-06
47	0x3746b10e	1.1842943e-05
48	0x2c3c7558	2.6781546e-12
49	0xb450020d	-1.9372256e-07
50	0x363b767c	2.7934138e-06
51	0xb780f89a	-1.5374553e-05
52	0xb38e9a4e	-6.640458e-08
53	0x363dd392	2.8286345e-06
54	0x0005d3f6	5.35215e-40
55	0x0005d203	5.34515e-40
56	0x0004152e	3.7494e-40
57	0x0002643e	2.19631e-40
58	0x8009f4cd	-9.14337e-40
59	0x0004056f	3.69291e-40
60	0x800534fd	-4.78186e-40
61	0x0002c9e8	2.56101e-40
62	0x00053a58	4.80107e-40
63	0x8001757b	-1.3398e-40
64	0x8002c285	-2.53451e-40
65	0x80049101	-4.1936e-40
66	0x80082dc1	-7.51097e-40
67	0x0002fef4	2.75131e-40
68	0x0005e722	5.42092e-40
69	0x8005bcc5	-5.26895e-40
70	0x0000e396	8.1642e-41
71	0x80048897	-4.16341e-40
72	0x9b7dea28	-2.100333e-22
73	0x98abdfa5	-4.4428287e-24
74	0x9a448b79	-4.0644515e-23
75	0x195cdcc6	1.1418318e-23
76	0x184762e0	2.5770066e-24
77	0x9d1f18b4	-2.1056246e-21
78	0x9b5ed88a	-1.8433377e-22
79	0x19dc83d8	2.2800718e-23
80	0x9a07abba	-2.8056065e-23
81	0x8004f6ad	-4.55833e-40
82	0x0004980d	4.21888e-40
83	0x8001b5f7	-1.57112e-40
84	0x0001efc7	1.77851e-40
85	0x80041fa8	-3.78698e-40
86	0x80005fe6	-3.4402e-41
87	0x000055de	3.0803e-41
88	0x8005cad0	-5.31933e-40
89	0x00004588	2.4943e-41
90	0x37d893be	2.5818004e-05
91	0xb6eb14ca	-7.005966e-06
92	0x38c3d8cf	9.338708e-05
93	0x38449164	4.6865447e-05
94	0xb81f0ed5	-3.7922367e-05
95	0x373ee03d	1.1377092e-05
96	0xb9169662	-0.00014361137
97	0xb8595781	-5.1818326e-05
98	0xb838b216	-4.4034874e-05
99	0x3d49a048	0.04922512
100	0x3d6f1c11	0.058376376
101	0x3d601f5f	0.054717418
102	0x3d2fe7b5	0.042945582
103	0xba01f9f7	-0.0004958207
104	0xbbb1d96f	-0.0054275314
105	0xbce9ca9a	-0.02853899
106	0xbc6ff27e	-0.014645217
107	0x3a09ea00	0.0005261004
108	0x8008836b	-7.81828e-40
109	0x80005d7d	-3.3537e-41
110	0x0000a6ed	5.9882e-41
111	0x00013eaa	1.14315e-40
112	0x8002705d	-2.2398e-40
113	0x80009dde	-5.6632e-41
114	0x8004abf1	-4.29023e-40
115	0x0002c878	2.55586e-40
116	0x80050849	-4.6215e-40
117	0x80013358	-1.10254e-40
118	0x8004751f	-4.09357e-40
119	0x0000fe81	9.1299e-41
120	0x800289a1	-2.33043e-40
121	0x80020f39	-1.89132e-40
122	0x0004c782	4.38912e-40
123	0x800446b4	-3.92705e-40
124	0x800370af	-3.1593e-40
125	0x80031b40	-2.85282e-40
126	0xbe3aab33	-0.1822937
127	0xbe3a0a53	-0.18168001
128	0xbe2813c9	-0.16413797
129	0xbe976f1f	-0.29576966
130	0xbbde1f0a	-0.0067786025
131	0xbccb74e0	-0.024836004
132	0x3d838d8f	0.064234845
133	0x3b423a32	0.0029636738
134	0x3aa240a6	0.0012378886
135	0x000510cd	4.65204e-40
136	0x00014a97	1.18593e-40
137	0x0004c76f	4.38885e-40
138	0x8005d0f3	-5.34134e-40
139	0x800cf946	-1.191448e-39
140	0x80007cd4	-4.478e-41
141	0x80076eaf	-6.82554e-40
142	0x8001d626	-1.68657e-40
143	0x8007c5ea	-7.13847e-40
144	0xbe80aa34	-0.25129855
145	0xbe860bca	-0.2618087
146	0xbe80c123	-0.25147352
147	0xbe8f451e	-0.2798242
148	0x3c792e64	0.015208814
149	0xbc1836e5	-0.009290432
150	0x3dc22d54	0.09481302
151	0xbb827799	-0.0039815423
152	0xbc42c5ad	-0.01188795
153	0x3e8ac048	0.27099824
154	0x3e84aed4	0.25914633
155	0x3e82bd02	0.25534827
156	0x3e669fd9	0.22521915
157	0x3c99dff0	0.01878354
158	0xbcf79df3	-0.030226683
159	0xbd924cda	-0.071435645
160	0xbbd042e8	-0.006355632
161	0xba130427	-0.0005608224
162	0x800497b9	-4.2177e-40
163	0x8003d6b0	-3.52522e-40
164	0x0002b077	2.46975e-40
165	0x0001d3ad	1.6777e-40
166	0x000523fa	4.72083e-40
167	0x000406f9	3.69843e-40
168	0x8001cea9	-1.65971e-40
169	0x0001ffb2	1.83562e-40
170	0x8002a472	-2.42663e-40
171	0x0006cbed	6.24168e-40
172	0x00042060	3.78956e-40
173	0x0003b907	3.41882e-40
174	0x00034515	3.00288e-40
175	0x0002cee9	2.57896e-40
176	0x80018b8b	-1.41894e-40
177	0x80035e29	-3.09285e-40
178	0x800291bf	-2.35955e-40
179	0x8004e5b2	-4.49741e-40
180	0x00053c0c	4.80718e-40
181	0x0003ed13	3.60553e-40
182	0x80035ff1	-3.09924e-40
183	0x80005001	-2.87e-41
184	0x80031ad6	-2.85133e-40
185	0x8002d893	-2.61363e-40
186	0x00037bb5	3.19884e-40
187	0x0005c2f6	5.29116e-40
188	0x0004b7de	4.33301e-40
189	0x3e52520c	0.20539111
190	0x3e422549	0.18959536
191	0x3e54a1d9	0.20764865
192	0x3e80d610	0.25163317
193	0x3c9e4d88	0.01932408
194	0xbc1ab966	-0.0094436165
195	0xbd5974e1	-0.05308998
196	0x3c3abc17	0.011397383
197	0x3c38619b	0.01125374
198	0x337efc2e	5.936834e-08
199	0x31ebf6bf	6.867452e-09
200	0xb2b478c3	-2.1009674e-08
201	0x32294018	9.851668e-09
202	0xb3443334	-4.5681375e-08
203	0xb3ce040b	-9.593358e-08
204	0x33d39f9f	9.854488e-08
205	0xb3d83a46	-1.0068884e-07
206	0xb38f3ece	-6.6703805e-08
207	0x80019628	-1.45701e-40
208	0x80059f70	-5.16373e-40
209	0x0000548f	3.0334e-41
210	0x80050351	-4.60367e-40
211	0x80055e45	-4.92995e-40
212	0x0001c2f2	1.61769e-40
213	0x000417e5	3.75914e-40
214	0x0004d0c7	4.42237e-40
215	0x80021b08	-1.93368e-40
216	0x000498b6	4.22124e-40
217	0x0005a21b	5.1733e-40
218	0x0004373f	3.8716e-40
219	0x00053081	4.76577e-40
220	0x0002deb0	2.63556e-40
221	0x8001bdd3	-1.59932e-40
222	0x80042ee0	-3.84158e-40
223	0x00039e70	3.32343e-40
224	0x80038abc	-3.25275e-40
225	0x8002a05d	-2.41198e-40
226	0x800e0e4c	-1.290826e-39
227	0x800172e9	-1.33057e-40
228	0x0003594c	3.0754e-40
229	0x00027d47	2.28612e-40
230	0x00033fa1	2.98332e-40
231	0x0001a2d1	1.50243e-40
232	0x8000e9d2	-8.3879e-41
233	0x00030f8a	2.81081e-40
234	0x37d9c4a0	2.5959976e-05
235	0x36c77141	5.9438466e-06
236	0xb83e3b2f	-4.535465e-05
237	0x35585d8c	8.06024e-07
238	0x3673c969	3.6327058e-06
239	0xb5ae8c97	-1.3004927e-06
240	0xb8b71659	-8.7302826e-05
241	0xb45a5061	-2.0332074e-07
242	0xb6d4fdd4	-6.347642e-06
243	0x8005b7de	-5.25137e-40
244	0x00051369	4.6614e-40
245	0x80029ad3	-2.39211e-40
246	0x8001d80f	-1.69343e-40
247	0x0004494a	3.93633e-40
248	0x00038307	3.2251e-40
249	0x0004d69a	4.44327e-40
250	0x00033ec6	2.98025e-40
251	0x000535bc	4.78454e-40
252	0x80059d11	-5.15522e-40
253	0x0002c9ba	2.56037e-40
254	0x800302a2	-2.76451e-40
255	0x000147a5	1.17537e-40

fc1.bias f4 [128]
0	0xa7590227	-3.0115966e-15
1	0xa92d3d1e	-3.8466727e-14
2	0xb8a966f5	-8.077725e-05
3	0x36b5eb08	5.4215816e-06
4	0xb81e389e	-3.7722864e-05
5	0xb5345214	-6.7174665e-07
6	0x3397f74c	7.0764685e-08
7	0x2a57c178	1.9162959e-13
8	0xa782598c	-3.6179335e-15
9	0x000dd782	1.271171e-39
10	0xb7b1aed7	-2.118146e-05
11	0x365ef7ce	3.322482e-06
12	0x2cb2c636	5.08107e-12
13	0xb798469a	-1.8152688e-05
14	0x36da76c0	6.5107306e-06
15	0xaca5ade5	-4.7088882e-12
16	0xb7d925fa	-2.58861e-05
17	0x3774fb5c	1.46020575e-05
18	0x34194a2e	1.4276222e-07
19	0xac2a4b44	-2.4200234e-12
20	0x228089c4	3.4840335e-18
21	0xb6d74137	-6.4150913e-06
22	0x2cc8e4b8	5.7097348e-12
23	0xaa038c1c	-1.1683748e-13
24	0xa08f283c	-2.4251767e-19
25	0x29b31a14	7.953721e-14
26	0x2d3b5ec2	1.065076e-11
27	0xaea7ed20	-7.6364026e-11
28	0x9ce99b24	-1.545875e-21
29	0xae4b26d8	-4.6191356e-11
30	0x2a69855a	2.0740823e-13
31	0x1e17b098	8.030392e-21
32	0x35b5cb80	1.3544777e-06
33	0xb7aa72b8	-2.0319e-05
34	0xb28ed582	-1.6628068e-08
35	0xb781669d	-1.5425781e-05
36	0xb860e34c	-5.361745e-05
37	0x35ad7c80	1.2925739e-06
38	0x3611f4d6	2.1749197e-06
39	0x2af71c98	4.3895855e-13
40	0xb5060a69	-4.993404e-07
41	0x1e6f2f4a	1.2662334e-20
42	0xa9780295	-5.50693e-14
43	0x3177b24f	3.6044587e-09
44	0x2dfec6ac	2.8964685e-11
45	0xb7fd9140	-3.0227588e-05
46	0x37b89842	2.200541e-05
47	0x387a2b1a	5.9644786e-05
48	0xb29e1c18	-1.8406396e-08
49	0xae99d6d8	-6.9957984e-11
50	0xa53e14be	-1.6486901e-16
51	0x800aa1eb	-9.7644e-40
52	0x3702a8a5	7.787869e-06
53	0x3767ac17	1.3808741e-05
54	0xac12f726	-2.0885043e-12
55	0x1cf9ef90	1.6539363e-21
56	0x38198e62	3.6610647e-05
57	0x384af781	4.839106e-05
58	0xb7b01a8a	-2.0993193e-05
59	0x379040a4	1.7196238e-05
60	0x295339ea	4.6901644e-14
61	0x23b67cc6	1.9785323e-17
62	0xa48c6c11	-6.089839e-17
63	0xb4b69730	-3.4010145e-07
64	0xa8c79b3e	-2.2160764e-14
65	0x2e9b52e2	7.063307e-11
66	0xb823bdc0	-3.9038947e-05
67	0xb546ca00	-7.4054697e-07
68	0x81b63fab	-6.69476e-38
69	0x379797a6	1.807122e-05
70	0xb02111c3	-5.85967e-10
71	0x1beca54e	3.914975e-22
72	0xadad53b4	-1.9704995e-11
73	0xb6bca6b8	-5.622245e-06
74	0x1c19a201	5.083284e-22
75	0xb79590ce	-1.7829614e-05
76	0x320c988a	8.183756e-09
77	0xb7ee74c5	-2.8426186e-05
78	0x361d5c42	2.3448524e-06
79	0xafa7d7da	-3.0530495e-10
80	0x3839d56a	4.4306194e-05
81	0x37ad00bc	2.0623549e-05
82	0xb7a933c2	-2.0170472e-05
83	0x312e2649	2.5342095e-09
84	0xb0808e27	-9.353628e-10
85	0x36152806	2.2226027e-06
86	0x010361c4	2.4131043e-38
87	0x367e11ff	3.7859425e-06
88	0x36d2f0f8	6.28654e-06
89	0xb8152496	-3.555844e-05
90	0x365233d2	3.1322602e-06
91	0xac849ed6	-3.7693e-12
92	0x1c8892b6	9.037649e-22
93	0xb62d3bc8	-2.5813806e-06
94	0xb517bcb0	-5.652646e-07
95	0xa5fba3d2	-4.3652568e-16
96	0xb70f9e7c	-8.560364e-06
97	0x37436ec1	1.1648693e-05
98	0x3752d2f2	1.256609e-05
99	0xb8137134	-3.515296e-05
100	0xb63e0010	-2.8312243e-06
101	0x0226d670	1.2257294e-37
102	0xb1a24c4c	-4.7234945e-09
103	0x211956ce	5.19533e-19
104	0x36d87f46	6.452118e-06
105	0x3509c29e	5.131968e-07
106	0x9eb91e57	-1.9600185e-20
107	0xa730c039	-2.452911e-15
108	0x1f1d56a5	3.3317714e-20
109	0xb74fc54c	-1.2384098e-05
110	0x2330f272	9.592319e-18
111	0x2a06e2c0	1.198026e-13
112	0xb6b3d44a	-5.3593294e-06
113	0x2c85427f	3.78747e-12
114	0xb6150261	-2.2204115e-06
115	0xb71931f4	-9.131141e-06
116	0x0b04544d	2.5485696e-32
117	0x306edce0	8.689778e-10
118	0xaba4a7e9	-1.1699505e-12
119	0xb19cb6f2	-4.560996e-09
120	0x3781ba2a	1.5464688e-05
121	0xa7a860cc	-4.6734314e-15
122	0x9e99a8c4	-1.6269305e-20
123	0x2fc45eda	3.5719588e-10
124	0xb811949f	-3.4709108e-05
125	0x336971ff	5.435322e-08
126	0x2f7763ee	2.2500021e-10
127	0x2be0bd40	1.5968685e-12

bn1.weight f4 [128]
0	0x99437c94	-1.0106422e-23
1	0x0005c6a4	5.30436e-40
2	0x3f01168a	0.50425017
3	0x3e991dca	0.2990554
4	0x3eef2775	0.4670979
5	0x367313dd	3.6221384e-06
6	0x0003dc86	3.54615e-40
7	0x00047503	4.09318e-40
8	0x2dd08dd6	2.370985e-11
9	0x0009960b	8.80345e-40
10	0x378f415e	1.7077367e-05
11	0x3d28ba3f	0.041193243
12	0x00044e22	3.95371e-40
13	0x0003327e	2.9362e-40
14	0x3f099231	0.53738695
15	0x00035939	3.07514e-40
16	0x3f5063eb	0.8140246
17	0x3f2048b4	0.62610936
18	0x000448a6	3.93403e-40
19	0x00045f40	4.01511e-40
20	0x00045314	3.97145e-40
21	0x3f0527eb	0.52014035
22	0xb90301ba	-0.00012493777
23	0x000491d2	4.19652e-40
24	0x0004a92e	4.28032e-40
25	0x0004ceb0	4.41487e-40
26	0x38a6331f	7.925019e-05
27	0x00058ca7	5.09634e-40
28	0x0005b3e7	5.23714e-40
29	0xb97d8755	-0.00024178375
30	0x0004c550	4.38124e-40
31	0x000490ee	4.19333e-40
32	0x3eb223d5	0.34792963
33	0x3f0b4f1f	0.54417604
34	0x0004343c	3.8608e-40
35	0x3f1e4089	0.6181722
36	0x3eceb626	0.40373343
37	0x0004ae12	4.29787e-40
38	0xbabcd499	-0.0014406621
39	0x0002471f	2.09184e-40
40	0x0004221e	3.79581e-40
41	0x800653c7	-5.81067e-40
42	0x0006689a	5.88537e-40
43	0x00045373	3.97278e-40
44	0x121ce5b0	4.950803e-28
45	0x3ef8ac2d	0.4856886
46	0x3f342472	0.7036811
47	0xb3d15609	-9.7479706e-08
48	0xbb6a4133	-0.0035744428
49	0x0004d883	4.45012e-40
50	0x18fc9275	6.5288357e-24
51	0x80057776	-5.02032e-40
52	0xbb0f847f	-0.0021899042
53	0x3e3dcace	0.18534395
54	0x00044938	3.93608e-40
55	0x000407ef	3.70188e-40
56	0x3ebaa4b8	0.36453795
57	0x3eba2fca	0.36364585
58	0x3ef3d50c	0.4762348
59	0x3ec9f223	0.39442548
60	0x00049d1a	4.237e-40
61	0x00042d40	3.83575e-40
62	0x00046ed8	4.07105e-40
63	0x3d2c647f	0.042088028
64	0x0004e057	4.4782e-40
65	0x0003f1bf	3.62229e-40
66	0x3f1a23fa	0.60211146
67	0x3f0d042a	0.5508448
68	0x000445ee	3.92428e-40
69	0x3f3a02bb	0.72660416
70	0x8c400b7c	-1.4794598e-31
71	0x00060254	5.51848e-40
72	0x0003853a	3.23299e-40
73	0x3f1c3aa6	0.6102699
74	0x0004164b	3.75339e-40
75	0x3ef2fc97	0.47458336
76	0x14f738c3	2.4963015e-26
77	0x3e7ac7db	0.24490301
78	0x3c71392d	0.014723104
79	0xba1facf1	-0.0006091139
80	0x3f243c57	0.6415457
81	0x3eb1aa0f	0.34700057
82	0x3ec6c91b	0.38825306
83	0x0004de73	4.47142e-40
84	0x000424dd	3.80566e-40
85	0x000487fd	4.16125e-40
86	0x8002eed4	-2.69346e-40
87	0x3e2771b7	0.16351973
88	0x3e0b9b3d	0.13633437
89	0x3f2ae47d	0.66754895
90	0x0004acd0	4.29335e-40
91	0x0004cff5	4.41943e-40
92	0x89b51ef4	-4.3603273e-33
93	0x3d72b97c	0.059258923
94	0x00044304	3.91383e-40
95	0x0003ec51	3.60281e-40
96	0x3e31296a	0.17300954
97	0x3e27d2a5	0.16388948
98	0x3c358ffb	0.011081691
99	0x3f2111fb	0.6291806
100	0x3c0b2aba	0.0084940735
101	0x00049d68	4.23809e-40
102	0x00046282	4.0268e-40
103	0x85a62fa2	-1.5628063e-35
104	0x3e28b556	0.16475424
105	0xb8dd4b4d	-0.00010552127
106	0x00080b67	7.38774e-40
107	0x00039b5f	3.31243e-40
108	0x0004d657	4.44233e-40
109	0x3d5b61c1	0.053560022
110	0x00057ef9	5.04727e-40
111	0x00048688	4.15603e-40
112	0x3ed83a82	0.42232138
113	0x2e372a6c	4.164706e-11
114	0x3e148a41	0.14505865
115	0x00049ea6	4.24254e-40
116	0x0005089a	4.62263e-40
117	0x37414180	1.1518947e-05
118	0x00045d28	4.0076e-40
119	0x0005f0f1	5.45611e-40
120	0x3f118f5e	0.56859386
121	0x10c63aa6	7.818759e-29
122	0x047a0140	2.9387933e-36
123	0x0004bf50	4.35972e-40
124	0x3eb22646	0.34794825
125	0x00049688	4.21342e-40
126	0x0004c407	4.37663e-40
127	0x0003b755	3.41274e-40

bn1.bias f4 [128]
0	0xb68b497d	-4.151078e-06
1	0x800225c7	-1.97223e-40
2	0x3dd7c43f	0.10535478
3	0x3da685f2	0.08131017
4	0x3dd3c1a2	0.10339667
5	0xb7d45824	-2.5313413e-05
6	0x80046360	-4.02991e-40
7	0x8006b260	-6.15002e-40
8	0xa80a89ff	-7.690462e-15
9	0x8006a8d7	-6.11581e-40
10	0xba3f5425	-0.000729861
11	0x3cb3a7f0	0.021930665
12	0x8002138c	-1.90683e-40
13	0x8004c4de	-4.37965e-40
14	0x3dc248cd	0.09486542
15	0x8004661a	-4.03969e-40
16	0x3de652d5	0.11246268
17	0x3e00b3de	0.12568614
18	0x800112a6	-9.8525e-41
19	0x800b6aed	-1.048548e-39
20	0x80052fba	-4.76299e-40
21	0x3da4761f	0.08030342
22	0xb9cf957e	-0.00039593497
23	0x8000d87c	-7.766e-41
24	0x800067b5	-3.7203e-41
25	0x80037381	-3.16941e-40
26	0xb98dfbf4	-0.00027081335
27	0x80061d0d	-5.61434e-40
28	0x8005c069	-5.28201e-40
29	0xbabd91fe	-0.0014463065
30	0x80088551	-7.82509e-40
31	0x800b3a94	-1.031204e-39
32	0x3d8d0f83	0.06887724
33	0x3dd4fdf2	0.10399999
34	0x800217f1	-1.9226e-40
35	0x3de58fff	0.11209106
36	0x3db3c454	0.08777681
37	0x800a3de2	-9.40554e-40
38	0x3b701529	0.0036633706
39	0x9522ddfe	-3.289076e-26
40	0x800732fb	-6.61137e-40
41	0x80055906	-4.91113e-40
42	0x910a083f	-1.0888822e-28
43	0x8003e152	-3.56336e-40
44	0x860de5c1	-2.668795e-35
45	0x3dab324a	0.08359201
46	0x3de12400	0.109931946
47	0xb28be27a	-1.628472e-08
48	0xbbfe9ed7	-0.0077704
49	0x8003d476	-3.51723e-40
50	0xb67d2810	-3.7723257e-06
51	0x8001b373	-1.5621e-40
52	0x3c4227fe	0.011850355
53	0xbe337afd	-0.17527385
54	0x8001ae8a	-1.54448e-40
55	0x80088580	-7.82575e-40
56	0x3da1e5c5	0.07905153
57	0x3da775f4	0.08176795
58	0x3daaed53	0.08346047
59	0x3dc896c1	0.09794379
60	0x80006565	-3.6374e-41
61	0x8001c6e3	-1.63183e-40
62	0x80040364	-3.68558e-40
63	0x3b1afa3c	0.0023647686
64	0x8c0334ea	-1.0107796e-31
65	0x8000d5d7	-7.6711e-41
66	0x3db000aa	0.08593877
67	0x3dda0e18	0.106472194
68	0x8001b8c1	-1.58113e-40
69	0x3e0119b1	0.12607457
70	0xa39af84a	-1.6801868e-17
71	0x8003dd30	-3.54854e-40
72	0x80043a47	-3.88248e-40
73	0x3de94a91	0.113911755
74	0x8005c959	-5.31407e-40
75	0x3db3d15c	0.087801665
76	0x8d0352e6	-4.0467277e-31
77	0x3d89952f	0.06717908
78	0x3caf6e28	0.021414831
79	0xba0612f4	-0.00051145186
80	0x3de92063	0.113831304
81	0x3d9b2f9d	0.07577441
82	0x3dd56537	0.10419696
83	0x07c4aa1c	2.9590784e-34
84	0x800604bc	-5.52711e-40
85	0x8002bb87	-2.50943e-40
86	0x96f4b618	-3.9535243e-25
87	0xbe39f151	-0.18158461
88	0xbdb22620	-0.08698678
89	0x3de70241	0.11279727
90	0x800007c4	-2.786e-42
91	0x80026869	-2.21126e-40
92	0xb2e4b3ce	-2.6624459e-08
93	0xbda1768e	-0.07883941
94	0x8000416e	-2.3472e-41
95	0x80053dc2	-4.81332e-40
96	0xbe27b76a	-0.1637856
97	0xbe2f909f	-0.17145012
98	0x3c70a679	0.014688128
99	0x3dc80270	0.0976609
100	0xbc7be363	-0.015374037
101	0x8007ac42	-7.04643e-40
102	0x80008561	-4.7847e-41
103	0x809f29e8	-1.4616877e-38
104	0xbe3d029d	-0.18458028
105	0xb9ca1358	-0.00038542855
106	0x9a911963	-6.001161e-23
107	0x80035ba1	-3.08377e-40
108	0x8004d6e3	-4.44429e-40
109	0xbd87ec50	-0.0663687
110	0x8001f6af	-1.80329e-40
111	0x800209dd	-1.87209e-40
112	0x3db580e6	0.08862476
113	0xa626be37	-5.785061e-16
114	0xbe222e6c	-0.15838021
115	0x800b3f56	-1.032911e-39
116	0x8003c7fc	-3.47247e-40
117	0xb4b9650a	-3.453245e-07
118	0x80064d0e	-5.78655e-40
119	0x800a2198	-9.30406e-40
120	0x3dd53307	0.10410123
121	0xa9b12247	-7.866325e-14
122	0xabf43a32	-1.7353395e-12
123	0x8006820f	-5.97669e-40
124	0x3ddd4dfc	0.1080589
125	0x8009eb43	-9.10915e-40
126	0x80046fa9	-4.07398e-40
127	0x800017f6	-8.596e-42

bn1.running_mean f4 [128]
0	0x2523ed7c	1.4218459e-16
1	0x26fe77ae	1.765723e-15
2	0x3bdc9901	0.0067321067
3	0x3bcdb429	0.0062775803
4	0x3be491fb	0.00697541
5	0x351d5a2e	5.8618286e-07
6	0xb161c435	-3.285334e-09
7	0xa884897d	-1.471457e-14
8	0x254a76d2	1.7560965e-16
9	0x000e1792	1.294152e-39
10	0x36325ba2	2.6577404e-06
11	0x3b10d908	0.0022102017
12	0xaaae373f	-3.0946944e-13
13	0x352d3528	6.4524875e-07
14	0xbbe9412d	-0.0071183653
15	0x2a88869f	2.4251865e-13
16	0xbc117960	-0.008879036
17	0x3c0530c2	0.008129301
18	0xb1fd9bb8	-7.3809723e-09
19	0x2a02c20c	1.1613643e-13
20	0xa083f496	-2.2354117e-19
21	0x3bc6bb8b	0.0060648373
22	0x2ff79f64	4.5042292e-10
23	0x27bc462a	5.2256554e-15
24	0x1e3feae0	1.0160027e-20
25	0xa79d99c9	-4.374299e-15
26	0x36757d9a	3.6580955e-06
27	0x2d1a5c3e	8.774368e-12
28	0x1ac705a3	8.231358e-23
29	0xb5c4e7a3	-1.4670553e-06
30	0xa8305910	-9.789275e-15
31	0x9c14e2eb	-4.9262377e-22
32	0xbbcf806b	-0.0063324473
33	0xbbd19962	-0.0063964585
34	0x30432665	7.099515e-10
35	0x3bdab7ce	0.0066747433
36	0xbbc6969c	-0.0060604345
37	0x344837e8	1.864679e-07
38	0xba28f74c	-0.00064455415
39	0xa9021511	-2.888407e-14
40	0x3305b552	3.1131385e-08
41	0x9c385b04	-6.099813e-22
42	0x274558e0	2.7387421e-15
43	0xaeeb0acd	-1.06884813e-10
44	0xaba7e737	-1.1930239e-12
45	0xbbbd92a4	-0.005785303
46	0x3c09a345	0.008400743
47	0xb6479238	-2.9738421e-06
48	0x378d1150	1.6816572e-05
49	0x2da62442	1.8888117e-11
50	0x235cd414	1.1971133e-17
51	0x800ab68a	-9.83838e-40
52	0x396f3f62	0.00022816428
53	0xba37d738	-0.0007012966
54	0x2939d154	4.1259815e-14
55	0x9b15ce8c	-1.239173e-22
56	0xbbbb324d	-0.0057127834
57	0xbbd0bcf8	-0.006370183
58	0xbbbc1b23	-0.0057405396
59	0x3bdf7be1	0.0068201874
60	0xa7236781	-2.2676904e-15
61	0xa1877f04	-9.181577e-19
62	0x2250b316	2.8284064e-18
63	0x3b3dee85	0.002898128
64	0x269d4170	1.09118e-15
65	0x2c7bc150	3.5776555e-12
66	0xbbe8e19f	-0.0071069743
67	0xbbd229fc	-0.0064136963
68	0x002194b3	3.083915e-39
69	0x3bf5dc64	0.0075030793
70	0x2de92472	2.6505218e-11
71	0x99d3a866	-2.1884904e-23
72	0x2c280f2e	2.3882662e-12
73	0x3bf18473	0.0073705255
74	0x99ed14e2	-2.451366e-23
75	0xbbbf14f3	-0.0058313548
76	0xafcfaa1c	-3.777395e-10
77	0xbb79b6fe	-0.0038103457
78	0x3b15ad9b	0.0022839073
79	0x31b582c1	5.2826583e-09
80	0x3bf99d0e	0.0076175993
81	0x3bc7ff45	0.0061034285
82	0xbbe4c435	-0.0069813975
83	0xaf138fb6	-1.3420628e-10
84	0x2e70935b	5.470056e-11
85	0xb40364c0	-1.2236978e-07
86	0x000b2095	1.021879e-39
87	0x3b4d3799	0.0031313656
88	0xbb6eebfd	-0.0036456578
89	0x3c061d4b	0.008185695
90	0xb41b79ac	-1.4479764e-07
91	0x2a5eb710	1.9781073e-13
92	0x9a210ef5	-3.3306102e-23
93	0xbb4cc7b8	-0.0031246971
94	0x322d623e	1.0092263e-08
95	0x23baaa44	2.023827e-17
96	0x3bbae013	0.0057029813
97	0xbbf4ae15	-0.0074670413
98	0x3a1274f6	0.00055868865
99	0xbbe39004	-0.0069446582
100	0xb906a8c4	-0.00012842106
101	0x804a81fd	-6.842458e-39
102	0x2f6ed090	2.172007e-10
103	0x9ef1c8b8	-2.5599883e-20
104	0x3bc8ecec	0.006131759
105	0x356b17af	8.7578786e-07
106	0x1ca6a624	1.1027905e-21
107	0xa409a4e0	-2.9846794e-17
108	0x9cf936e6	-1.6491629e-21
109	0xbb3d1425	-0.0028851118
110	0xa11fe7cf	-5.417809e-19
111	0x2a636d30	2.0199532e-13
112	0xbbc0f361	-0.005888388
113	0xaa8016e8	-2.2753262e-13
114	0xbac0d1da	-0.0014710978
115	0x34cf2e06	3.859024e-07
116	0x88da4875	-1.3137432e-33
117	0xae54ab36	-4.8355285e-11
118	0x29830fa2	5.8202805e-14
119	0x2fc75416	3.6257636e-10
120	0x3be0f243	0.0068648173
121	0x25ad883b	3.010303e-16
122	0x1c7e4ba0	8.4139293e-22
123	0xadbac8ee	-2.1234983e-11
124	0x3bbe669e	0.0058105728
125	0xb12dfa2a	-2.5317015e-09
126	0xad76bd5a	-1.40255255e-11
127	0xa9ac3e02	-7.649091e-14

bn1.running_var f4 [128]
0	0x0000004b	1.05e-43
1	0x00001b3f	9.774e-42
2	0x3eb4241e	0.35183805
3	0x3e4b8cee	0.19877979
4	0x3ea1bb20	0.31588078
5	0x304c7546	7.4381423e-10
6	0x101e20a1	3.1185142e-29
7	0x02b62cb8	2.6768164e-37
8	0x000019d6	9.268e-42
9	0x00000004	6e-45
10	0x33415e9a	4.5022354e-08
11	0x3c9d6b61	0.019216241
12	0x06446bef	3.69428e-35
13	0x1a78e0a3	5.1466658e-23
14	0x3eb5f08f	0.35535094
15	0x05d08076	1.9607415e-35
16	0x3eff92f1	0.49916795
17	0x3eeb6b65	0.45980373
18	0x141ba113	7.8572665e-27
19	0x01a7bd50	6.161776e-38
20	0x00000004	6e-45
21	0x3eb7f938	0.35932326
22	0x298dcf01	6.297567e-14
23	0x00e1c389	2.0733131e-38
24	0x00000004	6e-45
25	0x00417a82	6.013255e-39
26	0x324cd93f	1.1923759e-08
27	0x0c266ac5	1.2820305e-31
28	0x00000004	6e-45
29	0x332abe0e	3.9754063e-08
30	0x0005c51c	5.29887e-40
31	0x00000004	6e-45
32	0x3e698d29	0.22807755
33	0x3ec641bd	0.3872203
34	0x1168a3c8	1.8352042e-28
35	0x3ee5f04d	0.44909897
36	0x3e75fbe5	0.24021871
37	0x1a3c4a0c	3.8937303e-23
38	0x3a24be8f	0.0006284499
39	0x032dc8be	5.107057e-37
40	0x1618ffa9	1.2359134e-25
41	0x00000004	6e-45
42	0x0026a9b3	3.550625e-39
43	0x0fe86ea8	2.291959e-29
44	0x0915a828	1.801429e-33
45	0x3e9c632c	0.30544412
46	0x3eff99db	0.4992207
47	0x1a415404	3.9979332e-23
48	0x3a301ca7	0.0006718137
49	0x0d89a28c	8.482409e-31
50	0x00000055	1.19e-43
51	0x00000004	6e-45
52	0x3ab29d31	0.0013627169
53	0x3d67eadb	0.05662046
54	0x0676292f	4.6297715e-35
55	0x00000004	6e-45
56	0x3e633a7a	0.22190276
57	0x3e804435	0.25052038
58	0x3e9dbc8b	0.3080791
59	0x3e878a72	0.26472813
60	0x0023a8f8	3.274857e-39
61	0x00000004	6e-45
62	0x00000004	6e-45
63	0x3cc99c52	0.024610672
64	0x00001e0b	1.0777e-41
65	0x0c47c368	1.5389205e-31
66	0x3eaa7b5a	0.33297235
67	0x3eafda1e	0.34346098
68	0x00000004	6e-45
69	0x3eea95d4	0.45817435
70	0x094a6329	2.436149e-33
71	0x00000004	6e-45
72	0x09bad105	4.4974432e-33
73	0x3edb4a99	0.4283035
74	0x00000004	6e-45
75	0x3ea157c3	0.3151227
76	0x106e8565	4.7039987e-29
77	0x3dfbc22e	0.12292896
78	0x3bf57d36	0.007491733
79	0x2c147651	2.1097744e-12
80	0x3ecc59ab	0.3991216
81	0x3e515113	0.20441084
82	0x3e8210b7	0.25403377
83	0x0eaafc1b	4.2151004e-30
84	0x0d6395cc	7.0130087e-31
85	0x17b9e9d5	1.2014372e-24
86	0x00000004	6e-45
87	0x3d4e3047	0.05033901
88	0x3d5cd22d	0.053911377
89	0x3eea3cc0	0.45749474
90	0x15906a43	5.832879e-26
91	0x057c99bb	1.1877219e-35
92	0x00000004	6e-45
93	0x3c837d51	0.016050966
94	0x172e7413	5.636894e-25
95	0x00000004	6e-45
96	0x3d7e74cc	0.062123105
97	0x3d704eae	0.058668785
98	0x3ac02ce3	0.0014661815
99	0x3ee4481e	0.4458627
100	0x37dd5652	2.6385449e-05
101	0x00000004	6e-45
102	0x0fc0b0ff	1.9000838e-29
103	0x00000004	6e-45
104	0x3d831996	0.064013645
105	0x311cb74b	2.2805178e-09
106	0x00000004	6e-45
107	0x00058fd0	5.10768e-40
108	0x00000004	6e-45
109	0x3bc4768a	0.0059955763
110	0x00000004	6e-45
111	0x0738353e	1.3858268e-34
112	0x3e83d807	0.25750753
113	0x05b7a257	1.7268872e-35
114	0x3d3c5071	0.045975152
115	0x19a6404e	1.718997e-23
116	0x00000004	6e-45
117	0x1d105de4	1.9106782e-21
118	0x0408f95f	1.6101229e-36
119	0x10660227	4.536116e-29
120	0x3ecf6b75	0.4051167
121	0x000070cc	4.0464e-41
122	0x00000004	6e-45
123	0x0be93625	8.9829803e-32
124	0x3e717c9e	0.23582694
125	0x0f8a279e	1.362311e-29
126	0x0b91a414	5.6098846e-32
127	0x01520747	3.857613e-38

fc2.weight f4 [64, 128]
0	0x35ae5f2e	1.2991711e-06
1	0x800810ac	-7.40665e-40
2	0xbdac104a	-0.084015444
3	0xbd4283d7	-0.047489014
4	0xbdacdb5b	-0.08440276
5	0xb49c2af0	-2.9088505e-07
6	0x000a28ff	9.33062e-40
7	0x00055609	4.90041e-40
8	0x260c832f	4.8750044e-16
9	0x800e05a3	-1.287719e-39
10	0x36819f29	3.8630283e-06
11	0x3a9f4a21	0.001215283
12	0x800a3b77	-9.39687e-40
13	0x0005b72b	5.24886e-40
14	0x3d2e1a9b	0.04250584
15	0x0002bf00	2.52189e-40
16	0x3c5a6973	0.013330805
17	0xbdc77d66	-0.09740715
18	0x80002556	-1.3394e-41
19	0x800424f7	-3.80602e-40
20	0x000896ef	7.88829e-40
21	0xbd94d334	-0.07266846
22	0x364012e4	2.8621225e-06
23	0x8006256f	-5.64442e-40
24	0x00088609	7.82767e-40
25	0x0002a142	2.4152e-40
26	0xb66e3aa9	-3.5498908e-06
27	0x80001f44	-1.1216e-41
28	0x000443f9	3.91726e-40
29	0xb73fc5a8	-1.1430508e-05
30	0x00084f2e	7.63088e-40
31	0x80050509	-4.60984e-40
32	0x3d19b555	0.037526447
33	0x3cbaa62e	0.022784319
34	0x8005567e	-4.90205e-40
35	0xbdc79c1b	-0.09746572
36	0x3cb2d54a	0.02183022
37	0x0006d1f1	6.26326e-40
38	0xba42e686	-0.00074348634
39	0x93039dbf	-1.66123e-27
40	0x0003ae86	3.38114e-40
41	0x0009222e	8.38781e-40
42	0x8f9c6b59	-1.5424136e-29
43	0x00023d10	2.05576e-40
44	0x03d4838d	1.2490443e-36
45	0x3d13ff4b	0.03613214
46	0xbdd80478	-0.10547727
47	0x2e1c2739	3.550513e-11
48	0x37865fd5	1.601867e-05
49	0x8003dec1	-3.55416e-40
50	0xb406b662	-1.2546073e-07
51	0x000bbfc1	1.078979e-39
52	0x3a44a128	0.0007500821
53	0x3d40ba84	0.047052875
54	0x80028ba8	-2.3377e-40
55	0x000b6ec7	1.04993e-39
56	0x3c8ba970	0.017048568
57	0x3cf9b780	0.030483007
58	0x3c876708	0.016528621
59	0xbd67cfc2	-0.056594618
60	0x0009abba	8.88123e-40
61	0x8005db25	-5.37792e-40
62	0x800116d0	-1.00019e-40
63	0xbbd9f18b	-0.0066511086
64	0x89471ef1	-2.3968302e-33
65	0x80024d3c	-2.11377e-40
66	0x3c832475	0.016008595
67	0x3d3517e2	0.04421223
68	0x0002bb48	2.50855e-40
69	0xbdd5d6a0	-0.10441327
70	0xa0ba1676	-3.152449e-19
71	0x800bde84	-1.090014e-39
72	0x0001a9da	1.52767e-40
73	0xbdbe744a	-0.09299524
74	0x000053aa	3.0013e-41
75	0x3ccf46d8	0.025302336
76	0x0a9157c7	1.399601e-32
77	0x3c9ae580	0.018908262
78	0x39cd4142	0.00039149268
79	0x365ecdd0	3.3200376e-06
80	0xbdc60700	-0.09669304
81	0xbd7a75ef	-0.061147626
82	0x3d26c3e5	0.040714163
83	0x882ec47c	-5.2592187e-34
84	0x00043f5b	3.9007e-40
85	0x8000b5bf	-6.5198e-41
86	0x9515541a	-3.0156655e-26
87	0xbcc5a842	-0.024128083
88	0xbca118d1	-0.019665154
89	0xbdcfd5c2	-0.10148193
90	0x000a3ca4	9.40109e-40
91	0x8008ad61	-7.9688e-40
92	0xb08c4022	-1.0204568e-09
93	0x3b8f4fb2	0.004373514
94	0x0008343e	7.53425e-40
95	0x80015326	-1.21664e-40
96	0x3d576901	0.052590374
97	0x3d445daf	0.047940906
98	0x3b5c8bfd	0.0033652775
99	0x3d3eed80	0.046613216
100	0xb932e1e9	-0.00017059561
101	0x000cad9b	1.164304e-39
102	0x800549cd	-4.85652e-40
103	0x803a9171	-5.378633e-39
104	0xbcecec69	-0.028921323
105	0x36b612ab	5.426196e-06
106	0x9a31d3e0	-3.6773893e-23
107	0x00017361	1.33226e-40
108	0x00015049	1.20636e-40
109	0xbb981ced	-0.00464212
110	0x800dce79	-1.26793e-39
111	0x000772e4	6.84063e-40
112	0x3d0623b9	0.03274891
113	0x230c6819	7.611459e-18
114	0x3cd1fdde	0.025633749
115	0x0006d07b	6.25802e-40
116	0x000c36d6	1.121697e-39
117	0xb1a98cec	-4.9345683e-09
118	0x00001af9	9.676e-42
119	0x0009b459	8.91216e-40
120	0xbd8ddbf5	-0.06926719
121	0xa6133cd0	-5.1083286e-16
122	0x2abe1aa0	3.3769255e-13
123	0x000cc7c4	1.173688e-39
124	0xbd761484	-0.06007816
125	0x000bc4bd	1.080767e-39
126	0x8005178a	-4.67622e-40
127	0x8008f003	-8.20784e-40
128	0x00070284	6.43751e-40
129	0x0002934b	2.3651e-40
130	0x8002f8c9	-2.72918e-40
131	0x0002209e	1.95372e-40
132	0x0007b809	7.08868e-40
133	0x00009a82	5.5427e-41
134	0x0006ef60	6.36885e-40
135	0x0007abdf	7.04504e-40
136	0x8005343e	-4.77918e-40
137	0x00041fde	3.78774e-40
138	0x800e590f	-1.317645e-39
139	0x000628fc	5.65715e-40
140	0x8002acf2	-2.45712e-40
141	0x000d5714	1.225099e-39
142	0x000df5db	1.282058e-39
143	0x00010c1f	9.6184e-41
144	0x00093c4b	8.48149e-40
145	0x800d875a	-1.242416e-39
146	0x800a227c	-9.30726e-40
147	0x000610f0	5.57089e-40
148	0x0004adb1	4.29651e-40
149	0x800bd59b	-1.086818e-39
150	0x805160ea	-7.473441e-39
151	0x000bf889	1.099348e-39
152	0x0004a9c7	4.28247e-40
153	0x800a011b	-9.18752e-40
154	0x00015410	1.21991e-40
155	0x0004e0c1	4.47968e-40
156	0x8003de3c	-3.55229e-40
157	0x000a3388	9.36841e-40
158	0x800a543e	-9.48575e-40
159	0x000546e4	4.84608e-40
160	0x0000d7a9	7.7364e-41
161	0x000cbf70	1.170701e-39
162	0x000714b6	6.50278e-40
163	0x80056e6a	-4.98787e-40
164	0x8006dd7e	-6.3047e-40
165	0x8004ef6d	-4.53232e-40
166	0x80707794	-1.0328472e-38
167	0x000203f6	1.85092e-40
168	0x000844e7	7.59401e-40
169	0x000aaff6	9.81478e-40
170	0x80038fdd	-3.27115e-40
171	0x000bce97	1.084301e-39
172	0x8001646b	-1.27859e-40
173	0x0005f987	5.48691e-40
174	0x0001b083	1.55156e-40
175	0x80067d87	-5.96044e-40
176	0x80003571	-1.9171e-41
177	0x000e206e	1.29733e-39
178	0x000adad5	9.96857e-40
179	0x00045f34	4.01494e-40
180	0x00069c72	6.07135e-40
181	0x8000f631	-8.8317e-41
182	0x8007a79b	-7.02974e-40
183	0x000b52e1	1.039922e-39
184	0x800725a4	-6.56351e-40
185	0x80071fff	-6.54327e-40
186	0x8003ba49	-3.42333e-40
187	0x8000c9a1	-7.2331e-41
188	0x00040412	3.68802e-40
189	0x00028d76	2.34418e-40
190	0x00038b24	3.25421e-40
191	0x80054f0d	-4.87536e-40
192	0x0008824a	7.81423e-40
193	0x000d3db8	1.216002e-39
194	0x0006b5d5	6.16242e-40
195	0x8007e3c1	-7.24551e-40
196	0x8009b4bc	-8.91355e-40
197	0x000e0722	1.288256e-39
198	0x003ed1e8	5.769101e-39
199	0x0007b795	7.08705e-40
200	0x800735cf	-6.62151e-40
201	0x8006f33e	-6.38272e-40
202	0x000a8c38	9.68656e-40
203	0x800a2ad8	-9.33724e-40
204	0x0004db94	4.46112e-40
205	0x0004f69b	4.55807e-40
206	0x0003c8e0	3.47567e-40
207	0x00462b39	6.44399e-39
208	0x800064d8	-3.6176e-41
209	0x80034b8b	-3.02606e-40
210	0x80011656	-9.9848e-41
211	0x8008b3d0	-7.99189e-40
212	0x00020dcc	1.8862e-40
213	0x800092c2	-5.2647e-41
214	0x8045fc5d	-6.42718e-39
215	0x0009c380	8.96652e-40
216	0x0000f986	8.9512e-41
217	0x800a85ea	-9.66394e-40
218	0x80034e38	-3.03566e-40
219	0x000a2eb5	9.3511e-40
220	0x8003d1dd	-3.50791e-40
221	0x8023107e	-3.220159e-39
222	0x00096004	8.60963e-40
223	0x8002b737	-2.49396e-40
224	0x00015f15	1.25945e-40
225	0x8000b493	-6.4778e-41
226	0x00ba04ca	1.708312e-38
227	0x00010a35	9.5497e-41
228	0x004787d8	6.569052e-39
229	0x80000939	-3.308e-42
230	0x800970c2	-8.6697e-40
231	0x800814ab	-7.42098e-40
232	0x800881e2	-7.81277e-40
233	0x80044a14	-3.93916e-40
234	0x80077cc4	-6.87606e-40
235	0x000865ca	7.71199e-40
236	0x800d2180	-1.205879e-39
237	0x8001f8fa	-1.81151e-40
238	0x8005b744	-5.24921e-40
239	0x80016b40	-1.3031e-40
240	0x800515ab	-4.6695e-40
241	0x80094243	-8.5029e-40
242	0x800218ec	-1.92611e-40
243	0x800570d8	-4.99658e-40
244	0x00081da0	7.45311e-40
245	0x8005d424	-5.35279e-40
246	0x800a9e6f	-9.7519e-40
247	0x800947cc	-8.52275e-40
248	0x800377a6	-3.18428e-40
249	0x00073eed	6.65422e-40
250	0x8004352b	-3.86415e-40
251	0x000f18fc	1.386495e-39
252	0x0000a534	5.9264e-41
253	0x0006dfe3	6.31328e-40
254	0x0000db45	7.8659e-41
255	0x80085256	-7.6422e-40

fc2.bias f4 [64]
0	0x37c3f91b	2.336181e-05
1	0x28e391e8	2.526534e-14
2	0xb510be58	-5.3921167e-07
3	0xb71a7e75	-9.208558e-06
4	0xb655d730	-3.186473e-06
5	0x359c2864	1.1634661e-06
6	0x37e8f158	2.776894e-05
7	0x362561f4	2.4643932e-06
8	0x370ad275	8.274442e-06
9	0x379ba38a	1.8553594e-05
10	0xb5e55258	-1.7085795e-06
11	0x3305b9de	3.113552e-08
12	0x3781d8d2	1.5478963e-05
13	0xb6a598dc	-4.9351784e-06
14	0x3606cc20	2.0086372e-06
15	0x377148bc	1.4381654e-05
16	0xb7fba111	-2.9996534e-05
17	0x37e79e4a	2.7611055e-05
18	0x2a5f7d26	1.9849798e-13
19	0xb5dfa200	-1.6661943e-06
20	0xb7ddcd96	-2.6440986e-05
21	0x367d9070	3.7784012e-06
22	0xb5b7ec72	-1.3703377e-06
23	0xb67091f4	-3.5847743e-06
24	0x37b5a1b3	2.1652178e-05
25	0x378449c2	1.5769972e-05
26	0xb6cb1ccd	-6.0532243e-06
27	0x3530adae	6.5817846e-07
28	0xb704bfba	-7.912453e-06
29	0x2d95d438	1.7033583e-11
30	0x38242c48	3.9141887e-05
31	0xb7fc72d6	-3.0094216e-05
32	0x3784d292	1.583368e-05
33	0x37b9c395	2.2144794e-05
34	0xb85acf8b	-5.216854e-05
35	0x3703127a	7.81251e-06
36	0x337e88ac	5.9263286e-08
37	0x36161884	2.2366012e-06
38	0x379a62b2	1.840419e-05
39	0x32599066	1.2663895e-08
40	0x38761fab	5.8680464e-05
41	0xb792a754	-1.7482475e-05
42	0x35f8d440	1.8539213e-06
43	0xb4e5a570	-4.2774946e-07
44	0xb5980880	-1.1327356e-06
45	0xb4adb760	-3.2357184e-07
46	0x378b511d	1.6607863e-05
47	0x36fae848	7.4776217e-06
48	0x36a61aea	4.9503187e-06
49	0xb773a4c4	-1.4522291e-05
50	0x2f80dc1d	2.3439464e-10
51	0xb82c6f01	-4.1111376e-05
52	0xb73baa57	-1.1185729e-05
53	0xb6c07a84	-5.7363086e-06
54	0xb6ce8241	-6.154442e-06
55	0x388b0b21	6.6301094e-05
56	0x26965880	1.0432329e-15
57	0x37ff50cf	3.0435998e-05
58	0xb7ae14cf	-2.0752106e-05
59	0x37c6110a	2.3611374e-05
60	0x37b0d8c3	2.1081773e-05
61	0xb7cde4fc	-2.4544534e-05
62	0xb810012d	-3.433337e-05
63	0x2f85a8da	2.4312535e-10

bn2.weight f4 [64]
0	0x3e72cd98	0.2371124
1	0x800cc384	-1.172164e-39
2	0x8007ba67	-7.09717e-40
3	0x3e782372	0.24232271
4	0x3edb8243	0.4287282
5	0x3d6df575	0.058095414
6	0x3e718cb6	0.23588833
7	0x3c2adff9	0.010429376
8	0x3daaaa74	0.083332926
9	0x3e32d1ca	0.1746284
10	0x3dbefccd	0.09325562
11	0x3b5db776	0.0033831275
12	0x3e66ffb1	0.22558476
13	0x3ea14788	0.31499887
14	0x3e9c8d25	0.30576435
15	0x3e873c89	0.26413372
16	0x3e86f483	0.26358423
17	0x3e8df198	0.27723384
18	0x8004445d	-3.91866e-40
19	0x3ea31285	0.31850067
20	0x3e995b85	0.29952636
21	0x3e8ecda6	0.27891272
22	0x3df618ac	0.120164245
23	0x3ec49474	0.3839451
24	0x3e4e3bb0	0.20139956
25	0x3deca6cf	0.11555254
26	0x3e280862	0.16409448
27	0xb85390f7	-5.044133e-05
28	0x3be54ded	0.006997815
29	0x80064bc1	-5.78188e-40
30	0x3ea8bd99	0.32957152
31	0x3e537a52	0.2065213
32	0x3e7e842e	0.2485511
33	0x3e508ee9	0.20367016
34	0x3e780911	0.24222209
35	0x3e956c05	0.29183975
36	0x3b9a2f42	0.0047053406
37	0x3e8ca09a	0.2746628
38	0x3e9a8a7b	0.30183777
39	0x3b4c64b2	0.0031187949
40	0x3e8fa0f4	0.28052485
41	0x3e6b3c85	0.22972305
42	0x3e830f84	0.25597775
43	0x3e37cb0f	0.17948554
44	0x3e7010aa	0.23443857
45	0x3e9602fb	0.2929915
46	0x3e8268cc	0.2547058
47	0x3e538164	0.20654827
48	0x3db240a2	0.08703734
49	0x3e804ef3	0.25060233
50	0x800a07ae	-9.2111e-40
51	0x3ed1b478	0.40958
52	0x3db285ad	0.08716903
53	0x3e57a2f9	0.21058263
54	0x3e56725e	0.20942065
55	0x3e8b82bd	0.27248183
56	0x000d60e5	1.22862e-39
57	0x3ea06fdc	0.31335342
58	0x3e605bb2	0.21909979
59	0x3e50d5c9	0.20394053
60	0x3ebe6e5e	0.37193578
61	0x3e4b18e2	0.19833711
62	0x3e7ecc56	0.24882635
63	0x0005b94f	5.25654e-40

bn2.bias f4 [64]
0	0x3b9baad5	0.0047505894
1	0x8ce856c6	-3.5797485e-31
2	0x8002475e	-2.09273e-40
3	0xbc092a25	-0.008371864
4	0xbe01a8ec	-0.12662095
5	0x3cb8a828	0.02254112
6	0x3c37854d	0.011201215
7	0x3c9258cf	0.017864613
8	0x3d2cdf70	0.042205274
9	0x3c4f2a37	0.012644342
10	0x3cf8e808	0.030384079
11	0xbc55d08d	-0.013050211
12	0x3a889c6c	0.0010422594
13	0xbdffe3ae	-0.12494598
14	0xbd9774c6	-0.0739532
15	0x3c1387f3	0.009004581
16	0x3c1e4e67	0.009662247
17	0x3b1d8af5	0.0024039124
18	0x8003cce3	-3.49006e-40
19	0xbcf604d2	-0.030031595
20	0x3d0a12be	0.03370928
21	0xbd8a80fa	-0.067628816
22	0x3d248f0d	0.040175486
23	0xbdbb3ad4	-0.0914208
24	0xbb8044a1	-0.003914431
25	0x3cfed23b	0.031106105
26	0x3ccef2b5	0.025262216
27	0x3bb6bbbf	0.0055765803
28	0x3be41649	0.0069606644
29	0x80026e6f	-2.23287e-40
30	0xbde3fda1	-0.1113236
31	0x3d3201e0	0.04345882
32	0x3d00ea14	0.031473234
33	0xbd92b191	-0.07162774
34	0x3d107cb4	0.035275176
35	0xbc60768f	-0.013700142
36	0xbc787752	-0.015165167
37	0x3aeb3fb7	0.0017948066
38	0xbe2ed7ab	-0.17074458
39	0xbbc8d651	-0.006129064
40	0xbd60840e	-0.054813437
41	0xbddbcf63	-0.10732915
42	0xbb31a109	-0.002710404
43	0x3d0aac13	0.03385551
44	0x3c016c4d	0.007899356
45	0xbdb78eeb	-0.08962806
46	0x3cd0c9bd	0.025486821
47	0xbc1f52de	-0.009724347
48	0x3ca1549a	0.019693661
49	0xbde173a8	-0.11008388
50	0x8003bf15	-3.44054e-40
51	0xbdf53a2f	-0.11973988
52	0x3cafc5bc	0.021456592
53	0xbc00f1f3	-0.007870185
54	0x3cd0cb59	0.025487589
55	0xbdc88045	-0.097900905
56	0x80816f4b	-1.1886703e-38
57	0xbdd2e4bc	-0.10297534
58	0xbd974d17	-0.073877506
59	0x3d23c566	0.039983176
60	0xbdafca55	-0.08583514
61	0xbb10b71e	-0.0022081803
62	0x3cc39759	0.02387588
63	0x8000cdca	-7.3823e-41

bn2.running_mean f4 [64]
0	0xbe7e25b3	-0.24819069
1	0xa6b21ce5	-1.2359063e-15
2	0xb423b5a2	-1.5246636e-07
3	0xbe80f202	-0.25184637
4	0xbeba6a78	-0.36409354
5	0xbd3eaf52	-0.046553917
6	0xbe9a30c5	-0.30115333
7	0xbc0c0a59	-0.008547389
8	0xbe17e069	-0.148317
9	0xbe623770	-0.2209146
10	0xbdd5d8b3	-0.10441723
11	0x3c915b74	0.017743804
12	0xbe80ddb4	-0.25169146
13	0xbed5f9cf	-0.4179215
14	0xbead48fb	-0.33844742
15	0xbe9770b3	-0.2957817
16	0xbe8cc09e	-0.27490705
17	0xbea1971c	-0.315606
18	0xa82d46db	-9.6187935e-15
19	0xbeafc6ca	-0.34331352
20	0xbe997565	-0.29972377
21	0xbea7eddb	-0.32798657
22	0xbe456a98	-0.19278944
23	0xbeb5f6b1	-0.35539773
24	0xbe733b4e	-0.23753092
25	0xbe083942	-0.13303092
26	0xbe4dbce6	-0.2009159
27	0x3bd07592	0.0063616717
28	0x3c01fca9	0.007933774
29	0xab7b2343	-8.922205e-13
30	0xbed325e0	-0.41239834
31	0xbe86e5ec	-0.2634729
32	0xbe83da79	-0.2575262
33	0xbe9ea363	-0.3098403
34	0xbe9c6861	-0.30548385
35	0xbe9151aa	-0.28382617
36	0xb877c740	-5.9074955e-05
37	0xbe92c435	-0.2866532
38	0x3e64cce3	0.22343783
39	0xb84b0908	-4.8407383e-05
40	0xbe8cec5b	-0.27524075
41	0xbea17a05	-0.31538406
42	0xbea06867	-0.31329653
43	0xbe674ba9	-0.22587456
44	0xbe94d4bd	-0.29068556
45	0xbeb3f0be	-0.3514461
46	0xbe9754b7	-0.2955682
47	0xbe8a4de6	-0.27012557
48	0xbdde21b6	-0.108462736
49	0xbea635b9	-0.32462862
50	0xad4270e2	-1.1052688e-11
51	0xbec00490	-0.3750348
52	0xbe0353e2	-0.12824968
53	0xbe8b0a1c	-0.2715615
54	0xbe7be08f	-0.24597381
55	0xbeb394c5	-0.3507444
56	0xa489a377	-5.96912e-17
57	0x3e530844	0.20608622
58	0xbe89cdb9	-0.26914766
59	0xbe7c2017	-0.24621616
60	0xbeafd5ab	-0.34342703
61	0xbe82fd88	-0.25584054
62	0xbe916b22	-0.28402048
63	0xad4960a8	-1.1446989e-11

bn2.running_var f4 [64]
0	0x3ea3d9e5	0.32002178
1	0x00000f90	5.583e-42
2	0x19c91bf4	2.0794203e-23
3	0x3ea8153f	0.3282871
4	0x3f2ddb1e	0.6791247
5	0x3d6a8f4b	0.05726556
6	0x3e9ce19e	0.30640882
7	0x3bccbc75	0.0062480518
8	0x3ddbc336	0.10730593
9	0x3e565ff3	0.20935039
10	0x3dcc0dc4	0.09963563
11	0x3a8dba61	0.0010812992
12	0x3e83960b	0.2570041
13	0x3ee5776d	0.44817677
14	0x3efd18e9	0.49433067
15	0x3ea5ba2a	0.32368594
16	0x3ec92ae6	0.3929054
17	0x3eaabd9a	0.3334778
18	0x00083b55	7.55968e-40
19	0x3f00577d	0.50133497
20	0x3ebf2c4a	0.37338477
21	0x3edccf13	0.43126735
22	0x3e0acdcc	0.13555068
23	0x3f1a6e08	0.60324144
24	0x3e9138da	0.28363687
25	0x3db49b6e	0.08818708
26	0x3e32510b	0.17413728
27	0x3a6716c6	0.0008815344
28	0x3b6a8c03	0.003578902
29	0x0798b2c4	2.2975487e-34
30	0x3f064f8f	0.52465147
31	0x3e81c0f2	0.25342518
32	0x3ec09ec0	0.37621117
33	0x3e87ee9c	0.26549232
34	0x3ea00176	0.31251115
35	0x3ede7406	0.43447894
36	0x3585d90c	9.972441e-07
37	0x3eb9a02a	0.36255008
38	0x3d411e87	0.047148254
39	0x3197bc6a	4.4160986e-09
40	0x3ed151d9	0.40882757
41	0x3e66b97f	0.22531699
42	0x3ec18736	0.3779847
43	0x3e62ff66	0.2216774
44	0x3ebd1eab	0.3693746
45	0x3ee0c478	0.43899894
46	0x3ebf2b3d	0.37337676
47	0x3e97ea4e	0.29670948
48	0x3d73f6c2	0.0595615
49	0x3e8e7cc0	0.27829552
50	0x0b8d703d	5.44801e-32
51	0x3f26c6ee	0.6514729
52	0x3d832306	0.064031646
53	0x3e85e5cf	0.26151893
54	0x3e573298	0.21015394
55	0x3ec0e662	0.37675768
56	0x000003fe	1.432e-42
57	0x3d3abf87	0.04559281
58	0x3e91d77e	0.2848472
59	0x3e884cc6	0.26621073
60	0x3f1d8582	0.6153184
61	0x3e6fd8ad	0.23422499
62	0x3ea8fe39	0.33006456
63	0x07da12f6	3.2812139e-34

fc3.weight f4 [16, 64]
0	0x3b891ed2	0.0041845823
1	0x8c800ea0	-1.9730325e-31
2	0x80028018	-2.29622e-40
3	0x3c8c3d9b	0.01711922
4	0xbd5cb8af	-0.053887066
5	0x3bd91ab0	0.006625496
6	0xbcfa7af2	-0.030576203
7	0xbc07b981	-0.008283974
8	0xbcb2e839	-0.021839248
9	0xbcd89346	-0.026437413
10	0xbb46c30e	-0.0030328664
11	0x3bcd987e	0.006274282
12	0x3c58d774	0.013234962
13	0x3e1ff5f9	0.15621175
14	0x3e0e167c	0.13875765
15	0xbc84b317	-0.016198678
16	0xbd8bcbf8	-0.06826013
17	0xbcf862ac	-0.030320488
18	0x80037fe1	-3.21381e-40
19	0xbd85ecd8	-0.06539315
20	0xbdb0c539	-0.08631367
21	0xbd2f66e5	-0.042822737
22	0xbd5cba63	-0.05388869
23	0xbd822b26	-0.06355886
24	0xbd012c10	-0.031536162
25	0x3c06cb94	0.008227248
26	0xbb8ed898	-0.004359316
27	0xbbbbd81e	-0.0057325503
28	0xbb0c68cb	-0.0021424766
29	0x000798c9	6.97657e-40
30	0x3e1a3ef3	0.15063076
31	0xbd3b3921	-0.04570878
32	0xbdb6c779	-0.08924765
33	0x3dc9a6b6	0.09846251
34	0xbda770f1	-0.08175839
35	0x3d991d0b	0.07476243
36	0xbaabcb49	-0.0013106848
37	0xbd8ed7d4	-0.0697476
38	0x3d327278	0.043566197
39	0xb9118091	-0.00013876172
40	0x3d677aec	0.05651371
41	0x3ddbd510	0.10733998
42	0x3cd8f580	0.026484251
43	0xbcbd3f2b	-0.02310141
44	0x3d2ad14d	0.04170351
45	0x3e14aafa	0.14518347
46	0xbd71273b	-0.058875304
47	0xbc006a3c	-0.007837828
48	0xbc98b082	-0.018638853
49	0x3df1c21d	0.11804602
50	0x000fdd56	1.456933e-39
51	0xbd139df3	-0.036039304
52	0xbcb998a8	-0.0226558
53	0x3d58fa15	0.05297287
54	0xbcc9c047	-0.024627818
55	0x3e0890c2	0.1333647
56	0x807a5ed3	-1.1237947e-38
57	0x3d560c50	0.052257836
58	0x3de37385	0.11106018
59	0xbd3f46ac	-0.046698257
60	0xbd2747e4	-0.040840045
61	0x3d10b34b	0.035327237
62	0x39010ab6	0.00012306389
63	0x80020bf0	-1.87953e-40
64	0xbda08f38	-0.07839817
65	0x0bb25892	6.869637e-32
66	0x000247a3	2.0937e-40
67	0xbd3dc3c8	-0.04632929
68	0x3e1e42e2	0.15455201
69	0xbb806219	-0.003917944
70	0x3d327c65	0.043575663
71	0x3ac112e7	0.0014730365
72	0x3ad5f66b	0.0016324049
73	0xbc359c37	-0.011084608
74	0xbd5fa449	-0.054600034
75	0xb858517a	-5.1574294e-05
76	0xbd908608	-0.070568144
77	0xbb9205f7	-0.0044562775
78	0xbcbe260c	-0.023211502
79	0xbd74815e	-0.059693687
80	0x3d29f376	0.041491948
81	0x3cc8d395	0.024514953
82	0x80007aa9	-4.4002e-41
83	0x3d8da832	0.06916846
84	0x3d1b5b11	0.037928645
85	0x3de58a34	0.11208001
86	0x3a624374	0.0008631267
87	0x3e05799d	0.13034673
88	0x3c60855a	0.0137036685
89	0xbd1f7950	-0.038934052
90	0x3c1caf9d	0.009563354
91	0x3b69e2f8	0.0035688262
92	0x3a259788	0.00063168304
93	0x800afdd0	-1.009406e-39
94	0xbc85521c	-0.016274504
95	0x3d11464f	0.035467442
96	0xbbd819a8	-0.0065948553
97	0x3c3c35d3	0.011487442
98	0x3d5690a7	0.052384045
99	0xbd8a7031	-0.0675968
100	0x39ae1770	0.00033205329
101	0x3d2f7f69	0.042846117
102	0xbd9e0d86	-0.07717423
103	0x3916d328	0.00014383777
104	0xbd689244	-0.056780115
105	0x3cc37ae0	0.023862302
106	0xbd8ce727	-0.06880026
107	0x3cd97140	0.02654326
108	0xbd2a4f3e	-0.041579477
109	0x3b5cdcf4	0.0033701034
110	0x3cbb82a4	0.022889443
111	0x3df2eb9e	0.11861347
112	0xbcb7cddd	-0.02243703
113	0xbab4eefc	-0.0013804133
114	0x80040ab6	-3.71184e-40
115	0x3e15f9f4	0.14646131
116	0xbc8fc32f	-0.017549125
117	0xbd507cfe	-0.05090045
118	0xbdcb6641	-0.09931613
119	0x3bda875f	0.0066689695
120	0x00175b3b	2.144944e-39
121	0xbd5defe2	-0.05418385
122	0x3bba1459	0.005678695
123	0x3d812f92	0.063079014
124	0x3e190ae3	0.14945559
125	0xbc9b1c2f	-0.018934337
126	0xbda7f4cc	-0.08200988
127	0x80052e49	-4.75781e-40
128	0x3cbf875c	0.023379974
129	0x8c74ca21	-1.8857902e-31
130	0x800a16f4	-9.26589e-40
131	0xbcd32b2e	-0.025777426
132	0x3dc13eab	0.09435781
133	0x3b932531	0.0044905175
134	0xbd841982	-0.06450178
135	0xbc367b52	-0.0111378
136	0xbd130292	-0.035891123
137	0x3da5202b	0.08062776
138	0x3cd08838	0.02545558
139	0xbbf3ac25	-0.0074362927
140	0x3c5de587	0.013543493
141	0x3e06d32e	0.13166496
142	0x3d9c56e5	0.07633761
143	0x3cfff9cf	0.031247048
144	0xbd859d56	-0.0652415
145	0xbd9022ca	-0.070378855
146	0x8002418e	-2.07188e-40
147	0xbcdea85b	-0.027179888
148	0xbdc7c51c	-0.097543925
149	0x3d0aa206	0.033845924
150	0xbd9037ad	-0.07041869
151	0x3d2c393a	0.042046763
152	0xbd483a9c	-0.04888402
153	0x3d47067c	0.04859017
154	0xbdab3c60	-0.08361125
155	0x3a8395f3	0.0010039195
156	0x3bfe96c1	0.007769436
157	0x8009724a	-8.67519e-40
158	0x3dd88edb	0.105741225
159	0xbdeca0c8	-0.11554104
160	0xbdc6b959	-0.09703321
161	0x3d99b28e	0.0750476
162	0xbd805bf4	-0.06267539
163	0x3da19a15	0.07890717
164	0x391414a9	0.00014122076
165	0xbd861045	-0.06546072
166	0x3d9566ec	0.072950214
167	0x36418740	2.8837967e-06
168	0x3d53aad5	0.05167659
169	0x3dc09de4	0.09405115
170	0x3d3132ae	0.043261223
171	0xbdb513c2	-0.08841659
172	0x3d7b57d3	0.061363053
173	0x3e15fa1b	0.14646189
174	0xbdb4a4d3	-0.088205
175	0x3d34d222	0.04414571
176	0x3cc7c89e	0.024387654
177	0x3dbe0bf6	0.09279625
178	0x80022766	-1.97804e-40
179	0x3da612ac	0.0810903
180	0x3d3619a9	0.044458065
181	0x3d7a2f84	0.06108047
182	0x3c367313	0.011135834
183	0x3db1ff51	0.08691276
184	0x8031a040	-4.557426e-39
185	0x3dd206d8	0.102552116
186	0x3dbe37a3	0.092879556
187	0xbda9f424	-0.08298519
188	0x3d26a637	0.04068586
189	0x3d6b13bb	0.057391863
190	0x3d01e8b3	0.03171606
191	0x800733df	-6.61456e-40
192	0xbd96e115	-0.0736715
193	0x09c977c0	4.8501602e-33
194	0x000a63b1	9.54117e-40
195	0xbd40745f	-0.04698598
196	0x3e051c58	0.12999094
197	0xbab910ff	-0.0014119445
198	0x3d1dd5a3	0.038533818
199	0x3c3eceb5	0.0116459625
200	0x3bfbfaee	0.0076898253
201	0xbc905415	-0.017618218
202	0xbd308587	-0.04309609
203	0x389dceea	7.524884e-05
204	0xbd75f413	-0.06004722
205	0x3b687e3a	0.0035475628
206	0xbcaebd01	-0.021330358
207	0xbd87a4fd	-0.06623266
208	0x3d7f8cff	0.062390324
209	0x3cfeadb8	0.031088695
210	0x0003121c	2.82003e-40
211	0x3d71ca34	0.059030727
212	0x3bd34e51	0.006448545
213	0x3dd8ff4a	0.105955675
214	0x3cfbbbc5	0.030729184
215	0x3dfd1e0d	0.12359247
216	0x3ca2d1aa	0.019875366
217	0xbd7d4396	-0.061832033
218	0x3d45e90e	0.04831796
219	0x3b806853	0.0039186864
220	0xbc57edf2	-0.013179289
221	0x000736e1	6.62535e-40
222	0xbb1620e0	-0.0022907779
223	0x3d307aa8	0.043085724
224	0xbcdd7fab	-0.027038416
225	0x3c1d6676	0.009606948
226	0x3db8f1ad	0.09030471
227	0xbd99d1c5	-0.075107135
228	0x39a95c3a	0.00032302906
229	0x3d095403	0.033527385
230	0xbde67fec	-0.11254868
231	0x38cd8382	9.799657e-05
232	0xbd95a6ca	-0.07307203
233	0x3cbd389c	0.023098283
234	0xbdc422f2	-0.09576978
235	0xbc23012b	-0.009949009
236	0xbd664ae1	-0.056223754
237	0x3c6e2c7e	0.014536975
238	0x3db60550	0.08887732
239	0x3dd7d615	0.1053888
240	0xbcbbcc5e	-0.022924598
241	0x3c851668	0.016246036
242	0x800231ee	-2.01582e-40
243	0x3e147eda	0.14501515
244	0xbd229cdf	-0.039700385
245	0xbd627899	-0.055290792
246	0xbdb3866e	-0.08765875
247	0x3c1616b4	0.009160686
248	0x002d5c65	4.165742e-39
249	0xbd5146ca	-0.0510929
250	0x3ca5fd27	0.020262314
251	0x3d65e116	0.05612286
252	0x3e025ed8	0.12731493
253	0xbd7192b8	-0.058977813
254	0xbd86f106	-0.0658894
255	0x000dd77e	1.271165e-39

fc3.bias f4 [16]
0	0xb834435a	-4.297807e-05
1	0x381f448d	3.7972397e-05
2	0x38c545b4	9.406675e-05
3	0xb89a73cb	-7.36486e-05
4	0xb7ab7e22	-2.0443524e-05
5	0x37a2ca76	1.9406183e-05
6	0xb896fde2	-7.199847e-05
7	0x374300d8	1.1623102e-05
8	0x3705c9b8	7.974384e-06
9	0x382469a0	3.9199018e-05
10	0x38aea702	8.328074e-05
11	0x395749a2	0.00020531428
12	0x38f06314	0.000114625465
13	0xb90ab15f	-0.00013226781
14	0xb4dc3300	-4.10153e-07
15	0xb6397d88	-2.7640217e-06

bn3.weight f4 [16]
0	0x3f5ba347	0.85796016
1	0x3f678409	0.90435845
2	0x3f8a542f	1.0806941
3	0x3f69dd49	0.9135328
4	0x3f48b28f	0.7839746
5	0x3f3aebcc	0.7301605
6	0x3f5152e4	0.81767106
7	0x3f39b882	0.7254716
8	0x3f82d65b	1.0221666
9	0x3f3f6168	0.74758005
10	0x3f57dbe7	0.8431992
11	0x3f4c3d58	0.79781103
12	0x3f7157bb	0.9427449
13	0x3f5952e3	0.848921
14	0x3f87a5f7	1.0597523
15	0x3f6fbfdc	0.9365213

bn3.bias f4 [16]
0	0x3eb9478e	0.36187404
1	0x3e5eb479	0.21748532
2	0x3e6d9a22	0.23203328
3	0x3e70c382	0.2351208
4	0x3e9d93d1	0.30776837
5	0x3ea84b24	0.32869828
6	0x3e9141e3	0.2837058
7	0x3eb2706f	0.34851405
8	0x3e8bdf7f	0.2731895
9	0x3e978e8e	0.29600948
10	0x3ecff632	0.4061752
11	0x3e92d267	0.2867615
12	0x3e968df9	0.29405192
13	0x3ecab1cb	0.3958877
14	0x3e6da8df	0.2320895
15	0x3e48d109	0.1961099

bn3.running_mean f4 [16]
0	0xbcbe8615	-0.023257295
1	0x3d25b5aa	0.04045645
2	0x3d03bdf3	0.03216357
3	0x3d11174c	0.03542261
4	0xbc3c0892	-0.011476653
5	0xbac8c81c	-0.0015318426
6	0xbbccb935	-0.0062476643
7	0x3bddd8f8	0.0067702495
8	0x3c71b3f4	0.014752377
9	0xbb641396	-0.0034801713
10	0xbcb878c1	-0.022518517
11	0x3ac97354	0.0015369453
12	0xbc2b0e20	-0.010440379
13	0x3ca1e8d2	0.019764338
14	0x3d03d017	0.03218087
15	0x3da6dcb2	0.08147563

bn3.running_var f4 [16]
0	0x3d38524d	0.045000363
1	0x3d4094a3	0.04701675
2	0x3d147078	0.03624007
3	0x3d44652d	0.04794805
4	0x3d4c9b56	0.049952827
5	0x3d47fc70	0.048824728
6	0x3d511f9a	0.05105553
7	0x3d47f135	0.048814017
8	0x3d36223f	0.044466253
9	0x3d453e5c	0.048155174
10	0x3d4d383e	0.050102465
11	0x3d5b0a72	0.05347676
12	0x3d4c6bb2	0.049907394
13	0x3d44a595	0.048009474
14	0x3d324f86	0.04353287
15	0x3d371ea8	0.04470697

fc4.weight f4 [1, 16]
0	0xbf42ceb5	-0.7609666
1	0x3f5960e3	0.8491346
2	0xbf82b459	-1.0211288
3	0x3f5c86da	0.8614327
4	0x3f3dd81c	0.7415788
5	0x3f2e0ae0	0.67985344
6	0x3f4277a0	0.75963783
7	0x3f2d2e44	0.6764872
8	0xbf6b286a	-0.9185854
9	0x3f364ee8	0.7121415
10	0xbf3ae657	-0.7300772
11	0x3f3f9b37	0.74846214
12	0xbf5b25cf	-0.85604566
13	0xbf3b79c8	-0.732327
14	0xbf80f471	-1.0074598
15	0x3f61b0a3	0.8816015
