model_odd_even_trained.pth (torch, 53286 bytes, 19 tensors)

fc1.weight f4 [128, 9]
0	0x37e21c32	2.6954429e-05
1	0xb688260d	-4.0575455e-06
2	0xb7f65651	-2.936568e-05
3	0xb716c9e6	-8.987705e-06
4	0x37460918	1.1803837e-05
5	0x3593cc8a	1.1011882e-06
6	0x3710771e	8.610803e-06
7	0xb7d5876a	-2.5454636e-05
8	0x37a2c68a	1.9404357e-05
9	0xbe633258	-0.22187173
10	0xbe6c3322	-0.2306638
11	0xbe69c689	-0.22829641
12	0xbeea81c8	-0.4580214
13	0x3be8b67d	0.0071018324
14	0xb98524b1	-0.00025395074
15	0x3ea8560d	0.32878152
16	0x3972be18	0.00023149734
17	0xbbba4a43	-0.005685122
18	0xbe5a1bcd	-0.21299668
19	0xbe5a2bdd	-0.21305795
20	0xbe684454	-0.22682315
21	0xbedbdef7	-0.42943546
22	0xbc93c883	-0.018039947
23	0x3ba7df57	0.0051230597
24	0x3e7cac19	0.24675025
25	0xbb5afa2c	-0.0033413274
26	0x3c1b3a92	0.0094744135
27	0xbd90fead	-0.070798256
28	0xbd86374d	-0.065535165
29	0xbd7c2a04	-0.061563507
30	0xbebf2349	-0.37331608
31	0xbc2bac04	-0.010478023
32	0x3ba184d1	0.004929163
33	0x3f2d9257	0.6780142
34	0xbc8a497e	-0.016880747
35	0xbc4fcf1a	-0.012683654
36	0xbe4c772e	-0.19967338
37	0xbe4a0f0b	-0.19732301
38	0xbe3ede56	-0.18639502
39	0xbeb60102	-0.35547644
40	0x3c086166	0.008324003
41	0x3b756aaf	0.0037447622
42	0x3e22cbfa	0.15898123
43	0xbb553f9d	-0.0032539137
44	0xbc085c5e	-0.008322803
45	0x3e6f4195	0.23364861
46	0x3e7652cf	0.24055026
47	0x3e72198f	0.23642562
48	0x3ed357a9	0.41277817
49	0xbbc454e9	-0.0059915674
50	0x3c2db6dd	0.01060268
51	0xbe7df7ff	-0.24801634
52	0xbab415a0	-0.0013739355
53	0x3c3bb166	0.011455869
54	0x338441d0	6.1587e-08
55	0xb55e3081	-8.2772027e-07
56	0x3598c6ca	1.1382738e-06
57	0xb477522b	-2.303356e-07
58	0xb51fc869	-5.952375e-07
59	0x34677f6d	2.1559909e-07
60	0xb3c3c20f	-9.115694e-08
61	0x355f9043	8.32839e-07
62	0xb4617bae	-2.0999752e-07
63	0x3e3b4854	0.1828931
64	0x3e39741d	0.181107
65	0x3e221882	0.15829661
66	0x3ea36920	0.31916142
67	0x3c434a94	0.011919636
68	0x3ba7ad22	0.0051170746
69	0x3dda42d0	0.10657275
70	0xbc9304a7	-0.017946554
71	0xbbf0a818	-0.007344257
72	0xbc8f3868	-0.017482951
73	0x3c84a125	0.016190121
74	0xbd331ef1	-0.04373068
75	0xbcb06d20	-0.02153641
76	0x3abc6981	0.0014374704
77	0x3cd7914c	0.0263144
78	0xbcf2a527	-0.029619766
79	0x3cc4f68f	0.02404335
80	0x3d09d305	0.03364851
81	0xade209a0	-2.56975e-11
82	0x2d0f6049	8.1499885e-12
83	0x2e4a7ee2	4.6042177e-11
84	0x2d87696e	1.5394543e-11
85	0xad498e77	-1.1457161e-11
86	0x2d667c1b	1.3101543e-11
87	0x2ddc221d	2.5026254e-11
88	0x2cdf9d8b	6.355532e-12
89	0x2d045618	7.522448e-12
90	0x3e423e1e	0.18969008
91	0x3e1e4914	0.15457565
92	0x3e26e99f	0.16300057
93	0x3e9ca577	0.3059499
94	0xbb646aa5	-0.0034853604
95	0x3bb36aa7	0.0054753604
96	0x3de61491	0.112343915
97	0x3c6376e7	0.013883329
98	0xbaf45607	-0.0018641361
99	0xbe2be0e7	-0.16785012
100	0xbe3ba2ef	-0.18323873
101	0xbe2531ed	-0.16132326
102	0xbed24213	-0.41066036
103	0xbccecf42	-0.025245313
104	0xbbdcd815	-0.006739626
105	0x3f24b86e	0.6434392
106	0xbc25e0ee	-0.010124428
107	0x3adc5686	0.0016810454
108	0xb3b94a5e	-8.628261e-08
109	0xb3f643cb	-1.1467599e-07
110	0x3459d268	2.0286245e-07
111	0xb2c9d1a1	-2.3494808e-08
112	0xb33086f9	-4.110095e-08
113	0xb3702e10	-5.5921248e-08
114	0xb255e844	-1.2451043e-08
115	0xb26f77c8	-1.3938866e-08
116	0xb312c147	-3.416906e-08
117	0x3e4e3ef2	0.20141199
118	0x3e4cd55c	0.20003265
119	0x3e5473b1	0.20747258
120	0x3eccde0e	0.40013164
121	0xba72e85b	-0.0009266191
122	0xbbcd6418	-0.0062680356
123	0xbe510c3a	-0.2041482
124	0xbc41c450	-0.01182659
125	0x3a7fb378	0.0009754221
126	0xbe06b769	-0.13155903
127	0xbe109ee8	-0.14123118
128	0xbe165ad9	-0.14683093
129	0xbe9b2080	-0.30298233
130	0x3bee26c6	0.0072678057
131	0x3b9895c0	0.0046565235
132	0x3e4fb7ba	0.2028493
133	0xbadd717a	-0.001689478
134	0x3cb54b06	0.0221305
135	0xbddb67d6	-0.107131645
136	0xbdb89db5	-0.09014455
137	0xbde03348	-0.10947281
138	0xbed1d043	-0.40979204
139	0xbb59869e	-0.003319181
140	0x3be81d99	0.0070836064
141	0x3f2d92fe	0.6780242
142	0x3c0ba158	0.008522354
143	0x3ca84e33	0.0205451
144	0x3db1e0ed	0.08685479
145	0x3de08533	0.10962906
146	0x3da71163	0.08157613
147	0x3ec4b9fc	0.38423145
148	0x3cbfc091	0.023407253
149	0xb9bfb30c	-0.0003656376
150	0xbf22f671	-0.6365729
151	0x3a0206c0	0.0004960112
152	0x3c8dd99e	0.017315682
153	0xbe736b7c	-0.23771471
154	0xbe749d5b	-0.23888151
155	0xbe719c84	-0.23594862
156	0xbede3890	-0.4340253
157	0xb9e67958	-0.00043959427
158	0x3b305e37	0.0026911625
159	0x3f08f4b4	0.5349839
160	0x3bb166be	0.005413859
161	0xbb1806d0	-0.002319742
162	0xbe03f3f4	-0.1288603
163	0xbe123016	-0.14276156
164	0xbe24f9ce	-0.16110918
165	0xbe8a6cc2	-0.270361
166	0xbc02464c	-0.00795133
167	0xbc133bc2	-0.008986415
168	0x3e603383	0.2189465
169	0xbc988e26	-0.01862247
170	0x3c1a5bf2	0.0094213355
171	0x3e3ccbb4	0.18437082
172	0x3e45c217	0.1931232
173	0x3e3c7931	0.18405606
174	0x3ed3fdba	0.41404516
175	0xbb84dbb0	-0.004054509
176	0x3ab23e8c	0.0013598963
177	0xbe6c29de	-0.23062846
178	0x3b212f92	0.0024595005
179	0xbc7f08ed	-0.015566093
180	0x3e206183	0.15662198
181	0x3de112b9	0.10989899
182	0x3e34af11	0.17644908
183	0x3e93bf80	0.2885704
184	0x3cac7a0f	0.021054296
185	0xbc077dc0	-0.008269727
186	0xbe6658d4	-0.22494823
187	0x3c668ae4	0.0140712
188	0xbb428093	-0.0029678687
189	0x1d2a28ca	2.25204e-21
190	0x9cb1482d	-1.1731534e-21
191	0x1bb95f27	3.0667173e-22
192	0x1ce859b8	1.5375664e-21
193	0x1d1323ec	1.947386e-21
194	0x1c20e011	5.322916e-22
195	0x1c623127	7.4840655e-22
196	0x9a4c992c	-4.2309942e-23
197	0x1cd4d7f3	1.4084805e-21
198	0xbe308cbf	-0.1724119
199	0xbe220bc4	-0.158248
200	0xbe24f949	-0.1611072
201	0xbe9b7f0b	-0.30370364
202	0x3acecef5	0.0015778231
203	0x3cc82742	0.024432782
204	0xbde0d474	-0.10978022
205	0x3c88ecd0	0.016714483
206	0xbb3dcff7	-0.0028963068
207	0xb9b00d70	-0.00033579348
208	0x3b0ecba6	0.0021788864
209	0xbb0826eb	-0.002077515
210	0xbac775ad	-0.0015217565
211	0x390bdca8	0.00013338274
212	0x3a49cb9e	0.0007697883
213	0xba0161ce	-0.00049355335
214	0xba0f9bb9	-0.00054782216
215	0x3afa7e9a	0.0019111217
216	0xbe7aea84	-0.24503523
217	0xbe6ebe8d	-0.23314877
218	0xbe76818f	-0.2407286
219	0xbed6231f	-0.4182367
220	0x3b8c828b	0.004288023
221	0xbba7e805	-0.0051240944
222	0x3f08e9d7	0.5348181
223	0xbbcc5880	-0.006236136
224	0xbb8db4af	-0.0043245177
225	0xbe371fc0	-0.17883205
226	0xbe417d97	-0.18895565
227	0xbe2d5749	-0.16927828
228	0xbe9db42c	-0.30801523
229	0xbc19cce0	-0.009387225
230	0x3c2d0ea7	0.010562575
231	0x3e366dcb	0.1781532
232	0x3c7863aa	0.0151604805
233	0x3c8fc577	0.017550213
234	0xbc1b153c	-0.009465512
235	0x3c8fcf18	0.017554805
236	0x3d34ace1	0.044110183
237	0x3cf451a4	0.029824086
238	0x3b3677e7	0.0027842463
239	0xbc09840f	-0.008393302
240	0x3cf70338	0.030152902
241	0xbbf0ffa1	-0.007354692
242	0xbb817345	-0.003950509
243	0x3df66c6e	0.120324
244	0x3e12452f	0.14284204
245	0x3da372ea	0.079809025
246	0x3e942907	0.2893755
247	0x3ba5b10e	0.005056507
248	0x3afa7a3c	0.0019109915
249	0xbf106390	-0.5640192
250	0x3c269db7	0.010169438
251	0x3b2d80a3	0.0026474379
252	0xbe015b7c	-0.12632555
253	0xbdebeac1	-0.11519385
254	0xbdf53d4b	-0.11974581
255	0xbe5be7da	-0.21475163

fc1.bias f4 [128]
0	0x3503a6c6	4.904399e-07
1	0xb7818dec	-1.5444086e-05
2	0xb841886e	-4.6141846e-05
3	0x38333faf	4.2736236e-05
4	0x383a51ca	4.4422028e-05
5	0xb7c8d74d	-2.3942115e-05
6	0x340b1a68	1.295499e-07
7	0x3643e8a0	2.919267e-06
8	0x3742ecc8	1.1618431e-05
9	0x3295d3a5	1.7442128e-08
10	0x38112f23	3.4614593e-05
11	0xb8b2b378	-8.52113e-05
12	0xb59b798a	-1.1583772e-06
13	0x372d8b4c	1.0344036e-05
14	0xb740a2ef	-1.1482028e-05
15	0xb5ddc540	-1.652319e-06
16	0xb90c6ad6	-0.0001339124
17	0xb64ea160	-3.0790325e-06
18	0x37a5bfea	1.97589e-05
19	0x38352284	4.3185908e-05
20	0x353a34c0	6.936716e-07
21	0xb78b8b45	-1.6634944e-05
22	0xb71316dc	-8.767205e-06
23	0x3486fd96	2.5143953e-07
24	0x37df0f0f	2.6590684e-05
25	0xb6e5d010	-6.8489535e-06
26	0xb3b975a2	-8.636131e-08
27	0xb7e2155c	-2.6951246e-05
28	0x3804666b	3.1566637e-05
29	0x37f40210	2.9088027e-05
30	0x35c8ad00	1.4951511e-06
31	0x3723c9e0	9.76256e-06
32	0x38020301	3.0997213e-05
33	0xafde7e40	-4.047127e-10
34	0xb796c53c	-1.7973238e-05
35	0xb786f87c	-1.6089754e-05
36	0x3629bda8	2.5293357e-06
37	0x37252786	9.843969e-06
38	0xb732487e	-1.0626505e-05
39	0x311e8703	2.3068771e-09
40	0xb61c3ed0	-2.3282373e-06
41	0x3501bec1	4.833383e-07
42	0xb733aa00	-1.0708813e-05
43	0x37a5d306	1.9767798e-05
44	0xb82e0597	-4.149004e-05
45	0x2edae8b6	9.95483e-11
46	0x31c87e50	5.835126e-09
47	0x3940bc78	0.00018380757
48	0x38eae78a	0.00011201117
49	0x36d46c68	6.3307125e-06
50	0xb73cb37b	-1.1247462e-05
51	0x3894a08e	7.0870956e-05
52	0x36624222	3.3715119e-06
53	0x37c2aa1a	2.3205812e-05
54	0xb85a16a6	-5.1996343e-05
55	0x390b207e	0.00013268177
56	0x35592d9b	8.0905164e-07
57	0x2d13cb13	8.401074e-12
58	0xb64ef1e8	-3.08372e-06
59	0xb7dbb6b0	-2.6191905e-05
60	0xb7bf881d	-2.2832357e-05
61	0xb7d3dd7a	-2.5256293e-05
62	0x3794b770	1.7728395e-05
63	0xa7574b7e	-2.9878168e-15
64	0x36f39020	7.2587427e-06
65	0xb74f4325	-1.2353795e-05
66	0xb6935ca9	-4.3917285e-06
67	0x3723e5ab	9.769031e-06
68	0x326a6e72	1.3645705e-08
69	0x3797ef5e	1.8112067e-05
70	0x37111e77	8.649767e-06
71	0x33864db0	6.2539925e-08
72	0x37cb095c	2.4203844e-05
73	0x3807f3a5	3.241342e-05
74	0x379afee8	1.847693e-05
75	0x37b033d5	2.1004971e-05
76	0x340f7f68	1.3364263e-07
77	0x38367d83	4.3509073e-05
78	0x33d51e00	9.9240424e-08
79	0x380454e6	3.155032e-05
80	0x3605ebb8	1.995575e-06
81	0x38349b6e	4.30601e-05
82	0xb6d79184	-6.4244396e-06
83	0xa6312f44	-6.147327e-16
84	0xb1adfa12	-5.0633924e-09
85	0x3750966c	1.2432789e-05
86	0xb6097a88	-2.0485913e-06
87	0xb6c87ff9	-5.9753625e-06
88	0x385f4832	5.323458e-05
89	0x379f0b47	1.8959528e-05
90	0xb76e0468	-1.4186931e-05
91	0x35568fd8	7.993053e-07
92	0x38097670	3.277365e-05
93	0xb5e30693	-1.6914731e-06
94	0xb90b35be	-0.00013276094
95	0xb74dbff1	-1.2263642e-05
96	0x37482490	1.1929442e-05
97	0x37b7f2bb	2.192833e-05
98	0xb797586a	-1.8041774e-05
99	0xb3f4d5a4	-1.14009964e-07
100	0xad159764	-8.503285e-12
101	0xb8317d9b	-4.2317068e-05
102	0xb86d931b	-5.6642206e-05
103	0x378f942c	1.7115926e-05
104	0xb5bb8f89	-1.397436e-06
105	0xb7700474	-1.4306152e-05
106	0xb686c4b1	-4.016409e-06
107	0x33505f50	4.851546e-08
108	0xb54f56d0	-7.723984e-07
109	0xa909bf8c	-3.058625e-14
110	0xb8212ea7	-3.842884e-05
111	0x3828fe8d	4.029139e-05
112	0x37c46797	2.3413259e-05
113	0xb702d4bc	-7.798135e-06
114	0x37ee6142	2.84171e-05
115	0xac490306	-2.8565496e-12
116	0x2f8ee930	2.599534e-10
117	0x371c718f	9.3247645e-06
118	0x3773bd04	1.4527937e-05
119	0xb7c5ca4f	-2.3578437e-05
120	0x3583f5c2	9.831786e-07
121	0xb53a7338	-6.9458065e-07
122	0xb5d9d7e6	-1.6230595e-06
123	0x37eb39d4	2.8041111e-05
124	0xb769e609	-1.39414415e-05
125	0x34ee8772	4.4429504e-07
126	0xb7d64531	-2.5543008e-05
127	0xb7d9f9c4	-2.5984722e-05

bn1.weight f4 [128]
0	0x3924d330	0.00015718932
1	0x3e82c723	0.25542554
2	0x3e2cf8ab	0.16891734
3	0x3eb48318	0.35256267
4	0x3eb43e96	0.35204
5	0x3e4a076e	0.19729397
6	0xb8006a62	-3.0616655e-05
7	0x3e406e58	0.18792093
8	0x3c0fdc6a	0.008780578
9	0xb3cf571f	-9.655036e-08
10	0x3e3184ef	0.17335866
11	0x3ec85744	0.39129078
12	0xb68b912b	-4.1594226e-06
13	0x3ea9cf53	0.33165988
14	0x3ebb835f	0.36623666
15	0x3ecb0cd1	0.39658216
16	0x3eb6447d	0.35599127
17	0x3eb287d1	0.34869245
18	0x3ec0c187	0.3764765
19	0x3ec328c6	0.38117045
20	0x3e980320	0.29689884
21	0x24831e41	5.6863446e-17
22	0x3e4565bf	0.19277094
23	0x3b4cc7c3	0.0031246997
24	0x3eb1c773	0.3472248
25	0x3eb3b691	0.35100225
26	0xbbb42bb1	-0.0054983725
27	0x3e8e9b9d	0.278531
28	0x3ea76b52	0.32699066
29	0x3eb2880a	0.34869415
30	0x3eb6daa8	0.35713696
31	0x3e2a634c	0.16639441
32	0x3e3818a3	0.17978148
33	0xbaf121dc	-0.0018396932
34	0x3eba174a	0.36345893
35	0x3e6b4b81	0.22978021
36	0x3eb31fb8	0.34985137
37	0x322313f9	9.49239e-09
38	0x3eb48fd0	0.3526597
39	0x38027a84	3.1108517e-05
40	0x3e416d7f	0.18889426
41	0xbb146729	-0.0022644496
42	0x3ea638e2	0.32465273
43	0x3ebc2435	0.36746374
44	0x3e310f56	0.17291006
45	0xb7d9f2ac	-2.5981419e-05
46	0x391bc9bf	0.00014857108
47	0x3e959340	0.29213905
48	0x3ea0cc78	0.31405997
49	0x3e5b44d9	0.21412982
50	0x3eab6f07	0.33483145
51	0x3e31c192	0.17358997
52	0xbca358bc	-0.019939773
53	0x3e524118	0.20532644
54	0x3e5aa8f2	0.2135351
55	0x3eb1c2a1	0.34718803
56	0x3e5d2ede	0.2159991
57	0xb02804c4	-6.1124816e-10
58	0x3edb9e64	0.4289428
59	0x3eb806c0	0.3594265
60	0x3e969e92	0.29417855
61	0x3eaefcf7	0.34177372
62	0x3eb4437c	0.35207736
63	0xa763014a	-3.1503277e-15
64	0x37550592	1.2697086e-05
65	0x3ebd1be2	0.36935335
66	0xb7ecffc3	-2.825249e-05
67	0x3ebb6c61	0.36606124
68	0x3888f6fc	6.53099e-05
69	0x3ea71328	0.32631803
70	0x3eb5894f	0.3545632
71	0x3c20c083	0.009811523
72	0x3e542c22	0.2071996
73	0x3ec31730	0.38103628
74	0x3eaa9c49	0.3332236
75	0x3e8ff516	0.28116673
76	0xbbafbd02	-0.0053631077
77	0x3eb136cf	0.34612128
78	0x3e548c67	0.20756684
79	0x3ebb4ec8	0.36583543
80	0x3b9abae7	0.0047219875
81	0x3eacf8ae	0.33783478
82	0x3ec66c95	0.38754717
83	0x26d1866a	1.4538721e-15
84	0x39182aac	0.00014511746
85	0x3e55c7e1	0.20877029
86	0x3e2ea578	0.17055309
87	0xb80261c5	-3.108547e-05
88	0x3ec2cfc4	0.38049138
89	0x3e31afaa	0.17352167
90	0x3e3330fc	0.17499155
91	0x3eb3b3f2	0.35098225
92	0x3e3e7c4c	0.18602103
93	0x38096ec7	3.2766515e-05
94	0x3efa2fb5	0.48864523
95	0x3ea2ef2c	0.318231
96	0x3eab8f14	0.33507597
97	0x3e223a76	0.15842614
98	0x3e5c7bed	0.21531649
99	0x28a0d5af	1.7856239e-14
100	0xa0016dae	-1.0963015e-19
101	0x3ea096bb	0.31364998
102	0x3eb3c1da	0.35108835
103	0x3eaefc14	0.34176695
104	0x3997ae34	0.00028930756
105	0x3e9ae228	0.3025067
106	0x3581e9b0	9.679261e-07
107	0x3c0684f6	0.008210411
108	0x3e28c2a2	0.16480497
109	0xa5970451	-2.619725e-16
110	0x3e505872	0.20346239
111	0x3ec31fbf	0.38110158
112	0x3ea4c5cc	0.32182157
113	0x3e54b9f3	0.20774059
114	0x3e1d5dd6	0.15367827
115	0xb33e526c	-4.4312785e-08
116	0x37e3273c	2.7078779e-05
117	0x3ea2bec8	0.3178618
118	0x3eb3a330	0.3508544
119	0x3ea077e8	0.3134148
120	0xb9218c12	-0.00015406337
121	0xbb1705b9	-0.0023044182
122	0x3911c3e1	0.00013901248
123	0x3e47775c	0.19479126
124	0x3e482f25	0.19549234
125	0xbbbb14dd	-0.005709274
126	0x3eaab556	0.33341473
127	0x3e9758b3	0.2955986

bn1.bias f4 [128]
0	0xba996daf	-0.0011705662
1	0x3d05b60a	0.03264431
2	0x3d8c6df9	0.06856913
3	0xbef83792	-0.48479897
4	0xbe32b733	-0.17452697
5	0x3d9dc406	0.07703404
6	0xb8ac0d04	-8.2040235e-05
7	0xbbce759a	-0.0063006403
8	0xbcf550c3	-0.029945737
9	0xb4af2f50	-3.2630714e-07
10	0xbc93fac5	-0.018063912
11	0xbf06fa7a	-0.52725947
12	0xb8c5c977	-9.431218e-05
13	0xbe179a03	-0.14804845
14	0xbea9d966	-0.33173674
15	0xbf068af6	-0.5255579
16	0xbef6f7d3	-0.4823595
17	0xbd422e01	-0.047407154
18	0xbeb98632	-0.36235195
19	0xbe7bb603	-0.2458115
20	0xbeb756a1	-0.3580828
21	0xb0c08cbb	-1.4009837e-09
22	0xbbabc025	-0.0052414113
23	0xbc2f3f74	-0.010696281
24	0xbd4bfb20	-0.04980004
25	0xbe7ec311	-0.248791
26	0xbd246955	-0.040139515
27	0xbeb8b7de	-0.3607778
28	0xbeb39702	-0.35076147
29	0xbec7d250	-0.39027643
30	0xbe540d54	-0.2070821
31	0xbc62d22a	-0.013844052
32	0x3d85c8cf	0.06532442
33	0xbcdd265a	-0.026995827
34	0xbeab0b5d	-0.33407107
35	0x3de5e2c8	0.11224896
36	0xbe3cc512	-0.18434551
37	0xb747886f	-1.189309e-05
38	0xbe21d61d	-0.15804334
39	0xbb7e586b	-0.0038810025
40	0x3d8b2d3b	0.067957364
41	0xbce81193	-0.028328693
42	0xbebb85a9	-0.36625412
43	0xbe0a4de0	-0.1350627
44	0xbc3edd57	-0.011649451
45	0xb86de564	-5.671884e-05
46	0xbc95a7ed	-0.01826855
47	0xbdb862ce	-0.090032205
48	0xbe49dbf3	-0.1971281
49	0x3dc2b989	0.09508044
50	0xbe31c812	-0.17361477
51	0x3d8246b9	0.063611455
52	0xbd410a2e	-0.04712885
53	0x3dc33396	0.095313236
54	0x3dcb15e9	0.099162884
55	0xbe2e0f07	-0.1699792
56	0xbc5d6ea6	-0.01351515
57	0xaa18f94e	-1.3586807e-13
58	0xbea9c3a8	-0.33157086
59	0xbe15d5ec	-0.14632386
60	0xbda0e4a5	-0.078561105
61	0xbed57537	-0.4169099
62	0xbe4ff603	-0.2030869
63	0xb02a6462	-6.198829e-10
64	0xb7b1535b	-2.113886e-05
65	0xbeb469a4	-0.35236847
66	0xbb0da0ad	-0.0021610663
67	0xbf02ab61	-0.51042753
68	0xb9ec7809	-0.0004510286
69	0xbea8a0a2	-0.32935053
70	0xba74e859	-0.0009342484
71	0xbd01c4c3	-0.031681787
72	0x3db9a6c1	0.09065009
73	0xbf0899c1	-0.5335961
74	0xbe200ea9	-0.15630592
75	0xbc5f3ea2	-0.013625773
76	0xbca88335	-0.020570377
77	0xbde48684	-0.11158469
78	0xbcc43438	-0.023950681
79	0xbd42046f	-0.04736751
80	0xbc964a2c	-0.018345915
81	0xbec888e9	-0.39166954
82	0xbe430c0a	-0.19047561
83	0xb2b30de9	-2.0844668e-08
84	0xba3a6ee1	-0.0007111859
85	0xbc4641e7	-0.012100673
86	0xbcb91022	-0.0225907
87	0xb642c0b3	-2.9020418e-06
88	0xbf0bf56a	-0.5467135
89	0xbc1fad6d	-0.009745938
90	0xbc9a6fce	-0.01885214
91	0xbe3a7c07	-0.18211375
92	0x3db7cd79	0.08974738
93	0xb9ff186c	-0.00048655586
94	0x3cff5809	0.031169908
95	0xbebb6538	-0.3660066
96	0xbe207a54	-0.15671664
97	0xbc95a953	-0.018269217
98	0xbc491dee	-0.012275202
99	0xab0dbbb5	-5.035376e-13
100	0xb1412a10	-2.8109106e-09
101	0xbbb51a03	-0.0055267825
102	0xbd106eb4	-0.035261825
103	0xbeb057ae	-0.34441894
104	0xbb97de4c	-0.004634654
105	0xbeba7c3d	-0.3642291
106	0xb9943e4d	-0.00028275177
107	0xbced94fa	-0.029001702
108	0xbc5fdc24	-0.013663325
109	0xb7d92112	-2.5883815e-05
110	0x3d87b279	0.06625838
111	0xbf11d664	-0.5696776
112	0xbeae7337	-0.34072277
113	0x3dd959f5	0.10612861
114	0xbc79c564	-0.0152448155
115	0x2caa888a	4.8468495e-12
116	0xbcb48e96	-0.022040647
117	0xbeaff1ae	-0.34364074
118	0xbea29432	-0.3175369
119	0xbd21f096	-0.03953608
120	0xba7909c1	-0.00095000496
121	0xbc613d07	-0.01374746
122	0xbc2347f7	-0.009965888
123	0x3db4b95f	0.08824419
124	0x3dd93db9	0.10607476
125	0xbcbe3cb9	-0.023222314
126	0xbebc49a0	-0.3677492
127	0xbead4278	-0.33839774

bn1.running_mean f4 [128]
0	0x361101a0	2.160763e-06
1	0xbc99bebf	-0.018767713
2	0xbca58315	-0.020204106
3	0x3bdad878	0.006678637
4	0xbc9f0ad2	-0.01941434
5	0x3cac659d	0.021044547
6	0xb3d45e60	-9.889186e-08
7	0x3ce03b22	0.027371947
8	0xba4125b4	-0.0007367984
9	0xb065851c	-8.3498874e-10
10	0x3cccbceb	0.024992427
11	0xbb55b9da	-0.0032611997
12	0x331a8c84	3.5983717e-08
13	0x3ca222ad	0.019791925
14	0xbc4020cf	-0.011726572
15	0x3b82b191	0.0039884527
16	0xbafce058	-0.0019292934
17	0xbc3d0140	-0.011535943
18	0xbc27dffc	-0.010246273
19	0x3c965420	0.01835066
20	0x3c2150cc	0.009845924
21	0x3550f159	7.7837245e-07
22	0xbcce6b76	-0.025197726
23	0x38e7b028	0.0001104775
24	0xbc2cd573	-0.010548937
25	0xbc88451e	-0.01663452
26	0x3b33437e	0.002735346
27	0xba9559f0	-0.0011394601
28	0x3c123f31	0.008926199
29	0xbc23eb02	-0.010004761
30	0x3c94bcf2	0.018156502
31	0xbcb9d577	-0.022684796
32	0xbca729f2	-0.020405743
33	0x3a17d608	0.0005792086
34	0x3c6472ab	0.013943355
35	0x3ca2f268	0.019890979
36	0xbc9f0874	-0.01941321
37	0xb50d7f48	-5.271181e-07
38	0x3ca3c6ba	0.019992221
39	0xb300bc20	-2.997342e-08
40	0x3c96567d	0.018351788
41	0x38789c80	5.927356e-05
42	0x3c21d90a	0.009878406
43	0xbc4f98b0	-0.012670681
44	0xbcd88d30	-0.026434511
45	0x34466fee	1.8480907e-07
46	0xbaf174f7	-0.0018421699
47	0x3b1e7f18	0.002418464
48	0xbbaa7b65	-0.005202698
49	0xbca43011	-0.020042451
50	0x3bc81d60	0.0061070174
51	0xbcaec814	-0.021335639
52	0x3be37055	0.0069408813
53	0xbc9b5ce2	-0.018965188
54	0x3c93b807	0.018032087
55	0x3bc168f5	0.0059024044
56	0xbcce22d0	-0.025163084
57	0xaaf4c0fd	-4.347702e-13
58	0xbc8d2af4	-0.017232396
59	0x3c4424a0	0.011971623
60	0x3b5788da	0.0032887966
61	0xbb4e7a0c	-0.003150585
62	0xbca02e2f	-0.019553272
63	0x25575412	1.8676761e-16
64	0xb4b5db93	-3.3873638e-07
65	0x3c63e840	0.013910353
66	0xb973d102	-0.00023252147
67	0xbac546d6	-0.0015051018
68	0x349b310a	2.890668e-07
69	0x3c161e73	0.009162533
70	0x3c35bcde	0.011092393
71	0x3c48c2ab	0.012253444
72	0x3caaff6c	0.020873748
73	0xbbf575ec	-0.007490864
74	0x3cadf8b3	0.021236753
75	0xbc0c203c	-0.008552607
76	0xbb82c568	-0.003990818
77	0xbc37a99e	-0.0112098735
78	0x3ce04d98	0.02738075
79	0x3c3f808f	0.011688366
80	0x3ab92545	0.0014125487
81	0x3b1e294c	0.0024133502
82	0xbc9d8c45	-0.019231925
83	0x240de2ec	3.076671e-17
84	0x360b3308	2.0742318e-06
85	0x3ce8bd21	0.028410496
86	0x3cdc4b94	0.026891507
87	0x34876dc4	2.5225575e-07
88	0x3c1be69f	0.009515434
89	0x3cdcf226	0.026970934
90	0xbcc82fe0	-0.024436891
91	0xbc9f021f	-0.019410191
92	0xbca0408b	-0.019562026
93	0x34312e96	1.6501357e-07
94	0x3c24f134	0.010067273
95	0xbc24ef05	-0.010066752
96	0x3bc12de2	0.0058953622
97	0x3cd24c74	0.025671221
98	0xbcdb6ddc	-0.026785783
99	0x31b777cb	5.33962e-09
100	0x2affbb2a	4.542697e-13
101	0xbc0cbc70	-0.008589849
102	0x3c39614c	0.011314701
103	0xbc683dea	-0.014174918
104	0xb67ff6ee	-3.8141693e-06
105	0x3bbd19e2	0.0057709077
106	0x3442989c	1.8123177e-07
107	0x3abff6d3	0.0014645703
108	0xbcb13b11	-0.02163461
109	0x26ef666a	1.6611716e-15
110	0xbc9fa89e	-0.019489583
111	0x3b70c391	0.003673766
112	0x3c0f98dc	0.008764472
113	0xbca017ce	-0.019542601
114	0xbcc6a340	-0.024247766
115	0x2a368c23	1.6213467e-13
116	0x361d4b45	2.3438636e-06
117	0xbc3466ce	-0.011010839
118	0x3c5d4891	0.013506071
119	0xbbce0b4a	-0.006287967
120	0xb8383ae7	-4.3923876e-05
121	0x38f0fb3f	0.0001149089
122	0x39a2a0a7	0.00031018743
123	0xbc9dff98	-0.019286916
124	0x3ca55e89	0.02018668
125	0xb705d24e	-7.976383e-06
126	0x3c3bdda8	0.011466421
127	0xbbf9e3fe	-0.0076260557

bn1.running_var f4 [128]
0	0x3179c9ab	3.6348904e-09
1	0x3eb93776	0.36175126
2	0x3ec9a38a	0.39382583
3	0x3e26f543	0.16304497
4	0x3e9f48e0	0.31110287
5	0x3ecaecfb	0.39633927
6	0x2c82bb37	3.7156072e-12
7	0x3f01583c	0.5052526
8	0x3c35b19a	0.011089707
9	0x1dff455d	6.7569658e-21
10	0x3ef0215f	0.4690046
11	0x3e39445b	0.18092482
12	0x29d6076d	9.504797e-14
13	0x3eb19a37	0.3468797
14	0x3e1d6cb6	0.15373501
15	0x3e23a42e	0.15980598
16	0x3e13212d	0.14368124
17	0x3e867d5f	0.26267526
18	0x3e0ad4cf	0.13557743
19	0x3ea11677	0.31462452
20	0x3e205b7f	0.15659903
21	0x1a443765	4.0576597e-23
22	0x3ee6cb79	0.45077112
23	0x37a5c565	1.9761452e-05
24	0x3e804b36	0.2505738
25	0x3e71a51e	0.23598143
26	0x3c1d0eea	0.009586075
27	0x3de8a22d	0.113590576
28	0x3e332b9e	0.17497107
29	0x3df7460a	0.12073906
30	0x3e9a82be	0.30177873
31	0x3ec27f60	0.37987804
32	0x3ecce4b2	0.4001823
33	0x3cbcd5b0	0.023051113
34	0x3e5fe129	0.21863236
35	0x3ec5a3ef	0.38601634
36	0x3ea0caa6	0.31404608
37	0x1fd9703a	9.208874e-20
38	0x3eba9de6	0.36448592
39	0x3186a055	3.918141e-09
40	0x3ea18769	0.31548622
41	0x3a1608e5	0.0005723371
42	0x3e08b57b	0.1335048
43	0x3e8d58f7	0.27606937
44	0x3ef252a3	0.47328672
45	0x2da26382	1.8461458e-11
46	0x3ada7fb2	0.0016670136
47	0x3e284161	0.1643119
48	0x3e30950b	0.17244355
49	0x3ebeb533	0.3724762
50	0x3e2aa472	0.16664293
51	0x3ecfbec7	0.4057524
52	0x3d159b44	0.036525026
53	0x3ebadd93	0.36497173
54	0x3eb4e407	0.3533022
55	0x3e2e6e6f	0.17034315
56	0x3f002cf9	0.5006862
57	0x06ae0e02	6.547211e-35
58	0x3e7e86ca	0.24856105
59	0x3e89ffb9	0.26952913
60	0x3e2508d7	0.16116653
61	0x3e0d8921	0.13821842
62	0x3e93f498	0.28897548
63	0x0001da59	1.70164e-40
64	0x2a4b1e6c	1.8040577e-13
65	0x3e6267a5	0.2210985
66	0x383121df	4.2231633e-05
67	0x3e16e973	0.14737491
68	0x2fafd517	3.1983724e-10
69	0x3e07c81e	0.13259932
70	0x3e876184	0.26441586
71	0x3d902935	0.070391096
72	0x3ecde588	0.4021418
73	0x3e339784	0.17538267
74	0x3ec579cb	0.38569483
75	0x3e5759e1	0.2103038
76	0x3c0f775f	0.008756488
77	0x3e7ea04d	0.24865837
78	0x3f0da5f2	0.5533134
79	0x3e8d2433	0.2756668
80	0x3ba72627	0.0051009837
81	0x3e019810	0.12655663
82	0x3ea903e1	0.33010772
83	0x025f56a1	1.6408314e-37
84	0x322a61fc	9.917581e-09
85	0x3f0f0f60	0.55882835
86	0x3f039313	0.5139629
87	0x28b09840	1.9605953e-14
88	0x3e481369	0.19538654
89	0x3ef9c175	0.48780409
90	0x3ed91333	0.4239746
91	0x3e9f41f6	0.31105012
92	0x3ec40d9e	0.3829164
93	0x2f380243	1.6735506e-10
94	0x3e88b854	0.2670313
95	0x3de8fa00	0.11375809
96	0x3e36238a	0.17786995
97	0x3eedebd8	0.46468997
98	0x3f06272a	0.5240351
99	0x110143d1	1.0197203e-28
100	0x069b94c8	5.8523134e-35
101	0x3e630c0f	0.22172569
102	0x3e88f792	0.2675138
103	0x3e420cea	0.18950239
104	0x33c2728b	9.054664e-08
105	0x3e093e73	0.13402729
106	0x2a829748	2.3197611e-13
107	0x3c08aeaf	0.008342429
108	0x3ebe24e8	0.37137532
109	0x09072028	1.6265154e-33
110	0x3ec62ee2	0.38707644
111	0x3e24ccfc	0.1609382
112	0x3ddbb45b	0.107277595
113	0x3eb072c5	0.34462562
114	0x3ecbdc46	0.39816493
115	0x0d3ca180	5.812637e-31
116	0x31df4517	6.498009e-09
117	0x3e00193c	0.12509626
118	0x3e4d3f9d	0.20043798
119	0x3e369749	0.17831148
120	0x35a2d460	1.213175e-06
121	0x37bb1962	2.2303957e-05
122	0x38cb8667	9.704829e-05
123	0x3eb418fe	0.35175318
124	0x3ec74386	0.38918704
125	0x3823447b	3.8926006e-05
126	0x3e1bc902	0.15213397
127	0x3e17f10d	0.14838047

fc2.weight f4 [64, 128]
0	0x37a8c379	2.0118185e-05
1	0xbcb7eec0	-0.022452712
2	0x3c921276	0.017831068
3	0x3d1619f9	0.036645863
4	0x3cfe7bdb	0.031064918
5	0xbd11db57	-0.03560957
6	0x367430f8	3.6387337e-06
7	0x3ac2a325	0.0014849646
8	0x3bec1437	0.0072045582
9	0xb3fd8b5d	-1.18065806e-07
10	0xbbf661c9	-0.007518981
11	0x3def1f00	0.11675835
12	0x35ae94e9	1.3007349e-06
13	0xbdea42eb	-0.11438545
14	0x3d9d064e	0.07667218
15	0x3d50f987	0.051019218
16	0x3b6ad0c1	0.0035829993
17	0xbd7ef595	-0.062245924
18	0x3dd77ce8	0.10521871
19	0x3d4ce746	0.050025247
20	0x3d8e9cd0	0.06963503
21	0x33064daf	3.126996e-08
22	0xbbf09094	-0.007341454
23	0x398faa67	0.00027402045
24	0xbd330ac2	-0.04371143
25	0xbdd89018	-0.10574359
26	0x3ced2bd4	0.028951563
27	0x3c95f56b	0.018305501
28	0x3d3881a3	0.045045506
29	0x3d350652	0.04419548
30	0xbd97710b	-0.07394608
31	0xbcaabffd	-0.0208435
32	0x3bf3be6c	0.0074384715
33	0x3d0290b5	0.031876285
34	0x3d10b890	0.035332263
35	0xbcbb6549	-0.022875445
36	0xbbcc066d	-0.006226352
37	0xb5883763	-1.0148909e-06
38	0xbe218fa1	-0.15777446
39	0xb8aa0a12	-8.1081074e-05
40	0xbcbc48b4	-0.022983886
41	0x3beb6da9	0.0071847034
42	0x3d9c166f	0.07621466
43	0xbef079c5	-0.46967903
44	0x3b9b21f9	0.0047342745
45	0xb7602eb8	-1.3362318e-05
46	0x3b6be90f	0.0035997068
47	0xbea5fb6f	-0.3241839
48	0xbe0699e7	-0.13144647
49	0xb97450ce	-0.00023299755
50	0x3e03e7a9	0.1288134
51	0xbc3d86d3	-0.011567789
52	0xbd143339	-0.036181662
53	0x3cd7576b	0.026286801
54	0xbca47ec9	-0.020079987
55	0x3e0c9a3d	0.13730712
56	0x3d1fe254	0.039034203
57	0xa71844b6	-2.1131486e-15
58	0xbd8f639f	-0.07001423
59	0x3d9dde9b	0.07708474
60	0xbea40ea1	-0.3204241
61	0x39e8f255	0.0004443104
62	0xbcba8ee5	-0.022773216
63	0x2f813102	2.3499785e-10
64	0xb59fa388	-1.1894017e-06
65	0x3d1be8e5	0.038063902
66	0x39a1acc7	0.00030837042
67	0x3dba69d6	0.09102218
68	0xb88dfbf0	-6.770331e-05
69	0x3ce40ad0	0.027837187
70	0xbec53bc6	-0.38522166
71	0x3d2313d2	0.039813824
72	0xbd0f417d	-0.034974564
73	0xbc648275	-0.013947119
74	0xbe56060d	-0.20900746
75	0xbd4479f7	-0.047967877
76	0x3d21c6bf	0.03949618
77	0xbee8f743	-0.45501146
78	0xbcc84bd7	-0.024450226
79	0xbbca724e	-0.006178177
80	0xbc53d059	-0.012928092
81	0x3dde8e15	0.10866944
82	0x3d521788	0.051291972
83	0x3191dab0	4.2449173e-09
84	0x38acca6d	8.239304e-05
85	0x3c055ed1	0.008140282
86	0x3bce875a	0.0063027563
87	0x35201778	5.9638796e-07
88	0x3d07958a	0.033101596
89	0xbcb5f145	-0.022209773
90	0x3b378ba9	0.0028006828
91	0xbd47a9d7	-0.048745956
92	0x3cc19c64	0.023634143
93	0x36a41dc6	4.891047e-06
94	0xbee10a49	-0.4395316
95	0x3cbbcbea	0.022924382
96	0x3db267c9	0.08711202
97	0xbc40f839	-0.011777931
98	0xbcaf22fe	-0.02137899
99	0xaa2dbcfb	-1.5431052e-13
100	0xb160ee70	-3.2731826e-09
101	0xbcd54597	-0.02603416
102	0xbd92bef9	-0.071653314
103	0xbd21022f	-0.039308723
104	0xb9a1a476	-0.00030830846
105	0xbd9cdc18	-0.07659167
106	0x391e0e4d	0.00015073382
107	0xbbfaa3e6	-0.0076489327
108	0xba71a0ff	-0.00092174107
109	0x3748b2e3	1.1962579e-05
110	0xbca42b09	-0.020040052
111	0x3d5f19a4	0.054467812
112	0x3d811a16	0.063038036
113	0x3c1993da	0.0093736295
114	0x3b491f9c	0.0030689007
115	0xacd2c494	-5.9903835e-12
116	0x3bab9464	0.0052361954
117	0x3d75ed83	0.060040962
118	0x3ddef6d3	0.10886922
119	0xbd0f0fe7	-0.034927275
120	0x384912da	4.793969e-05
121	0x3af76bd8	0.0018876744
122	0xbaa96dfc	-0.0012926455
123	0xbc3c911b	-0.011509205
124	0xbd164f5b	-0.036696773
125	0x3b1b4fbb	0.0023698646
126	0x3d833556	0.064066574
127	0xbd789847	-0.060692098
128	0x38b224a6	8.494528e-05
129	0xbb6cbbd9	-0.0036122708
130	0x3d5f7d46	0.05456283
131	0x3c2c8d46	0.010531729
132	0xbdec2f2f	-0.11532437
133	0xbd9dfbb2	-0.07714023
134	0xb7378d52	-1.0940554e-05
135	0xbdb1a44a	-0.08673914
136	0x3b0bed6e	0.0021351236
137	0x33a10053	7.497206e-08
138	0xbd64dc83	-0.05587436
139	0xbbe7c1ad	-0.0070726485
140	0x36f2376b	7.2186135e-06
141	0x3c311561	0.01080832
142	0xbd81702a	-0.06320222
143	0xbd8c98ce	-0.06865083
144	0xbd79bd81	-0.06097174
145	0x3cf2ebe9	0.029653506
146	0xbdf24d86	-0.11831193
147	0x3d22b8f4	0.039727166
148	0x3d4db946	0.05022552
149	0xb28dd6a9	-1.6512177e-08
150	0x3895a728	7.136009e-05
151	0xba5f191a	-0.00085105153
152	0x3d876bf4	0.06612387
153	0xbe439d3e	-0.19102952
154	0x3b1ac064	0.002361321
155	0xbd10719c	-0.035264596
156	0x3dfdb6ae	0.12388359
157	0xbd72fd1c	-0.059323415
158	0x3d03f197	0.03221282
159	0xbca94c07	-0.020666135
160	0x3d27800f	0.04089361
161	0x3c7c0f7f	0.015384554
162	0x3d7dca27	0.061960366
163	0xbd4c5bc0	-0.049892187
164	0xbe04356a	-0.12911001
165	0x36911a2e	4.3243845e-06
166	0x3cdc2588	0.026873365
167	0xb8990f94	-7.29851e-05
168	0xbd913458	-0.07090062
169	0xbb6bf5c4	-0.0036004642
170	0x3d7a8684	0.06116344
171	0xbde01ab0	-0.1094259
172	0xbd06fc20	-0.03295529
173	0x36f515cf	7.304108e-06
174	0x3b4d2692	0.0031303507
175	0x3d4a3aed	0.049372602
176	0x3daca1d9	0.084293075
177	0x3d3485d4	0.04407294
178	0xbe69dbbc	-0.22837728
179	0xbd2f7003	-0.042831432
180	0x3ca1cbba	0.019750465
181	0x3d2ef4f5	0.042714078
182	0xbd6aad97	-0.057294454
183	0xbe3752ae	-0.17902634
184	0xbc824dce	-0.01590624
185	0xa9760f0b	-5.463602e-14
186	0xbe977e48	-0.29588532
187	0xbe5b73f3	-0.2143095
188	0x3d2366e1	0.039893035
189	0xbd70fd0b	-0.05883507
190	0xbe21f884	-0.15817457
191	0xafdf8679	-4.0659012e-10
192	0x367afecf	3.740122e-06
193	0x3d6c0010	0.057617247
194	0xb99a6e4b	-0.00029455344
195	0xbcbb0de0	-0.022833765
196	0xb809e230	-3.2874e-05
197	0x3ce665a8	0.028124645
198	0x3d6d8cf8	0.057995766
199	0x3cd81869	0.026378827
200	0xbd63d5b2	-0.055623718
201	0xbd2944a7	-0.041325238
202	0x3c805b8e	0.015668657
203	0x3db183ed	0.08667741
204	0x3bb15ce3	0.0054126843
205	0xbccddd29	-0.025129871
206	0xbd5243fc	-0.051334366
207	0x3c14122d	0.009037537
208	0x3ac19f96	0.0014772292
209	0xbd5cb433	-0.05388279
210	0xbe2c7c8c	-0.16844386
211	0x31ae109d	5.065955e-09
212	0xb8cdcb43	-9.813022e-05
213	0xbd70420d	-0.05865674
214	0xbda0ec66	-0.078575894
215	0xb23b0988	-1.0887e-08
216	0xba6756ed	-0.00088249036
217	0xbda26767	-0.07929879
218	0x3bcc2547	0.0062300297
219	0xbe0a5fc9	-0.13513102
220	0x3c5ecdaf	0.0135988435
221	0xb80afa6c	-3.3134987e-05
222	0x3c3fe19a	0.011711502
223	0xbc1cf82f	-0.009580656
224	0xbe136704	-0.14394766
225	0xbdccaddd	-0.09994099
226	0xbc1ad242	-0.009449543
227	0x29c6d608	8.830095e-14
228	0xb0ff2f67	-1.8567164e-09
229	0x3dd059d8	0.10173386
230	0x3cc587b0	0.024112552
231	0xbe14b90f	-0.14523719
232	0xb990d451	-0.00027624008
233	0x3c45a04f	0.012062146
234	0x37a40c44	1.9556035e-05
235	0xba3ddf60	-0.00072430633
236	0x3bd57f65	0.0065154308
237	0x36030fe3	1.9529768e-06
238	0x3cbcafab	0.023032984
239	0xbc5544b4	-0.013016868
240	0x3d2163b3	0.03940172
241	0x3d6fc12a	0.058533825
242	0xbc078a74	-0.008272756
243	0xaded1749	-2.6954121e-11
244	0xbb526f3e	-0.0032109763
245	0xbd154431	-0.036441986
246	0x3d67b836	0.05657216
247	0x3d9c8027	0.076416306
248	0x3924f6a3	0.00015732138
249	0xbabc2e71	-0.0014357102
250	0xbad5e407	-0.0016318568
251	0x3d87b379	0.066260286
252	0xbd867331	-0.0656494
253	0xba2c923e	-0.0006583071
254	0x3d881ce4	0.066461354
255	0xbd71699d	-0.05893861

fc2.bias f4 [64]
0	0x371d6816	9.382164e-06
1	0x370ae864	8.279549e-06
2	0xb8cb84ec	-9.704553e-05
3	0x380778f0	3.229914e-05
4	0x377ba70c	1.49996595e-05
5	0xb7c573cc	-2.3538152e-05
6	0x389bbab6	7.4257536e-05
7	0x38680ef8	5.532705e-05
8	0x389b6d5c	7.411346e-05
9	0xb93459de	-0.00017199616
10	0xb936fd5a	-0.00017451253
11	0x37b75219	2.185353e-05
12	0xb628c340	-2.5147601e-06
13	0xb8ecebb0	-0.00011297257
14	0x38deb731	0.00010619907
15	0xb7d100cc	-2.4915113e-05
16	0xb7f7d47e	-2.9543644e-05
17	0xb8cb17c3	-9.68422e-05
18	0x385f8ab3	5.3296517e-05
19	0x37ff4b02	3.0433297e-05
20	0x389b4dc6	7.4054624e-05
21	0xb8965f1d	-7.1702736e-05
22	0xb8297f32	-4.04112e-05
23	0x38b6f91e	8.724838e-05
24	0xb6164c47	-2.239614e-06
25	0x36ee4aa8	7.101644e-06
26	0x3798659c	1.8167128e-05
27	0x386370b7	5.422599e-05
28	0xb87a66a5	-5.970024e-05
29	0x34f4930b	4.555553e-07
30	0x3907f292	0.00012964968
31	0xb994bbb4	-0.0002836861
32	0xb7629ea6	-1.3507588e-05
33	0x37e74570	2.756968e-05
34	0x38c16f18	9.22365e-05
35	0xb7f01c08	-2.8623283e-05
36	0x36d2a26a	6.277395e-06
37	0x37f41238	2.909555e-05
38	0x389d7e3e	7.509858e-05
39	0xb7581a4a	-1.2880724e-05
40	0xb6827106	-3.8874596e-06
41	0xb8523063	-5.0112965e-05
42	0x3865e962	5.481521e-05
43	0xb82393bb	-3.8999813e-05
44	0x37813b6c	1.5405669e-05
45	0x3801dcee	3.0961754e-05
46	0xb80558a6	-3.179223e-05
47	0xb8b6ea7d	-8.722113e-05
48	0x38e5ebaf	0.000109634704
49	0xb68340f2	-3.911665e-06
50	0x38e4f980	0.0001091836
51	0xb84228c2	-4.6291163e-05
52	0xb8491ea1	-4.795066e-05
53	0xb85312a8	-5.0323695e-05
54	0xb66f0ce2	-3.5621274e-06
55	0x374469a3	1.1707106e-05
56	0x377f57f9	1.5219667e-05
57	0x3849a062	4.8071503e-05
58	0x2862f278	1.2598097e-14
59	0x354d82e0	7.65589e-07
60	0x36bef56e	5.691013e-06
61	0x38acac27	8.233665e-05
62	0x35cb26e0	1.5135993e-06
63	0xb87ba7c6	-5.9999315e-05

bn2.weight f4 [64]
0	0x3ed3b1ae	0.41346496
1	0x3e2038a1	0.15646602
2	0x3e9fe5df	0.31230065
3	0x3e82644b	0.25467142
4	0x3e9d7f30	0.307611
5	0x3f0c7f26	0.54881513
6	0x3e891b98	0.26778865
7	0x3e047eb2	0.12938955
8	0x3ec08007	0.37597677
9	0x3e8adc27	0.27121088
10	0x3e9998d0	0.299994
11	0x3dcfa8ed	0.10139642
12	0x3e3b6ea3	0.18303923
13	0x3e867c8c	0.26266897
14	0x3e0f9f36	0.14025578
15	0x3e8c3330	0.27382803
16	0x3ea3efa1	0.3201876
17	0x3e92a613	0.2864233
18	0x3e2bf6c9	0.1679336
19	0x3e1bbebf	0.15209483
20	0x3eac83f4	0.33694422
21	0x3e85f966	0.26166838
22	0x3ed38d25	0.41318622
23	0x3da22656	0.07917468
24	0x3e6a0f8a	0.2285749
25	0x3f2a4508	0.66511583
26	0x3efb581d	0.49090663
27	0x3e9b3846	0.3031637
28	0x3edf08f3	0.43561515
29	0xb8b1b39f	-8.473475e-05
30	0x3e80d8de	0.25165457
31	0x3e461ddd	0.1934733
32	0x3f11c7d4	0.5694554
33	0x3e0fdf29	0.14049973
34	0x3e36eb5e	0.17863223
35	0x3e85f033	0.2615982
36	0x3e0d4d35	0.13798983
37	0x3e802eb4	0.25035632
38	0x3e3983d3	0.18116693
39	0x3e74c8e0	0.23904753
40	0x3ea18a7c	0.31550968
41	0x3d89f133	0.06735458
42	0x3ee035dc	0.4379109
43	0x3ea80ac3	0.3282071
44	0x3d944f47	0.072416835
45	0x3db94deb	0.09048065
46	0xbdb29207	-0.08719259
47	0x3e1cafd5	0.1530145
48	0x3e4daa31	0.20084454
49	0x3b034690	0.0020031072
50	0x3ed2d2b3	0.41176376
51	0x3e9be13d	0.3044528
52	0x3edf1135	0.43567815
53	0x3e88f348	0.2674811
54	0x3d72a5e1	0.059240226
55	0x3f31c6e1	0.6944409
56	0x3dee9406	0.11649327
57	0x3ecb7213	0.3973547
58	0x309a5ead	1.1231883e-09
59	0x3e4ba3b1	0.19886662
60	0xbb90181c	-0.0043974053
61	0x3e3e7fec	0.18603486
62	0x3d923543	0.07139065
63	0x3ea18164	0.3154403

bn2.bias f4 [64]
0	0xbe9c6ab2	-0.30550152
1	0xbd9b1a45	-0.0757337
2	0xbe78fa9f	-0.24314354
3	0xbdf3e53f	-0.119089596
4	0xbe92202c	-0.2854017
5	0xbf3cf24c	-0.73807216
6	0xbe80874f	-0.25103232
7	0xbdc7211d	-0.09723113
8	0xbec3cbf9	-0.38241556
9	0xbe5006f1	-0.20315148
10	0xbe8ade30	-0.2712264
11	0xbd98e6de	-0.074659094
12	0xbdcb0ad0	-0.09914172
13	0xbe7249fa	-0.23661032
14	0xbd685fc2	-0.056731947
15	0xbe91410a	-0.28369933
16	0xbe95355c	-0.29142272
17	0xbe1482b9	-0.14502992
18	0xbd7386e8	-0.05945483
19	0xbe5051cf	-0.20343708
20	0xbe95b35d	-0.29238406
21	0xbe744e3b	-0.23857968
22	0xbec665e7	-0.3874962
23	0x3d50fccd	0.05102234
24	0xbe88305a	-0.2659939
25	0xbf62270e	-0.8834084
26	0xbf2fa904	-0.6861727
27	0xbe8ed6a9	-0.27898148
28	0xbf0f8225	-0.5605796
29	0xbc70a177	-0.014686934
30	0xbe80fc63	-0.25192556
31	0xbdebbf8f	-0.11511146
32	0xbf482495	-0.7818082
33	0xbd1a3914	-0.03765209
34	0xbdabbb82	-0.08385374
35	0xbe871d8b	-0.26389727
36	0xbe40c66d	-0.18825693
37	0xbe7ee129	-0.2489058
38	0xbdd3c900	-0.10341072
39	0xbe4d5b3c	-0.20054334
40	0xbe85a311	-0.26100972
41	0x3d3b8b0a	0.045786895
42	0xbf13231e	-0.5747546
43	0xbe812dbf	-0.25230214
44	0x3d2304b9	0.039799426
45	0x3d4d61ff	0.050142284
46	0x38b6fa90	8.725107e-05
47	0xbd3e5e06	-0.046476386
48	0xbe096ec7	-0.13421164
49	0xbc950ea4	-0.018195458
50	0xbf05766b	-0.52133816
51	0xbe992dbb	-0.29917702
52	0xbf046e55	-0.51730853
53	0xbe427141	-0.18988515
54	0xbe040f6b	-0.12896506
55	0xbf61c933	-0.8819763
56	0xbd9bd6b6	-0.07609312
57	0xbe90e7ad	-0.28301755
58	0xb94b95af	-0.0001941535
59	0xbe6dab52	-0.23209885
60	0xbd103240	-0.035204172
61	0xbdbc5345	-0.0919557
62	0x3d1ef0b6	0.03880378
63	0xbe7d5dc6	-0.24742803

bn2.running_mean f4 [64]
0	0xbea5f057	-0.32409927
1	0xbde7fe2e	-0.11327778
2	0xbea71da7	-0.3263981
3	0xbe1fff37	-0.156247
4	0xbe82c152	-0.25538117
5	0xbe951327	-0.29116175
6	0xbe8ceaaf	-0.275228
7	0xbd6c5d38	-0.057706088
8	0xbe9faf6a	-0.31188518
9	0xbd68c3a2	-0.056827195
10	0xbdfc4d07	-0.12319379
11	0xbd972baa	-0.07381375
12	0xbdf02658	-0.117260635
13	0xbe941b8e	-0.28927273
14	0xbdfeb2d4	-0.124364525
15	0xbda58668	-0.080822766
16	0xbe80ae1d	-0.25132838
17	0xbe3ed3a2	-0.18635419
18	0xbd89eda9	-0.06734783
19	0xbd81158a	-0.063029364
20	0xbe9e5cdd	-0.30930224
21	0xbe4bc9a0	-0.19901133
22	0xbe9e6950	-0.30939722
23	0x3e16d6c4	0.14730364
24	0xbe1e522f	-0.15461038
25	0xbe9cc8c1	-0.30621913
26	0xbe898eff	-0.2686691
27	0xbea2ab54	-0.31771338
28	0xbe98b189	-0.2982295
29	0xb8c450de	-9.361071e-05
30	0xbde42511	-0.11139882
31	0xbe18a60b	-0.1490709
32	0xbe38aeda	-0.1803545
33	0xbdf30c70	-0.11867607
34	0xbdf30329	-0.11865837
35	0xbe9c4e1c	-0.30528343
36	0xbdf9f8e1	-0.12205673
37	0xbe221f9f	-0.15832375
38	0xbe48d969	-0.19614185
39	0xbdf9f7b9	-0.122054525
40	0xbeade670	-0.33964872
41	0x3e940b6d	0.28914967
42	0xbe8f8a56	-0.2803523
43	0xbe82270b	-0.25420412
44	0x3dc765c6	0.097362086
45	0x3e99b427	0.30020258
46	0xbe30413a	-0.17212382
47	0xbe06a0a6	-0.1314722
48	0xbe86b55d	-0.26310244
49	0xbb41a933	-0.0029550313
50	0xbe899dae	-0.26878113
51	0xbe8ced5e	-0.27524847
52	0xbea07f06	-0.3134691
53	0xbe87a42a	-0.26492435
54	0xbc89ddb6	-0.016829353
55	0xbeb2dcda	-0.3493412
56	0xbcfaca47	-0.030614031
57	0xbe8c932e	-0.2745604
58	0x2e9ff7e8	7.27452e-11
59	0xbe41d31c	-0.18928188
60	0x3aa54f6b	0.0012612169
61	0xbdea593d	-0.11442802
62	0x3e883ae7	0.2660744
63	0xbeb11dfb	-0.34593186

bn2.running_var f4 [64]
0	0x3dc008e6	0.09376697
1	0x3d24a8aa	0.040199913
2	0x3d8b1863	0.06791761
3	0x3da71fe3	0.08160379
4	0x3d960f7c	0.07327172
5	0x3db46032	0.0880741
6	0x3d278a86	0.04090359
7	0x3cc11768	0.023570731
8	0x3d998377	0.07495778
9	0x3d3fe3e9	0.04684821
10	0x3d287a53	0.041132282
11	0x3cafde68	0.021468356
12	0x3d0ed561	0.034871463
13	0x3d4b5fc3	0.049651872
14	0x3d309d74	0.04311891
15	0x3d278f73	0.04090829
16	0x3d82b789	0.06382663
17	0x3da3ed2b	0.080042206
18	0x3d3b9b7b	0.045802575
19	0x3d1d89c4	0.03846146
20	0x3d882cf6	0.066492006
21	0x3d604c52	0.054760285
22	0x3d972c30	0.07381475
23	0x3d29cd0f	0.041455325
24	0x3cafc2b5	0.021455148
25	0x3deb7d33	0.11498489
26	0x3daf67f4	0.08564749
27	0x3ddb07c2	0.10694839
28	0x3da96e30	0.0827297
29	0x34f83abc	4.6236335e-07
30	0x3d1ff259	0.03904948
31	0x3cc85ece	0.024459269
32	0x3d93de35	0.07220117
33	0x3da28601	0.079357155
34	0x3d17159b	0.03688584
35	0x3d779c8a	0.06045202
36	0x3cd656e2	0.026164476
37	0x3d479387	0.048724677
38	0x3d3a6911	0.045510355
39	0x3d46d4eb	0.0485429
40	0x3da314a5	0.07962922
41	0x3d841bd9	0.06450624
42	0x3da86eb5	0.08224241
43	0x3d55dead	0.052214313
44	0x3cb8bac3	0.022549992
45	0x3d99e4a7	0.07514315
46	0x3ce51d9e	0.027968224
47	0x3d4638cc	0.04839401
48	0x3d7b84ae	0.06140583
49	0x3783481a	1.5649992e-05
50	0x3da316e1	0.07963348
51	0x3d256839	0.040382598
52	0x3da85793	0.082198285
53	0x3d6277dd	0.05529009
54	0x3b003acf	0.0019566303
55	0x3e106a63	0.14103083
56	0x3cd46d10	0.025930911
57	0x3e2bc475	0.16774161
58	0x232f71c5	9.510861e-18
59	0x3d12a458	0.03580126
60	0x38947b87	7.080199e-05
61	0x3d113886	0.035454296
62	0x3d7e8aec	0.062144205
63	0x3dacc36e	0.08435713

fc3.weight f4 [16, 64]
0	0xbd380112	-0.044922896
1	0x3d5abf60	0.053405166
2	0xbdd54547	-0.10413604
3	0x3cf5e60c	0.030016921
4	0xbd211af3	-0.03933234
5	0x3ec561df	0.38551232
6	0xbd22a4f2	-0.039708085
7	0x3dc5af0a	0.09652527
8	0xbe5e1962	-0.2168937
9	0xbb7d41b1	-0.0038643891
10	0x3c520bc2	0.012820186
11	0x3c9ac5af	0.018893091
12	0xbd130334	-0.035891727
13	0x3da06853	0.07832398
14	0x3d8e1aee	0.0693873
15	0x3c9184c0	0.017763495
16	0xbd9b3b8c	-0.07579717
17	0x3c996a25	0.018727371
18	0x3d3e03a3	0.046390187
19	0x3c4911c0	0.012272298
20	0x3b218fea	0.002465243
21	0xbcae8065	-0.021301458
22	0x3c4914f7	0.012273065
23	0x3d1802d6	0.03711208
24	0xba448ceb	-0.0007497805
25	0xbcea3dfa	-0.028594006
26	0x3ee9e13c	0.45679653
27	0xbe0cf099	-0.13763656
28	0xbd839043	-0.06424
29	0x3a32248c	0.0006795607
30	0xbbd08ec8	-0.006364677
31	0xbb24f676	-0.0025171316
32	0x3e02cd75	0.12773688
33	0x3d200748	0.039069444
34	0x3dd822d2	0.105535164
35	0x3dd406c6	0.103528544
36	0x3dd82e4d	0.10555706
37	0x3c8c3d7c	0.017119162
38	0x3ce30e11	0.027716668
39	0x3d88ac85	0.066735305
40	0x3e3342ad	0.17505904
41	0xbd8e41ba	-0.0694613
42	0x3ecdd054	0.40198004
43	0x3e7bb98b	0.24582498
44	0x3c3b47c2	0.011430683
45	0xbd717b91	-0.058955733
46	0x3b7fe516	0.0039046458
47	0x3cfbf7ec	0.030757867
48	0x3dd56b57	0.10420864
49	0x3b50d429	0.0031864739
50	0x3ceb54d4	0.028726973
51	0xbde2e031	-0.11077917
52	0x3eb57094	0.35437453
53	0xbdafb017	-0.08578508
54	0x3cb1b36c	0.021692
55	0xbd153c99	-0.036434744
56	0x3d8fee62	0.0702789
57	0xbe6343d6	-0.22193846
58	0xb8c6aca0	-9.47353e-05
59	0x3d2678d0	0.04064256
60	0xba88a68e	-0.0010425614
61	0x3ddbb111	0.10727132
62	0xbcaa34f3	-0.020777201
63	0x3e173375	0.14765723
64	0x3d689c65	0.056789774
65	0xbe610e9e	-0.21978232
66	0xbe085113	-0.13312177
67	0x3e3d3a9c	0.18479389
68	0x3daed9ea	0.085376576
69	0xbe807990	-0.25092745
70	0xbd7bc22f	-0.061464485
71	0xbe41db12	-0.18931225
72	0xbe21e841	-0.15811254
73	0xbc0bc1b2	-0.008530067
74	0x3e0bb93c	0.1364488
75	0x3d27d690	0.040976107
76	0x3d3fe6c1	0.046850923
77	0xbe0c8b02	-0.13724902
78	0xbd84cb89	-0.06484134
79	0xbe843e92	-0.25828987
80	0x3d1d1268	0.03834763
81	0x3d1c8276	0.038210355
82	0xbe437a7f	-0.19089697
83	0x3dc5cb77	0.096579485
84	0x3d533728	0.051566273
85	0x3e07b6a7	0.1325327
86	0xbe4555c9	-0.19271006
87	0xbd8703fa	-0.06592555
88	0x3dba7943	0.0910516
89	0xbe1db708	-0.15401852
90	0xbe145567	-0.14485703
91	0xbd598e6c	-0.05311434
92	0xbd764e63	-0.06013335
93	0xbb86c4a2	-0.004112796
94	0xbe389b6a	-0.18028036
95	0x3d385804	0.045005813
96	0xbef960bd	-0.48706618
97	0xbd20b3a8	-0.039233834
98	0xbde0260d	-0.109447576
99	0x3a613bdc	0.00085919886
100	0xbb37f9e7	-0.0028072537
101	0x3dbd692f	0.09248578
102	0x3d79b531	0.060963813
103	0x3e1e6747	0.15469085
104	0xbc76b64d	-0.015058112
105	0xbd9a35ab	-0.075297676
106	0xbd864236	-0.065555975
107	0xbd016284	-0.031588092
108	0xbe1adab3	-0.1512249
109	0xbdb1c069	-0.086792774
110	0xbd886074	-0.06659022
111	0xbd670281	-0.056398872
112	0xbe829b4c	-0.25509107
113	0x3b98ccbf	0.0046630795
114	0xbc7c1e28	-0.015388049
115	0xbe16a8ff	-0.14712904
116	0x3bcd52e1	0.0062659835
117	0xbdab421c	-0.08362219
118	0x3d0b764a	0.034048356
119	0xbe39e765	-0.18154676
120	0xbe2d2a2a	-0.16910616
121	0xbdff7078	-0.124726236
122	0xb96111ff	-0.00021464376
123	0x3cf2b550	0.029627472
124	0x3b8b019f	0.0042421366
125	0xbe83d88d	-0.25751153
126	0xbdd12536	-0.102121755
127	0x3c2c6819	0.010522866
128	0x3d7ee459	0.062229488
129	0xbe4f07fb	-0.20217888
130	0xbd89928d	-0.067174055
131	0x3e13f592	0.14449146
132	0x3d1e1361	0.0385927
133	0xbcaef7f9	-0.021358477
134	0x3c4004b9	0.011719876
135	0xbab77ac5	-0.001399838
136	0x3b4b1e77	0.00309935
137	0x3e2411b2	0.16022375
138	0x3c6d80a1	0.014496
139	0x3db75c16	0.08953111
140	0x3de694b4	0.112588316
141	0xbdb9785f	-0.09056162
142	0xbb23340d	-0.002490285
143	0xbd7461ba	-0.05966351
144	0x3c9a330b	0.018823167
145	0x3d7dfd32	0.062009044
146	0x3c2c67c7	0.010522789
147	0x3c196a76	0.009363761
148	0x3df4f35c	0.119604796
149	0x399b2ffb	0.00029599652
150	0xbe625edd	-0.221065
151	0xbd03c972	-0.032174535
152	0x3d4dbc70	0.050228536
153	0x3ec436b3	0.38322982
154	0xbc61d975	-0.013784756
155	0xbd8e6fce	-0.06954919
156	0x3eaaade8	0.33335805
157	0x3ae45173	0.0017419293
158	0xbd130735	-0.035895545
159	0x3dd3f6b4	0.10349789
160	0x397aa7de	0.00023904393
161	0x3db6de83	0.089291595
162	0x3c34f812	0.011045473
163	0x3d9b4527	0.07581549
164	0x3cc7c47c	0.024385683
165	0x3ebb1f9e	0.3654756
166	0x3dc656f4	0.09684554
167	0xbc849eb3	-0.016188955
168	0xbc37e97a	-0.011225099
169	0xbd5639d2	-0.052301235
170	0xbbbf1e94	-0.0058325026
171	0xbc78a435	-0.015175869
172	0x3bd10630	0.0063789114
173	0xbdbf7cce	-0.093499765
174	0xbd0bd5e0	-0.034139514
175	0xbc6007af	-0.013673707
176	0xbd99fc2a	-0.075187996
177	0xbbbd650e	-0.005779869
178	0x3e8b5b4a	0.27218086
179	0xbb34fbdb	-0.0027615938
180	0xbcb6a4b4	-0.022295333
181	0x3d389de8	0.045072466
182	0x3d4b7886	0.049675487
183	0x3ed02b1f	0.406579
184	0xbcf4f180	-0.029900312
185	0x3c6be8fa	0.014398808
186	0xb7bf620e	-2.2814635e-05
187	0x3daa0bc5	0.08303026
188	0xbb26e5c1	-0.0025466534
189	0xbd9a880e	-0.075454816
190	0xbd86b402	-0.065773025
191	0x3d34d9a6	0.04415288
192	0xbe7c5235	-0.24640734
193	0x3e0d8285	0.1381932
194	0xbd707cf0	-0.0587129
195	0xbcbe9a91	-0.023267062
196	0xbcafb44e	-0.02144828
197	0x3ebe4299	0.37160185
198	0x3cc90c5f	0.024542032
199	0x3d9e1e96	0.077206776
200	0xbe8535b9	-0.2601755
201	0xbd5b0074	-0.05346723
202	0x3cd16748	0.025561944
203	0x3e0340f7	0.12817751
204	0xbc84dd87	-0.016218914
205	0x3d6b714e	0.057481103
206	0xbcc85ee4	-0.02445931
207	0xbc8dfa9a	-0.01733141
208	0x3caa7b69	0.0208108
209	0xbc20465c	-0.0097824
210	0x3dad9cbf	0.084771626
211	0xbd0000c2	-0.031250723
212	0xbd524673	-0.051336717
213	0xbca9d2d3	-0.020730412
214	0x3db441bc	0.088016
215	0x3d715293	0.05891664
216	0xbd09b42c	-0.03361909
217	0xbd7b3c67	-0.0613369
218	0x3ef3c63c	0.47612178
219	0xbd8fa9d5	-0.07014815
220	0xbcc75f74	-0.024337508
221	0xbb99ff3e	-0.0046996167
222	0x3ccea433	0.02522478
223	0xbd2165d9	-0.03940377
224	0x3d9018d4	0.070359856
225	0x3d4d0096	0.050049387
226	0x3de5ef7e	0.1122732
227	0xbd6a4873	-0.057198
228	0x3df87328	0.12131339
229	0x3ce6e4ca	0.028185267
230	0xbb3a0852	-0.0028386307
231	0x3c9ff4ad	0.01952585
232	0x3d71d9e3	0.059045684
233	0xbd56ec25	-0.0524713
234	0x3ee3f72c	0.44524515
235	0x3da06459	0.0783164
236	0x3c5f9087	0.013645298
237	0xbd009b10	-0.03139788
238	0x3d541487	0.05177739
239	0x3dfc8ee0	0.12331939
240	0x3d286c50	0.04111892
241	0x3b9b79e9	0.0047447574
242	0xbca8f8fd	-0.02062654
243	0xbd3dc87b	-0.04633377
244	0x3eddb21a	0.43299943
245	0xbd55ad23	-0.05216707
246	0x3d115ff3	0.035491895
247	0xbdabbaca	-0.083852366
248	0x3d8c3e14	0.06847778
249	0xbddcb682	-0.10776998
250	0xb75ae403	-1.3046901e-05
251	0x3dc3f8a4	0.09568909
252	0x3aae12b4	0.001328072
253	0x3dd93d16	0.10607354
254	0xbc5ccac4	-0.0134760775
255	0x3d2f23a8	0.042758614

fc3.bias f4 [16]
0	0x3941608a	0.00018441878
1	0x39678709	0.00022080181
2	0x38159390	3.5661797e-05
3	0xb907329e	-0.0001289346
4	0xb8992694	-7.302794e-05
5	0x38c66a24	9.461146e-05
6	0x37ae078b	2.0745929e-05
7	0xb7004110	-7.644543e-06
8	0xb9286703	-0.00016060103
9	0xb9370ab0	-0.00017456221
10	0xb8a593b4	-7.895325e-05
11	0x3754f42a	1.2693034e-05
12	0xb95c4c10	-0.0002100917
13	0x38943419	7.066894e-05
14	0x399dc5fa	0.00030092878
15	0xb997509c	-0.00028861023

bn3.weight f4 [16]
0	0x3f89e0a0	1.0771675
1	0x3f95ea6d	1.1712166
2	0x3f8fd5d7	1.1237134
3	0x3f8e6dbf	1.1127242
4	0x3fa46e4c	1.284616
5	0x3f9303ab	1.1485494
6	0x3fb5624e	1.4170625
7	0x3f91ec45	1.1400229
8	0x3f93270a	1.1496289
9	0x3fbef546	1.4918602
10	0x3f8dda7e	1.1082304
11	0x3f8e9de5	1.1141936
12	0x3f3c824f	0.73636335
13	0x3fa8d111	1.3188802
14	0x3f853bb7	1.0408849
15	0x3f7d1d6f	0.9887304

bn3.bias f4 [16]
0	0xbf01107b	-0.5041577
1	0xbf4d0214	-0.80081296
2	0xbf17e72b	-0.5933711
3	0xbf13d8f1	-0.577529
4	0xbf579173	-0.8420631
5	0xbeecfb0b	-0.4628528
6	0xbf574bcd	-0.8410004
7	0xbed5cea3	-0.41759214
8	0xbec5bba7	-0.3861973
9	0xbf8343cb	-1.0255064
10	0xbf13f3ed	-0.57794076
11	0xbeb262bb	-0.3484095
12	0xbecce935	-0.40021673
13	0xbf683875	-0.90711147
14	0xbf2170a1	-0.63062483
15	0xbee3989d	-0.44452372

bn3.running_mean f4 [16]
0	0x3c25340e	0.010083212
1	0xbd76ed45	-0.06028487
2	0xbb48eb7f	-0.0030657945
3	0x3c87bee6	0.01657052
4	0xbd95248a	-0.0728236
5	0x3a3ea222	0.00072720845
6	0xbd6d5dd1	-0.0579508
7	0xbc81becc	-0.01583805
8	0xbc48b854	-0.0122509785
9	0xbd93af03	-0.07211115
10	0xbd7e9e38	-0.062162608
11	0x3a9d0d30	0.001198208
12	0xbca94012	-0.020660434
13	0xbd96e485	-0.073678054
14	0xbd9563ba	-0.07294412
15	0xbcc97d8a	-0.024595995

bn3.running_var f4 [16]
0	0x3beb3829	0.0071783257
1	0x3b8d4894	0.0043116305
2	0x3bac2cea	0.0052543776
3	0x3c07b350	0.0082824975
4	0x3c009dca	0.00785012
5	0x3c102c66	0.008799648
6	0x3c10d160	0.008838981
7	0x3bc10c5b	0.0058913655
8	0x3c027597	0.007962606
9	0x3c292ea0	0.010326058
10	0x3b65ce93	0.0035065755
11	0x3bfe78e3	0.0077658757
12	0x3b1b2326	0.0023672073
13	0x3bc8055e	0.0061041554
14	0x3b525aaf	0.0032097509
15	0x3b56b715	0.0032762934

fc4.weight f4 [1, 16]
0	0xbf994e24	-1.1976972
1	0xbfbc50a9	-1.4712116
2	0x3fa3b390	1.2789173
3	0xbfa4e1ef	-1.288145
4	0xbfd20ced	-1.6410195
5	0x3f9e6961	1.2375909
6	0x3fc51cf2	1.5399458
7	0x3fa0078d	1.2502304
8	0x3f999c10	1.2000751
9	0xbff3c23f	-1.9043654
10	0x3f9f6931	1.2453977
11	0xbf961993	-1.1726555
12	0xbf570e22	-0.8400594
13	0x3fdaefa0	1.7104378
14	0xbf9da448	-1.231576
15	0xbf8b5b78	-1.0887289
