model_big_small_trained.pth (torch, 54337 bytes, 19 tensors)

fc1.weight f4 [128, 11]
00000000: 8692 883e 6f91 8dbe 2d95 853d 5a5d 91be
00000010: 99eb 12be 94d9 67be c228 dc3d d574 623e
00000020: ff56 18bd 19ae 2fbe ab26 b0bb 43fc 83bd
00000030: 7758 babc fccb 813e 7a0e ac3d d330 f03d
00000040: d83f 8c3e 7376 d1bc b3d0 83bd b0da 153c
00000050: f480 01bd 0f1b 83bc 7ede 863e 84fe 733e
00000060: 4c71 ea3d 05c2 abbd b04d 8f3c 31e7 3ebc
00000070: ee0f 80be c74a 96be 76a6 303e 5307 0c3e
00000080: 246f 2a3e bc13 d53c 7b04 0bbe 3f4b 65be
00000090: 38c2 45be 640c 813e 11f3 303d f490 12be
000000a0: 3d69 e13d 8c1d 66be 7fef d0bd 7800 77bd
000000b0: 29d5 303e a021 423e 5a54 473d f2a6 e83a
000000c0: 3aee 3dbe b6ad 8ebc 6268 8c3d a05a 813e
000000d0: bf3d cbbd 3809 de3d 8db7 0c3e f671 233d
000000e0: d6f3 773e 6a32 833e 1529 d13d 0860 7bbe
000000f0: 3203 043d ef43 753e b27d 26be ac12 9abc
00000100: 3a89 913d 68a5 7bbc 3740 4a3e 22df 85bd
00000110: c638 d03d 9082 7dbe 2b35 9dbe f616 9e3d
00000120: a711 873e 33ac 2b3e b2e6 16be aab8 28be
00000130: f5f9 1dbe e5d9 88bd 47f3 6dbe 4e24 b63d
00000140: 5cbc 673d b009 14bd 3ab1 37be 1adb 47be
00000150: 8cf4 8a3e d081 323e 2a0d c43c f731 24be
00000160: 648a debb 5a97 963d c005 c93d e357 0ebe
00000170: b66c 213e 1163 853e 4563 293e 3967 6ebe
00000180: d236 f2bd 45c7 84bd d4c6 ba3d 360b 65be
00000190: 8b51 963e f296 35be ccb5 0bbd 9aa2 443d
000001a0: c8fc 573e 6c0f 01be fc0d 11bd bef0 873d
000001b0: 5133 bebc ab44 48be 34a3 54bc 8a20 c7bd
000001c0: 7523 1a3e f592 333e 0e2d 43be 037c 71bd
000001d0: 44e6 77be a41d 6f3e 9cde bf3d efad 75be
000001e0: 540c 96be 99a1 d23c e6f9 803e 0377 5abe
000001f0: d01d 543e a969 90be 3da7 a33d 24de 97be
00000200: af74 4d3e 3c8a 2d3e 2775 903e 0465 4bbc
00000210: 1c81 7fbe 122b 8d3d 7ebe cebd 1357 583e
00000220: 93d3 063e 2689 29be 6310 06be f25b 993e
00000230: cada 8a3c 96fa a13d cbef 773e 47ce 813e
00000240: f38b 7cbd 5948 943d c493 a8bd f3de 843e
00000250: 155b 903e d86d 6f3e 7ab5 10bd 583d 78be
00000260: ece9 8d3e 9763 243e 15e6 02bd 48fc 5f3e
00000270: 3b82 0ebe 6d2f 8b3e 6423 ef3d 1da0 1ebd
00000280: 511a 8f3d b5dd 123e 2c41 e2bd f7b4 883e
00000290: 9a9f fdbd 6d53 f53d 1595 fdbd 239c bebd
000002a0: 6576 ebbd 3fc6 ae3d b780 85be f3e3 f8bc
000002b0: c313 e8bd 19c9 63be 1ed7 82be 503f 613e
000002c0: 4c1a 8abe 0a8a 813e 7264 31be 2752 66be
000002d0: dbb7 40be 7164 f03d 34a8 dbbd 2508 8bbd
000002e0: 8a36 633e 5c82 733e de75 44be 8124 53bd
000002f0: 19ba 103e 2b75 a93d 3c10 6d3d 2482 71be
00000300: 3a7c 863e d8c4 75be a1e0 6cbe 3d18 923e
00000310: e7bd 393e b8cc a03d c17a 143e 9b96 afbd
00000320: b13e 913b fae7 393e c6bf 6abe f25d febd
00000330: 8104 373d b38c 963b 6c89 5b3e ca42 8cbe
00000340: 5446 fb3b fc06 543e 6564 99be 6b0f 64be
00000350: 9c04 afbb 1e16 1dbe ee22 ddbb 321d 88be
00000360: 2684 8cbd a5f2 ce3d a063 473e 839e 5bbe
00000370: 2633 53be 5617 3d3e 4afa 55be 4f79 06be
00000380: de6c 24bd e465 c9bd ecbf e23d 30c4 453c
00000390: 8ce8 053d f168 0cbe db90 1cbe 59af 883e
000003a0: e42b 7b3e f81e 2abe a621 82bd bf04 803e
000003b0: e71e 8fbe e99f 46be 885b eb3d 696a 0dbe
000003c0: a2fe 4fbe 1dfb 2cbe 97b0 243e 2d84 67bd
000003d0: e95d 4d3e d094 933e 0ef1 223c b758 fabd
000003e0: b9a2 b53d bf36 1b3e 88ce 7d3d 4c7c 88be
000003f0: 8525 29be e9ed 5f3d 96ba 36be a35c 1abd
0.2667429 -0.2765002 0.06522594 -0.28391534 -0.14347686 -0.22641593 0.107499614 0.2211488
-0.03719234 -0.17156257 -0.0053757033 -0.064445995 -0.022747261 0.2535094 0.08401199 0.117280625
0.2739246 -0.025569176 -0.064362906 0.009146377 -0.03161712 -0.016004113 0.26341623 0.23827559
0.11447391 -0.08386616 0.017493099 -0.0116518 -0.25012153 -0.29353926 0.17251 0.13674669
0.1664396 0.026010387 -0.13575928 -0.22391985 -0.1931237 0.25204766 0.043200556 -0.14313108
0.11006401 -0.22472209 -0.1020193 -0.06030318 0.17268814 0.1895814 0.04866443 0.0017749949
-0.18547907 -0.017416816 0.06855847 0.25264454 -0.099238865 0.10841602 0.13741894 0.039903603
0.2421411 0.256244 0.10212914 -0.24548352 0.03222961 0.23951696 -0.16258886 -0.018807732
0.07106252 -0.01535926 0.19751059 -0.065367 0.10167079 -0.24756837 -0.30704626 0.07719223
0.26380655 0.16764908 -0.14736441 -0.16476694 -0.15427382 -0.06682185 -0.23237334 0.08893643
0.056576118 -0.03614205 -0.179387 -0.19517174 0.271397 0.17432332 0.023932058 -0.16034685
-0.0067914 0.07353087 0.0981555 -0.13900714 0.15764126 0.26052144 0.16541775 -0.23281564
-0.118268624 -0.0648332 0.09119955 -0.22367558 0.29359087 -0.17733362 -0.034108922 0.04800663
0.21092522 -0.12603539 -0.035413727 0.06637715 -0.023217829 -0.19557445 -0.012978364 -0.09723003
0.15052588 0.17536528 -0.19060156 -0.058956157 -0.24208933 0.23351151 0.09368631 -0.23992132
-0.2930628 0.025711821 0.25190657 -0.21334462 0.20714498 -0.28205612 0.079908825 -0.29661667
0.20064043 0.16947263 0.2821438 -0.012414221 -0.24951595 0.06892981 -0.10094927 0.21126966
0.13166647 -0.16556224 -0.13092189 0.2995296 0.01695003 0.079091236 0.24212568 0.2535269
-0.061656903 0.07240362 -0.08231309 0.25951347 0.2819449 0.23381746 -0.03532932 -0.24242151
0.2771753 0.16053616 -0.031957705 0.21873581 -0.13916866 0.2718462 0.11676672 -0.038726915
0.06987441 0.14342387 -0.11047587 0.26700565 -0.12383957 0.11978803 -0.12381951 -0.093071245
-0.11497191 0.08533906 -0.26074764 -0.030382132 -0.11331894 -0.22244681 -0.25554746 0.21996808
-0.26973188 0.25300628 -0.17323473 -0.22492276 -0.18820135 0.11737908 -0.107254416 -0.06788663
0.22188774 0.23780197 -0.19185588 -0.051548485 0.1413349 0.08274301 0.05787681 -0.23584801
0.26266652 -0.24000871 -0.23132564 0.28534117 0.18138848 0.07851547 0.14499952 -0.085736476
0.004432522 0.18154898 -0.22924718 -0.124202624 0.04468203 0.0045944094 0.21439141 -0.27394706
0.007668296 0.2070579 -0.29959407 -0.22271506 -0.0053411257 -0.15340468 -0.0067485487 -0.26584774
-0.06861143 0.101048745 0.19471598 -0.21447186 -0.2062498 0.18465933 -0.20896259 -0.13132213
-0.040142886 -0.09833887 0.110717624 0.0120707005 0.032692477 -0.13711907 -0.15289633 0.2669628
0.24528462 -0.16613376 -0.06354074 0.2500362 -0.27953264 -0.19396938 0.114920676 -0.13810124
-0.20311978 -0.16892667 0.16082989 -0.056522537 0.20055355 0.28824472 0.009945167 -0.12223952
0.088689275 0.15157603 0.06196454 -0.2665733 -0.16518219 0.05467025 -0.17844614 -0.037686

fc1.bias f4 [128]
00000000: cc1b 683d 80f4 5b3e 1260 e8bd 6c3b 49be
00000010: 50c1 60bd bec7 1cbc e96c 6fbe da8d 4dbb
00000020: 8706 96bd f7a0 8ebd aa7a c53d 0877 073e
00000030: 7e6e 02be f527 8bbd 2e02 82be 5a1d 54be
00000040: a45f a83d 01d5 e03d fdec 823e 4468 6ebe
00000050: 9722 523e 22da c0bd 08b6 c1bd e494 023e
00000060: 5f03 76be 12dc 813e 27fc d2b9 77a3 3b3e
00000070: 090b 613d 9f6c 823e 8524 45be 7a3a 143d
00000080: 60ff bcbd ccc9 003e 8caf 5cbe 7e13 c2bd
00000090: 485c cdba fe0b 81be e0b1 4638 0d55 ce3d
000000a0: 41d3 683d 2ba4 313e 919c 31be 95a9 fb3d
000000b0: 0a2e c8bd f3cb 173e c945 9abd 34c2 8dbe
000000c0: f837 833c 8a05 08be c7da 303d bf10 2d3d
000000d0: 1ef5 023b 436d 1cbd 84d9 613e c4d0 483e
000000e0: ca82 813e 93ce 913d 7881 a7b4 044d 3cbe
000000f0: 50f9 82be 97c5 7ebe 5451 403e d9bc 84be
00000100: f91d 8e3e 0a3c 8fbe 30f3 313e fae3 cf3d
00000110: 8703 1ebe bfa4 19be e096 493e dbc6 1fbe
00000120: 5e58 b93c 9da8 0e3d 1b14 f63d 358c 523e
00000130: 2cc0 20be f10d 483e a7c6 133e a858 72bd
00000140: 4659 04be afca 7e3e 72fc 50be 15a9 ec3d
00000150: 61b8 a23d 33cb cf3d 3a22 a7bb 4d01 83be
00000160: eb40 d03d 40d4 8a3e f762 233c 84d8 4b3d
00000170: aef9 c4bd 514d 7abe 983d 3bbe 22fc 89be
00000180: f0d2 88be 5b6b 02be cc34 54be a3dd 713e
00000190: 8080 5f3e 068e 98bd ef5b 62be 4745 40bd
000001a0: 6168 7f3d 8cd5 c1bc 660a 59bd 091f 8cbe
000001b0: 2e36 1d3e 2ed5 603d e8c6 1cbd 421b 64be
000001c0: cf02 473e 4ec3 193c b301 a9bd 63ff f53d
000001d0: e0ff 413e 9002 333e d39e 0a39 2f0b 7b3e
000001e0: c652 0abc 1873 d1bd d120 5abe a21b 44bd
000001f0: fdbf 59be af26 8e3e 47ef 603e 38a0 8cbe
0.056667134 0.21479988 -0.11346449 -0.19651574 -0.054871857 -0.009569107 -0.2338139 -0.0031365068
-0.07325464 -0.06964295 0.09642537 0.13229 -0.12737462 -0.067947306 -0.25392288 -0.20714322
0.08221367 0.10978127 0.25571433 -0.23281962 0.20521007 -0.094166055 -0.09458548 0.1275211
-0.24024723 0.25363213 -0.0004024219 0.18324076 0.054942165 0.25473496 -0.19252212 0.03618858
-0.092283964 0.1257698 -0.21551341 -0.09476374 -0.0015667761 -0.25204462 4.7372538e-05 0.10074816
0.056842092 0.17347781 -0.17344882 0.122882046 -0.09774406 0.14823894 -0.07532842 -0.27687228
0.016017899 -0.13283363 0.043177392 0.0422523 0.0019982527 -0.038190138 0.22055632 0.19610888
0.25295097 0.07119479 -3.1200375e-07 -0.18388754 -0.25580835 -0.24880062 0.18781024 -0.2592533
0.27757242 -0.27975494 0.17377925 0.10150905 -0.15431033 -0.15004252 0.1968646 -0.15603201
0.022625145 0.03482877 0.120155536 0.20561297 -0.15698308 0.19536568 0.14431249 -0.05916658
-0.1292468 0.24882005 -0.204088 0.11555687 0.07945324 0.10146179 -0.0051005157 -0.2558693
0.10168632 0.2711506 0.0099723255 0.049767032 -0.09617935 -0.24443556 -0.18285215 -0.26950175
-0.26723433 -0.12736265 -0.20723265 0.23619704 0.21826363 -0.07448964 -0.22105382 -0.046941068
0.062355403 -0.023661397 -0.052988432 -0.27367428 0.15352699 0.054890804 -0.03827563 -0.22276023
0.19434665 0.009384943 -0.08252277 0.12011602 0.18945265 0.17481446 0.00013219872 0.24515985
-0.008442586 -0.102270305 -0.21301581 -0.047877915 -0.21264644 0.27763888 0.21966277 -0.27465987

bn1.weight f4 [128]
00000000: 3a0a 803f 49a5 7e3f 5196 7f3f 69d7 7d3f
00000010: 59dd 7f3f 98e2 7d3f 1f73 7f3f 7fcc 7f3f
00000020: ea61 7e3f 3952 7e3f b0a1 7e3f 507c 7e3f
00000030: e121 7d3f 3c99 7f3f e12c 803f eb3b 803f
00000040: 7a7d 7e3f 2bb0 803f 5f23 7d3f b6b6 7e3f
00000050: b935 813f ff01 7e3f 80a6 813f c555 7d3f
00000060: 307e 803f 4484 803f 6864 813f 398c 803f
00000070: c77a 803f e800 803f f02e 803f 5cb2 813f
00000080: 7b5b 7f3f 4ff9 7d3f 66cb 7e3f a296 7d3f
00000090: 5c44 803f 637f 7f3f 73a2 7d3f 7f4d 7d3f
000000a0: 9709 7f3f 6181 803f 69aa 813f a1ef 803f
000000b0: ed9c 803f 558a 7d3f bf09 803f 6fcd 7e3f
000000c0: 8a49 7d3f 0a0d 803f 054b 7d3f 946f 7f3f
000000d0: c686 7d3f b5f8 803f 87e1 7c3f 1f8e 803f
000000e0: ebd8 7e3f e21e 803f ba2d 7e3f cbb5 7f3f
000000f0: 7918 813f f8d9 803f 2e34 7d3f 9b66 7e3f
00000100: 72ad 7d3f 771e 7c3f 02d1 7d3f 36a6 7f3f
00000110: 7758 7d3f b11a 7d3f cc78 7c3f f980 803f
00000120: dab8 7e3f f682 803f db1e 813f d6e6 803f
00000130: 6d33 7f3f 69e5 7e3f 1c5c 803f 624f 803f
00000140: 05c1 7e3f e251 7d3f cfd0 803f 77f9 7e3f
00000150: 5fa5 813f 59f5 7c3f d217 7e3f 1f5b 7d3f
00000160: adf6 803f f5c3 803f 90e3 7d3f b746 803f
00000170: 4543 7d3f 94ac 7d3f 1775 7d3f 3fbf 7d3f
00000180: 5f87 7e3f d411 803f 260d 7e3f 7866 7f3f
00000190: 60bc 7f3f 5374 7f3f 5c5e 813f 1424 7d3f
000001a0: f499 803f 362d 7d3f 9dc4 7d3f 33dc 7f3f
000001b0: b14d 7d3f 77dd 7d3f 4a86 803f 359e 7d3f
000001c0: 0a2d 7e3f b7aa 7e3f b9a9 7f3f 7a2a 7f3f
000001d0: ebee 7c3f 7f08 7d3f 623f 7f3f ba20 803f
000001e0: 604b 7d3f b7c8 7f3f 4e43 803f c816 7d3f
000001f0: aa9e 7f3f e05c 813f c43f 7f3f 9f3d 803f
1.0003121 0.99470955 0.9983874 0.99156815 0.99947125 0.9917388 0.99785036 0.9992141
0.99368155 0.9934421 0.99465466 0.99408436 0.9887982 0.9984319 1.0013696 1.0018286
0.9941021 1.0053762 0.98882097 0.99497545 1.009452 0.99221796 1.0128937 0.98959
1.0038509 1.0040364 1.0108767 1.0042793 1.0037469 1.0000277 1.0014324 1.0132556
0.99748963 0.9920854 0.9952911 0.9905797 1.0020862 0.9980375 0.99076 0.98946375
0.9962401 1.0039483 1.013013 1.0073129 1.004789 0.990392 1.0002974 0.99532217
0.98940337 1.0003979 0.98942596 0.9977963 0.9903377 1.0075899 0.9878163 1.0043372
0.9954974 1.0009425 0.99288523 0.9988677 1.0085593 1.0066519 0.98907745 0.99375314
0.9909278 0.98483986 0.99147046 0.9986299 0.9896311 0.9886885 0.9862182 1.0039359
0.9950081 1.0039966 1.0087541 1.0070446 0.99687845 0.995688 1.002811 1.0024226
0.99513274 0.9895307 1.0063723 0.99599403 1.0128592 0.9881187 0.99255097 0.98967165
1.007528 1.0059801 0.9917536 1.002158 0.9893077 0.9909146 0.9900679 0.99119943
0.9942531 1.0005441 0.9923881 0.9976573 0.9989681 0.9978687 1.0106921 0.98883176
1.0046983 0.9889711 0.99128133 0.9994537 0.9894667 0.99166054 1.0040982 0.9906953
0.99287474 0.9947924 0.9986835 0.9967419 0.9880206 0.9884109 0.9970609 1.0009987
0.9894314 0.9991564 1.002054 0.98862886 0.9985148 1.0106468 0.99706674 1.0018805

bn1.bias f4 [128]
00000000: 9d08 66ba e124 3aba a22a c5b9 5d72 03bb
00000010: 51b3 ce3a b5be d3bb 654c 233b 2154 b13b
00000020: 5154 503b ba18 aeb9 973e d2b6 9fb8 28bb
00000030: a306 0fbc 7ba9 903b 225a 82bb bdbf 7e3b
00000040: 57da 9b3b cc67 363b 27db f1bb a673 8338
00000050: 0a7a 363c d222 d2bb 40b0 553c 576e 9839
00000060: 5d25 12b9 2e0a d83b 94d9 393c 10f9 f93b
00000070: cd88 0c3c 2e85 073c 3f4a 263a 0e62 223c
00000080: 7667 4a3a e501 b8bb 7b15 f33a af07 7cbb
00000090: 2c67 7d3a 58d6 933b 62bb b0ba e572 26bc
000000a0: f7ca 85b7 0795 c33b b774 503c 3359 053c
000000b0: 855c e83a ee78 0ebc 724f 173b f1be 85bb
000000c0: e637 ddbb 2bc4 1f3b 1b04 eebb 2c4c 31bb
000000d0: 96c6 b9bb 407e 013c 46f3 48bb 55c3 403c
000000e0: 2a68 43bb 332b e73a c84a 08bb 9108 f83a
000000f0: 4ca1 403c 4d25 9f3b f121 a0b7 3d6f 4eba
00000100: 0442 80bb 11f1 55bc 2255 41bb 32ea 57b9
00000110: 620e 39bc 564c cfbb 1e4c 45bc 1403 b43a
00000120: ece8 0dbc f134 843b 5327 503c bed8 1d3c
00000130: 26ef 2e39 4ab1 d23b 6fed a63b a07e d639
00000140: 4c58 433b 90a3 15bc 65e1 343c 3327 33bb
00000150: fd07 473c 7202 40bc 5e7d debb f3e2 d8bb
00000160: 71ba 133c bbde a23b 0d99 d5bb fa9d ba3b
00000170: 4cfc 8ebb b1e1 2abb 72df 18bb 0d70 32bb
00000180: 9883 883a b95b 8b3b f15a e4bb 4fef 8a3b
00000190: f3b5 b8ba 52f1 893b f0ab 573c 27b0 4ebc
000001a0: 8b2f 9c3b 5ee8 08bb 0d28 28bc 010a bd3b
000001b0: b9cd 00bc 5387 ddbb 966a f03b ac2f 98bb
000001c0: 5c5f d0bb 0afc 21bb dc5c 043c 5d97 a3ba
000001d0: 256c e3bb 65ca 34bc 1a43 193b 0bf4 bfba
000001e0: a094 18bc 53db 4bb9 242e f33a f0de 143b
000001f0: 61e2 b9ba 2bb8 473c f55e c03b cda7 833b
-0.0008775087 -0.00071008323 -0.00037606532 -0.002005718 0.0015769993 -0.006461943 0.002491736 0.0054116403
0.0031788538 -0.0003320629 -6.265774e-06 -0.0025744808 -0.00872961 0.004414735 -0.00397803 0.003887161
0.0047562527 0.0027832864 -0.0073808613 6.268108e-05 0.011137495 -0.0064128423 0.01304251 0.0002907391
-0.00013937564 0.0065930104 0.011343379 0.0076285675 0.008577538 0.008271499 0.0006343461 0.009911073
0.00077211054 -0.00561546 0.001854583 -0.0038456728 0.0009666558 0.0045116358 -0.0013483579 -0.010159229
-1.5949348e-05 0.005968693 0.0127231395 0.0081389425 0.0017727768 -0.008695824 0.0023088125 -0.0040816
-0.0067510484 0.00243784 -0.007263673 -0.0027053459 -0.0056694252 0.0079036355 -0.003066258 0.011765321
-0.0029816725 0.0017636776 -0.0020796526 0.0018923451 0.011757206 0.0048567415 -1.9089292e-05 -0.0007874852
-0.0039141197 -0.013057963 -0.0029500206 -0.00020591242 -0.011294933 -0.0063262386 -0.0120420735 0.0013733828
-0.00866149 0.0040346314 0.012704688 0.009634195 0.00016683023 0.006429826 0.0050942223 0.00040911604
0.0029807268 -0.009133235 0.011040066 -0.0027336597 0.012147901 -0.011719333 -0.0067898473 -0.0066188513
0.009016619 0.004970399 -0.006518489 0.005695102 -0.004363572 -0.0026074464 -0.0023326543 -0.0027227432
0.0010415195 0.0042528776 -0.006968849 0.0042399536 -0.0014092311 0.004209676 0.013163552 -0.01261524
0.0047664098 -0.0020890455 -0.010263455 0.005769015 -0.007861548 -0.0067605167 0.007336925 -0.004644355
-0.006359024 -0.0024716877 0.00807878 -0.0012481023 -0.006940382 -0.011034583 0.0023385943 -0.0014644874
-0.009312779 -0.00019441293 0.001855318 0.002271589 -0.0014181846 0.012189905 0.0058706948 0.004017806

bn1.running_mean f4 [128]
00000000: eebc 533d f8e8 6c3e 3d3a f2bd 10f6 41be
00000010: 30b5 84bd 6ee9 bebb 106d 6dbe 763a 68bc
00000020: 3294 61bd 3f27 8dbd f632 d63d ce8a d43d
00000030: 6043 07be 1aa9 92bd 4725 8abe 7ba8 40be
00000040: 8804 783d 8d71 d33d a6d6 823e 672f 83be
00000050: a6d9 4f3e 349b bbbd 2e42 b0bd 6c71 ed3d
00000060: 05d6 6cbe e36c 733e 144f acbc 793f 573e
00000070: 2e43 633d b072 833e d1db 47be 071c d93c
00000080: 1a15 88bd 8c05 0e3e cea4 40be 1bc5 c6bd
00000090: 4293 dbbb 4027 71be 26e8 603b 31b1 a83d
000000a0: 08d0 503d ea8d 303e 50c9 2abe 6543 f43d
000000b0: dc6d edbd 1a64 003e c806 b2bd 2d22 93be
000000c0: 44a1 d73c aa88 0fbe e239 c93c c2a7 693d
000000d0: 6651 8a3b 723b 87bd 59b0 6b3e 1b2a 4b3e
000000e0: 901d 6e3e 8a02 6f3d 6674 c9bc 382a 42be
000000f0: ed46 80be 1d00 75be 2ef2 4d3e 38e1 88be
00000100: ea2e 893e b7f1 8fbe d47c 433e 9a08 b63d
00000110: f7de 20be d2dc 0abe f4af 3c3e 58c3 28be
00000120: 2715 853c 41c7 043d 1e96 d63d 58f3 533e
00000130: c51e 2dbe 2dd5 393e 3c8d 113e 4a8e 6ebd
00000140: 1b24 fcbd bf84 783e 75bd 59be b76f 023e
00000150: f9c3 a73d ce91 ea3d f604 c5bb 6000 80be
00000160: 4caf ca3d 3622 7f3e 8358 82bb 114f 5d3d
00000170: d6bc c4bd 4464 73be 5c2a 32be cc9d 8cbe
00000180: d8b6 96be e2be 10be 24ec 47be 322c 853e
00000190: 4347 563e 3645 b6bd d2fa 45be e072 7cbd
000001a0: bb54 963d 2465 b3bc e6e8 3ebd a840 85be
000001b0: 1c24 163e fbcf 6b3d 680c d9bc 58bd 5bbe
000001c0: d064 473e f613 b33c f823 99bd d168 e03d
000001d0: 6a75 463e 98ab 1c3e bc11 43bc d988 703e
000001e0: 3079 853a b449 c8bd cb27 6cbe 4489 fdbc
000001f0: 30f5 56be 79f1 953e a1dc 563e 161d 93be
0.05169385 0.23135746 -0.11827514 -0.18941522 -0.06479871 -0.005826167 -0.23186135 -0.014174094
-0.05507297 -0.06892251 0.10458939 0.103780374 -0.13209295 -0.0716116 -0.26981565 -0.1881427
0.060551196 0.103243925 0.2555439 -0.25622103 0.2029787 -0.09160462 -0.08606373 0.11593899
-0.23128517 0.23772006 -0.021033801 0.21020307 0.05548399 0.25673437 -0.19517447 0.026502622
-0.0664465 0.13869303 -0.18812868 -0.09705564 -0.006700904 -0.23550129 0.0034318059 0.082369216
0.050979644 0.17241636 -0.16678357 0.11926917 -0.1159322 0.12538186 -0.086927 -0.28737012
0.026322015 -0.14016977 0.024563733 0.057044752 0.004221129 -0.06603135 0.2301649 0.1984028
0.23253465 0.05835203 -0.024591636 -0.18961418 -0.25054112 -0.23925824 0.20111915 -0.26734328
0.26793605 -0.281141 0.19090587 0.08888359 -0.15710054 -0.13560799 0.18426496 -0.16480768
0.016245438 0.032416586 0.10477851 0.20698297 -0.16906269 0.18147726 0.14214033 -0.058241166
-0.12311574 0.24269389 -0.21263678 0.12737928 0.08191676 0.11453591 -0.0060125543 -0.25000286
0.098967165 0.24915394 -0.0039778366 0.05403048 -0.0960633 -0.23768717 -0.17398971 -0.2746414
-0.29436374 -0.14135316 -0.19523674 0.2601028 0.20925622 -0.0889992 -0.19333962 -0.06163299
0.0734038 -0.021898814 -0.046608828 -0.2602589 0.14662212 0.057571393 -0.026495174 -0.21458948
0.1947205 0.021860104 -0.074775636 0.10957492 0.19380727 0.15299833 -0.011906084 0.23489703
0.0010183211 -0.09779683 -0.23062055 -0.030949242 -0.20991969 0.29285792 0.20982601 -0.28733128

bn1.running_var f4 [128]
00000000: f372 d83e cfe1 8a3e d38e 343e 0430 583e
00000010: f0a1 233e 7c6b 493e a9fe c33e f3e3 573e
00000020: 5700 b33e eb2f 933e c962 be3e b692 363f
00000030: 1f4d cf3e 53df 433f 98ee b93e f23a 4e3e
00000040: 24be 0c3f cc71 973e ac31 7d3e a895 7b3e
00000050: 5a2e 663e 739f f83e d3c8 bb3e 1de8 a53e
00000060: 94e6 c13e e89c fc3d 9b3a df3e 4e24 ac3e
00000070: 3ebe 883e 74d3 783e edd3 873e d65d 163e
00000080: 450f c83e 30f4 073f 5de7 043f c23b af3e
00000090: e542 783e b5fb 453e 41d2 5e3e f462 e93e
000000a0: 5580 3e3e 76f8 3a3e f487 5c3e 9b3b 943e
000000b0: e05e 9e3e d5f9 2b3f 7a3e 573e f901 383f
000000c0: 043e 4c3e 8145 a23e f735 c33e a4f4 a03e
000000d0: ce47 bc3e aeb5 a63e 52de 213f 8223 003f
000000e0: 9b6b bb3e d30f c63e 4862 193f 094e b33e
000000f0: 1038 113e b2bd 233e 90d3 c53e 0ec2 983e
00000100: 32af 9a3e 7a3a fe3e d076 113f 575b d23e
00000110: 342d 803e 1974 8a3e 81b7 ba3d 0983 4e3e
00000120: 5361 433e 5058 483f 1af0 8a3e 93bb 3c3e
00000130: 59c9 e13e 7bd2 9d3e 4328 a43e 7d29 fd3e
00000140: 6ec3 aa3e 5282 713e 0034 283f 4b7a a13d
00000150: b703 243f fc66 123f 2e0a b03d 3a17 ff3d
00000160: d521 343e cce4 093f fcda 9c3e 5c86 3e3e
00000170: 453f 943e 3371 793e ebc8 963e 60f1 df3d
00000180: dbaa ce3e 55c7 bd3e f02c 1e3f f5ba d53e
00000190: d265 b83d c807 dd3e fd63 8c3e e0bb 4a3e
000001a0: 2408 a03e b94b a43e 735a f03d 6f31 963e
000001b0: 16ee ac3e ce98 273e 3fee 5c3e db1b 6a3d
000001c0: 95b2 6b3e 5f48 d13e bc40 c73e bbcb 123e
000001d0: 2fdf 803e 2d58 943e 3e79 953e 896a 423e
000001e0: b273 013f eadf 183f c980 e53e 1406 9a3e
000001f0: a533 f63e 3df5 ec3e 56b5 7a3e 42af d73e
0.422752 0.27125403 0.17632608 0.21112067 0.15979743 0.19669908 0.38280228 0.2108305
0.34961197 0.28747496 0.37184742 0.71317613 0.40488526 0.7651264 0.36314845 0.20139673
0.5497763 0.29579008 0.2472598 0.24568808 0.22478619 0.4855915 0.36676654 0.3240365
0.3787123 0.12334615 0.435994 0.33621448 0.26707643 0.24299413 0.26528874 0.14684233
0.3907415 0.53106976 0.5191553 0.3422528 0.24244268 0.193343 0.21759893 0.45583308
0.18603642 0.18258843 0.21536237 0.28951725 0.3093176 0.6717809 0.21019927 0.7187801
0.19945532 0.31693652 0.3812711 0.31436646 0.36773533 0.32560486 0.6322986 0.5005418
0.36605534 0.38683948 0.5991559 0.35020474 0.14181542 0.15990332 0.38637972 0.29835552
0.30211788 0.4965399 0.5682192 0.41085312 0.25034487 0.270417 0.09117032 0.20167173
0.19080095 0.78259754 0.27136308 0.18430929 0.4409893 0.30824646 0.32061967 0.49445716
0.33352226 0.2358487 0.65704346 0.07884654 0.6406817 0.5718839 0.085956916 0.12455602
0.17591031 0.5386474 0.30635822 0.18605942 0.2895452 0.24359588 0.29450163 0.109347105
0.40364727 0.3706614 0.6178732 0.417442 0.09003796 0.4317 0.27420035 0.19798231
0.3125621 0.32089022 0.11736002 0.2933459 0.33775395 0.16366884 0.21575259 0.05715547
0.23017342 0.40875527 0.38916576 0.1433553 0.25170276 0.28973523 0.29194063 0.18985952
0.5056716 0.59716666 0.44824818 0.30082762 0.48086277 0.46280852 0.24483237 0.421259

fc2.weight f4 [64, 128]
00000000: 92ca 89bc 8463 1a3d 6214 91bd 36b7 80bd
00000010: b5fa 7bbd cbc0 68bc 31e1 01bd 1507 c83c
00000020: fa48 b7bd 87a7 4f3b 0f8c 893d 4287 ddbb
00000030: b0c7 813d d962 dbbc 56f8 89bd d91b be3d
00000040: 7f4f 073c c466 91bd b559 bdbd d28f 13bc
00000050: 5067 903c af99 80bd 5166 4c3d e8df 633d
00000060: 98b2 8ebd 1fa2 a43d bff1 05bd c019 e6bc
00000070: cb79 09bd ae36 d7bb 20fe 543d 84d9 14bd
00000080: 2f1a 063c 64ef 0ebd 7b0f 9c3d 47fa 1bbc
00000090: a8d0 61bd 17be d0bc 8c31 8cbd 62de febc
000000a0: e8ed 413d edb2 83bb ae51 bdbd bd3e 943d
000000b0: 5d3c 4bbc f993 64bd 60b4 a53a 4f25 373c
000000c0: 084c f63b b985 033d 1138 b53d b346 983d
000000d0: 89a1 2abd f9da 25bc 53dd 883d 0e1f 4d3d
000000e0: c650 893d ee77 0bbd caa6 db3b 16d8 f4bc
000000f0: baa3 4e3c 9bf8 8b3d 3785 3abd cbd1 f13c
00000100: bde4 0a3d 10ec 98bd ea6f d73b 6345 2d3d
00000110: 072f 72bc 4d56 9a3d 1edc 483d 6c79 a03d
00000120: 3a6a 333c 608f 73bd a782 8f3d 8ac3 bc3d
00000130: 56a1 38bd 8a7b 033d 7aac aebb a051 633d
00000140: 3c68 99bc f97a 963c 5523 25bd 0d15 133d
00000150: 66aa 1a3c d614 38bd 8495 943d 87a8 e6bc
00000160: 16a9 2abd 25e9 e23c 6b6d 313d 89b1 763d
00000170: 7ba3 acbc c8d5 533d e2cc 9c3d 4598 c8bc
00000180: 06b7 47bd 24f9 553c f2a3 2abd c329 e43c
00000190: 351a 413d 68ca 87bb 21d6 89bd 96cd 3a3d
000001a0: 0259 6f3d ffd2 27bd 7880 a9bd 9dba a23d
000001b0: bfc9 46bd 1fe4 a83d f39b 933d 53df 083d
000001c0: 45c0 09bd d5ba 923d 1ddf 92bd 343d 8d3b
000001d0: 823c 563d 6aed 8a3c 4c1f 8dbb 7c78 78bc
000001e0: 78e0 c9bc 3155 a9bd f570 8d3d 6a79 22bd
000001f0: bb77 843d 5a9e 863d 85d3 6abc 9cbd 96bc
00000200: 6950 003d c880 91bd 0753 233b 32e4 e6bc
00000210: db1a 163c 1340 9a3d 686e 343d aa47 933d
00000220: 1903 8dbd 06f1 393d bf29 913d 29d7 6abd
00000230: cd05 44bd ada9 4ebc 497a 9d3d fcc9 75bd
00000240: 607b 903d 06ad b0bc 4f8d 80bd 7e5e 043d
00000250: f3c2 29bd a429 943d ee97 5c3d bbf2 58bc
00000260: 8abc dbbc 3b31 e03c 2bd4 aa3d 0c4a 8c3d
00000270: e5c2 26bd 349b 113d 0b5f 62bd 832f 2ebd
00000280: 17c0 f43c 2e45 2ebd 2f0f 373c fae2 93bd
00000290: 72cf 77bd eeb5 d53b 396c 05bd d880 623c
000002a0: 9e24 15bc 3ee9 223d 96fc 69bd 9d86 44bd
000002b0: ccfe 9b3c 88c9 60bd ed37 c7bc 0034 863d
000002c0: e7d9 6b3d 9883 91bd b999 e5bc 13b3 b4bb
000002d0: 198b a0bd 59db ac3d 901b 94bd f275 a9bd
000002e0: c7ff 1e3d e0fc 1abd b736 7d3d cc7b b1bc
000002f0: 0629 343d 862c f2bc 31f6 87bd cd06 6dbd
00000300: 5ac1 693d 888e 3cbd 9bb2 d83c e1a3 9dbd
00000310: 9a04 55bd 98d7 33bc 85ed d43c 80fe 2ebc
00000320: dd8f 87bd dc27 933d 7ff4 333d 9d55 423d
00000330: 0d3a 93bd ac73 743d 324c 4cbd edab ab3d
00000340: 0b10 513d 4de2 0cbd 566f b3bd 9ee1 bb3c
00000350: ee84 98bd 89e4 863d 465b edbc c8bd 873d
00000360: aadd 90bd 1524 82bd 9e0c 9f3d 0a85 f6bc
00000370: 329c aabd f7c8 3f3c 855c 2e3d b887 aebd
00000380: e13f 97bc 7db9 84bc 7a1e 56bc 8423 843d
00000390: e6d5 2e3d 9f4b 083d bc8d aebd c44a 39bd
000003a0: 69d4 133c bcb5 e33c 8989 95bd f786 0bbd
000003b0: fb81 64bd 512f 8abd e1ec 8e3b fc17 3a3d
000003c0: 1cfb 983d 2083 a6bd beac 0b3d 923b a03d
000003d0: 72e0 51bd 2655 19bc 3221 76bd c9dd 9dbd
000003e0: be6b ab3d d4c7 073d 9b6d 863c 4ff7 2e3c
000003f0: 566e 933d af9c 1c3c 7c6b b3bc 728a adbc
-0.016820226 0.03769256 -0.07083966 -0.06284945 -0.06151839 -0.014206122 -0.0317089 0.02441744
-0.08949466 0.0031685547 0.06716167 -0.0067605088 0.063369155 -0.026780533 -0.067368194 0.09282655
0.008258699 -0.07099679 -0.09245626 -0.009006457 0.017627388 -0.06279313 0.049902264 0.055633456
-0.06967658 0.08038735 -0.03270125 -0.02808845 -0.033563416 -0.0065677976 0.052000165 -0.03634025
0.008184954 -0.03489627 0.0762014 -0.00952012 -0.05513063 -0.025481267 -0.06845388 -0.0311119
0.047346026 -0.0040191323 -0.09244095 0.07238529 -0.012404528 -0.05580518 0.0012642257 0.011178329
0.007516388 0.03210995 0.088485844 0.0743536 -0.04165796 -0.010123008 0.06682839 0.050078444
0.067048594 -0.03404992 0.0067032324 -0.029888194 0.012612278 0.06834527 -0.0455372 0.029518982
0.033909548 -0.074669 0.0065746205 0.0423025 -0.01478172 0.07535992 0.049038045 0.078356594
0.010950619 -0.059462905 0.07007342 0.092169836 -0.045075737 0.032100238 -0.0053306194 0.055497766
-0.01872646 0.018369185 -0.0403169 0.035908747 0.00944004 -0.044941746 0.0725508 -0.028156532
-0.04166516 0.027699063 0.04331724 0.060227904 -0.021074047 0.05171755 0.07656266 -0.02448667
-0.04875853 0.013059888 -0.041660257 0.027851945 0.047144134 -0.0041440018 -0.06730295 0.04560622
0.058434494 -0.040972706 -0.082764566 0.0794575 -0.048532244 0.08246636 0.07207479 0.033416104
-0.03363063 0.07164542 -0.07171462 0.0043102745 0.0523038 0.016958911 -0.0043067094 -0.015165444
-0.024643168 -0.08268202 0.069063105 -0.03966657 0.06468149 0.06573172 -0.014332657 -0.01840096
0.031326685 -0.07104641 0.0024921314 -0.028184984 0.009161676 0.075317524 0.044050604 0.07191403
-0.068853565 0.045395873 0.070880406 -0.0573341 -0.047857095 -0.012613696 0.0768934 -0.06000708
0.07054782 -0.021566879 -0.062769525 0.032316677 -0.041445684 0.07234505 0.05385583 -0.013241465
-0.0268233 0.027367225 0.08341249 0.06850061 -0.04071321 0.035548404 -0.05526642 -0.04252578
0.029876752 -0.042546444 0.011173054 -0.07221027 -0.06050057 0.006521932 -0.032573912 0.013824664
-0.0091029685 0.03977322 -0.05712565 -0.04797994 0.019042395 -0.054879695 -0.02431866 0.06552887
0.057580855 -0.07105178 -0.028027402 -0.0055145114 -0.07839031 0.08440275 -0.0723182 -0.082744494
0.038818147 -0.037838817 0.06181976 -0.021665476 0.043984435 -0.029562246 -0.06638754 -0.057867814
0.05706916 -0.046034366 0.026452353 -0.07697273 -0.05200634 -0.0109766945 0.025992164 -0.010680795
-0.066192366 0.07185337 0.04393434 0.04744493 -0.07188807 0.059680626 -0.049877353 0.083824016
0.05104069 -0.034395505 -0.0876147 0.022934731 -0.07447229 0.06586558 -0.028974187 0.06627995
-0.07073529 -0.06354538 0.077660784 -0.030092735 -0.08330573 0.011705629 0.042568702 -0.0852198
-0.018463077 -0.016201729 -0.01306879 0.064520866 0.04268446 0.033275243 -0.085231274 -0.045237318
0.0090228105 0.027796619 -0.073016234 -0.03406426 -0.05578802 -0.06747306 0.0043617343 0.04543303
0.0746977 -0.08130479 0.034100287 0.07823862 -0.05123944 -0.00935868 -0.06009025 -0.07708318
0.083701596 0.033149555 0.016409686 0.01067908 0.07198779 0.009558841 -0.021901838 -0.02118418

fc2.bias f4 [64]
00000000: bac4 2d3d 60b8 1cbd cd29 a73c 580f 0e3d
00000010: 9712 413d 43ea 6f3d b009 583d 1fe8 bebb
00000020: 0e3e 15ba da90 40bd 3831 7cbd 9a13 9abc
00000030: 394d c83b a93b 2b37 f654 38bb e18d 4e3d
00000040: 5cd0 f4b9 a898 8dbc 90c5 0d3d fd19 1bbd
00000050: a16b 98bc 5594 16bd 5cc1 ac36 825d 5bbc
00000060: 7bdc 71bc 56a2 71bd f857 01bb bea5 353d
00000070: 6a43 12bd 3d96 833d bee7 99ba 66c9 31bd
00000080: a221 82bc 9142 a23c d28f a5bc beaa e335
00000090: cb6e 803d 7e15 92bc a212 f53c 1cd5 eabb
000000a0: 30ac 69bd 690e 60bd 59e3 203c 6c37 cc3b
000000b0: 1b6e 97b9 f18c 4f3c 5973 03bc 6130 b9bc
000000c0: d157 29bd c778 5c3c ff5b 60bd 8812 23b8
000000d0: a57e 32bb 4cfc 21bd 6797 063d cda3 20bd
000000e0: 557e 693d fcc7 e43c 4c18 5fbd cb73 27bd
000000f0: 8303 eabb 1140 bcbb 55f8 5cbd 57a3 04b6
0.04242394 -0.03826177 0.020405674 0.0346826 0.04713687 0.05857302 0.052743614 -0.005826011
-0.0005693146 -0.04701314 -0.061570376 -0.018808175 0.0061127213 1.0206285e-05 -0.0028126813 0.050428275
-0.00046694546 -0.017284706 0.03461224 -0.03786658 -0.018606009 -0.036762554 5.1485094e-06 -0.013388993
-0.014762039 -0.058992706 -0.0019736271 0.044347517 -0.035708822 0.0642514 -0.0011742038 -0.04340496
-0.015885178 0.019807132 -0.02021018 1.696251e-06 0.06271132 -0.017832514 0.029916111 -0.007166518
-0.057048976 -0.054701243 0.009819829 0.0062321927 -0.00028883 0.01266788 -0.0080231065 -0.022606077
-0.041343514 0.01345653 -0.054775234 -3.8879487e-05 -0.002723613 -0.03954725 0.032859232 -0.039218713
0.057005245 0.027927391 -0.05446653 -0.040881913 -0.007141532 -0.005744942 -0.053947765 -1.976461e-06

bn2.weight f4 [64]
00000000: 5e5d 803f e651 803f 4a3b 7d3f d953 7c3f
00000010: d2ed 7e3f 1003 823f 2770 803f e71a 803f
00000020: 09b4 7d3f 995a 7e3f d07b 813f f4a6 803f
00000030: 06e9 803f c719 803f 9032 813f 383b 813f
00000040: 783d 803f 8e19 813f e2bd 7c3f 4c98 7d3f
00000050: fdde 7c3f c833 803f 05dc 7e3f e73d 7f3f
00000060: cf68 813f d40b 7f3f 42d7 813f a27f 7d3f
00000070: 8178 7d3f 9f2b 7e3f 12f9 803f 7259 803f
00000080: 6ae4 813f 175f 7d3f c265 7e3f a998 803f
00000090: fa88 7e3f c1f1 7e3f 53fd 7c3f 6ac5 7d3f
000000a0: 5a23 803f 536a 7e3f 4a70 7e3f cc3a 7e3f
000000b0: 14e6 7e3f 607a 7f3f 7986 7e3f b572 7f3f
000000c0: 28c4 7f3f 790d 7e3f 710c 803f 1d49 7d3f
000000d0: 8cd6 7f3f 597b 813f 1869 7d3f a9ba 7f3f
000000e0: d5ce 7f3f c203 7e3f 5235 7f3f 66fa 7e3f
000000f0: 7ba1 7c3f c956 803f 17b0 803f d19f 7f3f
1.0028493 1.0024993 0.9891859 0.9856544 0.99581635 1.0157185 1.0034226 1.000821
0.99102837 0.9935699 1.011591 1.005095 1.0071113 1.0007867 1.0093555 1.0096197
1.0018759 1.0085924 0.9872724 0.9906051 0.98777753 1.0015802 0.99554473 0.9970383
1.011011 0.99627423 1.0143816 0.9902288 0.99012 0.9928531 1.007601 1.0027297
1.0147831 0.9897322 0.9937402 1.0046588 0.9942776 0.9958764 0.9882404 0.99129355
1.0010788 0.9938099 0.9939009 0.99308467 0.9956982 0.99796104 0.9942394 0.99784404
0.99908686 0.9923931 1.0003797 0.98939687 0.9993675 1.0115768 0.98988485 0.99894196
0.99924976 0.99224484 0.99690735 0.9960083 0.986839 1.0026485 1.0053738 0.99853235

bn2.bias f4 [64]
00000000: 651b 27bb b22b 323c 842f 16bc d0cc 5bbc
00000010: 3c36 4eb9 0fb9 583c dfff 363c 5b0e 293b
00000020: 7b25 b3ba 8895 b53b 1ac9 3e3c 15e3 773b
00000030: 4a62 0d3c eae6 3c3b 40fb 033c 6554 383c
00000040: fe42 933b 4976 c93b 59a8 32bc 0813 24bc
00000050: e76f b3bb 4d40 593b d4d9 24bb cb30 8bbb
00000060: dfce 373c 0e36 87bb 4dc6 413c 7fb0 70bb
00000070: b8cc 0bbc 8646 5ebb 7135 5e3c 23a8 e23a
00000080: 35d7 693c 3211 e5ba 30e9 aebb b414 b63b
00000090: 9d41 903b 9f93 d9bb c4b6 9dbb bf40 73bb
000000a0: 3205 b33b aec3 95b9 51f4 0ebb 5415 08bc
000000b0: 29d6 163a 7301 ff3a ed6a c7bb 90cc 0e3c
000000c0: e8be ddba ea66 11bb bec4 99bb 2481 55bb
000000d0: d979 ec3b e79f 313c bfbf 27bc 2add 79bb
000000e0: 8caa b53a 89c4 ee3a e965 08bc 23fc 1e3b
000000f0: 4618 16bc b6e4 4f3b 741e d03b 4344 7bba
-0.0025498506 0.010874676 -0.009166602 -0.01341553 -0.00019665895 0.013227715 0.011169403 0.002579591
-0.0013667786 0.005541507 0.011644626 0.003782456 0.008629391 0.002882416 0.008055508 0.01125059
0.00449407 0.006148134 -0.010904395 -0.010014303 -0.0054759863 0.0033149899 -0.002515425 -0.00424776
0.0112187555 -0.004126317 0.011827064 -0.0036726294 -0.0085326955 -0.0033916547 0.013562546 0.001729254
0.014272501 -0.0017476438 -0.0053378567 0.005556667 0.004402353 -0.0066399123 -0.004813047 -0.003711745
0.005463266 -0.00028565287 -0.0021813104 -0.008305866 0.0005753958 0.0019455388 -0.0060857446 0.008715764
-0.0016917856 -0.0022186586 -0.004692643 -0.0032578195 0.007216674 0.010841346 -0.010238587 -0.0038126209
0.0013860031 0.0018216531 -0.0083250785 0.0024259172 -0.009161061 0.0031722016 0.0063512865 -0.0009585062

bn2.running_mean f4 [64]
00000000: 0cf7 883e 5b18 7ebe 54b2 233f fb86 a83e
00000010: dc6f 8d3b 8321 0d3f 307f 7cbe 15c4 debe
00000020: e07c 9cbe ba0e 5e3d ea41 763e 079e a53d
00000030: 9180 8fbe 2b65 843e bb0a 98be 09d6 183e
00000040: 74e9 94bc c678 bebc 49de d73d a68f d23d
00000050: 7795 9dbd 5114 34be b4de 023f 685a 543e
00000060: b1cd 61be 3af5 a4be 8e7d c23d 922c 9fbd
00000070: 569d 263e 0e06 113c 22f2 2c3e b8f3 6a3e
00000080: 4e66 f0bd a835 303f fc4f 173d aa34 103e
00000090: 2f65 863d 3303 0dbe fb8a 173e ae28 1c3f
000000a0: b447 99bd 1c71 a8be 9e9f 78be 182f e03e
000000b0: eab2 4d3e 21f0 733d 9f24 753d 9296 6d3e
000000c0: 9cac 7f3d 6b71 823e 0445 043e 7fc7 7ebd
000000d0: 38e3 ab3d c746 0a3d c4fb c63d b882 f63d
000000e0: c4e9 10ba 37bf e6bd 8460 cb3e 0e61 d63e
000000f0: 036a 5ebd 44b4 8d3e 9cd4 65bd 2923 823e
0.26750982 -0.24813978 0.6394398 0.32915482 0.004316313 0.5512926 -0.24657893 -0.43508974
-0.30564022 0.054213263 0.24048582 0.08086782 -0.28027776 0.25858435 -0.29695687 0.14925398
-0.018177725 -0.023250949 0.105404444 0.10281305 -0.07694524 -0.17585875 0.5112107 0.20737612
-0.22051121 -0.32218343 0.09496604 -0.07772173 0.16270956 0.008851541 0.16889241 0.22944534
-0.11738263 0.6883187 0.036941513 0.1408259 0.06562268 -0.13770752 0.1479911 0.6099957
-0.074843794 -0.32898796 -0.24279639 0.4378593 0.20087782 0.059555177 0.059849378 0.2320197
0.062420473 0.25477156 0.12916952 -0.062201973 0.08392948 0.033758905 0.09715989 0.120366514
-0.0005527998 -0.1126694 0.39722073 0.41870922 -0.05430032 0.27676594 -0.056110963 0.2541745

bn2.running_var f4 [64]
00000000: f99e b43e fea2 9b3e 0a47 9a3e 97ca a93e
00000010: edfa a73e e0b1 b63e b4d0 773e e453 963e
00000020: 48c3 c03e 5a66 b03e 1808 a83e fba6 803e
00000030: f966 c63e 06c0 803e 2d59 b33e 9111 b63e
00000040: ea4c 913e 10e4 be3e f6d8 a03e 72ab 8b3e
00000050: 4874 8b3e 4152 5a3e 33ac 763e 6a12 7e3e
00000060: 25dc b13e 4c66 ba3e 010b ae3e 1425 b73e
00000070: 5c87 5b3e c0f4 8c3e f02b bd3e c5b3 bd3e
00000080: 5bba b63e 602d ab3e 6e54 933e 4846 b03e
00000090: c805 b33e 00c2 963e 5c43 8a3e 5777 9d3e
000000a0: bd45 ed3e 501c 663e 6ce5 9c3e f104 9f3e
000000b0: d42c 953e 324b 893e b18a 933e c501 973e
000000c0: c013 d93e 10fd c53e 77a5 8a3e 7fe8 793e
000000d0: 4bef 9c3e 8233 dc3e 9af4 ac3e e008 883e
000000e0: fd0c a33e fa91 923e d153 9a3e bd87 da3e
000000f0: 0e33 6b3e 9fc1 913e f0bc a63e 7a6f a83e
0.35277537 0.3039779 0.30132324 0.33162376 0.3280863 0.35682583 0.24200708 0.29360878
0.37648988 0.34453088 0.32818675 0.25127396 0.38750437 0.25146502 0.35028973 0.35560277
0.28378993 0.37283373 0.31415528 0.2727924 0.27237153 0.2132044 0.24089126 0.24811712
0.3473827 0.3640617 0.3399277 0.35770476 0.21438354 0.2753048 0.36947584 0.37051216
0.35689053 0.33433056 0.28775352 0.3442862 0.34965348 0.29444885 0.27004516 0.30755112
0.4634227 0.22471738 0.30643785 0.31058457 0.29135764 0.26815182 0.2881675 0.29493538
0.4239788 0.38669634 0.27079365 0.24405096 0.30651316 0.43008047 0.33780366 0.2656927
0.31845847 0.28626996 0.30142072 0.42681685 0.22968695 0.28468034 0.32566023 0.3289755

fc3.weight f4 [16, 64]
00000000: 5531 793d 5f68 bb3d 31e9 afbd dd72 a6bd
00000010: b7f6 e43d d434 49bc 1b00 ba3c 3bd8 d6bd
00000020: beac ddbd 9eec 793d b300 a5bd d820 54bc
00000030: c0f8 ae3d bf4f bdba cb56 01bd e561 363d
00000040: 360d ed3d 93eb a93c 04d8 ba3d 06cf 4f3c
00000050: b9a3 d53d 259c 1c3b 2923 253d e1f8 573c
00000060: f374 4abd 1d5c 42bc c886 01be b840 f43d
00000070: 1a7c dcbc 1b02 7dbd e4d0 3ebd 43cb d73d
00000080: b81d 483c 9ab0 943d 77e6 263c 41bd 79bd
00000090: aeea 9b3d bda5 b63d 690c 1cbd a88c f5bd
000000a0: 98db a7bd c842 c93d 6d11 86bc b9e8 87bc
000000b0: 24a0 e3bd 88ea 12bc 0c81 823c 3378 c73d
000000c0: 9fbc 5c3d 058f f13d 3114 8d3d 75b5 5e3d
000000d0: f362 eabc a32f d8bd 3854 143d a3db 943c
000000e0: 8c01 063e f26d 2b3c c57e d8bd 6e77 c53c
000000f0: fa7b bc3d aa7f ce3c 0803 07bc ba7d d03d
00000100: b918 fdbc 00e1 85bd 742a 92bb f498 e5bd
00000110: e578 eb3c f5f0 37bd adab f5bd 4438 abbd
00000120: e74a 963c d1e8 363d 55aa 4cbc b0da 033e
00000130: b11e e4bd 48c7 843d 2e1c 463d 6dc2 bcbd
00000140: e6fc 173d 8283 323d 3464 b8bd 7c00 63bd
00000150: 9436 53bd 5b8a 3a3d 6f42 f9bd 3591 cb3d
00000160: 79ca d53b e70c b9bc 72d8 82bd 95e1 173d
00000170: a3f4 4e3d 29f9 c7bc eb8c 36bd 84fc 923d
00000180: 3ab3 05bd 6bb5 a9bd d43b f8ba b0a5 a2bb
00000190: f538 6d3d c2fb 963c b005 1ebd 238e 003e
000001a0: 7fe1 a13a 1061 f9bd 73e0 c43d 889c c73d
000001b0: 98c6 bdbd 8f9b b03d f494 ee3d 3f37 c7bd
000001c0: 8a4c c03d ce75 1b3d c888 dd3d 1257 c0bd
000001d0: c40f c43d 5b01 99bd 84ab 71bc 2581 b9bd
000001e0: 7208 283d 5d9f aabd e408 b0bd 9b0e ebbd
000001f0: 7147 493d 64f8 9bbd dd3d 3abc bfcb cdbd
00000200: 96b2 263d e39c 67bc a68f 7f3d 958a ec3d
00000210: 7aa8 4bbd bce5 973c f48b d63d 353c 49bd
00000220: d433 cdbc 522b 9dbd 6792 b43d 442d 183d
00000230: 23b7 14bd 9e4f 803d 30a9 df3d 6c93 363d
00000240: 3558 c03d 82f2 343d 0816 b93d f4ce ab3d
00000250: 0f8a 91bc 06b5 ca3d c39f 923d 925d 973c
00000260: 8e68 cebc f115 e03d 2bbd 82bb 04cd 98bd
00000270: b565 e0bd 24a0 c6bd e2fd b93d 20c7 fe3b
00000280: 218d 083d d076 e93a dbac aebd 718d 893d
00000290: ed0f bcbc fa43 433d 3421 1dbd 4ad1 713d
000002a0: 76fb 96bc 4d0d 6ebd f467 a4bd 27dd ffbd
000002b0: 4235 edbd 6e45 24bd e298 f6bb 28d9 373c
000002c0: 03fd acbd 3bb2 943d f304 3b3d be04 393d
000002d0: 5575 733c fc90 823c ae44 2b3d af4c a23d
000002e0: fad8 7e3d 2f21 753c 774d 2c3d 1501 563d
000002f0: e5e9 083e 5d0a 3ebd 3dfe 96bd 4b4c 6fbc
00000300: 50bc ca3d ad96 4c3d 5604 61bd 9d6f d5bc
00000310: af12 903c df85 26bd bae9 093d 3633 23bd
00000320: c0ca b13d ac29 303c 0b9d 633d 959c b63c
00000330: a91c 6ebc 2f64 d9bd 6c8b a5bd d816 f73d
00000340: 8ef6 04bd 6370 15bd e45e c8bd 8f5f 89bd
00000350: 0207 b13d 8436 4bbd 2929 d5bd 1e3c cc3d
00000360: c5a9 1dbd a8a1 a83a 0163 d5bc 5452 8ebd
00000370: 24af cfbd 617e 73bc 117b 64bd 68ef 23bd
00000380: 5601 54bc 18a3 0c3d 3871 ad3c 2c69 c33d
00000390: 7b4c 963d 4abf 22bd 6752 eb3c 4cb2 d63d
000003a0: 1837 913c f09a b03d f0fb a7bc a609 47bd
000003b0: bcd9 4d3c 8014 f83c 11e7 8ebd df03 833d
000003c0: d716 d33b dde7 5bbd 4577 cbbd 102e 29bd
000003d0: 7d6c 3c3b 0408 9b3d 18cc 74bc 1d66 b63d
000003e0: 6fef dbbd a56a 49bd 9752 3fbd f078 43bd
000003f0: 825a a23d 178d 90bd c96f 9b3c 881f 9abd
0.060838062 0.091507666 -0.085893996 -0.08127377 0.111798696 -0.012280662 0.022705128 -0.104904614
-0.108239636 0.06101667 -0.08056774 -0.012947284 0.08543539 -0.0014443322 -0.031576913 0.044526953
0.115747854 0.020742213 0.09123233 0.012683636 0.10431618 0.002389678 0.040316734 0.013181896
-0.049427938 -0.011862782 -0.12649071 0.119264066 -0.026914645 -0.061769586 -0.046585932 0.10536816
0.012214117 0.072602466 0.010186783 -0.060971502 0.07613121 0.08918331 -0.038097773 -0.11989719
-0.08196181 0.09827191 -0.016365731 -0.016590463 -0.11114529 -0.008967049 0.015930675 0.09739723
0.05389082 0.11794857 0.06888617 0.05437227 -0.028611636 -0.10555961 0.03621313 0.018171137
0.13086528 0.010463225 -0.10571054 0.0241048 0.09203334 0.02520736 -0.008240469 0.101802304
-0.030895578 -0.06537056 -0.004460627 -0.11210814 0.02874417 -0.04490753 -0.11995635 -0.08360341
0.018346263 0.044655625 -0.012491782 0.12876391 -0.111386664 0.064833224 0.048366718 -0.09216771
0.037106417 0.043582447 -0.09003487 -0.055420384 -0.05156572 0.045542102 -0.12170874 0.099398054
0.0065243808 -0.02258916 -0.0638894 0.037080366 0.050526273 -0.024410801 -0.044567984 0.0717707
-0.032641627 -0.08286556 -0.0018938729 -0.004963599 0.057915647 0.018430594 -0.038579643 0.12554221
0.0012350528 -0.12176716 0.09613123 0.09746653 -0.092663944 0.086234204 0.11649504 -0.09727334
0.09389599 0.037954144 0.108171046 -0.09391607 0.095733196 -0.07470962 -0.014750365 -0.090578355
0.04102368 -0.083311774 -0.08595446 -0.11477395 0.049140397 -0.07615736 -0.011367288 -0.10048627
0.040697657 -0.014136526 0.062392853 0.1154987 -0.04972122 0.018542163 0.10475913 -0.049129684
-0.025049128 -0.07674278 0.088169865 0.037152544 -0.036307465 0.06265186 0.10920942 0.044574186
0.09391824 0.044176586 0.09037405 0.083890826 -0.017766027 0.09897809 0.071593784 0.018477235
-0.02519634 0.10941685 -0.0039898357 -0.074609786 -0.10956899 -0.09698513 0.090816274 0.0077752024
0.033337716 0.0017811898 -0.08529063 0.06716431 -0.022956813 0.04767225 -0.038361743 0.059037484
-0.018430453 -0.058118153 -0.0802764 -0.12493353 -0.11582424 -0.040105276 -0.0075255493 0.011221208
-0.08446696 0.07260557 0.045659017 0.045170538 0.014859517 0.015938275 0.041813545 0.079247825
0.062218644 0.014961525 0.042066064 0.052247126 0.13370474 -0.046396602 -0.07372711 -0.014605592
0.09899199 0.049948383 -0.054935776 -0.026054198 0.017587034 -0.040655013 0.033670165 -0.03984376
0.086812496 0.010752123 0.05556969 0.022291461 -0.0145332 -0.10614812 -0.08083233 0.12064904
-0.032461695 -0.036484133 -0.09783724 -0.067076795 0.08643915 -0.049612537 -0.10408241 0.09972404
-0.038491983 0.001286556 -0.026048185 -0.069492966 -0.10140827 -0.014861674 -0.055781428 -0.040023237
-0.012939772 0.034335226 0.021172151 0.09541544 0.07338806 -0.03973321 0.028725816 0.10483226
0.017726466 0.08623302 -0.020505875 -0.048593186 0.012564119 0.030283213 -0.06977666 0.06397223
0.0064419317 -0.05368792 -0.09934858 -0.041303694 0.0028751187 0.07569888 -0.014941238 0.08906195
-0.10739028 -0.04917397 -0.046709623 -0.047722757 0.07927419 -0.07058161 0.018974202 -0.07525545

fc3.bias f4 [16]
00000000: ca79 d4bd 1d94 0b39 d6d3 b43d 5365 b33b
00000010: 99ad 0cbd dd52 aebd 5959 3dbd 645a 05ba
00000020: 77dc 053d 1a36 cdbd 64bf c73d 3025 d33d
00000030: 06fd d139 125b 2fbd 568c 953d bdbf 3e3c
-0.10374792 0.0001331125 0.08829467 0.0054747253 -0.034345243 -0.08511899 -0.046227787 -0.00050870166
0.032680955 -0.10020085 0.09753302 0.10309827 0.00040052104 -0.04281146 0.073021576 0.011642394

bn3.weight f4 [16]
00000000: db63 803f bc4c 7d3f 90d5 813f 776d 813f
00000010: f3c4 803f 4335 7f3f afec 803f b999 803f
00000020: 60fa 7d3f dbe9 7f3f 1abd 7f3f dbca 7d3f
00000030: fc51 7f3f c5ed 813f 15d7 7e3f b7f7 7f3f
1.0030473 0.9894521 1.0143299 1.0111531 1.0060104 0.99690646 1.007223 1.0046912
0.99210167 0.9996621 0.9989792 0.9913766 0.99734473 1.0150687 0.9954694 0.9998736

bn3.bias f4 [16]
00000000: 1bbd ccba a3e0 ce3a 15d5 123c d74c 303c
00000010: b3a1 f83b 9ef3 27bb a38a e23b bc3b 853b
00000020: ae71 9bbb ea8a b53a c7a0 d4ba 4ae4 0dbc
00000030: 7a40 50bb 95af 6f3c 76b6 d4b9 bdfc 1a3c
-0.0015620323 0.00157835 0.0089619355 0.010760508 0.0075876354 -0.0025627385 0.0069134994 0.004065959
-0.0047437763 0.0013850604 -0.0016222232 -0.008660385 -0.0031776712 0.014629264 -0.00040571735 0.009459672

bn3.running_mean f4 [16]
00000000: 6335 393e 3071 83be f19b cc3e a776 f9bd
00000010: 4c5a ebbd c966 d2bd edcb fdbd f56f 1c3e
00000020: 0259 4dbe f090 fabe ce2a a43e 1af7 ae3e
00000030: e689 99bc 4ed7 6cbd cf51 acbe 107a 3bbe
0.18086772 -0.25672293 0.39962724 -0.12180834 -0.11491832 -0.10273511 -0.123924114 0.15277083
-0.20053485 -0.48938704 0.32063907 0.341729 -0.018742513 -0.057822518 -0.33656165 -0.18308282

bn3.running_var f4 [16]
00000000: f813 a33e 23c5 803e a827 8a3e d8cd 823e
00000010: c9e1 a13e f607 833e 00fc cb3e ebf7 933e
00000020: 5120 ae3e cfcb b63e 8c39 a93e e3ee ae3e
00000030: 76bd e33e 7a11 c33e 9ff1 be3e 9f03 873e
0.31851172 0.25150403 0.2698338 0.2554767 0.31617573 0.2559201 0.39840698 0.28900084
0.3400903 0.3570237 0.33051717 0.3416663 0.44480485 0.3809927 0.37293717 0.2636995

fc4.weight f4 [1, 16]
00000000: 80a3 383e e376 79bc bd18 5ebe 84ed acbd
00000010: f21c 1abe d4ef 04be ba2c 0dbe e94e 3fbe
00000020: 2296 683e 85bc 4e3e 5071 7ebe 20ab 5d3e
00000030: ec87 713e adea 30be b665 123e 3fac d1bd
0.1803112 -0.015226099 -0.21689124 -0.0844374 -0.15050104 -0.12982112 -0.13786593 -0.18682446
0.22713521 0.20189102 -0.24847913 0.2164731 0.23587006 -0.17277022 0.14296612 -0.102379315
