model_big_small_trained.pth (torch, 53313 bytes, 19 tensors)

fc1.weight f4 [128, 9]
0	0x3e189ef0	0.1490438
1	0x3e1094cd	0.14119263
2	0x3e18c49f	0.14918755
3	0x3e942bd0	0.28939676
4	0x3c09b4bd	0.008404908
5	0xbd17a014	-0.037017897
6	0xbd69ff86	-0.05712845
7	0x3bf3ae6f	0.0074365656
8	0x3cc68278	0.024232134
9	0x3c264de2	0.010150405
10	0xbad9872d	-0.0016596072
11	0xba833efd	-0.0010013279
12	0x3a23d0d1	0.00062490726
13	0x3b0a4bed	0.0021102384
14	0x3b71210c	0.003679338
15	0x3c01ced4	0.007922847
16	0x3b741651	0.0037244747
17	0x3bc23bb7	0.0059275287
18	0xb8e2dbf1	-0.00010817487
19	0xbaada1be	-0.0013247055
20	0x391e5be3	0.00015102285
21	0x394f5281	0.00019771793
22	0xb8cb59d7	-9.696528e-05
23	0xb79cb3eb	-1.868043e-05
24	0xb85dead2	-5.29092e-05
25	0xb97d4728	-0.00024154468
26	0x38bd9fee	9.0420115e-05
27	0x2e362b20	4.142031e-11
28	0x2f8e2bf9	2.5860894e-10
29	0xb192ae77	-4.2689936e-09
30	0x2edd349f	1.0059264e-10
31	0xaa196eb6	-1.362754e-13
32	0xadc87150	-2.2787688e-11
33	0x2ed69194	9.757453e-11
34	0x2e81c393	5.900982e-11
35	0xade40963	-2.5924768e-11
36	0x3d8d283f	0.06892442
37	0xbd9a746b	-0.07541736
38	0xbd2ffa7c	-0.04296349
39	0xbd672138	-0.056428164
40	0x3c4f7576	0.012662282
41	0x3cadfb72	0.021238063
42	0xbcec4bff	-0.028844832
43	0x3cec9a0a	0.028882045
44	0xbc033d44	-0.008010212
45	0x32090daf	7.977561e-09
46	0xb2a7df9b	-1.9543043e-08
47	0x3481d077	2.41798e-07
48	0xb25b308c	-1.2758516e-08
49	0xb4a959c3	-3.1544013e-07
50	0x33035d3f	3.058562e-08
51	0xb238fc95	-1.076764e-08
52	0xb3edba83	-1.1070099e-07
53	0x329ba311	1.8118529e-08
54	0xba539e66	-0.00080726144
55	0xb9ca7aba	-0.0003861988
56	0xba145474	-0.00056583364
57	0xbc191ad9	-0.00934478
58	0xba720c06	-0.0009233359
59	0xbc0b053e	-0.008485137
60	0x3ba8eea6	0.0051554022
61	0x3b4fff37	0.0031737813
62	0xbc2bd093	-0.01048674
63	0x3dacca19	0.084369846
64	0x3c8cb4f6	0.017176133
65	0x3c9803af	0.018556444
66	0x3dc4cfef	0.09609973
67	0x3da7411b	0.08166715
68	0xbd2e71c0	-0.04258895
69	0xbba551b0	-0.0050451383
70	0x3bca0401	0.006165028
71	0xbbf3bdaa	-0.007438381
72	0xbe33f064	-0.1757217
73	0xbe0dc2a6	-0.13843784
74	0xbe1c7b27	-0.15281354
75	0xbe722031	-0.23645093
76	0xbd7a25ca	-0.061071195
77	0x3de00f3e	0.10940407
78	0x3d56f2cf	0.052477654
79	0x3ca3f6e5	0.02001519
80	0xbce618ee	-0.02808806
81	0x3e17a788	0.14810002
82	0x3e167e9e	0.14696738
83	0x3e22bb22	0.15891698
84	0x3e4dda84	0.20102888
85	0xbb009aa8	-0.0019623432
86	0x3b3e4eb0	0.00290386
87	0xbd1bd004	-0.038040176
88	0xbc209345	-0.009800737
89	0xbc34834f	-0.0110176345
90	0x3e26a062	0.16272119
91	0x3e26cfd6	0.1629022
92	0x3e31d39b	0.17365877
93	0x3eb8ce6b	0.36094984
94	0xbc30f1a9	-0.010799804
95	0x3d07ea02	0.03318215
96	0xbd9aa051	-0.07550109
97	0x3bf7a5b0	0.0075575933
98	0xbafde93c	-0.0019371877
99	0x3de2bf5f	0.110716574
100	0x3dfeb248	0.12436348
101	0x3e00e7de	0.1258845
102	0x3ebdd420	0.370759
103	0x3d2c4d41	0.042065863
104	0xbd9eb069	-0.07748491
105	0xbd531a2b	-0.051538628
106	0x3b1f3f5e	0.0024299244
107	0x3ca856f1	0.02054927
108	0xbdf0d873	-0.117600344
109	0xbdfee55d	-0.12446091
110	0xbe04c798	-0.12966764
111	0xbe22b224	-0.15888268
112	0x3d391e69	0.045195017
113	0x3c504880	0.012712598
114	0x3c6bcb4c	0.0143917315
115	0xbba6555c	-0.0050760936
116	0xbd5acb54	-0.053416565
117	0xbbbe0db0	-0.0057999715
118	0x3cbd57ef	0.023113219
119	0xbbca08b8	-0.00616559
120	0xbc152859	-0.009103858
121	0x39b34afe	0.00034197414
122	0x3b25d595	0.0025304307
123	0x3be50e18	0.0069902055
124	0xbae7264d	-0.0017635316
125	0xbaf6838c	-0.0018807515
126	0xbde49afa	-0.11162372
127	0x3dbc80b9	0.092042394
128	0xbdb8bf62	-0.090208784
129	0xbd29a579	-0.041417573
130	0xbc928f50	-0.017890602
131	0x3c609f26	0.013709819
132	0xbc96c937	-0.018406494
133	0xbc13db6d	-0.009024483
134	0x3caa6dec	0.020804368
135	0x30bb2f87	1.3619549e-09
136	0xb555dd2d	-7.9670536e-07
137	0x32a6699c	1.9372969e-08
138	0x33a1e22d	7.538288e-08
139	0xaf41dee2	-1.7632432e-10
140	0x31faa3e4	7.29459e-09
141	0x33787294	5.7846208e-08
142	0xb2b048c5	-2.0522188e-08
143	0x3239be29	1.0811655e-08
144	0xbb84ccf6	-0.0040527536
145	0x3b014855	0.001972695
146	0xbb83e43b	-0.00402501
147	0xbaed161f	-0.0018088258
148	0xbb924e93	-0.004464933
149	0xb9a5eccb	-0.00031647677
150	0xbbbcb96e	-0.0057594096
151	0x3a01e8f3	0.00049556716
152	0x39a2e58b	0.0003107007
153	0x3e0b24d4	0.13588268
154	0x3e09708d	0.13421841
155	0x3e109c8f	0.14122222
156	0x3e54a557	0.20766197
157	0x3d8f994c	0.07011661
158	0xbe1e15da	-0.15438023
159	0xbce2744d	-0.027643347
160	0x3afc29a9	0.001923849
161	0x3dab5ab5	0.0836691
162	0xbe37c761	-0.17947151
163	0xbe451a84	-0.19248396
164	0xbe62704c	-0.2211315
165	0xbe4c676a	-0.19961324
166	0xbbf4c6e3	-0.007469998
167	0x3d0708a6	0.032967232
168	0x3d4e702f	0.050399955
169	0xbc4327a4	-0.0119113065
170	0xbc83c8b7	-0.01608692
171	0xb54c6e18	-7.615613e-07
172	0x37ca6086	2.4125224e-05
173	0xb5a5456c	-1.2313662e-06
174	0xb7482e62	-1.1931728e-05
175	0xb648a258	-2.989682e-06
176	0xb639a142	-2.7661013e-06
177	0x37a0df4e	1.917747e-05
178	0xb7358dfe	-1.0821501e-05
179	0xb5e7fd48	-1.7284556e-06
180	0x3a327b1e	0.0006808507
181	0x39b24af9	0.00034006665
182	0xbaad1cfa	-0.0013207488
183	0x3ac114de	0.001473095
184	0x38666eb8	5.4939388e-05
185	0x3980285f	0.0002444414
186	0x3b83d1ab	0.004022797
187	0xba01667a	-0.00049362297
188	0xba3ece4a	-0.0007278664
189	0x3aef5c5d	0.0018261779
190	0x391e3d7a	0.00015090956
191	0xbc00a368	-0.007851459
192	0x393ee4f1	0.000182051
193	0xbac5a8b1	-0.0015080181
194	0xbb92d4a5	-0.0044809156
195	0xb8a9ff80	-8.1061386e-05
196	0xba0bf766	-0.00053392944
197	0xbb7a3fc7	-0.0038184987
198	0x3c764816	0.015031835
199	0x3a0b6a73	0.00053182914
200	0x3c19790d	0.00936724
201	0x3c3f437e	0.011673806
202	0xbb886a14	-0.004163036
203	0x3bd8b105	0.0066128992
204	0x3caa8e6b	0.020819863
205	0xbc0157bb	-0.007894452
206	0x3cbd645a	0.02311914
207	0xbbefb369	-0.0073150885
208	0x3b390870	0.002823379
209	0x3a380928	0.00070204074
210	0x3b949fc1	0.0045356457
211	0x3a8bbcf1	0.0010661167
212	0xbbbbe1c0	-0.0057336986
213	0xbac6a2cd	-0.001515472
214	0xbb298434	-0.0025866153
215	0xbb5453ca	-0.0032398575
216	0x3d109c5b	0.035305362
217	0x3b39af05	0.002833308
218	0x3d267cf2	0.0406465
219	0x3cb18c6e	0.021673407
220	0x3d032155	0.03201421
221	0x3d6597d5	0.056053
222	0xba6e7d5b	-0.0009097659
223	0x3c67d294	0.014149327
224	0x3bed2b59	0.0072378335
225	0xbde3899e	-0.11110233
226	0xbdd690e8	-0.104768574
227	0x3daf5255	0.085606255
228	0xbd7febdc	-0.062480792
229	0xbc2204a3	-0.009888801
230	0xbbdf5b96	-0.006816338
231	0x3c8ed217	0.017434163
232	0xbd8b52cc	-0.068029016
233	0x3b83f46d	0.0040269406
234	0xbd0d1791	-0.034446303
235	0xbac24258	-0.0014820797
236	0x3e0e7383	0.13911252
237	0x3d92ef36	0.07174532
238	0x3bd4d201	0.006494761
239	0xbc48f2fc	-0.012264963
240	0xbd8a5368	-0.0675419
241	0x3d0db3dc	0.034595355
242	0xbd6954c7	-0.056965616
243	0xa8ee9011	-2.6485787e-14
244	0xb01a3917	-5.6106003e-10
245	0x3071892a	8.787021e-10
246	0xade91b4b	-2.6501154e-11
247	0x2d02e4ef	7.440478e-12
248	0xada1751c	-1.8355588e-11
249	0x2f8e2738	2.5857516e-10
250	0xada6c74c	-1.896052e-11
251	0xac6ed74b	-3.3941346e-12
252	0x3b4754a6	0.0030415445
253	0x3a0d418a	0.0005388489
254	0x3ac0f538	0.0014721518
255	0xb94cf883	-0.00019547534

fc1.bias f4 [128]
0	0xb698aec8	-4.5503e-06
1	0x302c728c	6.2736016e-10
2	0xadb23121	-2.0258075e-11
3	0x1f12e144	3.1103038e-20
4	0x34e1462b	4.196057e-07
5	0x21320e98	6.032806e-19
6	0xaf35be07	-1.6529365e-10
7	0xb4dc926e	-4.1084735e-07
8	0x35898d86	1.0248484e-06
9	0x36532e34	3.1468344e-06
10	0xb60eae90	-2.1261258e-06
11	0xb606c990	-2.008488e-06
12	0xb5ef6e4e	-1.783899e-06
13	0x32120c70	8.5011465e-09
14	0xb4f9e59c	-4.6546927e-07
15	0x24c656e4	8.601601e-17
16	0x2fb67662	3.3189723e-10
17	0x3549d933	7.51944e-07
18	0xb6e62540	-6.8588706e-06
19	0x2edbb8d9	9.9918025e-11
20	0x2d9291c0	1.6663004e-11
21	0xaed40262	-9.641067e-11
22	0xafa80467	-3.056215e-10
23	0x30893c92	9.985277e-10
24	0x331530ee	3.4736267e-08
25	0x36904235	4.299242e-06
26	0xb35f7902	-5.203129e-08
27	0x99d412d3	-2.192789e-23
28	0xad7f5418	-1.4513744e-11
29	0x364dbb80	3.065652e-06
30	0xb533eef2	-6.703041e-07
31	0x2fee1678	4.3307913e-10
32	0x37bc6552	2.2458527e-05
33	0xb685184c	-3.9665374e-06
34	0xb5e1c410	-1.6820868e-06
35	0x28dea14c	2.4716903e-14
36	0xb4fbc0b8	-4.6892615e-07
37	0xafd49276	-3.8666642e-10
38	0xb3199bac	-3.576467e-08
39	0x30be9e87	1.3869376e-09
40	0x36558624	3.1817553e-06
41	0xb5fbda48	-1.8764486e-06
42	0xabca6bc4	-1.4382874e-12
43	0x37438fac	1.1656357e-05
44	0xb35f40ce	-5.1980173e-08
45	0xa4870d30	-5.856926e-17
46	0xb54fae79	-7.73674e-07
47	0x3646d5c6	2.9628732e-06
48	0xa01a3f8e	-1.3065336e-19
49	0x347b2c08	2.3392215e-07
50	0x323ab0a8	1.0866792e-08
51	0x37806bf9	1.5309068e-05
52	0x2fb5614a	3.2992836e-10
53	0x325acea0	1.2736251e-08
54	0x332d9c00	4.0421583e-08
55	0x193d3920	9.782607e-24
56	0xb6fabd08	-7.4725867e-06
57	0xaa7000c6	-2.131655e-13
58	0x0c5a3ef7	1.6813057e-31
59	0xb1a32320	-4.7479176e-09
60	0xa8a83940	-1.8676575e-14
61	0xb45c7c1e	-2.053425e-07
62	0xb686c46c	-4.0163777e-06
63	0x1ce2687a	1.4982432e-21
64	0x36624f80	3.37229e-06
65	0x267dad6e	8.801205e-16
66	0x1a588171	4.4772315e-23
67	0x2eef1abb	1.087321e-10
68	0xa73d69b2	-2.6286317e-15
69	0x36889f44	4.071657e-06
70	0x31068500	1.9575168e-09
71	0xb49e914a	-2.9535505e-07
72	0xb4380b31	-1.7140407e-07
73	0x9789d436	-8.906987e-25
74	0xb1250fcc	-2.401964e-09
75	0xb6d74062	-6.4149945e-06
76	0xa7a4a67e	-4.5699655e-15
77	0x36ddb8ee	6.607842e-06
78	0x1d1a1720	2.0393686e-21
79	0x3493f1c0	2.755678e-07
80	0x2c34cb54	2.5692408e-12
81	0x353d1e18	7.045178e-07
82	0xb5a3760c	-1.2178803e-06
83	0x376908ba	1.3889914e-05
84	0xb49323c4	-2.7406907e-07
85	0x24bd3ee2	8.207221e-17
86	0x350fe2d0	5.3601707e-07
87	0x34a8cfba	3.144358e-07
88	0x0e11b617	1.7960303e-30
89	0xac06b318	-1.9141962e-12
90	0x20e05a07	3.800665e-19
91	0x1f3caa57	3.995145e-20
92	0xb4439a98	-1.8217031e-07
93	0x35bd639a	1.4110585e-06
94	0xaa0462d3	-1.1758242e-13
95	0x33fdb354	1.181385e-07
96	0xb8132300	-3.5080127e-05
97	0xb47cfc92	-2.3561213e-07
98	0x35bf9996	1.4275308e-06
99	0x22e62213	6.2377702e-18
100	0xacbd1a4a	-5.3746218e-12
101	0xb0835f10	-9.558523e-10
102	0x376626f4	1.3718138e-05
103	0x8fdd464c	-2.181936e-29
104	0xb07dac60	-9.2285823e-10
105	0x38038ad8	3.1362142e-05
106	0x9ffb2af0	-1.0637367e-19
107	0x176cf086	7.6559296e-25
108	0xab35c358	-6.457521e-13
109	0xb04a4b58	-7.359424e-10
110	0x301eb677	5.7739363e-10
111	0x2fd319c0	3.8398973e-10
112	0x346354d1	2.1171878e-07
113	0x368808fa	4.054161e-06
114	0xaf20848d	-1.4599007e-10
115	0xb738d389	-1.10165065e-05
116	0x8a3b9a20	-9.03271e-33
117	0x3481897a	2.412815e-07
118	0x28be4845	2.112558e-14
119	0x9ab0293a	-7.28585e-23
120	0x3418b7b8	1.422294e-07
121	0xb6119e7b	-2.1698932e-06
122	0xaf9f57c8	-2.8984304e-10
123	0xb5bf5ef6	-1.4258246e-06
124	0xaee939ca	-1.0605879e-10
125	0xb701052d	-7.690204e-06
126	0xa88c8ad0	-1.5603323e-14
127	0x2b53d118	7.5252434e-13

bn1.weight f4 [128]
0	0x3f1135cd	0.5672272
1	0x3b8d25fc	0.0043075066
2	0x3aba8905	0.0014231509
3	0x33b23d34	8.299904e-08
4	0x3db84889	0.0899821
5	0x3455b757	1.990387e-07
6	0x3b8deaf4	0.004330987
7	0x3dc56bf2	0.096397296
8	0x3ee10d5f	0.43955514
9	0x3eb7cdee	0.358993
10	0x3f533f6a	0.8251864
11	0x3f0cea43	0.55044955
12	0x3e71cca9	0.23613228
13	0x3c48bd84	0.012252215
14	0x3e26a0b2	0.16272238
15	0x37016f46	7.714907e-06
16	0x3bbdd7da	0.005793554
17	0x3ec4ef2a	0.38463718
18	0x3ee6e509	0.45096615
19	0x38871c85	6.442614e-05
20	0x3b0370b6	0.0020056195
21	0x3bdb31bc	0.0066892784
22	0x3b5c881f	0.003365047
23	0x3ba1f5ff	0.004942655
24	0x3d109f44	0.035308138
25	0x3e32be64	0.17455441
26	0x3e1ba527	0.1519972
27	0x2f21b70c	1.4707896e-10
28	0x3b183792	0.0023226482
29	0x3f718c1d	0.9435442
30	0x3e627cc5	0.22117908
31	0x39e79a1a	0.00044174568
32	0x3f3b0d7f	0.7306747
33	0x3f0b6350	0.54448414
34	0x3df71011	0.12063611
35	0x394584f3	0.00018836911
36	0x3dd9be5c	0.10632011
37	0x3b831b5c	0.004001064
38	0x3dbc900f	0.092071645
39	0x3d26f654	0.04076226
40	0x3edebbc2	0.43502623
41	0x3f3fafae	0.7487744
42	0x3a00e8b4	0.0004917488
43	0x3f05f817	0.5233168
44	0x3d0212c6	0.031756185
45	0x20d59e60	3.6188407e-19
46	0x3e2dfe2e	0.16991493
47	0x3f05f5bb	0.5232808
48	0x33d22c6e	9.786969e-08
49	0x3e687495	0.22700723
50	0x3c90d24b	0.0176784
51	0x3f3b5b1f	0.73185915
52	0x3b4093be	0.0029384936
53	0x3db04526	0.08606939
54	0x3d4eb85a	0.05046878
55	0x330f8733	3.3417745e-08
56	0x3edcc4fd	0.4311904
57	0x3a65d159	0.0008766852
58	0x230b99b4	7.567753e-18
59	0x3ab52dff	0.0013822912
60	0x38e034e6	0.000106910054
61	0x3e6146cf	0.21999668
62	0x3ee747fc	0.45172107
63	0x2d27bf04	9.535265e-12
64	0x3f2d1325	0.6760734
65	0x376ef859	1.4243728e-05
66	0x2f80c6e3	2.3424382e-10
67	0x3bdf408b	0.006813114
68	0x38a4a42f	7.850711e-05
69	0x3f39e212	0.7261058
70	0x3e30844b	0.17237966
71	0x3e0b1971	0.13583924
72	0x3d953cf0	0.072870135
73	0x2d8541e4	1.514961e-11
74	0x3cdfacf3	0.027304148
75	0x3f55b4cf	0.83479017
76	0x38dceb38	0.000105342304
77	0x3f3a4856	0.72766626
78	0x32301f5d	1.02516795e-08
79	0x3f517260	0.8181515
80	0x357a5e1d	9.326921e-07
81	0x3f19ba5e	0.6005
82	0x3e9f88f4	0.31159174
83	0x3f744b26	0.9542717
84	0x3dbbfb13	0.09178748
85	0x36ec65ff	7.045222e-06
86	0x3f1900ac	0.5976665
87	0x3dbdabf3	0.09261312
88	0x2a1374d3	1.3096754e-13
89	0x3a914828	0.0011084126
90	0x36b24871	5.3132467e-06
91	0x341a1550	1.4350121e-07
92	0x3dd88a3d	0.10573242
93	0x3ebf1ac3	0.37325105
94	0x39fdbffc	0.0004839896
95	0x3dd5f038	0.10446209
96	0x3f26cda8	0.65157557
97	0x3df4b919	0.11949367
98	0x3dccfd15	0.10009209
99	0x36112c11	2.1632334e-06
100	0x3a8f07a4	0.0010912311
101	0x3d22191b	0.039574724
102	0x3eb3d48e	0.35123104
103	0x27a82480	4.666894e-15
104	0x3d3e8b15	0.046519358
105	0x3f3364d7	0.70075744
106	0x34147736	1.3826943e-07
107	0x30084f78	4.9589444e-10
108	0x26123ec7	5.0739005e-16
109	0x3c51fb5e	0.012816278
110	0x3b8561f3	0.0040705143
111	0x3c345249	0.011005946
112	0x3d2c3f98	0.042052835
113	0x3eeb5156	0.45960492
114	0x3c02a3e1	0.007973642
115	0x3f32e62c	0.69882464
116	0x23ca4555	2.1930247e-17
117	0x3d96b363	0.07358434
118	0x3863355a	5.4170705e-05
119	0x304c4866	7.431765e-10
120	0x3da8a648	0.08234841
121	0x3dec9a63	0.115528844
122	0x3bd38cbb	0.0064559854
123	0x3e71a0de	0.23596522
124	0x3bb153b0	0.0054115877
125	0x3f1fe390	0.6245661
126	0x38768fd0	5.8784906e-05
127	0x3a1d5a22	0.00060025055

bn1.bias f4 [128]
0	0x3de1ea20	0.11030984
1	0xbbb83efe	-0.0056227436
2	0xbaaf62b4	-0.0013380856
3	0xb2661670	-1.3392864e-08
4	0xbdb58f8b	-0.08865269
5	0xb41e14b1	-1.4722424e-07
6	0xbbe32669	-0.006932069
7	0x3d53169d	0.051535238
8	0x3e025dd7	0.1273111
9	0x3da15521	0.07877565
10	0x3de4f259	0.11179037
11	0x3de38d3f	0.11110925
12	0x3db39adb	0.08769771
13	0xbc83a127	-0.016068054
14	0xbe15e4c2	-0.14638045
15	0xb5dab771	-1.6295654e-06
16	0xbc291584	-0.010320071
17	0x3defb8f7	0.11705201
18	0x3dd767f9	0.10517878
19	0xb8a0c86e	-7.6667275e-05
20	0xbb64b50a	-0.0034897947
21	0xbc4ec76a	-0.012620786
22	0xbbe2fdef	-0.006927244
23	0xbc37fc69	-0.011229613
24	0xbca4a091	-0.020096095
25	0xbdf2d9bc	-0.11857936
26	0xbce2dda1	-0.027693572
27	0xae6ee42f	-5.4317602e-11
28	0xbbc50218	-0.0060122125
29	0x3df498cf	0.119432084
30	0x3da02d1c	0.07821104
31	0x3d112b02	0.035441406
32	0x3ddc99b6	0.107715055
33	0x3dd9d266	0.106358334
34	0xbe04eec5	-0.12981708
35	0xb986c4e8	-0.00025705178
36	0xbdbfaed7	-0.0935952
37	0xbbf98b04	-0.007615449
38	0xbc3a370c	-0.011365663
39	0xbd3412dc	-0.0439633
40	0x3dcdfd4c	0.10058078
41	0x3df0d190	0.11758721
42	0xba1a8401	-0.0005894304
43	0x3dc6bbba	0.09703775
44	0xbcc2889d	-0.023746783
45	0xac560d68	-3.041867e-12
46	0xbd9b5c8c	-0.07586011
47	0x3dd7aec2	0.10531379
48	0xb15b9a98	-3.195657e-09
49	0xbe69906c	-0.22808999
50	0xbc9d0a49	-0.019169943
51	0x3dd25619	0.10270328
52	0xbb905e06	-0.0044057397
53	0xbdb9d297	-0.0907337
54	0xbd4b6b3a	-0.049662806
55	0xb0a2c5b3	-1.1843241e-09
56	0x3dc75d3a	0.097345784
57	0xba90005d	-0.0010986436
58	0xacc7e192	-5.6809635e-12
59	0x3c5f61d8	0.013634168
60	0xb882c4bb	-6.235527e-05
61	0x3d5a9d29	0.053372536
62	0x3dd242a1	0.10266615
63	0xb30e0077	-3.3062374e-08
64	0x3dee89fa	0.11647411
65	0xb7049eb1	-7.904761e-06
66	0xafcda72b	-3.7408063e-10
67	0xbc8118d4	-0.01575891
68	0xb890f5fb	-6.9122725e-05
69	0x3e01be9d	0.1267037
70	0x3dd409b7	0.103534155
71	0xbe08c453	-0.13356142
72	0xbd3f3777	-0.046683755
73	0xade23ed9	-2.5721135e-11
74	0xbd141b12	-0.03615863
75	0x3dfacede	0.12246488
76	0xb82525fe	-3.937445e-05
77	0x3ded676c	0.11591992
78	0xaf4397cd	-1.7789077e-10
79	0x3df7ec66	0.12105636
80	0xb5030855	-4.881343e-07
81	0x3de18baa	0.11012967
82	0xbe302d12	-0.17204693
83	0x3dea1996	0.114306614
84	0xbd695e9f	-0.056975003
85	0xb6d03c64	-6.2059135e-06
86	0x3dcbfc3d	0.0996022
87	0xbdc1ad19	-0.09456844
88	0xa9f29e19	-1.07743844e-13
89	0xbb3a7d64	-0.0028456086
90	0xb5599dc3	-8.1068373e-07
91	0xb3232caf	-3.7992034e-08
92	0xbdb1194b	-0.086474024
93	0x3de804ee	0.11329065
94	0xb9c556e6	-0.00037639512
95	0xbe0550be	-0.13019082
96	0x3de2b34c	0.110693544
97	0x3d8f75a0	0.07004857
98	0xbdb495b9	-0.0881762
99	0xb4a95e7c	-3.154745e-07
100	0xbb56adb2	-0.003275734
101	0xbd30c92d	-0.043160606
102	0x3dc3246c	0.09528431
103	0xac23aa17	-2.3258112e-12
104	0xbd625e00	-0.055265427
105	0x3df04512	0.11731924
106	0xb22ccf39	-1.0058835e-08
107	0xad653491	-1.3028815e-11
108	0xaed099a2	-9.4860356e-11
109	0xbcb43db1	-0.022002073
110	0xbc084673	-0.008317578
111	0xbc9926bd	-0.01869523
112	0xbd7f5e7e	-0.062345974
113	0x3dde6bf6	0.10860436
114	0xbc927f77	-0.017883046
115	0x3df3c5d2	0.119029656
116	0xaff88c8b	-4.52108e-10
117	0x3d01662f	0.03159159
118	0xb80ef77d	-3.408593e-05
119	0xb0c0e9cc	-1.4036288e-09
120	0xbdbc8899	-0.092057414
121	0xbd0b5fbe	-0.034026854
122	0xbc2d1b9a	-0.010565663
123	0x3d9ed9a1	0.07756353
124	0xbc2bd1d9	-0.010487043
125	0x3df39348	0.11893326
126	0xb81e54a6	-3.774897e-05
127	0xb9f2c776	-0.00046306447

bn1.running_mean f4 [128]
0	0xbbb4c1c2	-0.005516262
1	0x381a6ccc	3.6817786e-05
2	0x377ed0a4	1.5188158e-05
3	0x2ef0884a	1.0938146e-10
4	0x3bafe024	0.005367296
5	0x308dfc2c	1.0330772e-09
6	0xb7ce7c30	-2.4614943e-05
7	0xbaffc6d0	-0.0019514207
8	0x3bcec5da	0.006310207
9	0xbba102c3	-0.0049136593
10	0xbbbe22b8	-0.0058024786
11	0xbbf6d014	-0.007532129
12	0x3b7439ae	0.0037265825
13	0xb9c90c16	-0.00038346712
14	0x3931d540	0.00016959477
15	0x322ce929	1.0064732e-08
16	0x398c0832	0.00026708987
17	0xbbef1f66	-0.007297444
18	0x3bd50888	0.006501261
19	0xb5507b4f	-7.7665476e-07
20	0xb8b98d1a	-8.84777e-05
21	0x397c2d06	0.00024049365
22	0xba155509	-0.000569657
23	0xb99e5c0c	-0.0003020469
24	0xba71c8b5	-0.0009223328
25	0xbb24c52b	-0.0025141935
26	0xbb581a02	-0.0032974486
27	0xadc2fafe	-2.216671e-11
28	0xb880f084	-6.148315e-05
29	0xbbd36936	-0.006451751
30	0xbaa5fc60	-0.0012663715
31	0xba027aa4	-0.00049773813
32	0xbbc30726	-0.00595178
33	0x3c07feab	0.008300464
34	0x3af13e0e	0.0018405335
35	0x3787c0da	1.6183058e-05
36	0xb99807a0	-0.0002899738
37	0xb8e0a8d8	-0.00010712602
38	0xba370fa2	-0.00069832255
39	0xb85cde18	-5.265893e-05
40	0xbb609b66	-0.0034272312
41	0x3bd1be1a	0.0064008357
42	0x3606901a	2.0051434e-06
43	0xbbc90d10	-0.0061355904
44	0x391c1240	0.00014884118
45	0x226323fa	3.0783282e-18
46	0xbb476770	-0.0030426644
47	0x3b786a08	0.0037904996
48	0x300b1dc5	5.061021e-10
49	0x3b5f6a87	0.0034090595
50	0xb89123d0	-6.9208094e-05
51	0xbbd97a84	-0.0066369195
52	0x38b58f1b	8.657408e-05
53	0x3a053cd6	0.00050826126
54	0xb7438480	-1.1653756e-05
55	0x2871defc	1.34265395e-14
56	0x3bc6abbe	0.0060629537
57	0x37cf32fa	2.470006e-05
58	0x972d182a	-5.5929814e-25
59	0xb7989780	-1.819036e-05
60	0x34d66491	3.9933778e-07
61	0xbb8127ac	-0.003941497
62	0xbbae32ae	-0.0053161
63	0xab57f5e8	-7.672461e-13
64	0xbbf1f2a4	-0.0073836613
65	0xb467cea8	-2.1588733e-07
66	0xac0ffaca	-2.0460738e-12
67	0x38120738	3.4815836e-05
68	0xb527330a	-6.228662e-07
69	0x3bc36e12	0.005964049
70	0x3ba1dceb	0.0049396656
71	0x3a91d50b	0.0011126114
72	0x3b491f07	0.003068866
73	0xac9194e0	-4.1376763e-12
74	0x3a86d7ea	0.0010287736
75	0x3bfee6d4	0.0077789817
76	0xb315fbdc	-3.492083e-08
77	0x3bd62e16	0.0065362556
78	0xac2db14d	-2.46832e-12
79	0xbbd6e206	-0.006557706
80	0xb086eba9	-9.816762e-10
81	0x3bb59fda	0.0055427374
82	0x3a31eb60	0.0006787088
83	0x3c05880a	0.00815011
84	0xbb118fe2	-0.0022211005
85	0x3039e248	6.7624173e-10
86	0x3b966bc4	0.0045904834
87	0x3bb283c0	0.0054478347
88	0xa1aeb584	-1.1838745e-18
89	0x35b5b600	1.353852e-06
90	0xb1c9e6b0	-5.876096e-09
91	0x32adc372	2.0228729e-08
92	0xbb7cdca6	-0.0038583665
93	0x3b9750fb	0.004617808
94	0xb767e459	-1.3821839e-05
95	0x39d39c5a	0.00040361547
96	0xbbdb1178	-0.006685432
97	0x3b187e05	0.0023268473
98	0xb9df07b4	-0.00042539614
99	0x3043f8a9	7.1293954e-10
100	0xb8b23760	-8.498016e-05
101	0x3a9d3774	0.0011994676
102	0x3b870a02	0.004121066
103	0xa5891cb1	-2.3785154e-16
104	0xbb1365b9	-0.0022491051
105	0x3bc35b22	0.0059617916
106	0xb0a942af	-1.2315321e-09
107	0x2b5719be	7.641907e-13
108	0xa7d397d0	-5.872886e-15
109	0x3a039390	0.0005019242
110	0x39a3c15c	0.00031233847
111	0xb9dd441e	-0.00042203156
112	0x380b9170	3.327563e-05
113	0xbb11c3ca	-0.0022241944
114	0xb95d9075	-0.00021130017
115	0x3bc6b3aa	0.006063898
116	0x9da5ab67	-4.3852362e-21
117	0xb87b4c80	-5.991431e-05
118	0x344ee479	1.9268363e-07
119	0x2a4fe32a	1.8464107e-13
120	0xbb5486be	-0.0032428945
121	0x3b0432d6	0.0020171902
122	0xb8735922	-5.8018726e-05
123	0x3b27c6e0	0.0025600716
124	0x38743100	5.8219768e-05
125	0x3bb652e0	0.0055640787
126	0xb488e952	-2.5501737e-07
127	0xb63a323c	-2.77454e-06

bn1.running_var f4 [128]
0	0x3ea5c65e	0.32377905
1	0x39a81223	0.0003205697
2	0x35f81292	1.8482845e-06
3	0x23c9433c	2.1820939e-17
4	0x3cb35b97	0.02189426
5	0x2a0cfddd	1.2522574e-13
6	0x3a131883	0.00056112575
7	0x3d535541	0.051594976
8	0x3ea33827	0.31878778
9	0x3e6ad52c	0.22932881
10	0x3ee59c05	0.44845596
11	0x3ec78da2	0.38975245
12	0x3e086733	0.13320617
13	0x3a293146	0.00064541807
14	0x3d20b2eb	0.03923313
15	0x2b43212b	6.9323947e-13
16	0x3913e349	0.00014103683
17	0x3e843813	0.2582403
18	0x3ea4b128	0.3216641
19	0x3090621b	1.0505262e-09
20	0x37b273c1	2.1273156e-05
21	0x392333a6	0.00015564132
22	0x3b063c57	0.0020482743
23	0x39156e8c	0.00014250929
24	0x3c85954e	0.016306546
25	0x3d5ac835	0.05341359
26	0x3d378545	0.04480483
27	0x21cefde0	1.4026303e-18
28	0x3901cf47	0.00012379616
29	0x3f09c9ea	0.5382372
30	0x3de783cf	0.11304437
31	0x3b542507	0.0032370703
32	0x3eae9112	0.34095055
33	0x3f063c8f	0.52436155
34	0x3ceb228f	0.028703002
35	0x34377928	1.708728e-07
36	0x3cea3952	0.028591786
37	0x394081aa	0.0001835885
38	0x3d386d75	0.04502626
39	0x3c39b5a0	0.011334807
40	0x3e6f7c77	0.23387323
41	0x3eea3793	0.45745525
42	0x33348fd1	4.2040316e-08
43	0x3e975cee	0.29563087
44	0x3be5a31f	0.007007971
45	0x0000000e	2e-44
46	0x3cf4c78e	0.029880311
47	0x3ea93346	0.3304693
48	0x27917fc1	4.0384096e-15
49	0x3d532b4b	0.05155496
50	0x3a737440	0.0009287037
51	0x3efa72d7	0.4891574
52	0x37a88c92	2.0092619e-05
53	0x3c9569a1	0.018238844
54	0x3b9fbdcb	0.00487492
55	0x18039bdb	1.701004e-24
56	0x3e9fa8b7	0.31183407
57	0x34e747d9	4.307938e-07
58	0x00000004	6e-45
59	0x3ac7b2c3	0.001523577
60	0x314d074c	2.9835574e-09
61	0x3db6e979	0.0893125
62	0x3e6e83ef	0.23292516
63	0x1c7cf6ac	8.369862e-22
64	0x3f0fd1d9	0.5617958
65	0x2f9ed856	2.8893749e-10
66	0x2012e0cd	1.2441061e-19
67	0x3a1388a9	0.0005627969
68	0x313874cd	2.6841918e-09
69	0x3ec0c9a9	0.37653854
70	0x3dd11601	0.10209275
71	0x3ced3803	0.028957373
72	0x3c501936	0.012701323
73	0x20043d6b	1.1201156e-19
74	0x3b3900a1	0.0028229135
75	0x3f2bd98f	0.67128843
76	0x2f27e096	1.526835e-10
77	0x3f02f8af	0.5116071
78	0x1e58af6d	1.1471222e-20
79	0x3f0f856c	0.5606296
80	0x2719946b	2.1313473e-15
81	0x3ec48938	0.3838594
82	0x3e1ca0c2	0.15295699
83	0x3f4b0e12	0.79318345
84	0x3cb3794a	0.021908421
85	0x2c0a9b82	1.9697304e-12
86	0x3ec0132f	0.37514636
87	0x3ca8f44e	0.020624306
88	0x0bb64cc8	7.021938e-32
89	0x3853a162	5.045662e-05
90	0x2acf524e	3.6827697e-13
91	0x2c8ab1b1	3.9419236e-12
92	0x3c7e4563	0.015519473
93	0x3e96f22b	0.29481634
94	0x3424c79d	1.5346309e-07
95	0x3cb5d15e	0.02219456
96	0x3ee1539f	0.4400911
97	0x3d8f5e32	0.07000388
98	0x3cac2b17	0.02101664
99	0x274cc76f	2.84188e-15
100	0x389e52d5	7.549456e-05
101	0x3c0a9312	0.008457916
102	0x3e438d5b	0.19096892
103	0x110bdc4d	1.1033052e-28
104	0x3befacb2	0.007314288
105	0x3edc1012	0.4298101
106	0x28233e19	9.061783e-15
107	0x1c8faf9a	9.508338e-22
108	0x146a54d2	1.1830709e-26
109	0x3a245a14	0.0006269526
110	0x3929a459	0.0001617832
111	0x3a950e8f	0.0011372137
112	0x3b9c6a4d	0.004773414
113	0x3e8ab49b	0.27090916
114	0x3a3c1374	0.00071745296
115	0x3eeb84d0	0.45999765
116	0x02e22a71	3.3232076e-37
117	0x3cf3be1a	0.029753733
118	0x30d9f67a	1.5858881e-09
119	0x1a15b3d5	3.0957745e-23
120	0x3c71d219	0.014759564
121	0x3cc503b1	0.024049612
122	0x39847ac4	0.0002526847
123	0x3ddc9f86	0.10772614
124	0x39844ecd	0.00025235713
125	0x3ed29d83	0.41135797
126	0x2fce4c69	3.7525474e-10
127	0x331e37f6	3.6838138e-08

fc2.weight f4 [64, 128]
0	0xbcb6ed60	-0.022329986
1	0xb8d24e5e	-0.00010028177
2	0xb4969d34	-2.8054058e-07
3	0xacdfaa42	-6.3569436e-12
4	0xbaef3e35	-0.0018252792
5	0xacdbe8b4	-6.2501896e-12
6	0xb78cc743	-1.6782089e-05
7	0xbadcd477	-0.0016847987
8	0x3b9147d5	0.004433612
9	0xbc32cb21	-0.0109126875
10	0xbd00ba7a	-0.031427838
11	0xbc95737d	-0.018243546
12	0xba37cdbb	-0.0007011552
13	0xb82f49ee	-4.1792104e-05
14	0x3a07a022	0.0005173703
15	0x2f5e8ce3	2.0240835e-10
16	0xb7eb3527	-2.8038934e-05
17	0xbc24f8ff	-0.010069131
18	0x3a84b08e	0.0010123418
19	0xb2ace36a	-2.0126851e-08
20	0xb5335b5a	-6.681563e-07
21	0xb6fd667a	-7.5519174e-06
22	0xb906a038	-0.00012838922
23	0x35a03747	1.1937017e-06
24	0xb9501086	-0.00019842581
25	0x3a19ee3e	0.00058719877
26	0x3b9ef376	0.0048508
27	0x28dd527d	2.4571702e-14
28	0xb62a2b20	-2.5357076e-06
29	0xbd0472e6	-0.03233614
30	0xbab1834f	-0.0013543161
31	0x3731dec1	1.0601886e-05
32	0xbcf1eb63	-0.029531186
33	0x3bf54013	0.007484445
34	0xb989d37b	-0.00026288241
35	0x328f7e9c	1.6704966e-08
36	0xbba8e3cc	-0.0051541086
37	0xb6871746	-4.026023e-06
38	0x39bd685c	0.00036126643
39	0xb971b7eb	-0.00023052066
40	0xbc6a23eb	-0.01429079
41	0x3c3fa048	0.011695929
42	0xb287b401	-1.5797925e-08
43	0xbc9bcfc1	-0.019019963
44	0x3a58da5d	0.0008272285
45	0xa6ddc15c	-1.5387366e-15
46	0x3bb92f78	0.0056514107
47	0x3c164053	0.0091706095
48	0x2a8a811a	2.4603307e-13
49	0xba63a8af	-0.00086844986
50	0xb7df34f5	-2.6608332e-05
51	0xbcf06bcb	-0.029348275
52	0xb65567db	-3.1799925e-06
53	0x3a0b9f82	0.0005326198
54	0x38e9bc8a	0.00011145424
55	0xa943e03a	-4.3493184e-14
56	0xbbc3c90d	-0.005974895
57	0xb482ce89	-2.436466e-07
58	0x27d56b86	5.9235953e-15
59	0x382fac47	4.1883697e-05
60	0x31a31ddf	4.7473203e-09
61	0xbbd581e4	-0.0065157283
62	0xbc983b90	-0.01858309
63	0x2d4693af	1.1287789e-11
64	0xbcf6053b	-0.030031791
65	0xb1134f36	-2.1436342e-09
66	0xa8e5d124	-2.5514808e-14
67	0xb619d883	-2.2924803e-06
68	0x32fb9a93	2.9290538e-08
69	0x3bc8855d	0.0061194138
70	0xba4c752b	-0.0007799442
71	0x398b0a69	0.00026519902
72	0xba87aaf6	-0.0010350633
73	0xa7df0594	-6.190098e-15
74	0x39c3cf53	0.00037347767
75	0xbb244b0a	-0.002506914
76	0xb2115c72	-8.4611305e-09
77	0x3bc6de27	0.006068963
78	0x2912c7ca	3.2591802e-14
79	0xbd1a3ae6	-0.037653826
80	0x2f26745f	1.5138955e-10
81	0x3c68b481	0.014203192
82	0xbbcad3b7	-0.006189789
83	0x39f12e9d	0.00046001832
84	0x3b2d570f	0.0026449596
85	0x3100b655	1.8730095e-09
86	0x3c2982b7	0.010346106
87	0xbaeb3d41	-0.0017947332
88	0xa2923d0f	-3.9638028e-18
89	0xb4c3b824	-3.645556e-07
90	0x2eb691bc	8.3022894e-11
91	0x2c244bd9	2.3347906e-12
92	0x3b4ef668	0.0031579975
93	0x3c0f451f	0.008744507
94	0xb308a4d5	-3.181488e-08
95	0xb9872258	-0.00025774795
96	0xbcc0415f	-0.023468671
97	0xba29d0f8	-0.0006477977
98	0xbb08da10	-0.0020881929
99	0x2e879922	6.166291e-11
100	0xb53bb6cb	-6.992893e-07
101	0xba44e63e	-0.00075111154
102	0x3c0fefc7	0.008785195
103	0xa5757824	-2.1291068e-16
104	0xba0a526d	-0.00052765646
105	0x3c2a4ad9	0.010393822
106	0xab210fc4	-5.722057e-13
107	0xa7f41756	-6.7748905e-15
108	0xa8a87675	-1.870312e-14
109	0xb7fa95bd	-2.987205e-05
110	0xb6bf7d07	-5.7067987e-06
111	0xb76a12e9	-1.395189e-05
112	0xb9108a92	-0.00013784532
113	0xbc91fcc4	-0.017820723
114	0x35d28a4e	1.5686471e-06
115	0x3bb2a078	0.0054512583
116	0x2ae4c339	4.06364e-13
117	0xb8f2ff8e	-0.0001158706
118	0xb20abf14	-8.076103e-09
119	0xab013b24	-4.591208e-13
120	0x3a4cee5d	0.00078175013
121	0x3b0024f8	0.0019553285
122	0xb73ff595	-1.1441666e-05
123	0x3b568974	0.0032735737
124	0xb75265a4	-1.25406405e-05
125	0x3c70cbef	0.014697059
126	0xb29ff3c4	-1.8620888e-08
127	0xb337a201	-4.275535e-08
128	0x3c7c8b99	0.015414142
129	0x3a715b28	0.0009207004
130	0xb6475fc3	-2.9709051e-06
131	0x2deb814e	2.677383e-11
132	0x3ba20873	0.004944855
133	0x2f3fa3e1	1.742957e-10
134	0x3849676b	4.801845e-05
135	0x3b8591b5	0.0040762075
136	0xbd2689ad	-0.04065864
137	0x3ca29d8a	0.019850511
138	0x3d39439a	0.045230485
139	0x3cae42a5	0.021272013
140	0xbbc71b40	-0.0060762465
141	0xba81d4c4	-0.0009905328
142	0xbbccef34	-0.006254101
143	0x318b8f07	4.0616928e-09
144	0xb8bec800	-9.097159e-05
145	0x3c2ef127	0.010677612
146	0xbd4b9c4a	-0.049709596
147	0x34cfd3b6	3.8710795e-07
148	0x371fcf2d	9.525375e-06
149	0xb7b6c434	-2.1787455e-05
150	0xba969f54	-0.0011491575
151	0x38ba1ebe	8.874897e-05
152	0x3b22576f	0.0024771353
153	0xbaa71921	-0.0012748578
154	0xbb57124d	-0.0032817305
155	0x29638b9a	5.052521e-14
156	0xb895a3aa	-7.1353585e-05
157	0x3d00062c	0.031255886
158	0x3c2cb1ab	0.010540406
159	0xba975a24	-0.001154725
160	0x3ce117c0	0.027477145
161	0xbd313dc3	-0.04327179
162	0x3c074d17	0.008258126
163	0x3407a4f9	1.2632871e-07
164	0xbc1cbce6	-0.009566521
165	0x38a89ea9	8.040417e-05
166	0xba102940	-0.0005499311
167	0xbab79999	-0.0014007568
168	0x3c91db45	0.017804751
169	0xbda248cc	-0.07924041
170	0xb4852612	-2.480088e-07
171	0x3d2961d6	0.04135307
172	0x3b788872	0.0037923125
173	0x29887396	6.059664e-14
174	0xbc8cd724	-0.01719243
175	0xbd6e979e	-0.058250062
176	0xab1e4542	-5.622899e-13
177	0x3cab2d2d	0.020895565
178	0xb9fe3764	-0.00048487925
179	0x3d42c58b	0.047551673
180	0xb7069f88	-8.024166e-06
181	0x3c1df387	0.009640581
182	0xbb666bae	-0.0035159397
183	0x2ba2d207	1.1569087e-12
184	0xbd00403b	-0.031311255
185	0x340101be	1.2014695e-07
186	0xa85ac87c	-1.2144904e-14
187	0xbb1b5825	-0.0023703661
188	0xb3f708a0	-1.1503403e-07
189	0xbab65139	-0.0013909704
190	0x3c9bc306	0.019013893
191	0x2e744485	5.5540034e-11
192	0x3cdfa5d9	0.027300762
193	0xb3051e41	-3.099399e-08
194	0x2be136e6	1.6002449e-12
195	0x3923437b	0.0001557003
196	0xb3ea6083	-1.09140295e-07
197	0xbd67826d	-0.056520868
198	0xbc2737e3	-0.0102061955
199	0x3c357e4e	0.011077477
200	0x3be31ce3	0.006930934
201	0xa9caeb7a	-9.011451e-14
202	0xbb350db4	-0.0027626576
203	0xbd5a9f21	-0.053374413
204	0xb4213011	-1.501178e-07
205	0xbd99d94f	-0.075121514
206	0x2a2fa259	1.5599448e-13
207	0x3cbdd278	0.023171648
208	0x2fb1db60	3.2351988e-10
209	0xbd70b618	-0.058767408
210	0x3cac40ab	0.02102693
211	0xbd89add0	-0.06722605
212	0xb9b244de	-0.00034002116
213	0xb22a47ff	-9.911672e-09
214	0xbd879343	-0.06619885
215	0xbb887f75	-0.0041655847
216	0xa55e86d7	-1.9301116e-16
217	0x3655e401	3.187219e-06
218	0xb103bb06	-1.916932e-09
219	0x2f1ff8b8	1.4549328e-10
220	0x3bfddecb	0.0077475063
221	0xbcc61b4b	-0.024182936
222	0x33661cc8	5.3577224e-08
223	0x3b33ab75	0.0027415429
224	0x3cf310a6	0.029671025
225	0xbbc9d175	-0.0061590024
226	0xb960cddf	-0.00021438998
227	0xb0df6c13	-1.6256102e-09
228	0xb6bac2d9	-5.565915e-06
229	0x3ac9221c	0.0015345248
230	0xbd17ad56	-0.03703054
231	0x26d28ff5	1.4610697e-15
232	0x395b212f	0.0002089783
233	0xbd8d8ecf	-0.06912004
234	0x279e0880	4.3863025e-15
235	0xa924ae58	-3.6566534e-14
236	0x2ab68011	3.2418558e-13
237	0xb8847302	-6.315672e-05
238	0x39bb35e9	0.00035707586
239	0xb8f9bf43	-0.000119088705
240	0x3a876a11	0.0010331293
241	0x3cbe6119	0.02323966
242	0x39c0930d	0.00036730655
243	0xbd62aa59	-0.055338237
244	0x2cc8c229	5.705898e-12
245	0xbbb18b21	-0.005418197
246	0xb3d14f20	-9.746714e-08
247	0x2c39313d	2.6317414e-12
248	0x3be44e58	0.006967347
249	0x3ba92705	0.005162122
250	0xb9473482	-0.0001899768
251	0xbca27a2c	-0.019833647
252	0x39c3975d	0.00037306073
253	0xbd92a4ba	-0.07160325
254	0x3436abc1	1.7012555e-07
255	0xb6762b61	-3.6682106e-06

fc2.bias f4 [64]
0	0xb67da788	-3.7797454e-06
1	0xb56fd21e	-8.93402e-07
2	0xb720ada6	-9.577174e-06
3	0xb601883c	-1.9301797e-06
4	0xb80991be	-3.279908e-05
5	0x3603f3c8	1.966242e-06
6	0x36041a1a	1.9684726e-06
7	0xb5940cee	-1.1030622e-06
8	0xb65f5058	-3.3276356e-06
9	0xb569cb70	-8.7095304e-07
10	0xb7413386	-1.1515693e-05
11	0x35d9e1b7	1.6233452e-06
12	0xb762b3b6	-1.3512492e-05
13	0x38444d69	4.6802135e-05
14	0x364d6139	3.0603971e-06
15	0xb62911d0	-2.519333e-06
16	0x36e18ab7	6.721671e-06
17	0x36c8b2d1	5.9812814e-06
18	0x365dcd18	3.3050947e-06
19	0x3685b2ff	3.9845468e-06
20	0xb5c44e8c	-1.4625998e-06
21	0x2e3c8c3c	4.2870804e-11
22	0xb79d49d1	-1.8750232e-05
23	0x352c8cc6	6.4279845e-07
24	0x3597db1c	1.1314146e-06
25	0x0aa46534	1.5830694e-32
26	0x361a81dc	2.3023376e-06
27	0xb481033f	-2.4030484e-07
28	0x37a12702	1.921086e-05
29	0x36fead2e	7.5899507e-06
30	0xb630e1be	-2.6357443e-06
31	0xb6935c30	-4.3916734e-06
32	0x9484250d	-1.3343208e-26
33	0xb6b93214	-5.5192595e-06
34	0x370118d0	7.694776e-06
35	0xb6f1d55c	-7.207198e-06
36	0x37638c34	1.3562898e-05
37	0x372815bb	1.001864e-05
38	0xb4c49a28	-3.6620008e-07
39	0x3807d5e2	3.2385702e-05
40	0xb70cfd4f	-8.403628e-06
41	0xb43c26c8	-1.7522973e-07
42	0x3753b580	1.2618839e-05
43	0x35f02fe8	1.7895336e-06
44	0xb72b865f	-1.022368e-05
45	0x37ca7e20	2.4139008e-05
46	0xb5ff396b	-1.9015691e-06
47	0xb5cc4914	-1.5220453e-06
48	0xb5175a08	-5.6382896e-07
49	0xb6253e61	-2.4623225e-06
50	0xb7921bd3	-1.7417513e-05
51	0xb5fb6428	-1.8730107e-06
52	0xb73272b1	-1.063633e-05
53	0x3731b12c	1.0591273e-05
54	0xb6ce3975	-6.1459673e-06
55	0x36f941a1	7.4284185e-06
56	0xb7482d24	-1.1931439e-05
57	0xb2c1a220	-2.2541883e-08
58	0x37608689	1.3382764e-05
59	0x34275738	1.5584817e-07
60	0xb7a0c67e	-1.9165916e-05
61	0xb4f47c7c	-4.5539116e-07
62	0xb675cbce	-3.6626475e-06
63	0xb39e9a90	-7.385563e-08

bn2.weight f4 [64]
0	0x3d323ecb	0.043516915
1	0x3e56c4c0	0.20973492
2	0x3e8f1996	0.27949208
3	0x3ef100ac	0.47070825
4	0x3eeb6b9e	0.45980543
5	0x3e646c94	0.22307044
6	0x3e60802c	0.21923894
7	0x3edb1305	0.42787948
8	0x3ebff041	0.37487987
9	0x3e8acc09	0.2710879
10	0x3eb07a83	0.3446847
11	0x3e99bb7a	0.30025846
12	0x3e745869	0.23861851
13	0x2f44ab39	1.7886927e-10
14	0x3e7c16f6	0.24618134
15	0x3e91c4cc	0.28470457
16	0x3e94555e	0.2897138
17	0x3ec9dbda	0.39425546
18	0x3ea9a315	0.33132234
19	0x3f137375	0.5759805
20	0x3e2e5dc3	0.17027955
21	0xba16c557	-0.0005751452
22	0x3ed1d35a	0.4098156
23	0x3e8bd649	0.27311924
24	0xb9b44e32	-0.00034390535
25	0x1ffee20f	1.0794717e-19
26	0x3df0dab2	0.11760463
27	0x3db59219	0.088657565
28	0x3e7abe79	0.24486722
29	0x3f0083be	0.5020102
30	0x3edb5714	0.42839873
31	0x3e939fe6	0.2883293
32	0x26c7d7ed	1.3866926e-15
33	0x3e680255	0.2265714
34	0x3e6d4e7e	0.23174474
35	0x3e50ddec	0.20397156
36	0x3ec73e17	0.38914558
37	0x3e87aa5e	0.26497167
38	0x3e370c0e	0.17875692
39	0x3ecd019e	0.40040296
40	0x3ea45a58	0.32100177
41	0x3ca36a18	0.01994805
42	0x3ea26899	0.31720427
43	0x3e381a25	0.17978723
44	0x3eb32475	0.34988752
45	0x3e619810	0.22030663
46	0x3e131e87	0.14367114
47	0x3eb0f3d0	0.34561014
48	0x3ea4008f	0.32031676
49	0x3e6dda43	0.23227791
50	0x3ed2bf00	0.41161346
51	0x3ec5205e	0.38501257
52	0x3ecdd408	0.4020083
53	0x3ee325da	0.44364816
54	0x3eafe02a	0.3435071
55	0x3ed0a63f	0.40751836
56	0x3ea45aa2	0.32100397
57	0x3d1d4028	0.038391262
58	0x3e5fa133	0.21838836
59	0x3e0b4b72	0.13602999
60	0x3ebe9fd2	0.37231308
61	0x3ef9e4ae	0.4880728
62	0x3e89ec07	0.26937887
63	0x3de9bb41	0.11412669

bn2.bias f4 [64]
0	0xbc757f29	-0.014983931
1	0x3d2c25c6	0.04202821
2	0x3ced2f31	0.028953167
3	0xbe134d30	-0.14384913
4	0xbde948fa	-0.11390872
5	0xbd6338cd	-0.05547409
6	0x3d2e2631	0.04251689
7	0x3ca01fa3	0.019546336
8	0x3d23f0ea	0.040024675
9	0x3d21e956	0.039529167
10	0x3cb16897	0.021656318
11	0x3d252757	0.04032072
12	0x3d52c291	0.051455084
13	0xb3163f7e	-3.4982342e-08
14	0x3cbe17aa	0.023204643
15	0x3c686406	0.014184004
16	0xbd5d5e27	-0.05404487
17	0xbc41b335	-0.011822511
18	0xbd4cda58	-0.050012916
19	0xbdd87c11	-0.10570539
20	0xbd505c76	-0.050869428
21	0xbc1e9b0e	-0.009680523
22	0xbe0c84bf	-0.13722514
23	0x3bff690d	0.0077945055
24	0x3a8e6979	0.0010865174
25	0xb2300d5f	-1.02475886e-08
26	0x3d8dc117	0.069215946
27	0x3d0bfc3a	0.03417609
28	0x3ce32941	0.027729632
29	0xbdaef000	-0.0854187
30	0xbd6261b4	-0.05526896
31	0x3d62ed11	0.055401865
32	0xb058b22f	-7.8833556e-10
33	0xbd02c1e3	-0.031923186
34	0x3d165cd4	0.03670962
35	0x3ccdb598	0.025111005
36	0xbbc56c6b	-0.0060248873
37	0x3d2d24d0	0.042271435
38	0x3cf1dbf1	0.029523822
39	0xba719439	-0.00092155073
40	0xbb533e06	-0.0032233014
41	0x3c3bfb4d	0.011473489
42	0xbb43caf1	-0.0029875601
43	0x3d5e958c	0.054341838
44	0x3cb05924	0.02152688
45	0x3c97b219	0.01851754
46	0x3d1b84cd	0.037968446
47	0xbc4e4fb7	-0.012592248
48	0x3cd1066c	0.025515758
49	0xbc734c8d	-0.014849794
50	0xbd8ced5d	-0.06881211
51	0x3be6e57f	0.007046401
52	0xbcad3538	-0.02114354
53	0x3b836e40	0.0040109456
54	0x3bfdde2c	0.007747432
55	0x3d4b8ee2	0.04969681
56	0x3d159635	0.0365202
57	0xbcbb7fee	-0.02288815
58	0x3d794c34	0.06086369
59	0x3d1039a6	0.035211228
60	0xbc50cbb6	-0.012743881
61	0xbd8ac19d	-0.0677521
62	0x3c5ae42d	0.013360065
63	0x3d10e02a	0.03537003

bn2.running_mean f4 [64]
0	0xbd988f80	-0.074492455
1	0xbe459d2c	-0.19298238
2	0xbe9f2d62	-0.31089312
3	0xbebdbf1a	-0.3705986
4	0xbec0771b	-0.3759087
5	0xbe935559	-0.28776053
6	0xbe795d56	-0.24352011
7	0xbea3c690	-0.3198743
8	0xbe92942f	-0.2862868
9	0xbe866a03	-0.26252756
10	0xbeb7243d	-0.35769835
11	0xbe8a0f92	-0.26965004
12	0xbe8e9184	-0.27845395
13	0xb6148509	-2.2131155e-06
14	0xbe8013dd	-0.25015154
15	0xbe954297	-0.29152367
16	0xbec62c70	-0.38705778
17	0xbea77f06	-0.327141
18	0xbeb73dbd	-0.3578929
19	0xbeef902d	-0.46789685
20	0xbe897205	-0.26844802
21	0xbb0b5713	-0.0021261617
22	0x3e9deaba	0.30843145
23	0xbe989256	-0.29799145
24	0x3ba6a735	0.0050858506
25	0x213418f5	6.10194e-19
26	0xbe165247	-0.14679824
27	0xbdbee21f	-0.09320473
28	0xbe88ae9e	-0.26695722
29	0xbe9cec38	-0.3064897
30	0xbe8a0654	-0.26957953
31	0xbea4aa2a	-0.32161075
32	0x1f35a7e0	3.8467104e-20
33	0xbe8068de	-0.25080007
34	0xbe8c10c0	-0.2735653
35	0xbe723654	-0.23653537
36	0xbea5f062	-0.3240996
37	0xbe94a47d	-0.29031745
38	0xbe39db60	-0.18150091
39	0xbecd90c2	-0.40149504
40	0xbea79900	-0.32733917
41	0xbc16592f	-0.009176536
42	0xbeae0fd2	-0.33996445
43	0xbe34383f	-0.17599581
44	0xbeb13c8a	-0.346165
45	0xbe6f0b58	-0.23344171
46	0xbe2c4c92	-0.16826084
47	0xbeacad08	-0.33725762
48	0xbe9f1107	-0.31067678
49	0xbea2b50f	-0.31778762
50	0xbee14e3b	-0.44004998
51	0xbeb6d663	-0.3571044
52	0xbebdcbf7	-0.37069675
53	0xbea8c769	-0.32964638
54	0xbe9763f9	-0.2956846
55	0xbeb5bf6d	-0.3549761
56	0xbea2ddf5	-0.31809965
57	0xbdc519dd	-0.09624074
58	0xbe5d8237	-0.21631704
59	0xbe2b3892	-0.16720799
60	0xbeb1e52f	-0.34745166
61	0xbe959dda	-0.29221994
62	0xbe8e1438	-0.277498
63	0xbdfae038	-0.122497976

bn2.running_var f4 [64]
0	0x3d0cb86d	0.03435557
1	0x3e900321	0.28127387
2	0x3ee9b3ce	0.45644993
3	0x3f67efce	0.9060029
4	0x3f59a403	0.8501589
5	0x3edd305f	0.43200967
6	0x3eae082c	0.3399061
7	0x3f1d7129	0.61500794
8	0x3f1db61b	0.61605996
9	0x3eb3a0bb	0.35083565
10	0x3f10bbad	0.5653637
11	0x3ef4580f	0.47723433
12	0x3ebaf9c5	0.36518684
13	0x19b0ec7f	1.8293493e-23
14	0x3e9bc2ec	0.3042215
15	0x3ed76336	0.4206788
16	0x3f0b65aa	0.54452
17	0x3f2ba210	0.6704416
18	0x3f1c759a	0.61116946
19	0x3f8e27d8	1.1105909
20	0x3e7c0003	0.2460938
21	0x36de763f	6.629881e-06
22	0x3dbc3368	0.091894925
23	0x3ee78dd5	0.45225397
24	0x399ffec5	0.0003051666
25	0x03a105bf	9.464049e-37
26	0x3e3ecbcf	0.18632434
27	0x3d88bb97	0.06676405
28	0x3ea5b253	0.32362613
29	0x3f7ab241	0.97928244
30	0x3f5ceeb9	0.8630176
31	0x3eed6c19	0.46371534
32	0x004b242f	6.900642e-39
33	0x3ecb9c03	0.39767465
34	0x3ec80a39	0.390703
35	0x3ea0e2ed	0.3142313
36	0x3f2388fc	0.63880897
37	0x3ec054ff	0.37564847
38	0x3e91fc28	0.28512692
39	0x3f54b053	0.8308155
40	0x3f182704	0.59434533
41	0x3bfa474f	0.007637895
42	0x3f0dd0d6	0.55396783
43	0x3e587e52	0.21141937
44	0x3f1dccb3	0.6164047
45	0x3eb18c7a	0.34677488
46	0x3e05eede	0.13079402
47	0x3f28d6da	0.6595284
48	0x3f0a2f71	0.5397864
49	0x3ee65304	0.4498521
50	0x3f5be1b0	0.85891247
51	0x3f16b967	0.5887665
52	0x3f360293	0.7109768
53	0x3f286713	0.6578228
54	0x3f0da9a7	0.55336994
55	0x3f292707	0.66075176
56	0x3eec18d1	0.46112683
57	0x3d106e4a	0.03526143
58	0x3e9208b7	0.28522274
59	0x3e10a1e3	0.14124255
60	0x3f2fabfa	0.6862179
61	0x3f6b7f9a	0.9199158
62	0x3ed05a75	0.40694013
63	0x3dd464e8	0.10370809

fc3.weight f4 [16, 64]
0	0x3bc718c2	0.0060759494
1	0x3c4e322d	0.012585205
2	0x3cd2d79b	0.025737574
3	0x3deaa3be	0.114570126
4	0x3dcf6cc2	0.10128166
5	0x3daa35a7	0.083110146
6	0xbd59f12e	-0.053208522
7	0xbce1781f	-0.027523099
8	0xbd936d76	-0.071986124
9	0xbcc7dd42	-0.024397496
10	0xbdb7f34f	-0.08981954
11	0xbd9defac	-0.077117294
12	0x3cd1f266	0.02562828
13	0xb257ed5b	-1.25686155e-08
14	0x3c27fa81	0.010252596
15	0x3c3d5a8e	0.011557234
16	0x3d900db9	0.070338674
17	0xbdabc3dc	-0.083869666
18	0x3d9e7917	0.0773794
19	0x3dfba478	0.12287229
20	0x3d84a276	0.064762995
21	0xbb22948a	-0.0024807774
22	0xbcf2222b	-0.029557308
23	0x3cb1c52b	0.021700462
24	0xbabd4c9c	-0.0014442387
25	0x2fda2c1c	3.968531e-10
26	0xbd46ac2e	-0.048504047
27	0xbc96190b	-0.018322488
28	0xbd1d75e0	-0.038442492
29	0xbd9b544c	-0.07584438
30	0xbdc54db2	-0.0963396
31	0x3d38dc1e	0.045131795
32	0x2cda8048	6.2101747e-12
33	0xbcd22aca	-0.025655169
34	0xbd6c2358	-0.057650894
35	0x3c24da03	0.010061744
36	0x3d474fa4	0.048659936
37	0x3d0700d3	0.03295977
38	0x3b3874d0	0.0028145798
39	0x3d7dd6ee	0.06197255
40	0x3d5b7a00	0.053583145
41	0xbb501415	-0.003175025
42	0x3d928718	0.07154673
43	0xbcf8744e	-0.030328896
44	0x3d760b9e	0.060069673
45	0x3d7642ff	0.060122486
46	0xbd2dfa5b	-0.042475086
47	0xbd412537	-0.04715463
48	0xbd98a2cd	-0.07452927
49	0x3d4ed9f8	0.05050084
50	0x3e037fdc	0.12841743
51	0xbd751e92	-0.059843607
52	0xbd995869	-0.07487566
53	0x3cf88bd9	0.030340122
54	0xbd193d2a	-0.037411846
55	0xbdb3e8b8	-0.08784622
56	0x3d18117b	0.037126046
57	0x3b98dd7b	0.0046650744
58	0xbd474122	-0.0486461
59	0xbcf0c957	-0.029392881
60	0x3d21ba89	0.039484534
61	0xbda36de3	-0.079799436
62	0x3c77c834	0.015123416
63	0xbc7c149f	-0.015385776
64	0x3cca4e03	0.024695402
65	0xbd285794	-0.041099146
66	0xbda2d91b	-0.07951566
67	0xbc8ac5f3	-0.016940093
68	0xbc918d6a	-0.017767627
69	0xbc55f45e	-0.01305875
70	0x3c9c219a	0.019058991
71	0x3cfa20f0	0.030533284
72	0x3d11cdbc	0.035596594
73	0xbd3d1a29	-0.046167526
74	0x3cd271c7	0.025689019
75	0xbbdf1157	-0.006807487
76	0xbd94139b	-0.07230302
77	0x30cfbc83	1.511481e-09
78	0xbd83450c	-0.06409654
79	0xbd3a1d5c	-0.045438156
80	0xbd26dafa	-0.040736176
81	0x3daa1b8f	0.08306038
82	0xbcfb4e36	-0.030676942
83	0xbd87fed4	-0.066404015
84	0x3bd5a70b	0.006520157
85	0x3a454e37	0.00075266085
86	0x3cac7ecb	0.021056553
87	0xbd66cbc3	-0.056346666
88	0x3b86bfa5	0.0041122013
89	0xaf5717e0	-1.9562618e-10
90	0xbbd49ae2	-0.00648819
91	0xbb3e9e3f	-0.0029086021
92	0xbc6af387	-0.014340288
93	0x3d939f59	0.072081275
94	0x3db50505	0.08838848
95	0xbd65b6d8	-0.056082577
96	0x31564305	3.1179195e-09
97	0x3d8287e3	0.063735746
98	0x3c0c1908	0.00855089
99	0xbd33498e	-0.04377132
100	0xbda1f979	-0.07908911
101	0xbdac866c	-0.084240764
102	0xbcb18732	-0.021670911
103	0xbdabd28e	-0.083897695
104	0xbd8a2ac4	-0.06746438
105	0xbc60cfd8	-0.013721429
106	0xbd8c209e	-0.06842159
107	0xbc8c9d1f	-0.017164765
108	0xbd9b7290	-0.075902104
109	0xbd57a070	-0.05264324
110	0xbc2724ed	-0.010201675
111	0x3d823ad2	0.06358875
112	0x3d4978ef	0.049187597
113	0xbca671fa	-0.02031802
114	0xbd792115	-0.060822565
115	0x3b49691b	0.0030732814
116	0x3de41870	0.111374736
117	0xbdda677f	-0.106642716
118	0x3d9459eb	0.07243713
119	0x3d8633f0	0.06552875
120	0xbda758bc	-0.081712216
121	0x3c89b836	0.016811471
122	0x3c103316	0.008801242
123	0xbcfba3a0	-0.03071767
124	0xbdb2c35c	-0.08728668
125	0x3de9771f	0.11399674
126	0xbd64c7d3	-0.05585463
127	0xbce4937d	-0.02790236
128	0x3cb59bae	0.02216896
129	0xbd7b4f8b	-0.061355155
130	0xbd89f488	-0.06736094
131	0xbd4f96c8	-0.050680906
132	0xbd8a5b04	-0.06755641
133	0xbce526b6	-0.02797256
134	0x3980fe7b	0.00024603665
135	0x3c6c52e6	0.014424061
136	0x3d3b4882	0.045723446
137	0xbd4d267a	-0.050085522
138	0x3d2fe67a	0.04294441
139	0x3bc40444	0.005981954
140	0xbd81f4f2	-0.06345548
141	0x2e998d06	6.982685e-11
142	0xbd1bce43	-0.038038503
143	0xbd67d0e0	-0.056595683
144	0xbcf90b9a	-0.03040104
145	0x3d99cb90	0.075095296
146	0xbcc990a6	-0.024605107
147	0xbd9c944d	-0.07645474
148	0xba03f672	-0.00050339766
149	0x3a469a6c	0.0007576111
150	0x3c413a13	0.011793631
151	0xbdad5117	-0.08462732
152	0xb9c2a173	-0.00037122853
153	0xafe07f00	-4.0835602e-10
154	0x3a242a18	0.0006262376
155	0xbd1f8f5f	-0.03895509
156	0xbc8dad96	-0.017294686
157	0x3df68add	0.12038205
158	0x3db46962	0.08809163
159	0xbd993a5f	-0.074818365
160	0x2fc00a09	3.4931727e-10
161	0x3d850622	0.0649531
162	0x3cba83ab	0.022767862
163	0xbd3ca90e	-0.04605966
164	0xbd86a23f	-0.06573915
165	0xbd608c4e	-0.054821305
166	0xbceefe4f	-0.029173998
167	0xbdaa761d	-0.083233096
168	0xbd5a6e89	-0.05332807
169	0xbb5d9fce	-0.0033817175
170	0xbd4beb19	-0.049784753
171	0xbcb7b54a	-0.022425313
172	0xbd7f911f	-0.062394258
173	0xbd300d82	-0.042981632
174	0xbd20edf4	-0.03928943
175	0x3d84d445	0.064858
176	0x3d46bd64	0.04852046
177	0xbd58f108	-0.05296424
178	0xbd2c70f2	-0.0420999
179	0x3cd16f70	0.025565833
180	0x3d56a212	0.052400656
181	0xbdadebaf	-0.08492219
182	0x3ce85ed5	0.028365532
183	0x3d401b38	0.046900958
184	0xbd733af1	-0.059382383
185	0x3c3ea615	0.011636277
186	0xbbeb3792	-0.0071782554
187	0xbce3fa6b	-0.02782937
188	0xbd78efc0	-0.06077552
189	0x3dc7d3c0	0.09757185
190	0xbd7b196e	-0.06130355
191	0x3c140c18	0.0090360865
192	0x3c8dea81	0.017323734
193	0xbcc65d18	-0.024214312
194	0xbda4905a	-0.080353454
195	0xbd8683c4	-0.06568101
196	0xbd88f204	-0.06686786
197	0xbcb47ae0	-0.022031248
198	0xbc88eb3e	-0.016713735
199	0x3b9d4d14	0.004800448
200	0x3cab5de4	0.020918794
201	0xbd323bf0	-0.043514192
202	0x3d289e5c	0.04116665
203	0xbc529237	-0.012852243
204	0xbd708e9b	-0.05872975
205	0x301e94e7	5.769167e-10
206	0xbd28a20f	-0.041170176
207	0xbd17f68a	-0.037100352
208	0xbd0f9071	-0.03504986
209	0x3d966bd3	0.073447846
210	0xbd346a2a	-0.04404656
211	0xbd960a3d	-0.073261715
212	0xbb79fdf5	-0.0038145755
213	0xb8d780e1	-0.000102760045
214	0x3bd610ca	0.006532763
215	0xbd433acd	-0.0476635
216	0xbb0d747a	-0.0021584318
217	0xaf677386	-2.105037e-10
218	0xbc0936e1	-0.008374901
219	0xbc74219d	-0.014900592
220	0xbb551e01	-0.0032519104
221	0x3db481d8	0.08813828
222	0x3d6b70ae	0.057480507
223	0xbd92a0c8	-0.07159573
224	0xae865e2e	-6.110344e-11
225	0x3d86d9a8	0.065844834
226	0x3b934567	0.0044943574
227	0xbd8d20d9	-0.06891031
228	0xbd939f2f	-0.07208096
229	0xbdb6628b	-0.08905514
230	0xbd53d678	-0.051718205
231	0xbdc2c053	-0.09509339
232	0xbd14e88c	-0.036354586
233	0x3be1a38f	0.006885953
234	0xbd8c3a7f	-0.06847095
235	0xbb3d0e5e	-0.0028847675
236	0xbda99068	-0.082794964
237	0xbd831271	-0.06400002
238	0xbca81478	-0.020517573
239	0x3da9f3a5	0.08298425
240	0x3d3e6221	0.0464803
241	0xbd4d7c48	-0.050167352
242	0xbd89c133	-0.06726303
243	0x3c67cb6e	0.0141476225
244	0x3d849583	0.064738296
245	0xbdbd3040	-0.092377186
246	0x3cd636c0	0.026149154
247	0x3d0b576e	0.034018926
248	0xbd72b37e	-0.05925321
249	0x3bf912e8	0.0076011308
250	0xbb951785	-0.004549923
251	0xbb8b7828	-0.004256267
252	0xbd4bdba6	-0.04977002
253	0x3dc1775e	0.094465956
254	0xbd332f3c	-0.043746218
255	0x3ce6feef	0.028197734

fc3.bias f4 [16]
0	0xb7435de2	-1.16447645e-05
1	0xb795ec48	-1.7872211e-05
2	0x355c4c60	8.2067527e-07
3	0xb59156b2	-1.0828574e-06
4	0xb8248858	-3.9227627e-05
5	0x3795f888	1.7877916e-05
6	0xb7f95e5f	-2.9727058e-05
7	0xb769cc2a	-1.3935418e-05
8	0xb7b0cfb0	-2.1077547e-05
9	0xb816062b	-3.576853e-05
10	0x3822954f	3.8762864e-05
11	0x35b6ef7c	1.3629756e-06
12	0xb7a41df8	-1.9564279e-05
13	0xb809b6e3	-3.2833672e-05
14	0x36cbc43c	6.072716e-06
15	0x388e65f6	6.790079e-05

bn3.weight f4 [16]
0	0x3f83f06f	1.030775
1	0x3f6abf08	0.9169774
2	0x3f589d1f	0.8461475
3	0x3f5997cd	0.84997255
4	0x3f824b53	1.0179237
5	0x3f6027d8	0.87560797
6	0x3f5fad24	0.87373567
7	0x3f89f040	1.0776443
8	0x3f7d4e41	0.9894753
9	0x3f829d67	1.0204285
10	0x3f86d849	1.0534755
11	0x3f7bdedf	0.9838695
12	0x3f88a04e	1.0673921
13	0x3f871428	1.0553026
14	0x3f6d6f68	0.9274812
15	0x3f92c022	1.1464884

bn3.bias f4 [16]
0	0x3ed93a5a	0.4242733
1	0x3e9b93ee	0.303863
2	0x3ebb283e	0.3655414
3	0x3eb4eab5	0.35335317
4	0x3eca4449	0.39505222
5	0x3ea8209b	0.32837376
6	0x3eb43e32	0.352037
7	0x3eacd46e	0.3375582
8	0x3e7cf292	0.24701908
9	0x3ecdded1	0.40209058
10	0x3e862f50	0.26207972
11	0x3e7a30f9	0.24432744
12	0x3eb7793b	0.3583468
13	0x3eb53bd2	0.35397202
14	0x3e954ded	0.29161015
15	0x3e89c37c	0.26906955

bn3.running_mean f4 [16]
0	0xbd0269e9	-0.031839285
1	0xbd9d20d0	-0.07672274
2	0xbdb051d0	-0.086093545
3	0xbde7bf31	-0.11315764
4	0xbbfa1fb1	-0.0076331724
5	0xbda046d6	-0.07826011
6	0xbd9912b1	-0.07474268
7	0xbd1c95c6	-0.038228773
8	0xbd05d255	-0.03267129
9	0xbca7d28c	-0.020486139
10	0xbd99af0a	-0.07504089
11	0x3b717760	0.0036844835
12	0xbc6a9dbc	-0.014319833
13	0xbd0e6e46	-0.034773134
14	0xbdb7f6e0	-0.089826345
15	0x3cee5b9a	0.029096413

bn3.running_var f4 [16]
0	0x3e24de9f	0.16100548
1	0x3e120ed7	0.14263473
2	0x3e051810	0.1299746
3	0x3e0040d9	0.12524737
4	0x3e15626c	0.14588326
5	0x3e077e0f	0.13231681
6	0x3e0980c9	0.13428034
7	0x3e0a5d1c	0.13512081
8	0x3db90d0b	0.09035691
9	0x3e095a90	0.13413453
10	0x3d9841b2	0.074344054
11	0x3df1234c	0.117743105
12	0x3e15fbd8	0.14646852
13	0x3e0fe83c	0.14053434
14	0x3e13d006	0.14434823
15	0x3dab43f4	0.083625704

fc4.weight f4 [1, 16]
0	0x3f317316	0.6931623
1	0xbf2a3b92	-0.6649715
2	0xbf14eaf8	-0.58171034
3	0xbf17d45f	-0.5930843
4	0x3f2f75ef	0.6853933
5	0xbf1dbc7f	-0.6161575
6	0xbf1903bd	-0.5977133
7	0x3f49b24d	0.7878769
8	0xbf3bacb5	-0.73310405
9	0x3f2d2d49	0.67647225
10	0xbf4754b8	-0.77863646
11	0xbf36e726	-0.71446455
12	0x3f42d4db	0.7610604
13	0x3f45400f	0.7705087
14	0xbf2e9223	-0.68191737
15	0x3f5ce185	0.86281615
