model_odd_even_trained.pth (torch, 54310 bytes, 19 tensors)

fc1.weight f4 [128, 11]
00000000: ce6d 863e 6d20 5c3e 6ea3 2c3e 92e9 0f3e
00000010: a7b0 89be 36e2 46be 6934 743e 4f86 8f3e
00000020: a986 403d fbe9 1d3e 42f7 383d b9ef a8bd
00000030: 081c 103e ab98 edbd 46f9 8bbe c439 503e
00000040: 0ac4 273e f17e c6bd ed11 133e db09 17bb
00000050: 8f4e f7bc 360f 233e c46d c83c 2e64 1dbe
00000060: d591 8a3e eb3b 49be 12cb 1fbd 218d 00be
00000070: 7092 2d3e 5a94 e1bd abfa 51bc 76b7 9dbd
00000080: b0e2 803c f837 e13d c230 54be e339 9b3d
00000090: 687c 86be a300 083e 4cbb 813e a562 5b3e
000000a0: 88d9 983d 3eb7 2c3e eae4 1ebe a21b cebd
000000b0: 9174 793e 9c23 c23d 6cc9 e6bd 36ac 7d3e
000000c0: 4abe 0dbe 43e8 b8bd 3348 913e 87bc 1ebe
000000d0: 9a4e 42be f397 8e3e 1159 b13d d63f f3bd
000000e0: 6bac f3bd a0f4 e9bd e22f 45be 8607 043e
000000f0: 89ff 613e 3001 913d 47bc 04be 30e1 b93c
00000100: b2f8 53be 964d 6e3d cb20 5ebe a966 9ebd
00000110: a10f 2a3b df9c 72be 6a8a 663e d5a7 153b
00000120: 7e1c 2c3d 508e e8bd bca7 87be bda5 c8bc
00000130: e931 033e 8800 83be 2e01 a7bd 412c 3a3c
00000140: 4cd2 d4bd ea82 70bb fcb8 49be ca1d f53d
00000150: 94dc 6fbe 4ed0 d33c a50a 143e d985 79be
00000160: f00f cb3d 89aa 45be b71a 243e ad27 813e
00000170: c2aa cebd 3045 04be c68d 803e aa1d 8ebd
00000180: 4245 8ebe 5d94 103e e0eb b43d 6146 bf3b
00000190: be44 d6bc 794d 303b 0bbe bd3d 8574 84be
000001a0: b6c8 0bbe 8019 e0bc a8e3 44bd c6d8 7abe
000001b0: ee88 32bd aac5 7dbe a2b8 e9bd c38b 013d
000001c0: fd13 84bc 0524 75be ef10 723e 519f 50be
000001d0: 52a1 83be d5b7 5cbe da35 84be 551a 773d
000001e0: 0801 2fbe cacc 3bbe dab7 e13c c306 2ebe
000001f0: 31fd 633e 322b 08be 11e6 14be 6852 083d
00000200: 674f f6bd cf4d 27be 98dc 403e a92d 403e
00000210: dc9a 8b3e cb50 0cbb 1802 403e 6565 423e
00000220: fec2 88be 993f 34be 0dff afbd 41b5 3c3e
00000230: 6b57 693e 736b 87bd 3a62 413e 38dd 86be
00000240: 0147 39be 427a 0d3d 6022 b2bd da16 ed3d
00000250: 8975 fd3d be7d 95ba a81e bb3d 6c08 94be
00000260: 0766 d9bd fb72 85be 1832 f8bc 7f70 f83d
00000270: 96ea 2bbe 0237 c13d 605b 2ebe 3d02 683d
00000280: 23c4 50be 17c4 763c 6921 55bd f0c0 09be
00000290: 69d3 48bd c327 88be 2bb0 483d 7317 113e
000002a0: 8183 da3c 64b5 52be 0d31 92be d81c edbd
000002b0: c887 31be 41d2 98be 3964 163e e8b8 cf3d
000002c0: 998a ad3d 5232 063e 3cfa 2b3e 40d9 6cbe
000002d0: b147 473d 366a 7e3e b6dd 33be d77e 9abe
000002e0: 4f37 61be 213d 79be 0157 ccbd 8251 0dbc
000002f0: 444c 98be 47c4 4f3e 7271 d33d dda7 49be
00000300: 1d51 3fbd f2c1 5bbe cae8 06be ec82 f93d
00000310: ac08 edbd e593 1b3e ea7c 883e f28c 55be
00000320: d5c8 0a3d e146 8c3e 5207 60be 9ec7 3abe
00000330: eb52 57bc 7f1e 363e 946b 7dbe 545b 37be
00000340: bee9 8b3e 51ee c03d 8da3 00be 132b 0ebe
00000350: d6a7 18be 5221 40bd 2ad2 e4bc 30f8 67be
00000360: 5001 863d 44a6 323b 1278 36be 8339 3dbe
00000370: 9d4a ec3d b32f 22be 1fed e0bd 8506 acbd
00000380: 51f2 7f3e 8cca 83bd 7175 8a3e 5253 823e
00000390: 1695 683e a833 80be 7055 163e 3863 cebd
000003a0: 67f7 303e 36d8 233e e4f1 4e3d 1eae 83be
000003b0: ab5e 393e 209f 95be dbb5 77be c4c9 07be
000003c0: afb0 febd fc4c 8b3d e11e 983e edb6 6a3e
000003d0: 9853 cdbd bab4 8fbd f70a e33d 6c56 68be
000003e0: 28e4 803e c73c 593e fa4a 21be 1ba9 81bd
000003f0: d34f 5b3e b89e 73bc 6960 363e a7dc 21bd
0.2625565 0.21496744 0.16859218 0.14053944 -0.26892588 -0.1942223 0.23848118 0.28032157
0.047003422 0.15421288 0.04515768 -0.082488485 0.14073193 -0.11601385 -0.27338618 0.20334536
0.16383377 -0.09692181 0.14362307 -0.0023046646 -0.030188827 0.15923771 0.024466403 -0.15370247
0.27064386 -0.19651763 -0.039012022 -0.12553836 0.16950393 -0.11014624 -0.012816112 -0.07701008
0.015733093 0.10997003 -0.20721725 0.075794004 -0.2626679 0.13281493 0.2533821 0.21424349
0.07463366 0.16866776 -0.15517011 -0.10063864 0.24360873 0.09479448 -0.11268887 0.24772725
-0.13842121 -0.090286754 0.28375396 -0.15501605 -0.18975297 0.27850303 0.08659566 -0.1187741
-0.118981205 -0.11423612 -0.19256547 0.12893495 0.22070135 0.070803046 -0.12962447 0.022690386
-0.20700338 0.05817946 -0.21692197 -0.077344246 0.0025949257 -0.23692654 0.22513738 0.0022835631
0.04201936 -0.11355269 -0.2649516 -0.024493093 0.12812008 -0.25586343 -0.08154522 0.01136309
-0.103916734 -0.0036699125 -0.19699472 0.119685724 -0.23423988 0.025856163 0.14457186 -0.24367465
0.09915149 -0.19303335 0.16025816 0.25225583 -0.10091163 -0.12917018 0.25108165 -0.06939252
-0.27787215 0.14119096 0.08834052 0.0058372472 -0.026155826 0.0026901646 0.092647634 -0.25870147
-0.13650784 -0.02735591 -0.048068672 -0.24496755 -0.043587618 -0.24782434 -0.11412169 0.031627428
-0.016122812 -0.23939522 0.23639272 -0.20373274 -0.25709015 -0.21554501 -0.25822335 0.060327847
-0.17090237 -0.1833984 0.027553488 -0.16994767 0.22264554 -0.13297728 -0.14540888 0.033281714
-0.120268635 -0.16338275 0.1883415 0.18767418 0.27266586 -0.002141046 0.18750799 0.18983991
-0.26711267 -0.17602386 -0.08593569 0.18428518 0.22787254 -0.06612291 0.18885127 -0.26340652
-0.18093492 0.034540422 -0.08697963 0.11576624 0.12375934 -0.0011405272 0.091367066 -0.28912675
-0.10615163 -0.26064286 -0.030297324 0.12130832 -0.16788706 0.0943432 -0.17027044 0.05664276
-0.2038732 0.0150614 -0.052033816 -0.13452506 -0.04902974 -0.26592836 0.048996132 0.14169101
0.026674034 -0.20577008 -0.28553048 -0.11577767 -0.17336953 -0.2984791 0.1468667 0.1014269
0.08473701 0.13105133 0.16794676 -0.2312975 0.048652355 0.24845204 -0.17565045 -0.30174896
-0.21993755 -0.24339725 -0.09977532 -0.00862539 -0.29745686 0.20289718 0.10324372 -0.19692941
-0.046708215 -0.21460703 -0.1317474 0.121831745 -0.1157392 0.15193136 0.26657802 -0.20854548
0.033882935 0.27397826 -0.21877792 -0.1824021 -0.013142328 0.17785071 -0.24748069 -0.17905933
0.2732677 0.09420455 -0.1256239 -0.13883619 -0.14907774 -0.046906777 -0.027932245 -0.2265327
0.06543219 0.0027259747 -0.1781924 -0.1847897 0.11537669 -0.15838508 -0.10982727 -0.08399681
0.2499478 -0.06435117 0.27042726 0.25454193 0.22713122 -0.2503941 0.1468103 -0.10077518
0.17281877 0.16000447 0.050523654 -0.25718778 0.18102519 -0.29222965 -0.24190466 -0.13260561
-0.124360435 0.06801793 0.2971106 0.22921343 -0.1002571 -0.07016893 0.11086076 -0.22689217
0.2517407 0.21214591 -0.15751258 -0.063310824 0.2141717 -0.0148693845 0.17810215 -0.03951707

fc1.bias f4 [128]
00000000: ccdd 16be 8d68 2437 7f6f 88be 3c3c 263d
00000010: c1f9 80be ba35 12be e946 943d 2c98 883e
00000020: 2653 6b3c cfa1 5bbe 4085 8abe 1115 f4bd
00000030: e1b5 ee3d 5b7e 15bd f6fe fb3d cb48 79bd
00000040: 71ed 91bc fcc7 123e 8856 db3b 1840 8d3e
00000050: 4bdb 0c3e 054e 563e 5eff 8b3e f747 363e
00000060: 0e52 5fbe 77cd 323c 8412 e53d 1437 0bbe
00000070: 3cac 1fbe 42bf 1abe d1bd 493e 5c29 7bbe
00000080: 51d3 0cbd 0a66 13be 8f31 773e d612 00bd
00000090: ee34 88be fef4 6ebc ca6d 793e 3839 5bbd
000000a0: 1b9c 72bd eedf 143d 5a12 5fbe 4c31 873e
000000b0: 88ef 36be 2a1c e0bc d0f0 893e e3ec a9bd
000000c0: 5bc6 89be da29 18be ebb9 0bbe 2993 35be
000000d0: 29e8 2e3e eb16 80be fad3 67be cd30 34be
000000e0: a2a0 3d3e 26c7 693e ca9d 27bd c66e f23d
000000f0: e746 18be c670 33bc 41ac 143e caad 873e
00000100: a6c4 f93c 3fbd 293d 24c5 2e3e 891e 983d
00000110: 0763 733e 620f 68be bd8c 813d 07f8 743e
00000120: 635d 95bd 2367 38be efec 9c3d f65a d3bc
00000130: c792 4b3d d978 813e 7e9d 123d 3d6b 8abd
00000140: 2b86 debc 591b 743e dd71 4cbe b2ff c03d
00000150: f650 2cbe 9d46 733c ff52 f1bb b2b4 f4bd
00000160: 7769 5f3e b16d 863b c36e 433d 53a3 7ebe
00000170: 4d9d f5bd c290 583e 33a2 0ebe 2365 9d3d
00000180: c053 a2bd 44cd 72be 99f7 823e 6b33 5e3e
00000190: b3d0 513e c997 8f3e 815b a5bd 4dd9 e637
000001a0: d0b3 80bd 0861 793e 5efb 8d3e 9186 fa3c
000001b0: 5270 edbc b6ab 66be 4d71 44bb 53ed 363e
000001c0: cf30 3d3e 767e 88be be05 073d fa51 3abd
000001d0: c2a2 0cbe f163 55be f1a0 b5b6 a741 9338
000001e0: c85a 9ebd adcd 8f3d e545 d03c a027 01be
000001f0: dd06 bebd 25a6 683e 0438 5e3c 3db0 753e
-0.14733046 9.799504e-06 -0.26647565 0.040584788 -0.25190547 -0.14278308 0.072400875 0.26678598
0.014363086 -0.21448444 -0.27054787 -0.119180806 0.116557844 -0.036497455 0.12304489 -0.060860436
-0.017813416 0.143341 0.006693665 0.27587962 0.13755529 0.209282 0.27343267 0.1780089
-0.21808645 0.010913244 0.11185172 -0.1359523 -0.15593046 -0.15112022 0.19701315 -0.24527496
-0.034381215 -0.14394394 0.24139999 -0.031267963 -0.26602882 -0.014584778 0.24358287 -0.053521365
-0.059230905 0.03634637 -0.21784344 0.26404798 -0.17864811 -0.02735718 0.26941538 -0.08297136
-0.26909146 -0.14859715 -0.13645141 -0.17731918 0.1708075 -0.25017485 -0.22639456 -0.17596741
0.18518308 0.22829875 -0.040921964 0.118375346 -0.14870797 -0.01095218 0.14518835 0.26499778
0.030489277 0.041440245 0.1706739 0.07427699 0.23768245 -0.22662118 0.06325672 0.2392274
-0.07293203 -0.18008094 0.07662379 -0.02580021 0.049700525 0.25287512 0.035794728 -0.06758735
-0.027163586 0.23838557 -0.1996531 0.0942377 -0.16827759 0.0148483785 -0.0073646302 -0.119485274
0.21817575 0.0041024317 0.047713052 -0.24866991 -0.11992893 0.2114897 -0.13929062 0.07685306
-0.0792613 -0.23711115 0.25579527 0.21699302 0.20489769 0.2804549 -0.080740936 2.7519325e-05
-0.062842965 0.2435342 0.2773084 0.030581744 -0.028984223 -0.2252644 -0.002997476 0.1786397
0.1847565 -0.26658982 0.03296446 -0.045488335 -0.13733962 -0.20838906 -5.4129564e-06 7.021735e-05
-0.07732159 0.070216514 0.025423953 -0.12612772 -0.09278653 0.22719629 0.01356316 0.23993011

bn1.weight f4 [128]
00000000: 0bc3 7d3f 429f 7e3f 1306 803f 679f 7d3f
00000010: 1d0f 7f3f c1e8 7f3f 3fcd 7f3f 4fbe 7d3f
00000020: 6e70 7d3f 26cf 7c3f 68ba 7f3f dcb1 7e3f
00000030: b49b 803f bdd4 7e3f c1fd 7d3f 762c 7e3f
00000040: 3bd2 7e3f 32fe 803f 5758 7e3f 532c 803f
00000050: 9596 7e3f 7f3f 7f3f 61f3 7e3f 145c 7e3f
00000060: e813 7e3f 4512 7f3f a756 7d3f 31f2 7d3f
00000070: 1859 7f3f 4cae 7e3f 5d38 7f3f f329 7e3f
00000080: 2aca 7d3f 6b69 7f3f 41f6 7e3f db0c 7d3f
00000090: bfce 7e3f 45d3 7f3f 1005 7f3f a270 7e3f
000000a0: c5a5 803f 21ea 7d3f 1677 7e3f 613a 803f
000000b0: ad11 7f3f a2c2 803f 1d6c 7e3f ad7d 7f3f
000000c0: c828 7e3f 280e 803f cd5e 7f3f 608d 7f3f
000000d0: c7c1 7e3f e26c 803f fe1e 803f dc56 7e3f
000000e0: 72c1 7f3f c5d2 7d3f de4c 7f3f bb06 7e3f
000000f0: 5d9e 7f3f b048 803f 49d9 7d3f 43aa 7d3f
00000100: 98fb 7f3f 01e2 7e3f bb6b 803f af83 7e3f
00000110: 5ae4 7e3f b883 803f e4b6 7f3f 0a48 7f3f
00000120: c543 803f 3997 7f3f 89b2 7f3f 7162 7e3f
00000130: 1772 7e3f d6a6 7f3f 7835 7e3f 5604 7f3f
00000140: e2a6 7f3f a849 803f 7a9b 7f3f d320 803f
00000150: 4308 803f 8016 803f 8d08 803f 58b3 7d3f
00000160: c55e 7e3f e40f 803f 0e81 7f3f 8343 803f
00000170: 9057 7e3f 4328 7f3f be48 803f 9d26 803f
00000180: aa63 7f3f e2ec 7e3f 66b4 7e3f 9ead 7e3f
00000190: 0be9 7e3f 2631 803f 3e78 803f 5dc6 7e3f
000001a0: 5fca 803f 0bf1 7d3f 992f 7f3f e6f2 7d3f
000001b0: 8b8a 7d3f 9eb8 7e3f 25a4 7e3f 2da9 7e3f
000001c0: a49c 7f3f 21ef 7f3f d890 803f 4f3d 7f3f
000001d0: 4c3b 813f 0df0 7e3f 7d2f 7e3f 3f4d 803f
000001e0: ad70 803f 40b9 7e3f d33c 7e3f 85eb 7f3f
000001f0: 21ab 7f3f 621f 7f3f 6fdb 7e3f e398 7e3f
0.99125737 0.9946176 1.0001854 0.99071354 0.99632436 0.9996453 0.99922556 0.9911851
0.9899968 0.98753583 0.9989381 0.9949014 1.0047517 0.9954336 0.9921532 0.9928659
0.99539536 1.0077574 0.99353546 1.0013527 0.9944852 0.9970626 0.99590117 0.9935925
0.99249125 0.9963725 0.98960346 0.9919768 0.9974532 0.99484706 0.9969538 0.9928276
0.991366 0.9977023 0.99594504 0.9884774 0.9953422 0.99931747 0.996171 0.99390614
1.0050589 0.9918538 0.9940046 1.0017816 0.99636346 1.0059397 0.9938372 0.9980114
0.9928098 1.000432 0.9975403 0.99825096 0.9951443 1.0033228 1.0009458 0.99351287
0.9990455 0.99149734 0.99726665 0.9922902 0.9985102 1.0022182 0.99159676 0.99087924
0.99993277 0.99563605 1.0032877 0.99419683 0.99567187 1.0040197 0.99888444 0.997193
1.0020682 0.9984012 0.998818 0.9936896 0.9939284 0.99863946 0.99300337 0.9961599
0.9986402 1.0022478 0.99846613 1.0010017 1.0002521 1.0006866 1.000261 0.9910178
0.99363357 1.000485 0.99806297 1.0020603 0.9935236 0.9967081 1.0022199 1.0011784
0.9976145 0.99580204 0.99494016 0.9948367 0.99574345 1.0014999 1.0036695 0.9952143
1.0061759 0.9919593 0.99682003 0.9919876 0.99039525 0.99500453 0.99469215 0.9947689
0.9984839 0.99974257 1.0044203 0.99702924 1.0096221 0.9958504 0.9929121 1.0023574
1.0034386 0.9950142 0.9931156 0.9996875 0.99870497 0.9965726 0.9955358 0.99452037

bn1.bias f4 [128]
00000000: dbb4 90bb 9130 983b 8a0e 0d3b 0999 62ba
00000010: 87e8 2cba 5d76 9b3b ec88 8f3b 9a15 6ebb
00000020: bebf 92bb ae0e 53bc 1088 6ebb 239b b23b
00000030: 8f51 f73b a6ea f33b a046 da39 c54b 97bb
00000040: 458b ba3a eb42 083c 32ae 04ba d481 703b
00000050: c77f a7bb 50dd e23b af36 85bb b438 32ba
00000060: b5c0 a8bb e9ff 7a3b 911c 8739 23b1 ddbb
00000070: 4d4a a43a 17f8 fcba bd64 e53b cad4 dfb9
00000080: fba6 98bb af43 20bb 8d37 52ba 3418 18bc
00000090: b55f c7ba 379f 3a3b 1385 f53a 7f47 00bb
000000a0: 071d f93b 73ab 1c3b c253 fdbb be44 f63b
000000b0: cf84 eaba 2ef0 913b eb05 103a 4aee 093a
000000c0: d588 e0bb 7dbf efb2 01e3 a2b9 24ef a33b
000000d0: bb39 473b 15d5 313c ced9 18bb 7036 29bb
000000e0: 0955 47bb ce79 c2bb 9636 6b3b 6973 8cba
000000f0: eab3 a1bb 99a3 a23b 5971 30bb 021f 1dbc
00000100: fe5d 2fbb 5dc9 863a 5898 eb3b 8e8b 9cba
00000110: b4e7 e5b9 34b6 a83a befe 543b 01e9 1bbb
00000120: 0be4 383b 3b51 ff3b 576e dc3b d9e7 64bb
00000130: 4981 363b e54c 05bc 6ddb 9fbb 1bcd 2fbc
00000140: 50f6 043a f7a9 bb3b 7d01 893b 1c87 6f3b
00000150: f572 8a38 b506 ef3b e4f3 03bb ea55 b4bb
00000160: 1b5c f2bb b81b 713b 9314 2cba 0f93 fc3b
00000170: 5df7 14ba 240a c73b 1924 dd3b 1e38 953b
00000180: 89ca ddbb 4a1a 7cbb 7f7c ddba d19c 06ba
00000190: ae8f 6138 a487 733b da66 173b b3ac 2cbb
000001a0: 377b 2b3c b0d9 38bc 0563 36bb 89ea 39bb
000001b0: 21b2 6fbb e076 1bbb 7fda 8fbb 42d1 873a
000001c0: ba03 be3b f5c8 2db9 cc0d 013c 7455 87bb
000001d0: 0f06 bb3b ede4 63bb 7157 02bb 1865 2d3c
000001e0: 03dc 883b 66b3 a43a afc3 f53a 193d 883b
000001f0: c4ba 643b ae9c 363b f627 feba 45a8 c1ba
-0.004416091 0.0046444614 0.0021523559 -0.000864402 -0.00065959286 0.0047443346 0.004380336 -0.0036328794
-0.004478424 -0.012881918 -0.0036397018 0.0054506226 0.0075475643 0.0074437438 0.0004163282 -0.0046171867
0.0014232179 0.008316736 -0.00050613575 0.0036698477 -0.005111668 0.006923355 -0.0040653567 -0.00067986106
-0.0051499256 0.0038299507 0.0002577049 -0.006765501 0.001253435 -0.0019300011 0.0070005343 -0.00042692415
-0.0046585775 -0.0024454405 -0.0008019142 -0.009283114 -0.0015211018 0.0028476247 0.0018731676 -0.0019573865
0.0076023373 0.0023905903 -0.007730932 0.007515519 -0.0017892363 0.0044536805 0.0005494046 0.0005261643
-0.006852249 -2.791034e-08 -0.0003106818 0.005002873 0.00303994 0.010854025 -0.002332318 -0.00258198
-0.0030415675 -0.0059349304 0.003589069 -0.0010715547 -0.0049347775 0.00496335 -0.002692303 -0.009589912
-0.0026758905 0.00102834 0.0071897916 -0.0011943446 -0.00043850916 0.0012871684 0.003250047 -0.0023790004
0.0028212096 0.007791666 0.0067270207 -0.003492823 0.0027848056 -0.008136009 -0.0048784525 -0.010730053
0.0005072104 0.0057270485 0.0041810856 0.0036549037 6.601765e-05 0.0072945007 -0.0020134384 -0.005503406
-0.0073962337 0.0036790203 -0.0006564345 0.0077079604 -0.0005682612 0.006074207 0.006748688 0.004553809
-0.006768529 -0.0038467818 -0.0016898065 -0.0005135062 5.3777992e-05 0.0037159706 0.0023102076 -0.0026348054
0.010466388 -0.0112823695 -0.0027830016 -0.0028368554 -0.003657468 -0.0023721978 -0.0043900604 0.0010362046
0.005798784 -0.00016573428 0.007876825 -0.00413006 0.0057075094 -0.0034773902 -0.0019888545 0.010583185
0.004176618 0.0012565672 0.0018750335 0.004157674 0.003490136 0.0027864384 -0.0019390571 -0.001477488

bn1.running_mean f4 [128]
00000000: 229d 14be ca6b 94bb f1b9 86be 14af 563d
00000010: 4d39 71be 8398 10be 6b76 8e3d 0222 883e
00000020: 0833 de3c 85f2 6dbe 4f9c 91be b2c7 f6bd
00000030: ca1a ee3d fe11 4bbd ea0f d83d 43eb 97bd
00000040: 6cf8 afbc c21b 153e 9e9f 69bb 6651 833e
00000050: c3a4 0e3e 34d6 4e3e 1885 883e cb11 403e
00000060: 463f 68be 9f25 893c 9306 e13d 0738 1dbe
00000070: ce4d 23be 663f 13be 067d 4b3e a837 7ebe
00000080: c017 7ebb 913d 23be 9769 773e a2f4 18bd
00000090: 6729 95be 702c 87bb b185 6d3e 9f01 37bd
000000a0: ac8c 69bd 8cd2 1e3d 9c24 4cbe ccd0 813e
000000b0: 18cd 29be d962 dbbc 6ce1 813e 973e 8fbd
000000c0: e69e 8cbe ac64 12be a4f0 d4bd 74ad 31be
000000d0: 59c2 343e 9525 6dbe 0d8a 5cbe 751a 39be
000000e0: 1a6e 3f3e e101 573e d107 b9bc f7f6 153e
000000f0: cb4b 13be 0ad2 2f3b b2f8 123e ef11 873e
00000100: 2f37 103d 0a75 e53c 9eeb 273e 16dc 893d
00000110: 54f4 703e e095 63be ea99 803d 46a8 803e
00000120: eb75 45bd 3a10 42be a4b9 9d3d a254 44bc
00000130: f867 913d 3b92 8a3e 4224 173d 8987 52bd
00000140: c6fa f2bc 2ca1 7f3e 8ed9 57be e053 963d
00000150: 033b 23be 1e52 ddbb b8d1 68bc 4d6c 01be
00000160: e127 6f3e bbef 203c 1b89 793d cd52 79be
00000170: 37ad debd 8eb4 533e 3a71 22be 1d89 a53d
00000180: ffbe c4bd bb20 61be bbcc 903e 9ff4 813e
00000190: 8c0a 643e 1db3 8a3e 5059 a0bd 5801 23bb
000001a0: 7d31 80bd f5a3 6d3e 2dfb 843e f488 313d
000001b0: 013c 50bd 14f9 58be 0fbe b5bb 56ed 3c3e
000001c0: 6261 283e 192d 83be a4bc c33c 42cc 32bd
000001d0: 9061 00be aece 53be 2eb2 73bb 30ae 76bc
000001e0: 6377 abbd c9e5 d33d 948c 873c eb1a edbd
000001f0: 7807 bdbd b646 803e 7581 893c 0463 813e
-0.14513066 -0.004529451 -0.26313737 0.05241306 -0.23557015 -0.14120679 0.0695618 0.26588446
0.027123943 -0.23237045 -0.28439566 -0.120498076 0.11626203 -0.049577706 0.1054991 -0.074179195
-0.021480761 0.1456137 -0.0035648118 0.2564804 0.13930039 0.201989 0.26664042 0.18756787
-0.22680387 0.016741572 0.10987582 -0.15353404 -0.15947649 -0.14379653 0.19871911 -0.24825919
-0.003877148 -0.15941454 0.24161373 -0.037342675 -0.2913315 -0.0041251704 0.2319553 -0.04467928
-0.05701892 0.038775012 -0.1993584 0.25354612 -0.16582143 -0.026780533 0.25367296 -0.0699436
-0.2746498 -0.14296216 -0.10397461 -0.17351323 0.17652263 -0.23158868 -0.21537037 -0.18076499
0.18694344 0.2099681 -0.022586735 0.14644991 -0.14384381 0.0026828074 0.14352682 0.2638087
0.035208877 0.02800991 0.16398475 0.06731431 0.23530704 -0.22225142 0.06279357 0.25128382
-0.04820816 -0.18951502 0.07701424 -0.011983069 0.070999086 0.2706469 0.036899813 -0.051398788
-0.029660594 0.24963826 -0.21079084 0.07340217 -0.1594048 -0.006754174 -0.014210157 -0.1263897
0.23355056 0.009822781 0.06092177 -0.24347992 -0.10872882 0.20674345 -0.15863505 0.08082793
-0.09606742 -0.21985142 0.28281197 0.25381944 0.22269648 0.27089778 -0.07829535 -0.0024872627
-0.06259439 0.23207076 0.25972882 0.0433435 -0.050838474 -0.21188766 -0.0055463384 0.18449911
0.16443399 -0.25620344 0.023893662 -0.043651827 -0.12537217 -0.20684311 -0.003718506 -0.015056178
-0.083723806 0.103465624 0.016546525 -0.115774 -0.0922994 0.25053948 0.016785363 0.25270855

bn1.running_var f4 [128]
00000000: 7465 da3e 3fed c03e e2ba 963e d76c 8c3e
00000010: ec1b af3e 334c a13e 691c ce3e 1534 d13e
00000020: 97cd ac3e 0315 c73e 4ab8 aa3e 84bd c43d
00000030: 4951 af3e ae29 af3e 07f2 313e 9c6e 043f
00000040: e128 833e 0da6 563e a4ca 393e 0899 493e
00000050: 90d6 c03e b132 913e 2c00 a43e 8b20 c13e
00000060: 43b3 0c3f 60cd 5c3e 7880 8b3e 3386 363e
00000070: f7ea 5c3e 56fd b13e ead1 e33e b3fc 903e
00000080: a298 023f 57e6 883e 3aad 963d 95ee 823e
00000090: 4b97 883e 922c 7d3e 1dae 333f b572 003e
000000a0: d0bb 9d3d a077 853e 1a4e 143f 862d 753e
000000b0: 5905 0a3e 2d4e 623e 7e55 233f 5b5d 213f
000000c0: 689c b43e b4e0 773e 463c ec3e 6b5d 653d
000000d0: a14f 963e 51a4 cb3e 3c34 973e 413c 723e
000000e0: 753b 0a3f db49 3a3e c325 223f b2fc 063f
000000f0: c75a 343e 18a6 ba3e 7f11 0a3f 60ce 8d3e
00000100: 05ca 753e f562 653e 4d32 7a3e de46 903e
00000110: 011d af3e 24b5 413e 9897 a93e 5099 bd3e
00000120: 0ef8 0b3f ccdc 033f eee7 8c3e c326 ac3e
00000130: af97 bf3e f8ba ee3e d4a7 3a3e 3476 293e
00000140: c0ba 083f 2964 c73e 2939 e63e d203 7b3e
00000150: eee4 bc3e 68eb 0e3f bdd0 023f d28e 6e3e
00000160: 9454 ae3e 89a1 7e3e a8b2 973e 41f7 8b3e
00000170: 0f7d 113e f0a2 2c3e 0963 0a3f 6873 573e
00000180: 180d f93e beaf c63e fd09 b43e b409 fe3e
00000190: ee96 c63e 8c0b 4e3e 7e30 6a3e a2ef d83e
000001a0: 8495 cd3e 5895 393e 324c eb3e 836f db3e
000001b0: 8680 8a3e 5607 393f 4c95 063e 774a 713e
000001c0: c4e5 b43e 6d24 823e 1abf ca3e 6d8e cc3e
000001d0: 7bd5 ba3e 42dc 533e aedd 8a3e 0d6f 383f
000001e0: 1f14 083e 20ea 323f 0b02 893e 18b5 ae3d
000001f0: 9651 6a3e aa9f ad3e 6e94 7f3e e132 203e
0.42655528 0.37681004 0.29439455 0.27426788 0.3420099 0.31503448 0.4025605 0.40860048
0.33750603 0.38883218 0.33343726 0.0960646 0.34241703 0.34211487 0.17377482 0.51731277
0.25617126 0.20961781 0.18143708 0.19687283 0.37663698 0.28358987 0.3203138 0.3772014
0.5496103 0.2156272 0.2724645 0.1782463 0.21574007 0.34763592 0.4449609 0.28317794
0.5101415 0.26738235 0.07357259 0.2557265 0.26677927 0.24724033 0.7018755 0.12543757
0.07701838 0.2606783 0.57931674 0.23943147 0.13478602 0.22100134 0.63802326 0.63033074
0.35275578 0.24206811 0.46139735 0.055997293 0.29357627 0.397738 0.2953204 0.23655798
0.53996974 0.18192236 0.6333887 0.5272933 0.17612754 0.36454844 0.53932947 0.27696514
0.24002846 0.2240103 0.2443325 0.28179067 0.34201816 0.18916756 0.3312347 0.3703103
0.54675376 0.51508784 0.27520698 0.33623323 0.37420413 0.4662702 0.18228084 0.16548997
0.5340996 0.38943604 0.44965485 0.24513176 0.3689341 0.5582795 0.5109976 0.23296669
0.34048903 0.24866308 0.2962849 0.27337077 0.14207862 0.1685903 0.54057366 0.21040118
0.48642802 0.38805956 0.3516387 0.49616778 0.38787025 0.20121592 0.22870061 0.42370325
0.40153134 0.18123376 0.4595657 0.42858514 0.2705118 0.7227682 0.1314289 0.23563562
0.35331547 0.25418416 0.39598924 0.39952412 0.36490998 0.2068949 0.27122253 0.7204445
0.13288926 0.69888496 0.2675937 0.08530635 0.22882685 0.33910877 0.24958965 0.15644409

fc2.weight f4 [64, 128]
00000000: 509c 26bc e087 6c3d 89ef 94bc 9c13 9ebc
00000010: aad6 863d 39b7 653d f58b f63c 3b2e 0a3d
00000020: d100 ea3b b066 aa3c 50d8 9a3c 29e0 9d3d
00000030: cab7 0c3d 054e 67bd b080 523d a116 a7bd
00000040: 881f 413d f751 543c 620f 273d 975e 3bbd
00000050: 28a9 85bd b0f6 cd3c af5d 6bba e97a 1bbd
00000060: 4194 9dbd 6e95 9b3c b322 ab3d b94f 90bd
00000070: dca0 8fbd 4ee7 f7bc addd e6bc 4faf 833d
00000080: dce2 013d 87a3 9d3d 09f4 3b3c 0790 213d
00000090: 0426 123d 652a 883c d8ee 083c a486 a73d
000000a0: 57bf c739 3b54 923d bedd b03d bc3b 20bd
000000b0: 1fd4 bb3d 5cd2 31bb fcf8 b9bc e300 b73d
000000c0: b6e0 a1bc 6576 c53c 0d87 6c3d c671 d6bc
000000d0: 163a e23c d10e 983d a8c5 32bd 829e bcbc
000000e0: d70e 273c ef02 073c 5d78 84bd f4be 843c
000000f0: a0e3 acbd 4722 843d 7523 20bb 35aa 21bc
00000100: 6fa2 a0bd 4e91 3d3d 1caa 993c bc15 923d
00000110: 8b9c 29bd 2fc9 5c3d 6bb2 8f3d eaf8 37bd
00000120: cba7 863b e098 73bd 9b61 29bd 5afc 9b3d
00000130: e769 6b3d 1aad 88bd a952 ac3b a63a a93a
00000140: cd9d 953d ccd7 5dbd 0555 51bd 0960 3dbd
00000150: b9ba efbc 78e0 43bd e086 58bd ac46 7cba
00000160: c1c6 b4bc d643 ab3d 5e4c 04bd ba39 573c
00000170: c700 813d b85e 993d e1bd ac3c abb2 743a
00000180: 9dc9 da3c 3ff6 84bd 2520 9abd a8ab 263d
00000190: c532 a33c bf5c f7bc 0723 513c 91dd ec3c
000001a0: 0e43 013d 305a b0bd 9567 293d 93dc 9f3d
000001b0: 2a22 953d 6074 9e3d 9461 a33d c65a b4bc
000001c0: a9d1 b13d de53 143d 4770 b63d dd07 353d
000001d0: ed68 72bd 258c 78bd b0d8 53bd 1bd4 093d
000001e0: c388 173d a2b0 30bc 518e b83d 5058 47bc
000001f0: 2835 633d d54d 13bc 958d a8bd 9f11 9a3d
00000200: a3f9 8dbd b9ac 763b b4c4 b53d 549e 99bd
00000210: 03eb 963b 79a2 3a3d cd74 a13c b262 42bd
00000220: f8b7 6fbc 5a96 833d 6690 7fbb be44 493d
00000230: 2a61 8e3b 53b9 123d 8765 36bd 603f 51bc
00000240: dbe0 393d b22e 60bd 344d 9bbd 9b9b 2bbd
00000250: f766 d33b a2c1 8a3d b37c d8bc 843d 843c
00000260: 9777 a2bd e37a f8bb 719f 1bbd 84f6 023d
00000270: e87c d2bc 7298 503d 5a98 abbd 2510 1b3d
00000280: 48fd 8abd 5e88 75bd f3d9 603d 5f28 983d
00000290: 8c52 543d b2b9 07bb 713c 85bc de18 a4bc
000002a0: e061 8abd 9e89 1c3d 6317 5b3d 828e b53d
000002b0: 2da7 11bd df06 65bd 2c08 60bd 6c70 813d
000002c0: e5f6 4cbd aed2 1b3c b736 8d3c 48b9 123b
000002d0: 479a 7bbc bdc6 a2bd 6ddd 9c3b 9842 8aba
000002e0: 3a25 43bd ee49 263c 7265 b73d 9ab8 6ebd
000002f0: 6387 76bd 0777 b73c 8c79 8d3d 8116 81bc
00000300: aa9f 89bd d03e 7c3d 441d 7fbc a9ab 61bd
00000310: f514 96bd 004f 723d 38de a33d ebb0 943d
00000320: a408 373c 70fe ae3a 7c69 7abd c450 3c3d
00000330: ae34 043d 9e0c 583d ef80 31bc f9c2 38bd
00000340: 0ba6 2ebd dc92 b03d 3e40 fcbb d638 853d
00000350: 9c41 b53c 8640 59bd c60b 4f3d 7470 c33b
00000360: eaff 0b3d 6271 60bd 9f2d e938 7f63 8abd
00000370: 57c1 9abd 1c06 8e3d ef69 b0bc 0948 a93d
00000380: e123 de3c 28a5 503d ae7f a93d a308 6cbd
00000390: deee b4bc 0afd a63c 686c 06bd 72d4 f23b
000003a0: bc3d 863d 9b5a 51bd 87f3 9dbb f19b 9ebc
000003b0: 2e47 f03c ec68 6c3d 25fa 97bd 1d8b 743d
000003c0: ad3e 39bc cfc4 5ebd 9823 883d 68c5 4bbd
000003d0: 067e 40bd a611 8abd 2978 093d 265b a9bd
000003e0: 000a 973c 40e9 003c 5e33 1e3d 12cc 7ebd
000003f0: edd5 e83c 52b8 4cbd f83c 993b 1649 8fbd
-0.010169104 0.057746768 -0.018180626 -0.01929646 0.06583913 0.056082938 0.030096034 0.033735495
0.0071412106 0.020800918 0.018901974 0.07708771 0.034354962 -0.05647089 0.051392257 -0.08158613
0.04714921 0.012958995 0.040786155 -0.045744505 -0.065264046 0.025142044 -0.00089784985 -0.037959013
-0.07694293 0.018992152 0.08356228 -0.07046456 -0.07013103 -0.030261662 -0.028181875 0.06429922
0.03171049 0.07697206 0.011471757 0.039443996 0.035680786 0.016621778 0.008357726 0.081799775
0.00038098797 0.07144972 0.08636044 -0.039119467 0.09171318 -0.002713344 -0.022701733 0.08935716
-0.01976047 0.024104306 0.057745982 -0.026177298 0.027615588 0.07424701 -0.04364553 -0.023024801
0.010196409 0.0082404455 -0.0646827 0.016204335 -0.084418535 0.064518504 -0.0024435197 -0.009867241
-0.07843482 0.04628115 0.018757872 0.07133052 -0.041409057 0.0539028 0.070164524 -0.044915117
0.004109358 -0.059471965 -0.04135285 0.076164916 0.057474043 -0.066736415 0.0052588773 0.0012911155
0.07305489 -0.054160878 -0.05110647 -0.046234164 -0.029263841 -0.047821492 -0.052863 -0.0009623568
-0.02206743 0.08362548 -0.032299392 0.013136322 0.062989764 0.07488769 0.021086635 0.0009334485
0.026707465 -0.0649228 -0.07525662 0.040691048 0.01992167 -0.030195592 0.012764699 0.028914245
0.03155809 -0.08610952 0.04135855 0.07805743 0.07281907 0.077370405 0.07977596 -0.02201594
0.086825676 0.036212794 0.08908134 0.044196952 -0.059182096 -0.060680527 -0.05172032 0.033649545
0.03699566 -0.0107843 0.0901152 -0.012167051 0.055470616 -0.008990725 -0.0823013 0.07522892
-0.0693238 0.0037639572 0.08875409 -0.07500902 0.0046056523 0.045565102 0.019709015 -0.047457404
-0.014631264 0.06425162 -0.003899598 0.049137823 0.004345079 0.03582127 -0.044530418 -0.012771457
0.045380455 -0.054732032 -0.07583085 -0.041896444 0.0064514834 0.06775214 -0.026426649 0.016142614
-0.07932966 -0.0075830086 -0.037993852 0.031973377 -0.025694326 0.050926633 -0.08378668 0.037857193
-0.06786591 -0.059944503 0.054895353 0.07429575 0.051836535 -0.0020710048 -0.016264172 -0.020031389
-0.067569494 0.03821718 0.0534891 0.08865072 -0.035559822 -0.055914756 -0.054695293 0.06320271
-0.050040144 0.009510679 0.017238004 0.0022388268 -0.015356607 -0.079480626 0.004787138 -0.0010548411
-0.047642924 0.010149462 0.08954896 -0.05828152 -0.06018771 0.022395624 0.06907949 -0.015757801
-0.06719907 0.06158334 -0.015570942 -0.05509535 -0.07328216 0.05915737 0.08001369 0.07260307
0.011171494 0.0013350975 -0.061135754 0.04597546 0.0322768 0.052746408 -0.010833963 -0.045107815
-0.04263882 0.08621761 -0.007698088 0.06504981 0.022126012 -0.05304005 0.050548337 0.005964333
0.034179606 -0.05479563 0.000111188034 -0.067572586 -0.07556408 0.06934759 -0.021534888 0.08265693
0.027116718 0.050938755 0.08276306 -0.057625424 -0.022086557 0.02038433 -0.032818228 0.0074105794
0.06554744 -0.0511118 -0.0048202905 -0.019361468 0.029330816 0.05771725 -0.07420758 0.05970298
-0.011306447 -0.05438691 0.06647414 -0.04974881 -0.046995185 -0.067416474 0.03356186 -0.08269338
0.018437386 0.007868111 0.038623206 -0.062206335 0.02842232 -0.04998047 0.0046764575 -0.06996362

fc2.bias f4 [64]
00000000: 6efe 2c3d 2e6c 94bc 6884 4cbd 3f79 333d
00000010: 332e 4dbd e9d5 2837 6b47 3437 c785 803a
00000020: 8844 5bbd 4999 2a3d 6311 5f3d 0987 783c
00000030: a21c b23c 5889 31bd 8075 28ba f52c 0bbc
00000040: 5a8d 31bb 4a9f 883d 0afd 3d3d d26a 85bd
00000050: 105c 803c cb3b e93c f7c2 94bc d5bc 503d
00000060: 3494 38b8 1478 00ba 0782 f936 cffa 7cbb
00000070: 2156 80b7 bace 7abd b656 2c3d 6d01 b83c
00000080: 0d27 543d c86c 103d f728 67bd 5421 0e3c
00000090: 2342 4ebd b1b7 e93c f60d fd3c 262a 653d
000000a0: bdb2 51bb 92b9 5a3d 5c91 ae3b ceca 76b9
000000b0: 6559 89bc 9859 27bd 050c 933c fb3c b73b
000000c0: 623a 4bb6 b0d0 46bd 9e07 e53c e3ea 3c3d
000000d0: b203 1e3a 8dff 14bc 80a9 993c 8f20 5fbb
000000e0: 6dae 163d cc90 5eb7 ec4c 8abc 1e64 7d3d
000000f0: fee3 31bd 7b04 debc a63a d9bc 166f 0c3b
0.04223483 -0.01811799 -0.04993096 0.0438168 -0.050092887 1.0063385e-05 1.0745464e-05 0.0009805494
-0.053532153 0.04165009 0.05445994 0.015168914 0.021742169 -0.04334387 -0.00064262 -0.008494605
-0.0027092309 0.06671007 0.046383895 -0.06514515 0.015668899 0.028470894 -0.018159373 0.050961334
-4.4007043e-05 -0.00049007055 7.4359154e-06 -0.0038601642 -1.5298896e-05 -0.061232306 0.04207488 0.022461617
0.051795054 0.035259992 -0.05643555 0.008674938 -0.05035604 0.028529974 0.030890446 0.0559484
-0.0031997405 0.05339963 0.005327387 -0.00023535939 -0.01676626 -0.040856928 0.017950067 0.0055919862
-3.028334e-06 -0.048538864 0.027957734 0.046122443 0.00060277723 -0.009094131 0.018757582 -0.0034046506
0.03678744 -1.3265944e-05 -0.016882382 0.061863057 -0.04343032 -0.027101746 -0.026517224 0.0021428517

bn2.weight f4 [64]
00000000: 8937 803f 5803 803f c836 7f3f 9467 803f
00000010: c51f 7e3f 4a54 7e3f c2c1 7e3f 7af1 7f3f
00000020: a995 7e3f 0726 7f3f ab80 7d3f 1bae 7f3f
00000030: 53c4 7e3f b087 7f3f 3615 803f b317 803f
00000040: 6df2 7f3f f00b 7f3f 95d5 7d3f 9858 7e3f
00000050: 2d6a 7f3f efd2 7f3f b151 7e3f cb8c 7d3f
00000060: 480a 813f 702a 7f3f c617 7f3f 53ee 803f
00000070: 4915 7e3f 5475 7e3f 3572 7f3f 5d29 803f
00000080: 3141 7f3f d0db 7d3f 6092 7d3f 88a8 7e3f
00000090: 7d3e 7e3f ed88 7e3f 8b32 7f3f b23b 803f
000000a0: 011e 7f3f ec11 803f 7779 7f3f b39e 803f
000000b0: 3d91 7e3f adef 7f3f a36e 7f3f 27ca 7f3f
000000c0: 3279 803f 0e3b 7e3f ac72 7f3f d879 7d3f
000000d0: f87c 7f3f 3d6c 7e3f 5b85 7f3f 527e 7f3f
000000e0: 9088 7f3f 2929 803f 6a91 7f3f 972d 803f
000000f0: 470c 813f 4247 7f3f 2ae5 7e3f 7568 7f3f
1.0016948 1.000102 0.99692965 1.003161 0.99267226 0.99347365 0.995144 0.9997784
0.99447113 0.996674 0.99024457 0.9987504 0.99518317 0.9981642 1.0006473 1.0007232
0.9997929 0.9962759 0.99154025 0.99353933 0.99771386 0.99931234 0.993434 0.9904296
1.0081263 0.9967413 0.9964565 1.0072731 0.9925123 0.9939778 0.9978364 1.0012623
0.9970885 0.9916353 0.99051476 0.9947591 0.993141 0.9942768 0.996865 1.0018218
0.9965516 1.0005469 0.99794716 1.0048431 0.99440366 0.9997509 0.99778193 0.99917835
1.0036986 0.9930886 0.9978435 0.99014044 0.9980006 0.9938391 0.9981286 0.99802125
0.9981775 1.0012561 0.9983126 1.0013913 1.0081872 0.99718106 0.99568427 0.99768764

bn2.bias f4 [64]
00000000: bb4e 803b 9d48 ccba 2edc a3ba 0a49 173b
00000010: 2522 80bb 98c2 e8ba 2b77 f5ba 6be7 bdbb
00000020: a291 b13a 9748 89bb 6a3b 0ebb d3af 5a3a
00000030: 1bd8 d0bb dd41 c53b 70f6 e0bb 677a ac3b
00000040: 3858 c93a cfc2 61bb 443e 48bb ddff 9abb
00000050: 27a6 283b a205 2abb 43fd e63a 94aa d8bb
00000060: f162 273c ccef eeba a8f8 4eba 7646 273c
00000070: d0aa 033c 8fdb c3bb 2f3f fb3b 2b5b 283b
00000080: 7ecf c6b8 7507 ffbb 48ae e7bb c47e c8ba
00000090: d802 3f3b 966e 77bb 68b9 633a c7f4 653b
000000a0: 8617 da3a f850 033c 3e3f 04bb c116 983b
000000b0: dd46 8dbb 230b 733a 9a35 ec3a 555f ffb9
000000c0: fdae 083c 0f4e 84bb ae2c aa39 c83c b9bb
000000d0: 1c4c 4438 51b8 cdbb 5065 153b d93e e9ba
000000e0: f0a3 68bb 35d7 0e3b 82e5 b93a c2ce c53b
000000f0: 09c5 1b3c b487 8abb 2a3f ce3a 6525 19ba
0.0039156354 -0.0015585605 -0.0012501532 0.0023084306 -0.0039103203 -0.0017758189 -0.0018727531 -0.0057954094
0.001354743 -0.0041895616 -0.0021702894 0.000834224 -0.006373418 0.0060198144 -0.006865315 0.005263615
0.0015361374 -0.003444839 -0.0030554691 -0.0047302083 0.00257338 -0.0025943299 0.0017623085 -0.0066121314
0.010216461 -0.0018229424 -0.0007895329 0.01020967 0.00803633 -0.005977101 0.007667444 0.0025689106
-9.480024e-05 -0.0077828714 -0.0070703365 -0.0015296568 0.0029145982 -0.0037755123 0.00086869905 0.0035088526
0.0016639091 0.00801491 -0.0020179297 0.0046413844 -0.004311426 0.0009271374 0.0018021346 -0.00048708418
0.008342502 -0.0040376256 0.00032458216 -0.0056529976 4.6800924e-05 -0.0062780757 0.0022795983 -0.0017795219
-0.0035498105 0.0021795754 0.0014182779 0.0060366103 0.009507426 -0.004227603 0.0015735377 -0.0005842059

bn2.running_mean f4 [64]
00000000: 91d9 103f 17ed 84bd 62fa b3be 18d3 963e
00000010: 6b27 82bd b629 a6be 89bf 303d f637 343e
00000020: 1e1d 263f 1b48 4fbe f97b 123e 7b87 aabd
00000030: 839e aebe dc8c 44bf c2b3 6bbc 63a2 79bd
00000040: 38a5 43be 8921 d0be 800e 303d fa95 8fbe
00000050: 6ba8 9f3e e540 09be c20e 4dbe 932c 59be
00000060: ae2f d13e 9358 383e 31ff 44be 80bb 9cbc
00000070: bcf8 d2bd c6a7 f2bb 9d9f 583e c1e8 86be
00000080: e115 773e c9a3 c93d 9396 6fbe 5554 c83e
00000090: f7ca 5bbc ee60 993c d883 743e e1d3 f23d
000000a0: 2389 d43d 8be2 343e 4f14 d33d f5b6 dcbd
000000b0: aaf5 88be 6655 b7bd 6178 85be d004 023e
000000c0: f8ca 5bbe a0b6 52bd 8b9c 12be d843 863e
000000d0: 049e 08bd 5426 b6bd 83ec 94be adf0 d5bd
000000e0: 0aad 333e 4975 793d 7448 563c db22 5c3e
000000f0: d274 d23d e482 24be 99a8 b9bd 7c2e 153d
0.5658198 -0.06490534 -0.35151964 0.29457927 -0.06355175 -0.32453698 0.043151412 0.17599472
0.6488818 -0.2024235 0.14305104 -0.08326622 -0.3410531 -0.76777434 -0.014386119 -0.06094588
-0.19105995 -0.40650585 0.04298258 -0.2804411 0.3118318 -0.13403662 -0.20025161 -0.2120841
0.4085669 0.18002538 -0.19237973 -0.019132376 -0.103013486 -0.007405254 0.21154638 -0.26349452
0.2412944 0.09845693 -0.23397283 0.3912684 -0.01341509 0.018722977 0.2387842 0.11856819
0.10377719 0.17664544 0.10306608 -0.10777084 -0.26749927 -0.08951835 -0.26068404 0.12697148
-0.21464145 -0.051443696 -0.14317529 0.26223636 -0.03335382 -0.08894029 -0.29086694 -0.10446296
0.17546478 0.060902867 0.013078798 0.21497671 0.10276188 -0.16065556 -0.090653606 0.036421284

bn2.running_var f4 [64]
00000000: 888a 813e 5b11 863e 27e4 b03e e33b 9f3e
00000010: 17ff 533e 053f 4a3e 5523 603e 06f3 d13e
00000020: edef 793e 1ec2 603e d11e 533e 51d5 893e
00000030: 5c80 9b3e f067 a13e e5d0 8f3e d421 703e
00000040: e313 913e ef01 693e 30b7 6d3e 02e7 a83e
00000050: 1e7d 6f3e df0c 843e dd31 b33e 5a70 a63e
00000060: 2055 8b3e aed1 923e 7384 8e3e 4af1 8a3e
00000070: 3029 a43e 95a1 b43e aea4 5e3e 6deb 683e
00000080: 3e87 9c3e 6438 543e 91f8 6c3e 4a72 803e
00000090: 468c 8d3e f987 6f3e b94a ec3e 0385 883e
000000a0: 9c33 8a3e 6ff1 a43e b43e 813e 5532 a03e
000000b0: 60c5 853e 9e18 8e3e 968e a13e e372 733e
000000c0: 3345 683e 468f a43e c36e 963e 7c3f 7c3e
000000d0: ab7b 9c3e cf62 8f3e 54bd 823e 8404 aa3e
000000e0: 94be a63e b9a4 853e 97a6 9a3e 53ae 963e
000000f0: af2d a63e eecd 973e 8201 9c3e c550 833e
0.25301003 0.26185116 0.34549066 0.31100377 0.20702778 0.19750603 0.21888478 0.41005725
0.2440793 0.2194905 0.20617224 0.2692056 0.30371368 0.3152461 0.2808906 0.23450404
0.28335485 0.22754644 0.23214412 0.32988745 0.23387572 0.2579107 0.3499898 0.32507592
0.27213383 0.28675598 0.27835426 0.27137214 0.32062674 0.35279527 0.21742508 0.22746058
0.30571932 0.20724636 0.23141696 0.25087196 0.27646083 0.23391713 0.4615076 0.2666398
0.269925 0.3221545 0.2524315 0.312884 0.26127148 0.27753156 0.31554097 0.23774295
0.22682647 0.3214056 0.2938138 0.24633592 0.305631 0.28005072 0.2553507 0.3320657
0.32567275 0.26102236 0.30205223 0.29429874 0.3245673 0.296493 0.304699 0.2564756

fc3.weight f4 [16, 64]
00000000: f0ad d2bd 1fc8 c53b 994d 3f3d f55f 253d
00000010: 128b 97bd b1b2 8fbc 6f1a 94bd a6e6 bf3d
00000020: 09a6 9dbd 68af a53d 8a5e 513d be2e f8bd
00000030: ee1d 993c df88 8abd 88b5 9c3c dd3f 99bd
00000040: acf0 d8bd 6f8d e5bd 1c78 abbd c3e4 bbbb
00000050: dcfc 5f3d 8491 303c 4822 e53d 543d 6f3c
00000060: 5500 81bd 1365 debd f011 af3d 25b1 a33c
00000070: de0b df3c 1596 7cbd f96a 8c3d 19ef 08bb
00000080: 0815 c6bd a429 d4bd 2e61 0dbd 288e f93d
00000090: e1ca 5cbc 4f2b 08bc 4a45 63bd 84ef b33d
000000a0: c873 fe3d 9d3a b83d 9899 3abd 8ec6 a83d
000000b0: 4e7e f8bc b58b 873d 9256 c4bd 1cd7 7ebd
000000c0: af93 20bc cecc 25bd 4b61 8f3c f1eb f63d
000000d0: 6c42 8fbb 6628 87bd 0f6c 893d 4cf3 d3bd
000000e0: 7e22 f43c ebdf fb3d 883d b3bc d735 873a
000000f0: c017 723d 41e2 e43d cc15 b8bd 42e6 a9bd
00000100: 1932 d0bd 5664 4e3d 7ca1 f83c 324b afbd
00000110: 5ea8 083d e607 303d dd3a b63a 0ec0 03be
00000120: 94f4 913d eed1 edbd 558d a53d be61 493d
00000130: 6188 c03c 4f5b 6abd 2c36 043e dd72 863b
00000140: 1a90 6cbd a4fc c0bd 8228 013b e7f5 a23d
00000150: cbfe a6bc 7dad 27bc 2fd7 16bd ff78 bebd
00000160: 233c 33bd 6de6 6e3d d701 f53c b898 02bd
00000170: 34f1 a7bd 2246 88bd 18c1 dfbd 243b acbc
00000180: d33d 98bc abff 7fbd c9e5 02bd c8cc 2d3d
00000190: 25f5 693d ab46 3fbd 1707 b0bd 0a36 4d3d
000001a0: 2ff3 05bd 1e1b c0bd 01c0 0fbd a9dc 903b
000001b0: 8b4a cd3d af23 a43d 0250 2cbd 627f e7bd
000001c0: dc2f 113d e243 443d 8fac b2bd 045d 663d
000001d0: 6602 c1bd 9297 6c3d 510e c2bd 2e59 f73d
000001e0: db14 473d 634c 97bd 71cf 163d 1b0c a1bc
000001f0: b472 d1bd a66e a838 78e5 a1bd 0b15 ea3c
00000200: 2b10 e03d 99fc a1bd 0bdf db3d 6502 a5bc
00000210: 698d 403d 0346 b73d df5a 363d b6fc 763d
00000220: f010 8ebc 1465 d43d a554 ec3d 95c8 b4bd
00000230: ea28 14bd 22e0 003d 6db8 bdbb 56c1 37bd
00000240: 442b f33d c262 b0bd e050 2fbc bba3 84bd
00000250: 27da 55bd 1b6d cebd ff89 ce3d fe0a ee3d
00000260: b10e 893d 04b7 433d 9f13 8ebd 810f b6bd
00000270: 42a4 3cbd cef6 0cbd 846a 553d e22c 413c
00000280: 3ece 4ebd 1ef7 4c3d 015c 7a3d 0d46 cc3d
00000290: fd5d b7bd de18 04bc 669a cfbc 36cd 943d
000002a0: b24a f93c ae41 a63d 1e29 b7bd 4e6a 683d
000002b0: 6c65 183d ac52 e33d e4b5 15bc 6bfd 003d
000002c0: d2a9 50bd be78 843c 1411 d2bd a592 e4bc
000002d0: 30ca 363d bfba f63c 195a 5d3d fe1a 593d
000002e0: b9a0 473d fee4 ae3d f5f4 433d 041c a13a
000002f0: 487e 893d 8000 d4bd f282 a83d e95a 0abd
00000300: 9a12 afbd 3982 e23d 979a 6e3d 0893 9b3d
00000310: 7a82 bfbd 31c7 82bd 0b5b a73d 3516 803d
00000320: d5ce d6bb 4733 f03c 419b 68bc d05f d2bc
00000330: 8b1d 9d3c 361b d43d c1ad 95bd 5ec0 78bd
00000340: f717 f2bd 10e6 9abc ce61 9f3d ee2f adbd
00000350: 8d26 9b3d 4896 d6bd 1f48 5d3d d0b3 c5bc
00000360: 5de1 1c3c bbfd e13d bfc3 5fbd 4505 dabd
00000370: e4d6 753c dc03 bfbd b346 f83c 96e1 203d
00000380: 862f 89bd 8c08 c9bd 64ca 86bd affc d2bd
00000390: 43f8 8b3d 5e91 50bc 1168 d4bd d2fc 4fbc
000003a0: 3385 72bd 6d70 673d eb66 893a 257b f23d
000003b0: 7c3c 24bd 8ffc ce3d af1e c63c 118f 00bd
000003c0: 6cd1 e3bd a87e 3d3d 01f4 85bd 169d f0bd
000003d0: a58d 883d fc18 7e3d cd5f a5bd 4fbd ce3d
000003e0: 54e2 a1bd 29b3 aebc b58b 8a3d 3eee b6bd
000003f0: a5f5 56bd 1cd0 95bd dbc3 1cbd 3be7 a33d
-0.10287082 0.006035819 0.046704862 0.040374715 -0.073995724 -0.017541261 -0.07231604 0.093701646
-0.07697684 0.08090097 0.05111555 -0.1211829 0.01869103 -0.06764387 0.01912953 -0.07482884
-0.105927795 -0.11208617 -0.083725184 -0.0057340576 0.054684505 0.010776881 0.11188179 0.014602024
-0.062988915 -0.10859122 0.08548343 0.01998193 0.027227338 -0.061666567 0.06856341 -0.0020894466
-0.0967198 -0.10359505 -0.034516506 0.12185317 -0.0134761045 -0.008311107 -0.055486 0.08785918
0.12424427 0.089955546 -0.045556635 0.08240996 -0.030333664 0.06618444 -0.095868245 -0.062216863
-0.0098008355 -0.04047852 0.017502448 0.12056721 -0.004371932 -0.06599502 0.06710064 -0.103491396
0.029801603 0.12298568 -0.021879926 0.0010315728 0.05910468 0.11175967 -0.089885324 -0.08295871
-0.10165805 0.050388657 0.03035044 -0.08559264 0.033363692 0.042976283 0.0013903041 -0.12866232
0.07126728 -0.116123065 0.080835976 0.04916548 0.02350253 -0.057215985 0.1291129 0.0041030482
-0.057754613 -0.094231874 0.0019707982 0.079570584 -0.020385167 -0.010234234 -0.03682631 -0.09300422
-0.043758523 0.05832522 0.029908104 -0.031883925 -0.08200303 -0.06654002 -0.109255016 -0.021024294
-0.018584168 -0.062499683 -0.03195742 0.042431623 0.057118554 -0.046698254 -0.08595102 0.050100364
-0.03270262 -0.09380172 -0.03509522 0.004420836 0.100239836 0.080146186 -0.04206849 -0.11303593
0.035446033 0.0479163 -0.08724319 0.05624105 -0.094242856 0.057761736 -0.09475387 0.120775566
0.048603874 -0.073876165 0.036818925 -0.019659093 -0.10226956 8.031474e-05 -0.07905096 0.028574487
0.10940584 -0.07909507 0.107359014 -0.020142743 0.04700986 0.089489006 0.044520255 0.060299598
-0.01734206 0.103708416 0.11539582 -0.088273205 -0.03617183 0.03146375 -0.0057898075 -0.044862114
0.11873487 -0.086125866 -0.010700434 -0.064765416 -0.05221 -0.10079404 0.100849144 0.1162319
0.06692255 0.04778196 -0.06937336 -0.08889676 -0.046055086 -0.03441506 0.052103534 0.011790486
-0.050489657 0.050040357 0.061122898 0.099742986 -0.08953474 -0.008062569 -0.025342178 0.072657034
0.030431125 0.08117996 -0.08943389 0.056742005 0.0372061 0.11099753 -0.009137604 0.03149168
-0.050943203 0.016170856 -0.10257164 -0.027901957 0.044626415 0.030118344 0.054041002 0.053004257
0.04873726 0.085397705 0.04784103 0.0012291675 0.06713539 -0.10351658 0.08228101 -0.033778105
-0.0854847 0.11059994 0.058252897 0.07596403 -0.09351058 -0.06385649 0.08171662 0.06254236
-0.006555418 0.029321326 -0.014197172 -0.025680453 0.019179126 0.103567526 -0.073085316 -0.06073033
-0.11820977 -0.01890853 0.07782327 -0.084564075 0.07575712 -0.104778826 0.05402386 -0.024133593
0.009575215 0.11034723 -0.054630037 -0.10645536 0.015004847 -0.09326908 0.03030715 0.039277636
-0.066985175 -0.09816083 -0.06581572 -0.10302102 0.068344615 -0.012729971 -0.103714116 -0.012694554
-0.05920906 0.056503702 0.0010482942 0.11839894 -0.040096745 0.101067655 0.024184553 -0.03138644
-0.111239284 0.046263367 -0.06540681 -0.11748712 0.066676416 0.062035546 -0.08074913 0.100947015
-0.07904497 -0.021325665 0.06764928 -0.0893216 -0.05248036 -0.07315084 -0.03827272 0.08003088

fc3.bias f4 [16]
00000000: 931c 9a3c 7fe5 2f3d 83f1 04b9 1243 743d
00000010: 0b6c 6c3d 63a6 213d e9dc abbd bb0c bdbc
00000020: 9bee c3bd a505 683d 1229 953d 3790 c03d
00000030: 6701 3b3d 2d40 703c 6b7a 9439 e302 ab3d
0.018812453 0.042943474 -0.00012678471 0.059634276 0.057720225 0.03946532 -0.08391745 -0.02307736
-0.09566995 0.056646008 0.07283224 0.09402507 0.045655634 0.014663738 0.00028319968 0.0835016

bn3.weight f4 [16]
00000000: 26e9 7d3f f792 7f3f 92fa 7c3f 0a69 7c3f
00000010: 3969 7e3f 180a 7f3f 71d8 7c3f 0fb5 7c3f
00000020: ab16 7d3f 8afe 7a3f 8e75 7c3f 4315 7d3f
00000030: a20e 7c3f f987 7e3f d693 7d3f 9cef 7e3f
0.9918388 0.99833626 0.9881984 0.98597777 0.9937931 0.99624777 0.98767763 0.98713773
0.98862714 0.98044646 0.98616874 0.9886057 0.9845983 0.9942623 0.99053705 0.99584365

bn3.bias f4 [16]
00000000: 3711 b4bb 5cce 22ba 816a f0bb e029 24bc
00000010: f475 523b f7e5 b9bb ab98 1dbc d9a6 01bc
00000020: 7927 0abc 9cbf 18bb a745 3cbc 13c7 1fbc
00000030: 6041 4bbc 4ca5 22b9 452d f9bb 981a 09ba
-0.005495216 -0.00062105595 -0.007336915 -0.010019749 0.0032113763 -0.005673166 -0.009618918 -0.007913315
-0.008432263 -0.0023307567 -0.011491216 -0.009752053 -0.012405723 -0.00015511102 -0.0076042735 -0.0005230098

bn3.running_mean f4 [16]
00000000: 7db5 b3bd b4df 92be 204e b83e df32 51be
00000010: bf5d 123e 142b 34be 6cfa 29bf 6459 6f3e
00000020: 4ca9 51be 47c4 393e 24e2 883c 34de 7c3e
00000030: 161b 93bd 7f82 e9bd 6638 fb3e 0271 d03d
-0.087748505 -0.28686297 0.35997105 -0.20429562 0.14293574 -0.17594558 -0.6639774 0.23373944
-0.20474738 0.1814128 0.016709395 0.24694139 -0.071829006 -0.11401843 0.49066466 0.101778045

bn3.running_var f4 [16]
00000000: f47b 993e 38f6 843e 4726 783e 5f89 853e
00000010: beb4 873e d9df 923e 714e 883e 726b 7d3e
00000020: 5f1a 873e 2bd7 773e a7a1 8b3e d1f8 aa3e
00000030: 47f0 b93e 0ad1 b03e 4696 8b3e 835e 953e
0.2997738 0.259691 0.24233352 0.26081368 0.26505083 0.28686407 0.26622346 0.24748018
0.26387307 0.24203174 0.27271768 0.33392957 0.3631613 0.34534484 0.27263087 0.2917367

fc4.weight f4 [1, 16]
00000000: 11a1 03bd cde8 e03d 8898 d43d 7ea3 423e
00000010: 5569 0a3e 31e3 653d 48a3 1bbe 0689 70bc
00000020: dd66 71bd 784b 4fbb 99c1 63be 7b0f 03bd
00000030: 429c 42be 7a4f ed3d 2214 38bd dc38 efbd
-0.032136027 0.10981903 0.103806555 0.1900768 0.13516743 0.05612487 -0.15199006 -0.014681106
-0.05893599 -0.0031630676 -0.2224182 -0.031997185 -0.1900492 0.115874246 -0.044941075 -0.11680767
