models/best_model.pth (torch, 50658 bytes, 13 tensors)

fc1.weight f4 [128, 4]
00000000: 8051 e43e 25ca b8be 1e55 01bf d4d4 b53c
00000010: c531 09be ba6f dfbe 3aca 59be 83d7 2dbe
00000020: 23b6 5abe 4246 403e cf19 0a3c 8ff7 2f3d
00000030: 3b5a 6bbe 5992 15be 8a4c e7be 66c7 123e
00000040: f2c2 b5be 8ef4 c1be 60eb bcbe 9ff9 aebd
00000050: 33f1 d8be 15b4 953e b55b fdbe e976 3b3c
00000060: d9fb e83e 780a 4cbe 8f9b aa3e cb5e ddbe
00000070: 52a0 96be 29d4 cc3e 3533 073d 9ed8 57bd
00000080: 38e4 b33e 632a 023e 5dd8 173f 9d57 cebe
00000090: 667e f2b8 d491 bc3e d9ea efbe 15cf b23e
000000a0: 595c c23e 7408 8f3e db5c af3d e8e2 73be
000000b0: 7334 acbe 5b18 ffbd 9c65 e93d 03cf 49be
000000c0: 1175 1abd 1ed3 d8be 73f0 063d 983c a33e
000000d0: 2236 a3bd 94fe 003e a29c 9dbe 1fce a7be
000000e0: 9c8b 273d 1d06 38bd 09e7 473e 4721 80be
000000f0: b0a1 223e cd67 c6be 4863 eebe 8b7c c8be
00000100: 5852 033e 4ad2 883d 6e77 88bd 5e28 6dbe
00000110: 9e1a dbbe 8995 ecbe 88f5 e33d 3da6 95be
00000120: 3fce e63e 2ba5 4c3e e348 ef3e 2842 a03d
00000130: d83b 5fbc a0ee d2be e9cb ce3e 79ea 63be
00000140: 77fd f2be df52 24bc ace5 913d 7f39 e9be
00000150: 411d 813e b378 693e 0e8f c9be c35f 313e
00000160: dedd d53e f7e7 43be 4a0d 85bb 1dfb bd3e
00000170: baba 893e 6072 69be e93c 04bf 0580 683e
00000180: ae35 bfbe 0381 c83e 44d2 ebbe 5bc9 883e
00000190: 9cab d5bc 5d96 cf3e 7863 3cbe 772b aebd
000001a0: 55ae 693e 7672 04be a6e6 e2be d220 23bc
000001b0: 33fd bb3e b96a ebbd 4123 f63e 9f57 d6be
000001c0: 57e9 23be 27bd 23be dcfc 073f d34f 99be
000001d0: 3ef4 dabd 0ee7 d2be 4c86 43be a8e9 4fbd
000001e0: 9983 e1be c753 22bd d9a9 d63e 8fc5 efbe
000001f0: a4d9 cf3e f4ec c83e 02a1 febe 16b7 2f3e
00000200: dcdf 523e 9173 2dbe d7fc 0dbf 52f8 98be
00000210: 7708 863e d3a5 7cbe 42f4 19be 2e45 edbe
00000220: 8feb 7b3e 933a 9ebe 5a53 cb3e 725a cebe
00000230: ba49 5dbe ea80 7abd 3588 6b3e ac40 353d
00000240: d8b4 5abe 6958 1fbe b768 7bbe f0f3 cdbe
00000250: d7eb 1a3e 7a6c 5ebe 0cda 813e 4925 dc3e
00000260: ee9c dabd 2d2e 44be f78d 8e3e 222a bfbe
00000270: e1cc c9be 568f 2cbe 4cd9 c23e f2de 683d
00000280: bcb1 e13e 44d1 5ebd e2b9 b33d 59ed c0bd
00000290: 5c92 2ebe bdaf 3e3d 5694 69be 7cde 853e
000002a0: f489 543e 36dc b63e 2bad f83e e8e5 b2be
000002b0: abcf b23e f5e4 4d3d 18bd a13e fd10 263e
000002c0: cd0b a7be ee02 cc3e 2453 3ebe e1e7 4e3c
000002d0: c217 943e 3fbe 813c 13dc 3bbe 9904 fd3d
000002e0: fdbf a93e 7c41 15be 7d45 fe3e 744c 1e3e
000002f0: 20c9 d43e c501 36be a6fd 89be 5710 b13e
00000300: 644b 0fbe 7dff c2be a046 a7bd fc9a b03e
00000310: 91f2 b93e dbd0 c8be e1a4 203e 9b3d aa3e
00000320: 49d4 5d3e 782e 9a3e 44c6 2c3e a7a9 8b3d
00000330: ab77 c3be b899 b93d 932f d7bc f39f 88be
00000340: da50 39be 55ad 3fbd 15e6 d73e 0bef f83d
00000350: e2dc d3bd 1948 80be 90c8 abbe ea4e 4bbe
00000360: d942 95be ac21 e23d dcc3 b93e 4f40 89be
00000370: 5e8a c23c ef36 ba3e cb1b d6be 1e1c e13e
00000380: d6e9 013e e605 80be 2cb5 cb3e 2fd8 293d
00000390: 45e4 11be 5e20 bdbe d1ec 9c3e 938a d33e
000003a0: 876c 63be 8fab 90be 4b36 973e 40df 843e
000003b0: d256 883e f9a8 853d e562 12bf bf80 b63e
000003c0: fd6e f43b cace e13e 137e 373e cbaa 9b3d
000003d0: f125 5d3e 7675 c9bd 8842 7f3e 1ca5 ff3d
000003e0: d8ac 06be 7aa6 6fbd 8ad1 863e fa71 ad3e
000003f0: 9c71 b4be ea2f 7cbe 78ee 6ebc 5528 ccbe
0.4459343 -0.36091724 -0.50520504 0.02219621 -0.13397892 -0.43639928 -0.2126855 -0.16976742
-0.21358542 0.18776801 0.008429005 0.0429607 -0.22983639 -0.14606608 -0.45175582 0.14333877
-0.35500294 -0.37881893 -0.36898327 -0.08543705 -0.4237152 0.29238954 -0.4948403 0.011441925
0.45504645 -0.19925869 0.33321807 -0.43236384 -0.2941919 0.40005615 0.03300782 -0.052696817
0.35135055 0.12711482 0.5931452 -0.4030122 -0.00011563003 0.36830008 -0.46858862 0.34923616
0.3796108 0.27936137 0.08562633 -0.23817027 -0.33633766 -0.12455817 0.113963336 -0.19707875
-0.0377093 -0.4234857 0.032944154 0.31882167 -0.079693094 0.12597114 -0.30783564 -0.32774445
0.040904626 -0.044927705 0.19521727 -0.2502539 0.15881991 -0.3875107 -0.4656012 -0.3915752
0.1282438 0.066807345 -0.066634044 -0.2315993 -0.42793745 -0.46207836 0.11130816 -0.29228392
0.45079228 0.19984882 0.46735296 0.07825118 -0.013625108 -0.4119768 0.40389946 -0.22257413
-0.47459003 -0.010029524 0.071238846 -0.4555168 0.2521763 0.2279995 -0.39366955 0.17321686
0.41770834 -0.19131456 -0.004060422 0.37105647 0.26900274 -0.22797537 -0.5165544 0.22705086
-0.37345642 0.39160928 -0.46058857 0.26716122 -0.026082806 0.40544406 -0.1839732 -0.08504384
0.22820409 -0.12934288 -0.44316596 -0.009956555 0.36716613 -0.11494965 0.48073772 -0.41863725
-0.16006981 -0.15990125 0.5312021 -0.29943714 -0.10691117 -0.41191906 -0.19094199 -0.05075994
-0.44045714 -0.039630678 0.41926458 -0.46830413 0.40595734 0.3924328 -0.49732214 0.17159685
0.20593208 -0.16938616 -0.5546393 -0.29876953 0.26178333 -0.24672632 -0.15034583 -0.46341842
0.24601577 -0.30904064 0.3971203 -0.4030338 -0.21610156 -0.0611581 0.23001178 0.04425113
-0.21358049 -0.1556107 -0.24551664 -0.40225172 0.15129028 -0.21721068 0.2536167 0.42997196
-0.10674463 -0.1915824 0.27842686 -0.37336832 -0.39414123 -0.16851553 0.3805641 0.056853242
0.44080913 -0.05439879 0.08775689 -0.094202705 -0.17048019 0.046554316 -0.22810492 0.26146305
0.2075575 0.35714883 0.48569617 -0.3494103 0.34924063 0.05026718 0.3158958 0.16217418
-0.3262619 0.39845985 -0.18586403 0.012628526 0.28924376 0.015837787 -0.1834567 0.123543926
0.33154288 -0.14575762 0.4966239 0.15458852 0.41559696 -0.17774113 -0.2695133 0.3458278
-0.13993603 -0.38085547 -0.081677675 0.34493244 0.36317876 -0.39221844 0.15687896 0.33250126
0.21663012 0.30113578 0.16872507 0.06819468 -0.38177237 0.09062523 -0.026267802 -0.26684532
-0.18097249 -0.04679616 0.42167726 0.12154969 -0.103448644 -0.25055006 -0.33551455 -0.19854322
-0.29152563 0.11041579 0.3628224 -0.26806876 0.02374762 0.36370036 -0.4181808 0.43966764
0.12686858 -0.250045 0.3978666 0.041465934 -0.14247234 -0.36938757 0.30649427 0.4131666
-0.22209369 -0.2825589 0.2953361 0.25951576 0.2662874 0.065263696 -0.5718215 0.356451
0.00745952 0.4410308 0.17919187 0.076009355 0.21596505 -0.09836857 0.24927723 0.12482664
-0.13151872 -0.058508374 0.2633174 0.3387602 -0.35242927 -0.24627653 -0.014583223 -0.3987452

fc1.bias f4 [128]
00000000: ea57 043e 201f 6fbc 8ece c73e 2780 c9be
00000010: 6ddd 123e 437e 913e 9f4d a83e 8c81 923b
00000020: 35aa b9be 96f7 f83e bc1f bb3e 213f c93e
00000030: de49 efbe c58a cebc 0fca 08be de2b b23e
00000040: 45dd ce3d eafe 38be c096 7bbe 11ca 8a3e
00000050: f823 c8be b7e4 483d c0fa 613e 505a 943e
00000060: 9d77 dcbe 7d03 e93e 221b bb3c 6b2d b23e
00000070: 6b29 0e3e ff68 a8be 0ae5 8dbe 52fa 87be
00000080: b563 d3bd eadf 91bd fd0b 743e 4b62 98be
00000090: 6487 9bbe 5627 40be 02a9 14be b3d5 5cbe
000000a0: 933f 253e a8ee d13e 426c c23e 9aee f7be
000000b0: 9f5b c2be e87d 5a3d 1be3 b93e 70ab c33d
000000c0: e058 80be 84b9 0dbe efe4 b6be 2bba 4fbe
000000d0: 3997 2a3e 5144 553e 1c98 963e 7d48 8cbc
000000e0: f01f cc3e daab ad3e 2ec1 14be 2093 8fbe
000000f0: fb56 bebe c45c f13e 1421 4ebd fc55 c53e
00000100: 6f8c 46bd 9664 243e 988b b9be 1838 c5be
00000110: f70f 883d 9d28 74bd fcaf 143e 8207 92be
00000120: 67d5 fd3c eb84 69bd 2c56 b23e 33d9 c93d
00000130: 03e6 a6be ca61 9b3e 8abb b1be c669 92bd
00000140: f88a 8d3c b874 99be fcf4 943e 10f0 f9bd
00000150: 3b29 9abe 4d07 c8be 4bdb 50be 2a47 b4be
00000160: d64d 2d3e b084 27be dd92 863e 7df3 edbe
00000170: 3ed4 c53e b3c3 bc3d 71c7 9a3e 2432 083d
00000180: 416a e23e 7b7e fcbe 2ef8 fbbe 6a9a 75be
00000190: 6adc e5be 28d2 973e 52d6 bf3e 63e8 5a3e
000001a0: bbba a2bd 6351 c4be faa0 b4be b9f2 6b3e
000001b0: d0f6 813d a198 903e 2279 83be 05f5 cbbd
000001c0: 6e8a e13d 8e67 cf3e cea6 1d3e 98cf c43c
000001d0: 8b02 d73e 5433 e53c 3a7a 823e 5f7e 143e
000001e0: 5684 eabd 2d2b d9be 68e1 d6be 96b6 f3be
000001f0: 230b 873e 5e90 bc3e dcac 8c3e 7a01 303d
0.12924162 -0.014594823 0.39024776 -0.39355585 0.1434228 0.28416643 0.3287172 0.0044710096
-0.3626267 0.48626393 0.3654765 0.39305976 -0.46736044 -0.025212655 -0.13358329 0.34799093
0.101007976 -0.18065992 -0.24569225 0.2710729 -0.39089942 0.049046244 0.2206831 0.28975153
-0.43060008 0.45510474 0.022840086 0.34800276 0.13882987 -0.32892606 -0.27713805 -0.26558167
-0.10321752 -0.07122786 0.23832698 -0.29762492 -0.30376732 -0.18765005 -0.14517596 -0.21565895
0.16137533 0.41002393 0.3797322 -0.48424226 -0.37960526 0.05334273 0.3630608 0.095541835
-0.25067806 -0.138403 -0.35721537 -0.20285861 0.1665925 0.20826842 0.29412925 -0.017124409
0.39868116 0.33920175 -0.14526817 -0.28041935 -0.37175736 0.47141087 -0.050324515 0.38542163
-0.04847377 0.16053995 -0.36239314 -0.3851936 0.0664367 -0.059609044 0.14520258 -0.28521353
0.030985547 -0.057011526 0.3483137 0.098558806 -0.3259736 0.30348045 -0.34713393 -0.07149081
0.01727818 -0.29971862 0.29093158 -0.122039914 -0.3010958 -0.3906807 -0.20396154 -0.35210544
0.16924223 -0.1635921 0.26283923 -0.4647483 0.3863849 0.09217014 0.30230287 0.033250943
0.4422169 -0.49315247 -0.49212784 -0.23984686 -0.44894725 0.29652524 0.374682 0.21377711
-0.07945772 -0.38343343 -0.35279065 0.2304181 0.06345904 0.28241447 -0.25678355 -0.09958843
0.110127315 0.40508693 0.15395662 0.02402477 0.41994128 0.027978577 0.25483876 0.14501332
-0.11451022 -0.42415753 -0.41968846 -0.4760024 0.26375684 0.36828893 0.2747563 0.04297016

norm1.weight f4 [128]
00000000: 8e3b 793f 9095 783f dbf1 6c3f bbd1 863f
00000010: 96c2 813f f284 6f3f 3e3e 6f3f 9d4b 6b3f
00000020: 8463 7f3f 0bee 783f 0704 713f 23ee 5f3f
00000030: 2796 663f 33e9 813f 8083 833f b32a 743f
00000040: ac5e 743f e87b 663f 7ed8 783f ce86 6c3f
00000050: 0ba9 803f c85f 773f a30d 603f e12c 773f
00000060: e45a 7a3f b65b 793f c0f3 7b3f 3bb9 693f
00000070: 6823 7d3f cc63 893f d104 6e3f 1051 743f
00000080: cf28 813f 9328 733f 8ec2 753f 071d 7f3f
00000090: eb21 853f 89db 793f 43dc 713f edbb 7b3f
000000a0: ca6d 6e3f 6171 783f fee0 703f 9d04 673f
000000b0: 8e21 6f3f d70f 743f ecca 7a3f 443e 6f3f
000000c0: c6f0 603f bb2c 673f b0d9 733f 48d1 663f
000000d0: 68a2 833f b369 853f f423 673f 9d35 7b3f
000000e0: b33e 763f b3bb 5b3f e53d 863f ef34 7e3f
000000f0: 29ae 713f 84b2 783f 6d88 793f 8f56 5b3f
00000100: 3246 6f3f e981 7c3f 9b72 763f 2d91 6e3f
00000110: 886c 6e3f a7f9 6b3f e409 723f a5f7 723f
00000120: 645d 623f 030a 843f 4b1e 733f 0fa8 663f
00000130: 39d3 883f 8cb2 653f 6a44 6c3f 50fe 713f
00000140: 673a 703f 2841 683f 7b42 653f 280f 733f
00000150: 60bd 7d3f d9d3 813f 6cd8 783f a71f 843f
00000160: 3646 793f d3bb 713f 35e4 773f 7f83 6a3f
00000170: d0ae 743f 9824 793f d485 633f 5c6c 7a3f
00000180: 823b 753f 7a96 6d3f b833 6c3f 4078 733f
00000190: 2669 753f 4cf5 7e3f ed23 783f c651 683f
000001a0: 42c9 6f3f f988 6e3f e0e9 6e3f 1947 863f
000001b0: 2233 7a3f 8295 6e3f 471c 763f f2fc 703f
000001c0: e505 803f e207 6b3f b73f 873f 32e5 793f
000001d0: 6d09 6d3f c65e 683f 8822 793f 13e2 8f3f
000001e0: 5ab1 803f 0d33 713f 6d00 6c3f ba0e 6e3f
000001f0: 89ef 653f eda4 8a3f e64d 763f ef28 7a3f
0.973565 0.97103214 0.9255654 1.0532755 1.0137508 0.93562233 0.9345435 0.9191225
0.99761224 0.97238225 0.9414677 0.8747274 0.90072864 1.0149292 1.0274506 0.95377654
0.9545696 0.90032816 0.9720534 0.92393196 1.0051588 0.96630526 0.8752081 0.96552855
0.9779494 0.97405565 0.9841881 0.91298264 0.9888215 1.073358 0.929761 0.9543619
1.0090579 0.94983786 0.9599999 0.9965367 1.0400976 0.9760061 0.9447672 0.98333627
0.93136275 0.97048 0.9409331 0.90241414 0.93410575 0.9533667 0.97965884 0.93454385
0.8786739 0.9030263 0.9525404 0.9016309 1.0283937 1.0422882 0.90289235 0.9812868
0.9618942 0.8583328 1.0487639 0.9929952 0.9440637 0.97147393 0.97473794 0.8567895
0.93466485 0.9863573 0.96268624 0.9319027 0.93134356 0.92177814 0.9454634 0.94909126
0.8842375 1.0315555 0.949681 0.9010019 1.068946 0.89725566 0.9229189 0.94528675
0.93839115 0.9072442 0.89554566 0.94945 0.9911709 1.0142776 0.97205234 1.032216
0.9737276 0.9442722 0.9683259 0.916069 0.9557924 0.9732146 0.8887608 0.97821593
0.95793927 0.92807734 0.92266417 0.9510536 0.9586357 0.99593043 0.9692982 0.90749776
0.9366647 0.93177754 0.93325615 1.0490447 0.9773427 0.9319688 0.961369 0.94135964
1.0001799 0.91808903 1.0566319 0.9761535 0.9259251 0.9076961 0.97318316 1.1240867
1.0054123 0.9421852 0.9218815 0.9299122 0.89818627 1.0831581 0.96212614 0.9771871

norm1.bias f4 [128]
00000000: d578 943c 01a2 563d 5b54 fdbc 34b6 f63d
00000010: 202d b03c 25cb cbbc b613 9cbc 16e7 9ebc
00000020: 2bc8 1c3d 7e89 e93b ae4c 25bc f6e9 93bd
00000030: d385 8bbd fca6 903d 2f26 413d 5501 053b
00000040: 51ad f63a d8da 49bd 5619 c63b 6736 18bd
00000050: 2070 5c3c 1506 3e3c f043 91bd 2a4e 183c
00000060: ded3 d03c 4d55 b63a 913f cb3c e055 16bd
00000070: 37a8 7f3a 8959 c53d e6b7 babc 8bad 0c3c
00000080: 0020 333d c69b 9abb 60d7 89bb 1215 9b3c
00000090: e854 943d 4f33 583c d5c5 ac3b d7e8 b13b
000000a0: 8701 c5bc 5464 18bb f5d0 87bc e988 82bd
000000b0: 39e3 19bc 740b 4cbb 79fe 9d3b ab01 7cbc
000000c0: 37d8 01bd 0b1c 56bd 6c15 87bc 441c 4abd
000000d0: 97f9 9b3c a526 833d d0ff 69bd dbdd f53c
000000e0: 46a5 b5ba 42c3 96bd e06f 743d d888 103d
000000f0: 92c5 0ebc 3d1c 483c 0892 a13c 7017 83bd
00000100: de7b 3dbd e37f 523c bfe2 cc3c 0327 dd3b
00000110: 69ea 9dbc 2b27 d0bc cbe7 103d d739 22bc
00000120: 6d71 6bbd d20c 413d 6355 56bc ad0f 53bd
00000130: 13ae 003d 050d 39bd 8d1f f4bc 1f8c 79bb
00000140: 8288 5fbc 1a0c 3abd ac16 72bd e2af acbb
00000150: bc46 cd3c ddbd 6e3d c137 a43c e1ba 4c3d
00000160: 6347 913c 5335 52bc 6dc2 41ba 3025 13bd
00000170: 67d2 083c 3d29 1abc de42 a2bd 9c82 a13c
00000180: 05e8 bfb9 69a2 e2bc 7734 d6bc 0eb0 a03c
00000190: 6577 b7bc a621 1e3d 7628 90bb f135 19bd
000001a0: 6f8d bebb 499c 9ebc c1c8 aebc e953 783d
000001b0: d64a 143c d305 23bd 14a1 193c 243d aebc
000001c0: 68b4 173d ac82 00bd 079c b93d adba 2e3c
000001d0: 4f76 b7bc 4a56 1abd 5524 41bb 12d8 df3d
000001e0: 213e 663d e076 80bc 85b7 cebc 735a 183b
000001f0: 1f42 4abd d6ea c53d 3f54 a7bb 36bd 523c
0.018124023 0.052400593 -0.030924013 0.12046471 0.021505892 -0.02487714 -0.019052368 -0.0193973
0.038276833 0.007126986 -0.010089083 -0.07222359 -0.06812634 0.070631 0.047155555 0.0020294983
0.0018819963 -0.04928097 0.0060455007 -0.037161257 0.013454467 0.01159813 -0.07093036 0.0092959795
0.025491651 0.001391092 0.024810584 -0.03670299 0.0009752544 0.09636218 -0.022792768 0.008586298
0.04373169 -0.0047182767 -0.004206583 0.018930946 0.07242757 0.013195827 0.005272607 0.005429368
-0.02404858 -0.002325316 -0.01657913 -0.0637377 -0.009392553 -0.0031134756 0.0048215953 -0.015381257
-0.03170034 -0.052272838 -0.016489707 -0.049343362 0.019039912 0.06403855 -0.057128727 0.030013015
-0.001385846 -0.07361461 0.059677005 0.035286754 -0.008714097 0.012213764 0.019722953 -0.06400955
-0.046260707 0.012847873 0.025010465 0.0067490353 -0.019276815 -0.025409302 0.035377305 -0.009901485
-0.057481218 0.047131367 -0.013081881 -0.05152862 0.03141601 -0.045178432 -0.0298002 -0.0038077903
-0.013643386 -0.045421697 -0.059103653 -0.0052699903 0.025058143 0.058286536 0.020046117 0.04998291
0.017734235 -0.012830096 -0.00073913374 -0.035924137 0.008350945 -0.009409246 -0.0792291 0.0197156
-0.00036603227 -0.027665334 -0.026148064 0.0196152 -0.022395799 0.03860631 -0.0043993546 -0.03740496
-0.0058152 -0.019361632 -0.021335961 0.060626898 0.009051045 -0.039800476 0.009376783 -0.021269388
0.037037283 -0.03137462 0.09062963 0.010664624 -0.022395281 -0.037679948 -0.0029471118 0.10929884
0.056211594 -0.015681684 -0.025233993 0.0023247271 -0.049379464 0.09663932 -0.0051064785 0.012862494

fc2.weight f4 [64, 128]
00000000: 9bb0 2bbd 10e3 8a3d f31c 44bd 8159 a9bd
00000010: 8989 fcbc b588 df3c d2bc 633d 9526 60bc
00000020: b1ce 8f3d f489 f0bc f544 073d c5f3 3e3d
00000030: ac01 79bd 2f0f 4ebd 62e3 cdbb 605e 91bd
00000040: 2164 793d 2a47 b1bc 9f34 3dbd 622a f03d
00000050: f33c ccbd 6cba 0abd 90db 27bd dc95 2cbd
00000060: 0d4d 4ebd 33e6 043c 5efe 81bd 88d7 38bc
00000070: 77bf dc3d c961 6cbc 9a04 88bc 282c bcbc
00000080: 7acb 09bd 3368 3fbc c081 85bc 8301 593d
00000090: 52e6 d8bc 2eb7 d43d 14d3 83bc 10b1 fe3d
000000a0: 1729 c3bb aed2 abbc 1420 bf3d 2017 353d
000000b0: 3dc2 3e3d e7c9 a63d 5e31 bc3d 9351 42bc
000000c0: 5a0f 3a3d 7763 47bc 4497 453d e110 4dbd
000000d0: 4be8 1bba 769f eebc 0a1f 903d 45e8 70bd
000000e0: 6b38 0fbd e236 8f3d a970 f73d 7f39 a2bd
000000f0: 6c47 86bd b92c e23d 5d3b 633d 0742 1e3d
00000100: 3168 9d3d 262e b53d 6976 85bb 136e e3bc
00000110: ce66 473d 9b5f 883c 7058 3c3d 8089 72bc
00000120: 0ceb 70b9 b07d cbbc 80f7 9f3d d536 feba
00000130: 0e71 5e3d 02e0 a13c 9237 993d 50db ab3d
00000140: 0389 9a3c 6a68 203c 59bf 19bd c0af 3e3d
00000150: 6e41 09bd 8fe1 1ebd 8077 c03d d036 87bd
00000160: 8f5d e0bb 3615 203d 97cf 273c 3929 5e3d
00000170: 2fc8 7abc 33c1 b73c 8dfb 5ebd bb37 4ebd
00000180: 64ad 0dbd 99f4 42bb ebe3 0dbd 67ed e8bd
00000190: ae72 973d 4a44 b63d 9f9e 7dbc ae86 13bc
000001a0: cc38 b4bc 9a4d a53d e948 5e3d b7f2 01bd
000001b0: 913f 07bc 81ff bfbc ee99 903c f133 9f3c
000001c0: bad8 433c 4b51 8139 0797 013e c324 e23d
000001d0: 6fa3 8d3b 96f9 063d 38c4 4a3d ba34 0fbd
000001e0: 2503 c3bd c76d 4b3d c3ba 42bd 7cbd db3d
000001f0: a0a1 3dbc 8051 073e 7b3e 023d 2b3e ac3d
00000200: b239 943d 7c01 ce3d 8330 b23c 45fb aa3d
00000210: ac93 a43b e5e8 4d3d 97d6 4a3d 8388 71bd
00000220: 4385 cebd 5366 d33d ce91 56bd 7530 96bb
00000230: f609 ae3c 1a95 17bc 3a17 c4bd 6daf 30bb
00000240: 4041 363d 0cc5 18bd e66f 98bb fc36 0ebc
00000250: 9d82 ab3d d73e a8bc 0ac7 973c 672e 053d
00000260: f3fd 9b3d ac9d a93d e29f ce3c 952d 18bd
00000270: dbaa 79bd 3ec1 a53d 6d8a 42bd bf52 44bd
00000280: 7c17 e3bc 50d1 233d 6907 40bc 7e4a 92bd
00000290: da00 a9bc b726 a0bc f48a 65bd f84d aa3c
000002a0: 63ee ae3d ff2a 99bb d29f 8dbd 1289 9b3c
000002b0: aa88 943d 044e 9ebc 3c67 a2bd be7d 85bc
000002c0: 3cb5 8cbc 5459 83bc 4c17 b43d 146f b53c
000002d0: a9ec 3fbc c5ce 943d 41ea 9d3d c2b7 6b3d
000002e0: b0a4 a8bd 6c41 84bc 2f3b 6dbd 9fba a13d
000002f0: 4214 6ebc 78ce 35bd 0e7e 19bd dd2a 663d
00000300: 0710 a5bd b36b 1ebd 485b 173d 4b1e 333d
00000310: 6ed1 bebc d66d 97bd 297f 953d 5d7c cd3c
00000320: de4f b93d 4a55 b2bc ce7c f0bc 8415 f03d
00000330: 5b29 58bd 2167 ccbc f7a9 e23d c0a2 6c3d
00000340: 08c8 6a3d f481 69bd 96a2 15ba 215d 1e3d
00000350: ef89 c13b be2e 943c 27b5 4fbd 1721 e13d
00000360: 42db c83b e98b a6bc 436f 943b 79ea 4a3c
00000370: de84 773a dc4f 18bd 435f efbc 03b9 69bd
00000380: 7766 24bd d00c 0f3d 2f5b 693d 3872 dd3c
00000390: bb5e ad3d f453 773c dc8d a33d 0dd9 b3bc
000003a0: ca23 a43d 3d24 efbc cbd0 543b 6107 be3d
000003b0: 3998 2abc b35b 923d dc0b d1bc da77 1f3a
000003c0: 19c0 1d3d 5ea8 5bbd 7ad0 db3c 151a 0cbd
000003d0: 0358 0a3d 8ede b23d 4c42 53bd b2d2 923d
000003e0: 2f0b 13bd 530d 9dbd 6bbd 633c b6a9 52bd
000003f0: 1a12 713d 8c5d 42bd a678 223d 245e a6bb
-0.04191647 0.0678159 -0.04787917 -0.08269025 -0.0308273 0.027286867 0.055599995 -0.013681074
0.07021845 -0.029362656 0.033024747 0.046619195 -0.06079261 -0.05030745 -0.0062832097 -0.07098079
0.060886506 -0.021640379 -0.04619276 0.11726834 -0.09972563 -0.033869192 -0.040980875 -0.042135105
-0.05036645 0.008111524 -0.06347345 -0.011281855 0.107787065 -0.014427611 -0.016603757 -0.022970274
-0.033641316 -0.011682558 -0.016297221 0.052979957 -0.026477013 0.10386501 -0.01609186 0.12436116
-0.005955826 -0.020974483 0.0933229 0.044211507 0.04657196 0.081439786 0.091891035 -0.011860269
0.045424797 -0.01216971 0.04823996 -0.050064925 -0.0005947395 -0.029128771 0.0703717 -0.05881526
-0.034965914 0.0699289 0.12082035 -0.07921123 -0.065565914 0.110436864 0.055476535 0.038637187
0.076858886 0.08846693 -0.0040729535 -0.027762448 0.048682027 0.01664715 0.045982778 -0.01480329
-0.00022975745 -0.024840206 0.07810879 -0.0019395003 0.054307036 0.019760136 0.07481302 0.0839144
0.01886416 0.009790519 -0.037536 0.046554327 -0.033509664 -0.03878933 0.09397793 -0.066022515
-0.0068470906 0.03908273 0.010242364 0.05423853 -0.015306517 0.022430992 -0.054439116 -0.050346117
-0.034589186 -0.0029747842 -0.034641188 -0.11373406 0.0739492 0.08899744 -0.015479713 -0.009004278
-0.02199974 0.08071442 0.05426875 -0.03172561 -0.0082549015 -0.023437263 0.017651524 0.019433947
0.011953527 0.00024665365 0.12655269 0.11042168 0.0043224613 0.032952867 0.049503535 -0.034962393
-0.09522084 0.04966524 -0.04754139 0.10729501 -0.011574179 0.13214684 0.031797867 0.08410295
0.07237567 0.10058877 0.021751648 0.08348707 0.0050224867 0.050270934 0.049521055 -0.05896808
-0.100840114 0.10322251 -0.052385144 -0.0045834132 0.021244984 -0.009251857 -0.095747426 -0.002696003
0.04449582 -0.037297294 -0.004652011 -0.0086801015 0.08374522 -0.020537777 0.018527526 0.032514956
0.07616796 0.08282027 0.025222722 -0.037152845 -0.060953956 0.08093499 -0.047495294 -0.047930475
-0.02772116 0.039994538 -0.011720517 -0.071431145 -0.020630289 -0.01954971 -0.05604072 0.020789132
0.085415624 -0.004674315 -0.06915249 0.018986259 0.07252629 -0.01932431 -0.07929847 -0.01629531
-0.017176263 -0.016033806 0.08793506 0.022147693 -0.011714139 0.07266001 0.07710696 0.057548292
-0.08234537 -0.016144477 -0.05791777 0.07896923 -0.014531197 -0.044386357 -0.03747373 0.05619322
-0.080596976 -0.03867693 0.036952287 0.04373006 -0.023293223 -0.073939964 0.072996445 0.025083715
0.090484366 -0.021769185 -0.029356387 0.11722854 -0.052773815 -0.02495152 0.110675745 0.057772398
0.05731967 -0.0570087 -0.0005708126 0.038663033 0.0059063355 0.018088695 -0.05070987 0.109926395
0.006129653 -0.020330386 0.004529865 0.012385004 0.0009442101 -0.037185535 -0.029220229 -0.057061207
-0.04013678 0.03492433 0.056971725 0.027032003 0.08465334 0.0150957 0.07986042 -0.021954084
0.08014639 -0.029192084 0.0032473083 0.09278751 -0.010412269 0.071463965 -0.02551835 0.0006083228
0.038513277 -0.053627364 0.026832808 -0.03420456 0.03377534 0.08733855 -0.051576898 0.07169093
-0.035899337 -0.07668557 0.013900141 -0.05143138 0.058855154 -0.047452495 0.03966584 -0.0050771404

fc2.bias f4 [64]
00000000: d471 983d 275a 853d 8356 25bd 19f9 9e3d
00000010: 6df2 9f3b 563a 0a3d 4a0c 7c3a 9f0e 1bbd
00000020: 85a6 5a3d f2a1 5cbd 1d4b 1dbd 5aca dcbc
00000030: 60ca 1e3d 7461 16bc 80bd 27bc 9f82 abbd
00000040: b979 1f3b 1a28 1abd 8c4d 08bc fb39 d93c
00000050: 980b 253d de99 3c3d 5035 d43d fd01 013d
00000060: c132 3cbd b775 66bc 4066 8c3c 0931 80bd
00000070: 247a 2d3d fe97 833d 96c3 583d 076e 3f3d
00000080: 2030 3c3d 3d08 ecbc c4a5 a23d abbe 683d
00000090: 58fa 78bd 3b6b 743d ff41 a63d d8ad 903d
000000a0: ca27 8c3b 65dc 8e3d f54a 50bd d128 8fbd
000000b0: 7606 de3c a8c5 e0bc 166e 06bd 44f4 423d
000000c0: 9eb5 f33c 3615 603c 1875 a9bd 4699 723c
000000d0: 0538 983d 573b 8abc a0da a5bc c804 1d3d
000000e0: 4bdd 40bd fc74 a43d 4ec1 463b 7747 29bd
000000f0: f7a8 f23c 1355 13bd 61df 483d 5be6 cbbc
0.07443586 0.06511336 -0.040365707 0.07762355 0.0048811943 0.03374704 0.00096148683 -0.03785574
0.05338146 -0.05386538 -0.03840171 -0.026951957 0.03876722 -0.009178508 -0.010238051 -0.08374523
0.0024334027 -0.0376359 -0.00831927 0.026516905 0.04029426 0.046045177 0.10361731 0.031496037
-0.04594684 -0.014066151 0.0171386 -0.06259353 0.04235281 0.064254746 0.0529209 0.04673579
0.045944333 -0.028812522 0.079417735 0.05682246 -0.06078562 0.059672575 0.081180565 0.07064408
0.004277204 0.06975631 -0.050852735 -0.06990207 0.02710269 -0.027438 -0.03281983 0.04759623
0.029749688 0.013676932 -0.08274287 0.014807051 0.0743256 -0.016873999 -0.02024585 0.038334638
-0.04708604 0.080301255 0.003032762 -0.04132792 0.029621584 -0.035969805 0.049041156 -0.024890115

norm2.weight f4 [64]
00000000: 549f 793f 2fff 723f 2799 803f 37e5 693f
00000010: 7e82 813f 1804 7b3f cbe6 6b3f 096b 673f
00000020: 93d8 673f 77e5 803f e743 663f de6d 803f
00000030: 46e3 733f 2019 6f3f ce5a 723f c7cf 683f
00000040: 4ef2 723f 0e18 713f edc5 703f ed9e 6c3f
00000050: 5933 623f 40c2 723f fccb 703f 3324 7c3f
00000060: b3ee 6a3f 6b54 6f3f f16d 693f e3f7 6a3f
00000070: df44 6b3f f58c 6b3f d4c6 803f 4db5 603f
00000080: e95d 633f f69f 863f 75ae 653f a923 743f
00000090: 040d 673f b699 753f 6b35 703f d628 6e3f
000000a0: ed7b 753f a95c 743f e0b3 6a3f 2761 733f
000000b0: e74a 823f e660 773f 4206 673f 7bbc 713f
000000c0: 1abf 663f d424 703f 9899 6d3f 089e 733f
000000d0: 4c75 673f f2fa 803f 3c87 763f 71b0 623f
000000e0: 7f53 7f3f c670 623f fea8 693f 7ea5 693f
000000f0: bd1a 703f e5be 6c3f dd56 743f 2e48 7c3f
0.9750874 0.9492063 1.0046738 0.9136538 1.0117948 0.9805312 0.9214904 0.903977
0.9056484 1.0070027 0.8994736 1.0033529 0.95268667 0.9339771 0.94669807 0.90942043
0.9490098 0.9417733 0.9405201 0.9243 0.883596 0.9482765 0.94061255 0.98492736
0.91770476 0.93488187 0.9118338 0.91784495 0.91901964 0.9201196 1.0060678 0.87776643
0.8881517 1.0517566 0.89719325 0.95366913 0.90254235 0.9593767 0.9383151 0.9303106
0.9589222 0.9545389 0.9168072 0.9507012 1.0179108 0.9663223 0.90243924 0.94428223
0.9013535 0.93806195 0.9281249 0.9516301 0.90413356 1.0076582 0.963001 0.8855048
0.9973678 0.8845333 0.91273487 0.91268146 0.937908 0.9247878 0.9544504 0.9854764

norm2.bias f4 [64]
00000000: 37fb cb3c dba6 193c c16b 163c ae33 1bbd
00000010: 8dbc 803c 9e7d 013d 830b 94bc 6568 a7bc
00000020: 7ea2 95bd 0644 a03c 20fc 00bd 9f1d 0b3d
00000030: cf42 33bb 66fb 583c 8c2f d2bb cc2f d2bc
00000040: dc5e 85bc 2ee8 58bc fb79 853a b0cc b6bc
00000050: a265 42bd c47a d83a 3064 8a3b 2add 073d
00000060: bc0e f2bc 1305 173c e0a5 9dbb 5e96 c9bc
00000070: 7b27 03bc 628a ffbc 51fb ca3c 1aad 5dbd
00000080: 7ff3 98bd 8cfb 013d c58f 3fbd dcbd 6a3c
00000090: b8f3 05bc 84a1 c33c 579f dc3b 35cf b0bb
000000a0: ba05 0a3c e513 353b 8001 3dbc e663 90ba
000000b0: a234 0f3d 8523 243c 1cbb acbc 208a a33c
000000c0: d357 38bd 34b7 823c 8cd2 0bbd 0f11 e4bb
000000d0: ade4 03bd 1a25 9d3b 7887 b13c c90f ecbc
000000e0: 73bc ea3c 3289 6cbd 7926 2ebd ad8b efbc
000000f0: 0737 0b3c fea8 91bc dcef 51bc 840d 923c
0.024900062 0.00937816 0.009180964 -0.037891082 0.015714908 0.03161394 -0.018071895 -0.020435521
-0.073063836 0.019563686 -0.031490445 0.033963796 -0.0027353053 0.013243532 -0.0064143594 -0.025657557
-0.016280584 -0.01323895 0.0010183448 -0.0223144 -0.047460206 0.0016516079 0.004223369 0.033169903
-0.029548042 0.009217518 -0.0048110336 -0.024607833 -0.008005018 -0.031193916 0.02477804 -0.05412016
-0.07468318 0.031734034 -0.04676797 0.014327493 -0.008175783 0.023880728 0.006732862 -0.0053957948
0.008424217 0.0027630266 -0.011536002 -0.00110161 0.034962304 0.010018234 -0.021085314 0.019963324
-0.04500563 0.015956499 -0.03413634 -0.0069600414 -0.032200504 0.0047956826 0.021671042 -0.02881612
0.028654313 -0.057748027 -0.04251716 -0.029241407 0.008497006 -0.017780777 -0.012813535 0.01782871

fc3.weight f4 [32, 64]
00000000: 9dcc 89bd a825 fdbc be91 95bd 5b22 acbd
00000010: 9cf9 a0bd adb3 74bd cbac b53d 70b5 2a3d
00000020: 37a0 7abd 85ff a1bd 22de 943d 58c0 82bd
00000030: afec dabd 6ece 5f3c 3f9a 473b d608 9cbc
00000040: 8ad0 dfb6 63df 20bd 4b21 8ebd b5fe 913d
00000050: ab45 863d c3b8 58bd 69d7 e3bc fe5b fdbd
00000060: 8ab2 a93d 2b03 57bd 0f52 a43c 6a55 91bd
00000070: 2851 753c ccae 863d 37d3 c5bd 1c0b 873d
00000080: c5ec 193b 1aba bebd b10e 0fbd 1efb b6bd
00000090: 750e 47bd cedc 00bd f909 90bd ba4c 9cbd
000000a0: 66af 62bd b81e 87bd 2a2e 7cbd fc67 41bd
000000b0: 5b44 5abd c694 3ebd 7b26 7fbd 8989 abbc
000000c0: aee2 92bd 3538 87bd 9ded 20bc a42d f33b
000000d0: 936f a93c f232 febd 6767 92bd 4544 023d
000000e0: 6b09 9ebd 86f8 f43c 5b6e 703c b3de 953d
000000f0: 0fe8 8dbd 2156 ec3c e41d aabd 847b 9ebd
00000100: 40b1 1cbd 6869 893a ddc2 a7bd 20d4 a3bd
00000110: 09c7 613d 0da2 b3bd e95d 1ebc cb06 a13a
00000120: a2fa f43b 8ffd b43d 7611 1e3d e96d 85bd
00000130: bbc9 a8bd 6dd6 0cbd e82b 46bd 99f6 d2bd
00000140: e45f 3d3d 6bd0 5d3c 66ec 25bd 4d0f bbbd
00000150: 2339 3abc 6f1e f8bd e2ce 03bd aabc 313e
00000160: 98b7 b7bc 2945 0a3e 1e75 6b3d e877 753c
00000170: 26ba bdbd 8b49 473d e2e8 c1bc f26d 1abd
00000180: 0391 6abd 2f23 c5bd 3e24 0abd 50f6 68bd
00000190: d4ff 5f3d 5f42 b0bd 6dc3 e03c 20fa d53d
000001a0: c1c1 9ebc aff4 eb3d eded 66bd 039d f83d
000001b0: 1893 88bd 4c31 82bd 2339 3b3d ea5f bcbd
000001c0: e720 54bd 8b01 9cbd c85c 843d 46ff b63c
000001d0: d0ea 203d f3c2 d93c 8a9d ddbd 21c8 b6bc
000001e0: c2a0 c43d cef2 8abd 2011 02be eebf afbd
000001f0: 4464 a4bd ea0c 233c e8f7 c93d 4586 543d
00000200: 32c5 ff3d 04fb 0dbb de9c 253d bc20 e33d
00000210: e250 c9bd 9b10 f73d be58 4c3d deb7 b03c
00000220: 2c9e 5a3c efed e8bd 989e 433d 186c 2d3d
00000230: bf76 43bd 22ea 6abd f703 c7bc 5e02 3d3d
00000240: 81fd 04bc ae58 56bc d3d0 14be 08c1 8dbd
00000250: 3370 173c 30b7 cf3d 4a70 a4bd a7d2 c5bd
00000260: 1076 ecbc a5af eaba 83ae 2d3d c695 5d3d
00000270: a79c 873d cd44 123d 2fad a53d 7e2d 393d
00000280: 4b61 0d3c 88e7 863d 9303 c83c 0c86 2b3d
00000290: cef2 21be 7774 df3c 5d2a b2bb bfd4 e0bb
000002a0: a96a 733d accf 7fbd 3de4 b8bd 937a 19bc
000002b0: a1b2 503d 20c4 663d e067 67bd f3f7 8dbd
000002c0: 9c6e 50bd 2355 ff3c 30fd 84bd e13c a2bd
000002d0: 2450 b93d e9ee 91bd 4397 e03d 41c5 c53d
000002e0: 8f3b aebd 434c 473d 45d7 a6bc 1c3f c2bd
000002f0: 051a 233d ffdc 8dbc 28a4 c8bd fd50 efbd
00000300: d05c bfbd 478e 693c cfc0 a1bd edf0 ef3c
00000310: 8c99 ca3d 764c 0abd 3610 523d 22ad 86bd
00000320: 02b3 2c3d b074 aa3c f9b2 aabd b5c1 82bd
00000330: 063c cfbd 70f2 0a3e 0999 8ebd 37cb c73b
00000340: d134 4f3d 4ec6 8f3d a234 363b 2fcc a33d
00000350: 405b 283d 39b1 433c 9e3c 0ebd 223a 243d
00000360: 1b8c 57bd fb63 c43b da36 6f3d ef21 eebc
00000370: 04c1 d5bc 16da 7d3c 3956 e8bd 914b c03c
00000380: f17f d3bb 7a05 ccbd 777a a1bd 940a 92bd
00000390: 3920 82bc 7911 c9bd dd3c 963c 72c1 0e3d
000003a0: 0ed8 9dbd f123 a4bb 69d8 1b3c 773a b83c
000003b0: b064 7ebd f2c0 aabd 4939 be3c 3ebe fc3d
000003c0: 2963 b43b 379d c0bc 0859 af3c 3f87 9c3d
000003d0: d868 b9ba 1d77 473d 1db9 d7bc e06f b6bd
000003e0: d307 0f3d 3e92 d93c c5f8 bf3c 963b 333d
000003f0: 686f 80bd 891f 1abd 72a6 823d a017 113e
-0.0672848 -0.030901745 -0.07303189 -0.0840499 -0.07860109 -0.059741665 0.08870848 0.04167694
-0.06118795 -0.079100646 0.07268931 -0.06384343 -0.10689675 0.0136600565 0.0030456928 -0.019047182
-6.670195e-06 -0.03927554 -0.06939944 0.0712866 0.06556257 -0.052910578 -0.027812677 -0.12371062
0.08286007 -0.052493256 0.02005866 -0.070963696 0.014972962 0.065763086 -0.09659427 0.06593916
0.0023487073 -0.0931284 -0.03492612 -0.089346156 -0.04859777 -0.031460576 -0.07033152 -0.07631822
-0.055343054 -0.06597656 -0.061567463 -0.047218308 -0.053287845 -0.0465286 -0.062292557 -0.020939605
-0.07172142 -0.066025175 -0.009822276 0.0074212123 0.020683086 -0.12412061 -0.07148629 0.03180339
-0.0771664 0.029903661 0.014674748 0.07317867 -0.06929027 0.028849663 -0.083064824 -0.077384025
-0.038254976 0.0010483684 -0.08191464 -0.07999444 0.055121455 -0.08771143 -0.009665945 0.001228535
0.007476167 0.08837425 0.03859087 -0.06515104 -0.08241602 -0.03438418 -0.048381716 -0.10300941
0.046234027 0.01353846 -0.04050865 -0.09133778 -0.0113661615 -0.1211518 -0.03217972 0.17357126
-0.022426412 0.13502945 0.05748474 0.014982201 -0.092640206 0.04865412 -0.023670617 -0.03770251
-0.0572672 -0.09625851 -0.03372597 -0.056875527 0.054687336 -0.08606409 0.027436936 0.10448098
-0.019379498 0.11521279 -0.056379247 0.121393226 -0.06668681 -0.06357059 0.045708787 -0.09197982
-0.05178919 -0.07617482 0.06463009 0.02233852 0.039286435 0.026582217 -0.10821064 -0.022312226
0.096009746 -0.067845926 -0.12701845 -0.085815296 -0.08026937 0.009951809 0.098617375 0.051885862
0.12488784 -0.002166451 0.040432803 0.11090228 -0.0982988 0.12063714 0.04988932 0.02157205
0.013343375 -0.11373507 0.04775867 0.042339414 -0.047720667 -0.057352193 -0.024293883 0.046144836
-0.008117081 -0.013082666 -0.14532785 -0.069215834 0.009243059 0.10142362 -0.0802923 -0.09659319
-0.02886489 -0.0017905129 0.042402755 0.054097913 0.06621676 0.035710145 0.08089673 0.0452094
0.0086291535 0.0658713 0.024415767 0.041875884 -0.15815279 0.027277214 -0.005437179 -0.006861299
0.05942789 -0.06245391 -0.09027908 -0.009367603 0.050951604 0.056339383 -0.056495547 -0.06932058
-0.050886735 0.031168526 -0.06493604 -0.07921768 0.09048489 -0.071256466 0.10966351 0.09656764
-0.08507454 0.048656713 -0.02036632 -0.094846934 0.039819736 -0.017317293 -0.09796935 -0.11685369
-0.093438745 0.014255113 -0.078981034 0.029289687 0.09892568 -0.033764325 0.05128499 -0.06575991
0.042162903 0.020807594 -0.083349176 -0.06384603 -0.101188704 0.13569045 -0.06962783 0.006097223
0.05058748 0.070202455 0.0027802368 0.07997929 0.041102648 0.011944109 -0.034725778 0.040094502
-0.05262385 0.005993364 0.05840192 -0.029068915 -0.026093014 0.01549389 -0.11344571 0.023473533
-0.006454461 -0.09961982 -0.078846864 -0.07130924 -0.015884506 -0.09817786 0.018339569 0.034852453
-0.07707225 -0.0050091674 0.009512045 0.022488816 -0.06210774 -0.08337583 0.023220675 0.12340973
0.005504985 -0.023512466 0.021404758 0.07642984 -0.0014145626 0.04869758 -0.026333386 -0.08908057
0.03491957 0.026558992 0.023434052 0.043757997 -0.06271249 -0.03762773 0.06379403 0.14169168

fc3.bias f4 [32]
00000000: c72c ebbd c689 8b3c 7be9 cb3c 9e69 6c3d
00000010: a41f 1ebd 3523 803d 1a7c de3d 4251 53bd
00000020: e8fc c23d fc6e 563c 6663 1d3e a387 e73d
00000030: e8cd 0b3d fddb aeba ac70 043e 6a00 003e
00000040: c4d5 44bd ed2d 01be a719 9fbd 1379 173d
00000050: ed68 e1bd 3dcb 593d 76ea 463d 1058 553d
00000060: 10e4 24be 356f 4dbd d93e 813d 3287 1bbe
00000070: be57 143e 11c8 90bd 15f2 e1bd c937 2b3d
-0.1148315 0.017033469 0.024891606 0.057717912 -0.038604394 0.06256715 0.10863514 -0.051591165
0.09520894 0.013087984 0.15369949 0.113051675 0.034131914 -0.0013340708 0.12933606 0.12500158
-0.048055425 -0.12615176 -0.07768565 0.0369807 -0.11006341 0.05317234 0.048563443 0.052085936
-0.16102624 -0.050154883 0.06310815 -0.15188292 0.14486596 -0.0706941 -0.110325016 0.041801248

norm3.weight f4 [32]
00000000: 7c9c 7c3f e39d c23f 6e0f d33f fbeb da3f
00000010: 0665 e23f 5775 c53f 601f e03f f833 723f
00000020: 4b0f dc3f f4bf dd3f 8113 cb3f 5540 e53f
00000030: 14e3 803f c179 cf3f 82a6 cd3f 451d c13f
00000040: 9db3 e43f 78ca 743f 8876 7c3f cf40 c73f
00000050: 153b 763f e618 7a3f 5f96 733f 2403 763f
00000060: 6f9e 763f c8d9 733f 4a58 cb3f 05f6 773f
00000070: fc2c d13f 5d70 db3f 1392 733f a86c d63f
0.98676276 1.5204433 1.6489084 1.7103266 1.768708 1.5426434 1.7509575 0.9461055
1.7192167 1.7324204 1.5865327 1.7910258 1.0069299 1.6209031 1.6066439 1.5087057
1.7867314 0.9562144 0.98618364 1.5566653 0.961839 0.9769424 0.95151323 0.9609854
0.963355 0.9525418 1.5886319 0.9685977 1.6341853 1.7143666 0.95144767 1.6751909

norm3.bias f4 [32]
00000000: 4d8b 933d a3cf cf3e 73e3 1b3f 704d 1b3f
00000010: 388d 1a3f 3465 ff3e 762e f23e c9af 0fbc
00000020: 1ff2 093f 50b7 0a3f 89ec f43e 6cb8 1b3f
00000030: 1040 c73d ef55 103f 4ab8 f83e c694 ee3e
00000040: 7f69 103f 42d7 033c 0755 4d3d 2881 f03e
00000050: b5f9 513b c4da 2f3d 53c4 51bb 0999 273c
00000060: 73ce d93c 2dc1 843a 6e23 e93e c055 e23c
00000070: c1ee 073f e042 0a3f 3340 81ba b1c1 093f
0.07204304 0.40588102 0.60893935 0.60665035 0.6037173 0.498819 0.47301072 -0.008769938
0.5388507 0.5418596 0.47836712 0.6082828 0.09729016 0.56381124 0.485781 0.4659788
0.56410974 0.008046927 0.050129917 0.46973538 0.0032039706 0.04293324 -0.0032007887 0.0102293575
0.0265877 0.0010128372 0.45534843 0.02762878 0.53098685 0.54008293 -0.0009861052 0.53811175

fc4.weight f4 [1, 32]
00000000: 2423 a7bd 8133 26bf c404 2c3f 3981 1cbf
00000010: 990d 363f fdd3 26bf f0ac 49bf cf3e 563b
00000020: c0fd 3d3f ff6a 223f 41b8 24bf d805 45bf
00000030: 633a 823d 65ce 333f 9849 263f 538f 1ebf
00000040: abf3 17bf 1b65 a0bb cd01 363d 5a50 14bf
00000050: aec6 22bd b8ad 183d cd3f e8bb f083 9a3c
00000060: 9464 8cbd 0a06 7cbc 8039 313f 4f3d 5a3c
00000070: 17dd 2c3f 3b52 1cbf f7c8 a53c f5d5 383f
-0.081609994 -0.6492234 0.6719477 -0.6113468 0.711145 -0.6516722 -0.78779507 0.0032691245
0.74215317 0.63444513 -0.6434365 -0.7696204 0.06358793 0.7023681 0.64956045 -0.61937445
-0.5935618 -0.004894865 0.04443531 -0.57935107 -0.039740257 0.037275046 -0.007087684 0.01886174
-0.06855121 -0.015382299 0.69228363 0.013320281 0.67524856 -0.61062974 0.020237429 0.7220147
