models/best_big_small_model.pth (torch, 23856 bytes, 19 tensors)

fc1.weight f4 [64, 15]
-0.069035985 -0.18492956 -0.16830759 0.03153209 0.404186 0.11208607 0.1144901 -0.11624971
0.087426655 0.19000979 0.38965914 -0.28240186 0.016682604 -0.010462729 -0.15986249 0.07941706
-0.21008675 -0.13588828 -0.2005905 -0.045372885 0.03823183 -0.005020087 0.029555388 0.030061327
-0.01439362 -0.17063078 -0.21135925 -0.019744063 -0.074000165 0.20017642 0.21149643 -0.15834436
-0.021499243 -0.23700798 0.15227921 -0.03479013 0.16811241 0.060594685 -0.1933129 -0.02507646
0.07493784 -0.05493928 0.09435434 0.10664722 0.15265274 -0.1473173 0.15864617 0.092788376
0.0994951 0.22819377 0.009845153 0.33183563 0.14375414 -0.030125633 -0.16691343 -0.14511393
-0.16838412 0.10100147 0.10909339 -0.15145023 0.17577496 -0.20428927 -0.22147533 -0.084118694
-0.10056317 0.0022464646 -0.10612479 -0.059022855 -0.010994648 0.14858563 0.18359615 0.3071475
-0.06924936 0.03942353 0.18918668 0.11271886 0.038582575 -0.03813881 0.009967717 -0.22071433
-0.09228123 -0.24969605 0.09936842 0.10454694 -0.14814462 0.19013481 0.19047016 0.18305041
0.052057646 -0.27103963 0.042308133 0.24244036 -0.19495381 0.20959151 0.14902797 -0.07130179
0.10563086 0.004275674 -0.23785795 0.16296823 -0.24497673 0.13785625 -0.0005018932 -0.037844226
0.070565306 0.011391135 0.20373894 0.31969523 0.16212258 0.12776843 -0.049995895 0.08674614
-0.09718216 0.06136208 -0.06631945 -0.21765384 0.13960774 -0.034823515 0.06449367 0.027270805
-0.14726132 -0.2191957 -0.16092278 -0.27250788 -0.1950852 0.18789506 -0.14578472 -0.04806057
-0.004400912 -0.082688764 -0.21944115 -0.25026223 0.013705876 0.07125258 -0.11205494 0.018395843
-0.14957859 -0.289454 0.04053763 -0.14988889 0.071185544 -0.037833273 0.03787624 0.02057419
0.23151854 -0.17147626 -0.1986126 0.010747796 -0.054007832 0.007113778 -0.097905904 -0.09240833
-0.08016694 -0.09095199 -0.37990195 0.09916909 -0.10793004 -0.028056351 0.011777509 0.02286235
-0.14192429 -0.16900776 -0.015914487 -0.0017095212 -0.0054495535 -0.14658096 0.08360726 -0.13696289
-0.13341142 0.09350794 -0.15398727 0.3462827 0.14055829 -0.11846799 0.09215364 0.008391067
0.09056379 -0.1824921 -0.027409548 -0.20943128 0.027607545 -0.19354986 -0.11218233 0.025104528
-0.28586194 0.08624419 0.06534123 -0.09264447 0.14769863 0.16871297 -0.20015092 -0.23600978
-0.050596543 0.008983774 0.19559322 0.046128344 -0.15663414 -0.1038649 -0.20502082 -0.38781932
0.061302677 0.06772445 -0.013043832 0.021859897 -0.09410794 0.046176564 0.11497003 -0.045016624
0.04152381 -0.032716047 -0.063150965 0.09833275 -0.056275364 0.12422127 0.29760072 -0.1374766
0.16974948 0.05805548 -0.08420699 0.11161426 -0.28766578 0.15996793 -0.004054599 -0.040023234
-0.16164966 0.14295374 0.048229657 0.27490014 -0.00957088 0.5241583 -0.12005544 0.17883751
0.1359877 0.069936775 -0.11052054 0.079168424 -0.08854862 0.037908085 -0.20776981 0.15563501
0.1253916 0.3173721 0.22023481 0.264594 0.059054665 0.1450474 -0.06446772 -0.06802741
-0.044788018 0.12508959 0.028332343 -0.077171944 -0.070380785 -0.0790067 -0.09279935 0.106972635
00000000: bd62 8dbd 2d5e 3dbe d358 2cbe cb27 013d
00000010: 78f1 ce3e 628d e53d c979 ea3d 5414 eebd
00000020: bf0c b33d ed91 423e 6781 c73e fa96 90be
00000030: f5a9 883c de6b 2bbc feb2 23be 69a5 a23d
00000040: fb20 57be 4c26 0bbe 9967 4dbe ebd8 39bd
00000050: fb98 1c3d 8b7f a4bb 241e f23c 2c43 f63c
00000060: 38d3 6bbc d6b9 2ebe 8f6e 58be 4dbe a1bc
00000070: 668d 97bd 0cfb 4c3e 8592 583e 0625 22be
00000080: 2e1f b0bc 38b2 72be 15ef 1b3e 1880 0ebd
00000090: a925 2c3e 2232 783d d1f3 45be 266d cdbc
000000a0: 0379 993d 0308 61bd d93c c13d dc69 da3d
000000b0: 0051 1c3e 59da 16be 2474 223e d507 be3d
000000c0: 16c4 cb3d a1ab 693e 914d 213c 5ce6 a93e
000000d0: 4934 133e 08ca f6bc 5beb 2abe bf98 14be
000000e0: e36c 2cbe dcd9 ce3d 5b6c df3d c515 1bbe
000000f0: 5afe 333e 3531 51be 6eca 62be 6c46 acbd
00000100: 10f4 cdbd 6c39 133b f457 d9bd f3c1 71bd
00000110: e522 34bc d526 183e a100 3c3e 7042 9d3e
00000120: 9cd2 8dbd 917a 213d 27ba 413e 25d9 e63d
00000130: c308 1e3d 7137 1cbd a34f 233c f002 62be
00000140: f1fd bcbd 52b0 7fbe ac81 cb3d b51c d63d
00000150: 39b3 17be b3b2 423e 9c0a 433e 9171 3b3e
00000160: 663a 553d b5c5 8abe 4b4b 2d3d 4942 783e
00000170: f9a1 47be 289f 563e ca9a 183e ac06 92bd
00000180: fe54 d83d f41a 8c3b 0991 73be 25e1 263e
00000190: 2edb 7abe 302a 0d3e 7c91 03ba 8c02 1bbd
000001a0: 8b84 903d e2a1 3a3c f1a0 503e 18af a33e
000001b0: 7603 263e bad5 023e 7fc8 4cbd f6a7 b13d
000001c0: 7107 c7bd ce56 7b3d 7ed2 87bd a6e0 5ebe
000001d0: 55f5 0e3e 1aa3 0ebd 4215 843d 0667 df3c
000001e0: accb 16be d674 60be f1c8 24be 2786 8bbe
000001f0: 6ac4 47be 9067 403e 9748 15be 29db 44bd
00000200: 8735 90bb ba58 a9bd 2eb5 60be 5f22 80be
00000210: 9c8e 603c dfec 913d 0f7d e5bd e1b2 963c
00000220: 212b 19be 5133 94be c90a 263d 797c 19be
00000230: bac9 913d 10f7 1abd 1e24 1b3d 348b a83c
00000240: 3213 6d3e 7997 2fbe 1a61 4bbe 8617 303c
00000250: 5137 5dbd b21a e93b e482 c8bd 9440 bdbd
00000260: 912e a4bd 0945 babd 8282 c2be 2a19 cb3d
00000270: 6d0a ddbd 6fd6 e5bc 74f6 403c d349 bb3c
00000280: 9a54 11be 5f10 2dbe 195f 82bc 0312 e0ba
00000290: 2b92 b2bb 5219 16be 483a ab3d 0040 0cbe
000002a0: 019d 08be 1781 bf3d d7ae 1dbe f74b b13e
000002b0: 83ee 0f3e 589f f2bd 0cbb bc3d b07a 093c
000002c0: 8279 b93d 36df 3abe fd89 e0bc 2775 56be
000002d0: 3829 e23c ef31 46be d9bf e5bd 03a8 cd3c
000002e0: 7f5c 92be cba0 b03d 9fd1 853d 62bc bdbd
000002f0: 4f3e 173e 18c3 2c3e 5df4 4cbe 8cac 71be
00000300: 523e 4fbd ae30 133c 9749 483e 13f1 3c3d
00000310: b364 20be 1fb7 d4bd faf0 51be 4190 c6be
00000320: 8418 7b3d 1eb3 8a3d ccb5 55bc 8713 b33c
00000330: aabb c0bd a323 3d3d 6875 eb3d 5a63 38bd
00000340: df14 2a3d 4301 06bd 4b55 81bd ae62 c93d
00000350: ff80 66bd b967 fe3d 1f5f 983e aac6 0cbe
00000360: cfd2 2d3e 95cb 6d3d b774 acbd 0496 e43d
00000370: ee48 93be a2ce 233e 71dc 84bb 67ef 23bd
00000380: 7d87 25be 7762 123e 768c 453d b6bf 8c3e
00000390: 2ecf 1cbc 3d2f 063f a0df f5bd 2e21 373e
000003a0: 5c40 0b3e 033b 8f3d 9858 e2bd 0e23 a23d
000003b0: fb58 b5bd 8245 1b3d 9cc1 54be c95e 1f3e
000003c0: a866 003e 997e a23e 3c85 613e dd78 873e
000003d0: 4ee3 713d 4e87 143e a707 84bd f451 8bbd
000003e0: a473 37bd 7c17 003e 3b19 e83c 530c 9ebd
000003f0: cd23 90bd 44ce a1bd 960d bebd 7814 db3d

fc1.bias f4 [64]
0.22814319 0.24888523 0.038529284 0.14124805 -0.14461122 -0.24274112 0.04009183 0.0009805767
-0.039213717 0.17760599 -0.21357648 0.043867342 0.23015364 0.1029198 0.24049947 0.16681272
-0.20157237 -0.10685286 0.17666471 0.24402578 -0.09403277 0.15763897 -0.23752455 0.15879816
0.12797096 -0.15310168 -0.15542583 -0.02677188 0.030159563 -0.12745637 -0.039785996 -0.0021596393
0.06895437 -0.04798232 -0.20020992 -0.15177356 0.24513073 0.040897734 0.1923418 -0.024948696
-0.14844169 -0.08293853 -0.017917316 -0.112786256 -0.13757071 -0.21783225 0.14975774 0.16286407
-0.11595427 0.09897693 0.048790686 -0.18049438 -0.20813261 0.12764789 -0.054661725 0.092537574
0.22040457 0.063942574 0.1586411 0.01129613 0.20985934 0.016000312 0.04590139 -0.20254041
00000000: 5e9e 693e c5db 7e3e e2d0 1d3d 54a3 103e
00000010: f714 14be 2191 78be 5537 243d b286 803a
00000020: 909e 20bd 58de 353e cbb3 5abe 3eae 333d
00000030: 65ad 6b3e 9ec7 d23d 7e45 763e f4d0 2a3e
00000040: fd68 4ebe acd5 dabd 98e7 343e e5e1 793e
00000050: 4194 c0bd 1c6c 213e a339 73be fc9b 223e
00000060: d20a 033e b0c6 1cbe f327 1fbe b450 dbbc
00000070: 3011 f73c ec83 02be a4f6 22bd bc88 0dbb
00000080: f337 8d3d 1c89 44bd d403 4dbe 876a 1bbe
00000090: 8d03 7b3e 6284 273d 40f5 443e 3561 ccbc
000000a0: 1901 18be addb a9bd 56c7 92bc 7bfc e6bd
000000b0: 56df 0cbe 6b0f 5fbe 185a 193e d7c5 263e
000000c0: 6f79 edbd 6bb4 ca3d bed8 473d 85d3 38be
000000d0: b720 55be 21b6 023e f9e4 5fbd 5784 bd3d
000000e0: bcb1 613e 53f4 823d d072 223e 6713 393c
000000f0: 5ee5 563e 1613 833c 1903 3c3d c166 4fbe

bn1.weight f4 [64]
0.9347118 0.9063801 0.76229995 0.84681344 0.9525615 0.76557547 0.9724624 1.0298257
1.0479044 1.0193441 0.9594894 0.81888974 0.87914824 1.0223539 0.9945832 0.9716957
0.88618153 0.8578319 1.0718752 1.017261 1.0059767 0.89871347 0.85924506 0.988725
0.9145105 1.0901979 1.0460219 0.9377229 0.9344707 1.0323116 0.8792205 0.7827163
0.9460446 0.86743796 1.0639635 0.9004201 0.8465301 0.8484468 1.0290688 0.95936954
0.947505 0.99661875 1.0189335 1.0726489 0.99187833 0.9678118 0.98268235 0.8185797
0.9448754 0.8028031 1.1057626 1.0528487 1.0335648 1.0004977 0.79263306 0.99500096
0.7837331 1.0334998 0.8544695 1.0081044 0.7660229 1.14535 0.957506 1.0583844
00000000: 4649 6f3f 8708 683f 1726 433f c4c8 583f
00000010: 12db 733f c1fc 433f 4cf3 783f 54d1 833f
00000020: bb21 863f de79 823f 19a1 753f c2a2 513f
00000030: dc0f 613f 7edc 823f 019d 7e3f 0dc1 783f
00000040: cbdc 623f df9a 5b3f 3533 893f 9c35 823f
00000050: d8c3 803f 1612 663f 7cf7 5b3f 151d 7d3f
00000060: 5c1d 6a3f 9b8b 8b3f 0ce4 853f 9c0e 703f
00000070: 7939 6f3f c922 843f 9814 613f 1860 483f
00000080: fb2f 723f 6a10 5e3f f52f 883f ef81 663f
00000090: 32b6 583f cf33 593f 87b8 833f 3e99 753f
000000a0: b08f 723f 6822 7f3f 6a6c 823f 8f4c 893f
000000b0: bdeb 7d3f 84c2 773f 1291 7b3f 708e 513f
000000c0: 5be3 713f 8184 4d3f a189 8d3f bfc3 863f
000000d0: da4b 843f 4f10 803f 00ea 4a3f 62b8 7e3f
000000e0: bca2 483f b949 843f 83be 5a3f 9109 813f
000000f0: 141a 443f d49a 923f 1d1f 753f 2479 873f

bn1.bias f4 [64]
-0.064430766 -0.21863322 -0.1354764 -0.040810574 -0.046210553 -0.17354228 -0.26275095 -0.06271997
-0.19774067 -0.22758348 -0.08281271 -0.099479906 -0.20730881 0.013949913 -0.18405822 -0.017127387
-0.08493466 -0.16269702 -0.004416542 -0.026593875 -0.03271646 -0.0690898 -0.2205453 -0.13084967
-0.06653284 -0.05091989 0.029414719 -0.016664397 -0.0143188415 0.0019226236 -0.10473451 -0.19623615
-0.024458665 -0.055504985 0.02945483 -0.08197614 -0.108424544 -0.13504314 -0.03611751 -0.16569112
0.018314146 -0.10189432 -0.018566994 -0.023981174 -0.14938805 -0.019038646 -0.018818032 -0.075645745
-0.04916051 -0.12091976 0.03004297 -0.1548187 0.040173974 -0.020691926 -0.13391542 -0.049956493
-0.14542197 -0.012645063 -0.09799883 -0.045471724 -0.15674657 -0.048096422 -0.14890112 -0.023678249
00000000: 47f4 83bd 63e1 5fbe 53ba 0abe fd28 27bd
00000010: 4747 3dbd 11b5 31be 4b87 86be 5473 80bd
00000020: 887c 4abe a50b 69be b699 a9bd 1fbc cbbd
00000030: c348 54be 2d8e 643c c279 3cbe bc4e 8cbc
00000040: 39f2 adbd 0c9a 26be a4b8 90bb 66db d9bc
00000050: b201 06bd f47e 8dbd a1d6 61be 75fd 05be
00000060: 5f42 88bd 6091 50bd 23f7 f03c c683 88bc
00000070: 9399 6abc 8b00 fc3a 0c7f d6bd 21f2 48be
00000080: 8a5d c8bc 3259 63bd 414b f13c 1be3 a7bd
00000090: b00d debd c048 0abe f4ef 13bd efaa 29be
000000a0: 8c07 963c f8ad d0bd cf19 98bc 2b74 c4bc
000000b0: 2ef9 18be eff6 9bbc 4628 9abc 28ec 9abd
000000c0: 885c 49bd c7a4 f7bd ad1c f63c cb88 1ebe
000000d0: 778d 243d 1d82 a9bc 2021 09be 2e9f 4cbd
000000e0: 7fe9 14be 3d2d 4fbc 9cb3 c8bd 8f40 3abd
000000f0: 2c82 20be c100 45bd 8979 18be e3f8 c1bc

bn1.running_mean f4 [64]
0.17214422 0.28711426 0.0068133203 0.09413411 -0.13583723 -0.22861387 0.051622733 -0.0066691204
0.011637994 0.21999519 -0.16884623 0.015785063 0.26926368 0.126888 0.24965647 0.12195619
-0.2182114 -0.07356477 0.111552276 0.29698837 -0.07420666 0.18426067 -0.18930443 0.19318187
0.124766134 -0.2099621 -0.11895004 -0.06318813 -0.037920915 -0.11490499 -0.037445024 0.027013987
0.10648974 -0.05343074 -0.18707897 -0.1671642 0.26858667 0.07139659 0.19059777 -0.0028951345
-0.106602415 -0.09620714 -0.08775517 -0.1285474 -0.1012849 -0.2830284 0.09938315 0.18180153
-0.1369296 0.060567483 -0.011984333 -0.18226959 -0.17839043 0.15345193 -0.071955 0.025810003
0.20702858 0.010794442 0.19632137 -0.06273524 0.13649166 -0.040361796 0.035932068 -0.2590719
00000000: 9346 303e a400 933e 4642 df3b 62c9 c03d
00000010: ea18 0bbe c119 6abe 5c72 533d a388 dabb
00000020: 49ad 3e3c 6b46 613e 07e6 2cbe ad4f 813c
00000030: eedc 893e eeee 013e f2a5 7f3e 2bc4 f93d
00000040: cf72 5fbe 20a9 96bd 8575 e43d dc0e 983e
00000050: a9f9 97bd d4ae 3c3e 05d9 41be 78d1 453e
00000060: 6385 ff3d 4e00 57be 149c f3bd c768 81bd
00000070: f652 1bbd 4f53 ebbd f45f 19bd 704c dd3c
00000080: 4b17 da3d 31da 5abd a191 3fbe 182d 2bbe
00000090: 3184 893e 6038 923d 102c 433e 4cbc 3dbb
000000a0: 5e52 dabd 4008 c5bd fcb8 b3bd eea1 03be
000000b0: 756e cfbd 19e9 90be 6589 cb3d 2e2a 3a3e
000000c0: 4637 0cbe 9c15 783d f059 44bc e1a4 3abe
000000d0: fbab 36be 8122 1d3e 255d 93bd 806f d33c
000000e0: 4dff 533e 2cdb 303c 7808 493e 557b 80bd
000000f0: 78c4 0b3e 6952 25bd 812d 133d 12a5 84be

bn1.running_var f4 [64]
0.42516938 0.19194628 0.14840181 0.5408659 0.27916107 0.28213945 0.2114736 0.37663883
0.4145692 0.20031422 0.3197255 0.14038816 0.25251082 0.3649849 0.3262255 0.5199512
0.32594115 0.22147615 0.3531556 0.6073674 0.35802013 0.23904774 0.34879825 0.3438753
0.35713091 0.31408635 0.6301777 0.44741544 0.43190432 0.29816505 0.27951428 0.3811102
0.43686455 0.502131 0.24640888 0.41838065 0.38926095 0.38588652 0.34375146 0.35126716
0.35702875 0.24939276 0.4801695 0.5201961 0.1497765 0.43264732 0.25800332 0.44892228
0.20866959 0.21114114 0.44623578 0.25124907 0.4926424 0.2576956 0.536951 0.7044401
0.28272027 0.3826898 0.26822093 0.45742443 0.3838433 0.30884483 0.32086962 0.3618431
00000000: cdaf d93e 918d 443e a5f6 173e 3076 0a3f
00000010: 33ee 8e3e 9574 903e 898c 583e ced6 c03e
00000020: 6a42 d43e 2c1f 4d3e 10b3 a33e eac1 0f3e
00000030: 1949 813e 4ddf ba3e 0707 a73e 861b 053f
00000040: c2e1 a63e a5ca 623e d0d0 b43e 6e7c 1b3f
00000050: 6a4e b73e eec8 743e af95 b23e 6c10 b03e
00000060: ddd9 b63e edcf a03e 5353 213f a313 e53e
00000070: 9022 dd3e 17a9 983e 7f1c 8f3e e020 c33e
00000080: b6ac df3e a88b 003f 9c52 7c3e fd35 d63e
00000090: 364d c73e eb92 c53e 3100 b03e 4ad9 b33e
000000a0: 79cc b63e d160 7f3e c7d8 f53e 922b 053f
000000b0: 035f 193e f383 dd3e 0319 843e 24d9 e53e
000000c0: 7bad 553e 6235 583e 0479 e43e b8a3 803e
000000d0: a03b fc3e adf0 833e 9f75 093f 3056 343f
000000e0: b6c0 903e ebef c33e 4154 893e 8933 ea3e
000000f0: 1c87 c43e e920 9e3e 0649 a43e 8043 b93e

fc2.weight f4 [32, 64]
0.07656713 -0.028132299 -0.013379201 -0.015756577 -0.069843784 0.036678176 0.15899724 0.023876099
-0.12165459 -0.090063654 -0.042315017 -0.02025437 -0.11464796 -0.018572148 -0.0469437 0.010140286
-0.015514088 -0.12576506 0.07549107 -0.11076678 -0.14998773 -0.10864945 0.08969108 -0.15117437
-0.05475686 0.12952073 -0.12006672 0.036020834 -0.0035666893 -0.09944633 0.0030908152 0.06840759
-0.008412552 0.019816548 -0.06683666 -0.012223013 -0.07480068 -0.026689213 -0.06251918 0.05159518
-0.15838535 -0.018654108 -0.004809273 -0.027379777 -0.16083014 0.101404026 0.10472052 0.011197714
0.099812515 -0.0796888 -0.0072351624 0.074132025 -0.07920533 -0.10192445 0.06738746 0.15198894
-0.04849192 0.11170467 -0.007931714 0.09380259 -0.038570177 0.00980391 0.1365245 0.12989418
-0.048911728 0.028195053 -0.0024551975 0.05189663 -0.021949697 -0.001782242 -0.09325302 -0.02388597
0.09821181 0.008946463 -0.040636744 -0.06035137 0.054535225 0.14120294 -0.15145716 -0.031503025
-0.09534118 0.013818986 -0.11999772 0.019444251 -0.005744099 0.13678677 -0.11624019 0.08323189
0.052453425 -0.1319979 -0.018136797 0.017602814 -0.1460974 0.038544964 0.07425612 -0.029214012
-0.025544096 0.058358695 -0.040494833 -0.0056701917 0.029149067 0.08781376 0.07515142 0.005487672
0.052467287 -0.06908535 -0.13090098 -0.060972854 0.01974933 -0.03854396 -0.03996383 0.040360805
-0.100334704 0.035160895 -0.14915876 -0.12128727 0.014038723 0.02211628 -0.023367396 -0.065516874
0.006317403 -0.17068708 -0.005664549 -0.06057988 0.019454572 -0.20882063 -0.11152748 -0.19934256
-0.13194683 0.04450712 -0.11791264 0.0029990887 0.07099508 0.005240406 -0.1000767 -0.14657654
0.018722512 0.108146206 0.047727086 -0.050267387 -0.0025761563 0.089482725 -0.063248985 -0.04963741
0.011554734 -0.002758676 -0.1224518 0.01597148 0.10686715 -0.013896485 -0.122996315 0.050651137
0.0028236595 -0.07239171 0.04572434 -0.070132524 -0.13895059 -0.03047123 -0.01744873 -0.054194905
0.0563708 -0.0035443662 -0.037953258 -0.076276466 0.048873287 0.090880536 0.00567974 -0.18974079
0.09035975 -0.17353573 -0.023672296 0.0047839493 0.038675807 -0.09691852 0.005015242 0.031911265
0.026161253 -0.01645841 -0.15393648 -0.022253426 0.037093986 0.027654052 -0.0028039638 -0.10512438
0.05311482 -0.13262914 -0.06608637 -0.18068157 0.03904792 -0.10877372 -0.0038451466 -0.11717531
-0.17926191 -0.0080776485 0.035427094 -0.07950443 0.092839256 0.020515846 -0.13601457 -0.12195147
0.06483806 0.15648484 -0.0127875665 -0.103882916 0.10793877 0.03064107 -0.08370745 -0.07397024
0.042773653 0.10978253 -0.12339318 0.029520351 0.06661607 0.04657908 -0.09162521 0.035966206
0.10149797 -0.1565172 0.06593775 -0.021108376 -0.02213992 0.058780245 0.060484834 -0.03055392
-0.014673895 -0.05694273 0.08724933 -0.08093266 -0.020862935 0.07169878 -0.025612097 -0.029771833
0.12079872 -0.07824765 -0.115210414 -0.08090182 -0.025909994 -0.07547499 -0.12773266 0.016388759
-0.03606044 -0.013728786 -0.17679003 -0.10873602 0.046043433 0.065588735 -0.0313821 -0.084929936
0.056085203 -0.095903926 0.012926825 -0.17451409 0.074086145 -0.14837115 -0.09648762 -0.15325779
00000000: 3acf 9c3d b575 e6bc 7034 5bbc f013 81bc
00000010: 420a 8fbd db3b 163d 2cd0 223e cf97 c33c
00000020: 0b26 f9bd 4b73 b8bd 8352 2dbd 7eec a5bc
00000030: 8dcc eabd 9e24 98bc 0a48 40bd 7123 263c
00000040: cd2e 7ebc 8ec8 00be 109b 9a3d b2d9 e2bd
00000050: 6296 19be 9a83 debd f5af b73d 74cd 1abe
00000060: bb48 60bd 15a1 043e 8ae5 f5bd 958a 133d
00000070: 1ebf 69bb 84aa cbbd 468f 4a3b 4719 8c3d
00000080: cdd4 09bc 5056 a23c a9e1 88bd 0843 48bc
00000090: 1931 99bd 56a3 dabc 0e0a 80bd 7855 533d
000000a0: c52f 22be 80d0 98bc 1b97 9dbb 8e4b e0bc
000000b0: a8b0 24be eaac cf3d b677 d63d 9e76 373c
000000c0: 816a cc3d e233 a3bd f114 edbb 88d2 973d
000000d0: 6736 a2bd c4bd d0bd 7002 8a3d fda2 1b3e
000000e0: 779f 46bd 6bc5 e43d 05f4 01bc 931b c03d
000000f0: c3fb 1dbd 94a0 203c 14cd 0b3e fb02 053e
00000100: aa57 48bd 50f9 e63c 61e7 20bb 9091 543d
00000110: dacf b3bc 1e9a e9ba 70fb bebd 82ac c3bc
00000120: 4623 c93d 2f94 123c b772 26bd 0033 77bd
00000130: 5460 5f3d 8197 103e 9617 1bbe 5109 01bd
00000140: 3d42 c3bd 0769 623c 5dc1 f5bd 8d49 9f3c
00000150: ff38 bcbb d511 0c3e 560f eebd 7b75 aa3d
00000160: 67d9 563d 752a 07be 9f93 94bc c733 903c
00000170: 8f9a 15be 53e1 1d3d 9813 983d 3952 efbc
00000180: da41 d1bc 8709 6f3d e9dd 25bd 04cd b9bb
00000190: 06ca ee3c b3d7 b33d fde8 993d eed1 b33b
000001a0: f0e7 563d 9f7c 8dbd e80a 06be acbe 79bd
000001b0: 59c9 a13c 45e0 1dbd 1db1 23bd 5f51 253d
000001c0: 487c cdbd df04 103d 13bd 18be 7665 f8bd
000001d0: ac02 663c 332d b53c fb6c bfbc b62d 86bd
000001e0: 3802 cf3b 98c8 2ebe ae9d b9bb 9c22 78bd
000001f0: 325f 9f3c 13d5 55be 8568 e4bd 7520 4cbe
00000200: 121d 07be 194d 363d 2f7c f1bd 5c8c 443b
00000210: de65 913d b6b7 ab3b 03f5 ccbd 2918 16be
00000220: f45f 993c c27b dd3d 7a7d 433d 2de5 4dbd
00000230: bbd4 28bb b842 b73d af88 81bd 9950 4bbd
00000240: 1150 3d3c e7ca 34bb 02c8 fabd 9fd6 823c
00000250: 2add da3d 15ae 63bc 7ee5 fbbd 9177 4f3d
00000260: 250d 393b 1b42 94bd 7249 3b3d a4a1 8fbd
00000270: 1049 0ebe cd9e f9bc a4f0 8ebc 7afb 5dbd
00000280: 11e5 663d 9948 68bb e074 1bbd d636 9cbd
00000290: 5b2f 483d 931f ba3d 1d1d ba3b 694b 42be
000002a0: 880e b93d 5ab3 31be 67ec c1bc adc2 9c3b
000002b0: 866a 1e3d 387d c6bd e656 a43b 63b5 023d
000002c0: 2050 d63c cad3 86bc 86a1 1dbe d14c b6bc
000002d0: ddef 173d c08a e23c b5c2 37bb 734b d7bd
000002e0: ed8e 593d efcf 07be 4a58 87bd 9704 39be
000002f0: b6f0 1f3d c2c4 debd dbfe 7bbb 9cf9 efbd
00000300: 6f90 37be 1d58 04bc 001c 113d 38d3 a2bd
00000310: 8222 be3d d910 a83c 6747 0bbe b1c1 f9bd
00000320: d1c9 843d 903d 203e f182 51bc 91c0 d4bd
00000330: 000f dd3d fb02 fb3c d06e abbd b67d 97bd
00000340: 6d33 2f3d aad5 e03d 90b5 fcbd aad4 f13c
00000350: 026e 883d b5c9 3e3d 00a6 bbbd 4d51 133d
00000360: 2bde cf3d 0b46 20be 5f0a 873d 79eb acbc
00000370: c75e b5bc 8ec3 703d f2be 773d 374c fabc
00000380: c76a 70bc c83c 69bd c7af b23d 06c0 a5bd
00000390: bfe8 aabc cfd6 923d 76d0 d1bc 0fe4 f3bc
000003a0: 5265 f73d 4e40 a0bd 70f3 ebbd daaf a5bd
000003b0: 3241 d4bc a292 9abd 5acc 02be b841 863c
000003c0: 1db4 13bd b4ee 60bc 7208 35be feb0 debd
000003d0: 0a98 3c3d 6353 863d 848a 00bd bfef adbd
000003e0: 99b9 653d 4769 c4bd 09cb 533c d2b3 32be
000003f0: 7aba 973d 9bee 17be 4d9b c5bd 9cef 1cbe

fc2.bias f4 [32]
-0.10214612 -0.029978598 -0.08565944 0.060872357 0.026531326 -0.052109666 0.114566125 0.091045365
0.10499519 -0.08235529 0.10308582 -0.085351184 -0.048225008 -0.115972646 0.086101055 -0.068932645
0.0021512054 0.06523095 0.012204541 0.108232126 0.08081872 -0.047001358 -0.009784242 -0.06539137
0.029126108 -0.023517434 -0.043565445 0.020277016 0.08088376 0.07352456 0.046444874 -0.053341832
00000000: fc31 d1bd ad95 f5bc 376e afbd 4b55 793d
00000010: 3958 d93c f270 55bd a5a1 ea3d fe75 ba3d
00000020: b807 d73d e4a9 a8bd a91e d33d 9acc aebd
00000030: 9687 45bd 1183 edbd c055 b03d 8f2c 8dbd
00000040: 3dfb 0c3b ce97 853d 8ef5 473c cea8 dd3d
00000050: 4984 a53d 7f84 40bd 164e 20bc e9eb 85bd
00000060: e099 ee3c a2a7 c0bc ae71 32bd fc1b a63c
00000070: 62a6 a53d 0b94 963d fb3c 3e3d f77c 5abd

bn2.weight f4 [32]
0.9388489 1.0099518 0.90387297 1.0291393 0.9666889 0.9082778 0.971244 0.98521876
0.90891397 0.99779445 0.9917614 1.0114168 0.95741713 0.9902133 0.9515888 0.8755001
1.0231929 0.9383352 0.9577544 0.9888568 1.0213513 0.9556356 0.9919307 0.9949986
0.95777315 0.96422756 0.9581109 0.9841103 0.9911895 0.99918187 0.89372474 0.93969154
00000000: 6758 703f 1a46 813f 3864 673f d6ba 833f
00000010: ec78 773f e584 683f 72a3 783f 4c37 7c3f
00000020: 96ae 683f 756f 7f3f 13e4 7d3f 1b76 813f
00000030: 4a19 753f 9e7e 7d3f 539b 733f c620 603f
00000040: fcf7 823f bc36 703f 642f 753f b825 7d3f
00000050: a4bb 823f 89a4 743f 2cef 7d3f 3ab8 7e3f
00000060: 9f30 753f 9ed7 763f c246 753f a7ee 7b3f
00000070: 98be 7d3f 62ca 7f3f 25cb 643f a08f 703f

bn2.bias f4 [32]
-0.062356476 -0.0631168 -0.120431945 -0.0057509807 -0.07492807 -0.10877154 -0.055226795 -0.08384564
-0.054103915 -0.07008813 -0.10829628 -0.036523476 -0.100250706 -0.031042697 -0.13011925 -0.08462479
-0.07729742 -0.1208712 -0.05567312 -0.09020404 -0.08737259 -0.07700932 -0.06438361 -0.040268704
-0.07077117 -0.04500808 -0.09860629 -0.08696826 -0.02379962 -0.006950452 -0.1168591 -0.11941781
00000000: 8169 7fbd 6143 81bd 06a5 f6bd b972 bcbb
00000010: e373 99bd 9dc3 debd 7e35 62bd 43b7 abbd
00000020: 119c 5dbd 5e8a 8fbd 71ca ddbd a499 15bd
00000030: 3e50 cdbd 414d febc fb3d 05be c34f adbd
00000040: 1c4e 9ebd 528b f7bd 7f09 64bd e5bc b8bd
00000050: 67f0 b2bd 10b7 9dbd 8edb 83bd ccf0 24bd
00000060: 7af0 90bd 645a 38bd 18f2 c9bd 6a1c b2bd
00000070: 6cf7 c2bc 9ec0 e3bb d353 efbd 5391 f4bd

bn2.running_mean f4 [32]
-0.340338 -0.6133236 -0.65314966 -0.44072372 -0.16486628 -0.7278127 0.24833022 -0.58347446
-0.24751279 -0.4207049 -0.06974638 -0.49612495 -0.44684428 -0.58100444 0.0063278843 -0.0053452333
-0.018316017 -0.21403387 -0.06698954 -0.3590047 -0.10066113 -0.14109673 -0.46611014 -0.24471408
-0.105688676 -0.28534576 -0.48361224 -0.52221483 -0.13808426 -0.0056980997 -0.1516031 -0.5882782
00000000: c840 aebe c702 1dbf d134 27bf 8aa6 e1be
00000010: b5d2 28be ef51 3abf 474a 7e3e 955e 15bf
00000020: fe73 7dbe a266 d7be 31d7 8ebd 1704 febe
00000030: c6c8 e4be b5bc 14bf 245a cf3b 1127 afbb
00000040: 790b 96bc b22b 5bbe d031 89bd 77cf b7be
00000050: 6c27 cebd a97b 10be fda5 eebe 5496 7abe
00000060: 4e73 d8bd d718 92be 069c f7be dfaf 05bf
00000070: f665 0dbe 20b7 babb d83d 1bbe 6699 16bf

bn2.running_var f4 [32]
2.4302096 1.7273946 1.6941928 2.7361488 2.3372552 1.8519394 2.0223758 1.7281607
2.225328 2.9119368 2.230881 2.233155 2.3142598 2.6709726 2.411341 1.6938194
2.8909023 2.385104 2.1025608 2.0638657 2.4899774 2.5286098 2.0244765 2.5990252
2.4606726 2.9188435 2.262735 1.8762884 2.6380062 2.7737908 1.7069249 2.235996
00000000: 8e88 1b40 441b dd3f 4fdb d83f 101d 2f40
00000010: 9795 1540 5a0c ed3f 9b6e 0140 5f34 dd3f
00000020: c66b 0e40 2c5d 3a40 c1c6 0e40 03ec 0e40
00000030: d51c 1440 37f1 2a40 6953 1a40 13cf d83f
00000040: 8b04 3940 8ba5 1840 5b90 0640 6016 0440
00000050: ca5b 1f40 bed4 2140 0691 0140 6e56 2640
00000060: a97b 1d40 55ce 3a40 a6d0 1040 382a f03f
00000070: 18d5 2840 ca85 3140 847c da3f 8f1a 0f40

fc3.weight f4 [16, 32]
-0.121184014 0.01515487 0.06066099 0.028231405 0.08381449 0.14064248 -0.016083226 0.12212633
0.0061247754 -0.03962967 -0.14112626 0.08260853 0.10881501 -0.17649701 -0.20319816 -0.09092368
-0.087925024 0.13226292 -0.094337 0.18038039 -0.06772697 -0.01597309 0.05340408 -0.14283156
-0.08096385 0.14760445 0.13387159 0.10060791 -0.05594019 -0.0732781 0.06339248 0.11427871
0.1150468 -0.1612875 -0.06728689 -0.08301486 -0.12959194 -0.15105881 0.09031147 -0.19961496
-0.024158288 0.12446702 0.12796454 -0.12384923 -0.11154169 0.114115655 0.13645479 0.023990331
0.10663593 -0.06908522 0.06411233 -0.0341968 0.12041228 0.072030514 -0.059904683 0.02819862
0.10940086 -0.017788883 -0.12701415 -0.058033533 0.12487851 0.079501644 -0.07124699 -0.13882668
-0.09535143 0.07201562 0.12532018 0.10472609 0.060674332 0.09829793 -0.10177144 0.038051814
0.06363156 -0.14626728 -0.038364608 0.062061008 0.1080529 -0.1714575 -0.022004822 -0.047443155
-0.10206401 0.12705187 -0.06782117 0.10304894 -0.1716183 -0.054143246 0.1582332 -0.08154559
-0.060523264 0.05324481 0.0834942 0.10964033 -0.12519586 -0.041498937 0.069485955 0.12805253
-0.026556678 0.164214 0.070679046 0.15215296 0.13864665 -0.02228998 -0.09618373 0.0898512
0.042591967 -0.09258522 -0.10007146 0.049190387 0.07604587 -0.21262811 -0.055738248 -0.08906051
-0.09771633 0.11647068 -0.026854852 0.13860835 -0.17564587 -0.08562705 0.08061347 -0.11922299
-0.15403429 -0.0056295404 0.05628936 0.021601358 -0.13774744 -0.1844348 0.047974594 0.14088485
0.15205468 -0.15478839 -0.12601307 -0.19138175 -0.020620642 -0.062033996 0.16178592 -0.1840115
-0.056697946 0.09355055 0.19346899 -0.097580194 -0.035900775 0.029934732 0.12921391 0.14466399
0.04273874 -0.004664758 0.10920349 -0.11202194 0.16866152 0.16711208 -0.12765777 0.13786326
0.025132805 -0.04548086 -0.10131602 -0.17453074 0.17148052 0.06133407 -0.011546421 -0.057908025
-0.20297112 0.15569878 0.041129675 0.018737102 0.061773933 0.048145518 -0.03176582 0.17656195
0.000831389 -0.0944792 -0.053451225 0.05919988 0.12710077 -0.15397848 0.010970671 -0.07855916
-0.06929249 0.07620536 -0.13477564 0.15103951 -0.11603527 -0.156772 0.103130884 -0.15217645
-0.051366817 0.13524938 0.13226873 0.06612182 -0.17398192 -0.15445952 0.081512615 0.100582756
-0.09138215 0.08790293 0.057174966 0.13373381 0.08597619 0.13500641 -0.11752886 0.063207574
0.10896475 -0.10348809 -0.15835096 0.07050917 0.051771116 -0.028297413 -0.038718987 -0.1540817
-0.08669409 0.07150339 -0.07661721 0.16130528 -0.062290896 -0.09477575 0.08601148 -0.10405481
-0.16820781 0.14107506 0.069664836 0.081809804 -0.06520129 -0.13160472 0.08723053 0.014194645
-0.14412764 0.056067165 0.19254607 0.0778763 0.10728182 0.047815662 -0.116167486 0.1824649
0.025093928 -0.08586585 -0.026711617 0.099086 0.13282782 -0.16988654 -0.026544401 -0.11819476
-0.11786459 0.17456296 -0.17592154 0.07451057 -0.030665183 -0.19318376 0.012676821 -0.11050308
-0.12671325 0.20010185 -0.010159892 0.10278993 -0.11861139 -0.116104 0.047736805 0.1210413
00000000: 532f f8bd 224c 783c a977 783d 8c45 e73c
00000010: eea6 ab3d 9504 103e f8c0 83bc 5f1d fa3d
00000020: 57b2 c83b b952 22bd 6783 10be a92e a93d
00000030: 67da de3d a2bb 34be 2e13 50be 3236 babd
00000040: 0912 b4bd ee6f 073e c233 c1bd a3b5 383e
00000050: 70b4 8abd ffd9 82bc 3dbe 5a3d 7042 12be
00000060: 60d0 a5bd 9f25 173e a215 093e 850b ce3d
00000070: 8a21 65bd d412 96bd ebd3 813d f50a ea3d
00000080: a89d eb3d 8d28 25be b5cd 89bd b203 aabd
00000090: c0b3 04be 29af 1abe 38f5 b83d dd67 4cbe
000000a0: 9ae7 c5bc 91e8 fe3d 2309 033e aaa4 fdbd
000000b0: f86f e4bd 78b5 e93d ceba 0b3e 5f87 c43c
000000c0: f063 da3d 8d7c 8dbd 534d 833d f211 0cbd
000000d0: b79a f63d bc84 933d 9d5e 75bd cb00 e73c
000000e0: 8f0d e03d feb9 91bc ff0f 02be 92b4 6dbd
000000f0: 4ec0 ff3d c2d1 a23d f1e9 91bd 9528 0ebe
00000100: 9c47 c3bd ed7c 933d ef53 003e a27a d63d
00000110: a685 783d 6d50 c93d 8b6d d0bd 38dc 1b3d
00000120: 4351 823d 17c7 15be 3524 1dbd af33 7e3d
00000130: d74a dd3d 8e92 2fbe 7543 b4bc c153 42bd
00000140: f006 d1bd e319 023e d3e5 8abd 530b d33d
00000150: b5bc 2fbe 4fc5 5dbd e207 223e 6001 a7bd
00000160: 3ee7 77bd 3b17 5a3d 02ff aa3d 1c8b e03d
00000170: 5833 00be cafa 29bd a74e 8e3d 3420 033e
00000180: 648d d9bc b727 283e 2dc0 903d fccd 1b3e
00000190: 63f9 0d3e 7a99 b6bc fafb c4bd e803 b83d
000001a0: ea74 2e3d 529d bdbd 44f2 ccbd dc7b 493d
000001b0: f0bd 9b3d 2fbb 59be ca4d 64bd 5b65 b6bd
000001c0: 801f c8bd 2e88 ee3d b5fe dbbc 59ef 0d3e
000001d0: 83dc 33be 3c5d afbd ad18 a53d 2f2b f4bd
000001e0: 2abb 1dbe 0278 b8bb ac8f 663d 55f5 b03c
000001f0: aa0d 0dbe 7adc 3cbe 0281 443d 1e44 103e
00000200: 39b4 1b3e d980 1ebe 9209 01be 94f9 43be
00000210: 9fec a8bc 5c17 7ebd 35ab 253e 836d 3cbe
00000220: 1b3c 68bd 6e97 bf3d bc1c 463e 20d8 c7bd
00000230: b10c 13bd af39 f53c a750 043e cc22 143e
00000240: d10e 2f3d d4da 98bb 14a6 df3d c26b e5bd
00000250: 9bb5 2c3e 6e1f 2b3e b8b8 02be 072c 0d3e
00000260: 50e3 cd3c 234a 3abd c67e cfbd 30b8 32be
00000270: 9798 2f3e 6f39 7b3d 332d 3dbc f730 6dbd
00000280: a9d7 4fbe 806f 1f3e 9777 283d 8d7e 993c
00000290: aa06 7d3d 3c34 453d e01c 02bd a8cc 343e
000002a0: 92f1 593a 507e c1bd acef 5abd 937b 723d
000002b0: b426 023e 89ac 1dbe 54be 333c a0e3 a0bd
000002c0: 39e9 8dbd 8e11 9c3d a002 0abe 1aaa 1a3e
000002d0: e6a3 edbd d788 20be 4936 d33d 25d4 1bbe
000002e0: 0366 52bd d07e 0a3e 7471 073e e06a 873d
000002f0: 5128 32be a32a 1ebe 16f0 a63d 55fe cd3d
00000300: 9126 bbbd 7406 b43d 4c30 6a3d 84f1 083e
00000310: 4914 b03d 1f3f 0a3e f9b2 f0bd f972 813d
00000320: e928 df3d 90f1 d3bd c126 22be 1d67 903d
00000330: f30d 543d facf e7bc cd97 1ebd 98c7 1dbe
00000340: ac8c b1bd 5f70 923d 7ce9 9cbd 362d 253e
00000350: bd24 7fbd ca19 c2bd c926 b03d b01a d5bd
00000360: ab3e 2cbe fb75 103e 70ac 8e3d e68b a73d
00000370: 4188 85bd 63c3 06be eca5 b23d a890 683c
00000380: 3296 13be afa6 653d cc2a 453e 9c7d 9f3d
00000390: 92b6 db3d 5bda 433d 38e9 edbd 14d8 3a3e
000003a0: c891 cd3c 6fda afbd 52d2 dabc 9aed ca3d
000003b0: 0404 083e bdf6 2dbe a573 d9bc 1810 f2bd
000003c0: fd62 f1bd a2c0 323e c724 34be ff98 983d
000003d0: 8d35 fbbc f7d1 45be 71b2 4f3c 704f e2bd
000003e0: 1ec1 01be 80e7 4c3e ad75 26bc 8783 d23d
000003f0: 87ea f2bd efc7 edbd ab87 433d 80e4 f73d

fc3.bias f4 [16]
0.015574157 0.095808364 0.13187975 -0.07742825 0.14671172 -0.11864178 0.121556856 -0.10471767
0.1374554 -0.07757135 0.14092003 -0.12463693 0.10384348 -0.09320841 0.16875573 0.15873498
00000000: c02a 7f3c 2d37 c43d 7c0b 073e b492 9ebd
00000010: 993b 163e 76fa f2bd cdf2 f83d 3876 d6bd
00000020: 1cc1 0c3e badd 9ebd 574d 103e a641 ffbd
00000030: e4ab d43d 0de4 bebd 4dce 2c3e 6c8b 223e

bn3.weight f4 [16]
1.1378845 0.9885796 1.1638887 0.98599833 0.9999124 1.0306684 1.1218376 1.095277
1.1276153 0.99494606 0.979491 1.0675901 1.0102063 1.029428 1.1530924 0.987458
00000000: 33a6 913f 8d13 7d3f 4efa 943f 636a 7c3f
00000010: 42fa 7f3f f1ec 833f 6098 8f3f 0932 8c3f
00000020: b355 903f c9b4 7e3f ecbf 7a3f cba6 883f
00000030: 714e 813f 4cc4 833f 8898 933f 0cca 7c3f

bn3.bias f4 [16]
0.11383162 0.03213979 0.104032174 0.012715034 0.010645526 0.04623654 0.09682984 0.080395415
0.1347059 -0.00089487346 0.02528474 0.048340973 -0.023285193 0.059838794 0.08777405 -0.0016939705
00000000: 8d20 e93d 03a5 033d d20e d53d b852 503c
00000010: 936a 2e3c 8762 3d3d b94e c63d 5aa6 a43d
00000020: 58f0 093e f195 6aba f121 cf3c 2f01 463d
00000030: 97c0 bebc 8619 753d e2c2 b33d 3808 deba

bn3.running_mean f4 [16]
0.117177665 -0.01646008 0.19665474 -0.16706511 0.18118078 -0.13569905 0.13861421 -0.105225936
0.15869612 -0.18471827 0.117167406 -0.1964003 -0.054816276 -0.07736028 0.21406926 0.077845834
00000000: d8fa ef3d 4ad7 86bc dc5f 493e 1e13 2bbe
00000010: 7487 393e b1f4 0abe e2f0 0d3e b280 d7bd
00000020: 3c81 223e c926 3dbe 77f5 ef3d 291d 49be
00000030: 0887 60bd 116f 9ebd f934 5b3e a36d 9f3d

bn3.running_var f4 [16]
2.073649 2.240797 1.9065164 2.285447 2.4668148 2.4164 2.0318348 2.454276
2.1521208 1.9214965 2.0734243 2.2683733 1.6877269 1.634972 2.136648 1.9312733
00000000: aab6 0440 3869 0f40 bb08 f43f c344 1240
00000010: 4be0 1d40 4ca6 1a40 9509 0240 dc12 1d40
00000020: 59bc 0940 99f3 f53f fcb2 0440 072d 1140
00000030: 6f07 d83f c346 d13f d7be 0840 f733 f73f

fc4.weight f4 [1, 16]
-0.1473311 0.24307802 -0.15418577 -0.18867803 0.23679022 -0.17682286 -0.16931765 -0.16595739
-0.14955604 0.22373538 -0.20415862 0.20579745 0.23807187 -0.19049755 -0.1602512 0.23938051
00000000: f7dd 16be 72e9 783e e0e2 1dbe d034 41be
00000010: 2379 723e 0d11 35be 9b61 2dbe bcf0 29be
00000020: 3825 19be e31a 653e f50e 51be 91bc 523e
00000030: 1dc9 733e ca11 43be e418 24be 2a20 753e
