models/best_model.pth (torch, 50658 bytes, 13 tensors)

fc1.weight f4 [128, 4]
000000 59 d1 c8 3d 00 c0 bc bd f9 f2 03 bf 0b a2 3a be
       0.09805555 -0.092163086 -0.5154262 -0.18225877
000010 c8 f4 3b 3d 9d 46 ea bd 1e 67 48 3f 0f f1 2b 3e
       0.04588774 -0.1143925 0.78282344 0.16791175
000020 bf c6 9b be 3d 64 3f 3d 76 28 06 3e f7 5f a9 3e
       -0.3042507 0.046726454 0.13101372 0.33081028
000030 c0 25 3b 3d 55 e1 a7 3d 53 e6 28 3e 50 b2 cf be
       0.045690298 0.081972755 0.16494112 -0.4056573
000040 37 dd 86 3e 60 99 37 be 33 95 40 bf 2c 7d 2d be
       0.2634065 -0.17929602 -0.7522766 -0.1694228
000050 6e d5 9d 3e 14 9b da 3e 78 94 0c be 6b ae ae 3e
       0.30826896 0.4269644 -0.13728511 0.34117445
000060 b7 f6 46 be c9 25 27 be 5f 5f e8 be ea b8 b2 bb
       -0.19430052 -0.16323008 -0.45385262 -0.0054541724
000070 ac 5c e2 3d 0b cc a3 3e a4 78 c0 3e 2b f4 e4 be
       0.11052832 0.3199161 0.37592041 -0.44717535
000080 f2 5c 81 be 40 18 2c be 2f 87 2b 3e 52 ce 5f 3e
       -0.25266224 -0.16806126 0.16750787 0.21856049
000090 7c f8 0d 3e d5 9a a7 be 9d 6a 85 3e 41 c0 6e be
       0.1386432 -0.32735315 0.26057902 -0.23315527
0000a0 09 91 ae be 34 12 22 be c3 d9 8d 3e 8e 47 82 3e
       -0.34095028 -0.15827256 0.27705202 0.25445217
0000b0 ca e5 28 3e 28 2a ac 3e ab c3 ab be f7 09 d8 bd
       0.16493908 0.33625913 -0.3354772 -0.10548776
0000c0 4d 9b 21 ba 2f 42 9f 3e 90 c7 e9 be 20 cf 98 3e
       -0.0006164804 0.31105182 -0.45660067 0.29845524
0000d0 2d 36 ec bd 7e 49 a7 3e e1 0d 01 bf 59 9d fa bd
       -0.11533771 0.32673258 -0.504118 -0.12237043
0000e0 a8 a6 70 bd 66 51 b1 3e 59 10 27 3f c9 7d 9c 3e
       -0.058752686 0.34632415 0.6525932 0.30564716
0000f0 f5 ae a6 3d 57 71 4f bb 5f a7 26 3e c8 f4 da be
       0.08138839 -0.003165325 0.16274785 -0.42764878
000100 fb 7d 9c be 27 9b cd 3d f1 42 cd be 30 14 1d 3e
       -0.30564865 0.100393586 -0.40090135 0.15339732
000110 0e c2 59 3e 63 7a 51 bd 7c cf 8f be fa ff 97 3d
       0.21265432 -0.051142108 -0.28087986 0.074218705
000120 8a 91 fe 3d 45 45 47 be 62 12 d9 3e cd 88 b2 be
       0.12430103 -0.19460018 0.42396837 -0.34869996
000130 a6 a4 19 3e 43 8e 82 3d 75 5a 03 be 3f d1 c8 be
       0.15004215 0.063747905 -0.12827475 -0.39222142
000140 fc 3b 82 be 2a 39 b3 bd 52 e8 ee 3e 6e 51 9d 3b
       -0.2543639 -0.087511376 0.4666162 0.004800967
000150 28 9d 40 3e d9 46 72 be d3 46 03 3f fd 0a 48 be
       0.1880995 -0.23659839 0.51279944 -0.19535442
000160 26 07 c5 bd f7 a1 af 3e e7 8e 0a 3f 39 4d d3 3e
       -0.09620504 0.34303257 0.541243 0.41269854
000170 05 13 d3 bd 6d f7 c4 3e bb 8c bc 3e 93 66 22 3e
       -0.10306362 0.3847002 0.3682612 0.15859441
000180 a5 69 2f be be ef a0 be 3b 6f 21 be 47 25 61 3e
       -0.17130144 -0.3143291 -0.15765087 0.21986876
000190 81 2d 05 3e 98 2c 96 be cc 77 f7 3e 27 be 4d 3e
       0.1300564 -0.29330897 0.48333585 0.20092069
0001a0 47 e5 95 3e f3 9b c9 be 91 75 de bd 1d 81 fa 3d
       0.29276487 -0.39376792 -0.10862268 0.12231658
0001b0 1a 70 33 3d 79 ae 02 3e 3b f4 01 bf 6e af dc 3e
       0.04380808 0.12761869 -0.5076329 0.43102592
0001c0 16 0c 06 3d c7 69 b0 bc 0d 37 1e bf 18 94 93 3e
       0.03272637 -0.021534814 -0.6180275 0.28823924
0001d0 99 f3 8e bd 50 9d 97 3e e3 32 01 bf 85 29 b7 3e
       -0.06980056 0.29612207 -0.5046827 0.35773864
0001e0 40 c0 1d bd be 61 82 bd ed 89 aa 3e b5 e2 1b be
       -0.038513422 -0.06366299 0.33308354 -0.152232
0001f0 0b c5 78 3e ed 28 da 3d 44 70 0b 3f 48 2c ed bd
       0.24293916 0.10652337 0.5446818 -0.115807116
000200 3e 09 ac be 90 e2 09 3e 03 64 1e be 26 e7 66 be
       -0.336008 0.13465333 -0.15467839 -0.22549114
000210 53 d1 8f 3e 3f 20 02 3c 42 0d a0 bd 41 60 7e 3e
       0.2808939 0.007942258 -0.07815029 0.24841405
000220 c9 f1 a9 3e 6d 15 40 3e 1e fa f9 be 94 30 aa 3e
       0.3319228 0.18758173 -0.48823637 0.33240187
000230 58 3f 65 be 06 8d db 3e 79 21 d8 be 50 b7 9f 3e
       -0.22387445 0.4288103 -0.42213038 0.31194544
000240 d6 52 a3 3d c7 56 e0 3d 9b 38 5d 3e a1 38 83 be
       0.07974784 0.109540515 0.21603625 -0.25629142
000250 92 5d 9f 3e a1 85 e1 3e 66 b6 84 be 6b 95 f2 bd
       0.31126076 0.44047263 -0.2592041 -0.118449055
000260 dd de 1a be e8 61 e2 3e ff 73 15 3e 0e 93 b0 3e
       -0.15124078 0.44215322 0.1459503 0.34487194
000270 fc ac f6 3c b3 b2 a9 3e a9 5f c9 3c f0 68 a8 be
       0.030111782 0.3314415 0.024581747 -0.3289256
000280 43 69 a3 bc 8e c8 80 be aa 0b 7a be 4a 9c a4 3d
       -0.019947654 -0.2515301 -0.24418512 0.08037622
000290 5a 7f e6 bd 0c a2 db 3e e8 12 03 bf 3e 5d f0 3d
       -0.11254759 0.4289707 -0.51200724 0.117365345
0002a0 de 5d 92 be cb 7d f9 3e 6f 07 09 bf 5a a6 da 3c
       -0.2858724 0.48728785 -0.5352697 0.02669065
0002b0 2c 40 b1 be 85 57 50 be da 9b 9b be a0 5f e8 3e
       -0.34619272 -0.20345886 -0.30392343 0.45385456
0002c0 4c 78 a3 be 96 19 9f be 84 ef dd 3e ca be 9f be
       -0.31927717 -0.31074208 0.43346798 -0.31200248
0002d0 f0 b2 8b 3d b0 1a 9f 3e 52 31 1f 3f 97 01 06 be
       0.06821239 0.31075048 0.6218463 -0.13086544
0002e0 2e 48 18 3d 4b 34 49 bc 3e 53 25 bf 1b 9b ab bd
       0.03717821 -0.012280534 -0.6458014 -0.083791934
0002f0 c8 ff 8e be a5 53 1a 3e 22 1b e2 3e 8d bc c4 3e
       -0.2792952 0.1507097 0.44161326 0.38425103
000300 de fb ba 3e de 15 a8 3d 43 ea 16 3e 44 e0 93 be
       0.36520284 0.08207296 0.14737801 -0.2888204
000310 a0 ff 61 3e 37 e0 a2 3e cc 00 2a bf b6 e9 62 be
       0.2207017 0.31811687 -0.66407466 -0.22159466
000320 e7 ce 86 be ec 12 aa 3e ff 6c be be 01 78 f8 3d
       -0.2632973 0.3321756 -0.37192532 0.12132264
000330 e4 8a 0c 3d 4c 13 8e 3e d1 fc 21 3f 48 20 98 be
       0.034312144 0.27749097 0.6327639 -0.2971213
000340 24 81 c4 3b 0a cb 99 3e 46 82 09 bf 58 9e a7 3e
       0.00599684 0.3003772 -0.53714406 0.32737994
000350 f3 17 7e 3d f5 3f 86 be 33 91 f1 be 9d 52 a6 3e
       0.06203456 -0.2622067 -0.4718109 0.32484904
000360 03 6a 5d 3d ea 44 d4 3e e6 8f c5 be 83 b3 15 bd
       0.05405618 0.41458827 -0.38586348 -0.03654815
000370 45 84 6b 3d 97 a5 5d be cc 3a f6 be 00 b1 dc 3e
       0.05749919 -0.21645199 -0.48091733 0.4310379
000380 28 ef fd 3c 9d 95 7c be 40 e1 a1 be 53 27 8b 3d
       0.030997828 -0.24666448 -0.31617165 0.0679461
000390 e5 fc c4 3e 27 75 c2 bd 5c b0 f0 be 7d 41 ff 3d
       0.38474193 -0.09495001 -0.47009552 0.12463663
0003a0 0a c8 e4 3d 9d 73 e5 bd 1a 71 09 3f c3 1f 61 be
       0.11170967 -0.11203692 0.53688204 -0.21984772
0003b0 57 f9 d8 3d 96 89 c5 3d 81 1a 0c bf 7d 91 e6 bd
       0.10594433 0.09645383 -0.5472794 -0.112582184
0003c0 d4 1a ab 3e 39 e4 c4 bd 80 15 46 3e da 45 77 bc
       0.33418906 -0.096138425 0.19344139 -0.0150923375
0003d0 fc ae bb 3d 21 f3 4f 3e 2f 90 05 bf cb ff 88 be
       0.09164235 0.2030759 -0.5217313 -0.26757655
0003e0 7b 47 7d 3d 96 a8 af 3c 40 00 18 bf e9 21 2c bd
       0.061835747 0.021442693 -0.5937538 -0.042024527
0003f0 8a 8b 3d 3b 05 1e 2c 3d 1b 7a 43 3f cd 18 ba 3d
       0.0028922283 0.042020816 0.76358193 0.090867616

fc1.bias f4 [128]
000000 eb e7 bf bb a0 52 4d bd f4 cf bb bc e1 c5 ad 3e
       -0.005856504 -0.050127625 -0.022926308 0.33940032
000010 96 a6 ad 3e 4c 0c 09 3e 4a 2a 7f 3c 58 3d 89 3d
       0.33916157 0.13383597 0.015574047 0.067011535
000020 62 a0 6c be 47 e6 d5 bd a1 cb 47 bd 60 14 41 3e
       -0.23108056 -0.104443125 -0.04877818 0.18855429
000030 02 8a 09 3f 23 a6 8f 3d b6 fd ac 3e 4c 30 0e 3e
       0.5372621 0.0701411 0.33787316 0.13885611
000040 2d e7 23 be 6d 82 9e 3e 76 9b b2 be 7f 86 2b 3e
       -0.16006155 0.30958882 -0.34884232 0.16750525
000050 38 55 c8 3c 27 42 95 3c 73 ce 5e 3e 99 0a 9f 3e
       0.024454698 0.01822002 0.21758442 0.31062773
000060 c9 ac cf 3e 1c 82 ed 3d 42 64 9f 3d dd 74 36 bc
       0.40561512 0.11597082 0.077827945 -0.011136261
000070 ba 3f d8 3e 4e b1 84 3e f7 27 e9 bd ce 77 d1 be
       0.4223612 0.25916523 -0.11384576 -0.40911716
000080 c8 38 6e be d0 35 8e 3e 0e d2 0f 3e 20 c6 8e be
       -0.23263848 0.2777543 0.14044973 -0.27885532
000090 57 c0 e2 3d 20 90 b7 be 6d 28 56 3e 10 df 08 bc
       0.11071842 -0.35852146 0.20913859 -0.0083539635
0000a0 a5 87 9a 3e 87 4d da 3d ad b2 fd 3b c1 c3 d9 3e
       0.30181614 0.106593184 0.007742247 0.4253216
0000b0 63 93 13 be b7 a5 71 3d ef ea c1 3e 4f ee a5 3e
       -0.14411692 0.05899593 0.37874553 0.32408378
0000c0 a4 e6 e5 bd 07 ea c5 be f8 d0 d8 3d 2f 54 95 be
       -0.11225632 -0.3865511 0.105867326 -0.2916579
0000d0 37 76 d7 3e 14 93 8e be 0b 43 18 3e d7 42 9e 3e
       0.42082378 -0.27846587 0.14869325 0.3091037
0000e0 cd c5 95 3e 6d a1 60 3e 7a 3a 8c be 54 30 b6 3e
       0.29252473 0.21936579 -0.27388364 0.35583746
0000f0 46 e1 d0 be f4 40 84 3d d6 3d e4 3d 33 12 02 3e
       -0.4079687 0.06457701 0.11144607 0.12702255
000100 58 d6 91 be a0 b1 f1 3d 15 9b 38 3e f5 dc 83 3e
       -0.28483844 0.118014574 0.18027909 0.25754514
000110 54 5b 1b 3e 29 d3 61 be 4d a3 bd be ec 8b 44 bd
       0.15171558 -0.22053207 -0.3703865 -0.047985002
000120 8f 3b c0 bd 5e eb de bd 7c 1f 32 3d e7 b7 32 3d
       -0.0938636 -0.108847365 0.043487057 0.043632414
000130 c1 9f bf 3e 24 b5 c3 be 57 d7 9d 3e ef 71 63 bd
       0.3742657 -0.38224137 0.30828354 -0.055528577
000140 13 65 c0 be 47 d4 a9 3e e6 4c ad bd 04 20 62 be
       -0.37577114 0.33169767 -0.08461933 -0.22082525
000150 8b aa b2 3e e5 14 48 be 0d 55 a8 be 92 89 58 be
       0.3489574 -0.1953922 -0.3287739 -0.21146229
000160 44 d4 64 3d 56 7e 66 3d aa c2 3c be 30 13 85 be
       0.055866495 0.056272827 -0.18433633 -0.259912
000170 75 6c 5d bc 7e fa 23 be 82 d9 05 3f 90 08 94 3e
       -0.013514628 -0.16013524 0.52285016 0.28912783
000180 59 80 a2 be 06 0e eb 3e b1 ba 8e bd 88 e0 af be
       -0.31738546 0.45909137 -0.06969202 -0.3435099
000190 d7 cc 80 3b c4 19 9e 3d 8f 67 04 bf ad 9b 2b be
       0.003930669 0.07719758 -0.5172052 -0.16758604
0001a0 40 a9 39 3d 70 56 c0 3e 1f d1 78 3e 61 c4 89 3e
       0.045327425 0.37565947 0.24298523 0.26907638
0001b0 2a c0 c7 bd 3e 39 38 3e e5 c2 68 bd 9c cc 73 3e
       -0.09753449 0.17990586 -0.05682649 0.23808521
0001c0 db 8f ab 3d ca ab 45 3e a5 3b a8 3c f9 9c b5 3e
       0.08377048 0.19303814 0.020536253 0.35471323
0001d0 1d 61 77 be 01 67 d2 3e a8 e5 dd 3d 5e a1 ee 3e
       -0.2415814 0.4109421 0.10834819 0.46607488
0001e0 2d 92 96 be 2a 27 8c 3e 9b 19 e6 bd 1c 08 4f 3d
       -0.29408398 0.2737363 -0.112353526 0.050544843
0001f0 f4 1a 1f be f4 8d 13 3e 9b 49 96 3d bf 2a cd bd
       -0.15537626 0.1440962 0.07338258 -0.10017919

norm1.weight f4 [128]
000000 15 98 68 3f df a2 81 3f 6b ff 63 3f 78 83 4c 3f
       0.9085706 1.0127829 0.8906161 0.79888105
000010 c5 fc 4a 3f 61 76 43 3f 3c 25 74 3f 8c 7b 5b 3f
       0.79291946 0.76352507 0.95369315 0.8573539
000020 fa dd 6a 3f f2 f7 65 3f fe fb 75 3f c8 64 52 3f
       0.9174496 0.8983146 0.96087635 0.8218503
000030 aa 16 72 3f 54 18 93 3f e5 cb 7c 3f 6f 81 5c 3f
       0.9456583 1.1491799 0.9874862 0.86135
000040 f2 11 57 3f 2e 3f 4c 3f 4b 94 7b 3f 63 f2 51 3f
       0.8401176 0.79783905 0.9827315 0.8201048
000050 89 2e 82 3f fc 6b 51 3f 66 02 80 3f eb 1f 55 3f
       1.0170451 0.81805396 1.0000732 0.8325183
000060 c4 ff 62 3f a2 af 50 3f 70 17 3c 3f c7 a9 64 3f
       0.8867152 0.81517994 0.7347326 0.8932156
000070 9f 86 8b 3f 6d d3 5b 3f 92 8e 83 3f 04 1e 51 3f
       1.0900458 0.85869485 1.0277884 0.81686425
000080 3a 06 43 3f b8 81 3f 3f a5 23 58 3f 7f 96 5e 3f
       0.76181376 0.7480731 0.8442939 0.8694839
000090 b8 f1 57 3f 43 e1 4a 3f a7 f8 7e 3f 4d 9c 59 3f
       0.8435321 0.7924997 0.99598163 0.8500412
0000a0 79 4b 53 3f 45 4b 7f 3f 81 e0 6d 3f fa ff 4f 3f
       0.8253704 0.9972423 0.9292069 0.81249964
0000b0 fe 01 70 3f 86 fe 57 3f 36 0e 7b 3f 62 72 84 3f
       0.9375304 0.84372747 0.9806856 1.0347407
0000c0 1a 3f 53 3f d2 99 60 3f 1f 6e 4a 3f a7 77 88 3f
       0.8251816 0.8773471 0.7907428 1.0661515
0000d0 d9 bc 72 3f e5 aa 6e 3f da 8f 5e 3f 5b 4b 5f 3f
       0.9481941 0.93229514 0.8693825 0.8722436
0000e0 a7 09 82 3f d5 e6 54 3f 27 f6 64 3f cc f7 61 3f
       1.0159196 0.8316472 0.894381 0.88268733
0000f0 1e 71 4a 3f 49 ad 4d 3f a0 ff 76 3f b6 ef 9a 3f
       0.79078853 0.8034254 0.964838 1.2104404
000100 2e 62 4c 3f ae a7 41 3f 5a e5 69 3f c8 40 5a 3f
       0.7983731 0.75646484 0.9136559 0.852551
000110 49 ef 49 3f 5d 80 5e 3f fc 15 58 3f 17 9a 5a 3f
       0.78880745 0.86914617 0.84408545 0.8539137
000120 21 36 77 3f 21 0d 49 3f cd c9 71 3f 68 b6 61 3f
       0.9656697 0.7853566 0.9444855 0.88168955
000130 0b 0b 79 3f 08 66 69 3f 1c 3f 3f 3f e1 b9 50 3f
       0.97282475 0.9117131 0.7470567 0.8153363
000140 65 8e 6c 3f 69 7c 68 3f 38 a8 4c 3f ad 87 7d 3f
       0.92404777 0.90814835 0.7994418 0.9903515
000150 0a 6d 8e 3f dd 80 65 3f 03 31 5d 3f ca 23 71 3f
       1.1127026 0.89649755 0.8640291 0.94195235
000160 62 ff 6c 3f a6 ab 8a 3f ee 2c 7a 3f da 24 5e 3f
       0.92577183 1.0833633 0.9772481 0.8677498
000170 4e 92 48 3f 71 94 81 3f c7 d2 5f 3f 47 17 4a 3f
       0.78348243 1.0123426 0.87430996 0.7894177
000180 e1 f6 4d 3f 6f ed 87 3f cb fb 6f 3f a1 76 6a 3f
       0.8045483 1.0619334 0.9374358 0.91587263
000190 19 58 70 3f 69 bf 45 3f e6 ae 43 3f 87 ea 6f 3f
       0.93884426 0.77245194 0.7643875 0.93717235
0001a0 39 6f 80 3f 74 4d 82 3f 4f ba 40 3f 6e d6 5f 3f
       1.0033942 1.0179887 0.75284284 0.8743657
0001b0 2d dd 53 3f fd 8f 39 3f d8 0d 69 3f ed 04 8c 3f
       0.8275936 0.72485334 0.9103675 1.0939003
0001c0 de 71 65 3f 44 6d 54 3f 8a 6b 51 3f 32 4f 70 3f
       0.8962687 0.82979226 0.81804717 0.9387084
0001d0 e4 48 51 3f 83 1b 5e 3f a5 af 89 3f c4 14 47 3f
       0.8175185 0.8676073 1.0756727 0.7776606
0001e0 26 b3 4e 3f d5 a6 8c 3f c1 b5 52 3f 69 fb 59 3f
       0.8074211 1.0988413 0.82308584 0.85149246
0001f0 49 b8 63 3f f8 02 60 3f 7b 33 68 3f ff 18 7c 3f
       0.8895307 0.8750453 0.9070355 0.9847564

norm1.bias f4 [128]
000000 76 dc 67 3c c9 a2 46 3c cb d0 5e 3c 11 86 80 bd
       0.014151683 0.012123772 0.013599585 -0.06275571
000010 61 10 c3 bd c3 66 ee bd ec f0 c6 3d c2 05 30 bd
       -0.095246084 -0.11640694 0.09713921 -0.04297424
000020 67 1f 9c 3d 05 76 1d bc b9 4b 95 3d 68 89 5b bd
       0.07623177 -0.009610658 0.072898336 -0.053597838
000030 8c 06 ac 3d 5b a6 0e 3e 6d 9d 05 3e 9b af 10 bd
       0.08399686 0.13930647 0.13048334 -0.03532372
000040 4d b7 c2 bc d3 51 a1 bd d5 a8 f0 3c 9c 11 2d bd
       -0.023769045 -0.07876935 0.02937738 -0.04225312
000050 fb 50 43 3e a7 02 a8 bd ba b9 90 3d 5b d4 19 bd
       0.1907386 -0.08203631 0.070666745 -0.037556034
000060 f1 f9 62 3d 63 77 a6 bd a1 98 04 be e4 ce 02 3c
       0.055414144 -0.0812824 -0.12948848 0.007983897
000070 62 94 49 3d bb be 19 3d b0 3a 50 3e 98 b5 60 bd
       0.049213775 0.03753541 0.20334888 -0.05486068
000080 8a 9d ad bd f4 da f6 bd d0 ff 37 bd 30 cc 4a 3b
       -0.08477314 -0.12053481 -0.044921696 0.003094446
000090 0c 7b 09 bd 22 eb a7 bd d4 dc 11 3e 76 b8 4e ba
       -0.033564612 -0.08199145 0.14244395 -0.0007885763
0000a0 46 25 29 bb 54 d1 a3 3d 0a d8 7e 3d 48 26 a7 bd
       -0.002580957 0.079989105 0.06221775 -0.081615984
0000b0 de 5a fe 3d 6c 4b 80 bd cb 05 2d bb fb 18 21 3e
       0.12419675 -0.062643856 -0.0026401158 0.15732186
0000c0 3a 91 21 bd 41 a4 fd bc 9a 80 b9 bd ee 14 9f 3d
       -0.03944514 -0.030962111 -0.09057732 0.07767664
0000d0 75 c0 01 bd 26 9c eb 3d 99 1a f9 3b 93 e9 51 bd
       -0.031677682 0.11504392 0.0076020476 -0.051248144
0000e0 0f 99 de 3d 8c d2 4e bd c6 2d bb bc 83 89 c4 bc
       0.10869037 -0.050493762 -0.022848975 -0.023991352
0000f0 6d bb bc bd 38 e4 b1 bd 10 ae 59 3c 8e 4e 83 3d
       -0.09215436 -0.086861074 0.013286129 0.064114675
000100 d8 c2 b8 bd eb 75 f6 bd 4b 44 af bc 44 38 4e bc
       -0.090215385 -0.1203421 -0.02139487 -0.012586657
000110 0d 82 c1 bd 7e 68 35 bb cd 13 83 bb e3 9f 6d bd
       -0.09448633 -0.002768069 -0.004000163 -0.058013808
000120 81 89 27 3d 62 84 a7 bd 88 63 a6 3d 5d 29 d3 3c
       0.04090262 -0.08179547 0.08124453 0.02577656
000130 89 43 b3 3d d7 49 a5 3c f7 69 09 be 39 a0 79 bd
       0.08753116 0.020176811 -0.13419329 -0.060943816
000140 4e e6 79 bc 56 24 15 3c 04 9a c5 bd fd bc 81 3d
       -0.015252663 0.009102901 -0.09648517 0.06334875
000150 94 a3 79 3d 6f 90 9e 3c 33 9f b6 3c ba 92 0e 3e
       0.060947016 0.01935598 0.022292709 0.13923159
000160 b6 8a 3c 3d f2 76 77 3e e6 a9 ce 3d 23 68 ee bc
       0.046030723 0.24166468 0.10090999 -0.02910239
000170 f8 38 d9 bd 64 27 e0 3d d6 dd b2 3d be e4 a8 bd
       -0.10606569 0.10945013 0.08733718 -0.08246754
000180 dd 64 a0 bd df 3b 14 3e 77 96 59 3d 35 fa d8 3c
       -0.07831738 0.14475964 0.05312201 0.026486496
000190 87 87 8d 3d 15 b0 ba bd f0 17 ec bd 5d 73 ea bb
       0.069106154 -0.09115616 -0.11528003 -0.0071548657
0001a0 b3 99 1d 3e be 24 8d 3d 90 6a ff bd 09 c6 fd bb
       0.15390663 0.06891774 -0.12471497 -0.007744555
0001b0 65 88 7d bd 0f 08 0c be 2d b9 b8 3c df f4 bb 3d
       -0.061897654 -0.13674949 0.022549236 0.09177565
0001c0 8e a0 42 bc 12 ce 15 3b e1 88 68 bd 10 20 c2 3d
       -0.0118790995 0.0022858423 -0.056771163 0.09478772
0001d0 3f 87 5c bd 4c 41 4d 3d dc 94 b9 3d 70 e0 01 bd
       -0.05383992 0.0501111 0.09061596 -0.03170818
0001e0 ed 93 a5 bd f1 f8 01 3e 15 f1 5b bd f4 a8 3e bd
       -0.08084855 0.1269262 -0.05369671 -0.046547845
0001f0 be 24 ec b9 43 c9 05 bd 3e c7 50 3c ed 71 5b 3e
       -0.00045040803 -0.03266264 0.012742816 0.21430178

fc2.weight f4 [64, 128]
000000 09 9c 97 bd 6d 3c 3a 3d c2 51 80 bd 6d ad 14 3d
       -0.07402808 0.045467783 -0.06265594 0.036298204
000010 72 43 af 3c 5c 52 c1 3c 02 6e 8e 3c 14 29 7d 3d
       0.021394465 0.023598842 0.01738644 0.061806753
000020 14 6c a3 3d a0 72 89 3d 92 e8 92 bd eb 1a d2 3d
       0.07979599 0.06711316 -0.071732655 0.102590404
000030 18 84 77 bd 82 65 79 bd e4 56 26 3c ff 28 76 bc
       -0.06042871 -0.06088782 0.010152552 -0.015024423
000040 37 bf 9b 3d ce 5d 03 3c 5a f1 d1 3d 23 08 a7 bc
       0.07604831 0.00801797 0.10251112 -0.020389622
000050 ea 0b 79 3d ec 04 8e bc 43 f4 ca 3d b0 c4 99 3d
       0.060802378 -0.017336331 0.099098705 0.07508218
000060 27 89 16 3d 71 32 c4 3d 5b 90 eb 3d 1a c0 10 be
       0.036751892 0.095799334 0.11502143 -0.14135781
000070 51 df 18 bd 70 6b aa 3d dc 72 03 bd 12 63 f4 bc
       -0.037322346 0.08321273 -0.03209196 -0.029832397
000080 48 60 62 3d 6b 5b bd bc 41 ba 86 3d 05 76 2c 3d
       0.055267602 -0.02311488 0.06578494 0.04210474
000090 9a 9d c5 3c 1b cb ae bc c3 d3 d1 3b a7 05 fa 3b
       0.024123002 -0.021337083 0.006403418 0.0076300683
0000a0 2d d9 c5 bc e6 8a d1 3a 04 ea 43 3c dc 21 5c 3d
       -0.024151409 0.001598683 0.011957649 0.05374323
0000b0 22 94 ae 3d 5d 58 53 3c 28 11 a6 bd a1 b9 ec 3d
       0.08524348 0.012899485 -0.08108741 0.115588434
0000c0 db 32 a1 bd 75 51 65 3d bf e1 50 3d a5 ef 2c 3e
       -0.07871028 0.055985887 0.05099654 0.16888292
0000d0 8f 47 9e bd b5 e8 e4 bd 4d c4 08 3d 14 5a 37 bd
       -0.077284925 -0.11177198 0.033390332 -0.04476364
0000e0 d2 c9 69 3c f2 3b 80 3d 94 fa 5d 3d 68 f3 f0 bc
       0.014269309 0.06261434 0.054194048 -0.02941294
0000f0 bd db a6 3d 03 94 ad 3b 13 ba 02 3d d6 28 01 3e
       0.081473805 0.0052971854 0.031915735 0.12613234
000100 34 9a 2b bd a7 78 31 3d 72 92 97 bd 73 a7 04 3b
       -0.041895106 0.043327954 -0.07400979 0.002024141
000110 75 28 58 3c d4 cf ff 3a c6 1b b6 3d 37 bc 44 3d
       0.013193239 0.0019516894 0.08892016 0.04803106
000120 9e b0 e8 bc aa 7b 10 3e 18 76 e0 3c 67 9b 1c 3d
       -0.02840453 0.14109674 0.027400061 0.03823414
000130 fa b5 0f be 03 42 6f bd 46 5d dc 38 99 ad 05 bc
       -0.14034262 -0.058412563 0.00010507791 -0.008159065
000140 e8 fd 8b 3d ca cc c3 3d bc 5e 62 bd d9 63 1d 3d
       0.06835538 0.09560545 -0.055266127 0.0384253
000150 eb 6b 44 bd 1f 2a be 3c 8b 9d a7 3c 92 34 67 3d
       -0.04795448 0.023213444 0.020460865 0.05644662
000160 82 18 26 3d a7 b0 1e 3d b5 38 97 3d 93 96 46 bd
       0.040550716 0.038742688 0.07383863 -0.048483443
000170 80 94 b0 3c 58 4e 27 bd 4c d2 dd 3d 8d 5d d0 bc
       0.021555185 -0.0408462 0.108311266 -0.025435233
000180 e8 e7 59 3c 68 f9 91 3d 33 b2 93 bc 4e 5b 6c 3d
       0.01329992 0.071276486 -0.018029308 0.057704262
000190 53 a8 74 bc 5d bc d9 3b 2e 7c d0 bc 37 37 a5 3d
       -0.01493271 0.006644769 -0.025449838 0.08067172
0001a0 1c 64 98 3b cd 13 b0 3d b8 27 8b bb 6b df 3c 3d
       0.004650606 0.08597527 -0.004246678 0.046111505
0001b0 20 d2 1d bd 9b b0 22 bc c4 e4 f2 3c c0 41 82 bc
       -0.03853047 -0.009929801 0.0296501 -0.015900493
0001c0 e1 19 00 3e d0 6f a2 3d ce 91 ee 3d e8 89 fc bd
       0.12509872 0.07931483 0.11648904 -0.12330991
0001d0 24 6a d0 3d 20 d2 67 3b 2b 5d 61 bd 5c d5 fd b7
       0.10176495 0.0035373047 -0.055020493 -3.0259303e-05
0001e0 fe f2 95 3d 7a 79 ca 3d d5 22 dc bb 44 21 c9 3d
       0.07321738 0.09886451 -0.0067180195 0.09820798
0001f0 b2 27 06 3d 11 40 d7 3d 0f 85 38 bd 09 86 5e bd
       0.0327527 0.105102666 -0.04504877 -0.054327045
000200 10 77 08 3d f2 07 82 bd fb f3 7e bc 43 bc 0e 3d
       0.03331667 -0.06349172 -0.015561099 0.03484751
000210 6e 6a 2f 3d 38 01 3d bd 81 1a e6 3c 4f 78 31 bd
       0.04282611 -0.04614374 0.02808881 -0.043327626
000220 aa 24 9f bc 8f da e3 bc 9a 01 82 3c a6 59 68 bd
       -0.019426662 -0.027814178 0.015869904 -0.05672612
000230 ef 83 09 3d fa c5 a7 3d 34 14 e0 3c 96 1a bb 3c
       0.033573087 0.08192058 0.027353384 0.022839826
000240 b7 a5 b8 3d 34 63 85 bd f8 45 1f bc 8c 93 b1 3d
       0.090159826 -0.06513062 -0.009721272 0.086707205
000250 06 9a 03 bd 47 05 47 3d 92 a0 9b bd 6f 04 9b bd
       -0.03212931 0.048589017 -0.07598986 -0.07569205
000260 f8 af 98 3d 89 0d ac bc 52 81 0f 3d ec b6 9d 3d
       0.074554384 -0.021002548 0.03503544 0.07700905
000270 84 ad 98 3d 67 be 08 3e 3d 55 08 bd 40 ff 8d 3d
       0.074549705 0.13353883 -0.033284415 0.06933451
000280 59 99 4d 3d 99 11 1e 3d df 2f 24 3d 5f 57 c4 bc
       0.05019507 0.038591 0.040084716 -0.023967443
000290 e2 7e 4f bd 11 08 c2 b6 37 24 a8 bb 73 a7 04 3d
       -0.050658114 -5.7825896e-06 -0.0051312703 0.032386255
0002a0 59 5a 8f 3d 5b f0 10 3e 17 90 85 3d 15 ca 83 3b
       0.06999654 0.14154188 0.065216236 0.004021893
0002b0 af 81 1e bb b0 0d 03 3d 47 9b 25 3d 77 2a bd bd
       -0.0024186184 0.031995475 0.040431287 -0.09236615
0002c0 e0 a7 e2 3c 81 cb 98 3d 9c 99 ab 3d e1 d4 42 bd
       0.02766794 0.0746069 0.08378908 -0.0475663
0002d0 71 7f f1 3d 79 c2 a5 3d fe d6 84 3d 10 27 f3 3b
       0.11791886 0.08093733 0.06486319 0.007420428
0002e0 c8 90 c1 3c 58 a4 a8 3d 0d 36 6c bd 3c 0e bd 3d
       0.023628607 0.08234471 -0.057668734 0.092312306
0002f0 2e 9c 1f 3d 34 82 dc bc 06 ea e0 3d 2d 18 03 be
       0.038967304 -0.026917554 0.109821364 -0.12802191
000300 19 be a8 3d 30 9c f9 3c 7e 50 b6 3c f7 f5 6f bc
       0.08239383 0.030469984 0.022255179 -0.014646045
000310 cc ca 5e bd 75 e9 41 bc 6c 16 18 bc cb 54 23 bd
       -0.05439262 -0.011835446 -0.00928269 -0.039875787
000320 6a 7f b9 3c c6 cc 46 3c e2 99 ad bc fa 51 ba bd
       0.022643764 0.012133783 -0.021191541 -0.09097667
000330 8b 71 01 ba 1e fa f7 3d ae eb fd ba 2c 02 20 3d
       -0.00049378787 0.12108253 -0.0019372606 0.03906457
000340 83 8b 00 bd 40 52 e0 3d 4c 9f 8b bd e7 a0 58 3d
       -0.03138305 0.10953188 -0.06817493 0.052887823
000350 69 df a6 3d b1 1e a7 3d 40 76 a0 bc 78 27 28 3d
       0.08148081 0.08160151 -0.019587636 0.041053265
000360 36 9c 75 3c fa a3 f3 bd 2a 5c 0a 3c 52 ec c3 3d
       0.014990857 -0.118965104 0.008444825 0.09566559
000370 ea 93 d1 bc 78 59 ca 3d dd e3 a9 3c 7c 6e dc 3c
       -0.025583226 0.09880346 0.020738536 0.026908152
000380 6c 73 de bc 1a 48 81 bc 5d 1b 63 3b cc 9f dd 3d
       -0.027154647 -0.015781451 0.003465376 0.108214945
000390 99 ea 9f 3d 28 eb d3 bc 6c b0 ba bc a6 56 b1 bd
       0.07808418 -0.025868967 -0.022789203 -0.08659105
0003a0 ab 95 d7 3b e9 15 d0 bc 75 8c 13 3d 4e bb 5f bc
       0.006579121 -0.025401073 0.036022622 -0.013655497
0003b0 d9 7a d6 3d 78 63 01 bd 72 66 65 3d ac 87 84 3d
       0.1047265 -0.031589 0.056005903 0.0647119
0003c0 4e 84 79 3c 61 36 5e bd 8d 4e 23 bd e5 b0 60 3d
       0.015229298 -0.05425108 -0.039869834 0.0548562
0003d0 3a 02 c6 bd ff f4 0f 3d ba 21 e2 3d ab 16 6a 3d
       -0.096683934 0.035145756 0.11041589 0.057150524
0003e0 4d 65 a2 3d 85 a0 da bd 21 e8 aa 3d 4b d2 7f bc
       0.07929478 -0.10675148 0.08345056 -0.015614103
0003f0 03 f1 60 3d ff d5 16 bd a0 a4 f9 3d 29 03 d3 3d
       0.054917347 -0.036825176 0.12189603 0.10303337

fc2.bias f4 [64]
000000 6a ed cb 3d ba ab c1 3d e6 e0 f7 bc 3f 77 85 bd
       0.099573925 0.09456582 -0.030258607 -0.06516885
000010 0b 40 ef bc 81 5a a6 3c fa d8 95 3c 65 7c 6e 3d
       -0.029205343 0.020306828 0.018291939 0.0582241
000020 64 36 bf 3c 8e 16 7e 3c d2 2a 94 bc fc df 5b bd
       0.023341365 0.015508307 -0.018086825 -0.053680405
000030 03 ef a1 3c c2 a8 9f 3d 53 66 25 3d dc 37 07 bd
       0.01976729 0.0779586 0.040380787 -0.033012256
000040 07 d3 85 3d 5e eb d3 3c 5e 2c c7 bc e6 01 d9 bb
       0.06534391 0.025869068 -0.024313148 -0.0066225408
000050 6d 93 5f ba 9b ca 8d 3d 36 79 ab bb 88 0d 2a bd
       -0.0008528743 0.069234096 -0.0052329553 -0.04151681
000060 63 31 35 bb e6 ec 2c 3d cc 88 57 3c 1d 11 69 3d
       -0.0027647845 0.04221811 0.0131551735 0.056901086
000070 fa c6 11 bd 13 a8 9d 3c f1 16 45 3c c3 b1 7e 3b
       -0.03559015 0.019245183 0.012029395 0.0038863278
000080 1f 82 a2 3c c5 42 df bc cc 27 53 bc fe c1 67 bd
       0.019837437 -0.027253518 -0.012887906 -0.05658149
000090 a2 1c 56 bd 7a 09 2b bd dc 47 65 3d 5b 23 09 3d
       -0.0522734 -0.041757084 0.055976734 0.033480983
0000a0 43 fd cd 3d a6 5b 74 bd f5 fc 09 3d 09 ea 9e 3d
       0.100580715 -0.059657715 0.033688504 0.077594824
0000b0 65 87 9c bc a8 de 81 3c 50 3b d6 ba d1 24 42 3d
       -0.01910753 0.015853241 -0.0016344581 0.047398392
0000c0 ed c1 e7 3c e6 3e 37 3d 23 7e 46 3d 55 b3 4d bc
       0.028290713 0.04473772 0.048460137 -0.012554963
0000d0 25 66 bb bc cc 5f 5b bc 99 a2 51 bd be 47 95 3d
       -0.022875855 -0.013389539 -0.051180456 0.07289074
0000e0 c3 e0 a8 bc 71 73 f0 3b fa bd 92 bc 69 a3 b1 3d
       -0.020614987 0.0073379804 -0.017912854 0.08673746
0000f0 60 e5 03 bd e2 e3 8d 3d bc 90 79 3d 90 4e 75 bd
       -0.03220117 0.06928231 0.060929045 -0.059889376

norm2.weight f4 [64]
000000 07 49 65 3f bb ba 5f 3f 4d 77 64 3f 69 c9 58 3f
       0.89564556 0.87394303 0.8924454 0.8468233
000010 9e 92 61 3f ea bd 50 3f e7 86 52 3f 19 a8 4e 3f
       0.88114345 0.81539786 0.82237095 0.80725247
000020 ee 7c 7d 3f aa c2 5b 3f 7a dc 4d 3f 76 05 59 3f
       0.9901875 0.8584391 0.80414546 0.8477396
000030 72 28 58 3f 7c 0a 73 3f 50 91 5a 3f a9 b1 6f 3f
       0.84436715 0.9493787 0.8537798 0.9363046
000040 0f 51 5c 3f c5 93 5f 3f 03 7e 79 3f 4e 4d 57 3f
       0.86061186 0.87334853 0.97457904 0.8410233
000050 36 c6 50 3f c3 79 64 3f 83 94 61 3f 0e 43 65 3f
       0.81552446 0.89248294 0.88117236 0.8955544
000060 eb 42 60 3f 7c 4e 64 3f 1e a8 75 3f ff 68 6e 3f
       0.8760211 0.8918226 0.9595965 0.9312896
000070 89 42 57 3f e4 57 4c 3f c2 3d 60 3f 71 bd 60 3f
       0.840859 0.7982161 0.87594235 0.87789065
000080 74 aa 6a 3f 51 58 49 3f bf 89 7a 3f fe 7a 51 3f
       0.9166634 0.78650385 0.97866434 0.81828296
000090 b4 7c 70 3f b6 17 4e 3f 2e 8e 5a 3f 15 cf 5f 3f
       0.9394028 0.8050493 0.853732 0.8742536
0000a0 dc 31 6d 3f 6a a4 61 3f 01 81 6a 3f 30 90 64 3f
       0.92654204 0.881415 0.91603094 0.8928251
0000b0 7a 0d 4f 3f 44 ca 56 3f 6f 27 63 3f 6d 78 57 3f
       0.8087994 0.8390238 0.88732046 0.8416813
0000c0 34 f2 6e 3f 5f aa 68 3f 61 8f 53 3f c5 e3 64 3f
       0.9333832 0.90884966 0.82640654 0.8941005
0000d0 42 d6 62 3f a3 ad 7e 3f 66 f2 73 3f d5 9d 3e 3f
       0.8860818 0.994837 0.95291746 0.7445958
0000e0 94 24 5d 3f 84 94 6a 3f 87 25 5d 3f 92 48 6f 3f
       0.8638394 0.91632867 0.8638539 0.9347011
0000f0 2f bc 49 3f 57 08 48 3f 01 53 61 3f bb 73 45 3f
       0.7880277 0.78137726 0.8801728 0.77129716

norm2.bias f4 [64]
000000 12 7c 41 3d 50 55 05 bc 20 6f 1b 3d f1 7f 8c bc
       0.047237463 -0.008138016 0.037947774 -0.017150851
000010 c4 c7 4e bb af 91 74 bd 26 db 84 bc e6 2c 33 bd
       -0.0031552175 -0.059709247 -0.01621778 -0.04374399
000020 cf 83 8b 3d 16 58 0b bd 43 3c 55 bd f7 47 64 bc
       0.0681225 -0.034019552 -0.052059423 -0.013933173
000030 5d 1f 38 bd 1e 3a 72 3d e9 a1 41 3c 46 0a 37 3d
       -0.044951785 0.059137456 0.011818388 0.044687532
000040 cf 0b 92 bc a6 6f d9 3c 2a 33 b9 3c 47 1a c7 bc
       -0.017827896 0.026542496 0.022607405 -0.024304522
000050 45 bd 65 bc 24 00 a3 3c 15 94 38 3d 2e 2c 40 3d
       -0.014022176 0.019897528 0.045063097 0.046917133
000060 e0 7e 53 3c eb d6 20 3d 59 fc 22 3d ff cd a5 3c
       0.012908667 0.03926746 0.03979144 0.020239828
000070 c3 95 fb bc 95 ee 8b bd ca 1e e5 3b 99 2c 8e 3c
       -0.03071106 -0.06832615 0.0069921957 0.01735525
000080 59 ab 89 3c d0 24 71 bd 7d 8a ef 3d 1e 62 05 bd
       0.016805338 -0.058872998 0.116963364 -0.032564275
000090 46 70 33 3d 35 5f a2 bd 24 16 4a 3b 27 0f 82 3b
       0.043808244 -0.079283156 0.003083595 0.0039690915
0000a0 04 48 3c 3d c8 b9 7c bc e3 df 5c 3c b8 76 b5 3c
       0.045967117 -0.015425153 0.013481113 0.022151336
0000b0 3d 83 c8 bc c5 b0 88 3c 23 57 c5 3c cb 5f e1 bb
       -0.024476642 0.016685853 0.024089402 -0.0068778745
0000c0 f2 2b e8 3c 72 82 1d 3d 10 9e 9d 3c 25 98 e3 3c
       0.028341267 0.03845448 0.01924041 0.02778251
0000d0 a8 c0 dc 3c 28 58 30 3d 46 e4 84 3d 03 9b 38 bc
       0.026947334 0.043052822 0.06488852 -0.011267426
0000e0 16 19 1e 3c 4d e2 0d 3d e2 21 0c 3b f0 8a 4a 3d
       0.009649536 0.034639645 0.00213825 0.049448907
0000f0 df 43 e4 bd d4 b9 e2 bd 95 d8 73 3c 3b 43 9a bd
       -0.11145758 -0.110706 0.01488318 -0.075323544

fc3.weight f4 [32, 64]
000000 3c 2a 56 bd 19 02 a4 bd 4e ad 40 3d e8 12 e5 bd
       -0.05228637 -0.080082126 0.047040276 -0.11185247
000010 44 93 dc bd e0 44 e7 bc 2d f8 ee bd 16 a2 7f bc
       -0.10770276 -0.028231084 -0.116684295 -0.015602609
000020 50 b6 15 be ff 3a 7c 3b 25 eb b6 bd cd 26 a6 bb
       -0.14620328 0.0038487313 -0.08931569 -0.0050705434
000030 47 97 f0 bc 07 79 f6 bd f8 b5 fb bd 88 8d 07 be
       -0.02936901 -0.12034803 -0.12290567 -0.13237584
000040 05 3f 11 bc 18 aa 21 bd 51 19 16 bc a8 c4 78 bc
       -0.008865123 -0.039468855 -0.009161309 -0.015183605
000050 93 6e c0 bb bc 59 b3 bd f7 81 4a bd 3b 1f 9b bd
       -0.0058725565 -0.0875735 -0.04944035 -0.07574316
000060 e7 9c a3 bd 50 13 bb bd 41 b2 84 bc 90 f8 11 3a
       -0.07988911 -0.09134543 -0.01619828 0.000556835
000070 b7 72 6c 3d 4b d1 ac 3d 6f 7a 46 3c da 4e 48 bd
       0.057726588 0.08438357 0.012114151 -0.048903324
000080 10 8b e0 bd fb db 07 bc 2e e5 48 be b8 31 31 bd
       -0.10964024 -0.0082921935 -0.19618675 -0.043260306
000090 2b a0 b9 3c 5c 93 60 bd b2 6d fc bd df 57 e1 bd
       0.022659382 -0.054828033 -0.1232561 -0.11003088
0000a0 51 5f fc bd dc 39 17 be 21 77 ac 3d 9c ea a7 3d
       -0.12322868 -0.14768165 0.084211595 0.08199045
0000b0 c2 78 47 bd 2e 5d c7 bd 0c b0 d9 bd 8f c9 7d 3c
       -0.048699148 -0.097345695 -0.106292814 0.01548995
0000c0 2e 7c 16 be 3a 7e bc bd 0d 4e 0b bd ee b2 74 3d
       -0.14695808 -0.09203763 -0.034009982 0.059740953
0000d0 c1 0d 77 bc 77 72 08 bc 9e 29 9e ba e1 cf d8 bd
       -0.015078963 -0.008328072 -0.0012066846 -0.10586525
0000e0 a8 01 64 bd d5 c9 f8 3d 18 56 ad bd 5c 12 94 3d
       -0.055665642 0.121478714 -0.08463687 0.07230064
0000f0 30 5e 44 3d ce e7 9d bb 14 39 45 bd d2 a1 b9 3c
       0.047941387 -0.004818893 -0.048150137 0.02266017
000100 ec a7 7c bd 52 25 f7 bd 66 bd 9e bc a3 d4 d5 bd
       -0.06168358 -0.12067665 -0.019377422 -0.10440948
000110 db ce 98 bd a6 c7 ee bd 1f c6 1c bd 13 71 85 3c
       -0.074613295 -0.11659174 -0.03827488 0.01628927
000120 0d 61 21 be 26 0b 97 bd 67 dd ce bd b9 cd f3 3d
       -0.15759678 -0.07375173 -0.10100823 0.11904473
000130 e1 82 b9 3d 1a d7 c8 bd e4 72 d7 bd 9f 8c e7 bd
       0.09058166 -0.09806652 -0.105199605 -0.11306118
000140 a7 ec 63 bc fe d8 dc 3c 3a e3 37 be 6f e6 e5 3d
       -0.013911403 0.026958939 -0.17957774 0.11225592
000150 09 3c b9 3a 95 43 c4 3d 46 9c 12 bd 0d 71 10 be
       0.0014132272 0.09583203 -0.035793565 -0.14105625
000160 f2 e4 44 be 99 16 75 bd bf 73 95 bd f2 5d 43 be
       -0.1922796 -0.059836004 -0.072974674 -0.19078806
000170 c4 47 48 3d dd 78 2d 3d 2b fb 01 be 31 2e 8b bd
       0.048896566 0.042351592 -0.12693469 -0.0679592
000180 ee 7b cf bd cd 01 56 3b 3d 22 54 be 2b 9a e1 3d
       -0.101310596 0.0032654882 -0.20716186 0.11015733
000190 7d d3 44 be 1e ea a2 bd 65 2b 23 be 3d af 20 bd
       -0.19221301 -0.079548106 -0.15934522 -0.03922962
0001a0 46 aa f6 bd fe 37 18 be 44 09 a5 bd 84 bc 06 be
       -0.12044196 -0.1486511 -0.08058408 -0.1315785
0001b0 86 a3 0f be 29 ca dc bd 86 66 e5 bd 99 8c c1 bd
       -0.14027223 -0.107807465 -0.112011954 -0.09450645
0001c0 e9 05 16 be df 2f 8d be 36 ac 0a bd de 1a 99 bc
       -0.14650692 -0.27575585 -0.03385564 -0.01868957
0001d0 99 8e 5e bd 17 91 81 be d2 dc 65 be e1 bf 11 be
       -0.05433521 -0.25306007 -0.22447518 -0.14233352
0001e0 92 b4 70 be 83 39 9c bd 87 a8 b3 bd 28 9e 8c bd
       -0.23506382 -0.07628157 -0.087723784 -0.068661034
0001f0 e8 7e b0 bd 56 4f 95 3d f4 8b 21 bd 22 0a be bd
       -0.086179554 0.07290523 -0.03944011 -0.092792764
000200 86 75 c6 3b 98 f7 85 bd 1b 59 0c be 83 78 35 bd
       0.0060564904 -0.065413654 -0.13705866 -0.044304382
000210 7d eb fe bc bd b8 91 bc de 15 c8 bd 58 e0 5b 3c
       -0.031118149 -0.017788285 -0.09769796 0.013420187
000220 3f 92 5d bd a8 a1 80 bd 30 a6 de bd 16 5d e2 bd
       -0.05409455 -0.062808335 -0.108715415 -0.11052911
000230 e4 c1 8e 3b 2b 1b c7 bc c9 db a9 3c 91 b0 0e 3d
       0.0043566097 -0.024304947 0.020734685 0.034836356
000240 40 c9 d2 3c 13 5d 07 bc c7 ac 45 be 31 d3 60 3c
       0.02573073 -0.008261937 -0.1930419 0.013722227
000250 9a fe de bd eb 1f db bd c2 35 51 bd 35 d4 b1 bd
       -0.10888405 -0.10699447 -0.051076658 -0.086830534
000260 be 4f bf bd 06 93 b5 3c e6 47 80 bd 67 15 0e be
       -0.093413815 0.022164833 -0.062637135 -0.13875352
000270 f0 6e 05 be 3c d8 a4 ba 92 1e 1b be f8 be 69 bd
       -0.130306 -0.001257665 -0.1514838 -0.057066888
000280 3f a4 5f bc 8e a9 09 3d 85 ae ab bd 85 58 52 3d
       -0.013649999 0.033608966 -0.08382896 0.05135395
000290 5b 84 3d be 16 ad 9b bc 28 15 1a be 29 2b 1e bd
       -0.18507521 -0.019003432 -0.15047133 -0.03861538
0002a0 a0 aa c5 bc 9f f4 0c be fe 23 7e bd 81 33 fa bd
       -0.024129212 -0.1376519 -0.062046044 -0.12216855
0002b0 7a 43 76 be 33 b9 12 3d ee bf 0a be a2 9d 03 be
       -0.24049178 0.03582115 -0.13549778 -0.12853101
0002c0 59 f7 ae bd 7d 93 7d be ce d8 8a 3c 6d 72 e7 bd
       -0.085432716 -0.24763294 0.016949084 -0.11301122
0002d0 17 17 97 bd ef d3 70 be 88 66 4e be b4 8d 20 be
       -0.07377451 -0.23518346 -0.201563 -0.15679055
0002e0 7c ed c5 bd 94 53 bc bd b6 66 d5 bd 6c 67 03 be
       -0.09664437 -0.09195629 -0.10419981 -0.12832421
0002f0 97 08 13 bd cb 9b 3d bd 02 81 1f 3d 1c 2a d4 bd
       -0.035896864 -0.046291154 0.03894139 -0.10359594
000300 da 00 6e bd 81 56 12 be 71 97 12 bd 1c 92 c8 bd
       -0.05810628 -0.14290811 -0.035788957 -0.09793493
000310 5a 3b a6 bd c6 35 41 be 00 c0 05 be 40 7f b3 3d
       -0.08116789 -0.18868169 -0.13061523 0.087645054
000320 24 94 1f be 71 ee 05 bb e3 04 a5 bd 14 1f f5 3d
       -0.15583855 -0.0020436312 -0.08057573 0.11968818
000330 4c 48 20 bd 2f 02 e5 bd bd c8 8a bd d1 0a e1 bd
       -0.039131448 -0.11182057 -0.06776569 -0.10988391
000340 1b 6f 1a bd 32 45 b7 3c 7a 85 37 be aa 21 fc 3c
       -0.037703615 0.022371862 -0.17922011 0.030777771
000350 b3 b6 a3 bc 5a 48 0e 3e 78 19 81 bd 63 14 90 bd
       -0.019984579 0.13894787 -0.06303686 -0.070351385
000360 96 02 28 be 19 05 e2 bd a0 e9 b5 bd c4 c1 36 be
       -0.16407236 -0.110361286 -0.08882451 -0.17847353
000370 cd 7a 8d 3c ea 06 8a bd 2c 5b bb bd 4f 77 ab bd
       0.01727047 -0.067396 -0.09148249 -0.08372366
000380 47 22 c5 bd 44 a0 c9 bd 1f 48 59 be f3 27 50 bd
       -0.096256785 -0.09845021 -0.21218918 -0.05081935
000390 dd 77 44 be 3c ec 6f bd 4a 0b 0e be a5 d6 61 3c
       -0.19186349 -0.0585749 -0.13871494 0.013784085
0003a0 99 96 f8 bd ea ba 0c be e1 36 2d bd 42 9b 3b be
       -0.12138099 -0.13743177 -0.042288665 -0.18320945
0003b0 a5 48 de bd 8c a8 6b bd c5 9d c5 bd fa ab 00 be
       -0.108536996 -0.057533786 -0.09649233 -0.12565604
0003c0 7d 3f 12 be ee f0 82 be 19 c8 d2 3c d2 8a 8e bc
       -0.14282031 -0.2557444 0.02573018 -0.017400179
0003d0 46 b2 00 bd 55 06 77 be 35 85 61 be 0b 27 20 be
       -0.031420015 -0.24123509 -0.2202347 -0.15639894
0003e0 5e a3 4f be 26 a7 87 bd 87 91 ee bd 8c e1 97 bd
       -0.20277163 -0.06623678 -0.11648851 -0.074160665
0003f0 3c 80 ed 3c fc ce ec 3d c0 ed 22 bd d7 0c cd bd
       0.028991811 0.11562917 -0.039777517 -0.10012215

fc3.bias f4 [32]
000000 26 9c eb bc f0 8c 11 bd b5 bb e6 bc fd fe bc bd
       -0.02876098 -0.0355348 -0.028165678 -0.09228323
000010 f8 03 9a bd 91 e8 b0 bc c4 74 38 bd d8 fc 25 be
       -0.07520288 -0.021595271 -0.04503323 -0.16209733
000020 34 9f 9e 3d 10 82 df bc 5b a1 c6 3b 6a 73 cb bd
       0.07745209 -0.027283698 0.0060617155 -0.09934123
000030 32 84 16 bd 5d b3 52 3c b4 c3 1c be af 65 cb bd
       -0.036747165 0.012860146 -0.1530903 -0.09931504
000040 da 64 73 3d 1d 31 e4 3c 99 60 f9 bd f8 a8 49 bb
       0.05942235 0.02785545 -0.12176628 -0.003077088
000050 94 ae 46 3d ab 81 80 bd a0 8a 4c bd 40 82 ff bd
       0.048506334 -0.06274732 -0.04993689 -0.12476015
000060 62 6e 00 be 0b 62 37 3d 64 f4 77 be 7a 48 b7 3d
       -0.12542108 0.044771235 -0.24214321 0.08949371
000070 81 a1 a4 3d 24 d9 87 be 4c 87 dd 3d a3 8c 81 be
       0.08038617 -0.26532853 0.108168215 -0.2530261

norm3.weight f4 [32]
000000 6f 21 e0 3f ac 58 5e 3f f5 2d fe 3f af 12 57 3f
       1.7510203 0.8685405 1.9857775 0.84012884
000010 81 31 d7 3f 6e 99 ba 3f 14 a4 da 3f 4d a3 64 3f
       1.6811982 1.4578073 1.7081323 0.8931168
000020 ab 04 cb 3f 9e 37 dc 3f f3 94 c5 3f 08 a9 58 3f
       1.58608 1.7204473 1.5436081 0.8463292
000030 68 bb d9 3f 8f 40 f6 3f 98 85 66 3f c1 a2 f3 3f
       1.7010317 1.9238452 0.900476 1.9034044
000040 a5 24 cf 3f a5 90 d8 3f cd 3b 03 40 0e a3 cb 3f
       1.6183058 1.6919142 2.050525 1.5909135
000050 36 52 f2 3f f0 47 dc 3f 40 11 5c 3f ce d6 d0 3f
       1.8931339 1.7209454 0.8596382 1.6315553
000060 4c 3b 66 3f 05 89 e5 3f ce 22 5c 3f d4 de c9 3f
       0.8993423 1.793244 0.8599061 1.5771127
000070 5b 00 d2 3f 0f f7 4c 3f 7d d7 e4 3f 75 9f 5e 3f
       1.6406358 0.8006448 1.7878262 0.8696206

norm3.bias f4 [32]
000000 0b 20 15 3f 46 b4 86 bb 07 0f 23 3f 0d 13 64 bc
       0.5825202 -0.0041108457 0.63694805 -0.013920558
000010 20 d4 1b 3f ce d4 f2 3e 68 fb 10 3f e1 87 8f 3c
       0.6087055 0.47427982 0.56633615 0.017520847
000020 69 d5 08 3f cf ae 1d 3f 6a 56 eb 3e a8 94 14 bd
       0.5345064 0.6159486 0.45964366 -0.036274582
000030 f7 87 d2 3e d0 50 46 3f 97 b0 91 3d f2 71 ed 3e
       0.41119358 0.7746706 0.0711376 0.46375996
000040 51 30 cf 3e 8b 30 01 3f b5 27 21 3f d2 be 0a 3f
       0.4046655 0.50464696 0.62951213 0.5419742
000050 46 50 24 3f 63 f0 eb 3e 1f 78 83 bc f6 78 ff 3e
       0.6418499 0.46081838 -0.01604849 0.49896973
000060 3b 78 48 3d 11 e4 23 3f 15 c3 9e bb 5a 47 08 3f
       0.048942786 0.64019877 -0.004845033 0.53233874
000070 d1 3b f3 3e 9d 92 67 3e df f2 19 3f 71 eb 94 3b
       0.47506574 0.22614522 0.60136217 0.0045446684

fc4.weight f4 [1, 32]
000000 bf 14 56 bf 0b da 13 bd a2 a1 66 3f e5 da 63 bd
       -0.83625406 -0.036096614 0.9009038 -0.055628676
000010 5e e5 4f 3f bd e3 2e bf 08 e8 44 3f b2 fe 30 3b
       0.8120936 -0.6831625 0.7691655 0.002700728
000020 fc 1e 45 bf 10 12 58 3f 78 03 41 bf 02 b4 c2 bc
       -0.77000403 0.8440256 -0.7539592 -0.023767475
000030 c8 29 4d bf 8d 06 71 3f ba 03 da 3c 6d f2 75 bf
       -0.8014188 0.9415062 0.026613105 -0.9607304
000040 7e 4a 46 bf e0 1a 44 bf 03 68 83 bf b8 70 37 3f
       -0.77457416 -0.7660351 -1.0266117 0.7165637
000050 52 05 65 3f 92 21 4f bf a5 ac b4 bb 17 a8 59 bf
       0.89461243 -0.809106 -0.005513745 -0.8502211
000060 37 45 30 3d d0 e0 54 3f 34 17 07 3c d0 97 32 bf
       0.04303476 0.83155537 0.008245278 -0.697629
000070 fd 65 56 bf 61 76 4a 3e cb 34 4b 3f 16 4a 12 3c
       -0.8374937 0.1977172 0.7937743 0.008928796
