models/best_odd_even_model.pth (torch, 23330 bytes, 19 tensors)

fc1.weight f4 [64, 14]
00000000: d136 a7bc 9c67 bfbd c4d6 693e 33f5 d83c
00000010: 2c66 8dbc f043 143e 96d0 e6bd 64a8 a63d
00000020: 9666 5ebd c1b2 58be e9a1 b1bb 464f 983d
00000030: 2a2b 2bbe b9ec a43e ce9c cfbc 7ca2 6b3d
00000040: 97e7 89be 7c72 f03d 1f6b 833e 9475 3abe
00000050: 32d0 02be 00ce 4abe b587 3bbc 4045 833b
00000060: f085 31be ec04 4d3e ce47 073d 405a 5e3e
00000070: ad37 25bd d7a8 da3c 5426 653e 5e8d 543e
00000080: 3ed5 743e 2b38 f73d ed4c 483e 199b 25be
00000090: 7012 6ebe 44ac d7bd ba70 6c3d 8349 4b3e
000000a0: 232c 733e 06d5 2ebe 710e d3bd 3d87 c93d
000000b0: 99ee eabd e474 0d3d aa1d 1a3d 2e04 ff3c
000000c0: d981 e03d b9c7 663e a22e 28be f725 8e3e
000000d0: 6388 e83c 91cc a8be ade6 1c3e 8910 a23e
000000e0: 8907 ef3c f96c dc3c c0c9 82be 70a5 e33b
000000f0: 9ca5 4cbe bb33 96be 18db 54bd 2008 64be
00000100: cffd 263e 0da6 30bc 892b b0bd 8bda afbd
00000110: 7d0f 323e 5093 8bbe 4ed8 e4bd 5510 0ebd
00000120: 173b 12bd 134b 3fbe 2317 71be bbdb 42bd
00000130: 1e1f 0c3e 9d1b 54be 9e0b eb3c da24 f5bd
00000140: cc09 893e 2aa2 a33e a4fc c9bd 6b37 3d3e
00000150: c05a 3d3e 7ae4 5abe ca77 8d3c e2e7 a0be
00000160: e2f2 4bbe 7e84 0a3d b377 863d fdcb 0ebe
00000170: 3e6f 92be b060 1f3d aa62 2dbe a243 26be
00000180: aa23 523d f82d 493e 194f 0bbd 93be 823c
00000190: 9285 c8bd 9932 9e3d 9d4f e53d 8acc 7dbe
000001a0: 62aa c5bc 2d9a e3bd 4616 78be 1612 863e
000001b0: 3230 e0bc b2d2 3e3e 4ea6 b4be a147 b23c
000001c0: 86db ae3d 3fb2 81be a56e 2cbc f13e 193e
000001d0: 535b 493e 8745 37be fc75 febd 5bfc 50be
000001e0: 8b35 d0bd 32fb a9bd 3cd0 a43d 7408 a8bd
000001f0: a72d 973e 996d c33d 5195 88be d816 d93d
00000200: b2c5 be3d 60fd 283d e56c ee3d 6125 d63d
00000210: 146f 4cbe 0281 1abe feac c7bd e458 78be
00000220: d465 1f3c 7d6a b8be 1135 cdbc 5643 90bd
00000230: 0acd e9bd ffe9 b03e fcf9 01be 0028 5bbe
00000240: 0116 f9bd efe4 093d 4401 663e 517b 59bd
00000250: 2b19 d23e bba0 923d c6fa 7c3e 2013 d63d
00000260: c9b5 093e b1fb 58be 6821 c53d babb 71be
00000270: 619e a8bd d570 efbd f50c 58be 573d 10ba
00000280: d046 7dbe 26c8 1a3d f4ac 45be a393 2abe
00000290: cfc1 973d 5ffd 8b3e fe27 063e 6f2e acbd
000002a0: 7f17 bcbd 957f 3fbe 4772 4ebd 1c5e 68be
000002b0: 2f29 97be c54f e3bd 34cd 163e e8a2 c53d
000002c0: f2fb 41bd fb6d 23bd c897 923c 5c2d abbe
000002d0: ba48 123e 746f ed3d 1d31 e13d bc02 353e
000002e0: 7280 5d3e 6087 dbbd 5f7c 223e c653 f43d
000002f0: fd91 c23c c0df 43be 1edb 8e3e 00a0 eb3d
00000300: 3e0e f43c d74f afbc 9f60 d4bd b358 073d
00000310: d624 7a3d 2fd6 363c 642b 17be d944 cabd
00000320: d9c2 49be ba87 17bd 43b1 94bd dbd5 b13d
00000330: c702 26be 8758 99bd 2301 863e 5d92 e83e
00000340: 43f6 91bd 643a c5bd 5080 7f3e 2318 593e
00000350: d804 6ebe 5cee 843d 7d57 41be 5e0b 20be
00000360: 061a 50be ffb9 a9bb d6e7 983e 2371 6e3d
00000370: eb89 7ebc c958 6fbd cbb3 2cbe 9f69 8a3e
00000380: ee7f 87be ac64 2d3e 81b7 c23d f1a8 8fbd
00000390: 66e0 3c3e 1376 44be 5ea6 023d 3afa c4bd
000003a0: 0a01 103e 9c7e 643e 81b6 0a3d 0368 c13c
000003b0: 0156 eb3d d630 45be 60a1 543c 6e1b 283e
000003c0: f6f6 573e d097 843d cd8e 393d 207a ff3d
000003d0: 87b1 be3e 168b d13d acb6 48be 268d d43d
000003e0: bd07 84bc a735 03be c61d 2dbe f24a 853e
000003f0: 3f03 cd3d 0324 da3d cb95 01be 0699 36be
-0.02041188 -0.09345934 0.22835833 0.026484108 -0.017260633 0.14479041 -0.11270253 0.08137587
-0.054297052 -0.21161939 -0.0054209125 0.07436995 -0.16715685 0.32211855 -0.025343325 0.057528004
-0.26934502 0.11740586 0.25667664 -0.18208915 -0.12774733 -0.19805145 -0.011445929 0.004006058
-0.1733625 0.20021409 0.033027463 0.21714115 -0.0403363 0.026691837 0.22377902 0.20757052
0.2390947 0.1207126 0.19560595 -0.16172446 -0.23249221 -0.10530904 0.057724692 0.19852261
0.23747306 -0.1707345 -0.10305489 0.09840248 -0.1147129 0.034535304 0.037625946 0.031129923
0.109622665 0.22537126 -0.16424039 0.2776334 0.028385347 -0.32968572 0.15322371 0.3165324
0.029178398 0.026907431 -0.25544548 0.006947212 -0.1998505 -0.29336342 -0.051966757 -0.22268724
0.16307758 -0.010781777 -0.08602054 -0.08586606 0.17388721 -0.27260828 -0.11174069 -0.034683544
-0.035700884 -0.18680982 -0.23543982 -0.047572833 0.13683745 -0.20713659 0.028692063 -0.119699195
0.26765287 0.3195966 -0.098626405 0.18478172 0.1849165 -0.2137622 0.017269034 -0.31426913
-0.19916871 0.03381776 0.065657996 -0.13945003 -0.28600496 0.038910568 -0.16932169 -0.16236737
0.051303543 0.19646442 -0.03401098 0.015960013 -0.097911015 0.077244945 0.11196826 -0.24785057
-0.024129096 -0.11113391 -0.24227247 0.26185673 -0.027366731 0.18635061 -0.3528313 0.021762671
0.085379645 -0.25331303 -0.010524427 0.14965416 0.19663744 -0.17897616 -0.124248475 -0.20408766
-0.101664625 -0.08299865 0.0804753 -0.08204737 0.29527017 0.095423885 -0.2667642 0.1060006
0.09315051 0.041257262 0.11641864 0.10456348 -0.19964248 -0.15088275 -0.097497925 -0.24252659
0.009728868 -0.36018744 -0.025049718 -0.07044093 -0.11416061 0.34553525 -0.12693018 -0.21401978
-0.121624 0.033665594 0.2246142 -0.05309612 0.41034827 0.07159563 0.24705037 0.104528666
0.13448252 -0.21189763 0.09625512 -0.23606768 -0.082333334 -0.11691443 -0.21098693 -0.00055023044
-0.24734044 0.037788533 -0.19304258 -0.16657881 0.07410013 0.27341744 0.13101193 -0.08407294
-0.09184169 -0.18701012 -0.050401952 -0.2269215 -0.29523608 -0.11099199 0.14726716 0.096502125
-0.047359414 -0.039899807 0.01789464 -0.33433044 0.14285555 0.115935236 0.10995696 0.17676824
0.21631029 -0.1071918 0.15867756 0.11930041 0.023751253 -0.19128323 0.27901548 0.11505127
0.029791947 -0.021400375 -0.103699915 0.033043575 0.061070286 0.011159464 -0.14762646 -0.09876413
-0.19703235 -0.036994673 -0.072603725 0.08683368 -0.16211997 -0.074875884 0.26172742 0.45424166
-0.07127049 -0.09630278 0.24951291 0.21200614 -0.23244035 0.06490776 -0.1888103 -0.15629336
-0.20322427 -0.005179643 0.29864377 0.058213364 -0.015535812 -0.05843428 -0.1686546 0.27033707
-0.2646479 0.16932935 0.09507657 -0.07014645 0.18444976 -0.19185667 0.03189694 -0.096180394
0.14062896 0.22313923 0.033865456 0.023609167 0.11491013 -0.1925691 0.012977928 0.16416714
0.21090302 0.064742684 0.0453022 0.12474465 0.37244818 0.10231607 -0.19600934 0.103784844
-0.016116971 -0.12813435 -0.16905889 0.2603374 0.10010385 0.106514 -0.12654798 -0.17831811

fc1.bias f4 [64]
00000000: 858c 80bd e96c 743e 682f eabd 7e34 fbbd
00000010: 7a3f 7b3e 22a4 3f3e e6d9 893c 09d9 783e
00000020: 471a cd3d f0e2 14be 5c2d 0d3e 73c0 82bd
00000030: 1d92 773d 438d ab3d 59dc 8c3d 81ac 1cbe
00000040: 9574 de3c 6929 203e 78de 3dbe e7f7 453e
00000050: d103 d5bd 8a09 78be 18f2 343e 433e 3b3e
00000060: d007 c3bd d370 263c e326 ef3d 9872 2bbe
00000070: a9a1 613e 9dc7 4abe 2187 523d a646 eabd
00000080: f15b 78bd a97f 693d 6969 eabd c94a 053e
00000090: 4e93 5e3d b376 76be 1d2d 03be e704 9ebd
000000a0: eaa3 b6bd dfd6 24bd 13cd 71be 55e9 563e
000000b0: 6cec 2a3e 2c22 dcbb 4cb9 5abe dbef 313b
000000c0: 81f9 04bd b8ab f4bd b57f 6abe 1cb5 dd3d
000000d0: 8b06 073e 1fc3 38be da88 153e dc47 6c3d
000000e0: 451b 6e3e 4780 a2bd 8f8a 93bb 4c5e 3abd
000000f0: ed95 58be 8073 97bc fbd2 6e3e 1929 3abe
-0.06276802 0.23869671 -0.11434823 -0.122658715 0.24535933 0.18714955 0.016827535 0.24301542
0.10014778 -0.14539695 0.13786834 -0.06384363 0.06044208 0.08376553 0.068779655 -0.1530018
0.0271552 0.15640797 -0.18541896 0.19332848 -0.104011185 -0.24222389 0.17670476 0.1828547
-0.095229745 0.010158735 0.11677339 -0.16742933 0.22034325 -0.19802709 0.0513984 -0.11439256
-0.060634557 0.05700651 -0.11445887 0.1301681 0.0543397 -0.24068718 -0.12810178 -0.07715779
-0.08917983 -0.04024398 -0.23613386 0.20987447 0.1669175 -0.006717941 -0.21359748 0.0027151022
-0.032464508 -0.11946815 -0.22900279 0.108255595 0.1318609 -0.18043183 0.14602986 0.057685718
0.2325259 -0.07934623 -0.0045026015 -0.045500085 -0.21150942 -0.018487692 0.2332267 -0.1817974

bn1.weight f4 [64]
00000000: 6441 763f babd 5d3f 0571 663f bd30 6a3f
00000010: 4998 563f 2c47 893f 78de 653f ba9b 6c3f
00000020: 4cbd 583f 40e0 5d3f b639 673f 5e51 6c3f
00000030: b224 7d3f b8ac 633f b3bf 883f 038a 623f
00000040: 40d9 423f d300 673f 6e61 723f f8fd 7b3f
00000050: 23c8 813f 2a30 6e3f 86b2 853f 6b42 743f
00000060: ff57 523f a154 823f d8a1 6a3f 4091 783f
00000070: ece1 983f cfa1 5d3f 0b93 7f3f db3e 653f
00000080: c65f 673f 2f65 563f f0bf 6e3f 2159 8b3f
00000090: 6c92 5c3f 8a97 5b3f 5321 523f 435e 653f
000000a0: 603e 5e3f fe1c 7f3f ae3a 663f 4a39 493f
000000b0: 17b3 4c3f 9a65 803f 78ad 333f 005a a03f
000000c0: 3486 813f 9fb1 683f ba1e 523f b7c0 753f
000000d0: 4e63 5d3f 9244 4f3f 5cbf 323f b30d 5f3f
000000e0: a3cd 603f a8f1 793f e458 5c3f 107f 593f
000000f0: 408b 773f e110 5a3f 3e45 743f 58a5 703f
0.9619353 0.86617625 0.90016204 0.9148062 0.8382612 1.0724845 0.89792585 0.9242512
0.84663844 0.86670303 0.90322435 0.92311656 0.9888412 0.8893542 1.0683502 0.8849184
0.7611275 0.9023563 0.94679916 0.984344 1.0139202 0.9304224 1.0445106 0.95413846
0.8216552 1.0182077 0.91653204 0.97096634 1.1943946 0.86575025 0.99833745 0.89549035
0.90380514 0.83748144 0.93261623 1.0886575 0.8616092 0.85778105 0.820821 0.89596957
0.86813927 0.99653614 0.8993329 0.7860304 0.7996077 1.0031006 0.7018657 1.2527466
1.011908 0.9089603 0.82078135 0.95997185 0.8647965 0.80964005 0.6982324 0.8713028
0.87813777 0.97634363 0.86073136 0.84959507 0.96696854 0.85182005 0.95418155 0.94002295

bn1.bias f4 [64]
00000000: c08d 8ebc 2e4c e1bd df0f bbbd 77ae b43c
00000010: 48d5 a3bc c424 54bc 0704 f7bc 1aa0 7cbd
00000020: 8b02 85bd 8100 e83a 55d4 47bd f801 04be
00000030: ef85 193c 2253 fcbd 024e 09bd a04b da3a
00000040: c11b a9bd c576 6e3c fac4 e13d d86f 103e
00000050: 9004 633c 18d9 8cbd 918e 383d 1ce4 c43d
00000060: 9cc0 98bd f374 083e 0d9f bebb 9d5a bc3c
00000070: 42c4 e73c 8651 28bd 7c69 7d3d 2a4d c9bd
00000080: 1cff 5cbd 4615 08bd a1db 8ebc cd99 e73d
00000090: 724a 6abc 3bdd c83c 3b8d 7abd 97b0 4b3d
000000a0: 8f6a aebd 737c 1b3b b2fe 85bd 8819 dbbd
000000b0: 5dd1 bcbd 269c 4fb9 a042 49be c21c a03d
000000c0: 98e3 153d c699 8d3d b55b 1abe 7555 b83c
000000d0: 4ff7 dfbd 300a 80bd 099b 1dbe a750 c3bc
000000e0: fbb6 bfbd 4a16 013e c3c7 ddbd 9d0e 07bd
000000f0: f59f 7cbd 0ca5 e0bc a938 37bd 339a 29bd
-0.017401576 -0.11000858 -0.091338865 0.022055848 -0.019999161 -0.012948219 -0.030153288 -0.061676122
-0.06494626 0.0017700345 -0.04878648 -0.12891376 0.009370311 -0.12320544 -0.03352166 0.0016654618
-0.08257247 0.014554684 0.110238984 0.14105165 0.013856068 -0.06877345 0.045057837 0.09613821
-0.07458612 0.13325863 -0.0058173 0.022992427 0.028291825 -0.04109337 0.061868176 -0.09829171
-0.05395423 -0.033223413 -0.017438712 0.11308632 -0.014299976 0.024519553 -0.061169844 0.049728956
-0.08516418 0.00237253 -0.0654272 -0.10698229 -0.092196204 -0.00019799228 -0.19654322 0.07817985
0.036594003 0.069140956 -0.15074046 0.022501687 -0.10935842 -0.06251943 -0.15391172 -0.023842169
-0.09361073 0.12606159 -0.10829117 -0.03297292 -0.061675984 -0.02742245 -0.04473177 -0.04140682

bn1.running_mean f4 [64]
00000000: 2039 883a 1449 1d3e 105f 1cbe e0e2 1c3c
00000010: 4ada ac3d 319a 293e 0e47 f33d 4143 783e
00000020: 2021 bdbc da67 42be 7e72 d63d ae3f 2fbe
00000030: 4c5d ef3d 2ec4 093e 1065 febb 1889 35be
00000040: 5f41 e0bc 3276 bb3e f248 70be 7dd3 7d3e
00000050: 5351 e3bd a79f a1be 2d80 253e 4072 943e
00000060: daa1 1f3d d423 ddbc 9030 723e ae45 e1bc
00000070: bada 153e 9562 76be 9b51 983c 6fbf 58bd
00000080: 708b c7bb 40b3 4d3d 122f 01be ebf2 d63d
00000090: e8d5 193c c095 75be 9b20 55be 982c f7bb
000000a0: a7ce 36be 607f 14be dedc 78be 1e2c 473e
000000b0: 062f 923e fd9e 85bd a11c 4dbe 1f8a 32bd
000000c0: b040 f4bb 22f4 40bd 6eaf 88be b9a7 753e
000000d0: f6ba df3d e2bf 29bd efb8 ec3d 2ce1 023e
000000e0: 6f10 8e3e a89e c73c 8c5d d33c 86d4 dcbd
000000f0: 6527 6bbe 9d2d 14be 052d a13e e202 24be
0.0010393001 0.15359908 -0.15270638 0.009575576 0.08440073 0.16562726 0.11878787 0.24244405
-0.023087084 -0.18984929 0.104710564 -0.17114136 0.11687717 0.13453743 -0.0077635124 -0.17728078
-0.027374921 0.36613613 -0.23465326 0.24787708 -0.11099496 -0.31567118 0.16162176 0.28993416
0.038972713 -0.026994623 0.23651338 -0.027499046 0.14634219 -0.24061044 0.0185936 -0.05291694
-0.0060896203 0.050219774 -0.12615612 0.10495552 0.009389378 -0.23982906 -0.20813219 -0.007543158
-0.17852269 -0.14501715 -0.24303004 0.19450423 0.285515 -0.06524465 -0.20030452 -0.043588754
-0.0074540004 -0.047107823 -0.26696342 0.23989762 0.10924332 -0.04144276 0.11558711 0.12781209
0.27746913 0.024367645 0.025801443 -0.10782723 -0.22964247 -0.14470525 0.3147966 -0.16016725

bn1.running_var f4 [64]
00000000: 36a8 893e aeea b33e 73c4 7c3f 7ead 203f
00000010: d4bc 623f ee23 3a3e 525a 173f 0b03 c73e
00000020: dea7 ef3e d84f 4b3e a3e2 723f 97ad 923e
00000030: c5f1 7a3f 8e1e a33e 96a4 203e 4f0e 0f3f
00000040: 3a5a c83e cbc7 3f3f 42a0 cd3e 7a7b 8b3e
00000050: 06fa 813e 373f 1f3f d004 c03e 61a3 0c3f
00000060: 306f dc3e 1228 203f 4657 353f ba17 053f
00000070: 0af0 0f3e ce76 a73e 70ff 883e 4cff d93e
00000080: 93b1 0b3f 71c5 f33e d8cc 4c3f 2dca 593f
00000090: 609f 823e f74f 033f 68ed 093f 22d9 0e3f
000000a0: 52b3 ea3e ef06 f33e 6f6e e73e 7437 8d3e
000000b0: a588 a43e f8e8 383f 5928 fa3e c571 2f3e
000000c0: badc f03e 87b0 ec3e 1925 333e ee7f 4b3f
000000d0: 294e e53e ccf6 863e a0df 273f df1d ee3e
000000e0: b9a9 483f c531 383f 3f43 4a3e ebc1 cd3e
000000f0: 915e d63e a96c b33e ed5b f53e 3dfe c53e
0.26886147 0.35139984 0.9873726 0.6276473 0.8856938 0.18177769 0.5912219 0.3886951
0.4680776 0.19854677 0.9487707 0.28648064 0.9802516 0.3185925 0.15687785 0.5588121
0.39131337 0.74914235 0.4016133 0.27242643 0.25386065 0.62205833 0.37503672 0.54936796
0.4305358 0.6256114 0.70836294 0.5198933 0.14056411 0.32707828 0.26757383 0.4257759
0.5456783 0.47611573 0.80000067 0.8507412 0.25512218 0.5129389 0.5387788 0.5580007
0.45839936 0.47466227 0.45201442 0.2758137 0.32135502 0.7223048 0.48858908 0.17133243
0.470434 0.4622843 0.1749462 0.7949208 0.44786194 0.26360166 0.655756 0.46507165
0.78383976 0.7195094 0.19752215 0.4018701 0.41869023 0.3504384 0.47921696 0.3867053

fc2.weight f4 [32, 64]
00000000: 940f ffbd 2acd 8cbd af77 5bbd b722 6bbe
00000010: 5975 c23c de48 fabd 88a3 9f3d e0a2 413e
00000020: d445 58ba e1f7 57bd 47e1 5f3c 6ee2 313d
00000030: f3ee 7ebd 9e7f 0fbd 24e2 d83d c1a6 143e
00000040: 8283 1cbe ae52 c13d 1054 95bd ba5a 31bd
00000050: 2803 903d 9e86 cdbc 52d2 083e 048a ad3d
00000060: 5309 1fbd 565a c9bb 1250 833c 80ce b23d
00000070: 8b84 323e 7f42 a3bd 7554 273e b8b8 263c
00000080: f025 363e 219c 91bc 57b7 1e3e e0df 483d
00000090: 02aa 54bd f16c 4a3c 9b1d 103e a96b 17bc
000000a0: d841 d3b8 9341 28be 1d8b 733d 5e64 34bd
000000b0: 3fc5 e73c 7092 fe3d e09b 363d fcfa fcbd
000000c0: 5561 d6bc 464e d4bd e63a 3c3d ffdc 823e
000000d0: 0a15 a23d 6d92 fc3d cfa0 04be 594c 76bd
000000e0: 9234 47bd 3297 16be 8206 b9bd 7259 9e3d
000000f0: a03a 1b3e f923 a5bc 3dcc 2fbe 7514 4bbd
00000100: dc34 af3d 8553 07bd 3a9d b93d ce40 97bd
00000110: 0584 553d af48 f63d e138 293d 4c34 2ebc
00000120: d8a5 65bd 1e8e babd 91c5 1fbd d6a9 f83d
00000130: 06c4 1abe 1f73 0cbe da97 343e 1d58 c3bd
00000140: 2976 4d3d e8c5 cfbd 54b2 a63c 5201 f7bc
00000150: 8ccc 54bd a18d 68bd 109f 703e dca4 3ebe
00000160: e483 e23c 1e51 063d 3d51 c83c ed8c a4bd
00000170: 8823 423e 254c 583d 8328 183e 11fe e9bd
00000180: b160 d93d 7841 433c 3b56 9d3d e606 113b
00000190: 1ed7 9b3d 01a4 b33c fde3 e5bc efff 3c3d
000001a0: 5d38 95bd 695f 2ebe e276 303e 8719 84bc
000001b0: 4bf2 5e3d 75f1 80bc 83f4 de3c 8403 ad3e
000001c0: ef40 61be dfa3 363d cfb7 7ebc f6b9 d43d
000001d0: 2457 d03d 6c6a 263d b92c afbc e1f0 1a3e
000001e0: 0796 1dbd 82dc 4abd 1469 b7bc e7d1 8b3d
000001f0: f211 c63c 74cc 5abc 6916 823d a613 aabc
00000200: ea73 b03d d73b 13ba ccc3 453d f370 adbd
00000210: 2d70 1fbe 85c7 b23d 26b2 1fbd fdc7 293c
00000220: c36a f9bc 9932 093e af55 07be 541c 103e
00000230: d484 0b3e 6f00 d5bd 85a3 413e 707d 99bd
00000240: 88ae efbc 87e5 013e 882c f13d 40bc 31be
00000250: 0f39 b53d 78b3 2c3e e476 1f3e aada 303e
00000260: 9311 febd d7e8 003e f74b 9a3d b74e a3bd
00000270: 8ad0 fcbd 4883 183e dc0c 37bd 3786 093e
00000280: cf4f 2d3d 15ef a93c afaf dc3d 3143 6cbe
00000290: 161a 2cbd 7a11 8bbd 947b 163d 7c41 38be
000002a0: 8b80 8abc a223 bdbd 01b6 0d3e 0b62 c23d
000002b0: 2914 71bd f329 0a3d 6d97 173e 4941 863d
000002c0: d937 013e f0e3 65bc 0bb3 60bd cd96 8b3d
000002d0: 9a99 c4bc c4dc 253e 6b11 e8bd 9544 c0bc
000002e0: a95e 05be 9954 103e 8a6c 2cbe 1779 8a3d
000002f0: 9e78 813c ce93 f8bd a0fd 05be d3e2 9f3d
00000300: 27bc 073d 62c8 483d fc88 7d3d 9a45 08be
00000310: 0b64 793d f276 c13c ddc4 2bbc 8075 ac3d
00000320: 3614 9fbd ec76 623d 7b88 e9bd 1546 093a
00000330: 7ea3 33be e324 c2bb 5143 e03d fe83 143e
00000340: 4215 113d 2e69 813d bbe2 703e 7357 1dbe
00000350: d6aa 553c 3041 84bd 843d 1b3d b990 c3bd
00000360: 79cb 973d 2d34 ccbd 868d 393e dd4f 003d
00000370: dea9 343e 1cef 6dbd c689 043d 44dd 9bbd
00000380: 9b44 71bd d448 e03d 98bd 423d 06ea 30be
00000390: 4e46 813d 1d7c d5bd 2f66 553d bf8f f2bd
000003a0: 3379 243e 35f3 ff3c 05db d2bd 6164 d03c
000003b0: df57 ab3c 5006 5a3e bc4d 7abd f732 a33e
000003c0: 4ac8 0dbe a47f 36bd 72b1 c93d 1dbc 85ba
000003d0: df5f d83d d24d 3ebc 17d6 0dbe 87f1 b63d
000003e0: 8163 4fbd 66fd 26be d790 aebc c75d 203c
000003f0: 4c6f e03d e4ce a73d 0859 0ebe 89e5 80bd
-0.12454143 -0.068750694 -0.053580936 -0.22962461 0.023737596 -0.122209296 0.07794863 0.18909788
-0.00082501513 -0.05272663 0.01366455 0.04342883 -0.0622396 -0.035033815 0.10590008 0.14516737
-0.15284541 0.09439598 -0.07291424 -0.043299414 0.07031852 -0.025088605 0.13361481 0.0847359
-0.03882725 -0.006144802 0.016029391 0.08730793 0.17433374 -0.079716675 0.16340812 0.010175876
0.1778791 -0.017774643 0.15499626 0.04904163 -0.051919945 0.012355075 0.14073794 -0.009241977
-0.000100735284 -0.16431265 0.05945884 -0.04404103 0.028292296 0.124302745 0.044582248 -0.12352559
-0.026169458 -0.10366492 0.045954607 0.25559232 0.07914169 0.12332616 -0.12951969 -0.060131405
-0.04863412 -0.14706114 -0.090344444 0.07731904 0.15159082 -0.020158755 -0.17167754 -0.049580056
0.08555004 -0.033038635 0.09063192 -0.073854074 0.052127857 0.12025582 0.04131401 -0.010632586
-0.056066364 -0.09109138 -0.039006773 0.12141769 -0.1511384 -0.1371579 0.17636052 -0.09538291
0.050161514 -0.101451695 0.020348705 -0.030151997 -0.051952884 -0.056775693 0.23498178 -0.18617576
0.027650781 0.032792203 0.0244528 -0.08034692 0.18958867 0.052806992 0.14859204 -0.114254124
0.106141455 0.011917464 0.07682463 0.0022129356 0.0760939 0.02192879 -0.028062815 0.046142515
-0.07286141 -0.17028584 0.1723285 -0.016125454 0.054430287 -0.015740136 0.027216202 0.33791745
-0.21997426 0.044589873 -0.015546753 0.10387032 0.10172871 0.040628836 -0.02138363 0.1513095
-0.038473155 -0.0495267 -0.022388972 0.06827145 0.024178479 -0.0133544095 0.06351931 -0.020761322
0.08615859 -0.0005616522 0.04828243 -0.08468809 -0.15570135 0.087294616 -0.038988255 0.010362622
-0.030446416 0.13398208 -0.1321628 0.14073306 0.13624889 -0.10400473 0.18910034 -0.074946284
-0.029258028 0.12685214 0.11776072 -0.17356968 0.08848774 0.16865337 0.15572697 0.17270914
-0.12405696 0.12588821 0.075340204 -0.07973998 -0.12344463 0.1489383 -0.044689998 0.13430105
0.04231244 0.020743886 0.107756965 -0.23072506 -0.042017065 -0.06790443 0.036738947 -0.1799373
-0.016906997 -0.09235312 0.1383896 0.094913565 -0.058857117 0.033731412 0.14803858 0.06555421
0.1261896 -0.014031395 -0.05485825 0.06815872 -0.023999024 0.16197497 -0.11331447 -0.023470202
-0.13024391 0.14094771 -0.1683828 0.06761377 0.015804585 -0.121375665 -0.13085032 0.07806935
0.03313842 0.049019225 0.061898217 -0.13307801 0.060886424 0.023616288 -0.010483948 0.08420849
-0.07767527 0.055289194 -0.11402985 0.0005236578 -0.17542836 -0.0059248074 0.109503396 0.14503476
0.035420664 0.063188896 0.23523991 -0.1536539 0.013041219 -0.06457746 0.037900463 -0.09549088
0.07411856 -0.09970889 0.18120393 0.031326164 0.17642924 -0.05808936 0.032357953 -0.076105624
-0.058903318 0.10951391 0.047544092 -0.17276773 0.06312238 -0.10424063 0.052099403 -0.11843824
0.16061859 0.0312439 -0.10295681 0.02543849 0.020915924 0.2129147 -0.06110929 0.3187482
-0.13845935 -0.04455532 0.09848298 -0.0010203157 0.10565161 -0.0116152335 -0.138512 0.089327864
-0.050632004 -0.16307601 -0.0213093 0.009787983 0.10958728 0.08193758 -0.1390115 -0.0629378

fc2.bias f4 [32]
00000000: bb53 ccbd da31 c73d 9083 efbd 9c2e 303c
00000010: a2b8 8fbd 3cc9 c9bd b252 bdbd f572 87bd
00000020: 40fa 69b8 d202 20bd 5be0 e73d b870 0d3d
00000030: ac2e 80bd 6712 c9bc 4ce7 3c3d 46d2 a93d
00000040: 3466 02bd 86ae 5f3c 3198 263d 8f9a ff3c
00000050: 991a 343d de78 5f3d 75db fdbc 4377 81bd
00000060: 74f9 c8bd 1ca9 97bd 39ab c83d 39fb a33d
00000070: c6fb bf3d 3a74 e5bd 54e1 40bd 8765 ab3d
-0.09976908 0.09726305 -0.116950154 0.0107533 -0.07017638 -0.098528355 -0.092442885 -0.06613723
-5.5784592e-05 -0.03906519 0.11322089 0.034531325 -0.06258902 -0.024544908 0.04611902 0.082920596
-0.03183575 0.0136524495 0.040672485 0.031201629 0.043970678 0.054558627 -0.030988434 -0.063215755
-0.098132044 -0.07405302 0.09798283 0.08006901 0.09374194 -0.11203809 -0.04708989 0.08368974

bn2.weight f4 [32]
00000000: 7592 813f e50b 853f bf06 7c3f 9773 783f
00000010: a467 713f c5f7 6c3f 39ed 333f 82ff 623f
00000020: 8309 6c3f 5a94 553f 1c12 8e3f 8e60 6e3f
00000030: 52c1 3e3f 3ee6 593f fd33 5a3f c4f9 583f
00000040: 86f7 573f 1462 6d3f 4d26 813f 7c5f 6b3f
00000050: 6463 823f e72a 8d3f 2591 683f 37a7 543f
00000060: c966 8b3f b637 803f 028d 683f 2ffd 603f
00000070: e6e9 733f 0fc9 513f dcdf 4b3f 3e8e 7f3f
1.012282 1.0394255 0.98447794 0.97051376 0.9429877 0.92565566 0.7028385 0.88671124
0.92202014 0.8342949 1.1099277 0.9311608 0.74513733 0.85116947 0.8523558 0.8475611
0.84362066 0.9272778 1.0089813 0.9194257 1.0186582 1.1028718 0.9084647 0.8306765
1.0890743 1.0017002 0.9084016 0.8788633 0.95278776 0.81947416 0.7963846 0.9982642

bn2.bias f4 [32]
00000000: 22d4 893b 045f 9c3c 1287 233d 4d91 1b3b
00000010: 96fc 113a 159b 573d 9038 5bbe 02f7 593d
00000020: f6a2 9ebd 76e8 2abe 2a0a 1e3d 58c0 36bd
00000030: 3bac 28be 6e3f 10bd 9f17 d0bd 8019 86bd
00000040: d9b6 b5bd 0809 a3bb d06f b93b c6ba e93c
00000050: c421 8c3d acc6 ea3d 1d1b 8cbc 422c c5bd
00000060: 2bc9 083e 2367 a33d 19b3 bcbd 771b efbd
00000070: 13c1 ecbd 192a ccbc d3f9 0dbe efe5 2cbc
0.0042061964 0.019088276 0.039923735 0.002373773 0.0005568949 0.052638132 -0.21408296 0.05321408
-0.07745926 -0.1669024 0.038583912 -0.044617027 -0.1647195 -0.03521674 -0.10160755 -0.065478325
-0.08872766 -0.004975442 0.005659081 0.028531443 0.06842378 0.11463675 -0.017102772 -0.09627582
0.1335799 0.07978656 -0.09213848 -0.116751604 -0.115602635 -0.024922417 -0.13864832 -0.010552867

bn2.running_mean f4 [32]
00000000: 52fe 733e ec94 043f 039a 703e 6ac8 c83e
00000010: b5c3 0c3d 7566 ffbe 5abc 8b3e 769e 3fbf
00000020: e9d6 cd3e b9a1 543e 66a8 473f b47a 55be
00000030: 11da 85be c6ce c0be 8cf6 9ebe 87e6 ee3e
00000040: 3b3c 8f3d d873 943c 8437 72bd e445 6f3e
00000050: 8ad6 f33e 7b7d 39be a96e 48be fa5f c2be
00000060: 60f2 2bbf 1020 bc3d 45cc 483f 87c0 b9be
00000070: c744 df3e d1dd d63c e5e1 833e 15fa 383f
0.23827484 0.51789737 0.23496251 0.39215404 0.03436633 -0.49882856 0.27292138 -0.7485117
0.40203026 0.20764817 0.7799133 -0.20847589 -0.26142934 -0.37657756 -0.31047475 0.46660253
0.0699391 0.018121645 -0.059134975 0.23366505 0.47624618 -0.18114273 -0.19573463 -0.3796385
-0.6716671 0.09185803 0.7843669 -0.362797 0.4360716 0.026228817 0.2575828 0.72256595

bn2.running_var f4 [32]
00000000: 344b 963f 40f0 dd3f ad08 e53f 7333 d83f
00000010: f377 d63f f3db c53f 7203 ae3f 11e2 bf3f
00000020: b7d9 b73f 8c40 bc3f d865 b93f a1cb d43f
00000030: c1e8 1340 f595 fb3f 121c 923f b6f2 b13f
00000040: 8ab4 ab3f 0a37 e43f 6eb7 e33f 91cc c73f
00000050: b356 a73f 9c2b fa3f 6f68 ca3f b3a3 fc3f
00000060: eb00 f63f 1029 d03f 6ed4 ac3f edd6 d23f
00000070: 386a d73f 9f22 cf3f ae42 9b3f 7c20 d33f
1.17417 1.7338943 1.7893273 1.6890701 1.6755356 1.5457748 1.3594801 1.4990865
1.4363316 1.4707198 1.4484205 1.6624643 2.3110812 1.9655138 1.1414816 1.3902194
1.3414471 1.7829297 1.7790353 1.5609304 1.3073334 1.9544559 1.5813121 1.9737457
1.921903 1.6262531 1.3502328 1.647184 1.682929 1.618244 1.2129724 1.6494288

fc3.weight f4 [16, 32]
00000000: 12aa 3cbe 57ee 293e b43c f93d e540 5fbe
00000010: 6224 003e 6399 f2bd 7e10 62be 669e 29be
00000020: d380 f13d 30c3 a53c e867 a1bc 486a b8bd
00000030: ed99 72bd fd53 9b3d 809d 4abe 250c 073e
00000040: ae15 063e 2cc4 83be a7b5 4fbe 3990 493e
00000050: f912 a4bc 8f42 48be f22c bcbc 9828 1c3d
00000060: 8450 86ba 1a84 0fbe 133d 3cbc d293 20bd
00000070: 4b23 253d c6c4 a73d 5246 163e 2203 393b
00000080: a26c 4bbe bb5f 5dbe a8c6 cfbc 0978 3fbe
00000090: e8c8 3fbe fc60 cb3d d979 283d 1a32 96bc
000000a0: 1fec eebd 5aa4 583c 057c 2fbd 83ab 853e
000000b0: 4327 303d d26b ba3c ba61 533b e084 913d
000000c0: 492a a9bd a0d6 19be 9e7f a9bd ef55 b73d
000000d0: be94 8cbd d75c 01be bf8f 393e f9b4 45bd
000000e0: 1d1e 52bd e19f b2be 38ea 89be 9852 fa3d
000000f0: e4f1 823c 36c1 9f3c fd4f f5bd 705b 00be
00000100: 409b 75be 706b 65be 2481 88be 5c13 5d3d
00000110: c7a1 e43d 8f54 6bbe 1451 b23d 7d7d 963c
00000120: 578c 143e f3da 10bd 8755 253e ec53 1e3e
00000130: c404 6fbd c00c 513d 8241 413d fd36 743d
00000140: 2e7d 453c 2021 c1bd fb9f d93d daee d93d
00000150: 3e90 fb3d 45bb 823c 3407 ea3b 72ca 5dbb
00000160: 6f23 d5be 2e65 e33d bbfd 363e 7849 743d
00000170: 2c05 1b3e 876d da3d 44bc 913d 4006 b13d
00000180: 6895 11bc 9ba6 a13d b325 96be becd cbbc
00000190: 3599 3bbc 00bc f73d 3486 1bbe 6eb6 473c
000001a0: 4b5e aebd 31b1 e9bd 6d17 653e 96fc 823c
000001b0: 6fe1 6a3d 4550 09be e324 733d d152 61be
000001c0: 607c 0a3e 7d16 a83c 1814 abbd 8054 c53d
000001d0: 2444 abbe de53 f4bd 2e32 86bc f2e4 56be
000001e0: 00b8 74be 83da 8ebe fadb bd3d f975 633d
000001f0: 2e57 d63d 923d 903d 5668 023e a502 263d
00000200: 5119 33be ebc4 20be 10c4 6e3d ebb0 b1bd
00000210: a3ba 443d 922c 6ebe 996d bdbd 7af3 99bb
00000220: 03bd 62be 6b09 023e d819 83be fee2 fcbd
00000230: d30f c53d 8a2b 003e ea37 51be 06ee 593c
00000240: 9916 d73c 5d62 193e 93be e5bd 6edd afbe
00000250: eca7 683d d615 103e ef7c 053e 45fc 923d
00000260: cf40 9abe da4f 84be f45e b23d 19a5 c0bd
00000270: 2a13 b03d d82e 233e b8a9 923d d716 523e
00000280: 6e61 c33d 3224 793e 16e4 e23c 919e 3a3e
00000290: c270 d33d 9866 9fbe dfe8 263d 09fd a4be
000002a0: a4b2 cd3c 1d38 9e3d e70e 073d 9b31 6aba
000002b0: c8a1 59bd a609 373d 1bc1 723d 5259 2cbe
000002c0: 463e da3d dad2 d83c 768d 0c3d 5fc0 073e
000002d0: d3f1 b2bd d94f 113e 9048 e1bd 4487 7439
000002e0: 6416 5d3e e7cd babc f07f 423c c3f3 b8be
000002f0: aee4 8ebd 7a9e 203e a624 ad3d d4b9 50be
00000300: 2929 f23a 8cfc 813e 5de0 36be 8ffd c33d
00000310: 4ad8 4fbe 0899 83bd 9e48 6d3c e7f7 44bc
00000320: caf0 1d3c 3ead 693d 5440 d8bd f3d3 723d
00000330: fd19 90be 3691 0d3e f350 bd3d 0dcd daba
00000340: ab50 71bd 9117 89be 3017 043e 9f07 f53d
00000350: 2169 9dbd 39c1 0bbd dd4d 89bd fe1c c03d
00000360: 3127 073e 90ac e93d 4933 5fbe c6f9 1b3d
00000370: bf56 2cbe b3da 25bd 09d1 0d3d a7d0 94be
00000380: fbca ddbd 98d7 58be 53a2 133d 63e9 123e
00000390: e436 f63d 4a28 83bd 357c d0bd 292a f9bd
000003a0: d597 d73d b47e 4e3d 4b0b 9e3d a281 21be
000003b0: 3562 80bc 8e5a 473e 9ddb 14be f114 1e3e
000003c0: e5d1 57be 043d 1fbe c3b9 0a3e 3ed2 dc3d
000003d0: ea44 1d3e 8638 8f3e 42d8 b73d ef58 483e
000003e0: 2d90 be3d 8a20 11bc 02e9 6fbe e51a 563d
000003f0: af94 463e 8912 8bbd 05d9 6fbd 0990 acbd
-0.18424252 0.16594826 0.12169781 -0.21802099 0.12513879 -0.118456624 -0.22076604 -0.1656433
0.117921494 0.020234674 -0.019702867 -0.090046465 -0.059228826 0.07584379 -0.19786644 0.13188227
0.13094208 -0.25735605 -0.20284139 0.19683923 -0.020028578 -0.1955664 -0.02297065 0.03812465
-0.0010247384 -0.14015236 -0.011489171 -0.039203472 0.04031686 0.081918284 0.14675263 0.0028230627
-0.19865659 -0.2161855 -0.025363281 -0.18698134 -0.18728983 0.09930608 0.041131828 -0.018334437
-0.1166613 0.013222778 -0.042842884 0.26107416 0.043006193 0.02275649 0.0032254294 0.07105422
-0.082600184 -0.15023279 -0.08276294 0.089519374 -0.06864308 -0.12633072 0.18121241 -0.048268292
-0.05129825 -0.34887603 -0.26936507 0.12222785 0.015984483 0.01950131 -0.11978147 -0.1253488
-0.23985004 -0.22404265 -0.26661026 0.05397354 0.11163669 -0.22981475 0.08706871 0.018370384
0.1450666 -0.035365056 0.16145907 0.15461701 -0.058354154 0.05103755 0.047181614 0.059622753
0.012053771 -0.09430146 0.10626217 0.106412604 0.122833714 0.015958438 0.007141972 -0.003384259
-0.41628596 0.11103283 0.17870228 0.059640378 0.15138692 0.10665422 0.07115987 0.0864377
-0.008885719 0.078931056 -0.29325637 -0.024878379 -0.011450102 0.12096405 -0.15187913 0.012189491
-0.08514079 -0.1141075 0.22372217 0.015989583 0.057343896 -0.13409527 0.05936135 -0.22004248
0.13524008 0.020518536 -0.08353442 0.09635258 -0.33450425 -0.11930059 -0.01638135 -0.20985773
-0.23898315 -0.27901086 0.09270473 0.05553243 0.10465847 0.070429936 0.12735114 0.040529866
-0.17490126 -0.15700118 0.05829245 -0.086763225 0.048029553 -0.2325919 -0.0924942 -0.004698214
-0.22142415 0.12698905 -0.25605655 -0.12347983 0.09622159 0.12516609 -0.20431486 0.013301378
0.026255893 0.14978929 -0.1121799 -0.34348625 0.056800768 0.1407083 0.1303594 0.07177023
-0.3012757 -0.25842172 0.08709517 -0.0940649 0.08597405 0.15935838 0.071612775 0.20516525
0.095400676 0.24330214 0.02769665 0.18224551 0.10324241 -0.3113296 0.040749427 -0.322243
0.025109597 0.077255465 0.032973196 -0.00089337834 -0.053132802 0.044686936 0.05926619 -0.16830948
0.10656409 0.02646773 0.034314595 0.13256977 -0.087375306 0.14190616 -0.11000168 0.00023320044
0.21590573 -0.02280326 0.011871323 -0.36123475 -0.06977211 0.15685454 0.08454256 -0.20383388
0.0018475401 0.2538799 -0.17859025 0.09569847 -0.20297351 -0.06425673 0.014482645 -0.012021995
0.009639928 0.057049982 -0.105591446 0.05928416 -0.28144827 0.13824925 0.092439555 -0.001669319
-0.05891482 -0.26775792 0.1289947 0.11964344 -0.076860674 -0.03411982 -0.06704304 0.0938053
0.13198544 0.11409867 -0.21796907 0.03808 -0.16829966 -0.04049177 0.03462318 -0.2906544
-0.10829731 -0.21175992 0.036043476 0.14346842 0.12022188 -0.06404169 -0.101799406 -0.121662445
0.105270065 0.050413802 0.07716998 -0.15772107 -0.015671829 0.19468138 -0.14536901 0.15437676
-0.21076162 -0.1555062 0.13547425 0.10782288 0.1535832 0.2797281 0.08976795 0.19565175
0.09304843 -0.008857856 -0.23428729 0.052271742 0.19392656 -0.06790645 -0.058556575 -0.0842591

fc3.bias f4 [16]
00000000: 81e9 cfbd 438b b5bd d3f7 ea3d 0bdb e1bd
00000010: 558d 203e 7fb1 823c 6bee 9a3c 9201 6bbd
00000020: 2146 f9bd 6475 dfbd 0a99 8c39 3dbe 3fbd
00000030: fd37 6ebd d75c 1ebe ec8d db3d a58d 07bd
-0.10151959 -0.08864453 0.1147305 -0.11028107 0.15678914 0.015953777 0.018912515 -0.057374544
-0.12171579 -0.10911062 0.00026816904 -0.046812285 -0.058158863 -0.15465103 0.10720429 -0.033094067

bn3.weight f4 [16]
00000000: a3e1 093f b951 fb3e 8023 023f f8da e63e
00000010: 944f e53e 36dd 093f 22c8 f63e d68a 0c3f
00000020: ce0f f53e b854 003f e8b7 023f a0c5 073f
00000030: e487 fb3e 64b0 c63e 94d7 f13e 3dd4 043f
0.5385992 0.49085787 0.5083542 0.45088935 0.44787276 0.53853166 0.48199564 0.54899347
0.4786362 0.5012927 0.5106187 0.53035927 0.49127114 0.3880645 0.47234786 0.5188635

bn3.bias f4 [16]
00000000: 52e4 bdbe d5c3 b7be 68e5 abbe 36fe bebe
00000010: 853a d2be f324 7bbe 1153 b8be 4630 94be
00000020: 962b a0be 9aba 93be 0db6 a0be 1800 adbe
00000030: d1e0 b5be 7958 00bf 9cf5 cdbe f76c c2be
-0.37088257 -0.35891595 -0.3357346 -0.37303323 -0.41060272 -0.24525814 -0.36000875 -0.2894308
-0.31283253 -0.28853303 -0.31388894 -0.33789134 -0.35523084 -0.50135 -0.40226448 -0.3797376

bn3.running_mean f4 [16]
00000000: 2225 10bf d2d5 1fbf 9480 443e 9815 02bf
00000010: fced 95be bf7c a83d 8e40 34be dabf 3e3e
00000020: 74e1 36bf 634a 32bf c0ee ad3a 2cd7 6cbf
00000030: f308 80bf 8b02 1abf 43b6 c8be 70c0 823c
-0.5630666 -0.6243564 0.19189674 -0.508142 -0.2928313 0.082269184 -0.1760275 0.18627873
-0.71437764 -0.69644755 0.0013270006 -0.92515826 -1.0002731 -0.6016013 -0.39201555 0.015960902

bn3.running_var f4 [16]
00000000: a4ec 943f ec4d b23f 2c9f ce3f bfcf ce3f
00000010: 7259 d83f a15a bb3f 4e98 813f aede 983f
00000020: ce08 b53f 93a1 fd3f 33c5 bd3f 3ef0 c63f
00000030: a094 c53f 3d0d 8a3f 6752 ad3f b6aa 953f
1.1634717 1.393003 1.6142325 1.6157149 1.6902297 1.4637033 1.0124605 1.1942956
1.4143312 1.9814934 1.4825805 1.5542066 1.5435982 1.078529 1.3540772 1.1692722

fc4.weight f4 [1, 16]
00000000: dce3 21bd 6895 fbba 535d e7bc a10b dfb9
00000010: d7c5 a0bc 44d5 ddbc 3972 c0bc cb27 a4bc
00000020: 2bfb c23b 69e5 5dbc 96e0 0c3c 9033 373d
00000030: b466 e43a 4e2c 86bc 221e 9cbc a590 31bd
-0.039523944 -0.0019194307 -0.028242743 -0.0004254254 -0.019625587 -0.027079232 -0.023491966 -0.020038506
0.0059503517 -0.013543465 0.008598467 0.04472691 0.0017425627 -0.016378548 -0.019057337 -0.043350834
