models/best_model.pth (torch, 50658 bytes, 13 tensors)

fc1.weight f4 [128, 4]
00000000: 45ed 6dbe c68b b9be 080b 103e 2b31 93be
00000010: 8345 3ebe ff3e b838 bd46 ce3e 1aa2 0a3f
00000020: c119 b23d 6721 4abe 92df 6c3d 47e7 b7be
00000030: 4042 1cbe 03df af3c 6a68 65be 6278 363e
00000040: 8c79 4c3e 101b 743e 9816 17be 229c 023e
00000050: efa4 533e 32e0 c93d 9245 08bf 8991 323e
00000060: a825 a63e 0a18 7c3e 5995 663c 3c73 abbe
00000070: ff6d b2be dd38 f5ba ac07 ec3e 39a0 ba3e
00000080: 787c 9e3b 737f 68bd 05d7 253f 956f aabc
00000090: b413 cf3e 6706 5e3e b1b1 76be a8ed 033e
000000a0: 7a44 77be fbb3 b23e fbee aabe ae69 f43c
000000b0: ed93 803b 5883 22bd 492e da3e d9bd 97bc
000000c0: b9a6 133d 0769 e33e da2a 1f3f a8f5 103e
000000d0: 5a04 3cbe 0190 c73e d70c 13bd cb06 bb3e
000000e0: 5df2 2a3c 6e42 793d 69a7 a5bd ad39 c03e
000000f0: 8eaa adbe 7bbd 2b3e 7129 e0be 8d11 b3bd
00000100: 7d70 b2bd faca 73be 94f5 20bf 4d0b 063e
00000110: 7678 393e e128 1fbd 8df7 23bf 73b4 a03d
00000120: 36f2 a03e b7cd 05be 81ab 1cbf 2312 a3be
00000130: 21be 943e 0b1a c7be a743 c23e 55a4 55be
00000140: 8636 ed3d 0cb0 5d3e 4bd6 e13e 3071 83be
00000150: beb7 a43e a15a 3bbe f224 61be c89b 2ebe
00000160: 4ed7 fcbd 5322 7d3e 50a8 39be e49e c13e
00000170: 77d7 3a3d 33b4 25be c3f0 183e 8911 d1bd
00000180: 0031 0fbe 829f c0be 6cb6 cc3e 5183 1dbe
00000190: a7e8 48be a69b 253e 26ca 463e 2348 0abe
000001a0: ce03 9abe 212b 56be 80a8 d6be 38f8 0abe
000001b0: f857 18be 034d 1a3e 80c1 713d 9bd1 7ebe
000001c0: 482a 77bd fdc0 e93c 0ca7 d3be 1bce 613e
000001d0: d9de 38bc 1a3c afbe 14ca e0be 3e58 6b3e
000001e0: f87c 973d 63e0 bbbe bca2 263e 0b6b 943e
000001f0: 7cee 0c3e 26bc 163e 4c68 17bf a0d2 07be
00000200: 4baf 7a3e 4c85 443e 6a88 1cbd 9d21 823d
00000210: 96a1 da3d 876f 213e 76bf f43d 7b67 803e
00000220: 8bdf 043e 874a 33be 8b2b 0fbf ef09 83bd
00000230: 51c7 953e ee63 233e 3df1 a93b d8f6 3e3e
00000240: 13ae b7be 2d6c 92be 6859 bdbe 0aa8 3fbe
00000250: a90d c03d 6666 e7bd b6a7 b93e ea8f 973e
00000260: 4aef 51be 9871 433d 82df 7f3e 4865 8d3e
00000270: 3a18 d83c a94b b2be e41a eabe bdb1 2e3d
00000280: b32e 8f3d c1c7 a8be 7fb9 a03e 71df 2bbc
00000290: b6e9 9e3e 939b b43b 0318 cf3e 6a88 c7be
000002a0: 8f04 cf3d a7c6 813d ae0d 0cbe 2f7b 37bc
000002b0: aeae 82be 4f80 9c3c e17c 09bf 8dc8 453e
000002c0: 8d0e 573d 5df4 14be 3cb0 17be 1d27 c33e
000002d0: cefa 9a3e c595 983d 50f2 e53e b952 e23d
000002e0: a03c 4d3e 2cb1 a5bb 03ac 013f ada7 893c
000002f0: c2ba c0be 3bf9 c23b 0582 763e fa6a 68be
00000300: f88b e0bc 1e54 44bd 53c8 0ebf 0f41 6abe
00000310: b637 033e 542b 753e 457d e9be ba1d 8d3c
00000320: 628b 973e b9bc debb fcc5 053f 8471 82be
00000330: f778 c9be 8136 bdbe 79d1 cd3e f023 af3e
00000340: aaa7 d43e 83a8 a13e 93da c33e c420 c4bd
00000350: d692 b43e 32e3 d43e 2d43 c93e bcbd 233e
00000360: db6d bdbd b130 04bf a654 ac3e 3736 d43e
00000370: ee0e c13c bde6 a2be c71f d73e cf5c 2d3e
00000380: 7727 29bb 26c9 babe 0e3c 03be 7290 dd3e
00000390: db2f 553e c663 11be 053e f93e 7131 053e
000003a0: a0ab 9bbd 05f6 9abe f511 57be e438 873e
000003b0: 1a6e f43c 3de5 d93e 3d68 b6be 6e61 183e
000003c0: 4620 9f3e d884 563d 310a 033f be1c 45be
000003d0: 8119 b33e 2d3a 473d 1568 adbe 904f 863e
000003e0: fd1e 07bd b11b ac3e f872 ea3d 514f bbbe
000003f0: 6b6d d23d 4fa6 0abe af98 823e 23a3 d2be
-0.23235042 -0.3623945 0.14066708 -0.2874845 -0.18581204 8.785538e-05 0.40288344 0.541536
0.086963184 -0.19739304 0.0578304 -0.35918638 -0.15259647 0.021468645 -0.22403112 0.1781936
0.19968241 0.23838449 -0.14754713 0.12754872 0.20668386 0.09857215 -0.53231156 0.1743833
0.32450604 0.24618545 0.014073693 -0.33486354 -0.34849545 -0.0018708963 0.46099603 0.36450365
0.004836615 -0.05676217 0.6478122 -0.02080516 0.4044472 0.2168213 -0.24091221 0.12883627
-0.24147215 0.3490294 -0.33385453 0.029835548 0.003923884 -0.03967604 0.42613438 -0.018523144
0.03604767 0.44416067 0.6217476 0.1415621 -0.18361035 0.38977054 -0.035900917 0.3652862
0.0104337605 0.060854368 -0.080885716 0.37544003 -0.33919185 0.167715 -0.43781617 -0.08743582
-0.08712862 -0.23807898 -0.6287472 0.13090248 0.18112358 -0.038857345 -0.6404961 0.07846918
0.31434792 -0.13066755 -0.61199194 -0.31849775 0.29051307 -0.38887057 0.3794224 -0.20863469
0.11582665 0.21649188 0.44108805 -0.25672293 0.32171434 -0.18296291 -0.2198675 -0.17051613
-0.123457536 0.24720125 -0.18130612 0.37816536 0.04561564 -0.16182022 0.14935593 -0.10208423
-0.13983536 -0.37621695 0.39982927 -0.15382124 -0.1962 0.16172656 0.19413051 -0.1350408
-0.30081028 -0.2091489 -0.4192543 -0.1357125 -0.14877307 0.1506844 0.059022427 -0.24884646
-0.060343057 0.028534407 -0.41338384 0.22051279 -0.0112836 -0.3422554 -0.43904173 0.2298288
0.07396883 -0.3669463 0.16273016 0.28987917 0.1376285 0.1472021 -0.5914352 -0.13263941
0.24480931 0.19191474 -0.038216032 0.063540675 0.10675351 0.157652 0.11950581 0.2507895
0.129759 -0.17508899 -0.55925816 -0.06398379 0.2925363 0.15956089 0.0051862285 0.18648851
-0.35874996 -0.28598157 -0.36982274 -0.18716446 0.093776055 -0.11298828 0.36260766 0.29601985
-0.20501438 0.047715753 0.24987605 0.27616334 0.02637874 -0.3482335 -0.4572364 0.042649973
0.06991329 -0.329649 0.31391522 -0.010490284 0.31037682 0.00551171 0.40448007 -0.38971263
0.10108291 0.06336718 -0.13677093 -0.011198803 -0.25523895 0.019104151 -0.53706175 0.19314785
0.05250411 -0.14546342 -0.14813322 0.3811578 0.30269474 0.07450441 0.44911432 0.11050934
0.20042658 -0.005056521 0.50653094 0.016803587 -0.37642485 0.0059501207 0.24073036 -0.22697058
-0.027410492 -0.047931783 -0.5577442 -0.2287638 0.12814221 0.2394231 -0.45603386 0.017226089
0.29598528 -0.0067974 0.52255225 -0.2547723 -0.393501 -0.36955646 0.40198877 0.34207106
0.41534168 0.31573877 0.38252696 -0.09576562 0.35268277 0.41579586 0.39309064 0.15990347
-0.09249469 -0.516368 0.33658332 0.41447613 0.02356669 -0.31816664 0.42016432 0.16929935
-0.0025810876 -0.3648159 -0.12815878 0.43274266 0.20819037 -0.14198217 0.4868013 0.13007142
-0.07601094 -0.30265823 -0.21002944 0.26410592 0.029837657 0.42557707 -0.35626402 0.14880916
0.3107931 0.052372783 0.51187426 -0.19249246 0.34980395 0.048639465 -0.3386847 0.26232576
-0.032988537 0.33614877 0.1144771 -0.3658395 0.10274776 -0.13540004 0.25507113 -0.41140088

fc1.bias f4 [128]
00000000: 0b7a 623e 1aea 4fbe a3a4 ad3c 821c f33e
00000010: a8b2 2b3e 597e b23d ef73 1bbe 7024 473e
00000020: 63e1 9fba 54f5 2abe eb6d 78be 3689 f33e
00000030: b0ce 22bb 3f6f b53e 7fe2 973e ebaa a4be
00000040: 0006 48bd e99b 9d3e ea8c debc 600f 8c3d
00000050: fd17 6a3e e108 5bbe 706a 70bd f056 9e3e
00000060: dbb4 033e 1636 e8be 2a77 673e b8b7 b2be
00000070: e347 fb3d 0388 1fbe ecac f9bc 141c f63d
00000080: 4c54 c8be 7037 b33e 42a9 203e fbbd 18be
00000090: 8b48 c73e da69 5dbe c5dc 0c3d 896f 8b3e
000000a0: 11cb 2cbe d87a bd3d 9525 f9bd a773 9fbe
000000b0: 8e75 b9be 0ba5 33be c114 cd3d f5fd d53e
000000c0: b448 07be 1180 4a3e 5d5e 63be e614 613e
000000d0: 2825 84be ea94 09be 0fec 87be 766f 1ebd
000000e0: b97e c0be 24fc 89bd 2252 d2be 7555 8fbe
000000f0: d0a6 76be ac37 a93e d71a 80be 3172 cbbe
00000100: 5215 b43e b1c3 773d c34b 9c3e dbf5 5abe
00000110: 01bc eebe 230c 35be 8cb2 2fbe b6ea 0f3e
00000120: 4aff b2bd 1232 543e c736 ffbd f6c3 21be
00000130: aa59 acbe 69ee f0be 0628 a03e bd9e 03be
00000140: 824d 493e ee0e ed3d d72d 8d3e 9db0 5bbe
00000150: b190 9f3e f972 2abd 923e 39be ec62 e03c
00000160: 2ee7 c63e 5689 76be aa8e 613e f460 8dbd
00000170: 77ba 3dbd ef95 b23e 6db5 a93e 11b0 81be
00000180: fd10 abbe 94a9 90bd cf21 9b3e afcc 583c
00000190: 34fc 38be 94a1 a83e 016d 743e 9abb 3abe
000001a0: 6f44 b0be 8514 f1bd fc03 6c3e 7e21 923e
000001b0: 8f92 153e c3b0 c13e 43bb 843d 4282 913e
000001c0: ecdc 2f3d 96d2 1c3e e0af bcbe 81cf e8bd
000001d0: 610e e93c 3fc2 8abd 6855 353e 1642 2abe
000001e0: 89ca a63d ec4e 263e 8e4a 10be f8cb 843e
000001f0: 48ed 72bd 11b3 bc3e 6808 dabe 164c e03d
0.22116868 -0.20304146 0.021196669 0.47482687 0.1676737 0.08715505 -0.15180944 0.19447494
-0.0012197908 -0.16695148 -0.2426068 0.4756562 -0.0024842434 0.35436437 0.2966499 -0.3216165
-0.048833847 0.30783013 -0.027166802 0.0683887 0.22860713 -0.21390106 -0.058695257 0.30925703
0.1286196 -0.45353764 0.22604051 -0.3490579 0.12269571 -0.15579228 -0.030477963 0.12017074
-0.39126813 0.35003233 0.15689567 -0.14916222 0.38922533 -0.2162241 0.03439023 0.27233532
-0.16874339 0.09251946 -0.12165371 -0.31142923 -0.362225 -0.17543428 0.10013724 0.41795316
-0.13211328 0.19775416 -0.22203965 0.21980628 -0.25809598 -0.13435712 -0.26547286 -0.038680516
-0.37596682 -0.06737545 -0.41078287 -0.27994886 -0.24087071 0.33050287 -0.25020477 -0.3973556
0.35172516 0.06048936 0.30526552 -0.21382849 -0.4662781 -0.17680411 -0.17157954 0.14054379
-0.08740099 0.20722225 -0.1246162 -0.1579741 -0.33662158 -0.47056893 0.31280535 -0.12853523
0.19658473 0.11575113 0.27574036 -0.21454091 0.31165078 -0.041613553 -0.18090275 0.02739092
0.3884825 -0.24075827 0.22027078 -0.06903258 -0.046320405 0.34880015 0.3314623 -0.2532964
-0.334114 -0.070635945 0.3029923 0.013232394 -0.18064958 0.32935774 0.23869707 -0.18235627
-0.3442721 -0.11771492 0.23048395 0.28541178 0.14606689 0.3783017 0.0648103 0.2841969
0.042935297 0.15314707 -0.36852932 -0.11367703 0.02844924 -0.06775331 0.17708361 -0.16626772
0.08144099 0.16241044 -0.1409094 0.25936866 -0.05930832 0.36855367 -0.42584538 0.10952012

norm1.weight f4 [128]
00000000: 338a 5b3f c84d 893f 87ca 583f 87a5 673f
00000010: 0f53 5c3f 9789 6b3f 1ab9 573f e163 5f3f
00000020: cdcc 933f 2a9e 593f 74e1 6b3f 71ac 773f
00000030: ab29 6f3f c178 503f 0252 5a3f f32b 753f
00000040: 834c 843f d3f7 653f ac6a 6b3f d1a5 533f
00000050: 4f75 5b3f 1621 633f 9f60 573f 1257 523f
00000060: 35eb 753f 08b5 573f dcd6 4d3f 0690 633f
00000070: 03b0 663f 6b96 803f ac02 5e3f ba21 723f
00000080: d1b1 5a3f c289 5a3f 4e71 703f 8654 573f
00000090: 1438 5a3f fa93 633f 2a2e 793f dbe5 803f
000000a0: dbc8 7c3f 57c3 633f 685e 683f 6eab 743f
000000b0: 346f 7c3f c136 5d3f 9aaa 6a3f d5ec 623f
000000c0: 1a46 8f3f 0996 733f 6e9e 5c3f 022d 5b3f
000000d0: e11d 623f d81a 5b3f 0849 843f 21c6 773f
000000e0: ecd0 5c3f 4a27 603f 26ed 5d3f fd6e 6e3f
000000f0: 75f6 643f 4403 553f 413b 5b3f dbe5 6b3f
00000100: ade1 733f b064 623f ff36 613f 5521 573f
00000110: 6719 5e3f c472 6f3f b852 893f 5cbd 563f
00000120: 157c 763f 123a 793f de06 733f f99e 693f
00000130: 9d68 843f 0b7f 4a3f aa85 453f af39 573f
00000140: 99b7 643f 31b6 803f 4513 313f 75c9 613f
00000150: e9d1 483f ce26 5a3f 3183 553f ce60 823f
00000160: 8615 773f ff54 7f3f 5a9b 5b3f 8417 743f
00000170: f307 5d3f 1a40 5a3f ffe6 503f 41dd 653f
00000180: c45a 6d3f becc 7b3f 612b 433f a9f3 663f
00000190: 1b01 563f 2aee 613f ac8e 693f 0757 583f
000001a0: 6840 763f f946 783f 1c42 5b3f cdf9 7d3f
000001b0: ea89 553f b223 5f3f a1a0 613f f5a6 8e3f
000001c0: 0141 5b3f d1e6 7c3f d884 6c3f 8289 613f
000001d0: 35e0 803f f649 503f 194c 663f 97da 473f
000001e0: 3b5e 553f d0bb 583f 7552 893f 7b04 653f
000001f0: 602e 853f 39ba 583f b834 5a3f b9bc 783f
0.8575775 1.0726862 0.8468403 0.9048695 0.8606424 0.9200682 0.8426682 0.8726178
1.1546875 0.85006964 0.9214089 0.967475 0.93422955 0.81434256 0.85281384 0.95770186
1.033585 0.89831275 0.91959643 0.8267489 0.85725874 0.8872236 0.8413181 0.8216411
0.9606202 0.84260607 0.80405974 0.8889164 0.9011232 1.0045904 0.86722827 0.9458271
0.85427576 0.8536645 0.9392289 0.8411335 0.8524182 0.8889767 0.97336066 1.0070146
0.9874398 0.8896994 0.9076905 0.9557408 0.9860718 0.8641167 0.9166657 0.88642627
1.1193268 0.9515081 0.86179245 0.8561555 0.8832684 0.85587835 1.0334787 0.96786696
0.8625629 0.8755995 0.86689985 0.93138105 0.89438564 0.8320811 0.8563729 0.92147607
0.9526623 0.88434887 0.8797454 0.84035236 0.8675751 0.93534493 1.0728369 0.8388269
0.96283084 0.97354233 0.94932353 0.912582 1.0344425 0.791001 0.7715708 0.84072393
0.8934265 1.00556 0.6917003 0.88198024 0.784453 0.8521546 0.8340331 1.0185792
0.9651722 0.9973907 0.8578392 0.9534838 0.86340255 0.8525406 0.8160247 0.8979073
0.9271662 0.98359287 0.76238066 0.90215546 0.83595437 0.88254035 0.91233325 0.84507793
0.96192026 0.96983296 0.8564775 0.9920929 0.83413565 0.8716384 0.88135725 1.1144701
0.85646063 0.987897 0.92390203 0.88100445 1.0068423 0.81362855 0.89959866 0.78067917
0.8334691 0.8466158 1.0728289 0.8945996 1.0404778 0.84659153 0.8523669 0.9716297

norm1.bias f4 [128]
00000000: f6d6 c8b7 be5a 1b3e 06b7 b9bc 3cfe 373d
00000010: c8a2 b2bc 8e80 e73c 7a1a 18bd f025 9a3d
00000020: afb4 a43d 0dc5 3ebd db00 1a3d 8a1c 4f3d
00000030: f1e7 f83c 3060 5ebd cca1 d6bb e24c bf3d
00000040: dc23 303e 6ca6 d13a 8ef4 a73c 889d 81bd
00000050: 352c e2bc e1c8 73bb 29de 46bd dee1 21bd
00000060: 0f40 863d c14e 79bd df08 0abd f9df b7ba
00000070: 2baa 463d 718f ba3d 86d6 913b b628 5d3d
00000080: cd1e 09bd 5899 a1bc 29fc 0f3d 71e5 1dbd
00000090: 7c16 20bc e428 e93b aa95 f13c 7b38 ad3d
000000a0: 9b91 0c3e 7365 113c bb7a be3b 4607 303d
000000b0: 8e7e 683d 0d98 2abd 21da 953c d164 a7bc
000000c0: b570 943e 8a3d 3e3d 3a5d e8bc 6095 483c
000000d0: ab2f 1cbb fe16 1fbd 8e58 223e f939 e43d
000000e0: 9277 59bc 55bd 3ebb 1f10 0cbd 91d1 693b
000000f0: 3abe d9ba 8584 56bd c510 4abc bdf8 8c3c
00000100: f2ab 953d fc91 0bbb e3bd 68bc 717e 2abd
00000110: 2933 f7bc 8f1f 403d 366a 413e 6715 1ebd
00000120: d9ed 283e 0c41 c83d 6dee 4a3d 75ec b13c
00000130: 51e9 5d3d 5d12 acbd d09b b8bd 89e4 8dbd
00000140: 364d 3e3c 2d4b 493d 4c2e 2ebe 90ed 1fbc
00000150: ea0c 77bd 3b0f 893c ab93 e7bc 4bd4 af3d
00000160: 4ce7 0c3d fc96 c33d f396 29bd bbbf 613d
00000170: 371f 28bc fc42 2f3d 039a 69bd 8d11 8f3b
00000180: 2ef3 943d 7403 823d 1caa 8bbd 381a 6c3c
00000190: f56b 993b f30d 06bd d23a f03c 3dea 64bd
000001a0: 2a35 063d 3f3f e83d 07cd fdbc 871c 8f3c
000001b0: bd92 4bbd 932d 71bc b6b1 5fbb a390 493e
000001c0: 9902 0abd a58c b63d b003 bf3c dde3 913a
000001d0: ec73 383e 0764 83bd d551 503d 315e cbbd
000001e0: b16a 0ebd 7eac 1ebd 2037 8c3e d692 8f3b
000001f0: 0169 ee3d 3553 09bd 0e6a 03bd 59e5 613d
-2.3941957e-05 0.15171334 -0.02267028 0.04492019 -0.021806136 0.028259542 -0.037134625 0.07526767
0.08042275 -0.04657464 0.037598472 0.050564326 0.030384036 -0.05429095 -0.0065500494 0.09340836
0.1720118 0.0015995032 0.020502355 -0.06328875 -0.02760897 -0.003719859 -0.048551712 -0.039522044
0.06555187 -0.06086612 -0.033699866 -0.0014028541 0.04850213 0.091093905 0.004450622 0.053993903
-0.03347664 -0.01972644 0.035152588 -0.03854889 -0.009770986 0.0071154702 0.02949031 0.084580384
0.13727419 0.008874285 0.0058129705 0.042975686 0.056761317 -0.041648913 0.018292489 -0.020433815
0.2899224 0.046445407 -0.028364766 0.012242645 -0.0023832123 -0.038840286 0.15854093 0.1114387
-0.013273137 -0.002910455 -0.03419506 0.003567789 -0.0016612478 -0.052372474 -0.0123331 0.017208451
0.073081866 -0.002129673 -0.014205429 -0.04162449 -0.030175762 0.046905097 0.18888173 -0.03859463
0.16496982 0.09778032 0.049543787 0.021719197 0.054177586 -0.0840194 -0.09014094 -0.06928355
0.011615088 0.04914396 -0.17009848 -0.009761229 -0.06031505 0.016730895 -0.028268656 0.085854135
0.03440027 0.09550282 -0.041403722 0.05511449 -0.010261348 0.04278849 -0.057031643 0.004366106
0.07272945 0.06348315 -0.06819555 0.014410548 0.004682059 -0.032728147 0.029324923 -0.05588745
0.032765545 0.11340188 -0.030981554 0.017469658 -0.049700487 -0.014720338 -0.0034133024 0.19684081
-0.033693884 0.089135446 0.023317188 0.0011130531 0.1801297 -0.06415563 0.05085929 -0.09930075
-0.034769718 -0.03873872 0.27385807 0.004381518 0.11641122 -0.033526618 -0.032083564 0.055150364

fc2.weight f4 [64, 128]
00000000: 06f1 123d 1bae c43d ef2c a6bd df0d ab3d
00000010: d755 d83c 26a9 babc e872 db3b 9247 dbbc
00000020: 041f 3c3a 5ef3 95bc 28da 65bd 16e0 d3bc
00000030: cb04 2a3d 5f50 d9bc 0d84 e53c 1a72 403b
00000040: 4b7a 60bc d72f b9bd f6a5 a7bd 429c 8dbd
00000050: 6611 293b 4d99 57bc 5ed8 d5bc d1cb 3ebc
00000060: 701f f13d ac94 f7bd bbd5 c4bc ca48 00be
00000070: 34ae 9abd 4ec5 c7bc 34f7 89bd 3657 52bc
00000080: 66e1 acbd a990 93bd d921 803c b1f0 763d
00000090: 0cd3 2b3c e2cc 873c 1180 983d 6e70 db3d
000000a0: a33c 04bd abe6 813c e1d4 423c c7b6 1bbd
000000b0: de66 5fbd 71b6 aa3d 558b d0bd ff9d dfbd
000000c0: d706 b2bc b66e 71bd 925d 2a3d 7b19 e63c
000000d0: 58b8 b9bb d234 cdbd 4767 cc3c 605b bd3b
000000e0: b829 9dbd 519b 87bd 35f7 963c f5ae 87bd
000000f0: d016 f53b 47e7 a6bc fdc2 783c d2d8 c5bd
00000100: fe22 a93c 5803 cabd d700 4bbc 8403 95bd
00000110: fe9c d13c 561e 993c 85d4 d0ba c052 9b3d
00000120: 5414 a03b 06a5 3cbd 96e1 dfbd 9121 62bc
00000130: eebc 83bc bb6c c93b 9b75 5239 11f2 50bb
00000140: aa34 ed3c 07cd f4bd 54ab 923c 4c6e d7bd
00000150: d41d 46bd e186 b2bd 981a 513b f8dd d1bd
00000160: 558f b13c 4337 76bd 1a58 74bc a34f 453d
00000170: c03f 8ebd 7504 b03c c7b9 ccbb 6099 1e3d
00000180: dbca 9f3d f3ec ffbc f410 0039 6028 52bd
00000190: 95a3 ee3c 1340 7cbc db67 b5bd 9298 573d
000001a0: af69 e33c d0c8 523d ffb0 9fbc 41e7 fcbd
000001b0: 9082 643d 5c74 bebd d989 413c 78d2 92bd
000001c0: e54e 1bbd d988 27bb 53ba 63bd 5b71 233d
000001d0: 2f9f b33d 06df 943c 58df 3abc 01ce 33bd
000001e0: 13f9 873c 4d77 c33c 0f99 46bd b872 b03d
000001f0: 8a76 973d cf3d b4bc 9e8e 8fbc 992d 7b3d
00000200: d2db 68bd d1dc b23c 30b1 8ebd 016f a73c
00000210: 9c14 a0bd 2e51 5b3c e6c9 58bc 2beb 5cbd
00000220: 6950 1b3d 84b9 1c3c 292a a7bd 8851 263d
00000230: c7dd 85bd 6847 82bd 62bf b93c fc31 123d
00000240: c9e8 8bbd cf4c 08bd 306f 80bd 9cfb 62bd
00000250: 3f45 98bd 4f9a 5fbd 83b6 323d ea92 cdbd
00000260: c7a2 ecbd 67be cd3c e986 f1bd 6626 3fbd
00000270: e835 e1bd 1d2c bb3c 9718 bfbd edda a5bd
00000280: ce2d d1bd 845b 223d 0b5d 87bd 5bbb 723d
00000290: 0d49 b1bd 4846 8fbc b721 8b3d f1b5 dabc
000002a0: ffc5 a13c 80b8 4a3d 6a3d e5bd 74d5 e93b
000002b0: d835 79bd fd03 943d 63ee 9bbd 0dce d0bc
000002c0: 1eea 47bd 14d8 143d cedd b8bc 4c2a 143c
000002d0: 0737 72bd 2ed1 ed39 961b b2bd 5807 f9bc
000002e0: e9b5 bfbc 27d5 bfbd eeef 28bc 5616 89bc
000002f0: d144 9bb9 3555 a1bd fc61 60bd 3978 2f3c
00000300: 8564 f0bd 0b84 6dbd e6c0 90bc d6c9 7a3b
00000310: 5a54 493d 8b3c adbc 2605 953c 0270 4ebd
00000320: 0138 96bc 3f51 d7bd de70 a33d 0853 eebc
00000330: 971f 39bd 2f47 ec3d e8d0 3e3d 4226 ae3c
00000340: 2413 64bd 1ca9 6cbd 90a6 c8bc 05ab de3b
00000350: 6b6a f0bd 3a16 583c b14e 0ebe a15b 93bd
00000360: 3aa5 733c 0422 d5bd 3fb9 bebc c06e c1bc
00000370: 212e 1dbb 8aa5 acbd 46db 3d3d 2a91 6c3b
00000380: 6e1b f1bc 3693 d6bd 91e7 e33b 7d8b 013d
00000390: 3a54 0d3d b63f 0fbc 5e55 abbd 33c4 debd
000003a0: 9017 e53b 29a9 69bd b2bb 8b3c da41 66bd
000003b0: 4bc3 9d3b 3ab4 643c 0064 e0bc 3526 78bd
000003c0: e0e6 d73b d884 b9bd 5344 3c3c b3d2 a93c
000003d0: 4da9 c6bd 1fd9 19bd 8f91 88bd 3690 9dbd
000003e0: 2649 adbc fe51 5bbd 0524 2cbd ccfb 48bd
000003f0: 46d3 63bd 2110 76bd 49a4 9d3b 2cce 243d
0.03587439 0.096035205 -0.08114039 0.08352255 0.02640812 -0.022785734 0.0066970475 -0.026767526
0.00071762525 -0.018304523 -0.056116253 -0.025863688 0.041508477 -0.026527582 0.028017068 0.0029364885
-0.013701032 -0.09042328 -0.081859514 -0.069145694 0.0025797724 -0.013159108 -0.026104148 -0.011645273
0.11773574 -0.12088904 -0.024027696 -0.12527767 -0.07552758 -0.024386074 -0.067366034 -0.0128381755
-0.08441429 -0.07205326 0.01564114 0.060288135 0.010487329 0.016577188 0.07446302 0.10714804
-0.03228439 0.015857061 0.011891575 -0.038016107 -0.05454146 0.08335579 -0.101828255 -0.10918807
-0.021731777 -0.058943473 0.04159314 0.028088322 -0.0056677274 -0.1001984 0.02495159 0.005778715
-0.07673973 -0.06621421 0.018428424 -0.06625167 0.007479526 -0.020373954 0.015183208 -0.09660496
0.020646568 -0.09863919 -0.012390337 -0.07276061 0.025587555 0.018691223 -0.0015932476 0.07584143
0.004885236 -0.046055816 -0.10931699 -0.013801948 -0.0160813 0.006146995 0.00020070972 -0.0031882564
0.028955776 -0.11953168 0.017903961 -0.10519084 -0.04836829 -0.08717132 0.003190672 -0.10247415
0.021674791 -0.060111295 -0.014913583 0.04817165 -0.06945753 0.0214865 -0.0062477323 0.03872049
0.078023635 -0.031240916 0.00012213347 -0.051308036 0.029130736 -0.015396136 -0.088576995 0.052635737
0.027760355 0.05146104 -0.019493578 -0.12348796 0.055788577 -0.092995375 0.011812651 -0.0716905
-0.037917037 -0.0025563745 -0.055597614 0.039903026 0.08770596 0.018172752 -0.011405788 -0.043897633
0.01659826 0.023860598 -0.04848581 0.08615631 0.073956564 -0.022002129 -0.01752406 0.061322782
-0.056850262 0.02183381 -0.069673896 0.020438673 -0.07816431 0.013386054 -0.01323173 -0.05393521
0.037918482 0.009565715 -0.08162338 0.040605098 -0.06536441 -0.06361276 0.022674266 0.0356922
-0.068315096 -0.033276375 -0.06271207 -0.055415735 -0.07435083 -0.05459052 0.043631088 -0.10037787
-0.11554485 0.025115205 -0.1179331 -0.04666748 -0.1099661 0.022848183 -0.09330862 -0.080983974
-0.10213815 0.039638057 -0.066095434 0.059260707 -0.086565115 -0.017489567 0.0679354 -0.026698085
0.019747732 0.04949236 -0.111933544 0.0071360413 -0.060842365 0.07227323 -0.07613828 -0.025488878
-0.048807256 0.03633888 -0.022566702 0.0090432875 -0.05913451 0.00045360014 -0.08696668 -0.03039901
-0.023402171 -0.093668275 -0.01031111 -0.016734283 -0.00029615176 -0.0787758 -0.054780945 0.010709816
-0.117379226 -0.057987254 -0.017670106 0.0038267276 0.04915271 -0.021147033 0.018190932 -0.050399788
-0.018337252 -0.10513543 0.07980512 -0.029092327 -0.045196142 0.11537015 0.046585947 0.021258477
-0.055682316 -0.057778463 -0.024493486 0.0067952895 -0.117390476 0.013188893 -0.13897206 -0.07195211
0.014870936 -0.104068786 -0.023281692 -0.02361238 -0.0023983794 -0.084300116 0.046351694 0.0036097267
-0.029432025 -0.10477297 0.006955095 0.031627167 0.034504153 -0.008743217 -0.08365892 -0.10877266
0.0069913343 -0.05704609 0.017057274 -0.056215145 0.0048145405 0.013958985 -0.027391434 -0.060583312
0.0065888017 -0.09058541 0.011490899 0.020730352 -0.0970026 -0.03756058 -0.06668388 -0.07693522
-0.021153044 -0.05354499 -0.04202654 -0.049068257 -0.055621408 -0.060073975 0.004810844 0.040235683

fc2.bias f4 [64]
00000000: d5b9 dfbd edeb 28bd ed65 58bd 2a59 9fbd
00000010: 2cc4 3abc 759d 4c3c 63a4 ee3b 85ca d8bd
00000020: 18b7 3e3c c2f1 e03c 1570 6c3d 7980 d7bd
00000030: ba24 babd d6de 03bc b358 993c c9d4 2a3d
00000040: 6095 a8bc f87f 54bd 9c8a e8bd 6059 d6bc
00000050: 9443 fcbc 2a46 773c 8bc9 dfbc a045 d3bc
00000060: 7c7a 6cbd 4ad6 74bd 9454 253d 6046 133d
00000070: 6f64 ca3c e9c9 ccbb 1ccd e7bb 7891 003d
00000080: e699 01be 2966 963c add3 08be cd39 373d
00000090: 7d33 f8bd 2ca1 073c 261a 3e3b 9c51 d0bc
000000a0: 8bc6 a5bd c486 f7bb aefa 24bb 0836 c1bd
000000b0: 9af0 1a3d 01e0 82bc a8fe 8bbd f9ba 95bd
000000c0: 8d59 37bc 5bfa 70bc f6fa 7fbd 4939 bebd
000000d0: 11b2 903b 0efb f5bc 7dce 7bbd 9521 9a3d
000000e0: 033a a8bd 1a9d c7bc 81a5 8abd 33be f7bd
000000f0: 850f 52bd b33b 8fbd c324 2cbd cd50 083d
-0.109241165 -0.04124062 -0.05283158 -0.077806786 -0.01139931 0.012488713 0.00728278 -0.105855025
0.011640333 0.02745903 0.057724077 -0.10522551 -0.09089036 -0.008048734 0.018719053 0.041706834
-0.02057904 -0.051879853 -0.11354563 -0.026165664 -0.030793943 0.015092412 -0.027317783 -0.025790036
-0.057733998 -0.059774674 0.040363863 0.035955787 0.024706094 -0.0062496555 -0.0070740115 0.03138873
-0.12656364 0.01835926 -0.13361998 0.044732857 -0.121191956 0.008278172 0.0029007285 -0.02542954
-0.0809451 -0.007553907 -0.002517383 -0.09434134 0.03782711 -0.015975954 -0.06835681 -0.07311053
-0.011190784 -0.014708127 -0.062495194 -0.0928827 0.0044157584 -0.030026939 -0.06147622 0.075259365
-0.0821419 -0.024366904 -0.067698486 -0.120968245 -0.05128433 -0.069938086 -0.042027246 0.033280183

norm2.weight f4 [64]
00000000: d5cd 553f fe62 513f 1de1 763f a44a 633f
00000010: 3fa5 563f 07f2 5d3f 196f 5f3f e5a6 553f
00000020: 0838 563f 3740 623f 8bb5 5b3f 714a 583f
00000030: 9aa1 713f e230 603f f8d5 663f bbf2 663f
00000040: a3bc 883f 5a53 703f abb7 593f d5b6 5d3f
00000050: 791b 8a3f 2c87 593f a09b 5e3f 2820 5d3f
00000060: 9550 563f 4628 5f3f 7456 5b3f b443 733f
00000070: 1ec8 693f f7ef 693f 50b2 803f b011 5f3f
00000080: 1858 583f 7054 623f 047c 643f b458 5f3f
00000090: 7299 563f 14d0 5f3f 117e 5f3f c08d 4f3f
000000a0: dde2 5a3f dcf8 783f d296 593f 6f93 543f
000000b0: 3f09 783f 8931 633f b7ea 693f ae25 5d3f
000000c0: 4189 633f 71e4 563f 579c 563f c572 573f
000000d0: 003a 4f3f 68ef 493f ed3f 633f 72f0 653f
000000e0: e0fe 793f e042 5d3f e685 543f 4062 543f
000000f0: 8bc4 613f 2c8d 5c3f ea15 6b3f dd1d 703f
0.835172 0.81791675 0.96437246 0.8878577 0.83845896 0.8669743 0.87278897 0.83457786
0.83679247 0.88379234 0.8582389 0.8448859 0.9438721 0.8757459 0.9017024 0.9021413
1.0682567 0.93877184 0.8504588 0.86607105 1.0789634 0.8497188 0.86956215 0.8637719
0.8371671 0.8717083 0.8567879 0.9502518 0.9132098 0.9138178 1.0054417 0.87136364
0.8450942 0.8841009 0.8925173 0.87244725 0.8382789 0.8742688 0.8730174 0.8107567
0.85502416 0.9725473 0.8499576 0.83037466 0.9688911 0.8874746 0.9137377 0.8638562
0.8888131 0.83942324 0.83832306 0.841595 0.80947876 0.7888093 0.8876942 0.89820015
0.97654533 0.8643017 0.8301681 0.8296242 0.88190526 0.8615291 0.91830313 0.9379557

norm2.bias f4 [64]
00000000: 8c71 27bc 12bf 4ebd 7cf7 6f3d ee41 85bc
00000010: 77c9 2ebd 3c92 49bc 9fdc a2bc f29d 90bd
00000020: 7ab9 b2bc 30c2 793c 8f5a 7f3d c3db 5dbd
00000030: 0b37 b33d be11 853c 2e3d 5e3c 8449 37bc
00000040: f449 ae3d f410 003d f6fa 04bd b3a7 e83b
00000050: 95ba 1a3e 5a35 103c d315 5dba cbe0 a9bc
00000060: cc2b 60bd 4dbd 37ba cac0 39bc 75d3 ba3c
00000070: db25 8e3d 5893 75bc 76fe f83d 7886 013d
00000080: 9a69 bcbb f745 e13c 103f 213d 13ad 69bc
00000090: 9d96 fa3b c28f 7c3c 17b9 c4bb 32d3 b8bd
000000a0: 3523 96bc a83c 2e3d f272 17bd 01a3 73bd
000000b0: acec 1e3d 21f6 0fbc 3b07 7a3d 7ede bd3c
000000c0: 90f5 933d 9675 d8bc dfb6 6cbd 3aa9 41bd
000000d0: dbb5 5bbd 75a5 4cbc 08d1 313c 1a7f ec3c
000000e0: e1d5 d93d ebc5 293c a651 68bd 22ce a4bc
000000f0: e0bf 9b3c 1fb0 023b acff a33b ce30 2fbb
-0.010219943 -0.050475188 0.05858563 -0.01626679 -0.0426726 -0.012302931 -0.019880591 -0.07061376
-0.021816958 0.015244052 0.062342223 -0.05416466 0.08750733 0.016243812 0.013564391 -0.011186961
0.08510199 0.031266168 -0.032465898 0.0071000694 0.15110238 0.0088017825 -0.0008433733 -0.020737072
-0.054729268 -0.0007009104 -0.011337468 0.022805909 0.06940814 -0.014988743 0.121579096 0.03162238
-0.0057498934 0.027499182 0.03936678 -0.0142624555 0.007647349 0.015415134 -0.0060035097 -0.09024657
-0.018327335 0.042538315 -0.036974855 -0.059481625 0.038799927 -0.008786709 0.06104205 0.023177382
0.07224572 -0.026423257 -0.057791587 -0.047280528 -0.053640228 -0.01249062 0.01085306 0.0288692
0.10636497 0.010362129 -0.05671849 -0.020117823 0.019012392 0.0019941402 0.0050048437 -0.002673197

fc3.weight f4 [32, 64]
00000000: 3e8d 2fbe f1a3 e03c e517 0abe bea3 63ba
00000010: 3561 e03c 57ba 4ebd bd6a acbd bc2a e2bc
00000020: fe7a 153d fad2 e5bd be60 1fbe 68a3 ee3c
00000030: 371a 0fbe 31b1 cabc a026 50bd e01b cabd
00000040: 430e 02be 9db3 9b3b 0aa6 793b 13cf 14be
00000050: 0a34 c5bb 048f 32be 944e 00bd d69c 3ebd
00000060: df19 c5bc 1a5a afbd bd54 14bc bc3b 42bd
00000070: 42a3 45be afa6 f53c 539f 49be 51f0 10be
00000080: 2c49 7fbd b637 ec3d f2dc d5bd 3062 4abc
00000090: a757 0ebe cb47 d4bc 4f1d 9abd 0e7e 03bd
000000a0: 8e65 91bd 4768 d0bd 0689 42bd 363d 26bd
000000b0: c4bd b2bd c1a9 8e3d 63b5 18be 766a 6dbe
000000c0: 6070 4fbd a0cd e03c 728f 14bd 1e0b 77bd
000000d0: c2d6 0ebd 5a17 07be 5403 24bd c2ed 09be
000000e0: d9fc 5ebe 9ddf 8ebe 4282 a1bd c848 acbd
000000f0: 6f58 f8bc 2695 bd3d f756 4ebd e9b8 eb3b
00000100: 8143 76bc 5668 523d f4f2 04be 086e 61bd
00000110: e976 273d 4389 81bc 5cb3 823d 8f45 4cbd
00000120: df85 80bd d846 7dbd 0a71 7fbd 5b29 dd3c
00000130: b133 25be 92be 4bbd a2e5 773d 2df3 fdbc
00000140: f353 55be cf9d 12be d799 50bc de7a d4bd
00000150: d6d0 15be 2644 f1bd c9c0 dc3c 9f52 a43d
00000160: 2417 c3bd 4e12 98bc 35b7 cebc 414c 2e3d
00000170: 9f77 e4bd 3708 86bd 7d99 a2bd 64bf a3bd
00000180: cbcc 17be 668c eabd 23fd 08be bab6 89bd
00000190: 3d16 febd 6f8f 63bd 7539 9dbc d516 a7bd
000001a0: 9194 77bc ea21 3bbd 18ff 2cbd 82a0 c13a
000001b0: 2b57 723d 73c8 cebd f392 01be 2848 15be
000001c0: 6be2 3dbe 8a52 003d a650 bdbd 38be 8dbd
000001d0: 7775 b43c c5ca 02be fcd2 bfbd 102f a5bc
000001e0: 16ec 8c3c a721 1abe 116a 203c 5fbe b6bd
000001f0: f04b 12bd 5b9a 4cbd cb99 4a3c 9df4 2bbd
00000200: 6207 24bc 48ce 1cbd 5ca9 bcbd a7a9 d4bd
00000210: 86bd 8dbd 5252 1abc 0a41 2fbe 3182 bd3d
00000220: 51c2 473d 6f1b 4abd aee0 ad3d 4489 32bb
00000230: ee0e 14be c5f9 bfbc d31a 2cbd e170 b2bd
00000240: 9313 53be 6bd5 f2bd 0ecc afbd 09c6 69bd
00000250: c0c3 17be 5329 66bd 054e f8bd f8bc a43b
00000260: 43c5 aabc dca1 1e3e 8637 89bd 0e48 98bd
00000270: 26b0 803d 7eae 88bd ec26 0c3d a132 763d
00000280: f02b 2c3d 2ff0 06be 4ea6 b5bd 1e84 7cbd
00000290: 9bde bfbd faff 10bc 7cab 47bc ec06 633d
000002a0: 2c3e b5bc 0f34 783b fb6c e5bd 15e0 d9bc
000002b0: 2fed b2bc fda2 1bbd 4807 a73d fd0f 333d
000002c0: 08f1 47bd 7f3f 9bbd 6a7e 33bd a149 98bd
000002d0: f206 9abd 9276 febd 62fb 33bd b895 1ebd
000002e0: 24a9 7a3d 909f f43d 13b7 19bd 8b29 cf3d
000002f0: 4a03 a3bd e985 e0bd 1181 a9bd ee8b c5bd
00000300: e994 4fbd deea a0bc b53b 10be 50fd 61bd
00000310: 0cc2 c03c efbd c6bc ffc9 e23c 8d4b b73b
00000320: 2e23 25bd 9fb1 88bc c03b dabd 475b d53d
00000330: 8cca 2cbe c1fd b23d 04c9 8fbb b502 613c
00000340: 7fca 56be a371 f3bd ae09 30bc fd10 fcbd
00000350: 4a29 1fbe 9754 0bbe 1f03 91bd 1b65 d8bd
00000360: 4776 933c 266d bebd 4173 85bd 1559 4d3d
00000370: 7d55 c1bd 9050 b8bd 0f9f f1bd 5fd2 a3bd
00000380: 8458 0ebe 1f03 aebd 8ff0 14be bab3 afbd
00000390: f415 3cbe db9d d7bb 8196 ae3c fbbe f53b
000003a0: 4854 5d3d eac5 a9bd a309 6ebd 2da5 c63c
000003b0: 4a99 d93c 3b88 91bd d318 03be 4fd0 8fbd
000003c0: c9af d2bd fc74 753d 876f a636 f377 0abc
000003d0: 95cd 443d cb1e d2bd f109 73bd c77c 79bc
000003e0: 099c b2bd 732f 42be 2643 6a3d c96f b6bd
000003f0: 8a5d a7bd f50c 8bbd 51f3 0d3d 33d4 cabc
-0.17143723 0.027421923 -0.13485678 -0.0008683762 0.027390102 -0.050470676 -0.08418796 -0.027608268
0.036494248 -0.11221881 -0.15564248 0.029130653 -0.13974844 -0.024742695 -0.050818086 -0.09868598
-0.12700753 0.004751636 0.0038093352 -0.14532118 -0.0060181664 -0.17437369 -0.031324938 -0.04653629
-0.024060188 -0.085621074 -0.009053406 -0.04742025 -0.19300559 0.029986707 -0.19689684 -0.14154173
-0.06232564 0.115340635 -0.104425326 -0.012352511 -0.13900624 -0.02591314 -0.075251214 -0.032102637
-0.07099448 -0.10176139 -0.047493957 -0.04058572 -0.08727601 0.06965972 -0.14912944 -0.23185143
-0.05064428 0.0274418 -0.036269613 -0.060313337 -0.034872778 -0.13192502 -0.040042236 -0.13469604
-0.21776141 -0.27904978 -0.07886173 -0.084123194 -0.030315606 0.092569634 -0.050375905 0.007193674
-0.015030743 0.051369034 -0.12983304 -0.055036575 0.040884886 -0.015812522 0.06381866 -0.049871024
-0.06275534 -0.06183514 -0.06236366 0.026997259 -0.16133 -0.04974229 0.06052173 -0.030999744
-0.20832805 -0.14318012 -0.012731991 -0.103749976 -0.14630446 -0.117805764 0.026947396 0.08023571
-0.09525898 -0.018563416 -0.025233844 0.04255319 -0.111556284 -0.065445356 -0.07939432 -0.07995489
-0.14824216 -0.1145256 -0.13377814 -0.067243055 -0.12406585 -0.05555671 -0.019192437 -0.08158652
-0.015111105 -0.04568664 -0.042235464 0.0014772567 0.05916516 -0.100968264 -0.12653713 -0.14578307
-0.18543403 0.031328715 -0.09243898 -0.06921047 0.022028668 -0.12772663 -0.09366414 -0.020164043
0.017202418 -0.150519 0.009790913 -0.08923029 -0.03571695 -0.049951892 0.012365769 -0.04198133
-0.010011526 -0.038282663 -0.0921199 -0.10383921 -0.06920914 -0.009419041 -0.17114654 0.09253348
0.0487693 -0.04934257 0.0849012 -0.0027242461 -0.1445882 -0.02343453 -0.04201777 -0.08712936
-0.20612936 -0.118571125 -0.08583842 -0.057073627 -0.14820766 -0.056191754 -0.12124256 0.0050274096
-0.020846015 0.15491432 -0.067000434 -0.07435618 0.06283598 -0.06673907 0.034216806 0.060106877
0.04203409 -0.1317756 -0.08869611 -0.061649434 -0.093686305 -0.008850092 -0.012186881 0.055426523
-0.022124372 0.0037872826 -0.11202427 -0.026596108 -0.021841614 -0.037997235 0.08155686 0.04371642
-0.04881385 -0.0758047 -0.04382173 -0.074359186 -0.07520856 -0.12424959 -0.04394091 -0.038717
0.06119646 0.11944497 -0.03752811 0.101153456 -0.07959612 -0.10963041 -0.082765706 -0.0964583
-0.05067912 -0.019643243 -0.14085276 -0.05517322 0.023530029 -0.02426049 0.02768421 0.005593723
-0.040316753 -0.016686259 -0.10655928 0.104178004 -0.1687414 0.08739806 -0.0043879766 0.013733556
-0.20975684 -0.11886909 -0.010744495 -0.12307928 -0.15543094 -0.13606487 -0.070806734 -0.10566159
0.018000735 -0.09298162 -0.065161236 0.050133783 -0.09440134 -0.08999741 -0.11797916 -0.079991095
-0.13900954 -0.08496689 -0.14544891 -0.08579202 -0.1836775 -0.006580097 0.021312 0.0074995733
0.054035455 -0.08289702 -0.05811466 0.024248684 0.026562352 -0.07106062 -0.12802438 -0.070221536
-0.102874346 0.059926018 4.960169e-06 -0.00845145 0.04804762 -0.102597795 -0.059335653 -0.015227503
-0.087211676 -0.18963413 0.057192944 -0.0890804 -0.08172138 -0.06789581 0.034655873 -0.024759388

fc3.bias f4 [32]
00000000: a224 bc3d c4f2 bfbc 3118 2abe 4a12 08bd
00000010: 52e3 d5bd cbbc 58be 2e79 b4bd a2a4 20be
00000020: 9625 4f3c 7861 a83d c92f 583d 05f7 21be
00000030: 3a76 b4bd 2153 51be cdfd f33c 7131 03be
00000040: f20f 28be 0e39 073d 1424 dfbd 0e48 e4bd
00000050: acd1 6f3d d857 1abd 9dbc cebd e861 b9bd
00000060: a819 c3bc 7e8b 863d df07 26bd 3d85 0b3b
00000070: 3430 fcbd 4084 a0bd a331 e93d 65a8 d2bd
0.09186675 -0.02343119 -0.16610791 -0.033220567 -0.104437485 -0.21165769 -0.08812176 -0.15687802
0.0126432385 0.08221716 0.052779946 -0.15816887 -0.088116124 -0.20441867 0.029784108 -0.12811829
-0.16412333 0.033013396 -0.10895553 -0.11146556 0.058549568 -0.03768143 -0.10094569 -0.09051877
-0.023815945 0.06569575 -0.04053485 0.0021289133 -0.123138815 -0.07837725 0.113864206 -0.10286025

norm3.weight f4 [32]
00000000: 7c1b dc3f 8dae d33f 930c 943f 4a37 ec3f
00000010: 7d67 683f 86af 643f d8ec d63f e321 6b3f
00000020: b013 db3f d09c ef3f a86c d53f c4ce 603f
00000030: 5d13 6b3f d912 713f 469d d73f 8656 e73f
00000040: ec4b 643f d721 d03f 0c0a 653f 918c 5c3f
00000050: ecdb d73f 54ce d03f 9c5b c43f a829 643f
00000060: 2dd1 f53f 85cb d23f a875 c63f 40c5 db3f
00000070: 30c9 603f a4af cd3f b4fa c63f bbf6 683f
1.7195888 1.6537644 1.1566337 1.8454373 0.9078291 0.8933033 1.6791029 0.9184858
1.7115383 1.871973 1.6673784 0.878155 0.9182642 0.94169384 1.6844871 1.807328
0.8917835 1.6260327 0.89468455 0.8615199 1.686399 1.6312966 1.5340457 0.8912606
1.920446 1.6468359 1.5504656 1.7169571 0.8780699 1.6069226 1.5545259 0.9100148

norm3.bias f4 [32]
00000000: 60fb 1e3f 4d42 063f c78c 103f acec 483f
00000010: 1322 533d 9677 e43c aaac 093f af2e 973d
00000020: 60a3 183f c1e2 363f 4726 1f3f ef7a 13bc
00000030: e150 5c3d 9be3 bf3d bbc0 273f b68e 1c3f
00000040: 2792 1b3c 7520 2d3f 6f5f 693c bce4 39bd
00000050: 5368 163f 3fb9 fa3e 93a0 093f 6dde ec3c
00000060: 1342 373f d489 1a3f 67cd ed3e 33c0 163f
00000070: 46b7 98bb 54fc 0c3f 19e4 053f e2f1 3f3d
0.6210232 0.52444917 0.5646481 0.7848613 0.051546168 0.027889054 0.5377909 0.07381951
0.5962429 0.7143975 0.6216778 -0.009001478 0.05378807 0.09369584 0.6552846 0.6115526
0.009495295 0.6762765 0.014243945 -0.045384154 0.58752936 0.48969457 0.5376064 0.028914655
0.71585196 0.6036656 0.46445772 0.5888702 -0.00466052 0.5507252 0.52301174 0.046861537

fc4.weight f4 [1, 32]
00000000: c096 3b3f 884d 44bf 2b23 1ebf f103 64bf
00000010: 94fc 243d fbbe e6bc 4d6f 383f 4bef adbd
00000020: f115 52bf 1158 46bf cdbc 3abf 2275 c53c
00000030: 3c80 88bd 9b12 7c3d 3f21 4dbf 94ff 723f
00000040: 7141 77bc ad1e 343f 981f 9b3c c7ef 4abb
00000050: bbe6 433f eb64 44bf 71d2 3bbf e4ff 59bd
00000060: 5f28 653f adf1 4fbf c676 3c3f 5a72 3f3f
00000070: 136b e7bd 94dd 293f 1854 2c3f e39e 13bd
0.732769 -0.76680803 -0.6177241 -0.89068514 0.04027994 -0.028167238 0.7204483 -0.08492907
-0.8206473 -0.7747813 -0.7294434 0.024103705 -0.06665084 0.06154118 -0.80128855 0.9492123
-0.015091286 0.7035931 0.018935964 -0.0030965672 0.7652394 -0.7671649 -0.73367983 -0.053222552
0.89514726 -0.8122814 0.73618734 0.7478386 -0.1129972 0.66353726 0.67315817 -0.036040198
