models/best_model.pth (torch, 59938 bytes, 19 tensors)

fc1.weight f4 [128, 14]
0	0xba0ae3fa	-0.00052982534
1	0x3c0a56df	0.008443563
2	0x3bdfc285	0.0068286085
3	0x3b3e7511	0.0029061476
4	0x3cbeadbd	0.023276204
5	0x39be38c5	0.0003628192
6	0xba5ee8de	-0.0008503328
7	0x39dbd474	0.00041929225
8	0xbb81efa6	-0.003965336
9	0xbb7744ae	-0.0037730145
10	0x3c3f958a	0.011693368
11	0xbd7a1a0a	-0.06105999
12	0xba40897e	-0.00073447067
13	0x3a674cee	0.0008823414
14	0xb98d6c15	-0.00026974143
15	0xbc86ac20	-0.016439497
16	0xbc6e67b3	-0.014551091
17	0xbc0ef35a	-0.008725012
18	0xbc227aca	-0.0099169705
19	0xba8c8832	-0.0010721742
20	0x3ac04f29	0.0014672029
21	0x3a23dafd	0.00062505883
22	0x3b3ee47e	0.0029127891
23	0x3be3764b	0.006941592
24	0xbc2e55ba	-0.010640556
25	0x3d72586b	0.059166353
26	0xba4748a5	-0.00076020724
27	0x39fe364e	0.00048487115
28	0x39ef2963	0.00045616468
29	0x3c2ff194	0.010738749
30	0x3c349480	0.011021733
31	0x3c2fe6ed	0.010736209
32	0x3ca10953	0.019657766
33	0xba94b4e0	-0.0011345409
34	0xb9b81fe9	-0.0003511899
35	0x3a5dbd5f	0.00084586994
36	0xbb264f03	-0.0025376684
37	0xbaadec32	-0.0013269244
38	0x3c3bab81	0.011454464
39	0xbcc00c6d	-0.023443425
40	0xb95b566c	-0.00020917662
41	0xba993f91	-0.0011691918
42	0xb96d9dfa	-0.00022660932
43	0xbc24cac8	-0.010058112
44	0xbbc6cad7	-0.006066661
45	0xbc440c3e	-0.011965809
46	0xbc976a1a	-0.01848321
47	0x39b82060	0.00035119336
48	0x3aa2daaa	0.0012424786
49	0xba9e8fa1	-0.0012097248
50	0x3ae518ea	0.0017478738
51	0xbb39039f	-0.0028230918
52	0xbc3fa92b	-0.011698048
53	0x3d75390d	0.05986886
54	0x3851198a	4.9853268e-05
55	0x3992da43	0.00028009908
56	0xba60a9bd	-0.0008570215
57	0x3c1d89ca	0.009615371
58	0x3c2abead	0.010421437
59	0x3c2df4b8	0.0106174275
60	0x3c9569d0	0.018238932
61	0x38032664	3.1268588e-05
62	0xb70dae71	-8.44487e-06
63	0xb9058046	-0.00012731654
64	0xb857c10e	-5.143979e-05
65	0xb72cb866	-1.02949325e-05
66	0x3c35ff23	0.011108193
67	0xbc9f1aa4	-0.019421883
68	0x383ee1df	4.550989e-05
69	0x3a6c5d4a	0.00090165867
70	0xba45c1d4	-0.0007543836
71	0x3c5b6ae8	0.013392188
72	0x3c46db19	0.012137198
73	0x3c493714	0.012281198
74	0x3c9d49d2	0.01920024
75	0xb9ba6214	-0.00035549758
76	0x3a86b1a0	0.0010276325
77	0xba90e209	-0.0011053692
78	0xbaa5b230	-0.0012641605
79	0xba21a71b	-0.0006166563
80	0x3c69d60e	0.014272226
81	0xbcc4d7ce	-0.024028685
82	0x3ac17c29	0.0014761734
83	0x391d82f5	0.00015021472
84	0xba7b7111	-0.00095917383
85	0x3c112933	0.00885992
86	0x3c3c204a	0.011482308
87	0x3c035f23	0.008018288
88	0x3c851c75	0.016248921
89	0xb8925a0c	-6.978595e-05
90	0xba4d6360	-0.00078349374
91	0x3a934653	0.0011236168
92	0x3aa11995	0.0012290949
93	0xbae245c2	-0.0017263221
94	0x3c3b8cba	0.011447126
95	0xbd719926	-0.058983944
96	0xba251bec	-0.0006298411
97	0x39d080ac	0.0003976872
98	0x3ad66ded	0.0016359665
99	0x3c4a214a	0.012337038
100	0x3c26b106	0.010174042
101	0x3c49b7bd	0.012311873
102	0x3c9ce813	0.01915363
103	0x377f67aa	1.5223321e-05
104	0x3b1173a9	0.0022194183
105	0xba58a95a	-0.00082649814
106	0x3ac31a3b	0.0014885137
107	0xba10c6e4	-0.0005522801
108	0x3c3ffaa4	0.011717472
109	0xbcb6d8fb	-0.022320261
110	0xbb0e042f	-0.0021669974
111	0xbb1586b2	-0.002281588
112	0xba193fa1	-0.0005845968
113	0x3c3a7c47	0.011382169
114	0x3c34c6d4	0.011033732
115	0x3c3746fd	0.0111863585
116	0x3ca0d90d	0.019634748
117	0x38610c96	5.3655902e-05
118	0xba20684c	-0.0006119057
119	0x38a004ae	7.630266e-05
120	0x3983b210	0.00025118934
121	0xba48b312	-0.0007656078
122	0x3c6b0653	0.0143447695
123	0xbcca3552	-0.024683628
124	0xba2e0038	-0.0006637606
125	0xba36ba28	-0.00069704885
126	0xb9301587	-0.00016792688
127	0x3c3c07c4	0.011476461
128	0x3c5f123a	0.013615185
129	0x3c532245	0.012886588
130	0x3ca32ec0	0.019919753
131	0xbaa1b221	-0.0012336412
132	0xba4ff82c	-0.0007933404
133	0xbab8fd5a	-0.0014113591
134	0x39e1a87d	0.00043040878
135	0xb9320185	-0.00016975969
136	0x3c4afcab	0.012389342
137	0xbcc61073	-0.024177765
138	0xba90e6cb	-0.001105511
139	0xba17cca6	-0.0005790688
140	0xb987862a	-0.00025849167
141	0xbbc72118	-0.006076943
142	0xbbf74789	-0.0075463695
143	0xbbed96d8	-0.007250648
144	0xbcb85e86	-0.02250601
145	0xba6a0a92	-0.00089279667
146	0x3ae18704	0.0017206375
147	0x399cfe57	0.00029944137
148	0xbaa59f54	-0.0012635984
149	0xb99395eb	-0.00028149722
150	0xbc27f262	-0.01025066
151	0x3d789573	0.0606894
152	0xb9ee61e1	-0.00045467823
153	0x3a18314c	0.00058056857
154	0xba3e0858	-0.0007249168
155	0x3c67aff4	0.014141072
156	0x3c23b3df	0.009991615
157	0x3c2cb2e3	0.010540697
158	0x3c9aa185	0.018875847
159	0xb9e32968	-0.00043327664
160	0xba0faa66	-0.00054804084
161	0x3942cfd8	0.0001857871
162	0xbb81ca25	-0.003960865
163	0xba17249f	-0.000576565
164	0x3c5764cc	0.01314659
165	0xbcc3e581	-0.023913147
166	0x394f4a75	0.00019768796
167	0xb9cf02f6	-0.00039484323
168	0xb843a328	-4.6643574e-05
169	0xbc1c3aa7	-0.009535468
170	0xbc2f09e1	-0.010683508
171	0xbc19d0cc	-0.00938816
172	0xbc4777cf	-0.012174561
173	0xba68a14b	-0.0008874132
174	0x3aabc068	0.0013103606
175	0x3a33def9	0.00068615336
176	0xbaaa6cb9	-0.0013002373
177	0xb7437770	-1.1650714e-05
178	0xbc141455	-0.009038051
179	0x3d4ffb53	0.05077679
180	0x39fadd13	0.0004784843
181	0x39814df0	0.00024662865
182	0x3ac9eca2	0.0015405605
183	0xbc188436	-0.009308865
184	0xbc85e29a	-0.016343404
185	0xbc981bfc	-0.018568031
186	0xbcc8b11a	-0.024498511
187	0xba2df74e	-0.00066362775
188	0xba1e814b	-0.0006046488
189	0xbab4f0de	-0.0013804694
190	0xbba4d81d	-0.0050306455
191	0xbb6217f5	-0.0034499143
192	0xbc8466c0	-0.016162276
193	0x3cf2fef5	0.029662589
194	0xba264727	-0.0006343
195	0x394cf956	0.00019547841
196	0x3a1046c4	0.0005503709
197	0x3c2f1617	0.010686419
198	0x3c27545e	0.010212986
199	0x3c0dc53a	0.0086529795
200	0x3c8d10a5	0.01721985
201	0xba05472f	-0.00050841545
202	0x39d67096	0.00040901144
203	0x39eda716	0.0004532865
204	0x3998a197	0.00029112093
205	0x3a41db67	0.0007395059
206	0x3c4e1684	0.01257861
207	0xbca33493	-0.01992253
208	0xba722c44	-0.00092381635
209	0xb895460c	-7.117921e-05
210	0x3a958004	0.001140595
211	0x3c2bfc48	0.01049716
212	0x3c2da79b	0.010599042
213	0x3bfa44a2	0.007637576
214	0x3c95cb49	0.01828541
215	0x3b265fed	0.0025386766
216	0xb79a16c5	-1.8368833e-05
217	0x39d5c35a	0.00040772074
218	0xb9f84da6	-0.000473601
219	0x3a6a67d6	0.00089418644
220	0x3c466303	0.012108567
221	0xbc99ff96	-0.01879863
222	0x398174aa	0.0002469172
223	0x3a2f1997	0.00066795334
224	0x3a18b481	0.0005825237
225	0x3c3a794c	0.0113814585
226	0x3c29cbbf	0.010363518
227	0x3c320c3f	0.0108671775
228	0x3c9eec79	0.019399868
229	0x3a0e9372	0.0005438841
230	0xb95b3a39	-0.00020907157
231	0x3a9dd8c7	0.0012042754
232	0xba1deb04	-0.0006024095
233	0x3982087a	0.00024801848
234	0x3c62e252	0.013847904
235	0xbcbe490c	-0.02322819
236	0x38d6aa4b	0.00010236035
237	0x39aea308	0.00033309334
238	0x386c80a6	5.6386598e-05
239	0x3c1deb54	0.009638626
240	0x3c5d3e6c	0.013503652
241	0x3c16890c	0.009187948
242	0x3cb9ed81	0.022696259
243	0x38fd989c	0.00012092406
244	0x3accf0bf	0.0015635713
245	0xbb3b4398	-0.0028574225
246	0xbae14b79	-0.001718863
247	0xbb362717	-0.0027794295
248	0x3c3f7e57	0.011687837
249	0xbcc51fdf	-0.024063049
250	0xbacf99b5	-0.0015838655
251	0x3a88f12f	0.0010447855
252	0x3a0dfc5b	0.0005416327
253	0x3c1be373	0.009514677
254	0x3c3d5aa0	0.011557251
255	0x3c1c97a2	0.009557636

fc1.bias f4 [128]
0	0x35ae9958	1.3008639e-06
1	0x362d4abb	2.5822508e-06
2	0xb553ccc8	-7.890162e-07
3	0xb6b781f8	-5.4689554e-06
4	0x34071e27	1.2583824e-07
5	0xb44e8ec4	-1.9237183e-07
6	0x37de83b8	2.6525799e-05
7	0xb60d5a30	-2.1063133e-06
8	0xb59c368e	-1.1638783e-06
9	0x350bbbe3	5.2054946e-07
10	0xb70e9579	-8.498661e-06
11	0x34baecbc	3.4817447e-07
12	0x36088df1	2.03482e-06
13	0x36dcd9e5	6.581877e-06
14	0xb5250050	-6.1467745e-07
15	0x34ae6231	3.248147e-07
16	0xb5878f5c	-1.0100007e-06
17	0x351c75b5	5.8285815e-07
18	0xb63e99ea	-2.8401796e-06
19	0xb4a3c150	-3.050177e-07
20	0x363516fb	2.6984478e-06
21	0x349be4e0	2.9037528e-07
22	0x35ed72f8	1.7691336e-06
23	0xb16b4a00	-3.4239065e-09
24	0xb576b52d	-9.1905787e-07
25	0x36c38083	5.8264136e-06
26	0xb6ead9a8	-6.999082e-06
27	0xb68935e0	-4.08919e-06
28	0xb65241aa	-3.133066e-06
29	0xb52cf70a	-6.443448e-07
30	0x35505e30	7.76231e-07
31	0xb66d972c	-3.5403746e-06
32	0xb5909ab9	-1.0773866e-06
33	0x3657fdff	3.2185342e-06
34	0x35540ef2	7.89979e-07
35	0xb53d1d7e	-7.0450903e-07
36	0x36484b51	2.9846162e-06
37	0xb5b697b1	-1.3604205e-06
38	0xb6b4cdf4	-5.388394e-06
39	0x364c3724	3.0430465e-06
40	0xb71e972f	-9.452734e-06
41	0x36799502	3.7190625e-06
42	0xb4c4ffa4	-3.6693848e-07
43	0x3525affe	6.172339e-07
44	0x3688b49a	4.0741406e-06
45	0x3540d926	7.1841566e-07
46	0x35800188	9.537189e-07
47	0xb5896c70	-1.0238855e-06
48	0xb53d41ba	-7.050363e-07
49	0xb4e8ed90	-4.3386217e-07
50	0xb6892542	-4.0872555e-06
51	0x35d0e4bd	1.5563779e-06
52	0xb4184dfa	-1.4184471e-07
53	0xb69cd400	-4.6738423e-06
54	0xb57d2086	-9.429717e-07
55	0x3666107c	3.4282266e-06
56	0x36832358	3.908219e-06
57	0x369b9fd0	4.6379646e-06
58	0x35cbd7fe	1.5187541e-06
59	0x364eb268	3.0800238e-06
60	0xb688b4c2	-4.074159e-06
61	0x35f4ceb8	1.823958e-06
62	0x34d4b08c	3.9616532e-07
63	0x3592bab2	1.0932183e-06
64	0x35920b65	1.0881164e-06
65	0x33808410	5.9844865e-08
66	0x36aa25ea	5.0708086e-06
67	0x35a080f2	1.1958457e-06
68	0x35f185f0	1.799488e-06
69	0x35a8d8c8	1.2580067e-06
70	0xb50ba269	-5.2017873e-07
71	0x3636c898	2.7236874e-06
72	0xb66e13b4	-3.5476232e-06
73	0xb522c40a	-6.063498e-07
74	0x33bc96b0	8.781842e-08
75	0x33af0880	8.150619e-08
76	0xb1c31400	-5.6775207e-09
77	0x351b0957	5.775559e-07
78	0xb498d414	-2.8466513e-07
79	0x34803568	2.3880716e-07
80	0x35b33c2d	1.3354053e-06
81	0x3684fe87	3.9635374e-06
82	0x24a950bb	7.342883e-17
83	0xb67a2864	-3.7276413e-06
84	0x367d594c	3.7751915e-06
85	0x36c4525d	5.8508435e-06
86	0x34a8ce88	3.144271e-07
87	0xb57d3f34	-9.434182e-07
88	0xb694a896	-4.4303697e-06
89	0x3561a50c	8.4059207e-07
90	0x36000ab8	1.9079725e-06
91	0xb5942d52	-1.1040049e-06
92	0x35c65372	1.4776435e-06
93	0x3611bfc2	2.1718301e-06
94	0x35ca4008	1.5068808e-06
95	0xb5f39428	-1.814803e-06
96	0xb614d2ec	-2.2176491e-06
97	0x36925232	4.360708e-06
98	0x364e0a20	3.0702286e-06
99	0xb606c247	-2.008064e-06
100	0x34dd92d0	4.1271278e-07
101	0xb584912e	-9.877019e-07
102	0x35e2bcf4	1.6893305e-06
103	0x351e05c8	5.8868e-07
104	0x36dc38c8	6.563121e-06
105	0xb71a3711	-9.191936e-06
106	0x36256f67	2.465176e-06
107	0x3593aa10	1.1001848e-06
108	0x3684ade4	3.95415e-06
109	0xb5cde4c5	-1.5340271e-06
110	0x370025ea	7.638222e-06
111	0x36273c20	2.4919937e-06
112	0x3653851c	3.151893e-06
113	0x3612df12	2.188554e-06
114	0x359ed6c3	1.1834421e-06
115	0xb5bf961d	-1.4274298e-06
116	0x35dce6dc	1.6458466e-06
117	0x3695bb70	4.4623666e-06
118	0x3620cfa3	2.3962718e-06
119	0x363d2542	2.8184882e-06
120	0x35d4d224	1.585639e-06
121	0xb6359c54	-2.7062097e-06
122	0xb65cfac8	-3.2928529e-06
123	0x35f313c4	1.8110663e-06
124	0x32b16b40	2.0654284e-08
125	0x3479e0f8	2.3271775e-07
126	0x369b7cbe	4.633882e-06
127	0x3716d684	8.9906425e-06

bn1.weight f4 [128]
0	0x3d4c72d0	0.04991418
1	0x3d492497	0.04910716
2	0x3c8bb8b6	0.01705585
3	0x3d4f66c1	0.050635103
4	0x3caf3536	0.021387678
5	0x3c92ad2c	0.01790484
6	0x3d421762	0.04738558
7	0x3c82d085	0.01596857
8	0x3c80f354	0.015741028
9	0x3c89b25d	0.016808683
10	0x3d5a5033	0.05329914
11	0x3c77f788	0.0151347
12	0x3d408326	0.047000073
13	0x3ce0fbef	0.027463881
14	0x3cb390c8	0.021919623
15	0x3ca89337	0.02057801
16	0x3c7221fe	0.014778612
17	0x3c8e47aa	0.017368156
18	0x3c974892	0.018467221
19	0x3ccf4632	0.025302026
20	0x3d119a0e	0.03554731
21	0x3c9acad1	0.018895539
22	0x3d89c38c	0.06726751
23	0x3c8cf4ac	0.017206512
24	0x3cae5859	0.021282362
25	0x3ccf532a	0.02530821
26	0x3ce3e6c3	0.027819997
27	0x3ce79056	0.028267067
28	0x3cdf930a	0.027291793
29	0x3c8fd013	0.017555272
30	0x3d8e6927	0.0695365
31	0x3cd56ce7	0.026052905
32	0x3ca4e88a	0.020130415
33	0x3c8aa3aa	0.016923744
34	0x3cb31a32	0.021863077
35	0x3c8aec28	0.016958311
36	0x3cd39adc	0.025830679
37	0x3ce6b1fa	0.028161038
38	0x3cd7c909	0.026340978
39	0x3cc8f736	0.024531942
40	0x3ce0d9c2	0.027447585
41	0x3cb20c68	0.021734431
42	0x3c85fbc3	0.0163554
43	0x3c98fee7	0.018676234
44	0x3d526074	0.051361516
45	0x3c8628b1	0.016376825
46	0x3c92bb54	0.01791159
47	0x3cd8133f	0.026376365
48	0x3c7f35bf	0.015576779
49	0x3d1bd225	0.038042206
50	0x3c87be68	0.016570285
51	0x3cdc18f9	0.026867377
52	0x3cb92d3c	0.022604577
53	0x3c846eff	0.016166208
54	0x3cb6d540	0.022318482
55	0x3cc3c961	0.023899736
56	0x3cf470c2	0.029838923
57	0x3d3de38a	0.046359576
58	0x3c836355	0.016038576
59	0x3d43a209	0.04776195
60	0x3d4179e1	0.047235373
61	0x3d1958d0	0.037438214
62	0x3ca70c89	0.02039172
63	0x3cb9943a	0.022653688
64	0x3c901758	0.017589256
65	0x3caa6384	0.020799406
66	0x3d41b0c8	0.047287732
67	0x3c93f816	0.018062633
68	0x3cdb7c4d	0.02679267
69	0x3c8684df	0.01642078
70	0x3c5682f4	0.013092745
71	0x3c930bf7	0.017950041
72	0x3d5ad4de	0.053425662
73	0x3c8e880d	0.017398858
74	0x3ca9db01	0.020734312
75	0x3cd9ca9b	0.026585868
76	0x3c815865	0.01578922
77	0x3c7e9de2	0.015540572
78	0x3cab99ce	0.020947363
79	0x3cb9db61	0.022687616
80	0x3ccf05dc	0.025271349
81	0x3c82f1e4	0.015984483
82	0x9689e3cb	-2.2277301e-25
83	0x3cb06506	0.021532547
84	0x3cdad931	0.026714893
85	0x3ce8a33b	0.028398147
86	0x3c76e554	0.0150693245
87	0x3ce8ec16	0.028432887
88	0x3cb4a6b7	0.022052152
89	0x3cbd4bb2	0.023107383
90	0x3c85b464	0.016321369
91	0x3c8a3dc8	0.016875163
92	0x3caa5c18	0.020795867
93	0x3c8b926e	0.017037597
94	0x3d523888	0.051323444
95	0x3c89d72e	0.016826238
96	0x3c8d1eed	0.01722666
97	0x3c87f402	0.016595844
98	0x3c8d12a7	0.017220808
99	0x3ce2cfec	0.027687036
100	0x3c916b05	0.017751226
101	0x3cdea1e1	0.0271768
102	0x3cc0b93a	0.023525823
103	0x3cdf7d04	0.027281292
104	0x3d481500	0.048848152
105	0x3d459b31	0.048243705
106	0x3c897b38	0.016782388
107	0x3d46f0ec	0.048569605
108	0x3d57b352	0.052661248
109	0x3c660b70	0.014040813
110	0x3ce3b001	0.027793886
111	0x3ca20aa3	0.019780463
112	0x3ca7103b	0.020393481
113	0x3cdfc479	0.027315365
114	0x3ce5bda2	0.028044526
115	0x3cd51de8	0.026015237
116	0x3c86f18d	0.016472602
117	0x3cc28c26	0.023748469
118	0x3c9216cc	0.017833136
119	0x3d443603	0.047903072
120	0x3d3ed1e6	0.046586893
121	0x3c8186d9	0.01581137
122	0x3ce97ca8	0.028501824
123	0x3ce2aa80	0.027669191
124	0x3cd7bd2f	0.026335327
125	0x3cdc39e0	0.026883066
126	0x3cd4bfd9	0.025970386
127	0x3d547e10	0.051878035

bn1.bias f4 [128]
0	0xbb2d01d2	-0.002639879
1	0xbc47b849	-0.012189933
2	0xbad38912	-0.0016138873
3	0xbc520f77	-0.01282107
4	0xbca171cf	-0.019707588
5	0xba99ec61	-0.001174342
6	0xbb57c831	-0.003292572
7	0xba3bb375	-0.0007160225
8	0xbb3a6472	-0.0028441218
9	0xbb46125c	-0.0030223345
10	0xbc6765ab	-0.014123361
11	0xbb08ab3f	-0.0020854024
12	0xbc43e992	-0.011957543
13	0xbc43d7f7	-0.0119533455
14	0xbc9fb344	-0.01949466
15	0xbc90a3af	-0.017656175
16	0xbadbf8bf	-0.0016782506
17	0xbaa621fb	-0.0012674922
18	0xba963fe9	-0.0011463139
19	0xbc35e386	-0.011101609
20	0xbd2bd17a	-0.04194782
21	0xbc8fa0ac	-0.017532669
22	0xbd9299ed	-0.07158265
23	0xba8da91f	-0.0010807848
24	0xbc92bb42	-0.017911557
25	0xbcece629	-0.028918343
26	0xbc278fa7	-0.0102271205
27	0xbc2956cb	-0.010335634
28	0xbc37eb79	-0.011225575
29	0xbb3aa675	-0.0028480564
30	0xbd95d43a	-0.0731587
31	0xbc2ffdc1	-0.010741652
32	0xbc9faf85	-0.019492874
33	0xbb0a1858	-0.002107164
34	0xbca6c174	-0.020355918
35	0xbb221042	-0.0024728929
36	0xbc5bf70d	-0.013425601
37	0xbc2f7bcc	-0.010710668
38	0xbc2a983d	-0.010412273
39	0xbca6cc9a	-0.020361234
40	0xbc082ad0	-0.008310989
41	0xbc98ad13	-0.018637216
42	0xbb0d390f	-0.0021548902
43	0xbb3348f0	-0.0027356707
44	0xbc4f6c3b	-0.0126600815
45	0xbade4ec9	-0.0016960736
46	0xbaf05545	-0.0018335959
47	0xbc13d3ce	-0.009022666
48	0xbab9aa65	-0.0014165161
49	0xbd3d0913	-0.046151232
50	0xbaf94421	-0.0019017496
51	0xbc2d12ba	-0.010563547
52	0xbca477f8	-0.020076737
53	0xba912cd5	-0.0011075983
54	0xbca6a4b7	-0.020342214
55	0xbca706f6	-0.020389061
56	0xbc2c62d5	-0.01052161
57	0xbb2a3a7d	-0.0025974803
58	0xbaffac5c	-0.0019506323
59	0xbb22572a	-0.0024771192
60	0xbafd25ea	-0.0019313667
61	0xbd2c80a1	-0.042114858
62	0xbc916fc3	-0.017753487
63	0xbca43306	-0.020043861
64	0xbb0b0dda	-0.0021217973
65	0xbc9b564a	-0.018962044
66	0xbb1871d7	-0.0023261213
67	0xbae0707b	-0.0017123366
68	0xbc61c1ac	-0.013779085
69	0xbb074f98	-0.0020646807
70	0xbb7b7137	-0.0038367042
71	0xbad6b278	-0.0016380092
72	0xbc5d946e	-0.013524158
73	0xbb10d869	-0.0022101647
74	0xbc928d58	-0.017889664
75	0xbc426118	-0.011863969
76	0xba0d4706	-0.00053893065
77	0xbb2ff5d2	-0.0026849401
78	0xbca36480	-0.019945383
79	0xbca201bf	-0.019776223
80	0xbc3fab66	-0.011698579
81	0xbb493593	-0.0030702099
82	0xb5dd3e5c	-1.6483932e-06
83	0xbc93fb30	-0.018064111
84	0xbc4fb103	-0.01267648
85	0xbc20ca0b	-0.009813796
86	0xba8a9b4c	-0.0010574847
87	0xbc3b3f7f	-0.011428713
88	0xbc90b6ec	-0.017665349
89	0xbca237a4	-0.019801922
90	0xbb23915d	-0.002495847
91	0xbaf7fbbb	-0.0018919626
92	0xbc9aefdf	-0.018913208
93	0xbaf69936	-0.0018813971
94	0xbc3f01c1	-0.011658133
95	0xbae7f1de	-0.0017695983
96	0xbb244a43	-0.0025068677
97	0xbb152db9	-0.0022762849
98	0xba708fe5	-0.00091767154
99	0xbc48fcc6	-0.012267297
100	0xbab4e3de	-0.001380082
101	0xbc45f13c	-0.012081441
102	0xbca39027	-0.019966198
103	0xbc1eacf4	-0.00968479
104	0xbc42dacb	-0.011892985
105	0xbb399641	-0.0028318318
106	0xba2e1998	-0.0006641387
107	0xbb03ba5b	-0.002010009
108	0xbc616389	-0.013756641
109	0xbb05276f	-0.0020317694
110	0xbc19e0c6	-0.009391969
111	0xbac49836	-0.0014998976
112	0xbca22e07	-0.019797338
113	0xbc29f1ab	-0.01037256
114	0xbc3e23dc	-0.011605229
115	0xbc3f9947	-0.011694259
116	0xbb466d4c	-0.0030277548
117	0xbc9bc809	-0.019016283
118	0xbb4c7d6c	-0.0031202687
119	0xbb1c4f5a	-0.0023851008
120	0xbb01dd16	-0.0019815615
121	0xbabef428	-0.0014568614
122	0xbbe5304e	-0.0069942838
123	0xbc32f47b	-0.0109225465
124	0xbc3dbdb7	-0.011580876
125	0xbc3183a3	-0.010834607
126	0xbc3239d3	-0.010878044
127	0xbc479366	-0.012181139

bn1.running_mean f4 [128]
0	0x381e8e58	3.7802703e-05
1	0xb8c15666	-9.21905e-05
2	0xb9ae3969	-0.0003323064
3	0xb818dbfc	-3.64445e-05
4	0xb99636f7	-0.00028651181
5	0xb982f666	-0.00024979113
6	0x37e7c258	2.7627844e-05
7	0xb9d90b3e	-0.0004139784
8	0xb9a6dde8	-0.0003182732
9	0xb9cbe40f	-0.00038889094
10	0xb8854b3c	-6.355948e-05
11	0xb9a07785	-0.00030606627
12	0xb79092d9	-1.7234519e-05
13	0x39ac36a0	0.00032847095
14	0xb9c1e3bd	-0.00036981507
15	0xb9bcfae5	-0.00036045085
16	0xb9b1df1a	-0.00033926294
17	0xb9cc649a	-0.00038984866
18	0xb99cf4da	-0.00029937067
19	0x39cfb6a2	0.0003961819
20	0x3a0fc430	0.00054842513
21	0xb98243b0	-0.00024845963
22	0xb92ec520	-0.00016667368
23	0xb9e1ee32	-0.00043092814
24	0xb9371506	-0.00017460072
25	0x39e11221	0.0004292885
26	0x39884611	0.00025992145
27	0x39d8df75	0.0004136522
28	0x39d509fe	0.0004063397
29	0xb98fc8b5	-0.00027424624
30	0xb9196bae	-0.00014631331
31	0x39ab7df8	0.00032709516
32	0xb9962bb6	-0.00028642797
33	0xb9a5980c	-0.00031584536
34	0xb9ae1fe9	-0.0003321164
35	0xb9ca83a3	-0.0003862652
36	0x39ae9d09	0.00033304867
37	0x39d96cf8	0.00041470653
38	0x39cc8010	0.00039005326
39	0xb9c55de9	-0.00037644737
40	0x3a0c2d49	0.0005347324
41	0xb977daf4	-0.00023637322
42	0xb9e3bd28	-0.00043437746
43	0xb9af2fa8	-0.00033414108
44	0x37ece19e	2.8238454e-05
45	0xb9b0fcaa	-0.00033757585
46	0xb9d1caa8	-0.00040014577
47	0x39b6c166	0.00034857838
48	0xb9d52c62	-0.00040659594
49	0x39ce9469	0.00039401956
50	0xb99157b2	-0.00027721893
51	0x399ed2b7	0.00030293103
52	0xb95f26a4	-0.00021281332
53	0xb9cfe467	-0.0003965229
54	0xb95904a4	-0.00020696461
55	0xb99b5550	-0.00029627467
56	0x39b8e9df	0.00035269462
57	0x38143808	3.5338133e-05
58	0xb9a1f604	-0.0003089161
59	0x383125d6	4.2235326e-05
60	0x38107c1a	3.4447854e-05
61	0x39d1d91e	0.0004002535
62	0xb9c6e174	-0.0003793348
63	0xb9bb6c5f	-0.00035748162
64	0xb9e3b500	-0.0004343167
65	0xb90c78a4	-0.00013396383
66	0x38315d72	4.2287116e-05
67	0xb9d043bb	-0.00039723315
68	0x39bf5745	0.0003649538
69	0xb99cd1cd	-0.00029910952
70	0xb9ba616a	-0.00035549264
71	0xb9b9e1b4	-0.00035454112
72	0xb8e54662	-0.00010932681
73	0xb993c1e6	-0.0002818249
74	0xb98e3ddb	-0.00027130437
75	0x39e7b083	0.00044191265
76	0xb9879327	-0.00025858844
77	0xb9b80674	-0.00035100023
78	0xb983d236	-0.00025142886
79	0xb9836b37	-0.00025066148
80	0x39e70898	0.00044066156
81	0xb9bd5739	-0.00036113875
82	0xa289ff48	-3.7404214e-18
83	0xb9c39c73	-0.00037309862
84	0x39a181c6	0.00030805002
85	0x3a20c9f1	0.0006133607
86	0xb9c8754b	-0.00038234363
87	0x39d5b801	0.0004076362
88	0xb98d09b8	-0.00026900857
89	0xb992457a	-0.00027899054
90	0xb9c5a770	-0.0003769952
91	0xb9ac9f82	-0.0003292524
92	0xb99eaf80	-0.00030266866
93	0xba0d276e	-0.00053845986
94	0xb75ceb76	-1.3167844e-05
95	0xb985b795	-0.00025504516
96	0xb9b0a01f	-0.00033688635
97	0xb9de4b2b	-0.00042399144
98	0xb9d07199	-0.00039757488
99	0x39d8d404	0.00041356694
100	0xb9e7d062	-0.0004421501
101	0x39d39186	0.0004035348
102	0xb992d95c	-0.00028009235
103	0x3a0d3027	0.00053858984
104	0xb8485164	-4.7759517e-05
105	0x3831dfb0	4.2408414e-05
106	0xb99eb3a2	-0.00030269945
107	0xb7590574	-1.2935478e-05
108	0xb8a5a757	-7.8989826e-05
109	0xb99fbdf1	-0.0003046836
110	0x39f309b6	0.00046355807
111	0xb9b1eb1f	-0.0003393525
112	0xb99b859b	-0.00029663448
113	0x39e888b5	0.00044352343
114	0x39b58537	0.00034622263
115	0x39e1bd66	0.00043056457
116	0xb9aa446b	-0.00032475902
117	0xb987d32e	-0.00025906548
118	0xb9cfdb47	-0.0003964549
119	0x37b84a48	2.19691e-05
120	0x389ccd34	7.476882e-05
121	0xb9ca8b27	-0.0003863212
122	0xb8c5c2cf	-9.429978e-05
123	0x39b6143a	0.00034728815
124	0x39b9e92c	0.00035459676
125	0x39d77135	0.0004109234
126	0x39ebe062	0.0004498987
127	0xb8a5976e	-7.896019e-05

bn1.running_var f4 [128]
0	0x3ad0bdbd	0.0015925687
1	0x3ac039d0	0.0014665667
2	0x3a2acc2c	0.00065154093
3	0x3ac20b7e	0.001480445
4	0x3a30a1fa	0.00067380036
5	0x3a6bf440	0.00090009347
6	0x3ac5e62d	0.0015098505
7	0x3a55ab23	0.00081508065
8	0x3a4b08fc	0.0007745174
9	0x3a595b2c	0.0008291479
10	0x3ac77424	0.0015217108
11	0x3a43c664	0.0007468222
12	0x3a8b4c97	0.0010627684
13	0x3aa466bf	0.0012542828
14	0x3a27b723	0.0006397834
15	0x3a43b226	0.0007465206
16	0x3a4e60fe	0.00078727293
17	0x3a66f345	0.00088100537
18	0x3a47995b	0.00076140993
19	0x3a937823	0.0011251013
20	0x3a818d87	0.0009884097
21	0x39f41db1	0.00046561428
22	0x3a81bba6	0.0009897843
23	0x3a7cf61f	0.0009649712
24	0x3a0b906a	0.00053239486
25	0x3a3aa3db	0.0007119753
26	0x3a9139e2	0.0011079872
27	0x3a8c89df	0.0010722241
28	0x3a952550	0.0011378918
29	0x3a581f84	0.0008244442
30	0x3a874f34	0.0010323287
31	0x3a9512a2	0.0011373351
32	0x3a4050ab	0.0007336239
33	0x3a476beb	0.00076073286
34	0x3a2f6a7b	0.0006691587
35	0x3a49d93c	0.0007699912
36	0x3a97969c	0.0011565271
37	0x3a9c9aa5	0.0011947943
38	0x3a8ef9eb	0.0010908222
39	0x3a5c7f81	0.00084113335
40	0x3aa90df8	0.001289784
41	0x3a31fa59	0.0006789319
42	0x3a6a87bd	0.0008946618
43	0x3a5ff062	0.0008542595
44	0x3acace4f	0.0015472862
45	0x3a652997	0.0008741854
46	0x3a7ae7f5	0.00095713075
47	0x3a908597	0.0011026141
48	0x3a7aae6d	0.00095627346
49	0x3a948580	0.001133129
50	0x3a2dd9de	0.0006631891
51	0x3a93cbf6	0.0011275995
52	0x3a3721a2	0.00069859077
53	0x3a79e6e1	0.0009533
54	0x3a1e8766	0.00060473976
55	0x3a37893c	0.00070013455
56	0x3abaa021	0.0014238396
57	0x3ad68ff6	0.0016369808
58	0x3a4dcd0c	0.0007850684
59	0x3ac8a69f	0.0015308446
60	0x3ab17f51	0.0013541972
61	0x3a68fae0	0.0008887481
62	0x3a2244c2	0.0006190055
63	0x3a3c3a04	0.0007180276
64	0x3a675e64	0.0008826016
65	0x3a216400	0.0006156564
66	0x3ac4b7bb	0.0015008369
67	0x3a4b1329	0.00077466905
68	0x3a954799	0.0011389136
69	0x3a46b5a4	0.0007580167
70	0x3a4dde93	0.00078532955
71	0x3a574623	0.00082120503
72	0x3acc53ff	0.0015588998
73	0x3a47a832	0.00076163106
74	0x3a1404bb	0.0005646457
75	0x3a94431b	0.0011311503
76	0x3a3ceb6b	0.0007206711
77	0x3a4b705c	0.00077605783
78	0x3a3b4a8e	0.00071445934
79	0x3a48a7ff	0.0007654428
80	0x3a9765ab	0.0011550685
81	0x3a4ffaf5	0.0007933819
82	0x00000010	2.2e-44
83	0x3a2f5134	0.00066878204
84	0x3a871c6e	0.0010308155
85	0x3acbc781	0.0015547128
86	0x3a696540	0.0008903332
87	0x3aa3a5a6	0.001248528
88	0x3a1b82d7	0.00059322774
89	0x3a52e59f	0.00080450805
90	0x3a49b4d5	0.00076944876
91	0x3a61cf51	0.00086139614
92	0x3a23f139	0.00062539015
93	0x3a79e2c0	0.00095323846
94	0x3ab8b48c	0.0014091893
95	0x3a21923b	0.00061634526
96	0x3a55118b	0.0008127919
97	0x3a6d8ff7	0.0009062285
98	0x3a7f894b	0.0009747936
99	0x3a94fdfd	0.0011367198
100	0x3a80202e	0.0009775215
101	0x3a9b6fce	0.0011858882
102	0x3a2574f2	0.00063116767
103	0x3abc029d	0.001434404
104	0x3a904ab0	0.0011008587
105	0x3ab441a0	0.0013752468
106	0x3a46ed84	0.0007588493
107	0x3ac9f0f9	0.0015406898
108	0x3ac2bbb5	0.0014856966
109	0x3a38458f	0.0007029408
110	0x3aa1aded	0.0012335159
111	0x3a517203	0.00079897064
112	0x3a254a1a	0.00063052925
113	0x3aaa21b3	0.0012980014
114	0x3a95957c	0.0011412348
115	0x3aa72949	0.0012753393
116	0x3a36b26f	0.00069693377
117	0x3a415cb0	0.0007376177
118	0x3a39b507	0.0007084165
119	0x3ae6e099	0.0017614543
120	0x3abc16ad	0.001435002
121	0x3a5bd01c	0.0008385198
122	0x39fdd051	0.00048411128
123	0x3a8b8984	0.0010645841
124	0x3a962d74	0.0011457638
125	0x3a9832d3	0.0011611826
126	0x3a9bc4b3	0.0011884182
127	0x3aaaba18	0.0013025431

fc2.weight f4 [64, 128]
0	0xbc9558fb	-0.018230906
1	0xbc6d0e20	-0.0144687
2	0xbb72d186	-0.0037051155
3	0xbca3e722	-0.020007674
4	0xbac27fef	-0.0014839153
5	0x3ab6d519	0.0013949006
6	0xbc8d89a6	-0.01727755
7	0x3b14f652	0.0022729826
8	0xbb5f20de	-0.003404669
9	0x3b941aa1	0.004519776
10	0xbc9c696f	-0.019093243
11	0xbb46222b	-0.0030232768
12	0xbc897e2d	-0.016783798
13	0x3ab89ef6	0.001408546
14	0x3a85cfe1	0.0010209047
15	0x3b18bd28	0.0023306105
16	0xbaba358f	-0.0014206636
17	0x3ad75437	0.0016428296
18	0x3b1ea724	0.002420851
19	0x3b043e0b	0.0020178582
20	0x3b8e73a7	0.004347283
21	0xbb6ae313	-0.0035840913
22	0xbcd19a74	-0.025586344
23	0x3a5b2617	0.0008359863
24	0x3af0d926	0.0018375262
25	0x3bb76e89	0.0055978936
26	0x3b5d10a3	0.003373184
27	0x3b2c06ba	0.0026249127
28	0x3a82fa45	0.0009992799
29	0x3b8ee1fe	0.0043604365
30	0xbcb87d24	-0.02252061
31	0x3b557938	0.0032573473
32	0x3b8f67ad	0.004376373
33	0x3bf4d7a4	0.0074719954
34	0x3b7c7573	0.0038522154
35	0x3b130cc6	0.0022438033
36	0x3b23feed	0.0025023774
37	0x3bebca85	0.007195773
38	0x3b328b52	0.0027243686
39	0x3bc8f0bb	0.006132213
40	0x3b1dddd0	0.002408851
41	0x3a5f1e45	0.00085112854
42	0x3b7e3bbe	0.0038792933
43	0x3a6b8059	0.0008983664
44	0xbc89b802	-0.016811375
45	0xba4d93f9	-0.0007842179
46	0x3b78edc6	0.003798352
47	0x3abaf3ab	0.0014263293
48	0x3b9c45ce	0.0047690636
49	0x3b275a3f	0.0025535969
50	0x3b17e90a	0.0023179674
51	0x3ad9cfd7	0.0016617727
52	0x3b63b2c6	0.0034744008
53	0xbaddd835	-0.0016925397
54	0x3bb65ec7	0.0055654976
55	0x3b8de1b9	0.0043298868
56	0xba59ee44	-0.00083133974
57	0xbc5bf1d0	-0.013424352
58	0xbb28e545	-0.002577142
59	0xbc9b58c6	-0.018963229
60	0xbc88eb3a	-0.016713727
61	0x3aeff38c	0.0018306836
62	0x3b7a99cd	0.0038238645
63	0x3a938fac	0.0011258028
64	0x39e67707	0.000439577
65	0x3b192564	0.0023368234
66	0xbc9349a3	-0.017979449
67	0x3a00ff1c	0.0004920827
68	0xb97ec9b1	-0.00024298464
69	0x3b113ad6	0.0022160313
70	0x3b27e8c4	0.0025620917
71	0x3a53fdf6	0.00080868544
72	0xbc8fcb3e	-0.017552968
73	0xbb6d89ef	-0.0036245545
74	0xbb943ed5	-0.0045240917
75	0x3af97e11	0.0019034763
76	0xb9d2b1ce	-0.00040186796
77	0x3b607c3c	0.0034253737
78	0x3b80185c	0.003909154
79	0x3b200b7f	0.0024420915
80	0xbb29282b	-0.0025811295
81	0x3b7f473f	0.0038952378
82	0x33f9f1d0	1.16389515e-07
83	0x3aea2267	0.0017863036
84	0x3b6130c2	0.0034361337
85	0x3ae1d45c	0.0017229426
86	0x3b63a389	0.0034734926
87	0x3b10e6b7	0.0022110173
88	0x3b92ef33	0.004484081
89	0x3b34915c	0.0027552461
90	0x3a41d26f	0.0007393723
91	0x3b6b7819	0.0035929738
92	0xb9cc30dd	-0.00038946318
93	0x3b3dd94c	0.002896863
94	0xbc87eda4	-0.016592808
95	0xb97ac027	-0.0002391344
96	0x3aef81fe	0.0018272994
97	0x3a89ff18	0.0010528294
98	0x3b29e2f1	0.002592262
99	0x3a927db4	0.0011176378
100	0x3b99bad6	0.004691462
101	0x3ae636cd	0.0017563939
102	0x3b1ca032	0.0023899195
103	0x3b55eefb	0.0032643664
104	0xbca067a0	-0.019580662
105	0xbc7fe700	-0.01561904
106	0x3b23c445	0.0024988812
107	0xbc67d344	-0.014149491
108	0xbc8ae7d2	-0.016956244
109	0x3a85083c	0.0010149549
110	0x3ab12e7f	0.0013517885
111	0x3a7613c6	0.0009387102
112	0xbb171d4a	-0.002305823
113	0xb91df649	-0.00015064435
114	0x3b2b159f	0.0026105416
115	0x3b494ee1	0.0030717182
116	0x3b2d9504	0.0026486525
117	0x3a9bc3a6	0.0011883869
118	0x3b48c4a0	0.0030634776
119	0xbc837fcf	-0.016052155
120	0xbc7ddf90	-0.015495196
121	0x3b5cfbde	0.003371946
122	0xbc841025	-0.01612098
123	0x3b70b241	0.0036727341
124	0xbad5c32b	-0.0016308775
125	0x3ad70a10	0.0016406197
126	0xbb1b5e00	-0.0023707151
127	0xbc87f3fd	-0.016595835
128	0x3a3c2f4c	0.00071786786
129	0xb991ab63	-0.00027784248
130	0xbc13d77d	-0.009023544
131	0x3a0dad3c	0.0005404537
132	0x3b7f9a5f	0.0039001924
133	0xbc0869fc	-0.00832605
134	0x3a9aefd8	0.0011820747
135	0xbbe951c1	-0.0071203415
136	0xbc292942	-0.010324778
137	0xbc1a4bdb	-0.009417499
138	0x3aa1f001	0.0012354852
139	0xbbb8e705	-0.005642774
140	0xbb52716c	-0.0032111062
141	0xbb7fbd01	-0.0039022567
142	0x3bb1f339	0.0054306057
143	0x3a128056	0.00055885816
144	0xbb8a002c	-0.0042114463
145	0xbc3f2c37	-0.0116682565
146	0xbbd6247e	-0.006535112
147	0xbc1b5d4f	-0.009482696
148	0x3c40a338	0.011757664
149	0x3b965d93	0.0045887916
150	0xbb8db21d	-0.0043242113
151	0xbb22ac02	-0.0024821763
152	0xbb1a1e49	-0.0023516587
153	0x3c382db8	0.011241369
154	0xbc17dd71	-0.009269104
155	0xbc348bc0	-0.011019647
156	0xbc4a43cd	-0.0123452665
157	0xbb469054	-0.0030298429
158	0xbbd840a1	-0.0065995012
159	0xbbc3a559	-0.0059706387
160	0x3a87da77	0.001036479
161	0xbbf286a2	-0.0074013034
162	0x3bde8a3b	0.0067913807
163	0xbbd54693	-0.0065086572
164	0xbb07255e	-0.0020621638
165	0xbc22e6a7	-0.009942687
166	0xbc33043b	-0.010926302
167	0x3bcb6cc3	0.0062080338
168	0xbc2018e6	-0.009771561
169	0x3bc37fb1	0.0059661497
170	0xbc1b09d4	-0.009462792
171	0xbc0aa8c6	-0.00846309
172	0x3a92addb	0.0011190729
173	0xbc6f7057	-0.014614186
174	0xbb11b3cb	-0.002223241
175	0xbbf8d542	-0.0075937817
176	0xbbff38a3	-0.007788734
177	0x3c733b2b	0.01484565
178	0xbc0d71d5	-0.008633097
179	0xbbb5f6b8	-0.005553093
180	0xbaa334e0	-0.0012451671
181	0xbc203969	-0.009779313
182	0x3beb9da5	0.0071904236
183	0x3b2f85ed	0.0026782707
184	0xbc0b1892	-0.008489745
185	0x3ac37ed5	0.0014915118
186	0xbc2ad803	-0.010427478
187	0x3a87cf9b	0.0010361554
188	0xbb05aa70	-0.0020395778
189	0x3c110b3b	0.008852775
190	0x3b39ad5c	0.002833209
191	0x3bb506c2	0.0055244872
192	0xbc3edb81	-0.0116490135
193	0x3c0a5e70	0.008445367
194	0x3ae1e74b	0.0017235068
195	0xbc582171	-0.013191567
196	0xbbd51293	-0.0065024584
197	0xbc15315d	-0.009106007
198	0xbba1cbeb	-0.004937639
199	0xbbd0b622	-0.006369368
200	0x39a600b9	0.00031662526
201	0xbbc8b459	-0.0061250147
202	0xbaa85a08	-0.0012844214
203	0xbb3cc96e	-0.0028806585
204	0xbc09243f	-0.008370458
205	0xbb7da460	-0.0038702711
206	0x3ab5c838	0.0013868874
207	0x3af03995	0.0018327708
208	0xbbb0a11a	-0.0053902986
209	0xbbc17a24	-0.005904453
210	0xb492766f	-2.728079e-07
211	0x3b84e16e	0.0040551936
212	0xbb56763c	-0.0032724282
213	0xbc40a389	-0.01175774
214	0xbbfd4ce6	-0.0077301143
215	0xbc094c04	-0.00837994
216	0x3bf2f179	0.0074140397
217	0xbb3ee6e1	-0.0029129314
218	0xbc0529aa	-0.008127609
219	0xbc1e492b	-0.009660999
220	0x3bc59536	0.00602975
221	0xbc2e6ac8	-0.010645576
222	0x39f5ad1b	0.00046859015
223	0xbbdcf115	-0.0067426064
224	0xbbedc648	-0.007256303
225	0xbc468668	-0.012117006
226	0xbaa7321f	-0.0012756026
227	0xbb2b2d63	-0.0026119582
228	0xbc432538	-0.011910729
229	0xbc1aa0c1	-0.009437741
230	0x3ad09906	0.0015914745
231	0xbc0a66cc	-0.00844736
232	0x3af93e75	0.0019015806
233	0x396c4ad0	0.00022534584
234	0xbbab96ab	-0.005236467
235	0x3a948631	0.0011331496
236	0x3a49ac07	0.00076931756
237	0xbb587693	-0.003302966
238	0xbbc77187	-0.0060865316
239	0xbbc50b9f	-0.0060133482
240	0x3bd920bb	0.006626216
241	0xbbd356a1	-0.006449536
242	0xbbf9c835	-0.0076227435
243	0xbc217141	-0.009853662
244	0xbc31d2e4	-0.010853503
245	0x3b6ba1a7	0.0035954507
246	0xbc076918	-0.008264802
247	0x3aaa1125	0.001297508
248	0x373ec390	1.1370415e-05
249	0xbc2acbc0	-0.010424554
250	0x3a446412	0.0007491718
251	0xbbac2cd7	-0.0052543688
252	0xbc244a7a	-0.010027522
253	0xbc2b6ac5	-0.010462468
254	0xbc239d27	-0.0099861985
255	0xba767871	-0.00094021024

fc2.bias f4 [64]
0	0xb7e6a299	-2.7493852e-05
1	0xb7a1f36d	-1.930605e-05
2	0xb79460f8	-1.768813e-05
3	0xb6034024	-1.9557856e-06
4	0x3882dc56	6.239924e-05
5	0xb776e612	-1.471631e-05
6	0x3402df00	1.218832e-07
7	0x366b50b8	3.5064713e-06
8	0xb4918a80	-2.7109127e-07
9	0xb73e6432	-1.1348211e-05
10	0xb70a62fd	-8.2484885e-06
11	0xb4e30140	-4.2282954e-07
12	0x36a4f55e	4.9161454e-06
13	0xb76ef183	-1.4242137e-05
14	0xb7c31597	-2.3255865e-05
15	0x35652334	8.5360375e-07
16	0x374452de	1.1701804e-05
17	0xb61705aa	-2.250405e-06
18	0x3765a8e0	1.3688783e-05
19	0xb745b9d4	-1.17853815e-05
20	0xb65d850c	-3.300901e-06
21	0xb742becf	-1.1607727e-05
22	0xb7155280	-8.900301e-06
23	0x35abcb40	1.2799646e-06
24	0x3737b7aa	1.0950413e-05
25	0x36d2bf47	6.2807553e-06
26	0x36671288	3.443247e-06
27	0x3782dff8	1.5601501e-05
28	0xb72dd907	-1.0362134e-05
29	0xb785859b	-1.591705e-05
30	0x36fa5902	7.4609425e-06
31	0x36178c4a	2.2582412e-06
32	0x38228e66	3.875643e-05
33	0xb751ea83	-1.2511972e-05
34	0xb6c82622	-5.9649037e-06
35	0xb604caf6	-1.9787672e-06
36	0xb829db3a	-4.049691e-05
37	0xb7598252	-1.29645505e-05
38	0xb71fef95	-9.532921e-06
39	0xb5ad2208	-1.2899409e-06
40	0x36a08131	4.7834114e-06
41	0x376ab99e	1.3990704e-05
42	0xb4965712	-2.800303e-07
43	0xb7e5c917	-2.7392567e-05
44	0xb6d15ee8	-6.239734e-06
45	0x37e3b4e7	2.7144748e-05
46	0xb70106b4	-7.69056e-06
47	0xb5dab3a0	-1.6294543e-06
48	0x37127196	8.728724e-06
49	0x372c32c4	1.0263819e-05
50	0x380b2315	3.3172855e-05
51	0xb77b539c	-1.4980233e-05
52	0x378c31e8	1.671254e-05
53	0x34db9d13	4.0906215e-07
54	0xb7fb071e	-2.9924846e-05
55	0xb6cf00a4	-6.1691553e-06
56	0x3758bced	1.2918591e-05
57	0xb6ae8384	-5.2009145e-06
58	0x35d30c4c	1.5724304e-06
59	0x370beaa2	8.339675e-06
60	0x3802a38a	3.1146723e-05
61	0x37b802a9	2.1935748e-05
62	0x36a45abf	4.898145e-06
63	0xb7afdeef	-2.0965437e-05

bn2.weight f4 [64]
0	0x3d9d6576	0.07685368
1	0x3d9bc65d	0.07606194
2	0x3da8e23f	0.08246278
3	0x3d9c6fbb	0.076384984
4	0x3da8a73a	0.08235021
5	0x3d9f80e4	0.07788256
6	0x3d44f61a	0.048086263
7	0x3d9a2477	0.07526486
8	0x3d849269	0.06473238
9	0x3d9bd6e3	0.07609346
10	0x3d5107d0	0.05103284
11	0x3da00624	0.07813671
12	0x3d9c3b8a	0.07628544
13	0x3d9ddb70	0.0770787
14	0x3d997168	0.07492334
15	0x3d411933	0.047143172
16	0x3d9c4046	0.07629447
17	0x3d3a1384	0.045428768
18	0x3d755d7f	0.059903618
19	0x3d417e7a	0.047239758
20	0x3d3c7e77	0.046019044
21	0x3d9ef77f	0.0776205
22	0x3d9f0416	0.07764451
23	0x3d9b71ac	0.075900406
24	0x3d9b956e	0.07596861
25	0x3d9b1813	0.07572951
26	0x3d38b559	0.04509482
27	0x3d4bdbc1	0.04977012
28	0x3d9faee7	0.07797032
29	0x3d9d2eaf	0.0767492
30	0x3d36f5d3	0.04466803
31	0x3d396837	0.045265403
32	0x3d981f9b	0.07427903
33	0x3dc31365	0.095251836
34	0x3d98f0ed	0.07467828
35	0x3d1a3bae	0.03765457
36	0x3d975e53	0.07391038
37	0x3d7bf8d4	0.061516598
38	0x3d9efd38	0.077631414
39	0x3d9cca69	0.07655794
40	0x3d3f1c73	0.04665799
41	0x3d9ea67a	0.07746597
42	0x3d9e5781	0.07731534
43	0x3d9ef197	0.07760923
44	0x3d9be855	0.07612673
45	0x3d9cb2c2	0.07651283
46	0x3d9d4156	0.076784775
47	0x3d9c5eae	0.07635246
48	0x3d982e07	0.07430654
49	0x3d9c6e1a	0.07638188
50	0x3d9bb12b	0.076021515
51	0x3d998b65	0.074972905
52	0x3da78745	0.081800975
53	0x3d9cd729	0.07658226
54	0x3d9cea1c	0.0766184
55	0x3d967e25	0.07348279
56	0x3da6f897	0.081528835
57	0x3da534ed	0.080667354
58	0x3da38296	0.07983892
59	0x3d9d65e1	0.076854475
60	0x3d9b056d	0.07569394
61	0x3d9c6c08	0.07637793
62	0x3d3a691e	0.045510404
63	0x3da1ac61	0.07894207

bn2.bias f4 [64]
0	0xbd7825a9	-0.06058279
1	0xbcd65b08	-0.026166454
2	0xbd89a336	-0.06720583
3	0xbccafb82	-0.024778131
4	0xbd85cb12	-0.06532873
5	0xbd81d489	-0.06339366
6	0xbd45c890	-0.048286974
7	0xbcd0c9c0	-0.025486827
8	0xbd482ec9	-0.048872743
9	0xbcc27405	-0.023736963
10	0xbcc4bbfc	-0.02401542
11	0xbd80b3da	-0.06284304
12	0xbcca9ad1	-0.024732025
13	0xbd78f9b6	-0.060785018
14	0xbcd1deea	-0.025618989
15	0xbd4a9248	-0.04945591
16	0xbcc709c9	-0.024296658
17	0xbd510ff9	-0.051040623
18	0xbd29cc5d	-0.04145466
19	0xbd40f431	-0.04710788
20	0xbd4bbcaa	-0.04974047
21	0xbccc3562	-0.024927799
22	0xbcc7dda8	-0.024397686
23	0xbccbd68b	-0.024882575
24	0xbccce5a2	-0.025011841
25	0xbccf69e1	-0.025319042
26	0xbd0b2b48	-0.033976823
27	0xbcd652d5	-0.026162544
28	0xbcc5352b	-0.024073204
29	0xbcd2d119	-0.025734471
30	0xbd480316	-0.048831068
31	0xbd35bc60	-0.0443691
32	0xbd6fa887	-0.05851033
33	0xbc9e73c0	-0.019342303
34	0xbcd3565c	-0.025798015
35	0xbc741b7c	-0.014899131
36	0xbccbfebf	-0.024901746
37	0xbd3585fa	-0.044317223
38	0xbcce350a	-0.025171775
39	0xbccaaaa6	-0.024739575
40	0xbd48e0a9	-0.049042378
41	0xbcc8b699	-0.024501132
42	0xbcc6f5dd	-0.024287159
43	0xbcbb472c	-0.022861086
44	0xbcd26376	-0.025682192
45	0xbccc47c1	-0.024936559
46	0xbd77d846	-0.06050899
47	0xbccccdb4	-0.02500043
48	0xbd739a06	-0.05947306
49	0xbcd95404	-0.02652932
50	0xbcc51e79	-0.024062382
51	0xbcdbbc1f	-0.026823102
52	0xbd86d818	-0.06584185
53	0xbcb942fc	-0.022614948
54	0xbcd38b68	-0.02582331
55	0xbd6c868f	-0.057745513
56	0xbd866ecb	-0.06564101
57	0xbd873609	-0.06602103
58	0xbd81bcb9	-0.06334824
59	0xbcc87e7b	-0.024474373
60	0xbccfeca2	-0.02538139
61	0xbcd0fc97	-0.02551107
62	0xbd519c1d	-0.05117427
63	0xbd819f10	-0.06329167

bn2.running_mean f4 [64]
0	0xbbb72708	-0.0055893697
1	0xbb38b186	-0.0028181984
2	0xbbb938e4	-0.005652534
3	0xbb456125	-0.0030117717
4	0xbbb18731	-0.0054177274
5	0xbbba6cc0	-0.0056892335
6	0x3b833176	0.004003699
7	0xbb4afee9	-0.0030974692
8	0xbbab67f7	-0.0052308994
9	0xbb479158	-0.0030451622
10	0xbaa126ba	-0.0012294867
11	0xbbb30f53	-0.0054644733
12	0xbb4fc2f6	-0.00317019
13	0xbbb49130	-0.0055104718
14	0xbb49c038	-0.0030784737
15	0x3b9252a9	0.0044654203
16	0xbb3a6936	-0.0028444058
17	0x3b867c0d	0.0041041435
18	0xbb8a5ce7	-0.0042225006
19	0x3b7f5486	0.0038960292
20	0x3b843642	0.0040347883
21	0xbb44371d	-0.0029940077
22	0xbb574137	-0.0032845268
23	0xbb32e261	-0.0027295577
24	0xbb366be6	-0.0027835309
25	0xbb3caa8e	-0.0028788182
26	0x3b91ecc9	0.004453276
27	0xbae59b4d	-0.0017517597
28	0xbb429ad0	-0.0029694326
29	0xbb404713	-0.0029339239
30	0x3b8a92aa	0.0042289095
31	0x3b8a8ed6	0.004228453
32	0xbbb5c3a3	-0.0055470034
33	0xba63e9b2	-0.0008694186
34	0xbb25a749	-0.0025276712
35	0x3b8adeb6	0.004237975
36	0xbb3392c2	-0.0027400707
37	0xbba3a0e9	-0.004993547
38	0xbb43c2fe	-0.0029870863
39	0xbb37b3c4	-0.0028030733
40	0x3b79e6c8	0.003813194
41	0xbb575d45	-0.003286199
42	0xbb47e3a0	-0.0030500665
43	0xbb22e61e	-0.0024856399
44	0xbb4bc36a	-0.0031091818
45	0xbb3dbfe0	-0.0028953478
46	0xbbc287f9	-0.0059366194
47	0xbb3f9ba3	-0.0029237054
48	0xbbbe05f5	-0.00579905
49	0xbb3f2fab	-0.00291727
50	0xbb39efcd	-0.0028371692
51	0xbb366452	-0.0027830792
52	0xbbb3053a	-0.0054632695
53	0xbb4b485d	-0.0031018474
54	0xbb28ecbc	-0.002577587
55	0xbbb2d59b	-0.0054575927
56	0xbbbcd9b3	-0.0057632565
57	0xbbb9c561	-0.0056692814
58	0xbbb324a9	-0.0054670167
59	0xbb378f9a	-0.0028009177
60	0xbb41d61d	-0.0029577084
61	0xbb443097	-0.0029936188
62	0x3b86d57f	0.004114806
63	0xbbbda71e	-0.005787744

bn2.running_var f4 [64]
0	0x380bd767	3.334079e-05
1	0x373f7a22	1.1412923e-05
2	0x381139f4	3.4624667e-05
3	0x373f54d3	1.1404237e-05
4	0x3813aa4e	3.520614e-05
5	0x38158549	3.56485e-05
6	0x372ca424	1.0290216e-05
7	0x374c7fb5	1.2189082e-05
8	0x37fb6c92	2.9972089e-05
9	0x37511870	1.2463061e-05
10	0x37c7ba66	2.3809447e-05
11	0x38175d0e	3.608787e-05
12	0x375cfac7	1.31714105e-05
13	0x380eac37	3.4015826e-05
14	0x3750a526	1.2436218e-05
15	0x37367dd1	1.0877339e-05
16	0x3741279c	1.1512919e-05
17	0x37194923	9.136539e-06
18	0x37e1c390	2.6913156e-05
19	0x372a48d6	1.0149748e-05
20	0x372d61dd	1.0334389e-05
21	0x376238da	1.34838865e-05
22	0x376cc934	1.4113542e-05
23	0x3752b7af	1.2559743e-05
24	0x37480c84	1.1923843e-05
25	0x374ec5cf	1.2324613e-05
26	0x371f7de7	9.506452e-06
27	0x37c256dd	2.3167051e-05
28	0x37467bcb	1.18305425e-05
29	0x37780168	1.4782279e-05
30	0x372ad6b5	1.018278e-05
31	0x372c6998	1.0276584e-05
32	0x3807e96c	3.24039e-05
33	0x3729cda2	1.0121063e-05
34	0x3744ff97	1.17420195e-05
35	0x3705b8cd	7.970445e-06
36	0x37311251	1.0554287e-05
37	0x37ef4fc6	2.8528168e-05
38	0x3756ad2b	1.2795713e-05
39	0x374f10e1	1.2342091e-05
40	0x37173185	9.011831e-06
41	0x377444f0	1.4559584e-05
42	0x375abb87	1.3037475e-05
43	0x374e2e96	1.22894035e-05
44	0x374dab01	1.2258767e-05
45	0x375141eb	1.24727185e-05
46	0x38233f07	3.8920927e-05
47	0x375941a7	1.2949494e-05
48	0x3814deb3	3.5493355e-05
49	0x374d0efa	1.2222439e-05
50	0x373cc882	1.1252358e-05
51	0x374446d7	1.1699004e-05
52	0x38092a7f	3.2702923e-05
53	0x374b986a	1.213523e-05
54	0x373aa3d3	1.1124607e-05
55	0x38090857	3.2671112e-05
56	0x38168e8e	3.589555e-05
57	0x38186860	3.633683e-05
58	0x3812fd42	3.5044977e-05
59	0x3747c3c7	1.1906907e-05
60	0x37535a12	1.2597551e-05
61	0x373abd4d	1.1130539e-05
62	0x370d1f64	8.411564e-06
63	0x381cc2d5	3.737475e-05

fc3.weight f4 [32, 64]
0	0xbcaf60e3	-0.021408504
1	0xbc61b4d0	-0.013776019
2	0xbc86ccd8	-0.016455099
3	0xbc6ab849	-0.014326164
4	0xbcad7c28	-0.021177366
5	0xbc8d92ba	-0.017281879
6	0xbbcc4115	-0.0062333443
7	0xbc5b7685	-0.0133949565
8	0xbcaa4b24	-0.020787783
9	0xbc787aa0	-0.015165955
10	0xbc7a3320	-0.015270978
11	0xbc9ff086	-0.01952387
12	0xbc840e6d	-0.01612016
13	0xbc8695ff	-0.016428946
14	0xbc70d521	-0.014699251
15	0xbb2fd141	-0.0026827606
16	0xbc5c64e7	-0.013451791
17	0xbb86ac75	-0.004109914
18	0xbcb69b44	-0.022290833
19	0xbbbbfecd	-0.0057371617
20	0xbbddddab	-0.0067708096
21	0xbc7bca06	-0.01536799
22	0xbc5daabe	-0.013529478
23	0xbc6f1875	-0.014593233
24	0xbc74c0bc	-0.01493853
25	0xbc7aa995	-0.015299221
26	0xb932c55a	-0.00017048922
27	0xbc1e8077	-0.009674183
28	0xbc6627ca	-0.014047572
29	0xbc742bb8	-0.0149030015
30	0xbbb0cd76	-0.0053955866
31	0x3a39ac2a	0.00070828444
32	0xbc8fa58b	-0.017534992
33	0x3cc438e2	0.023952905
34	0xbc5a7cc8	-0.013335414
35	0x3bea0220	0.0071413666
36	0xbc8764e8	-0.016527608
37	0xbc58d10f	-0.013233437
38	0xbc80315a	-0.015648533
39	0xbc74e83d	-0.014947948
40	0xbb9efb39	-0.0048517254
41	0xbc82bdc9	-0.015959637
42	0xbc7125ab	-0.014718453
43	0xbc5e8f0c	-0.01358391
44	0xbc621d14	-0.013800878
45	0xbc7c8025	-0.015411411
46	0xbc89dfe1	-0.016830387
47	0xbc5e1c60	-0.01355657
48	0xbca3a4df	-0.019976078
49	0xbc794410	-0.015213981
50	0xbc7283fc	-0.014801975
51	0xbc481b62	-0.01221356
52	0xbc8b17e3	-0.016979164
53	0xbc7bbfb6	-0.015365532
54	0xbc4da400	-0.012551308
55	0xbca3627a	-0.019944418
56	0xbc9c8841	-0.01910794
57	0xbc94964f	-0.018138079
58	0xbc8f4beb	-0.017492255
59	0xbc82fff5	-0.01599119
60	0xbc806158	-0.015671417
61	0xbc6eee24	-0.014583144
62	0xbb5a76f3	-0.003333506
63	0xbc8e476c	-0.017368041
64	0x3c1e2c2e	0.009654088
65	0x3c60486f	0.0136891445
66	0x3c403260	0.01173076
67	0x3c41cfa7	0.011829293
68	0x3c775cb9	0.01509779
69	0x3c12a250	0.008949831
70	0xbc86bc18	-0.016447112
71	0x3c6f9250	0.014622286
72	0x3c196c0d	0.00936414
73	0x3c81513a	0.015785802
74	0x3b886b19	0.0041631577
75	0x3c09fd2c	0.008422177
76	0x3c83c124	0.016083308
77	0x3bfd3791	0.0077275713
78	0x3c629d21	0.013831408
79	0xbc978500	-0.018496037
80	0x3c5970b9	0.013271504
81	0xbc8967e7	-0.016773177
82	0x3c0f3781	0.0087412605
83	0xbc95b1fb	-0.018273344
84	0xbc818a5d	-0.015813047
85	0x3c37e9b7	0.011225156
86	0x3c6d612d	0.014488501
87	0x3c83de85	0.016097317
88	0x3c677ef0	0.014129385
89	0x3c6bef33	0.014400291
90	0xbc78e9e7	-0.015192485
91	0x3bb36bef	0.005475513
92	0x3c7cbe65	0.015426253
93	0x3c64d262	0.013966175
94	0xbc8b2edb	-0.016990116
95	0xbc86213c	-0.01637327
96	0x3c178205	0.009247308
97	0xbc4750d0	-0.012165263
98	0x3c7dbb5c	0.0154865645
99	0xbc146026	-0.009056127
100	0x3c408b1c	0.011751916
101	0x3c5f02f4	0.013611544
102	0x3c764ffe	0.01503372
103	0x3c87d100	0.016579151
104	0xbc85a13b	-0.016312232
105	0x3c86b821	0.016445221
106	0x3c88a417	0.016679807
107	0x3c7c5075	0.015400042
108	0x3c51f165	0.012813901
109	0x3c81484d	0.015781546
110	0x3c2103e0	0.009827584
111	0x3c5d793f	0.013517677
112	0x3bd59d89	0.006519024
113	0x3c43b2dc	0.011944499
114	0x3c5d6cda	0.013514722
115	0x3c70f38b	0.014706503
116	0x3c61c6c8	0.013780303
117	0x3c59ed17	0.0133011555
118	0x3c6903e8	0.014222123
119	0x3c180d15	0.009280463
120	0x3bcc733f	0.0062393243
121	0x3c220e79	0.009891146
122	0x3c3dc259	0.011581981
123	0x3c61ea77	0.013788811
124	0x3c41b3ce	0.011822654
125	0x3c6f2e40	0.014598429
126	0xbc6027b3	-0.01368134
127	0x3c31b943	0.0108473925
128	0xbca375e1	-0.01995367
129	0xbc6ffa88	-0.014647134
130	0xbc90780d	-0.01763537
131	0xbc553502	-0.013013126
132	0xbc95b1bf	-0.018273233
133	0xbc9c7c31	-0.019102188
134	0xbbd5a5c9	-0.0065200073
135	0xbc406046	-0.011741703
136	0xbcb579be	-0.022152778
137	0xbc6b665b	-0.014367665
138	0xbc7cb7ce	-0.015424682
139	0xbc999559	-0.018747972
140	0xbc748a05	-0.014925485
141	0xbc9e6660	-0.019335926
142	0xbc76c9cd	-0.0150627615
143	0xbc0072b3	-0.007839846
144	0xbc6286af	-0.013826056
145	0xbbd1e7fc	-0.0064058285
146	0xbc86c3ae	-0.01645073
147	0x37a8acb8	2.0107589e-05
148	0xbbbc15e8	-0.005739916
149	0xbc5a4edd	-0.0133244665
150	0xbc82f03c	-0.015983693
151	0xbc51a977	-0.012796751
152	0xbc789b44	-0.015173737
153	0xbc838e02	-0.016058926
154	0xbb7e6a64	-0.0038820738
155	0xbc714e2d	-0.014728111
156	0xbc47f0a5	-0.01220337
157	0xbc89c840	-0.01681912
158	0xbbdf7ebf	-0.0068205292
159	0xbba93908	-0.0051642694
160	0xbc7c2e14	-0.015391845
161	0x3cb34c51	0.021886976
162	0xbc6112e9	-0.013737419
163	0x3c5f85ce	0.013642741
164	0xbc76488f	-0.015031948
165	0xbc926166	-0.017868709
166	0xbc566ec7	-0.013087935
167	0xbc81e646	-0.015856873
168	0xbbbc79bd	-0.005751817
169	0xbc78fc86	-0.015196925
170	0xbc5b3174	-0.01337849
171	0xbc59358f	-0.013257398
172	0xbc7fc189	-0.015610107
173	0xbc6cabc4	-0.014445249
174	0xbc9cbe6a	-0.019133765
175	0xbc61561b	-0.013753439
176	0xbc8cb291	-0.01717499
177	0xbc726a20	-0.01479581
178	0xbc6d6c03	-0.014491084
179	0xbc3b0b1a	-0.011416221
180	0xbc8a39c1	-0.016873242
181	0xbc63a4e7	-0.013894296
182	0xbc4a521b	-0.012348677
183	0xbcae117c	-0.021248572
184	0xbc97ab7d	-0.01851439
185	0xbc9ae6f5	-0.018908957
186	0xbc79872b	-0.01522998
187	0xbc6d2a43	-0.014475408
188	0xbc70d53e	-0.014699278
189	0xbc6134c1	-0.013745488
190	0xbbb22831	-0.00543692
191	0xbc6fa8b5	-0.014627625
192	0x3c34653b	0.011010463
193	0x3c706ec9	0.014674851
194	0x3c1d9f56	0.009620508
195	0x3c470c4e	0.01214893
196	0x3c0b26ff	0.008493184
197	0x3c06c7ff	0.008226394
198	0xbc857bd2	-0.016294394
199	0x3c8aa7ea	0.01692577
200	0x3c36a8a4	0.0111486055
201	0x3c7d3bcb	0.01545615
202	0x3bb54404	0.0055317897
203	0x3c0b94f7	0.008519403
204	0x3c63dec4	0.013908092
205	0x3c34d3f1	0.011036859
206	0x3c74d6ca	0.014943788
207	0xbc9be482	-0.01902986
208	0x3c38acab	0.011271636
209	0xbc9c899a	-0.019108582
210	0x3af2c70b	0.0018522454
211	0xbc944cc8	-0.018103018
212	0xbc8083ab	-0.015687784
213	0x3c76ea4f	0.015070512
214	0x3c6f7105	0.014614348
215	0x3c60e84a	0.013727257
216	0x3c880bf7	0.016607268
217	0x3c7137fb	0.014722819
218	0xbca48734	-0.020084001
219	0x3c013df5	0.007888307
220	0x3c509935	0.01273184
221	0x3c4efc99	0.012633466
222	0xbc67078d	-0.014100921
223	0xbc492c88	-0.0122786835
224	0x3c0515a2	0.008122833
225	0xbc3a00ba	-0.011352712
226	0x3c7cd414	0.015431423
227	0xbc223f74	-0.009902824
228	0x3c4f44ec	0.01265071
229	0x3c3e8c8a	0.011630187
230	0x3c8314f3	0.0160012
231	0x3c17fda6	0.009276783
232	0xbc8170fa	-0.015800942
233	0x3c5dfe80	0.013549447
234	0x3c5a74bb	0.013333495
235	0x3c45ff2b	0.012084763
236	0x3c7787a9	0.0151080275
237	0x3c679809	0.014135369
238	0x3c827e33	0.015929317
239	0x3c275d31	0.01021509
240	0x3c1abe14	0.009444732
241	0x3c859627	0.01630695
242	0x3c88921c	0.016671233
243	0x3c4b2e52	0.01240118
244	0x3be1d940	0.0068923533
245	0x3c475a05	0.012167458
246	0x3c6bf45e	0.014401523
247	0x3c3c2ec2	0.011485757
248	0x3c48c432	0.012253808
249	0x3c41c37f	0.011826395
250	0x3c609f3f	0.013709842
251	0x3c84b184	0.016197927
252	0x3c6bd46d	0.014393908
253	0x3c32a5ab	0.010903756
254	0xbc4941c1	-0.012283743
255	0x3c1b97e1	0.00949666

fc3.bias f4 [32]
0	0xb5836340	-9.789146e-07
1	0x350d8fe8	5.2736004e-07
2	0x358552ac	9.933333e-07
3	0xb6d8730e	-6.4506958e-06
4	0xb430fc60	-1.6483091e-07
5	0xb74169a8	-1.1528296e-05
6	0xb6fa2a57	-7.4555096e-06
7	0xb751be4f	-1.250168e-05
8	0xb56538c0	-8.539173e-07
9	0xb5d559e8	-1.5895903e-06
10	0xb5893463	-1.0222542e-06
11	0xb50ca6b8	-5.239667e-07
12	0xb63ddaac	-2.8290478e-06
13	0xb63d921a	-2.8248237e-06
14	0xb690665f	-4.303452e-06
15	0x3707582e	8.067158e-06
16	0xb6b16188	-5.286365e-06
17	0xb75cde84	-1.316483e-05
18	0x36dad933	6.5221916e-06
19	0x3635f8f3	2.711601e-06
20	0x36875d4a	4.034174e-06
21	0x3683c7fb	3.927385e-06
22	0x36951614	4.4431163e-06
23	0xb731eb58	-1.0604817e-05
24	0x34413590	1.7994012e-07
25	0xb69cdc9d	-4.674845e-06
26	0x36f53cbe	7.3086403e-06
27	0x37035432	7.827812e-06
28	0xb61e1186	-2.3554035e-06
29	0x369a0d15	4.5910806e-06
30	0x36d19046	6.245481e-06
31	0x378077f8	1.5314654e-05

bn3.weight f4 [32]
0	0x3e8940c8	0.26807237
1	0x3e6f06cd	0.23342438
2	0x3e8a1aa5	0.26973453
3	0x3e7158a3	0.23568968
4	0x3e7033bb	0.23457234
5	0x3e6ff9c5	0.23435123
6	0x3e701b77	0.23447977
7	0x3e8a37af	0.26995608
8	0x3e711591	0.23543383
9	0x3e731d70	0.23741698
10	0x3e6f658d	0.23378582
11	0x3e719b4d	0.23594399
12	0x3e7195b1	0.23592259
13	0x3e71a6cc	0.23598784
14	0x3e8821ba	0.2658823
15	0x3e8abfb5	0.27099386
16	0x3e7106d0	0.23537755
17	0x3e70a07f	0.23498724
18	0x3e8940bf	0.2680721
19	0x3e898ffe	0.2686767
20	0x3e89751b	0.26847157
21	0x3e870b6d	0.26375905
22	0x3e6fc1e6	0.2341381
23	0x3e71d2b8	0.23615539
24	0x3e714d49	0.23564638
25	0x3e88e659	0.2673824
26	0x3e8c29c7	0.27375624
27	0x3e89ae47	0.26890776
28	0x3e717613	0.23580198
29	0x3e8b175b	0.27166256
30	0x3e88efa9	0.26745346
31	0x3e8448e8	0.25836873

bn3.bias f4 [32]
0	0x3d70b71f	0.058768388
1	0x3e1cc76d	0.1531045
2	0x3d77d5a5	0.06050648
3	0x3e1bc2ac	0.1521098
4	0x3e1c8076	0.15283379
5	0x3e1bf826	0.1523138
6	0x3e1bcb34	0.15214235
7	0x3d6c5c80	0.057705402
8	0x3e1eee80	0.15520668
9	0x3e1d7619	0.15377082
10	0x3e1aa13a	0.15100566
11	0x3e1cb842	0.15304664
12	0x3e1bb877	0.15207087
13	0x3e1e76f7	0.15475069
14	0x3d624373	0.055240106
15	0x3d6d907d	0.057999123
16	0x3e1d20ae	0.15344498
17	0x3e1dd088	0.1541158
18	0x3d72948a	0.05922369
19	0x3d6add4a	0.057339944
20	0x3d74bae0	0.05974853
21	0x3d6920e9	0.05691615
22	0x3e1bdbfa	0.15220633
23	0x3e1cafee	0.15301487
24	0x3e1b4ae7	0.15165292
25	0x3d6e17fc	0.058128342
26	0x3d6e64e4	0.058201686
27	0x3d6ddd7f	0.058072563
28	0x3e1d6b09	0.15372862
29	0x3d7a276d	0.061072756
30	0x3d74e632	0.059789844
31	0x3d62f314	0.0554076
