models/best_model.pth (torch, 50658 bytes, 13 tensors)

fc1.weight f4 [128, 4]
000000 f6 e6 9d 3e 44 0f a6 3e 9d 74 f6 3e 43 34 8f bd
       0.30840272 0.32433522 0.48135844 -0.0699239
000010 ba 5b d2 bd be db ae 3e d8 da 1e 3f 18 09 4f bd
       -0.10271402 0.34152025 0.6205268 -0.05054578
000020 19 08 43 be 90 e0 a8 be 3a f5 62 3d 95 36 a8 be
       -0.19046058 -0.32983828 0.055409648 -0.32854143
000030 fe c9 b9 3e 69 ad ba 3e ca f2 a7 be 97 57 83 be
       0.3628692 0.36460426 -0.3280242 -0.25652763
000040 a1 3b 41 be 7b 37 5f 3e ed 25 1b bf 3e e0 25 be
       -0.18870403 0.21798508 -0.60604745 -0.16198823
000050 8d ec 88 be 3e 6c 08 be c3 61 77 3e ed b9 0d be
       -0.26742974 -0.13322541 0.24158387 -0.13840456
000060 fc 95 92 3d 9c 4f dd be 94 03 39 bf 58 70 5f bd
       0.071575135 -0.432248 -0.72271085 -0.0545505
000070 04 dc b7 3e 48 d9 8b bc 4d 08 b4 3e 3d c5 8a be
       0.35910046 -0.017071381 0.35162583 -0.27103606
000080 02 3a 92 be a8 75 b9 3e 2c a0 17 bf 71 19 56 3c
       -0.2855988 0.36222577 -0.5922878 0.013067589
000090 4a 64 86 bd 39 d8 5f be 5a 3a 0e be 00 0b 73 be
       -0.06562097 -0.21859826 -0.13889447 -0.23734665
0000a0 66 a1 91 3e 3e b3 be be 6b 35 2b bf 1c b5 e1 3e
       0.2844345 -0.37246126 -0.66878384 0.44083488
0000b0 90 4e 63 3e f3 30 a4 bd e0 5a 00 3f ce d2 4d bc
       0.22197938 -0.08017149 0.50138664 -0.012562467
0000c0 71 3b 70 3e 58 22 5f bd f7 67 39 bf 30 b1 ac 3e
       0.23460175 -0.054476112 -0.7242426 0.33728933
0000d0 a3 19 9e 3d 41 74 aa be 7e 84 0a bf 6c 66 8c 3e
       0.077197336 -0.3329182 -0.5410842 0.27421892
0000e0 13 24 ac bd 82 f6 86 3e d9 21 34 3e 7a 60 f9 3c
       -0.08405318 0.26359946 0.17591037 0.030441511
0000f0 fb 22 ae be 65 cd 86 be 6e 3b 1e bf 9c 1a ea 3e
       -0.34011063 -0.2632858 -0.6180943 0.45723426
000100 8e e4 9a 3e 0b a1 a6 3e dd ef 74 3c d5 41 b4 3e
       0.30252498 0.3254474 0.014949766 0.35206476
000110 65 a4 34 be 12 98 96 bd a8 b8 9d be be 3d ad 3e
       -0.17640837 -0.07353224 -0.30804944 0.33836168
000120 d4 d8 ac 3e da 7e a6 3e c5 e1 17 bf ea 5d 01 3e
       0.33759177 0.32518655 -0.5932887 0.12633482
000130 42 8d 2d be b8 9f aa bd cd 20 b7 3e 19 53 c6 3c
       -0.16948417 -0.08331245 0.35767213 0.024209546
000140 ac 67 49 3e 0f 2a d2 be 70 d5 0e 3f 81 f7 6e be
       0.19668454 -0.41047713 0.5579443 -0.23336603
000150 02 1d f4 bd 1c 20 b3 3e 3f 08 12 bf f2 73 38 be
       -0.11919595 0.34985435 -0.5704383 -0.1801298
000160 55 16 bc be 7d 53 98 be 46 93 0a bf c6 a4 9b 3e
       -0.36735788 -0.29751197 -0.5413097 0.3039915
000170 61 69 20 bd 2b 06 c6 3c 3e 7a f0 3e 96 9a ea 3e
       -0.039162997 0.024172863 0.46968263 0.45821065
000180 e0 5e bb 3e 0a 1f 2f 3d c6 fd 0b be 67 42 00 3e
       0.3659582 0.04275421 -0.13671026 0.1252533
000190 35 e7 c1 be 5f df 2e 3e e4 64 12 3e 16 b6 6a be
       -0.3787171 0.17077397 0.14296299 -0.22921023
0001a0 1d 2e 32 3e 45 83 72 be 5f 2e 19 3f 40 d7 e0 be
       0.17400403 -0.23682888 0.5983638 -0.43914223
0001b0 8b ee 9b 3e 89 5d 38 be 68 79 fb be 25 cf 46 be
       0.3045543 -0.18004431 -0.49116063 -0.19414957
0001c0 e5 3b a5 be d8 6b 22 3e 3a 70 16 be f9 a8 56 3e
       -0.32272258 0.15861452 -0.14691249 0.20962895
0001d0 08 7b 83 3e f7 52 5a be 79 cd fe 3e 63 bf e9 3c
       0.25679803 -0.21320711 0.49766138 0.028533643
0001e0 a7 2a b2 3e e3 bc 31 3e f4 8e ba 3e b3 62 3f 3d
       0.34798166 0.17357211 0.3643719 0.046724986
0001f0 4c e3 e2 be d0 eb 67 3e 5d e7 10 bf d9 76 a0 3d
       -0.4431404 0.22648549 -0.5660303 0.078351684
000200 a4 06 74 3e 5b f6 2f be 07 46 05 3f aa 1a 71 3d
       0.23830658 -0.17183821 0.5205998 0.05886332
000210 7a e4 57 3e d6 a4 4d be 1d a6 21 bf 61 44 55 be
       0.2108325 -0.20082411 -0.63144094 -0.20826866
000220 0f 28 0c be 8c c7 a9 be 9e 8f 93 3d 1e ba 61 be
       -0.13687156 -0.33160055 0.07205127 -0.22043654
000230 88 3f 86 bd 87 e8 0b be 6a ef 63 bd 7a b2 87 be
       -0.065550864 -0.13662921 -0.055648245 -0.26503354
000240 c9 85 a7 be 38 91 04 be b3 1a af 3e bb 50 7e 3e
       -0.32719257 -0.12946022 0.34200057 0.24835484
000250 d7 9e 4e be 58 d7 83 3e ff 43 98 be 6b 38 6d 3e
       -0.2017778 0.25750232 -0.29739377 0.23166053
000260 50 69 8a 3d 65 68 4c be 9e f3 a2 be e6 b4 94 3d
       0.06758368 -0.19961698 -0.3182649 0.07261066
000270 6c f1 ec bb ce cd 3c bd 38 6b ec 3e 4e ba 6a be
       -0.007230928 -0.04609471 0.4617555 -0.22922632
000280 27 b7 99 3b 6e ba 72 3e 02 a1 8c be 9e 4c 87 3e
       0.004691023 0.2370393 -0.2746659 0.26425642
000290 35 59 fd 3d 5f c8 88 3d 07 0a c9 be 95 22 76 be
       0.123705305 0.06678843 -0.39265463 -0.2403663
0002a0 a7 dd 78 3e 97 53 fc bd 26 34 1c 3f bc 87 d2 bd
       0.24303304 -0.12320631 0.6101707 -0.102797955
0002b0 9f 62 32 3e 80 ec f7 3d 99 b2 dd be 03 89 bc 3e
       0.17420433 0.12105656 -0.43300322 0.36823282
0002c0 4c 58 8e be 5d 46 51 3e 4a cf fa 3e 2f 02 6e 3e
       -0.2780174 0.20436998 0.48986274 0.2324302
0002d0 9c f1 3f 3e 1d 31 74 3c e5 dd 72 3e 40 59 5f be
       0.1874451 0.014904288 0.23717459 -0.2181139
0002e0 9f c2 63 be 9c f3 73 be 01 3d 33 3e df 64 fa 3e
       -0.22242211 -0.23823398 0.1750374 0.48905084
0002f0 5d 40 13 3d 5d e5 80 be 2c 02 15 3f b5 9f a6 3e
       0.035950053 -0.2517499 0.5820644 0.32543722
000300 27 df 0b bd b1 9c 18 3e 7b 1e 0f 3f 35 70 a9 3d
       -0.03414836 0.14903523 0.55905885 0.08273355
000310 07 16 d3 3d d4 10 34 3e ec 3f fa be 5a 66 cb 3e
       0.10306936 0.17584544 -0.48876894 0.39726526
000320 60 76 d3 bd cb 0e 8e 3e b2 54 2b bf ab af 82 bc
       -0.103253126 0.2774566 -0.6692611 -0.015952906
000330 20 8e 35 3e c6 b4 d9 bd f8 03 09 3f 9f a1 1d 3e
       0.17729998 -0.10630183 0.5352168 0.15393685
000340 fb a9 a3 3e eb 70 16 bb 0e be a2 3c b8 08 07 3e
       0.31965622 -0.0022955488 0.019866016 0.1318692
000350 bc bd 47 be b1 f1 20 be 94 17 2b bf 98 4f bd 3d
       -0.19505972 -0.15717198 -0.6683285 0.09243697
000360 98 86 fc 3d 36 76 8a 3e 17 35 0d 3f 00 40 e4 3d
       0.12330359 0.27043313 0.55159134 0.111450195
000370 2d eb 44 bd 77 5c 44 3d f1 eb 79 be 6d 35 86 bd
       -0.048075844 0.047939744 -0.24406411 -0.06553159
000380 50 c3 a8 be 30 36 bd be 46 0f 9a be 70 27 20 3e
       -0.32961512 -0.36955404 -0.30089778 0.15640044
000390 a8 24 da bd 91 c2 d6 be 1f 83 ed bd 08 e7 71 3e
       -0.10651523 -0.41945317 -0.11597275 0.23623288
0003a0 66 85 b1 be 6d 93 44 3e ba 35 0e bf e3 d3 73 3e
       -0.34672087 0.19196863 -0.5555073 0.23811297
0003b0 2c 46 9a 3e c0 ab 56 3c 97 5b 24 3e 86 bb a6 3d
       0.30131662 0.013102472 0.16050564 0.08141236
0003c0 d2 f6 55 3e 49 84 82 3e 14 9e b3 be 22 c9 02 bd
       0.20894936 0.2549155 -0.35081542 -0.031930096
0003d0 e7 70 16 3d e3 da cc be aa a7 fe be eb 29 2b be
       0.036728766 -0.40010747 -0.49737293 -0.16715209
0003e0 6f 7a 80 be c6 34 78 3e 68 90 a9 3d 77 86 95 bd
       -0.2509341 0.24238881 0.082794964 -0.07301038
0003f0 15 ab 92 be ea ae 4b 3e 52 ae 4b 3e 51 95 09 3f
       -0.2864615 0.19890943 0.19890717 0.53743464

fc1.bias f4 [128]
000000 18 8d 4a bd 71 dc 95 3e 92 54 1e 3e 66 0b a2 3e
       -0.049450964 0.29269746 0.15461949 0.3164932
000010 00 e8 ba 3e d7 a2 35 3e 9c f9 05 be bd f7 c2 3d
       0.36505127 0.177379 -0.130835 0.095199086
000020 5e 82 89 bd e7 96 c8 be 32 fb cd 3d 10 9d 7f be
       -0.06714319 -0.3917763 0.10057677 -0.24962258
000030 ad b4 ae bd c6 63 4a be 82 9c be 3e f2 d0 72 be
       -0.08530555 -0.19764623 0.3722878 -0.23712519
000040 e7 03 83 3d 91 cb 40 3e 5b 4a 9b bd d0 29 f2 bd
       0.06397229 0.18827654 -0.075825416 -0.11824381
000050 e2 5f a0 b8 35 9b 02 bb 79 49 86 be 52 d4 d5 bd
       -7.647254e-05 -0.0019928936 -0.2622793 -0.104408875
000060 45 09 d0 3c 04 f7 b4 3e af 52 64 3e 86 7b 4a bd
       0.025395045 0.35344708 0.22297166 -0.049434207
000070 86 eb 14 3e a6 34 7c 3e 49 64 f7 bd 54 eb 79 be
       0.1454297 0.24629459 -0.12079675 -0.24406177
000080 33 1c 96 be 24 84 a1 3e b9 d5 49 3d 3d 38 e7 bd
       -0.2931839 0.31546128 0.049276087 -0.112900235
000090 3b 29 95 bd 53 ac 96 bd f8 7d a7 be 51 c8 98 3d
       -0.07283255 -0.07357087 -0.32713294 0.07460082
0000a0 19 39 4a 3d 36 08 b1 be de ff 7c 3e ba 66 2f 3e
       0.04937086 -0.34576577 0.2470698 0.17129031
0000b0 5e df 64 3d 69 31 cc be 7a 7d a3 3e 8f b9 9c bd
       0.055877082 -0.39881447 0.3193167 -0.0765258
0000c0 0c b3 8f 3e fe fc 89 bd 5e 1e bc bd f6 eb a3 3d
       0.2806629 -0.067377076 -0.091854796 0.0800399
0000d0 d2 36 68 be 9d 7a 14 be 76 7d 9c bd 04 cd d1 3e
       -0.22677162 -0.14499898 -0.07641117 0.40976727
0000e0 22 1c b0 3e 7e 38 8e 3e 0d f6 8a be 84 f0 b9 be
       0.34396464 0.27777475 -0.27140847 -0.3631631
0000f0 c7 75 93 3e c2 d3 80 bd a3 57 a3 3e 96 1b 14 3d
       0.28800794 -0.062903896 0.319028 0.03615912
000100 83 9c 46 bd 6c e7 9d bd 44 3a e1 bc 0e dc 37 3e
       -0.048489105 -0.07710156 -0.027493604 0.17955038
000110 a1 12 b0 be 52 d6 ca 3e 7a 00 5d be 38 ae 65 3e
       -0.34389213 0.39616638 -0.21582213 0.2242974
000120 cd 60 0d bb db bc 2d 3e 77 05 77 3e 6b 73 cf 3e
       -0.002157259 0.16966574 0.24123178 0.40517744
000130 81 2a c2 3e 11 2e 43 3e 2b de 9f be 8e f8 cd be
       0.37923053 0.19060542 -0.31224188 -0.40228695
000140 23 02 36 be c4 1f 31 be f4 d8 a8 be 0e a0 94 bd
       -0.17774253 -0.17297274 -0.32978022 -0.072570905
000150 11 7f 69 3e 61 61 87 3e f5 5b b2 be fe dc cf 3e
       0.22802378 0.26441482 -0.34835783 0.4059829
000160 06 43 10 be 92 c2 9c be 01 3b 77 be c3 a9 d5 3d
       -0.14088067 -0.30617195 -0.24143602 0.1043277
000170 4d f4 89 be 41 f2 89 3e 7f 3f 99 3e 2f e9 c2 3d
       -0.269442 0.26942638 0.29931256 0.095171325
000180 66 15 70 3e 82 67 b6 be 6b 35 9f 3e 59 c5 ab 3e
       0.23445663 -0.35625845 0.31095442 0.33549002
000190 0c d5 6f 3e 3c a6 d7 be f5 5b 71 3e 95 6a 00 be
       0.23421115 -0.42119014 0.23570235 -0.12540658
0001a0 5a 23 d4 3e 1e 43 80 bd bc fc a6 be c7 83 cb 3e
       0.4143322 -0.062628016 -0.32614696 0.39748976
0001b0 6d 9d 48 3e 7a b9 b6 be e9 7d 45 be 16 40 d3 3e
       0.19591303 -0.35688382 -0.19286312 0.4125983
0001c0 eb 4f 23 3e 9a 70 8e 3d 23 76 a2 be 10 40 ca 3e
       0.15948455 0.06955071 -0.31730756 0.39502
0001d0 62 c2 1c 3e 1a c2 39 3e a5 3d fe 3d 3a 35 1d bd
       0.15308526 0.1814045 0.124141015 -0.03838084
0001e0 24 9f eb be 71 36 4a be 05 3f 88 3e a3 97 77 be
       -0.46019852 -0.1974733 0.2661058 -0.24178939
0001f0 43 06 bc be 8f 60 0b 3e a7 80 f5 3d de 48 0e 3c
       -0.36723527 0.13611053 0.11987429 0.008684365

norm1.weight f4 [128]
000000 64 06 55 3f 8d 10 7b 3f 3b e5 58 3f fe c8 51 3f
       0.83212876 0.9807213 0.8472478 0.81947315
000010 c2 2a 6d 3f 6e a1 60 3f 64 c0 89 3f 13 ef 52 3f
       0.9264337 0.8774632 1.0761838 0.8239605
000020 83 fc 65 3f 1e ee 4e 3f 3b 28 54 3f 9f b3 5d 3f
       0.8983843 0.8083209 0.82873887 0.86602205
000030 0f 83 63 3f d9 32 5f 3f d8 db 58 3f 90 12 76 3f
       0.88871855 0.8718696 0.84710455 0.96122074
000040 52 69 41 3f 86 76 58 3f b6 85 5c 3f 68 db 96 3f
       0.7555133 0.8455585 0.86141527 1.1785707
000050 42 40 51 3f 70 79 75 3f 07 c5 68 3f fd 21 83 3f
       0.81738675 0.95888424 0.9092564 1.0244747
000060 b5 57 5e 3f a5 b0 53 3f 6c 49 62 3f 41 c5 5c 3f
       0.8685258 0.82691413 0.8839328 0.86238486
000070 af 94 52 3f c6 4f 4c 3f 18 17 4e 3f 9b aa 64 3f
       0.82258123 0.79809225 0.8050399 0.89322823
000080 fd 94 58 3f e8 4c 55 3f f0 da 6d 3f ce ce 58 3f
       0.8460234 0.83320475 0.929122 0.8469056
000090 e8 71 87 3f 39 fb 47 3f fc 3f 5f 3f e1 2b 7a 3f
       1.0581636 0.7811771 0.8720701 0.97723204
0000a0 03 33 56 3f 9a 4c 5e 3f 8b ac 55 3f 15 f5 4c 3f
       0.8367159 0.86835635 0.83466405 0.80061466
0000b0 9b fc 8b 3f 3a 1e 59 3f 0e 85 68 3f 59 dd 79 3f
       1.0936464 0.8481175 0.90828025 0.97603375
0000c0 06 86 8f 3f 3f 71 62 3f be 9b 86 3f 1f 0a 55 3f
       1.1212776 0.8845405 1.0516279 0.8321857
0000d0 83 2f 4e 3f f1 0a 85 3f d3 0f 66 3f d9 78 5f 3f
       0.8054125 1.0393964 0.89867896 0.87293774
0000e0 cb 0a 42 3f b2 ad 72 3f f7 aa 68 3f 22 64 50 3f
       0.7579772 0.9479629 0.9088587 0.8140279
0000f0 43 4f 58 3f e9 a1 6e 3f 26 3c 56 3f 6a 68 6f 3f
       0.84495944 0.93215805 0.8368553 0.935187
000100 be 5f 41 3f a6 13 83 3f 03 b7 61 3f f1 8a 44 3f
       0.75536716 1.0240371 0.8816988 0.7677451
000110 55 9e 5c 3f 61 f7 69 3f 90 84 44 3f f2 dd 8a 3f
       0.86179096 0.91393095 0.76764774 1.0848982
000120 32 bc 5b 3f 33 22 63 3f 79 c6 6c 3f e5 8d 5e 3f
       0.8583404 0.8872406 0.92490345 0.86935264
000130 fb 83 6b 3f 56 d2 47 3f 93 dc 89 3f b6 08 5e 3f
       0.9199826 0.7805532 1.0770439 0.8673204
000140 25 68 77 3f dc 22 74 3f cf c9 42 3f 5f c0 4d 3f
       0.96643287 0.9536569 0.76089185 0.8037166
000150 9a e2 52 3f f7 1f 5c 3f b3 04 65 3f fe c8 60 3f
       0.82377017 0.85986274 0.89460295 0.8780669
000160 f2 ba 6f 3f 4b 14 80 3f 91 61 7c 3f 5c 97 67 3f
       0.9364463 1.0006193 0.98586375 0.9046533
000170 f4 98 5d 3f 8c 6a 5f 3f 74 76 8d 3f 77 9e 5c 3f
       0.8656151 0.8727195 1.1051774 0.861793
000180 d0 52 3f 3f 2a f1 5e 3f 8e 9d 8d 3f 9d 85 51 3f
       0.74735737 0.8708674 1.1063707 0.818445
000190 86 73 52 3f 47 87 63 3f 67 cb 5f 3f b3 a8 6a 3f
       0.82207525 0.8887829 0.8741974 0.91663665
0001a0 72 96 5f 3f 56 43 76 3f 80 85 59 3f 77 56 78 3f
       0.87338936 0.96196496 0.8496933 0.97006935
0001b0 a1 1e 50 3f 5c c0 71 3f 34 7f 58 3f 2a 21 5e 3f
       0.81296736 0.9443414 0.84569097 0.86769354
0001c0 d1 17 64 3f 1a d4 45 3f 39 85 80 3f f7 d8 51 3f
       0.8909884 0.77276766 1.0040656 0.8197169
0001d0 23 7c 70 3f 8b b5 3b 3f 18 51 90 3f 92 a5 54 3f
       0.9393942 0.7332389 1.1274748 0.8306514
0001e0 f8 d5 4d 3f bc a2 49 3f e1 c3 60 3f a6 69 42 3f
       0.80404615 0.7876394 0.8779889 0.75942457
0001f0 82 32 58 3f 69 4d 4a 3f 8b 66 5c 3f d1 42 76 3f
       0.8445207 0.7902437 0.8609397 0.96195704

norm1.bias f4 [128]
000000 d9 98 13 bd cc 35 ed 3d 0a 49 8a 3d 63 3e 1f bd
       -0.03603444 0.115825266 0.06752212 -0.038877856
000010 fc e1 91 3d bf a4 51 3c 69 2f 34 3e 64 71 ee bc
       0.07123181 0.012795626 0.1759621 -0.029106803
000020 5a 70 c7 3b 4d 91 b0 3b 65 4c f8 bc 62 20 1b 3c
       0.0060863914 0.005388415 -0.030309865 0.00946817
000030 1f 23 8d 3b d6 88 51 bc 9b 9e c0 bc fd e3 af 3d
       0.0043071653 -0.012788972 -0.023513129 0.08588407
000040 00 37 c3 bd a6 16 28 bd d6 ab 2d bc 16 7f d6 3e
       -0.09531975 -0.041037224 -0.010600051 0.41893834
000050 fb 75 62 bd ca 04 01 3e 73 44 33 3e 1c 12 26 3e
       -0.055288296 0.12599483 0.1750658 0.16217846
000060 af 2a 24 3c 44 28 45 bd 6c 7e 90 ba 21 63 9b bc
       0.010019942 -0.048134103 -0.0011024005 -0.018968167
000070 55 a0 c1 ba 0e dc ac bd 66 e0 7b bd b5 6c 2e 3d
       -0.0014772514 -0.084404096 -0.0614933 0.04258414
000080 10 90 6a bc 5a d2 38 bd 34 6e ab 3d 57 d5 19 3c
       -0.014316574 -0.045122482 0.08370629 0.009389243
000090 a3 4d 5d 3e 1d 1d a5 bd ca a7 b8 39 a0 f5 09 3d
       0.21611647 -0.080621935 0.00035220227 0.033681512
0000a0 cc f6 06 bd d1 93 0d bc a3 56 34 bd 5c 9b 83 bd
       -0.032950208 -0.008641199 -0.044027936 -0.06426117
0000b0 0a 24 8a 3e 3c 4f 8e bc ed 43 df 3d af c8 69 3d
       0.2698062 -0.017371766 0.10901628 0.057076152
0000c0 67 12 15 3e 46 00 58 3c 49 5b 7f 3e 7c 3a f4 bc
       0.14557801 0.013183659 0.24937166 -0.029813044
0000d0 f9 8a 73 bd 58 63 74 3e 0f 94 01 3d 67 34 c3 3b
       -0.059458707 0.23866022 0.03163534 0.0059571746
0000e0 2f bd b0 bd 58 8d 44 3e 5c 27 8a 3d 07 82 1e bd
       -0.08629834 0.19194543 0.067457885 -0.038698222
0000f0 8a 7c 96 bc 21 da d2 3c af bc 0a bc 06 a4 53 3d
       -0.018369932 0.025738778 -0.008467837 0.051670097
000100 05 9f d2 bd 7f 1f de 3d 20 74 ba 3c c0 5a 97 bd
       -0.10284237 0.10845851 0.02276045 -0.07390356
000110 18 e0 9f bb 12 e1 43 3d e9 80 c5 bc 1d b6 13 3e
       -0.004879009 0.047822066 -0.02410932 0.1442494
000120 c0 d4 a7 3c 6f 0f f5 3c 05 73 df 3c 3a 98 6b 3c
       0.02048719 0.029914586 0.027276525 0.014379555
000130 5f 81 54 3d 37 e9 94 bd 8e 61 56 3e 95 35 b7 3b
       0.05188119 -0.07271045 0.20935652 0.0055911043
000140 80 0b 0d 3e 1e d8 b9 3d 19 07 bd bd cf 9c 84 bd
       0.13773918 0.09074424 -0.092298694 -0.06475221
000150 f7 89 52 bd 69 48 13 3d a2 7f fe 3b 5f 3f c4 3c
       -0.051401105 0.035957728 0.00776668 0.023955999
000160 4f 13 74 3c 06 57 bf 3d 8d 58 36 3d 3b c0 22 3c
       0.014897182 0.0934277 0.044518042 0.009933527
000170 ad 74 11 3c e7 3c d6 bc 6a 1d 07 3e ab b5 99 3d
       0.008877915 -0.026152087 0.13194814 0.075053535
000180 9f 6a dc bd e7 e7 77 3c 15 a0 29 3e 66 63 a2 bc
       -0.10762524 0.015130973 0.16564973 -0.019822787
000190 31 f0 4a 3d 97 53 3f 3d 52 ba 1a 3b a1 7a ec 3c
       0.04954547 0.046710577 0.002360959 0.028867068
0001a0 bf d3 86 3d 10 72 df 3d 87 46 09 3c b4 98 94 3d
       0.06583356 0.109104276 0.008378631 0.07255688
0001b0 90 a7 6d bd 52 c6 c8 3d 0c 26 c6 bc 68 fa 90 bc
       -0.05802113 0.098034516 -0.024188064 -0.017697528
0001c0 3b c0 0f 3c 52 7a ae bd d4 38 f4 3d 7b 66 da 3a
       0.008773859 -0.085194245 0.119249016 0.0016662622
0001d0 66 1f 3a 3c 4c c5 10 be 37 0b 5b 3e fe 48 08 bd
       0.011360025 -0.14137763 0.21390997 -0.033272736
0001e0 d7 dc 95 bd ce 8e 92 bd 11 43 6f 3d 4c 4c d2 bd
       -0.073175125 -0.07156144 0.05841357 -0.10268459
0001f0 ec f2 67 bc c4 26 88 bd 1f f4 1f bc 3b 19 1b 3e
       -0.014157038 -0.06648019 -0.009762793 0.15146343

fc2.weight f4 [64, 128]
000000 07 d6 67 bd 74 4d 14 be 86 c5 be 3d 78 fb e5 bc
       -0.056600597 -0.14482671 0.09315018 -0.028074011
000010 30 73 42 3e d6 bd 83 bd 0b 44 12 3e 30 cb 8b bd
       0.18989253 -0.06432693 0.14283769 -0.06825864
000020 b7 de cb 3d 5f 23 b9 3d cc fe 1c bd 7d e3 80 bd
       0.09954589 0.090399496 -0.03832893 -0.0629339
000030 ef 4b b5 3d ba 42 b8 3d da 49 73 bb 6f 4d f1 3d
       0.08852374 0.08997102 -0.0037122876 0.117823474
000040 18 6a 64 bc 58 11 f2 3d 07 9a 11 3c 25 94 aa be
       -0.01394131 0.11819714 0.008886821 -0.3331615
000050 6c 38 0c bc 24 3e 0b 3e 63 50 77 3d 14 ee ad bd
       -0.008558374 0.13597924 0.060379397 -0.084926754
000060 20 a3 bb 3c 0e 93 76 3d 54 88 6b bd 1f 26 c1 bc
       0.022904932 0.060198836 -0.05750306 -0.023577748
000070 68 53 45 3d 10 9c 30 3c cd d0 5a 38 b1 e6 75 3e
       0.048175246 0.010779396 5.216971e-05 0.24013783
000080 a6 e4 b4 bc e5 b5 af bc 35 ff ab bc ba 3d 04 3c
       -0.022081684 -0.021449039 -0.020995716 0.008071357
000090 cb f0 4e be a6 ad 06 3e 5a 40 8e bd 5b 5a 9a bd
       -0.20209043 0.13152179 -0.06945868 -0.07536765
0000a0 48 cf cc 3d bb 3f d5 bc 75 bc 39 3d ca f8 20 3d
       0.10000473 -0.026031366 0.045345742 0.039299764
0000b0 03 e9 01 be af e5 6b bd 05 98 a6 3d 4a 0a 5c bc
       -0.12686543 -0.05759209 0.08134464 -0.0134301875
0000c0 e2 4f 4e be c0 8f c9 bc c5 f3 5f 3e 9a 5d 33 3d
       -0.2014766 -0.024604678 0.21870334 0.043790437
0000d0 40 8a 49 3d 25 21 08 3e 7d 09 77 ba e6 ab 18 3e
       0.04920411 0.13293894 -0.0009423716 0.14909324
0000e0 6f ec 82 3d 8f 3b c8 3d c1 8a 6a 3e 5b 98 80 bc
       0.063927524 0.09776985 0.22904493 -0.015697649
0000f0 b7 61 bc 3d f1 79 0c 3e 95 cd 8e bc 5f fd 74 ba
       0.09198325 0.13718392 -0.017432014 -0.00093456166
000100 b9 09 4d bd e9 d6 27 be 47 0e 4c bd 71 67 82 3c
       -0.0500581 -0.16390575 -0.049818303 0.015918465
000110 3e d7 9f bd 4a 2d c2 3d 31 a1 c3 3d 43 8d 42 3e
       -0.07804726 0.094812945 0.09552229 0.189992
000120 48 1b 33 3d 6e 53 16 3d b0 df 43 3c a0 78 f2 3c
       0.04372719 0.03670066 0.011955187 0.029598534
000130 8b da ed 3d bf 74 ef bc 10 cb 64 be 24 65 51 bd
       0.116139494 -0.029230474 -0.22343087 -0.051121846
000140 5d 3e 3e 3e 75 df 12 be 08 86 5b bc 4d 2e 35 3c
       0.18578477 -0.14343055 -0.013398655 0.011058402
000150 d1 ac db bc 77 85 b8 ba 0b a6 09 bd 7e 40 99 3d
       -0.026815804 -0.0014077862 -0.033605617 0.07483004
000160 ba e8 7a bd 3b 16 f8 3d 1a 00 a9 3d 7e 17 fe 3c
       -0.0612571 0.12113615 0.082519725 0.031017061
000170 47 a3 92 3d ab 1e ee 3d da 89 82 3e 76 a8 0b 3e
       0.07160049 0.11626943 0.25495797 0.13638481
000180 9e 8d 0e 3c b8 1e 17 3e ee 09 79 3e 49 0b b6 3d
       0.008700756 0.14757812 0.24320194 0.08888871
000190 39 6d e9 3d 66 c9 a0 3d b6 dc ba 3c 5e e6 bf 3d
       0.11397786 0.07850914 0.022810321 0.09370111
0001a0 f1 c7 36 3d 99 c6 ca 3c 8b 78 92 3d 4e ac 49 3c
       0.044624273 0.024752902 0.07151898 0.012309147
0001b0 0f b7 b6 3d a8 98 c1 3b 66 bf a6 3d 02 9b 9c 3c
       0.089216344 0.0059080906 0.08141975 0.019116882
0001c0 72 c5 70 bd f9 bb 40 bd dc bd 00 3e be d6 16 3d
       -0.05878205 -0.047054265 0.12572426 0.036825888
0001d0 44 08 3f bd 49 9b 85 3c 98 1d 1b be dd 4a 62 bd
       -0.046638742 0.016309397 -0.15148008 -0.055247176
0001e0 09 06 d1 3c a4 ca d8 3c 85 5d 22 3e fa 12 39 bd
       0.025515573 0.026463814 0.15855987 -0.045184113
0001f0 17 48 86 3c 64 f0 00 3e 2a c1 83 3d e0 3b d1 bb
       0.016391797 0.12591702 0.064333275 -0.0063853115
000200 f3 01 fe 3a 3d a8 b8 bd ae 8f 87 bc ad ed be bc
       0.0019379243 -0.09016464 -0.016548004 -0.023306692
000210 b5 b8 84 3d 2b d6 50 bd 0c d8 b3 3d 32 d7 b2 bd
       0.064805426 -0.050985496 0.08781442 -0.087324515
000220 34 54 67 3d 0e 24 09 bc c0 5b a7 bc 04 92 09 3d
       0.056476787 -0.0083704125 -0.020429492 0.033586517
000230 f8 54 b1 3b 38 0a cd 3d 2b e8 41 bd 76 29 d6 3d
       0.0054117404 0.10011715 -0.047340553 0.10457127
000240 b7 03 3c bd 85 cd b7 3d 50 7e 79 3d e4 d1 a3 be
       -0.04590198 0.089747466 0.060911477 -0.3199607
000250 c1 56 5b bd a0 27 fc 3d b6 42 af 3d c1 e1 53 be
       -0.05354953 0.12312245 0.08557646 -0.20691587
000260 f9 ff 89 3d 2b 3e 6c bd d2 2a 2e 3c 33 da 4f 3d
       0.06738276 -0.057676475 0.010630326 0.0507452
000270 89 ab a6 3d be 6a 3c 3c cb 80 4f 3d a0 ad 7d 3d
       0.081381865 0.011500059 0.050659936 0.06193316
000280 16 d0 08 3d 7c ed 43 3d 1f ba 4f bc 24 34 40 3c
       0.03340157 0.047833905 -0.012678652 0.011731181
000290 a6 de 07 be 12 c2 2b 3c 1d 95 46 bc e9 ce 36 bd
       -0.13268527 0.010483282 -0.012120512 -0.04463092
0002a0 3a b7 1c bd f4 f4 fe 3c e3 3d c6 bc 33 b9 b9 bc
       -0.038260676 0.031122662 -0.024199432 -0.022671318
0002b0 38 33 39 be 2a 66 96 bc 15 b3 cd bc d4 83 70 bd
       -0.18085945 -0.018359262 -0.025109807 -0.05871947
0002c0 15 17 61 be 41 e4 92 3d a8 6e 24 3d 44 6c 1e 3d
       -0.21981461 0.07172442 0.040144593 0.03867747
0002d0 a9 6d 08 bd 19 a3 51 3d cc 4c 95 bd bd 5a d4 3d
       -0.033307705 0.051180933 -0.072900385 0.103688695
0002e0 43 00 34 3d ad 32 33 3d f9 71 5b 3d 30 03 91 bc
       0.043945562 0.0437495 0.05357549 -0.017701715
0002f0 14 94 1c 3d 9b 5e 82 3d 35 9b 68 bd 0d ce 6e bd
       0.038227156 0.06365701 -0.056788642 -0.058301974
000300 84 5b 34 3d 77 e5 1b be 8e b3 e6 3b af 34 cd bc
       0.04403259 -0.15224253 0.0070404476 -0.025049536
000310 6d 5b 87 bc ab 65 d8 3d e1 5b 3f 3b 54 39 9f 3d
       -0.016523087 0.105662666 0.0029199051 0.07774606
000320 74 d5 a3 bc 28 63 88 bc 10 5d cc 3d ac a3 c4 3d
       -0.019999243 -0.016648844 0.09978688 0.096015304
000330 ee 5f ac 3b 61 fc 36 bc 15 f3 2c be 75 4c 60 3c
       0.005260459 -0.01116857 -0.16889603 0.013690104
000340 0d e4 43 bd 80 97 26 be f3 d2 94 38 da b7 2f 3d
       -0.047824908 -0.1626873 7.096482e-05 0.042899944
000350 e8 18 7f 3c 38 8d 97 bc a5 82 03 be f4 5f 2d 3d
       0.015569903 -0.018499956 -0.12842806 0.042327836
000360 cb 93 50 bd 8c fb 64 3d 86 4d 4d 3d 96 09 bc bd
       -0.050922196 0.055903956 0.05012276 -0.09181516
000370 95 a5 02 bd a5 ae 04 3d f2 2e 00 bd c4 34 c5 3d
       -0.031896193 0.032393117 -0.03129477 0.09629205
000380 94 03 0d bd a8 6e 21 3d 90 b2 fd 3c 32 9c 0e 3c
       -0.03442724 0.03941217 0.030968934 0.008704232
000390 04 dc 87 bc 23 55 4c bd 0e f8 c9 3d 8a 07 44 3d
       -0.016584404 -0.04988588 0.09861766 0.047858752
0003a0 d4 4d 64 bd 9d 9c 9f bd 40 63 18 3d 69 3f fa 3d
       -0.055738285 -0.077935435 0.037204027 0.12219126
0003b0 a5 64 4c 3d de 39 1e 3d 52 55 55 bc 65 c0 24 be
       0.04990067 0.038629405 -0.01302083 -0.16089018
0003c0 b2 7c 36 bd 48 4e 4d bd 8b 50 66 3d e3 e6 5c 3d
       -0.044552512 -0.050123483 0.056229156 0.05393113
0003d0 a7 e8 06 be d9 84 56 bc 91 86 92 be 1a f9 f3 3c
       -0.13174687 -0.013093197 -0.2861829 0.029781867
0003e0 ed 6a 86 3d 56 ab bc 3d a5 e7 2c 3d 44 98 f8 3c
       0.06563363 0.09212367 0.0422131 0.030346043
0003f0 47 a1 a0 bc 76 9a 22 3d 61 fb 24 3d d8 eb ae bb
       -0.019608153 0.039698087 0.040278796 -0.0053381734

fc2.bias f4 [64]
000000 5e 09 91 ba 96 ad 6d bc dc a0 bb bd d6 e3 09 bd
       -0.0011065414 -0.014506718 -0.09161541 -0.033664547
000010 f0 66 32 3c df ff 58 bd 82 d6 2a 3b 8a fd 39 bd
       0.0108888 -0.052978393 0.0026067798 -0.04540781
000020 48 b2 a5 bd 70 17 12 bd e6 af ae bd 1f 7d ab 3d
       -0.08090645 -0.035666883 -0.08529644 0.08373474
000030 eb 62 14 be 6f 3f d8 bc d0 69 95 3b c9 8c fb 3c
       -0.14490859 -0.026397435 0.004559733 0.03070678
000040 cf bb 62 3b 35 6f 1b 3d 88 43 03 be 10 5d 1d be
       0.0034596806 0.037947852 -0.1281873 -0.15367532
000050 5d 18 6e bb 8a 18 4e bd ce 17 8b bd 2c 9d ba 3c
       -0.003633044 -0.05031637 -0.0679165 0.022780024
000060 44 e2 8d bc be 33 95 bd 3d df 74 bd 09 2a d1 bb
       -0.017319806 -0.0728526 -0.05978321 -0.006383185
000070 16 d2 34 bd 61 e9 c4 bd 22 59 02 3c f4 2a a8 bc
       -0.044145666 -0.09614826 0.007955821 -0.020528294
000080 fe 9b 67 bd 07 1c 33 bd ce 02 e8 bd 18 aa bd 3b
       -0.05654525 -0.0437279 -0.1132866 0.005788099
000090 c1 9f 97 3d ab 97 88 3d 9a 57 5d 3d 4d e5 5f bc
       0.074035175 0.06669553 0.05403862 -0.013665509
0000a0 6d a3 53 bd 84 8f 8b bd c3 ff b6 bc 2f bd 82 bc
       -0.051669527 -0.06814483 -0.022338754 -0.01595935
0000b0 90 7d e6 bd 35 24 b3 bc 7d 15 47 3d 56 2c 8d 3c
       -0.11254418 -0.02186785 0.048604477 0.017233055
0000c0 37 f8 ea bd b7 bb c0 bc e6 26 00 bd ef f3 d8 bd
       -0.114731245 -0.02352701 -0.031287096 -0.10593402
0000d0 61 33 01 be 28 49 d8 bc 1f b4 dd bd 52 05 9f bd
       -0.12617256 -0.026402071 -0.10825371 -0.07764687
0000e0 a9 12 68 3b 14 42 9d bc 90 bc 0e 3d 48 8f 77 bd
       0.0035411513 -0.019196548 0.034847796 -0.060439378
0000f0 71 b6 fb 3c f6 9c 2b 3d 42 a9 05 bc 3f d4 06 be
       0.030726643 0.041897736 -0.00815803 -0.13166903

norm2.weight f4 [64]
000000 00 c9 6c 3f 0e ab 64 3f 28 03 59 3f ea 52 62 3f
       0.924942 0.8932351 0.8477044 0.88407767
000010 cf a1 5e 3f 66 08 59 3f 35 51 67 3f 17 a0 66 3f
       0.8696565 0.8477844 0.9035829 0.9008803
000020 54 79 58 3f a5 c5 52 3f 5f c8 50 3f 75 5e 61 3f
       0.8456013 0.8233283 0.8155574 0.88034755
000030 9d 28 4d 3f 48 af 4e 3f c8 39 62 3f 61 35 54 3f
       0.80140096 0.8073621 0.8836942 0.8289395
000040 40 2d 83 3f 33 84 55 3f b6 9b 58 3f c3 f4 50 3f
       1.0248184 0.83404845 0.84612596 0.81623477
000050 b6 9e 63 3f eb e7 61 3f a4 ea 60 3f 05 a8 6e 3f
       0.8891405 0.88244504 0.87858033 0.9322513
000060 55 28 54 3f 70 7d 58 3f d8 db 4b 3f db 55 52 3f
       0.8287404 0.845664 0.7963233 0.82162255
000070 ad e5 5a 3f 93 90 60 3f 43 35 5c 3f 4a e3 61 3f
       0.8550671 0.877206 0.8601877 0.8823744
000080 ca 2f 71 3f 86 a7 6c 3f e0 92 62 3f 59 7e 6c 3f
       0.94213545 0.9244312 0.88505363 0.9238029
000090 d0 11 75 3f c3 95 63 3f 6c ea 58 3f 6f ae 65 3f
       0.95730305 0.88900393 0.847327 0.8971929
0000a0 19 16 56 3f 42 90 5f 3f 2a d3 57 3f 40 64 58 3f
       0.8362747 0.87329495 0.84306586 0.8452797
0000b0 cf 3d 51 3f 69 78 5a 3f 02 8c 70 3f da 63 67 3f
       0.8173494 0.8533998 0.93963635 0.90386736
0000c0 cf 93 59 3f 56 ff 72 3f d4 e4 5b 3f 59 fc 4e 3f
       0.84991163 0.9492086 0.8589604 0.808538
0000d0 94 78 56 3f 4d 36 57 3f 6c 8a 67 3f af 64 5f 3f
       0.8377774 0.8406723 0.9044559 0.87263006
0000e0 ee d5 5d 3f b2 d0 5c 3f 87 22 64 3f 5c 5d 72 3f
       0.86654556 0.86255944 0.89115185 0.94673705
0000f0 12 7b 71 3f 5c 6f 64 3f c2 8f 59 3f 83 48 60 3f
       0.94328415 0.8923242 0.8498498 0.87610644

norm2.bias f4 [64]
000000 3c e9 8f 3d b8 c9 c4 3c d3 68 1a bd 1c 9c 48 3d
       0.07026908 0.024021968 -0.037697624 0.048977003
000010 ce 76 45 3c 9e f8 16 3d 38 7d e2 3b 46 ab dc 3c
       0.012052251 0.036858194 0.0069119 0.026937138
000020 57 db 42 3d f6 aa 10 bd 3e 6d 4f bd a6 d6 d7 3c
       0.04757246 -0.03531929 -0.05064129 0.02634747
000030 bf ff 8a bd 0c 8c 56 bd 17 d4 62 3d 09 72 e2 3c
       -0.06787061 -0.052379653 0.055378046 0.027642267
000040 e7 5a 08 3e d2 d7 1d 3d 87 d7 ef bc 4f a5 c8 3c
       0.13315926 0.0385359 -0.029277576 0.024492888
000050 04 42 30 3d 3a de 48 3c a2 8d aa 3a 82 c7 1d 3c
       0.043031707 0.012260014 0.001301218 0.009630086
000060 75 53 e3 bc 1f fc 9a 3c f0 7a 16 bd 92 5c 2d bc
       -0.027749756 0.018919049 -0.036738336 -0.0105811525
000070 1a 54 f4 3c 47 46 87 3d 53 09 7a 3c 68 2f b2 3c
       0.029825259 0.06605201 0.015261012 0.02175112
000080 33 be 43 3c f2 8f 38 3d 11 f8 85 3d 43 47 68 3d
       0.0119472025 0.045059152 0.065414555 0.056708585
000090 9e b0 b5 3d bb c5 f2 ba 7b f5 56 3c 9f db 4b 3d
       0.08871578 -0.0018522063 0.013120051 0.049769994
0000a0 0f 76 1d bc 7e 78 8d 3d 1d 85 a7 b9 27 63 96 3b
       -0.009610667 0.06907748 -0.000319519 0.0045894566
0000b0 e4 07 00 3c 54 71 6f bc ba 09 df 3c 09 03 df 3d
       0.007814381 -0.014614422 0.027226318 0.10889251
0000c0 84 66 1a bc 3a bf 8f 3d 0b 8a 85 3c 1e 2e 9f bd
       -0.009423856 0.070188954 0.016301176 -0.07772468
0000d0 66 0f 42 bd be bd de bc ab f0 9d 3d 86 2a ec 3b
       -0.047377966 -0.027190086 0.077119194 0.0072072176
0000e0 39 f9 04 3c 08 ef a3 bb 76 0a ed 3c ff 93 cd 3c
       0.00811606 -0.00500286 0.028935652 0.025094984
0000f0 c3 4d 49 3d a1 54 ac 3c 5c cb 09 3d d3 7c 9e 3d
       0.049146425 0.021036448 0.033641204 0.07738652

fc3.weight f4 [32, 64]
000000 a2 59 0b be 45 19 1c bd 3e e4 d0 bd 1d 04 bd 3c
       -0.13608411 -0.038110036 -0.10199784 0.02307325
000010 e1 87 3e be 85 1d 0c be da 6d 31 bc c6 97 9a bd
       -0.18606521 -0.13683136 -0.010829413 -0.0754848
000020 96 94 21 be 19 f2 bc bd 6c bd 8e 3c 88 15 8f 3d
       -0.15779337 -0.09225864 0.017424308 0.06986529
000030 8c 85 34 bd 27 b1 d2 bd a3 76 25 be 1f d2 21 bd
       -0.044072673 -0.102876954 -0.16158538 -0.039507028
000040 28 f0 94 be 86 61 25 be 49 85 53 3d 57 0a 5e be
       -0.29089475 -0.16150483 0.051640783 -0.21683632
000050 eb bf 11 3c ff 8c 7f bd e0 19 c1 bc 15 76 a9 3d
       0.0088958545 -0.062390324 -0.023571908 0.082744755
000060 d5 21 e0 bc 53 16 27 be df fc e2 3c 22 20 4d 3d
       -0.027359882 -0.1631711 0.027708469 0.050079472
000070 85 71 0f be 72 6e 9d be 8d 47 35 bb ae fb b9 3d
       -0.14008148 -0.30748326 -0.0027661056 0.09081207
000080 a5 25 0c bd eb a4 bd be 0c 6f 20 be 72 7c ab bd
       -0.034215588 -0.37039885 -0.15667361 -0.083733454
000090 cd 61 4e be f0 d5 b0 3d 83 88 c5 3c 6e 0b d8 3c
       -0.20154496 0.08634555 0.024112945 0.026372638
0000a0 a4 9a 52 be 46 e2 3d be 4c cd bc 3d e0 0b 06 3e
       -0.20566803 -0.18543348 0.09218845 0.13090467
0000b0 e5 a7 d5 bd d7 c3 ae 3c b8 1d 40 be ed fc b3 be
       -0.10432414 0.021333618 -0.18761337 -0.35153905
0000c0 f8 87 a7 bd d1 7d 02 3e e8 33 bc bd 17 b8 b3 3d
       -0.08180231 0.12743308 -0.09189588 0.08775347
0000d0 c7 8c 2e 3d 24 c5 7e bd 24 23 e3 bd 8a 64 f5 3d
       0.042614724 -0.062199727 -0.11090687 0.11982067
0000e0 a0 09 14 3e ef d8 9c bc 93 9c c9 3d 70 48 f0 bd
       0.14456797 -0.01914641 0.09844317 -0.11732566
0000f0 3d a0 28 3d 47 7e cb 3c 85 7d 37 bc 48 b3 9f be
       0.04116844 0.024840487 -0.01119936 -0.31191468
000100 b6 95 17 be 9a 84 0a be fb 4d 24 bd 6d 53 da bd
       -0.14803204 -0.13527146 -0.04011343 -0.106604435
000110 21 eb a1 bd 47 85 a9 bb f3 7b d1 bd 42 60 87 bd
       -0.079061754 -0.0051733586 -0.102287196 -0.066101566
000120 fe 6e e0 bd 45 a6 bb bb 10 11 37 bd d4 b5 29 be
       -0.1095867 -0.005726608 -0.044694006 -0.16573268
000130 2f 6e db bd e3 da 15 bd 47 8d 13 be 12 65 81 bd
       -0.10714375 -0.0365857 -0.14409362 -0.06318106
000140 7c 70 72 be 39 2f 4d be 32 47 81 bc 69 72 2c be
       -0.23675722 -0.20037545 -0.015781019 -0.16840519
000150 ca 13 92 bc e9 b1 dd bd a6 f8 0d be 71 ba f7 bd
       -0.017831702 -0.10824949 -0.13864383 -0.12096108
000160 d6 aa 2c 3c a0 d9 ca bd 74 ee 42 bd f7 4c df 39
       0.010538777 -0.0990479 -0.047590688 0.00042591218
000170 a1 9b d1 bd 99 a7 48 be 8f 41 8c bd 3d 5f 2a be
       -0.10234762 -0.19595183 -0.06848442 -0.16637893
000180 cf ea 3c be b5 a0 73 be a2 a2 0a be bc de 35 be
       -0.18448947 -0.23791774 -0.13538602 -0.17760748
000190 21 a3 41 be c5 e5 c1 bd f8 4d 6b bd 5c 50 99 bd
       -0.18909885 -0.09467653 -0.057447404 -0.074860305
0001a0 c5 a1 19 be ea e8 05 be c5 fa 2d be c4 81 18 be
       -0.15003116 -0.13077131 -0.16990192 -0.14893252
0001b0 a5 eb 08 be 98 fe e6 bd 6a c0 fa bd 48 0f 8e be
       -0.13371141 -0.11279029 -0.12243731 -0.27746034
0001c0 3c 37 72 bc 58 88 49 be 82 dd 88 bd 8b bf b5 bc
       -0.014783677 -0.19680917 -0.06682874 -0.022186061
0001d0 7b fe 86 3c 27 ef aa bd 53 b9 8a be 9c de da bd
       0.016478768 -0.08346396 -0.27094516 -0.106869906
0001e0 a5 21 26 be 46 18 c6 bd d7 db 90 bd 44 6e 10 be
       -0.16223772 -0.096725985 -0.07073181 -0.14104563
0001f0 62 47 02 be 6d 42 16 be d0 b9 b8 bd 86 7a 36 be
       -0.12722543 -0.14673777 -0.09019816 -0.17820176
000200 3b 23 e4 bd 61 73 84 bd 10 48 1e be 4c f6 a0 bc
       -0.11139532 -0.06467319 -0.15457177 -0.019648694
000210 0a e6 99 bd 19 5c a8 bd c9 d8 41 bc db ee 10 be
       -0.075145796 -0.08220691 -0.011831471 -0.14153616
000220 24 b4 23 bd dd e6 a7 bd 7a 53 b2 bd 81 8b 3c 3c
       -0.039966717 -0.081983306 -0.08707328 0.01150787
000230 b6 12 80 3c 78 19 f3 bd 27 67 b8 bd 36 38 b0 bb
       0.015633922 -0.11870092 -0.0900405 -0.0053777946
000240 21 5e 7b be c0 f8 08 be 97 00 da bd 83 99 f5 bd
       -0.24547626 -0.1337614 -0.10644644 -0.11992171
000250 77 a1 24 3c 08 fa 30 bd 71 d9 cc bd 94 3d 4f 3d
       0.010048262 -0.0432072 -0.10002411 0.050595835
000260 86 ad 10 3d 2e 1b 46 be ab 04 57 bd 8b ac ed bc
       0.035321735 -0.19346306 -0.052494686 -0.029012939
000270 3c 73 c7 bd f0 66 70 be 80 16 de bd 46 cd 7b 3d
       -0.09738776 -0.23476768 -0.10844135 0.06147506
000280 da 34 b0 bd 5a 44 89 be 6a 04 14 be 54 96 0f be
       -0.08603831 -0.2680996 -0.14454809 -0.1402219
000290 56 bb 59 be 69 c0 34 3d 5b 06 5b bc 3b 06 dc bd
       -0.21262869 0.04412881 -0.0133682145 -0.10743376
0002a0 6a d0 58 be ae c7 1a be e4 7f 85 3c 44 23 08 bd
       -0.21173254 -0.15115234 0.016296335 -0.033236757
0002b0 2b 94 25 be f2 5d 8e bc a8 32 13 be be 70 8e be
       -0.16169803 -0.017378781 -0.14374793 -0.2782039
0002c0 b8 56 33 be b8 8f 30 3c c0 cd c1 3b 26 35 03 3d
       -0.1751355 0.010776453 0.00591442 0.03203311
0002d0 64 a9 fe 3c 3a 82 bd bd 5d c0 30 be 07 ca 99 3d
       0.031086631 -0.09253354 -0.17260881 0.07509237
0002e0 b0 33 38 bd 50 af d8 bd 98 a6 61 3d fe 84 f4 bd
       -0.044971168 -0.10580313 0.055090517 -0.11939429
0002f0 e7 f7 0f bc 26 4b 0c be 00 88 8d bb 63 31 76 be
       -0.008787132 -0.13700542 -0.004319191 -0.24042277
000300 73 42 28 bd 4f 5c bd 3c ab 3e 25 be 56 85 d3 bd
       -0.041078996 0.023115305 -0.16137187 -0.10328166
000310 4d ed 24 be c4 30 72 bd 41 fd d1 bd 08 19 1c 3d
       -0.16106148 -0.059128538 -0.102533825 0.03810981
000320 cf 78 9d be ef de fd bd 33 5f 0c be 6a 44 11 3d
       -0.30756232 -0.12396037 -0.1370819 0.035465635
000330 9c cc 9b bd a2 0c 3f be 1b 2c 78 be 47 f9 96 bd
       -0.076073855 -0.18657163 -0.24235575 -0.07371765
000340 f9 43 cd bd fe 80 aa be 09 ee 06 be eb 1d 7a be
       -0.100227304 -0.33301538 -0.1317674 -0.24425475
000350 86 e2 ce bd cd 01 b6 3c b2 85 cd 3d 62 8c 5b bd
       -0.101018 0.022217656 0.10035266 -0.053600676
000360 9e 33 61 bd 85 34 0c be 90 4d 15 be 6b 50 15 3c
       -0.054980867 -0.1369191 -0.14580369 0.009113411
000370 72 a1 7d bd ec 03 08 be d8 3a f8 3d e4 89 6d 3c
       -0.061921544 -0.13282746 0.121205986 0.014498208
000380 38 ed 9c be f1 51 15 be 5c 50 73 be c7 14 b6 3d
       -0.30649734 -0.1458204 -0.23761123 0.08890682
000390 b5 ce e1 bc 7a a5 02 bd ad 6a c0 bd f4 67 7d 3d
       -0.027564386 -0.031896092 -0.09395347 0.061866716
0003a0 df ba 3e bd 31 99 a5 be 35 e8 39 3e a1 63 71 bd
       -0.046564933 -0.32343438 0.18154986 -0.058932904
0003b0 d4 fd e0 bd a0 45 82 bd 3e 49 41 3c 00 36 17 be
       -0.10985914 -0.06360936 0.011797247 -0.14766693
0003c0 f1 02 23 be 49 b6 03 3e 1f 72 2f be f1 f9 a3 3c
       -0.15919091 0.12862505 -0.17133377 0.020016642
0003d0 f4 89 a4 3c c7 09 2d 3c f3 3a b0 be 3b eb 28 bd
       0.020085312 0.010561413 -0.34419975 -0.04123996
0003e0 3f 29 1b bd 25 9f a6 3d 35 30 2a bd ec 8b ad 3b
       -0.037881132 0.08135823 -0.04154988 0.005296221
0003f0 90 0b 31 be a5 c0 e0 3d f6 72 3b be fc d9 75 be
       -0.17289567 0.10974244 -0.18305573 -0.24008936

fc3.bias f4 [32]
000000 5e af eb bc cb df 7d be 8f 87 da 3c 2d c7 11 3e
       -0.028770145 -0.24792401 0.026675967 0.14236136
000010 2e 29 6c bc 1a 02 4c be 2a e5 a7 3d 3c 96 c8 3d
       -0.014414115 -0.19922677 0.081980065 0.0979428
000020 d7 be 49 be 3f b9 5d be c9 a4 df 3d cc 96 eb bd
       -0.19701706 -0.21652697 0.10920102 -0.115033716
000030 f6 9f 3b 3d 59 5c e2 bd 4f f1 3b be ad 1e 9c be
       0.045806848 -0.1105277 -0.1835377 -0.30492154
000040 d5 fd e8 3c f7 0f 3c 3d ec 4f aa 3d b1 4e 04 be
       0.028441349 0.045913663 0.08316025 -0.12920643
000050 bc d3 53 be 3f 4b e1 bc 98 12 4a 3d fe d1 14 3d
       -0.20686239 -0.0275017 0.04933414 0.036333077
000060 71 7d 14 bd 7f 0a 89 bb b3 be d0 bc a8 c3 68 3c
       -0.036252443 -0.0041821594 -0.025481557 0.014206804
000070 83 92 8e 3c bc 10 bd bd 30 47 cb 3c 79 0f 58 be
       0.017403847 -0.092317075 0.024814218 -0.21099652

norm3.weight f4 [32]
000000 e7 c4 c8 3f fe 5e 5e 3f 30 30 da 3f 74 76 bb 3f
       1.568509 0.86863697 1.7045956 1.4645524
000010 8f 72 dd 3f 8d 49 61 3f dd ff ce 3f b9 44 ca 3f
       1.7300586 0.88002855 1.6171833 1.5802222
000020 8d 3f 56 3f 3c f8 58 3f b4 dd c7 3f 43 9a 62 3f
       0.8369072 0.84753776 1.5614533 0.88516635
000030 2a 59 bb 3f af d4 5e 3f 7e 6e 5b 3f 7d 4b 60 3f
       1.4636586 0.8704328 0.8571547 0.87615186
000040 69 8a ce 3f 05 ba df 3f e0 c5 c9 3f ca 10 5e 3f
       1.613599 1.7478644 1.5763512 0.8674437
000050 e9 d9 58 3f bc ae c3 3f 76 2c f3 3f 62 a5 bc 3f
       0.84707505 1.52877 1.8997943 1.4737971
000060 d9 00 df 3f 12 13 da 3f 98 d8 e5 3f 79 b7 c3 3f
       1.7422134 1.703707 1.7956724 1.5290366
000070 3f 49 cc 3f 95 67 c4 3f 22 a3 fc 3f 1f b9 5e 3f
       1.5959853 1.5344111 1.9737284 0.8700122

norm3.bias f4 [32]
000000 45 bd 10 3f d9 15 f0 3c 3b 45 e8 3e 44 57 fe 3e
       0.565388 0.029307293 0.4536532 0.49675953
000010 21 fd 2a 3f b3 b9 07 3d 1e 84 08 3f e9 d1 fa 3e
       0.66792494 0.03313608 0.53326595 0.48988274
000020 cb 96 da bc f9 f2 32 bc 2a 08 ed 3e 6b ae a6 3d
       -0.026683232 -0.010922187 0.4629529 0.08138736
000030 7d 64 ed 3e a3 5b bd 3c f5 ce 8f 39 83 85 ba 3c
       0.4636573 0.023114985 0.0002742928 0.022768741
000040 7d e7 09 3f 9c eb e5 3e 02 1b ff 3e 81 e3 43 3c
       0.5386885 0.44906318 0.49825293 0.011956097
000050 c9 dc 27 bc c0 b9 f5 3e f4 22 10 3f 81 8d f7 3e
       -0.01024551 0.47993279 0.56303334 0.48350146
000060 de 80 d1 3e 05 4c 16 3f b6 23 02 3f d1 4b f3 3e
       0.4091863 0.58709747 0.5083574 0.4751878
000070 45 29 17 3f 6c 7a 05 3f 45 3f 0a 3f b8 04 b1 3c
       0.5904735 0.52139926 0.5400279 0.021608695

fc4.weight f4 [1, 32]
000000 a4 36 2e 3f 88 21 f2 bc 70 56 5b 3f d5 a0 28 bf
       0.68052125 -0.029557005 0.8567877 -0.6587041
000010 0f 89 2a 3f eb ba fd 3c e6 2f 45 3f 11 46 27 3f
       0.66615385 0.030972918 0.7702621 0.6534129
000020 eb ca 1f bd 7e 3a 68 bd 18 10 38 bf ed cc a5 bd
       -0.039011877 -0.056696407 -0.7189956 -0.08095727
000030 cb 05 26 3f 55 00 25 bd e1 49 84 bb c4 73 cd bc
       0.6485259 -0.04028352 -0.0040371274 -0.025079615
000040 0c 39 34 bf 2c d7 4f bf f9 cb 2f 3f 3b b7 52 3d
       -0.70399547 -0.811877 0.6867061 0.051444273
000050 28 1c 38 3b cd 48 33 3f 49 d6 51 3f f5 e7 2c bf
       0.0028092954 0.7003296 0.819676 -0.6754144
000060 fa bc 61 bf f7 16 2f bf 3e 57 3e 3f a5 1b 34 bf
       -0.8817898 -0.68394417 0.7435187 -0.7035468
000070 6c 30 27 3f f6 86 3b bf 8c 77 81 bf 9f e3 1b 3d
       0.6530826 -0.7325281 -1.0114608 0.038058873
