models/best_odd_even_model.pth (torch, 23829 bytes, 19 tensors)

fc1.weight f4 [64, 15]
00000000: 17be 773c f431 043e e2d4 593e 7d66 413e
00000010: c016 4e3e 1bea 29bc 742b c43b 47b0 a139
00000020: ba40 9c3d c03e 033d e388 313e 4cbb 98be
00000030: a59e 2ebb 744b db3a ac4f f33d a1ee 17bb
00000040: ea9a 133e 801d 653e 3780 c53d 9a88 4e3d
00000050: 41ef 55bd 06da bb3c 3991 643c 4faf a13b
00000060: 9d42 bfbd 63a4 f73d d3ea e5be 546b 5a3b
00000070: a925 a7bc 5e07 c43c 130a 603d 1e0e d73d
00000080: f3a8 383e 55e0 cc3d 4fe4 2a3f 3d4f 2a3d
00000090: d8cf 5dbd 846d 6fbc 8c09 6c3d 5d80 8bbb
000000a0: f6c1 3a3e d3d1 23be b305 423c dfb6 1a3c
000000b0: 3d92 873d b395 483d 14b2 403e efb7 4d3e
000000c0: 6ace 673e 5b18 103f 2fc0 9b3c 1a21 3dbd
000000d0: 1b3b 0a3d dd85 5d3d f2de bd3c 3a53 243e
000000e0: b346 b8bd a295 ccbb 5923 cfbc a7ad 40be
000000f0: 1337 dabb 5b5c 05be 0308 7ebd 6c32 6fbe
00000100: 493e 75be 552b 6cbc bb48 f63b ca3c c93b
00000110: 7bfd 9abc 4773 11be 8102 16be 375a 943e
00000120: f246 053c e941 163c 41d9 5ebb 7121 cabb
00000130: 7bd8 563d 846f 6c3e fe85 513d a90e 953e
00000140: 1a55 493b 8676 063c a53e bbbb e097 b63d
00000150: 6015 b6bd 4e44 383e 3719 92be 79e8 003b
00000160: 6352 5f3b 010f 48bc c4fa d4bb b2f4 5dbe
00000170: 2197 49bd 45bf 31be 25cf b0be 104f 92bc
00000180: a42f 713b 99fe 5a3c 1521 d73d c425 73bc
00000190: d0c6 2dbe e42d b33e 03d8 90bc 677b e3ba
000001a0: 270e 2e3e 5e92 b0bb 507f 0d3e 5e0e 3f3e
000001b0: 5185 263e 7af6 083f 2ea9 173d 927c e3bc
000001c0: 8cd4 dabc 40b0 843d eca4 043d c3c5 393e
000001d0: dbad 28be a784 56bc 19a9 023d b0e6 05be
000001e0: e848 d2bc 6843 a33d 1602 043e d649 073e
000001f0: 4ffe 353e 8c59 a63a c665 8bbc 74cb 9fbb
00000200: 9025 6d3d 516e e83c a52d 223c 8ee0 e6be
00000210: e28e 33bc bd4b b23c 217a 9ebd 5741 0a3c
00000220: c930 513e 3853 2e3e c94c f43d 79c0 4b3e
00000230: 3242 cfbc 2ed1 113d 6545 a63b db36 55bd
00000240: cf92 92bd f7d9 83be 7fba 9cbe 9113 d1bb
00000250: 36e5 abbb 826e 863e 767a 8b39 e209 e63c
00000260: dfd3 443e e736 2fbd b0b9 d23e 55a7 cebb
00000270: 5a06 d73c 293f fa3a 9b67 333d 1e6c 0cbe
00000280: 1b75 383e 3836 9cbe 0e70 103b 146f 33bc
00000290: 3ff8 f13d 7198 303c 91ef fd3d 6c37 38bd
000002a0: 1c1b f03d 4dad 273f 5ddd d63d cc9a 8ebd
000002b0: 9bfe 43bd 1a7e 98bd c947 c23d 9ac3 1f3e
000002c0: aeb8 29be 7034 bcbb 4438 283c 9ed6 203e
000002d0: 0afc 0e3d 5826 173e ab8a ca3d 9854 453e
000002e0: e41c 273f 3984 443d 9f74 09bd 6fc8 85bc
000002f0: a46b babc f7f1 543d 4ea2 2d3e 96c6 38be
00000300: a7e8 51bb 2889 fcba c746 183d cc8c a83b
00000310: bbf0 113e 8f6e 033d 83ee 3d3e cc05 013e
00000320: 22c2 52bd c0e3 753d 822d ad3c c36f f3bc
00000330: ba1f 993d b6d3 363e 4543 b7be 8497 cdbb
00000340: 9812 0ebd e47e f3bc 92a1 903c 6bf4 463d
00000350: 4a50 febd 6526 6fbd 65db 48ba a5af 163c
00000360: f967 c6bc 8e6e 4cbd a128 30be a238 78bd
00000370: 8571 9c3e bda6 c83e 0ae0 05bc 4c76 693c
00000380: 952a d43d 1268 b53c 129f 203e fdbb c73d
00000390: 1aec ca3c 5b05 313f cc4e 933d 072e 65bd
000003a0: cf65 a0bc e3a4 bebd 616b bbbd 5755 343e
000003b0: 662b 02be b508 25bb 9666 1c3d 229c 0fbe
000003c0: 1e3e c03c a54d 0e3e 8089 393e a23a eb3d
000003d0: 9dd8 153c ccbc 6b3d edb9 2bbd 2499 ebbc
000003e0: 8981 73bb 1451 9ebd f325 343d f193 bebe
000003f0: f2a9 b3ba b7e6 953c 9a6c 49bb 71df bcbc
0.015121005 0.1290968 0.21272615 0.18886752 0.20125866 -0.0103707565 0.0059866253 0.0003083965
0.07629533 0.032042265 0.17337374 -0.29830396 -0.0026644852 0.0016730861 0.118804306 -0.0023183005
0.14414564 0.22374535 0.09643596 0.050423242 -0.052230123 0.02293111 0.013950639 0.0049342285
-0.09338877 0.12091901 -0.4490572 0.0033328133 -0.0204037 0.023929294 0.054697108 0.105007395
0.18033199 0.100037254 0.6675462 0.041579474 -0.054153293 -0.014613513 0.057626292 -0.0042572455
0.18238053 -0.1599801 0.011842179 0.009443014 0.066196896 0.04897089 0.18817931 0.20089696
0.22637334 0.56287163 0.019012539 -0.046174146 0.033747774 0.05408274 0.023177598 0.16047373
-0.0899786 -0.0062434236 -0.02528541 -0.18816243 -0.0066593974 -0.13023512 -0.06201936 -0.23359078
-0.23949541 -0.014414628 0.0075159944 0.00614128 -0.018919697 -0.14204131 -0.14649393 0.28975078
0.00813459 0.009170988 -0.0034004005 -0.0061685373 0.052452546 0.23089415 0.051153176 0.29112747
0.003072089 0.008206969 -0.005714255 0.089156866 -0.08890796 0.17994806 -0.28534862 0.0019669815
0.0034076206 -0.012210608 -0.00649962 -0.21675375 -0.049216393 -0.1735812 -0.3453304 -0.017859966
0.0036802078 0.013366365 0.10504357 -0.014840547 -0.16970372 0.3499595 -0.017681127 -0.0017355502
0.16997586 -0.005388542 0.13818097 0.18657824 0.16261794 0.53501093 0.037026577 -0.02776936
-0.026712678 0.064789295 0.032383844 0.18141846 -0.1647257 -0.01309315 0.031899545 -0.13076282
-0.02566953 0.07971841 0.1289142 0.1321176 0.17772792 0.0012691482 -0.017016303 -0.0048765484
0.05789715 0.028372915 0.009898578 -0.45093197 -0.010959359 0.02176463 -0.07738138 0.00843843
0.20428766 0.17023933 0.11928708 0.19897641 -0.02530012 0.03559988 0.0050741904 -0.052054267
-0.07156908 -0.2575223 -0.30611035 -0.0063805063 -0.00524583 0.26256186 0.00026603387 0.028080884
0.19221447 -0.04277697 0.41157293 -0.0063065686 0.026248146 0.001909231 0.043799978 -0.13713118
0.18013422 -0.30510116 0.0022039446 -0.010951776 0.11814927 0.010778532 0.12399209 -0.04497473
0.11723921 0.6549881 0.104914404 -0.06963119 -0.047850233 -0.07445927 0.09486348 0.1560196
-0.16574356 -0.0057435557 0.010267321 0.1570687 0.034908332 0.1476072 0.0988973 0.19270551
0.6527846 0.04797766 -0.033558484 -0.016330926 -0.022756405 0.05198857 0.16956446 -0.18044505
-0.003202954 -0.001926695 0.037176874 0.0051437374 0.14251988 0.03208786 0.18548016 0.12599868
-0.05145467 0.060031652 0.021139864 -0.029716378 0.074767545 0.17854199 -0.3579351 -0.0062741656
-0.0346857 -0.029723592 0.017655168 0.04857294 -0.12417658 -0.058386225 -0.0007662087 0.00919715
-0.0242195 -0.04991012 -0.17202999 -0.060600884 0.3055536 0.3918971 -0.008171091 0.014249396
0.103596844 0.022144351 0.1568568 0.09752653 0.024770785 0.69148797 0.07192764 -0.0559521
-0.019579796 -0.093087934 -0.0915134 0.1761068 -0.12711868 -0.0025182192 0.03818377 -0.14024404
0.02346712 0.13896807 0.18118858 0.11485793 0.009145883 0.057553098 -0.04192536 -0.028759547
-0.0037156066 -0.07730308 0.043981504 -0.37222245 -0.0013707264 0.01829849 -0.0030734898 -0.023055764

fc1.bias f4 [64]
00000000: 46f9 833d b0f3 e23d d28e 28be 273b 693d
00000010: ea5f b13d 3c57 88bd 2d20 9e3d db88 87bc
00000020: 2a4a f1bd f3ac 7a3d 3468 2c3e 44a3 efbb
00000030: ce81 0c3d 40e2 bebd 465c 3d3e f4a2 bf3d
00000040: af36 44be 7889 43be afe5 debd 55e3 123e
00000050: d055 f0bd 4b2c 413e 82c9 39be 2d78 f6bd
00000060: de03 493d f3ca 243d 07b3 0b3e 6646 dfbc
00000070: 43ff 183b b2a4 d93d 5774 4b3d 6279 25be
00000080: 88cd 41be 9fb7 4abe 3853 8abd ca05 31bd
00000090: dfbd 143d 7750 52bd 29fb dabb 5c8a aabd
000000a0: 1e7a b73d 4448 b43d 0c50 47be 79ba c93c
000000b0: 2b40 d0bd af25 1b3e 7d38 bebd 0bb8 03be
000000c0: f768 0dbe 4f62 273e 219c 263e 961e 26be
000000d0: ea60 093e f29e 54bd a8a1 d3bc 5264 0bbe
000000e0: 3d93 c0bc 625e 033e fdc8 c7bd 943e 2e3d
000000f0: 7e41 a63d cd95 c0bd 3cfe 38be 6663 a3bd
0.064440295 0.11081636 -0.16460732 0.056941178 0.08660872 -0.06657264 0.07720981 -0.01654475
-0.11781724 0.061200093 0.16836625 -0.007313164 0.03430348 -0.093204975 0.18492231 0.09357253
-0.19161485 -0.19095409 -0.108836524 0.14344533 -0.117351174 0.18864553 -0.18143275 -0.120346405
0.049075954 0.04023261 0.13642512 -0.027255248 0.0023345507 0.10627116 0.049671497 -0.16159585
-0.1892606 -0.19796608 -0.06754154 -0.04321841 0.036313888 -0.05134627 -0.0066827727 -0.08327171
0.08958839 0.08802846 -0.19464129 0.02462505 -0.10168489 0.15151094 -0.09288118 -0.12863176
-0.13809572 0.16346096 0.16270496 -0.16222605 0.13415876 -0.051909395 -0.02583392 -0.13612488
-0.023507709 0.12828973 -0.09755132 0.042540148 0.081179604 -0.09403572 -0.18065733 -0.07977943

bn1.weight f4 [64]
00000000: d6e8 523f 70bf 0f3f a784 133f 2637 133f
00000010: f905 483f b775 3f3f a8ce 413f a961 233f
00000020: 7e8b 0c3f 9516 f33e 78d8 3a3f 9d23 163f
00000030: b3d2 143f 8a88 f63e d528 1b3f 881a 0f3f
00000040: 7a7c fe3e 7ad2 113f 08e9 053f ae1c 423f
00000050: 2e02 253f 7f50 4e3f f436 323f 388f 293f
00000060: fe1b 403f c814 123f 6f60 e43e b01b 193f
00000070: c551 403f 9290 313f acfe 173f dbcd 093f
00000080: 19e6 4c3f 4326 483f 32c0 1a3f 283b 3d3f
00000090: d069 473f e46e 4d3f 364d c53e 3760 173f
000000a0: 3932 0f3f 7f23 283f 89bc cd3e 645a ed3e
000000b0: 64da 2e3f b7d5 153f 543f ae3e 7ec1 1f3f
000000c0: 9923 463f a260 053f 3fe6 1b3f 7548 143f
000000d0: 4668 e03e 329c 453f 9f7b 163f 8e34 173f
000000e0: da9e 223f 79f0 063f 6fb1 413f 873f 3d3f
000000f0: c43d 123f 326a 263f 0aac 083f 33d3 233f
0.8238653 0.56151485 0.57624286 0.57506025 0.78134114 0.74788994 0.7570596 0.6382089
0.5490035 0.47478166 0.72986555 0.5864809 0.58134 0.48151046 0.6060918 0.5589986
0.49704343 0.56961787 0.523087 0.7582501 0.6445645 0.8059158 0.696151 0.6623416
0.7504271 0.5706296 0.44604823 0.5980787 0.7512477 0.6936122 0.59372973 0.53829736
0.800386 0.7818338 0.60449517 0.7391839 0.7789583 0.8024733 0.3853547 0.5913119
0.5593601 0.6567916 0.40182903 0.46358025 0.6830199 0.5852923 0.3403269 0.6240462
0.7739807 0.52100575 0.608982 0.5792306 0.43829554 0.7719146 0.5878238 0.5906457
0.6352364 0.5271068 0.7566137 0.7392506 0.57125497 0.6500579 0.5338751 0.6399414

bn1.bias f4 [64]
00000000: 7dcd 2fbe 1081 0dbf 69d9 01bf d3d8 c6be
00000010: e558 3d3d 4e80 19be c13b 34bd bc6f 06bf
00000020: fbb9 96be 2dd1 adbe 546a 1cbe a91c 04bf
00000030: 2991 07bf 8956 d1be 9747 95be 4f7a f0be
00000040: fb72 89be 3228 eabe b905 cfbe d176 22be
00000050: beb8 6bbe 2efa c6bc 2112 ccbe 21b4 943d
00000060: 5739 a7be b8de d8be 74de bdbe f6cb acbe
00000070: a484 c0be f49f 0ebe a924 0fbf 0337 14be
00000080: 8dae 36be 3f6a bbbe 2668 0bbf 6ef2 0fbe
00000090: ed60 1ebe d828 13be b727 96be b4ac 17be
000000a0: 0e7e 94be 4c57 e4bd 323b a3be a14a f1be
000000b0: 7003 67be d185 f8be a8c1 b7be af00 8ebe
000000c0: c4b8 20be d792 ddbe c7ee 0bbf a643 f1be
000000d0: 0060 9bbe 81ff 4ebe de9a 9bbe 34f7 b2be
000000e0: 2092 09bf bef4 9dbe dd86 12be 173f acbe
000000f0: 89f6 11bf a6d1 a93d 8227 3cbe c486 15bf
-0.17168231 -0.5527506 -0.50722367 -0.388373 0.046227355 -0.1499035 -0.0440023 -0.52514243
-0.29438767 -0.3394865 -0.15274936 -0.5160623 -0.5295587 -0.40886334 -0.2915618 -0.46968314
-0.26845536 -0.45733792 -0.40434054 -0.15865637 -0.23019692 -0.024289217 -0.3985758 0.07260919
-0.32660934 -0.4235742 -0.3708378 -0.3374936 -0.37601197 -0.13928205 -0.55915314 -0.1447411
-0.17840023 -0.36604497 -0.5445579 -0.14057323 -0.15466662 -0.1437105 -0.29327175 -0.14811975
-0.29002422 -0.11149463 -0.318811 -0.4712725 -0.22559905 -0.48539594 -0.35889935 -0.27734897
-0.15695482 -0.43276092 -0.5466122 -0.47121924 -0.3034668 -0.20214655 -0.30391592 -0.34954226
-0.53738594 -0.30850786 -0.14309259 -0.33641884 -0.5701681 0.082919404 -0.18374446 -0.5840876

bn1.running_mean f4 [64]
00000000: e317 b43d 0809 f13d 8af4 ecbd ae81 e63d
00000010: 3224 803d 13d3 1abd 5191 233d 864f 293d
00000020: 020c d8bd 8326 5f3d 4834 443e 4d3c 083d
00000030: 905a ae3d a54a a0bd 02e2 583e d437 1d3e
00000040: 32a7 3cbe 1b49 08be c376 c7bd 5875 2b3e
00000050: 92b3 b7bd 26fc 223e 9d9a 48be 28d9 19be
00000060: 0737 a83c f218 a73d 9c30 053e 6478 30bd
00000070: 7dd7 93bc b682 093e acf9 ca3d 4edd 52be
00000080: 1298 2cbe 97cb 68be 7c48 c4bc 8a8b b4bc
00000090: b83a 753d 2ebd d0bc 850c 48bc eb84 11be
000000a0: 2deb 793d 8b84 ef3d 6cf7 43be 66c7 193d
000000b0: 7323 03be 03d8 573e 8045 b4bd 56d8 d3bd
000000c0: ae5d f2bd 8afc 003e 5215 5d3e 981d eebd
000000d0: 1049 273e 1060 97bd 1874 5cbb 9b12 00be
000000e0: 9c0a c73c c8ae d63d b4e0 8abd 3035 993c
000000f0: b830 8c3d 5deb 08be 9aa0 6cbe 3df0 adbc
0.087936185 0.11769301 -0.115700796 0.11255203 0.06256904 -0.037798952 0.039933506 0.041335605
-0.10549165 0.054480087 0.19160569 0.033260632 0.08513367 -0.07826737 0.21179965 0.15353328
-0.18423155 -0.13309138 -0.09739449 0.16743982 -0.08969797 0.159165 -0.1959023 -0.15024245
0.020534052 0.08159055 0.13006824 -0.043083563 -0.018047089 0.13428769 0.099109024 -0.20592234
-0.16854885 -0.22733913 -0.023960344 -0.022039194 0.05987045 -0.025480833 -0.012210016 -0.1421086
0.061015297 0.116952024 -0.19137353 0.037543677 -0.12806492 0.21078496 -0.088023186 -0.10343997
-0.11834274 0.12596336 0.21590164 -0.11626738 0.16336465 -0.07391369 -0.0033638533 -0.12507097
0.024297051 0.10482556 -0.0678114 0.01870212 0.0684523 -0.13371034 -0.2310814 -0.021232719

bn1.running_var f4 [64]
00000000: de11 f93d 6a7e 973d ac1b 233f 77b8 403f
00000010: 260f e33d 50ab f43d 3bcc 2f3e 9261 083f
00000020: 6fd7 843d b355 3f3e 75cf 073e 0870 fb3e
00000030: 3715 2a3f 7fa1 813d 15c1 453e 213b 263f
00000040: e1d8 2e3d 4635 513f 2d10 773d e70a ea3d
00000050: c605 523e 171e 003e 6c89 0e3e bac0 2d3e
00000060: b10f fa3d 0dd1 203f 1cea e63d 108a 0f3e
00000070: 634a a13d 2fb7 0a3e 625c 0a3f 1803 453f
00000080: b333 ca3d 56e6 0d3e cffa 153f fbcc ff3d
00000090: b52e be3d 05a8 eb3d eeb6 793e e3a3 c73e
000000a0: 3be3 cf3e cbc1 063e 29f1 8d3d f1ed 843d
000000b0: 0629 eb3d 9d51 3f3f 7928 713f b813 1c3e
000000c0: 4b4e c83d 30ca be3e 1ac1 123f 4622 393f
000000d0: 5aa6 c83e a14e b53d d6e5 0f3e b37c 033e
000000e0: 4b04 1a3f 1961 b93d bb67 0d3e 728b bf3d
000000f0: 79bf dd3d 2147 1e3e 43a0 a93e 2821 253f
0.12161611 0.073971584 0.637141 0.7528147 0.11086874 0.11946738 0.17167751 0.5327388
0.06486403 0.18685035 0.13262732 0.4910891 0.6643862 0.06329631 0.19311936 0.64933974
0.0426873 0.81721914 0.06031816 0.11427861 0.20510015 0.12511478 0.1391961 0.1696805
0.12210024 0.62818986 0.112751216 0.1401751 0.07875516 0.13546441 0.54047215 0.76957846
0.09873142 0.13857397 0.5858583 0.12490269 0.092862524 0.115066566 0.24386188 0.38992223
0.4060305 0.13159864 0.06930763 0.06490696 0.11482434 0.74733907 0.9420238 0.15241897
0.09780558 0.37263632 0.573259 0.7231792 0.39189416 0.08852888 0.14052519 0.12840538
0.601628 0.09051723 0.13809101 0.09352769 0.10827536 0.15456821 0.33130082 0.6450372

fc2.weight f4 [32, 64]
00000000: c6d0 563c c09f 133e baf8 8ebd c7b1 fbbd
00000010: 8e59 4cbe 7f55 883c 4419 88be 7267 b0bd
00000020: 203c 5d3c 030b 81bd e758 9e3d 6e02 b6bd
00000030: bf05 55be 331c 0e3e 6653 ab3b 593d 3bbe
00000040: e471 323d 6751 c1bd 6ba3 e33d 3dd9 ef3b
00000050: 0e61 0bbb f0aa 49be fbc9 5abe 2a1c 8cbe
00000060: 49b0 cebd 20ea 38bd 68fb b73d 3dc8 27be
00000070: 8455 263d e5e4 833d 5c9b 30be 0350 11be
00000080: 7078 5b3d 5fd8 d03d bc3c 14be fb09 7d3c
00000090: d865 723c 3882 693d ec2a 643d fe91 2ebe
000000a0: f471 4ebe 7e2a 563d 65a2 a33c 7e4d 443e
000000b0: b59b 10be c1fc 08be b697 053d 8a86 84bc
000000c0: 98f3 953d 135a 96be 718e acbd 1157 fbbd
000000d0: fc33 20bd 944b 5dbe e470 923c fc17 3b3d
000000e0: 9712 f6bd 610f 493d 4c74 a03c ee49 49bd
000000f0: 21ca 923d 06d1 88be 6f5b 29be 79fd 32be
00000100: bbf8 ee3a 74e4 acbe 2ad0 0a3d dbd8 8a3d
00000110: 42db 803d f359 833c 8897 a43d 60f1 723d
00000120: 0ad9 adbe cee0 1dbe e5e4 953d 1111 143e
00000130: b33a c23d a01b 74be edda e4bd 5eee b43d
00000140: 37f3 60be 3bce 14bd 43b5 cebe a7b5 983d
00000150: a891 b2bd 321b 5d3d e214 a23a 7794 a43d
00000160: 0217 ea3d e183 8a3d 0c09 1c3e ae5c 63bd
00000170: 7cff ea3d 3fce 7c3d 7ebe b53d b144 f23c
00000180: bf78 c33b 1af7 983d ea4d f83d 7577 403d
00000190: 55c2 1f3d 47f0 233d 8312 1cbe 23cd 103d
000001a0: da9a e23d 8c13 ab3d 7548 5bbe 61ef bbbe
000001b0: 8a64 a43d 5872 3a3d 3b1a babd b3a6 0dbe
000001c0: 8dbb b33c 41a8 ed3d 96d1 83bc d944 443d
000001d0: 9d9a fcbc 5a1b 103d 01cd 07be 0917 5dbe
000001e0: 3c1e 833d e19e b23d 99c7 37bd f6d5 bb3c
000001f0: abb3 283d 324d 8c3d fef8 f23d d72c a43d
00000200: 202f e73c 7d94 9cbe a2da b13d 5ed5 213e
00000210: 40ee a03d 6111 393d 67e4 943d 3b01 023e
00000220: 107f 6fbe fc5c d9bd 6c02 243d 14f8 4d3d
00000230: 2a91 0e3e f3fe bfbd f0cb a7bd 3181 813d
00000240: 4d93 adbe 7eee 6e3c f4f7 9abe bdeb ae3d
00000250: 0892 03be 995c e13a 2402 de3c 4bb6 d53c
00000260: a756 d93d 36a5 7d3d badf be3d 904e 2b3c
00000270: 6527 c43d 71d8 ba3c 3044 3c3e 9e5b c03d
00000280: 0f11 3bbd e38b f33d 8a5c d03d e795 2ebc
00000290: f9a7 433b 014b 4f3d 0b94 17be 28e2 c53d
000002a0: bfc8 dc3d a5e9 3f3d 693b e0bd 91f5 a7be
000002b0: 8dca e43d deed d7bb aa9b 18be 8607 05be
000002c0: e481 3d3d 9edc d33d eed2 3d3e 4d6b 5b3d
000002d0: 28f3 b8bd e502 223d c4b8 fdbd 89d7 e6bd
000002e0: eedf b73d f255 1e3e 5991 fd3c f6c9 c23d
000002f0: db7b 583d 8e33 983d 3920 d03d 4795 273e
00000300: ba47 87be d39b 44bd f718 aa3d 6e9b 8b3d
00000310: be19 23bd eaf7 83be 168f 2dbd 3bb7 a03c
00000320: a360 8c3c 1b1d 6c3d ea68 72be b97c 1f3d
00000330: 4cf3 ef3c 6acd bdbd 7868 603c a24c df3d
00000340: 3efa 873c 9bd7 42bc f673 d73b aec4 72be
00000350: d033 a4bc 3018 62bd cc93 d0ba dd4e edbc
00000360: ca79 02be 1f6c 193d f023 89bd 7406 873c
00000370: c6b0 0cbe 4543 7ebe 261e 85b9 937f a6bc
00000380: c7aa 90be 2f5b eabd 8dc6 033d 30a3 87be
00000390: f85d 8dbe d297 82be 90ea 0c3c 910c f2bb
000003a0: 4f12 1d3c 9e05 5bbe 42ae e33c 7c41 ddbc
000003b0: fc9a 7fbd d8a9 8a3d 69b1 933d f121 273d
000003c0: 56a7 84be ec71 c93c d779 823d 7ded 3b3d
000003d0: 26fe 883b b53b b1bd 7aa1 a9bb 0e38 c63c
000003e0: 757d 273c 0d50 01be e530 77be 85d0 9fbd
000003f0: 9c6a 1cbd ef75 24bd b85d 15bd cb00 253c
0.013111299 0.14416409 -0.069810346 -0.12289768 -0.19956037 0.01664233 -0.26581776 -0.08613481
0.013503104 -0.063009284 0.077318005 -0.08887182 -0.20802973 0.13877945 0.0052284477 -0.18285121
0.043565646 -0.094393544 0.11115154 0.007319598 -0.0021267566 -0.19694114 -0.21366112 -0.27365237
-0.100922175 -0.045145154 0.08983499 -0.16384979 0.040608898 0.064401425 -0.17246765 -0.14190678
0.053581655 0.101975195 -0.14476293 0.015444274 0.014794789 0.057008952 0.055704996 -0.17047879
-0.20160657 0.052286617 0.019974897 0.19170186 -0.14121898 -0.13377668 0.032615386 -0.016177434
0.073218524 -0.29365596 -0.08425606 -0.12272466 -0.039112076 -0.21610862 0.017876096 0.04567717
-0.120152645 0.049086932 0.019586705 -0.04914277 0.07167459 -0.26721972 -0.16538785 -0.17479505
0.0018232086 -0.33768046 0.033889927 0.06779643 0.0629182 0.016034102 0.08036715 0.059312224
-0.3395465 -0.15417787 0.07319049 0.14459635 0.09483852 -0.23838663 -0.11174569 0.088345274
-0.21967779 -0.03632949 -0.40372667 0.074565224 -0.08719188 0.053981014 0.0012365843 0.0803613
0.1143017 0.06763435 0.15237826 -0.055508308 0.11474511 0.06172013 0.08874224 0.02957377
0.005965322 0.07469006 0.12124236 0.046988923 0.03900369 0.04002407 -0.15241437 0.035351884
0.11064692 0.08353338 -0.21414359 -0.3670607 0.08026989 0.045519203 -0.09087034 -0.13833122
0.021940017 0.116043575 -0.01609115 0.04791722 -0.030835444 0.035182334 -0.13261797 -0.21590818
0.06402251 0.0872171 -0.044868086 0.022929173 0.04118697 0.06850661 0.11863898 0.08016365
0.028220713 -0.30582038 0.08684279 0.1580405 0.078579426 0.04518259 0.07270127 0.12695782
-0.23388314 -0.106134385 0.040041372 0.050285414 0.13922563 -0.093747996 -0.08193195 0.063234694
-0.33901444 0.014583228 -0.30267298 0.08541057 -0.12848675 0.0017193734 0.02710063 0.0260879
0.10612231 0.061925136 0.09320016 0.0104557425 0.095778264 0.022808285 0.18385386 0.093924746
-0.045670565 0.11891916 0.101739004 -0.010655857 0.0029854758 0.05060864 -0.14802568 0.096622765
0.10780477 0.04685368 -0.109488316 -0.3280454 0.11171446 -0.0065896353 -0.14903131 -0.12991151
0.04626645 0.10344814 0.18537495 0.053569127 -0.090307534 0.03955354 -0.12388757 -0.11271579
0.08978258 0.15462473 0.030953096 0.09511177 0.052852493 0.07431708 0.10162396 0.16365539
-0.2642191 -0.048000168 0.08305543 0.06816755 -0.03981947 -0.2577508 -0.042372786 0.019618621
0.017135924 0.057644945 -0.23672834 0.038937304 0.029290818 -0.09267695 0.013696782 0.109032884
0.016598817 -0.011892225 0.006575103 -0.2370784 -0.020044237 -0.05519885 -0.0015913188 -0.028968269
-0.12741771 0.037456628 -0.06696308 0.01648257 -0.13739309 -0.24830349 -0.000253902 -0.020324504
-0.28255293 -0.11443173 0.032171775 -0.2649169 -0.27610755 -0.25506455 0.008600846 -0.007386752
0.009586885 -0.21388862 0.027793054 -0.027008764 -0.062403664 0.067706764 0.07211573 0.040803853
-0.25908917 0.024590455 0.06370895 0.045880783 0.0041806875 -0.08653966 -0.00517672 0.02419665
0.010222782 -0.12628193 -0.24139746 -0.07803444 -0.038187608 -0.040151533 -0.03646633 0.01007099

fc2.bias f4 [32]
00000000: 45c0 49bd acb1 22bd a4d3 8f3d b940 a43b
00000010: 6c2c f33c b083 b33d b525 0abd 521d f43c
00000020: 054a cdbc 7d6c 833d 94d9 f2bc 38cc 35bb
00000030: c49b cdbc c1e4 5b3d ee33 723d be37 313d
00000040: 8a0a cc3c 0e75 a03c ca50 323d 23b1 40bc
00000050: 7a0f e33c d77c d3bb ffdc f2bc 3c08 06bd
00000060: e3ed b7bd dc71 18bd 1d62 2e3b 0f78 92bd
00000070: b63d 9f3d c4dc 663c f7b6 76bc c03f 1bbd
-0.04925563 -0.039720222 0.07022789 0.0050125984 0.029684268 0.08765352 -0.033727366 0.029799137
-0.02505971 0.06417177 -0.029644765 -0.0027740132 -0.025098689 0.053684954 0.059131555 0.04326605
0.02490737 0.019587066 0.043534078 -0.011760983 0.02771734 -0.006454091 -0.029646395 -0.032722697
-0.0898092 -0.03721796 0.0026608773 -0.071518056 0.07775442 0.014090721 -0.015058271 -0.037902594

bn2.weight f4 [32]
00000000: e925 173f e9df 293f 7ce6 2d3f d151 343f
00000010: aa7f 3a3f a64b 393f fc52 133f 57da 263f
00000020: 3586 1a3f 8ed5 253f 327b 383f 13d2 2a3f
00000030: 4f26 023f ebe5 193f 8542 163f 7ff4 1e3f
00000040: 98ec 473f 08b9 343f 9468 343f cb99 313f
00000050: 649e 1c3f e3aa 1e3f a023 463f ae80 1a3f
00000060: 7bc7 3b3f 2a2f 1e3f 67c2 2b3f b9d7 103f
00000070: fe7a 2c3f 9b8e 363f 61f3 1c3f 8798 193f
0.5904222 0.66357285 0.67929816 0.7043734 0.7285105 0.72381055 0.575485 0.6517691
0.60361034 0.64778984 0.7206298 0.667268 0.50839704 0.6011645 0.5869525 0.6209182
0.7809539 0.70594835 0.70472074 0.69375294 0.61179185 0.619795 0.7739811 0.603526
0.7335126 0.61790717 0.6709351 0.56579167 0.6737517 0.7131135 0.61308867 0.59998363

bn2.bias f4 [32]
00000000: a778 a7be 4989 fa3d 6b9f 5f3e 594b bdbe
00000010: bc97 adbe f420 c4be 9340 65be 57dd b03d
00000020: 0a19 9cbe 455b 92be 445a a8be 202e a6be
00000030: 42a9 15bd 74e9 cbbe ab08 98be 09fc c9be
00000040: f291 34be 70ac cabe 2433 c9be 58e2 b0be
00000050: 279a 9ebe 332d bcbe c121 7ebe b216 c1be
00000060: ac33 c5be 356a 663e 4989 edbe 33e5 00be
00000070: 7f86 d1be da8c ff3d 02e1 cfbe 61dd 043d
-0.32709238 0.12233216 0.21838157 -0.36971548 -0.33904827 -0.3830639 -0.22387914 0.08635967
-0.30487853 -0.28585258 -0.32881367 -0.32457066 -0.03653837 -0.39826548 -0.29694113 -0.394501
-0.17633799 -0.39584684 -0.3929683 -0.34547687 -0.30976984 -0.36753234 -0.24817564 -0.37712628
-0.38515985 0.22501452 -0.46393803 -0.12587433 -0.40922925 0.12478037 -0.40601355 0.032437686

bn2.running_mean f4 [32]
00000000: 65f6 18bf 36c9 383e 8ff1 b53e 42b3 5fbf
00000010: 4181 49bf 57cc 1cbf 3088 e8be ba7d 843e
00000020: 2ddc 04bf ce1a 3bbc 91e9 b93e a339 46bf
00000030: 0fc3 85bd c0de 0bbf 27c4 e6be 2f53 aebe
00000040: f909 e63e 1bc3 47bf 5b0e 40bf 57a4 4fbf
00000050: e066 c3bd c2c9 00bf d1f6 b83e cd70 afbe
00000060: 621c 65bf 9dfb 833e 88cf f1be 9fd4 89bd
00000070: 3c45 b1be 4a79 823e 87d3 f3be e12d 013e
-0.5975097 0.18045506 0.35535857 -0.873829 -0.7871285 -0.612493 -0.45416403 0.25877172
-0.5189846 -0.011419965 0.3631101 -0.77431697 -0.06531345 -0.54636765 -0.45071527 -0.3404784
0.44929484 -0.7803208 -0.75021905 -0.8111014 -0.09541106 -0.5030786 0.36125806 -0.34265748
-0.89496434 0.25777903 -0.47228646 -0.067300074 -0.34623134 0.2548316 -0.4762232 0.12615158

bn2.running_var f4 [32]
00000000: d153 4c3f 70cc 8f3e d11a b63e 2835 8e3f
00000010: 853f 643f 17aa 323f 87c4 3a3f 2483 9d3e
00000020: 06c9 523f c01f a53e 9704 bc3e 7dc9 3a3f
00000030: 1254 013f aba6 4e3f 1f86 543f 8a27 e23e
00000040: 7a57 da3e 01d0 613f 36dc 463f 91af 513f
00000050: d8b8 a03e 8c92 423f f0aa bc3e e3b5 b63e
00000060: 75d7 593f edb3 9c3e a2b1 083f df76 bd3e
00000070: 0ba1 ed3e d117 ab3e f39a 203f 2560 8c3e
0.79815394 0.2808566 0.35567334 1.1109972 0.89159423 0.69790787 0.72956127 0.30764115
0.8233799 0.32250786 0.36722252 0.72963697 0.50518906 0.80723065 0.8301715 0.4417079
0.42644864 0.88208014 0.77679765 0.8190852 0.31391025 0.7600486 0.36849165 0.35685644
0.85094386 0.30606022 0.53396046 0.37004754 0.4641193 0.33416608 0.62736434 0.27417102

fc3.weight f4 [16, 32]
00000000: 5275 f8bd 5233 32be 858e 20be 5686 123e
00000010: 870a 7d3d 9567 793d a33a a8bd 0fe3 13be
00000020: f928 21be a04f 9ebd 3885 77bb 0370 c83d
00000030: 7fa3 8abd f44a 5bbe c89c 8abd ca3f a8bd
00000040: 78cf 32bd d3ec 5b3d 2538 463d 7b6a d63d
00000050: f367 edbd c657 d1bd 77e1 d6bc 5587 debd
00000060: fbab d83c 964d 06be f216 153c f218 3bbe
00000070: 14f5 9e3b 8e4f e7bd 62f8 12be 7dbc 56be
00000080: 2e1a 18be 2abf 54bd 1c8b 01bd a9df 5e3e
00000090: bb02 523e e3f3 503e 23ea fbbd eb08 23bd
000000a0: 2478 13be 47ea 113d aff3 b5bc 2f6c 2f3e
000000b0: 6ab4 94bd c699 0fbe f71f cfbd 2028 b83c
000000c0: 7b25 c0bc 8828 813e 1855 a53e 694f 543e
000000d0: 5b45 f53c 4ecf cbbd 778a b5bc 2932 1dbd
000000e0: 3622 523e 5b89 82bd b0dd 13bd 6a51 85bd
000000f0: ba2a 753c 95ab 13bd 3617 dbbd 27af 67bd
00000100: 7cca 50be b04a 3abe 24ee ddbd 6b93 0b3e
00000110: 202a 903d 257b 2d3e d630 21be 4459 39be
00000120: 60f2 12be cff6 d2bd 2ebe 08bd 83ce 143e
00000130: 4e02 eebd 4014 2bbe 53e1 42be 9760 0ebb
00000140: cb7c 48bc 6fa5 1b3e 2c45 5f3e 28fa 123e
00000150: b624 92bd 040c e9bd 3879 eebc 3426 15bd
00000160: caf5 033e 4609 17be a62c 87bc cbdc 30be
00000170: c81e 08bc 3585 05be 71b8 1cbe 3401 1cbe
00000180: 2ff2 72be 45fd f4bd 6846 b8bd d7c2 dd3d
00000190: 72c2 ff3c ff87 983d 5dcb 80be 1797 17be
000001a0: 172d 2cbe 1531 4b3c 01b2 13bd 5407 e33d
000001b0: c1be a4bd bdcd a8be f6d6 2abe 44da 9ebd
000001c0: f70b 263c 7a44 d83d 9e4a a33d 9ff4 ad3d
000001d0: a688 b33c 5d5d 72be ab91 95bd 113a 12be
000001e0: 3436 8d3c 1125 00be ab4c 79bd c649 b7bd
000001f0: 253b e23c c5eb fcbd 2d59 86be dea5 0abe
00000200: 5315 31bc ceee 4ebc 5da5 8fbb b4b6 c3be
00000210: 1837 aabe ac18 aebe 91ff 093c 0f0b 5a3d
00000220: 04cf 61bd eced e43d 3ffc 54be 6017 5cbe
00000230: 0909 64bd 5e15 433d 5d3f 223d 5a9f e93d
00000240: b84a eebd eafa ccbe 78a7 c6be 1400 6cbe
00000250: 5112 093e fe87 913c f226 e2bd 37d5 8e3d
00000260: c44a b5be 18f2 2dbc 66d4 3e3e bf70 883d
00000270: cd87 c13d e228 4bbc 17ff f63c 44e3 293a
00000280: 28b5 253d b26a 033d a914 cabb b513 debe
00000290: 6ea2 f9be c48c 01bf a064 48bd 695b 16bc
000002a0: d645 873c a98b 9d3d 148e cabd da34 aebe
000002b0: 8bfc c5bc 7baa e73d 25a7 bd3c 6022 b03d
000002c0: a879 89bd 00b2 17bf 61ae 19bf 7bdb ecbe
000002d0: d8ad d53d c52a 243d 8607 92bd dd17 dc3b
000002e0: c229 dabe 7e81 acbc 4dac d03d 7e7b 073d
000002f0: 44d6 a93d 54fd d53c a1c1 4d3c 2402 ae3c
00000300: 6581 413d 1783 47be 4214 26be 9a76 48be
00000310: 183c a7bd 5743 bdbd 7e87 693d 63a3 e8bd
00000320: 99ef bd3d 1b33 a43d 7e2a 09be 7a96 c93c
00000330: b73d 183d 614f ed3d cdc0 a33d 2260 703e
00000340: cf8c ccbd 03e3 01be f679 e1bd 80bd 45bd
00000350: 9c39 1f3d 3f2c 163e d771 a5bd ad2e 313e
00000360: 42aa e1bd e7b7 44bc 996c 873e 3ac3 043e
00000370: e5c7 973e 2f8c 3abd 869b 353e c033 87bd
00000380: daba 2dbe 7c12 1cbe 6733 debd 7aaf ab3d
00000390: 2d31 fc3d cfc6 f53d 456e 00be 996c 21be
000003a0: 3375 05be a74e 16be 62f7 efbc 1f4c e13d
000003b0: 8b2f 7ebd 7001 2cbe bd8e 29be 8caa a83c
000003c0: 82fb 09bd be56 cb3d e78f 2f3e 8147 be3d
000003d0: 6f3d f1bd 5702 4bbe bdf4 f4bc 6e81 aebd
000003e0: 9925 cc3d 9eb1 3cbe e6d7 9dbc 539d 0ebe
000003f0: 7706 123d dee0 17be 166d f6bd 7008 04be
-0.12131752 -0.1740239 -0.15679367 0.14309058 0.061777618 0.0608898 -0.08214309 -0.14442085
-0.15738286 -0.07730031 -0.0037768614 0.097869895 -0.06769466 -0.21415311 -0.06768185 -0.08215292
-0.04365489 0.05369265 0.048393387 0.10469528 -0.11592092 -0.102218196 -0.026230557 -0.10865656
0.026449194 -0.13115534 0.009099709 -0.18271235 0.004850993 -0.11294471 -0.14352563 -0.2097034
-0.14853737 -0.05194012 -0.031626806 0.21765007 0.20508854 0.20405535 -0.123005174 -0.039803427
-0.14401299 0.035623815 -0.022210924 0.17131113 -0.07260974 -0.14023504 -0.10113519 0.02248007
-0.023455372 0.25226235 0.32291484 0.20733418 0.029940298 -0.099516496 -0.022160752 -0.038377915
0.20520863 -0.06373855 -0.03610009 -0.06509669 0.0149638 -0.036052305 -0.106977865 -0.056563523
-0.20389742 -0.18192554 -0.10836437 0.13630454 0.07039285 0.16941507 -0.15741286 -0.18100458
-0.14350271 -0.10300981 -0.033384494 0.14531903 -0.11621533 -0.16706944 -0.19031267 -0.0021725053
-0.012236784 0.15199827 0.2180373 0.1435324 -0.07135908 -0.11379245 -0.029110536 -0.036413386
0.1288673 -0.14749631 -0.016500782 -0.17271726 -0.00830812 -0.13039096 -0.15304734 -0.15234834
-0.23725198 -0.1196237 -0.08997804 0.108281784 0.031220648 0.07447814 -0.25155154 -0.1480373
-0.16814075 0.012401839 -0.03605843 0.11085382 -0.08044196 -0.32969466 -0.16683564 -0.077564746
0.010134689 0.10559936 0.079732165 0.084939234 0.021915745 -0.23668428 -0.073031746 -0.14279963
0.01723776 -0.1251414 -0.060864132 -0.08949618 0.027616093 -0.12349657 -0.2623991 -0.13539836
-0.010808307 -0.012630178 -0.0043837265 -0.3822533 -0.33245158 -0.34003198 0.008422748 0.053233203
-0.055129066 0.111781925 -0.20799349 -0.21493292 -0.05567268 0.0476278 0.03961121 0.11407347
-0.11635345 -0.40035182 -0.38799644 -0.23046905 0.13385893 0.017765041 -0.110425845 0.06974261
-0.35408604 -0.010616802 0.18635711 0.066621296 0.0944973 -0.012399884 0.030150933 0.00064807036
0.040455967 0.032084174 -0.0061670137 -0.4337441 -0.48756737 -0.50605416 -0.04892409 -0.009177067
0.016512793 0.07692654 -0.098903805 -0.34024698 -0.024168273 0.113118134 0.02315099 0.086003065
-0.06712657 -0.5925598 -0.60031706 -0.462612 0.10433549 0.04007985 -0.07130341 0.006716712
-0.42609984 -0.02105784 0.10189114 0.033076756 0.08292821 0.026121773 0.012558372 0.021241255
0.04724254 -0.194836 -0.16218665 -0.19576493 -0.08165759 -0.0924136 0.05701398 -0.113592885
0.09274215 0.0801756 -0.13395116 0.024607886 0.03716823 0.11587406 0.07995758 0.23474172
-0.099877946 -0.12684254 -0.1100959 -0.048276424 0.0388733 0.14665316 -0.08078354 0.17302962
-0.11018802 -0.012006736 0.2645004 0.12965098 0.29644695 -0.045543846 0.17735109 -0.066016674
-0.1696581 -0.15241426 -0.10849648 0.08383079 0.12314067 0.1200081 -0.12542064 -0.15764083
-0.13032989 -0.14678441 -0.029292766 0.11000847 -0.06205706 -0.16797423 -0.16558357 0.020589136
-0.033687122 0.09928654 0.17144738 0.09290982 -0.11779296 -0.19825111 -0.029901857 -0.085207805
0.09968109 -0.1842713 -0.019267987 -0.13927202 0.035650697 -0.14831874 -0.12032525 -0.12893844

fc3.bias f4 [16]
00000000: 9595 9dbd 14f0 35bc de09 283d c22c a2bd
00000010: 2eac af3d 2b06 653d a02a 35bd 7ca8 d93c
00000020: 1f9d 4cbd 4735 f6bd fabe 99bd 7caf 2fbd
00000030: d88f e33d cb99 da3d 8090 dc3d 64cf db3d
-0.07694546 -0.011104602 0.041025035 -0.07918693 0.085777625 0.055914085 -0.044230103 0.026569597
-0.04995453 -0.120218806 -0.07507129 -0.042891964 0.111114204 0.10673865 0.10769749 0.10732916

bn3.weight f4 [16]
00000000: c26e 373f 0747 333f 01b2 323f 9c11 313f
00000010: ab4e 2c3f 34e4 443f b77a 353f b0de 333f
00000020: cbdf 2d3f dcdc 303f 6d3d 2d3f a9de 403f
00000030: 868c 413f ffb3 283f cab8 353f 3ab3 3f3f
0.7165338 0.70030254 0.6980286 0.69167495 0.6730754 0.7691071 0.70890373 0.7026167
0.67919606 0.69087005 0.67671853 0.7533975 0.75605047 0.6589965 0.7098509 0.74882853

bn3.bias f4 [16]
00000000: a45c 12be a3c4 303e 6ebf 48bd fee9 89bd
00000010: 5238 44bd 156b d73c 8258 96be 68f1 aabd
00000020: 11a7 c6bd fd52 c7bc a93e 9abe f5ae 35bd
00000030: f400 04bb 410a 69be 852c edbd 8f4e ae3d
-0.14293152 0.17262511 -0.049010687 -0.067340836 -0.047905274 0.026296178 -0.293644 -0.08346826
-0.09699834 -0.024331564 -0.3012593 -0.044356305 -0.002014217 -0.22757818 -0.11580757 0.085110776

bn3.running_mean f4 [16]
00000000: 198d e8be f825 febb 7728 90be 61d2 d2be
00000010: ec99 4abe 1ed2 9fbe 7e50 5dbe 5c22 9dbe
00000020: 1631 c2be cdfd 01bf 6a80 b4be b590 aebe
00000030: b494 27be f8e9 1fbd 5b3c 4cbe 5c52 adbc
-0.4542015 -0.007755991 -0.28155872 -0.4117613 -0.19785279 -0.31214994 -0.21612737 -0.30690277
-0.37928075 -0.50777894 -0.35254222 -0.34094778 -0.1636532 -0.03904149 -0.19944899 -0.021157436

bn3.running_var f4 [16]
00000000: 3246 c03e b3a1 4a3e cb50 d63e 9e4e 7b3e
00000010: 940e 8d3e 44bc 023f 37bd 973e 71de be3e
00000020: 421f b33e f0ca f13e 966b 9c3e 41e3 b13e
00000030: 2d61 a13e a4b3 a23e 1d48 933e 36ae 853e
0.37553555 0.19788246 0.41858515 0.24541709 0.27550185 0.5106852 0.29636547 0.37279084
0.34984785 0.47225142 0.30550832 0.34743693 0.31519452 0.3177768 0.28765956 0.26109475

fc4.weight f4 [1, 16]
00000000: 673b dabd 20f7 6fbd f8fd b4bd 816d c1bd
00000010: 4eb4 bc3d 3868 913d feb0 de3d e1a5 bfbd
00000020: 37c2 c83d fb50 b63d 8d4b 023e 0eb0 aabd
00000030: f5e3 90bd f5cb ec3d dca2 d43d 90da 80bd
-0.10655861 -0.058585286 -0.08837503 -0.09444714 0.09214078 0.07099956 0.10873602 -0.09357811
0.098026685 0.089021645 0.12724133 -0.08334361 -0.07074729 0.11562339 0.103826255 -0.062916875
