models/best_model.pth (torch, 23330 bytes, 19 tensors)

fc1.weight f4 [64, 14]
000000 89 bd 50 b8 44 2b eb 3b f8 c2 d4 3b 50 2b cb 3b
       -4.9767583e-05 0.0071767885 0.0064929686 0.0062002316
000010 17 35 8e 3c 0d a8 e4 b9 71 7e 0f ba 2b fe 82 b9
       0.0173593 -0.00043612756 -0.00054738583 -0.00024984902
000020 eb b2 da b9 16 7d 2c b9 e6 ad 14 3c f5 9d 89 bc
       -0.00041713504 -0.00016449796 0.009074664 -0.016798953
000030 dc 60 82 b9 e9 70 8d b8 00 cd ab ba 73 85 67 3c
       -0.00024867698 -6.744435e-05 -0.0013107359 0.014130938
000040 50 3a 66 3c dd f2 4c 3c 7e c9 d9 3c ec d8 e5 38
       0.014051989 0.012509075 0.026585337 0.00010959976
000050 a7 3d 7b ba d6 ba 68 b9 0a 28 5d 3a c7 58 8d 39
       -0.0009584077 -0.00022194846 0.0008436447 0.0002695976
000060 69 f8 89 3c ed 03 ef bc 4c af cd 3a b1 e4 7a ba
       0.016842084 -0.029176677 0.0015692501 -0.0009570821
000070 2a b3 b8 39 5a 0b 2d 3c af 5f 1b 3c 0b ea 0a 3c
       0.00035228702 0.010561788 0.009483262 0.008478652
000080 10 69 b5 3c 4d 6e 2b 3a ad 5b 8b 39 85 e8 5f 39
       0.022144824 0.00065395684 0.0002658045 0.00021353558
000090 e5 80 3f 3a 44 11 04 b9 18 f3 45 3c 10 9b 22 bd
       0.00073052786 -0.00012594933 0.012081884 -0.03969866
0000a0 60 38 6c 3a 3f 35 81 ba a0 4a b7 b9 e2 87 90 bc
       0.0009011086 -0.0009857788 -0.0003496008 -0.017642919
0000b0 ab d4 8b bc 4b 50 8a bc 6f 19 02 bd 10 03 c3 3a
       -0.017069181 -0.01688399 -0.031762537 0.0014878232
0000c0 81 2f b0 b9 12 b8 8f ba 73 ec 95 3a d7 20 44 b9
       -0.0003360473 -0.0010964891 0.0011438265 -0.0001870425
0000d0 09 6a a8 bc ee 5d 0f 3d db 42 ba ba 79 dc 7b ba
       -0.020558374 0.035001688 -0.0014210598 -0.0009607743
0000e0 80 b1 5f 3a af 5a ab 3c c4 07 af 3c d3 7e a9 3c
       0.00085332245 0.020917265 0.021366008 0.020690357
0000f0 fd 6d 00 3d 7b fe e2 38 ea 72 9c 39 ee 39 74 39
       0.031354893 0.000108239205 0.00029840256 0.00023291234
000100 00 dc d5 39 6d b7 02 ba 83 27 b7 3c e4 2a 1c bd
       0.0004079044 -0.0004986439 0.022357708 -0.03812684
000110 df af 86 b9 85 e9 98 ba 4d eb 95 ba 7f 1f 89 bc
       -0.00025689506 -0.0011666274 -0.0011437923 -0.016738651
000120 a6 1e 85 bc b4 3c 7d bc 7a 3b c6 bc cc 36 73 ba
       -0.016249966 -0.015456367 -0.024198283 -0.000927788
000130 7f 57 22 ba 26 ce 93 3a 72 9f 26 3a 24 e3 ac 3a
       -0.00061928475 0.0011276647 0.00063561567 0.0013190252
000140 6c 76 97 bc 43 e0 0a 3d 9b 77 6b 39 06 b5 d1 38
       -0.018489085 0.03390528 0.00022455903 9.999615e-05
000150 12 d2 fb 3a 92 6c 86 bc 59 b1 82 bc 5a 66 80 bc
       0.0019212386 -0.016409192 -0.015953707 -0.015673805
000160 60 c5 be bc 65 27 65 3a a5 98 b5 3a 01 66 bf 3a
       -0.023287475 0.0008741527 0.0013854696 0.0014602543
000170 33 a9 85 ba ea 89 3b ba 7a 67 93 bc 0f 6c 10 3d
       -0.001019752 -0.00071540347 -0.017993677 0.035259303
000180 06 87 e4 39 87 c9 03 3a 69 50 4d ba de f4 80 bc
       0.0004358815 0.00050272833 -0.00078321114 -0.015741762
000190 5b 59 93 bc bb ef 95 bc a0 02 ce bc 7c 95 cb 39
       -0.017986944 -0.018302789 -0.025147736 0.00038830552
0001a0 81 1b a2 38 8f d9 bb b9 ef 6f 6b 3a c5 e6 a9 b9
       7.729885e-05 -0.00035829513 0.0008981218 -0.0003240613
0001b0 cf f9 93 bc 9d f8 0b 3d ea 2c c6 ba d6 8a 91 b6
       -0.018063454 0.034172643 -0.0015119587 -4.3374994e-06
0001c0 ad c8 73 39 fc 97 89 bc 96 91 79 bc 54 b4 8c bc
       0.00023249043 -0.016796105 -0.015232464 -0.01717583
0001d0 ac 5d c7 bc 26 03 26 3a 3c 13 ec b9 4c 2a 2b ba
       -0.024336658 0.00063328666 -0.00045027758 -0.0006529435
0001e0 4c 2e 41 3a c2 85 6e 38 a3 ce 99 bc c8 29 0b 3d
       0.00073692645 5.6868193e-05 -0.01877529 0.033975393
0001f0 31 38 38 ba 26 50 c6 3a 2a 39 a6 ba da 11 12 bc
       -0.0007027416 0.0015130087 -0.0012681831 -0.008915389
000200 b8 bd fd bb 9b e0 fa bb 0f de e3 bc cc ef 05 3b
       -0.0077435635 -0.0076561696 -0.027815847 0.002043712
000210 8f 9f 13 bb 9e cf 28 ba 7f 2d 3e 38 cf b2 de 3a
       -0.0022525524 -0.0006439629 4.53419e-05 0.0016990545
000220 da cb c7 3b 0f 93 3c 3d 0a 4e 56 ba e8 93 78 3a
       0.006097299 0.046038684 -0.0008175081 0.0009482489
000230 d7 84 04 bb 18 de 91 3c 66 55 91 3c 82 24 90 3c
       -0.002022078 0.017806098 0.017740916 0.017595533
000240 3d e6 d6 3c fd 83 60 3b 64 61 d2 ba 3d b1 23 39
       0.026232833 0.0034258359 -0.0016050753 0.00015610918
000250 90 b4 c4 39 27 03 ad 39 8a 2c 8f 3c 57 d2 d6 bc
       0.00037518563 0.0003299948 0.017477293 -0.026223345
000260 97 a3 33 ba 31 7d 85 ba 80 2a f9 ba 3b c4 af 3c
       -0.0006852685 -0.0010184405 -0.0019009858 0.021455875
000270 b4 6a a4 3c c5 4c b0 3c 11 48 04 3d d5 07 63 39
       0.020070411 0.021520982 0.03229529 0.00021651325
000280 c0 82 d8 ba a9 5b 68 39 90 6c 31 ba 76 7e b3 3a
       -0.0016518459 0.0002215939 -0.0006768191 0.0013694305
000290 d0 c3 c0 3c 06 68 1a bd d0 94 a6 b9 06 ca 41 39
       0.02353087 -0.03769686 -0.0003177286 0.00018481174
0002a0 3f fc 96 b8 72 d7 ab 3c dc 20 aa 3c 90 c4 a0 3c
       -7.199542e-05 0.020976756 0.020767622 0.019624978
0002b0 40 b8 04 3d 5f 0e 95 ba 2f 0b 4c 3a ac 0f 03 3a
       0.032402277 -0.0011372081 0.0007783649 0.0004999589
0002c0 2d 08 38 3a 8d dc 2d ba d4 43 ab 3c a0 82 21 bd
       0.0007020261 -0.0006632291 0.020906366 -0.039431214
0002d0 ee 72 88 b9 5f e3 e4 ba 7c 1b 73 b9 70 d7 8c 3c
       -0.0002602557 -0.0017462781 -0.00023184525 0.017192572
0002e0 ea fb 86 3c 53 bb 7e 3c 22 ca d4 3c 03 95 2d ba
       0.016477544 0.015547591 0.02597529 -0.0006621631
0002f0 f5 5e e3 38 8f 47 b2 ba 21 98 0a 3a 5e 31 4f ba
       0.000108418906 -0.0013601648 0.0005286951 -0.00079037796
000300 33 08 8b 3c 5a 9f 05 bd 16 5f 7d ba 06 44 da ba
       0.016971683 -0.032622673 -0.0009665353 -0.0016652353
000310 c4 f2 84 3a 54 26 85 bc 6e 5d 85 bc 9b dd 90 bc
       0.001014315 -0.016253628 -0.016279902 -0.017683795
000320 d5 37 cf bc 41 ef c1 3a 91 4e c0 ba d9 80 dc 38
       -0.025295177 0.0014796035 -0.0014671852 0.00010514417
000330 7a 7f 3d b9 3a e3 3a 3a 85 d7 9f bc ea e0 02 3d
       -0.00018071933 0.00071291963 -0.019511947 0.031952776
000340 60 4e 19 3a f9 4c 8a 3a cd bf 18 ba ef 3e 8c bc
       0.00058481656 0.0010551504 -0.00058269204 -0.017119853
000350 91 04 8d bc 46 6e 98 bc 79 06 db bc a0 f4 e3 b8
       -0.017214091 -0.01860727 -0.026736485 -0.000108697684
000360 61 6e 28 ba f8 92 84 39 f1 87 5c b9 c8 ad 04 3a
       -0.0006425139 0.00025286502 -0.00021031477 0.0005061296
000370 a9 59 88 bc dd 16 06 3d 8b 34 e2 ba f1 75 f3 3a
       -0.016644316 0.032736648 -0.0017258091 0.0018574578
000380 de 70 93 ba 03 1e 6b 3c 7f e0 78 3c 08 66 56 3c
       -0.0011248847 0.014350417 0.015190243 0.01308585
000390 cd 5b d2 3c 86 3e 83 b9 5c 54 86 3a e5 6d 85 3a
       0.02567854 -0.0002503285 0.001024853 0.0010179846
0003a0 56 d6 99 ba 78 e3 c4 3a 08 01 8a 3c 59 c2 e4 bc
       -0.0011736851 0.0015021404 0.016846195 -0.027924703
0003b0 29 e7 2b b9 de f2 7a 3a 9e 9d 54 39 a7 0e 58 bc
       -0.00016393945 0.0009572933 0.00020276612 -0.013187087
0003c0 80 62 59 bc c0 ce 72 bc 96 40 d2 bc 32 1d 13 3b
       -0.013268113 -0.014819801 -0.025665563 0.0022447822
0003d0 65 07 8c b8 ae 5b 8d ba 4d 64 e5 b9 76 b6 54 3a
       -6.6770976e-05 -0.0010784769 -0.00043753014 0.0008114347
0003e0 8d f7 84 bc 1f d3 fe 3c ad da cf 3a 2d a5 90 ba
       -0.016231323 0.03110653 0.0015858017 -0.0011035554
0003f0 be 06 1f 3a 4f 17 ef bb 45 30 0f bc 08 33 06 bc
       0.00060663733 -0.00729648 -0.008739536 -0.008190878

fc1.bias f4 [64]
000000 3d b6 65 36 62 71 53 b5 8f 71 e5 35 d2 44 ae 35
       3.4229736e-06 -7.876862e-07 1.709488e-06 1.298404e-06
000010 91 65 05 36 73 6a d0 36 45 01 b9 b6 61 2d bd b5
       1.9877664e-06 6.2112754e-06 -5.5135774e-06 -1.4094804e-06
000020 6c 68 4d 36 8a 60 0f 35 fa 9b ac b4 78 f4 55 36
       3.0608162e-06 5.3412134e-07 -3.2150984e-07 3.1881773e-06
000030 e6 43 2d 36 48 e4 1e b6 cf 24 82 b5 ee 83 b5 35
       2.581853e-06 -2.3676712e-06 -9.696467e-07 1.3523947e-06
000040 fc 7b 87 b5 2c 9f 1d 36 e0 d5 d9 b4 1d 2d 08 36
       -1.0094368e-06 2.3487473e-06 -4.0575014e-07 2.0291839e-06
000050 3d d8 90 b6 be 82 d5 35 58 61 f7 35 04 1a 26 b6
       -4.316708e-06 1.5907788e-06 1.8431265e-06 -2.475107e-06
000060 60 c7 6f b3 4c e4 5f 35 f5 83 f7 35 eb 87 d8 36
       -5.5827854e-08 8.340619e-07 1.8441339e-06 6.4531246e-06
000070 0a f2 0d 36 63 84 bb b5 b1 9c 9d b6 a5 70 98 b6
       2.1151523e-06 -1.3971115e-06 -4.697206e-06 -4.5430666e-06
000080 31 a4 20 b6 42 1c 61 b6 de 18 74 b6 7a 71 80 34
       -2.393743e-06 -3.354406e-06 -3.6373308e-06 2.3924423e-07
000090 00 bd 68 b3 54 67 6c b6 9a 4e b7 36 14 9f 2e b6
       -5.4188604e-08 -3.5226885e-06 5.4629754e-06 -2.6020616e-06
0000a0 49 fc 01 b6 0d 24 90 b4 58 dc 5b b5 88 4e 16 36
       -1.9369347e-06 -2.684832e-07 -8.19045e-07 2.2397453e-06
0000b0 3a 2d 66 b5 e4 5a 8d 35 fa f6 0b 36 f5 9d 4a 36
       -8.574749e-07 1.0531771e-06 2.0856373e-06 3.0192289e-06
0000c0 27 50 07 b5 75 e4 d8 35 64 2d 4f 35 20 e0 53 34
       -5.0408056e-07 1.6159744e-06 7.717956e-07 1.9732443e-07
0000d0 1c ed a2 35 48 2e 8b 34 70 48 94 b3 e5 d8 a3 b6
       1.2138948e-06 2.5924442e-07 -6.9049634e-08 -4.8830284e-06
0000e0 3a d3 fa 36 d6 85 1c 36 38 19 32 b4 17 30 f1 35
       7.4751706e-06 2.3323714e-06 -1.6586716e-07 1.7969895e-06
0000f0 dd f3 83 36 f3 8f 6a b5 cd 61 2d b5 52 e4 5f 36
       3.9324937e-06 -8.7381267e-07 -6.458984e-07 3.336249e-06

bn1.weight f4 [64]
000000 61 2e e0 3c 6e 0e d9 bc 89 a8 e1 3c 9c 36 2b 3d
       0.027365865 -0.026496138 0.027546184 0.041800126
000010 2b 33 02 3d 40 70 cb 3c b3 9c d9 3c 85 58 cf 3c
       0.03178708 0.024833798 0.026563978 0.025310764
000020 d2 be de 3c 6b 4e 13 3d e8 aa 26 3d 84 8c 04 3d
       0.0271906 0.035963457 0.040690333 0.03236057
000030 4c 19 01 3d 9a ab c5 bc 6f e7 d4 3c 8e a1 d0 3c
       0.031518266 -0.024129678 0.025989262 0.02546766
000040 0b 1d c6 bc 51 11 ca 3c f4 fd db bc 3f 06 db 3c
       -0.02418377 0.02466646 -0.026854493 0.026736377
000050 39 7f ce 3c 81 5d de 3c ee ce 27 3d 70 8f d8 3c
       0.025207149 0.027144196 0.040968828 0.026435584
000060 c2 02 da 3c 59 8d d9 3c a8 bc c8 3c 7d b7 c9 bc
       0.026612643 0.026556658 0.02450402 -0.024623627
000070 d7 f7 cb 3c d6 ec 05 bd 3c 9c 2c 3d e3 d4 cb bc
       0.024898453 -0.032696567 0.042141184 -0.024881786
000080 94 f7 c0 3c 8f 7f 28 bd 28 e3 df 3c 25 36 d6 3c
       0.023555554 -0.041137274 0.027329996 0.026148865
000090 e1 6f dc 3c 3c c5 cd 3c 96 72 d3 3c 6b 9d da 3c
       0.026908817 0.025118463 0.025811475 0.02668639
0000a0 d3 c6 27 3d 78 79 b9 bc 1e 38 29 3d ff ca 29 3d
       0.040961098 -0.022640929 0.041313283 0.041453358
0000b0 28 11 06 3d b6 12 2b 3d e9 44 31 3d 04 34 c3 3c
       0.032731205 0.04176589 0.04327861 0.023828514
0000c0 05 66 c9 bc e5 28 e2 3c 94 44 f9 bc 24 75 2b bd
       -0.02458478 0.02760739 -0.030428208 -0.04185976
0000d0 12 6f d8 3c 23 21 c0 3c 46 60 27 bd 02 d7 ce 3c
       0.02642015 0.0234533 -0.040863298 0.025249008
0000e0 51 21 06 3d 9b 11 2f bd 82 f2 2b 3d fd fe dd 3c
       0.032746617 -0.0427414 0.04197932 0.027099127
0000f0 7b fc f6 3c 76 3b df 3c ec 52 d1 3c 81 09 d1 3c
       0.030149689 0.027250033 0.025552236 0.025517227

bn1.bias f4 [64]
000000 77 c7 ad bb 01 27 31 3c d5 5d ed bc 7b f8 80 bc
       -0.005303319 0.010812522 -0.028975407 -0.015743485
000010 a4 c6 f2 bb ed 20 3c 3c 32 66 2c 3c 98 48 2d 3c
       -0.0074089337 0.0114824595 0.010522412 0.01057639
000020 16 9d 2f 3c e1 60 25 bd 79 17 30 bd b9 89 ec bb
       0.010718605 -0.040375594 -0.042991135 -0.0072185663
000030 81 08 04 bc 7f 48 2a 3c 7a 34 37 3c fc 6a 3f 3c
       -0.008058668 0.010393261 0.011181945 0.011683222
000040 44 fe 2b 3c 81 38 17 3c 1f 82 c1 bb 40 9f 37 3c
       0.010497633 0.00922978 -0.005905404 0.011207402
000050 3a 3c 3b 3c 50 d2 23 3c bc c1 2d bd 38 c7 2c 3c
       0.011427933 0.009998873 -0.042421088 0.010545544
000060 f1 87 25 3c b2 15 03 bd 9d 27 23 3c c7 0d 34 3c
       0.010103212 -0.032003112 0.009958175 0.010989613
000070 4e 5d 2f 3c 95 68 03 bc 54 b2 2d bd ba 2d 3c 3c
       0.010703398 -0.00802054 -0.042406395 0.011485511
000080 fa 2a 24 3c 71 7e 8f bc 3b 4e d6 bc 56 35 e5 bc
       0.010020012 -0.017516347 -0.02616035 -0.027979534
000090 bd df f0 bc ed d8 2a 3c 98 a5 32 3c d3 18 eb bc
       -0.029403562 0.010427696 0.010903738 -0.02869836
0000a0 dd a7 33 bd d7 dd db bc b7 0b 92 bc 5c 0e 2e bd
       -0.04386126 -0.02683918 -0.017827852 -0.042494163
0000b0 a2 7e fa bb f8 a9 2f bd 90 71 2f bd 76 f6 35 3c
       -0.0076444903 -0.042886704 -0.04283291 0.011106124
0000c0 63 41 20 3c a3 4a e1 bc b5 3f 18 bd c7 c1 8f bc
       0.009781214 -0.02750141 -0.03717013 -0.017548455
0000d0 50 79 df bc fb 57 3d 3c 03 0f 8d bc bb 66 e6 bc
       -0.027279526 0.011556621 -0.017219072 -0.028125158
0000e0 aa e1 07 bc b1 dc 87 bc 83 60 90 bc 78 3a dd bc
       -0.008293549 -0.016584726 -0.017624145 -0.02700542
0000f0 60 13 df bb c0 9b d4 bc 8a 74 37 3c 4f ff e8 bc
       -0.0068077296 -0.025953174 0.011197219 -0.028442053

bn1.running_mean f4 [64]
000000 1c 29 4b bb bf 8b b6 bb 38 68 a2 bb 06 ae d6 3b
       -0.0030999845 -0.0055708583 -0.0049562715 0.006551507
000010 eb 33 fe bb 04 32 d0 3b 1a 48 c2 3b 94 07 c5 3b
       -0.007757654 0.0063536186 0.0059290053 0.0060128663
000020 fe 81 d2 3b 2f ce 5b 3b e3 f8 d6 bb 28 2c fc bb
       0.0064241877 0.0033539643 -0.0065604313 -0.0076956935
000030 85 a9 f9 bb c7 3d cc bb 9b e7 da 3b 6d fb d5 3b
       -0.0076190853 -0.0062329504 0.0066804416 0.0065302164
000040 13 51 ab bb 11 69 bb 3b 60 f2 44 3b a1 16 df 3b
       -0.0052281707 0.005719312 0.0030051693 0.0068081175
000050 aa c8 cf 3b a7 c5 be 3b 20 22 d2 bb b8 5c cc 3b
       0.0063410597 0.005821902 -0.0064127594 0.006236639
000060 d1 82 d7 3b f4 68 1a 3b a2 0e c8 3b 3b 96 ba bb
       0.006576874 0.0023561092 0.00610526 -0.0056941784
000070 ab ed cc 3b 16 b2 d0 3b 66 7f d4 bb 2b 9d e4 bb
       0.006253918 0.0063688857 -0.0064849136 -0.0069767437
000080 a0 6b c3 3b 32 e6 fe bb a0 f3 96 bb 57 51 af bb
       0.0059637576 -0.0077789063 -0.004606679 -0.0053502726
000090 be f2 94 bb ba ea c5 3b ce ef ce 3b 01 42 87 bb
       -0.0045455387 0.0060399445 0.006315208 -0.0041277413
0000a0 9a 80 d1 bb aa 43 8a b9 01 b4 08 3c 25 13 d9 bb
       -0.0063935043 -0.00026371825 0.0083436975 -0.0066245967
0000b0 20 49 f8 bb 70 e8 c8 bb ef 54 d0 bb b3 19 bd 3b
       -0.0075770766 -0.0061312243 -0.006357781 0.005770886
0000c0 22 89 a5 bb dc 4d 97 bb 00 14 8c 39 4e a3 03 bc
       -0.005051748 -0.004617436 0.00026717782 -0.00803454
0000d0 da b1 a1 bb 78 3a d5 3b 8c 74 d5 bb fc 8c ad bb
       -0.0049345316 0.006507214 -0.0065141376 -0.0052963477
0000e0 a9 99 ef bb 37 bb 04 bc a1 19 f5 3b 72 ac 9b bb
       -0.007312019 -0.008101276 0.007479862 -0.0047507817
0000f0 53 50 99 bb 0d c4 95 bb 78 1f d2 3b 68 a1 a3 bb
       -0.004678765 -0.00457049 0.006412443 -0.0049936064

bn1.running_var f4 [64]
000000 cb 37 d5 39 38 d0 ab 3a 54 e9 29 3a 87 78 07 3b
       0.00040668095 0.0013108319 0.0006481607 0.0020671205
000010 21 88 23 3b 18 e2 b6 3a aa ef 9a 3a d2 bf cd 3a
       0.0024952965 0.0013952879 0.0011820693 0.0015697426
000020 9b d3 b5 3a 4c 16 2c 3a a6 73 08 3b 22 fd 28 3b
       0.0013872267 0.0006564602 0.0020820885 0.0025785645
000030 be 63 19 3b 98 af bb 3a 7b 66 cb 3a 99 7b e1 3a
       0.0023405398 0.0014319299 0.0015518212 0.0017202973
000040 3c 5b c5 3a 68 33 92 3a 74 31 06 3a 05 dc cf 3a
       0.0015057097 0.0011154236 0.00051190634 0.0015858418
000050 f4 ed bf 3a 72 44 b4 3a d1 09 fa 3a ed fa d4 3a
       0.0014643059 0.0013753308 0.0019076412 0.0016249098
000060 6a 65 c9 3a d8 eb db 39 fc 64 bf 3a 39 79 a9 3a
       0.0015365307 0.00041946652 0.0014602239 0.0012929804
000070 5b 0c bd 3a 04 0e ea 3a 97 6d 16 3b d7 14 ed 3a
       0.0014423238 0.001785696 0.0022953504 0.0018087876
000080 ec 46 ca 3a 3f 62 2b 3b 86 6e 29 3a f3 b4 2b 3a
       0.0015432513 0.0026151089 0.00064633077 0.0006550096
000090 1a 2f 1f 3a 0c 32 be 3a bb 71 bb 3a 09 2b 30 3a
       0.00060723873 0.0014510765 0.0014300862 0.000672028
0000a0 e4 7c 01 3b 43 8a d7 39 71 9f 20 3b ca 29 09 3b
       0.0019758279 0.0004111101 0.0024509097 0.002092945
0000b0 8d 8e 24 3b 02 b1 e7 3a a9 3d 0e 3b 7c c0 b7 3a
       0.002510938 0.0017676654 0.0021704233 0.0014019157
0000c0 37 11 8b 3a b4 fb 24 3a be bc 6a 3a 7f 1a 27 3b
       0.0010609989 0.000629361 0.00089545164 0.002549797
0000d0 33 f6 24 3a 0f 8d c4 3a ad 0b e1 3a 98 c6 2d 3a
       0.000629279 0.0014995652 0.0017169617 0.0006629019
0000e0 55 55 07 3b 2f 5d 29 3b 44 45 14 3b 0e 43 29 3a
       0.0020650227 0.0025842895 0.0022624293 0.00064568303
0000f0 3f 2f 71 3a af 89 20 3a a3 ce db 3a 01 02 2a 3a
       0.00092004606 0.0006124032 0.0016769957 0.0006485284

fc2.weight f4 [32, 64]
000000 cf 27 da b9 37 cc 1a bc 55 84 71 3b 8a e1 cd 3b
       -0.0004160986 -0.009448103 0.0036852558 0.00628299
000010 34 40 79 3a 0c e5 0a bc 96 21 02 bc 40 ad 0e bc
       0.0009508163 -0.008477461 -0.007942578 -0.008708298
000020 74 d8 13 bc be 95 a5 bb 37 f6 53 bc 99 7f 49 b9
       -0.009023774 -0.005053251 -0.01293712 -0.00019216388
000030 ba 51 11 b9 27 18 18 bc 8d e6 18 bc c5 c7 04 bc
       -0.00013858723 -0.009283102 -0.009332311 -0.008104269
000040 8a 21 31 bc 03 73 c4 bb 86 25 04 bb 25 26 00 bc
       -0.010811219 -0.005995156 -0.0020163967 -0.007821594
000050 75 12 07 bc df d9 1e bc bb 36 7a bc 41 04 f4 bb
       -0.008244147 -0.009695499 -0.015271838 -0.007446796
000060 39 f7 32 bc b6 ae e4 bb ee b6 22 bc d2 6e 16 bc
       -0.0109232 -0.006978835 -0.009931309 -0.009181695
000070 49 80 0f bc 5e d8 89 ba 45 02 43 bc c1 b0 1e bc
       -0.008758613 -0.0010516753 -0.011902397 -0.009685696
000080 95 2c 0d bc 1a cd 41 3b a2 a9 d4 3a fb 46 85 3b
       -0.008616586 0.0029571713 0.0016224871 0.0040672994
000090 d5 4a 9b 3b de ba 04 bc 2c 94 f4 bb 4f 2f 84 3b
       0.0047391453 -0.008101193 -0.0074639525 0.00403396
0000a0 d1 ed 72 bc 2c f3 eb bb c9 29 9b 3b e3 0e 4f bc
       -0.014827208 -0.007200619 0.004735206 -0.012637827
0000b0 ae 11 b5 ba 69 fd 65 bc 9f d7 70 bc f6 12 d0 bb
       -0.0013814473 -0.0140374685 -0.014699846 -0.0063499166
0000c0 a7 7c d1 bb 86 42 96 39 76 b5 0f bc 46 04 3a 3b
       -0.0063930335 0.00028659793 -0.008771291 0.0028383895
0000d0 a7 a3 8c 3b b9 55 e0 bb 29 2a a1 3b f2 a4 92 3a
       0.00429197 -0.0068461564 0.004918356 0.0011188074
0000e0 68 e8 ed b9 db 25 92 3b 4e 27 66 3b aa 13 f3 3b
       -0.0004537732 0.004460079 0.0035118642 0.0074181156
0000f0 69 78 98 ba 01 ad 8a 3b c7 c9 ef bb cb c0 29 3b
       -0.0011632565 0.0042320495 -0.007317755 0.0025902267
000100 ba be 3d b9 3c f4 3f bc 1a 8b 8b 3b ec 1c 98 3b
       -0.00018095496 -0.011715945 0.0042585256 0.0046421196
000110 74 09 fc ba 29 d6 ff bb 8a 82 d2 bb 11 1b 0b bc
       -0.0019228891 -0.0078075123 -0.006424253 -0.00849034
000120 c8 01 1c bc d2 9d 13 bc 44 14 29 bc b2 09 d5 b9
       -0.009521909 -0.009009795 -0.010319773 -0.0004063375
000130 df e6 4b b9 3a 2e c7 bb b6 05 53 bc 22 89 2d bc
       -0.00019445595 -0.0060785087 -0.01287978 -0.010591777
000140 30 3c 2e bc 87 cc e5 bb 29 1b e2 ba 80 33 16 bc
       -0.010634467 -0.007012907 -0.0017250526 -0.009167552
000150 55 75 2f bc 2d 37 06 bc 9d 47 3f bc 96 41 d6 bb
       -0.0107091265 -0.008191866 -0.011674789 -0.00653858
000160 8d 2a e2 bb 3b eb c0 bb c0 c6 2a bc 28 3f 19 bc
       -0.006902045 -0.0058874167 -0.010423362 -0.0093534365
000170 12 e2 93 bb 6d 11 dd ba ff d0 19 bc dc 99 17 bc
       -0.0045130337 -0.0016866155 -0.009388207 -0.0092529915
000180 1c c9 0e bc f9 81 c8 3b b3 4f a8 3b 9d b8 8d 3b
       -0.00871494 0.0061190096 0.005136454 0.004324986
000190 53 96 e8 3b 9b 3f 08 bc 6a 86 1d bc b7 09 9c 3b
       0.007097998 -0.008315946 -0.009614566 0.0047619003
0001a0 e3 3b 60 bc 4d 5c 08 bc d0 34 d8 3b 48 a1 2c bc
       -0.013686153 -0.0083227875 0.0065980926 -0.010536499
0001b0 b5 b3 bb ba c3 43 64 bc 6a 60 52 bc c8 16 f4 bb
       -0.0014320525 -0.013932171 -0.01284037 -0.007449005
0001c0 81 d5 93 bb 47 c9 05 3a 0a 5a ad bb 83 45 b1 3b
       -0.0045115356 0.000510354 -0.0052902745 0.005409898
0001d0 a1 5b 8b 3a 13 ce 83 bb e9 8d 80 3b 4d 03 df 3b
       0.0010632166 -0.0040223687 0.003923167 0.0068058134
0001e0 66 94 75 ba 0d 8b ed 3b ca eb b1 3b 42 15 32 3b
       -0.00093681214 0.007249242 0.0054297196 0.0027173315
0001f0 c9 18 06 3a 01 ad be 3a 30 a1 f0 bb 98 a9 03 3b
       0.00051153876 0.0014547409 -0.007343434 0.00200901
000200 45 7a 97 bb fa 0e 24 bc b0 eb 16 3c c0 0e 58 3b
       -0.00462273 -0.010013336 0.009211466 0.0032967776
000210 f3 34 6c bb cc fb 05 bc 62 c0 16 bc bf 8b 1f bc
       -0.0036042302 -0.008177709 -0.009201141 -0.009737908
000220 e9 a8 33 bc 2b 65 af bb 91 40 97 bb e1 26 cd ba
       -0.010965564 -0.0053526363 -0.004615851 -0.0015651846
000230 2c 6d 00 bb f0 24 37 bb aa 1d 04 bc 25 18 fb bb
       -0.0019596322 -0.00279456 -0.008063713 -0.0076627904
000240 30 d9 19 bc f9 1b 04 bc a7 13 50 bb 65 b3 33 bc
       -0.00939016 -0.00806331 -0.0031749995 -0.010968064
000250 50 11 19 bc b2 b4 97 bb c1 a8 c9 bb 9a 5b 18 bc
       -0.0093425065 -0.004629695 -0.0061541502 -0.009299183
000260 8f ca 31 bc a3 f1 43 bb e9 9c c6 bb 3c 91 02 bc
       -0.010851516 -0.0029898665 -0.0060611856 -0.007969197
000270 b3 74 1f bc e8 cb 06 bb 55 14 c7 bb 23 3f ed bb
       -0.009732413 -0.0020568315 -0.006075422 -0.0072401925
000280 89 32 07 bc 58 69 e4 3a ff 5a 0f 3c 9a 9f de 3b
       -0.008251795 0.0017426414 0.0087497225 0.0067939283
000290 21 14 30 3c 96 54 f5 bb 70 0e 04 bc 00 c2 e4 3b
       0.010746987 -0.00748689 -0.008060083 0.0069811344
0002a0 6a df b5 bb b3 7b 19 bc 84 df 80 3b 5b e9 b9 bb
       -0.0055503147 -0.009367871 0.003932895 -0.00567357
0002b0 c9 1d 5c bb d2 c4 a4 bb 10 f2 d0 bb 2b c5 32 bc
       -0.003358709 -0.0050283456 -0.0063765123 -0.010911266
0002c0 f7 c6 0c bc ec b2 0b 3c e4 5c 0d bc 3b 29 b5 3b
       -0.008592359 0.008526545 -0.008628104 0.0055285967
0002d0 45 5b 42 3c d0 59 11 bc 6d e9 ba 3b 55 be 70 3c
       0.011862581 -0.008871511 0.005704096 0.014693816
0002e0 37 c6 b8 39 73 c8 b3 3b 93 cd 8d 3b e3 c9 a2 3b
       0.00035242896 0.005486542 0.004327485 0.0049679144
0002f0 72 b4 ea ba a4 2f 3d 3c 64 69 c4 bb ee ee f8 3b
       -0.001790656 0.011547003 -0.005994009 0.007596842
000300 55 1a ce bc 00 ba 11 ba fb 8d 3a bb a5 c4 95 bc
       -0.02515904 -0.0005559027 -0.0028465975 -0.018282244
000310 78 c5 b3 bc 56 64 3a ba c9 b2 fa ba bb ea d2 ba
       -0.021944746 -0.0007110288 -0.0019126768 -0.0016091684
000320 c5 11 e0 b7 3a b7 19 3c 0d eb cc 3a 83 82 c4 bc
       -2.6711155e-05 0.0093820635 0.0015634015 -0.023988014
000330 69 7e a5 bc 12 24 6d ba 67 d5 1b ba b3 54 c8 ba
       -0.020201879 -0.00090462074 -0.000594458 -0.0015284031
000340 8d 9f fe ba e8 2d 4e 3a ce 0c b2 bc 4e b4 b4 ba
       -0.0019426212 0.0007865117 -0.021734621 -0.0013786645
000350 09 56 e2 ba e7 a2 29 bb c5 f6 16 bb 28 66 2a bb
       -0.0017268072 -0.002588445 -0.002303527 -0.0026000831
000360 46 e3 7c ba 03 aa 70 3c b8 1c 80 b8 25 7c e8 b9
       -0.00096469035 0.014688971 -6.108865e-05 -0.00044342983
000370 0f 89 f0 ba 58 ee bc bc 82 48 8f ba 49 de 55 3a
       -0.0018351394 -0.02306287 -0.0010931643 0.0008158428
000380 42 9a 92 ba 6b 32 95 bc 36 8b dd bb a9 2f 36 bc
       -0.0011184888 -0.018212518 -0.00676098 -0.0111197615
000390 3e e3 15 bc 7b ed ac ba f1 19 c3 ba 55 be 21 bc
       -0.009148417 -0.0013193333 -0.001488505 -0.009872039
0003a0 6e a8 2f bb 4b 37 3d 3c d6 d7 86 bc 1b f0 20 bb
       -0.0026803273 0.011548827 -0.01646034 -0.0024557177
0003b0 1a 53 c2 bc 56 27 a4 ba 32 34 4a bb e8 5b 9b ba
       -0.023721267 -0.001252393 -0.0030853865 -0.0011852952
0003c0 cc 4b a1 ba ff 97 12 bc a7 ce 5f 3c 37 13 96 bc
       -0.0012305914 -0.0089473715 0.01366011 -0.01831971
0003d0 b9 fa 03 bc 28 0b 11 ba 31 d2 92 bc 5c cf d7 bb
       -0.008055382 -0.00055329734 -0.017922493 -0.0065859985
0003e0 8b cc a1 bc b4 62 a5 bc ec ec 90 bc d1 b4 1d bc
       -0.019750854 -0.020188667 -0.017691098 -0.0096256295
0003f0 f1 cc c0 bc d6 5c 38 bc 28 df 65 b9 ab 19 11 bc
       -0.023535224 -0.011252603 -0.00021922274 -0.008856217

fc2.bias f4 [32]
000000 0e 3f 53 37 61 b2 82 b6 55 10 02 37 ff 52 04 b8
       1.2591261e-05 -3.895068e-06 7.752406e-06 -3.154855e-05
000010 8c 27 a0 35 61 23 6b 37 a3 fc 7c 37 1f 3c 78 37
       1.1932439e-06 1.4015329e-05 1.5079192e-05 1.479595e-05
000020 06 02 67 b6 7c 11 56 37 51 9a 70 37 88 df 07 37
       -3.442286e-06 1.2759465e-05 1.4341044e-05 8.098672e-06
000030 6c 98 89 b6 1b c1 2c b6 62 a2 64 36 46 b8 ad 35
       -4.1006624e-06 -2.57424e-06 3.4069167e-06 1.2943135e-06
000040 3c e1 2b b7 ac 8a ac 37 76 49 05 36 fe 3b 46 b7
       -1.0244836e-05 2.0568572e-05 1.9861304e-06 -1.1815688e-05
000050 47 ec 49 36 da e7 38 b7 05 1d 73 37 ad 13 38 b8
       3.0088866e-06 -1.1021237e-05 1.4490685e-05 -4.3887343e-05
000060 2a 14 66 b7 ca ec 8a 36 d5 21 9e b7 e7 e1 28 b7
       -1.3713763e-05 4.1402864e-06 -1.8850822e-05 -1.0066177e-05
000070 ee 46 cf b6 cc d2 ba b7 cf b6 08 37 d0 88 07 36
       -6.177338e-06 -2.2271088e-05 8.148795e-06 2.0196203e-06

bn2.weight f4 [32]
000000 08 2d 8e 3d 2f 4f 8b 3d 64 c7 7d 3d 84 45 b9 3d
       0.06942183 0.068022124 0.06195773 0.09046462
000010 fe 55 8e 3d 6a 49 83 3d 1d 08 2d 3d 4c 22 8f 3d
       0.069499955 0.06410487 0.042244066 0.069889635
000020 51 13 bb bd 28 70 8a 3d 56 af 8b 3d 66 c2 25 bd
       -0.09134544 0.06759673 0.06820552 -0.040468596
000030 0a f9 8c 3d 8b 93 28 bd 1f 64 25 3d b0 25 7e 3d
       0.06883438 -0.041156333 0.040378686 0.06204766
000040 62 57 8a 3d 6b ea 8a 3d b3 7e 8e 3d f3 41 88 3d
       0.06754948 0.06782993 0.0695776 0.06653204
000050 30 3e 23 3d 4b 3e 8b 3d 0b e7 89 3d 05 af b8 3d
       0.03985423 0.06798991 0.06733521 0.09017757
000060 75 9e ba 3d 17 fb 29 3d 6b d2 8b 3d c8 37 ba bd
       0.091122545 0.041499224 0.068272434 -0.09092671
000070 1e 47 73 3d ab 4d 7a 3d 62 2d 8b 3d bf ca 8b 3d
       0.059393995 0.061109226 0.067957655 0.0682578

bn2.bias f4 [32]
000000 23 85 f4 bc c1 4f e6 bc d5 f5 c7 bc 4c 05 08 bd
       -0.02984864 -0.028114202 -0.024409214 -0.033208176
000010 b2 8f e8 bc 78 86 da bc 01 20 02 3c 25 33 e0 bc
       -0.028388832 -0.026675448 0.007942201 -0.027368138
000020 e0 5b 07 bd 79 5a f1 bc 0b 46 e9 bc f7 96 03 3c
       -0.033046603 -0.029462086 -0.028475782 0.008031598
000030 6f 26 e3 bc 05 c3 e8 3b c9 3d e6 3b f9 05 c1 bc
       -0.027728288 0.0071033263 0.0070264083 -0.023562418
000040 ca bf eb bc 6b d2 f8 bc a6 e5 ed bc 5b 58 e7 bc
       -0.028777976 -0.030373773 -0.029040169 -0.028240373
000050 5f 8b 0d 3c 72 f1 e4 bc 76 2b ee bc 64 fd 0c bd
       0.008639186 -0.027947161 -0.029073458 -0.03442134
000060 a4 2c 0d bd c5 5b 0c 3c 71 43 e7 bc ce 19 08 bd
       -0.0344664 0.008566801 -0.0282304 -0.033227734
000070 68 ef aa bc 5a 34 bf bc f0 b2 f1 bc ad cb e7 bc
       -0.02086611 -0.023340393 -0.02950427 -0.028295362

bn2.running_mean f4 [32]
000000 a0 76 5e bb 7b 64 52 bb ab 9f 51 bb b7 2e 65 bb
       -0.0033945218 -0.0032103348 -0.0031986039 -0.0034970471
000010 d2 66 3e bb fd c1 49 bb eb e5 57 3b 90 a4 2e bb
       -0.0029052985 -0.0030785792 0.0032943438 -0.002664838
000020 92 c2 5a 3b b4 3f 48 bb 2c ef 44 bb bb 89 53 bb
       0.0033380133 -0.0030555548 -0.0030049784 -0.0032278139
000030 69 c3 53 bb 56 fd 5f bb 63 98 5c 3b 8f 7a 33 bb
       -0.0032312518 -0.00341781 0.0033660165 -0.0027386283
000040 9a 01 40 bb 86 72 43 bb b2 3c 46 bb 79 ed 3b bb
       -0.002929783 -0.00298229 -0.003024858 -0.002867548
000050 e7 0e 58 3b 82 0c 5a bb f2 09 40 bb 94 b8 63 bb
       0.0032967867 -0.0033271615 -0.0029302803 -0.0034747468
000060 55 ca 59 bb 16 8a 4e 3b 2d cf 49 bb 8c 53 52 3b
       -0.0033232172 0.003151541 -0.0030793652 0.0032093255
000070 6b dd 47 bb dc ac 3f bb 44 f6 43 bb 78 d5 45 bb
       -0.0030496966 -0.002924732 -0.0029901424 -0.0030187052

bn2.running_var f4 [32]
000000 38 13 50 37 9c 0e 37 37 90 f9 5a 37 1e 39 a2 37
       1.2402241e-05 1.09110515e-05 1.3051918e-05 1.9338502e-05
000010 1e cc 17 37 da a0 39 37 25 2a 86 37 bf 5f 08 37
       9.047826e-06 1.10643105e-05 1.599367e-05 8.128524e-06
000020 f5 3e 9c 37 c2 8b 33 37 8e 12 25 37 5a 95 7b 37
       1.8625966e-05 1.0701771e-05 9.8390865e-06 1.49955395e-05
000030 06 75 3e 37 90 9f 7d 37 75 8f 7b 37 21 54 29 37
       1.1352129e-05 1.5117126e-05 1.4994167e-05 1.0092773e-05
000040 d4 39 22 37 32 29 1b 37 11 cc 2b 37 23 8c 23 37
       9.669417e-06 9.2483115e-06 1.0239907e-05 9.748185e-06
000050 a2 41 7e 37 84 f9 4a 37 64 84 1f 37 84 95 98 37
       1.5154861e-05 1.2098233e-05 9.507963e-06 1.8189436e-05
000060 97 fe 94 37 6c 64 7b 37 f0 6c 36 37 78 da 99 37
       1.7761527e-05 1.4984147e-05 1.0873409e-05 1.8340754e-05
000070 52 7e 5d 37 5d b2 40 37 e0 9e 1b 37 43 c7 1e 37
       1.3202038e-05 1.148562e-05 9.275711e-06 9.463928e-06

fc3.weight f4 [16, 32]
000000 6a 56 98 3c 03 ab 8e 3c 7a 8c 78 3c 71 c9 ac bc
       0.018595893 0.01741553 0.015170211 -0.021092148
000010 1e 27 cd 3c a6 be a8 3c ce e9 9a 3b f0 74 83 3c
       0.025043067 0.02059872 0.0047275787 0.016046971
000020 ef 80 94 bc 45 8a a9 3c 73 6f a4 3c 4b af b2 3b
       -0.018127887 0.020695815 0.020072674 0.0054530255
000030 c2 5a 9a 3c 79 50 e8 3a 2d f2 cc 3a bb 46 af 3c
       0.018842105 0.0017724178 0.0015636139 0.021396032
000040 1c 1c 9b 3c 2d 26 8e 3c c1 84 9b 3c 1f 5a 9f 3c
       0.018934302 0.017352188 0.0189842 0.019452153
000050 81 a8 cc 3b 97 5a 9e 3c e6 6e a1 3c 1d 36 b5 bc
       0.006245673 0.019330306 0.0197062 -0.02212053
000060 fc 3b c0 bc 08 6f e0 3a 78 1a 9c 3c 44 4a ae bc
       -0.023466103 0.0017122934 0.01905559 -0.021275647
000070 ae 1a 5b 3c f1 46 4f 3c cf f2 95 3c 60 33 b8 3c
       0.01337306 0.012651191 0.018304257 0.022485435
000080 0c 3f 84 bc b6 05 71 bc 5c 12 3b bc 09 4c 18 3d
       -0.016143344 -0.014710834 -0.011417951 0.037181888
000090 9f 5a 20 bc f9 76 5e bc ff a3 87 bc 34 36 57 bc
       -0.009787231 -0.01357817 -0.016557692 -0.013135482
0000a0 11 01 14 3d 2e d2 6b bc ba af 88 bc c5 37 90 bc
       0.03613383 -0.014393372 -0.016685355 -0.017604718
0000b0 d3 67 7f bc d7 77 8b bc 33 db 97 bc 64 81 59 bc
       -0.0155887185 -0.017024918 -0.01853714 -0.013275478
0000c0 d3 96 7c bc 4c 27 96 bc 89 8b 4c bc be 0b 85 bc
       -0.015416819 -0.018329285 -0.01248444 -0.01624095
0000d0 a1 f1 86 bc bc 34 60 bc 14 b7 73 bc d4 bc 1b 3d
       -0.01647264 -0.013684448 -0.014875192 0.038021877
0000e0 e7 c0 1b 3d e7 81 8d bc 1e 2a 62 bc d8 77 18 3d
       0.038025763 -0.017273856 -0.013803987 0.037223667
0000f0 e4 a0 55 bc 4f e0 64 bc 4f ca 67 bc ef 54 63 bc
       -0.013038848 -0.013969495 -0.014147355 -0.01387523
000100 40 15 7d bc c7 c0 66 bc 81 72 41 bc b8 b6 1b 3d
       -0.015446961 -0.014084048 -0.011807085 0.03801605
000110 e3 b1 66 bc 21 d6 7f bc f4 6a 8c bc 90 82 3e bc
       -0.014080497 -0.015615017 -0.017140843 -0.011627808
000120 40 fd 17 3d 86 7a 44 bc 67 f2 70 bc 66 19 9d bc
       0.037106752 -0.0119921025 -0.014706231 -0.01917715
000130 da e9 88 bc 0b cd 90 bc 5e 62 8a bc 19 0f 46 bc
       -0.016713072 -0.017675897 -0.016892608 -0.0120885605
000140 f9 be 85 bc 56 b0 88 bc b6 2f 8d bc 69 98 45 bc
       -0.016326414 -0.016685646 -0.017234664 -0.012060263
000150 ae fd 8a bc 31 13 56 bc c2 60 74 bc 1b b6 19 3d
       -0.016966667 -0.013066099 -0.014915647 0.037527185
000160 33 17 11 3d 35 3a 8d bc cc bb 3b bc c6 ba 15 3d
       0.035422515 -0.01723967 -0.0114583485 0.036555074
000170 08 75 83 bc 09 4d 81 bc 90 8a 8c bc 73 4c 7f bc
       -0.016047016 -0.015783804 -0.017155915 -0.015582192
000180 c4 73 ae 3c d7 d8 8a 3c d7 38 95 3c d5 b7 b4 bc
       0.021295436 0.0169491 0.01821558 -0.022060314
000190 ad d0 b8 3c 14 1b ae 3c dc bc 7b 3b 38 2e a2 3c
       0.022560442 0.021253146 0.003841213 0.01979743
0001a0 35 b6 94 bc a6 48 ba 3c 13 e3 d0 3c 15 12 06 39
       -0.01815329 0.02273972 0.025498902 0.00012785972
0001b0 f3 27 95 3c 8f 68 49 3b d7 ff 7b 3b fb 22 91 3c
       0.018207526 0.0030732488 0.0038452053 0.017716875
0001c0 1e 1b b5 3c 36 6e 99 3c 85 e6 b1 3c ef d5 9a 3c
       0.022107657 0.01872931 0.021716366 0.01890084
0001d0 16 8a b3 3a 65 52 ac 3c c2 01 a0 3c 88 1d b9 bc
       0.0013697769 0.021035383 0.019532088 -0.02259709
0001e0 b6 c9 a7 bc 63 97 44 3b f7 12 a6 3c 3e 34 b3 bc
       -0.020481925 0.002999746 0.020272715 -0.021875497
0001f0 75 92 8e 3c e3 cf 0e 3c 35 88 95 3c b2 9f 9a 3c
       0.01740382 0.008716556 0.018253425 0.018874977
000200 05 94 c0 3c 2a cd a0 3c 9e 65 89 3c 9c 8c 97 bc
       0.023508081 0.01962908 0.016772088 -0.018499665
000210 e7 ea aa 3c 15 99 97 3c 10 a9 8e 39 8e dd b8 3c
       0.020863963 0.018505612 0.00027210312 0.022566583
000220 c7 9e aa bc 38 0a b4 3c 31 f5 a5 3c d8 63 2b 3a
       -0.020827664 0.021977529 0.020258518 0.000653801
000230 81 9b b6 3c 23 d8 f0 3a 2f 54 fa 3a b0 c0 a5 3c
       0.022290947 0.0018374961 0.0019098575 0.020233482
000240 71 82 a1 3c 2f ab c0 3c 0e fb ac 3c b9 4a a3 3c
       0.01971552 0.023519127 0.021115806 0.019933091
000250 16 96 81 3b 09 5f a6 3c f8 26 8b 3c 6a bc 94 bc
       0.003954659 0.020308988 0.016986355 -0.01815625
000260 d7 c8 97 bc 7a 73 01 3b ff eb 9f 3c cb bf 91 bc
       -0.018528385 0.0019752667 0.019521711 -0.01779165
000270 ec d5 b0 3c 9e 3f 23 3c 41 dc b7 3c f9 35 a3 3c
       0.02158638 0.009963898 0.022443892 0.019923197
000280 2b 52 c3 3c e9 10 a4 3c be b9 b3 3c 47 83 ef bb
       0.023842892 0.020027595 0.021939155 -0.0073093507
000290 69 7f dc 3c 47 c2 93 3c 9f a8 b8 ba 51 3f d6 3c
       0.026916223 0.018036975 -0.0014088339 0.026153238
0002a0 e9 e3 ff bb 7f 7c cf 3c 71 b1 98 3c 01 06 90 3a
       -0.0078091514 0.025327919 0.018639298 0.0010988117
0002b0 b7 d7 c5 3c 64 33 e0 b9 d0 a3 2d 39 a1 49 bb 3c
       0.024150712 -0.00042762898 0.0001655959 0.022862257
0002c0 2c f8 b4 3c 63 3f 97 3c c6 73 e4 3c 6b e9 cf 3c
       0.022090994 0.018462842 0.027887236 0.025379857
0002d0 63 c6 3f ba 77 94 ac 3c 34 d2 b0 3c 65 34 fd bb
       -0.00073156337 0.021066887 0.021584608 -0.007727193
0002e0 c0 de d6 bb 63 57 2e ba c8 f3 bf 3c df d5 14 bc
       -0.0065573156 -0.0006650595 0.023431674 -0.009084194
0002f0 e8 02 93 3c 20 f6 ac 3c 56 b5 b3 3c e6 39 d7 3c
       0.017945722 0.021113455 0.021937054 0.026272725
000300 02 f5 ce 3c 36 ca 6d 3c 46 b1 95 3c 27 c5 a1 bc
       0.025263313 0.014513543 0.018273007 -0.01974733
000310 ce 34 ad 3c 56 86 aa 3c 7d a2 5f 3b 9d 4c b1 3c
       0.021143343 0.02081601 0.003412395 0.021642977
000320 bb f8 94 bc e7 9f d0 3c 0a 07 a8 3c 2c 27 86 3a
       -0.01818501 0.025466872 0.020511169 0.0010235063
000330 7c ab b4 3c 9d 21 a1 3b dc 06 0d 3a 19 5b 99 3c
       0.022054426 0.004917337 0.0005379745 0.018720197
000340 f5 27 b6 3c a7 cb 87 3c b8 50 c8 3c ef 8a a0 3c
       0.02223585 0.016576601 0.024452552 0.019597499
000350 47 0f 83 ba 8b 9e b4 3c 6e 5b a9 3c bb 23 9f bc
       -0.000999906 0.022048255 0.02067348 -0.019426217
000360 24 35 95 bc ce 73 f1 3b 64 bd 6d 3c 2e 47 97 bc
       -0.018213816 0.0073685413 0.014510486 -0.018466558
000370 94 38 46 3c a5 cc 37 3c 8c 92 b8 3c f9 5e 9b 3c
       0.01209845 0.011218225 0.022530816 0.018966185
000380 1f 8b 96 bc 85 5f 54 bc 48 64 4f bc 43 a1 0a 3d
       -0.018376885 -0.012962227 -0.012658186 0.033845197
000390 43 12 6f bc d7 ee 73 bc 49 0a a3 bc 03 af 65 bc
       -0.014591756 -0.014888487 -0.019902365 -0.014018777
0003a0 83 2c 0b 3d 6f 27 7c bc 18 25 88 bc 9e 60 96 bc
       0.033977997 -0.015390261 -0.01661925 -0.018356618
0003b0 e2 6c 6f bc f7 b9 8f bc 2f 2e 91 bc 86 34 57 bc
       -0.014613362 -0.01754473 -0.017722217 -0.013135081
0003c0 f1 12 86 bc cf d8 89 bc 68 f1 7a bc f2 05 77 bc
       -0.016366454 -0.016827015 -0.015316345 -0.015077101
0003d0 8b 2a 96 bc 89 fc 68 bc 34 a6 93 bc d6 e6 0f 3d
       -0.018330833 -0.014220365 -0.018023588 0.03513225
0003e0 2f 91 10 3d df b8 9b bc 76 93 7f bc 1c 8e 1b 3d
       0.035294708 -0.019009052 -0.015599122 0.037977323
0003f0 14 ef 7e bc c2 2b 5d bc c8 34 78 bc b7 d5 8f bc
       -0.01555993 -0.013499202 -0.015149303 -0.017557962

fc3.bias f4 [16]
000000 74 80 40 36 24 fb 1d 37 94 8d 8c b6 e7 6e f8 36
       2.8685e-06 9.4164025e-06 -4.188807e-06 7.4038867e-06
000010 72 da db 35 02 07 38 35 1d 7d 56 37 0f 71 d3 b7
       1.6380347e-06 6.855554e-07 1.2784524e-05 -2.5205807e-05
000020 f0 ce 24 37 39 eb 48 b7 37 8b 48 b4 f5 f9 17 b7
       9.823343e-06 -1.1975696e-05 -1.8677098e-07 -9.058499e-06
000030 03 27 84 b6 93 23 99 b7 63 7a c2 b6 26 86 ee b6
       -3.938448e-06 -1.8255587e-05 -5.7958982e-06 -7.1085697e-06

bn3.weight f4 [16]
000000 67 a2 3c 3e e9 0a 87 3e 5f 6a 86 3e f2 9d 40 3e
       0.18421327 0.2637551 0.2625303 0.18810251
000010 b8 1f 3e 3e 45 4d 4c 3e 56 0a 40 3e 4f c8 85 3e
       0.18566787 0.19951351 0.18753943 0.26129386
000020 d3 62 86 3e 14 8c 86 3e 40 fc 50 3e 7b c7 3e 3e
       0.26247272 0.26278746 0.20408726 0.18630783
000030 43 81 86 3e e2 a3 86 3e 95 9e 39 3e 52 d2 3c 3e
       0.26270494 0.26296908 0.181269 0.18439606

bn3.bias f4 [16]
000000 bd 37 be 3d 35 17 5a 3d a0 e1 55 3d 2e 6a b9 3d
       0.09287975 0.05324479 0.052217126 0.09053455
000010 7c 67 ba 3d 2c 24 91 3d 00 dc b5 3d ba 37 5a 3d
       0.09101769 0.07086977 0.08879852 0.0532758
000020 d4 61 54 3d 91 49 54 3d 84 b0 93 3d b0 24 bc 3d
       0.05185111 0.05182797 0.07211402 0.09186685
000030 65 6d 55 3d c6 3b 53 3d 57 93 bb 3d 75 1a b9 3d
       0.05210628 0.051570676 0.09158962 0.090382494

bn3.running_mean f4 [16]
000000 47 4e c0 3a 0d f8 d3 ba 58 1f df ba 3c 75 bb 3a
       0.0014671766 -0.0016171947 -0.0017022891 0.0014301906
000010 98 22 c8 3a 69 5f 03 3b 3e fe c4 3a c8 e7 f8 ba
       0.0015269099 0.0020045883 0.0015029383 -0.0018989975
000020 97 ec dd ba 43 d6 d4 ba b3 29 0d 3b 6e 6f c3 3a
       -0.0016931471 -0.0016238171 0.0021539747 0.0014910528
000030 81 98 e7 ba f8 43 c8 ba a3 09 c0 3a eb 37 bc 3a
       -0.0017669351 -0.0015279045 0.001465131 0.0014359927

bn3.running_var f4 [16]
000000 a9 05 9e 37 cf 30 e9 37 cd 0a ed 37 97 8d a8 37
       1.8837703e-05 2.7798493e-05 2.8257631e-05 2.0093094e-05
000010 e0 13 af 37 3e 77 c5 37 a2 e4 a6 37 7e b3 f4 37
       2.087088e-05 2.3539757e-05 1.9895208e-05 2.917065e-05
000020 8e d8 e8 37 7b c8 e7 37 cc 90 cf 37 d9 db 9d 37
       2.7757396e-05 2.7630702e-05 2.474375e-05 1.8818233e-05
000030 0f 75 ea 37 c1 a9 de 37 ec 76 9b 37 aa 1e 9f 37
       2.7949483e-05 2.654351e-05 1.8532817e-05 1.8968556e-05

fc4.weight f4 [1, 16]
000000 b8 db 52 3e 72 a7 89 be 49 e3 88 be f6 d1 54 3e
       0.20591629 -0.26885563 -0.26735905 0.20783219
000010 01 0e 53 3e e2 bb 58 3e 1b 3c 53 3e 7f 68 88 be
       0.20610811 0.21165422 0.20628397 -0.26642224
000020 9f e7 88 be 1a 0a 89 be 20 8b 5d 3e 2f 47 54 3e
       -0.26739213 -0.2676552 0.21635103 0.2073028
000030 36 0d 89 be 6b 3a 89 be d4 9e 4f 3e 66 8b 51 3e
       -0.26767892 -0.26802382 0.20275432 0.20463333
