models/big_model.pth (torch, 23303 bytes, 19 tensors)

fc1.weight f4 [64, 14]
0	0xbb860903	-0.0040904297
1	0x3cc3b133	0.023888206
2	0x3c9401db	0.018067291
3	0x3c9f2f08	0.019431606
4	0x3cea7063	0.028618043
5	0xbb07faf8	-0.0020748954
6	0x3c59168f	0.013250007
7	0x3b6803b3	0.0035402596
8	0x3b2b60fa	0.0026150332
9	0x3b4f67bd	0.0031647526
10	0xbc9d58ab	-0.01920732
11	0x3c1166ba	0.00887459
12	0x3b29e9ec	0.0025926782
13	0xba36e05a	-0.000697618
14	0xbb2c38cf	-0.0026278978
15	0x3cd5f098	0.0261157
16	0x3cedd167	0.029030515
17	0x3ca8531f	0.020547448
18	0x3ce7acdd	0.02828067
19	0xbba771bb	-0.0051099933
20	0x3c3f593d	0.011678991
21	0x3bdac1c1	0.0066759293
22	0xbae31a97	-0.001732665
23	0x3b7c9357	0.003853997
24	0x3cc72f42	0.024314526
25	0xbc8d242f	-0.017229168
26	0x3b0b7913	0.0021281883
27	0x3bb69ae6	0.0055726646
28	0xbc642585	-0.013924961
29	0x3ce6149e	0.028086003
30	0x3cc2f0de	0.023796495
31	0x3cd58b5d	0.02606743
32	0x3d26b5c9	0.040700708
33	0xbbbdf8ce	-0.005797482
34	0x3c42e97e	0.011896489
35	0xba82738a	-0.0009952646
36	0xba23ac62	-0.00062436436
37	0xbaf370db	-0.0018573062
38	0x3b13bea1	0.0022544044
39	0x3a7d3cc2	0.00096602377
40	0xb9c799b8	-0.00038070767
41	0x3ae211aa	0.0017247696
42	0x3b8fa668	0.004383851
43	0x3c9ccab1	0.01913962
44	0x3ce16d2c	0.027517878
45	0x3ce11b9a	0.027478982
46	0x3d04272a	0.032263912
47	0xbc17e53c	-0.009270962
48	0x3c21c769	0.009874203
49	0xbb7bdbb7	-0.003843052
50	0xbb89a15d	-0.004200144
51	0x3b35ff18	0.0027770456
52	0x3c0513ea	0.008122424
53	0xbc9212f8	-0.01783131
54	0x3c47f1d7	0.012203655
55	0xbade04ec	-0.0016938723
56	0x3c1b4835	0.009477665
57	0x3cad94a2	0.021189038
58	0x3cac04ce	0.020998385
59	0x3c9ab5fa	0.018885601
60	0x3d000af7	0.031260457
61	0xbc664f76	-0.014057031
62	0x3bba60bd	0.0056878016
63	0xbb6968b9	-0.0035615398
64	0xbb0c6f8d	-0.0021428794
65	0xba98ebd7	-0.0011666965
66	0xbcfc7337	-0.030816657
67	0x3ccae1b2	0.024765823
68	0xba07ac8d	-0.00051755534
69	0x3c1666ff	0.00917983
70	0x3bebae09	0.0071923775
71	0x3cddbe05	0.027068147
72	0x3cb0c09f	0.021576224
73	0x3ccc4b5f	0.024938283
74	0x3d1efcfe	0.03881549
75	0xb83cc414	-4.5005305e-05
76	0x3c815b0d	0.015790487
77	0xbc24258a	-0.010018716
78	0x39f243a2	0.00046208227
79	0x3a5bd4d9	0.0008385904
80	0x3c06ea2f	0.008234545
81	0xbc254625	-0.010087525
82	0xb9143d1d	-0.00014137146
83	0x3b7b3f87	0.0038337426
84	0x3bb613e9	0.0055565727
85	0x3cc80308	0.024415508
86	0x3cf26a18	0.029591605
87	0x3d0a48c3	0.033760797
88	0x3d31af11	0.043379847
89	0xbb3aec2c	-0.0028522117
90	0x3c83dee7	0.016097499
91	0x3a659052	0.0008757162
92	0xbbdf419f	-0.0068132426
93	0xbbbec1e3	-0.005821453
94	0x3bbd2744	0.005772503
95	0xbc32f8d3	-0.010923582
96	0x3baed5c9	0.005335544
97	0x39779aa6	0.00023613367
98	0x3b74f308	0.0037376303
99	0x3cc58790	0.024112493
100	0x3cadf02e	0.02123269
101	0x3ce46c16	0.02788357
102	0x3d188a4f	0.037241276
103	0xbc1cf1a1	-0.009579093
104	0x3c24b745	0.0100534605
105	0x3a791658	0.00095019257
106	0x3829efca	4.051606e-05
107	0xbba49573	-0.0050226985
108	0xbc306f78	-0.010768764
109	0x3b5db9ca	0.0033832663
110	0x3c0044a0	0.0078288615
111	0xbb93fcda	-0.0045162262
112	0x39672345	0.00022043016
113	0xbc7832f0	-0.015148863
114	0xbbcaf710	-0.006194003
115	0xbbe99968	-0.007128883
116	0xbc871f64	-0.01649446
117	0xba37e088	-0.0007014354
118	0xbc312ef6	-0.010814419
119	0xbaac2049	-0.001313218
120	0xbbdc0766	-0.006714749
121	0x39358d29	0.00017314091
122	0xbbcea62c	-0.0063064303
123	0x3b669e04	0.00351894
124	0xbc031d4d	-0.008002591
125	0xbb970cec	-0.0046096947
126	0x3b4f63c8	0.0031645168
127	0x3cc41fe1	0.023940982
128	0x3cbf771b	0.023372224
129	0x3cca36f2	0.024684403
130	0x3d168c92	0.036755152
131	0xbbafed96	-0.0053688986
132	0x3c020737	0.00793629
133	0xba3d6299	-0.000722447
134	0x3988d661	0.00026099666
135	0x3aa80826	0.0012819811
136	0x3c9528ba	0.018207897
137	0xbbaf35db	-0.0053469962
138	0xbb9493c6	-0.0045342175
139	0xbb9d063e	-0.004792004
140	0x3bf7956e	0.007555655
141	0x3c3feac6	0.011713689
142	0x3c1c161e	0.0095267575
143	0x3c43da97	0.011953971
144	0x3c999c2e	0.01875123
145	0x3c1bfdfd	0.009521005
146	0x3c595409	0.013264664
147	0xba7618c7	-0.00093878474
148	0xbaac710e	-0.0013156252
149	0xbb20d680	-0.0024541914
150	0x3bd5dda0	0.006526664
151	0xbb9a20ce	-0.0047036177
152	0xbbf4ffe7	-0.007476795
153	0x3b93289b	0.0044909245
154	0xbb2dbd5f	-0.002651058
155	0x3c93c21d	0.018036896
156	0x3cb61be2	0.022230092
157	0x3cc6dc71	0.024275037
158	0x3cec44f6	0.028841477
159	0x3b229a30	0.0024811141
160	0x3c2d12dc	0.010563578
161	0x3b0e3844	0.0021701017
162	0xb95a4f95	-0.00020819747
163	0x3aff7b62	0.0019491727
164	0x3d252fa9	0.040328655
165	0xbcb4a67c	-0.022052042
166	0x370e87b9	8.49546e-06
167	0x396c2de0	0.00022523804
168	0x3a1d4737	0.00059996865
169	0x3c9514bc	0.018198363
170	0x3ce67dd6	0.028136175
171	0x3cd03dff	0.025420187
172	0x3d2db98e	0.042413287
173	0x3b95302e	0.0045528626
174	0x3c523ea6	0.012832319
175	0xbb00be73	-0.0019644767
176	0xbc11c841	-0.008897842
177	0x3a8eeadf	0.0010903737
178	0x3bfd306e	0.0077267205
179	0xbbb536e9	-0.0055302274
180	0x3aa812f0	0.0012823027
181	0x3b9d8ce9	0.0048080576
182	0x3ab04c5a	0.0013450489
183	0x3c42ef74	0.01189791
184	0x3cdb2575	0.02675126
185	0x3d02e2dd	0.031954635
186	0x3d41043c	0.04712318
187	0x3b3c27ca	0.002871024
188	0x3b6ab3f9	0.0035812838
189	0xba9bc224	-0.001188342
190	0xbc05dc0e	-0.008170141
191	0xbb393e9a	-0.0028266073
192	0xbc19738e	-0.009365929
193	0x3b0999d0	0.002099622
194	0xbb2dfca1	-0.0026548284
195	0x3b67482b	0.0035290818
196	0x388c2b08	6.6837354e-05
197	0x3c841931	0.016125293
198	0x3ced3ba7	0.028959109
199	0x3cabf67c	0.020991556
200	0x3cdb6990	0.026783735
201	0xbb8f8108	-0.0043793954
202	0x3c0ba5e4	0.008523438
203	0xbb0c1d00	-0.002137959
204	0xbbb5fe32	-0.005553984
205	0x3bf43584	0.0074526686
206	0x3c8f3e17	0.017485661
207	0xbcccd2d2	-0.02500287
208	0xbb412a7d	-0.0029474788
209	0xba70647a	-0.00091702456
210	0xba92237a	-0.0011149489
211	0x3c9ccda0	0.019141018
212	0x3cbc47ea	0.02298351
213	0x3ca3d962	0.020001117
214	0x3cfd50a4	0.030922242
215	0xbc007dc6	-0.007842487
216	0x3a64ba45	0.0008725266
217	0x3be775c7	0.0070636007
218	0xbb53ab3a	-0.0032298104
219	0x3b5816bf	0.0032972542
220	0x3d1484d1	0.036259476
221	0xbcae566a	-0.02128144
222	0xbb623742	-0.00345178
223	0x3b85b3cf	0.0040802727
224	0x3a8cb575	0.0010735231
225	0x3cd8de02	0.02647305
226	0x3cab34f0	0.020899266
227	0x3cd0982d	0.025463188
228	0x3ce73a0d	0.028225923
229	0xbb782b72	-0.0037867692
230	0x3c8b75ef	0.017024009
231	0x3b90e94c	0.0044223424
232	0xbad6c0ba	-0.0016384341
233	0xbb667ab0	-0.0035168342
234	0x3c7e9f34	0.015540887
235	0xbc63b278	-0.013897531
236	0xbb3ce2ca	-0.00288217
237	0xbbdc7a94	-0.0067284796
238	0xbb12cbcf	-0.0022399311
239	0x3c96a91c	0.018391185
240	0x3cc967d5	0.024585644
241	0x3cd081f6	0.025452595
242	0x3ccdddd9	0.0251302
243	0xbc245e05	-0.010032182
244	0x3bbd8a1f	0.0057842876
245	0xbbac5d03	-0.0052601113
246	0xbb8eae97	-0.004354309
247	0xbae0d04a	-0.0017151919
248	0x3cd45478	0.025919184
249	0xbca626e7	-0.020282222
250	0x3c397705	0.01131988
251	0x3ab8e007	0.0014104851
252	0x335e3920	5.1740358e-08
253	0xb40ee846	-1.3309281e-07
254	0x33b06b78	8.215187e-08
255	0x347844f1	2.312188e-07

fc1.bias f4 [64]
0	0xb5456db0	-7.3547835e-07
1	0x356795e4	8.6272325e-07
2	0x3554622b	7.911901e-07
3	0x3704eafd	7.922526e-06
4	0x3411eef0	1.3591102e-07
5	0xb5b86d7f	-1.3740936e-06
6	0xb6cdd8b6	-6.1347046e-06
7	0x34edd658	4.4300646e-07
8	0xb30a18f8	-3.2153338e-08
9	0xb6e8da24	-6.9395337e-06
10	0xb442af06	-1.8131331e-07
11	0x3582a3cb	9.733425e-07
12	0xb7cad918	-2.4181369e-05
13	0xb4b97cc0	-3.4549703e-07
14	0xb67989da	-3.7184132e-06
15	0x3514eb93	5.54771e-07
16	0xb62ccc2c	-2.574884e-06
17	0xb79a1bbf	-1.837115e-05
18	0xb49827fa	-2.8341293e-07
19	0x341e9240	1.4768102e-07
20	0x348bac9c	2.6016357e-07
21	0x36156ae0	2.226494e-06
22	0xb6f8ffa2	-7.4207355e-06
23	0xb51ec154	-5.9140916e-07
24	0xb58da712	-1.0553943e-06
25	0x331e5c58	3.6871228e-08
26	0x34010a38	1.2017779e-07
27	0x355c4ad1	8.206526e-07
28	0xb6e4d4c6	-6.8196996e-06
29	0x35578279	8.0283604e-07
30	0xb45f53e5	-2.0799014e-07
31	0xb55a07fc	-8.122295e-07
32	0xb5cb59f3	-1.5150857e-06
33	0xb8118d20	-3.4702127e-05
34	0x363ee2f8	2.844432e-06
35	0x35054be8	4.965682e-07
36	0x3817c0b2	3.6180667e-05
37	0x3529205a	6.3004484e-07
38	0xb57e320a	-9.469519e-07
39	0x32f4b260	2.8486454e-08
40	0x366a3906	3.490191e-06
41	0xb61b68f8	-2.31579e-06
42	0x363dada0	2.8264258e-06
43	0xb62f0e3b	-2.6085315e-06
44	0x3644925e	2.9291473e-06
45	0x36bb4a08	5.5816527e-06
46	0xb5d7edc6	-1.608795e-06
47	0xb519203e	-5.704386e-07
48	0xb76ffb25	-1.4303984e-05
49	0x355c62ba	8.210005e-07
50	0xb30ec760	-3.3243282e-08
51	0xb5887c5c	-1.0168983e-06
52	0xb51ea222	-5.909552e-07
53	0xb3ff7226	-1.1895126e-07
54	0x35b11022	1.3192223e-06
55	0x35bdc222	1.4138097e-06
56	0x35766caf	9.1800297e-07
57	0xb504878a	-4.937107e-07
58	0xb57cb3be	-9.4138875e-07
59	0x358004a0	9.538089e-07
60	0x34e3bf44	4.242121e-07
61	0x352ec3b7	6.5104854e-07
62	0x368a8324	4.1279873e-06
63	0xb5c7dbfa	-1.4890677e-06

bn1.weight f4 [64]
0	0x3cf964a2	0.030443493
1	0x3d3b4536	0.0457203
2	0x3d1a357b	0.03764866
3	0x3d17289b	0.03690396
4	0x3d2155c0	0.03938842
5	0x3d184d15	0.037182886
6	0x3d29752a	0.041371502
7	0x3d1e2510	0.038609564
8	0x3c502b30	0.012705609
9	0x3d0c2efe	0.034224503
10	0xbc5e70e1	-0.013576717
11	0x3d27666c	0.04086916
12	0x3d15e4e6	0.036595248
13	0x3d1e8857	0.038704243
14	0x3d15e0a1	0.036591176
15	0x3d156989	0.0364776
16	0x3cde6fc7	0.027152909
17	0x3d2008a2	0.039070733
18	0x380aa928	3.3059303e-05
19	0x3d284c03	0.041088115
20	0x3d1d9aed	0.038477827
21	0x3d3c5f1b	0.045989137
22	0x3c42067d	0.011842367
23	0x3d4701f5	0.04858585
24	0x3d22f9ed	0.03978913
25	0x3c693211	0.014233128
26	0x3c1703d2	0.009217219
27	0x3d3493a3	0.04408611
28	0x3d2f742a	0.042835392
29	0x3d1d5745	0.038413305
30	0x3d1df929	0.038567696
31	0x3d15c4f6	0.03656479
32	0x3d14f3b8	0.03636524
33	0x3ccf5db3	0.025313234
34	0x3d0d03cd	0.034427453
35	0x3d00a533	0.031407546
36	0x3d29d171	0.041459505
37	0x3cfcd1d0	0.030861765
38	0x3d06e7b0	0.0329358
39	0x3d0bfecb	0.034178536
40	0x3d1d54aa	0.03841082
41	0x3d0fd70c	0.035117194
42	0x3d28d7e6	0.04122152
43	0x3d3c6776	0.045997106
44	0x3d1a9dee	0.03774827
45	0x3d1522bf	0.03641009
46	0x3d0c1274	0.034197286
47	0x3d03ab5c	0.032145843
48	0xbc632c81	-0.013865591
49	0x3d03fa91	0.03222138
50	0x3d2332b3	0.039843272
51	0x3d39009a	0.04516659
52	0xbc205bb5	-0.00978749
53	0x3d1e7a7c	0.03869103
54	0x3d2edffc	0.042694077
55	0x3d3f974b	0.046775144
56	0x3d36a8a2	0.044594415
57	0x3d074886	0.033028148
58	0x3d42bc71	0.047542993
59	0x3cf6ce9e	0.03012782
60	0x3d3ca4cb	0.046055596
61	0x3cfe66e8	0.031054929
62	0x3d1f1513	0.038838457
63	0xbd3a742d	-0.04552095

bn1.bias f4 [64]
0	0xbc1c3672	-0.009534465
1	0xbc22dbc7	-0.009940094
2	0x375647b8	1.2772092e-05
3	0x3b0db2ce	0.0021621468
4	0xbc593f40	-0.013259709
5	0x3a3aa800	0.0007120371
6	0xbbec394c	-0.0072089788
7	0x3b4ed9d8	0.003156295
8	0xbbf4e927	-0.007474083
9	0x3b8a7d3a	0.004226354
10	0xbb848236	-0.0040438427
11	0xbc352e78	-0.011058442
12	0x3a0312f7	0.00050000794
13	0xbbb89d6d	-0.005634001
14	0x3a95091f	0.0011370516
15	0xbbc7adc6	-0.0060937135
16	0x3a497c6f	0.00076860836
17	0x3aa65942	0.0012691396
18	0xb755539f	-1.2715259e-05
19	0xbc659ff6	-0.014015188
20	0x3c1071fa	0.008816237
21	0x3b728780	0.0037007034
22	0xbb86900b	-0.0041065267
23	0xbb5f4e63	-0.0034073822
24	0xbb04f592	-0.0020287973
25	0xba80651c	-0.0009795758
26	0xbc29daef	-0.010367139
27	0x3b349857	0.0027556622
28	0xbbfe715f	-0.0077649797
29	0xb964fdfe	-0.00021838394
30	0xbb1664f4	-0.0022948356
31	0x3ac16f85	0.0014757967
32	0x39465ee9	0.00018918108
33	0xbb0496d1	-0.0020231495
34	0xb878cbe4	-5.9317696e-05
35	0x3afbf180	0.0019221753
36	0xbc9f5034	-0.019447424
37	0x3b957d4c	0.0045620557
38	0xbb82fac2	-0.003997178
39	0xbbff27c7	-0.0077867243
40	0x3b1aa72d	0.002359818
41	0xbb3fbbee	-0.0029256302
42	0xbaf6427a	-0.0018788122
43	0xbbc024da	-0.005863768
44	0x3bddd363	0.006769584
45	0x3bfd80a8	0.0077362843
46	0xbb93e229	-0.0045130444
47	0xbb027901	-0.001990855
48	0xbbb4d6ea	-0.005518784
49	0x3bab8294	0.005234072
50	0xbaad53f7	-0.0013223876
51	0x3b0a8901	0.002113879
52	0x3b1a6963	0.002356135
53	0x3b873148	0.004125748
54	0x3a28d484	0.00064403587
55	0xbaa1ec75	-0.0012353795
56	0xbc9e2667	-0.019305421
57	0xbc74aa96	-0.014933249
58	0x3b9bcf34	0.004754925
59	0xbc024a97	-0.007952354
60	0x39ebb915	0.0004496059
61	0x3c06a379	0.008217686
62	0x39d57f57	0.00040721401
63	0xbb7c67e1	-0.0038514065

bn1.running_mean f4 [64]
0	0xbbe19186	-0.006883803
1	0xbc4c4806	-0.012468344
2	0xbc244c82	-0.0100280065
3	0xbc23fba2	-0.010008724
4	0xbc106ec9	-0.008815476
5	0xbc511636	-0.012761643
6	0xbc639d4c	-0.013892483
7	0xbc075920	-0.008260995
8	0x3b8f15b9	0.004366603
9	0xbc41b63c	-0.011823233
10	0xbc102d73	-0.008799898
11	0xbc45ac28	-0.012064971
12	0xbc6ac2ca	-0.014328668
13	0xbc50d345	-0.012745683
14	0xbc39a7c1	-0.0113315
15	0xbc447718	-0.011991285
16	0xbc2657cd	-0.010152769
17	0xbc104d25	-0.008807455
18	0xb2b4a749	-2.103083e-08
19	0xbbe7c07f	-0.007072508
20	0xbc41db6b	-0.0118320985
21	0xbc5224fb	-0.0128262
22	0x3ba33738	0.004980948
23	0xbc1ccef2	-0.009570824
24	0xbc21f0f5	-0.009884109
25	0x3c12d289	0.008961328
26	0x3bcb1982	0.006198109
27	0xbc31584d	-0.010824275
28	0xbc457590	-0.012051955
29	0xbc3f2986	-0.011667615
30	0xbc288616	-0.010285875
31	0xbc4f61f4	-0.012657631
32	0xbc2fe848	-0.0107365325
33	0xbc43da18	-0.011953853
34	0xbc14a0b7	-0.0090715205
35	0xbc5d5528	-0.013509072
36	0xbc02c736	-0.007982066
37	0xbbc98d17	-0.0061508524
38	0xbc0c71ad	-0.008572024
39	0xbc29293d	-0.010324773
40	0xbc5e63e2	-0.013573619
41	0xbc0e1662	-0.008672329
42	0xbc48bffd	-0.012252805
43	0xbc3c7b80	-0.011504054
44	0xbc360eea	-0.011111954
45	0xbc3bf7f6	-0.011472693
46	0xbc1fcfc0	-0.009754121
47	0xbc189523	-0.009312901
48	0xbb0d34e8	-0.0021546427
49	0xbc5d70f6	-0.0135157015
50	0xbbe41c90	-0.0069614127
51	0xbc4675fa	-0.012113089
52	0x3acea14b	0.0015764622
53	0xbc4e037e	-0.012574075
54	0xbc009c42	-0.007849755
55	0xbc1764aa	-0.009240309
56	0xbbe3a0ac	-0.006946644
57	0xbbdac186	-0.006675902
58	0xbc395f4b	-0.0113142235
59	0xbc3690e2	-0.011142941
60	0xbc5e71b0	-0.01357691
61	0xbc553886	-0.0130139645
62	0xbc506e70	-0.012721643
63	0x3c4e2a67	0.012583352

bn1.running_var f4 [64]
0	0x3b8afd65	0.0042416328
1	0x3bbf174b	0.005831634
2	0x3bc5c954	0.006035963
3	0x3b9ebf13	0.004844555
4	0x3b7eaa97	0.0038859004
5	0x3bd15e6d	0.0063894303
6	0x3bfc7104	0.007703902
7	0x3b9c1904	0.0047637243
8	0x3ad57f58	0.0016288562
9	0x3bae1e44	0.0053136665
10	0x3b227cb9	0.0024793579
11	0x3bceea2a	0.0063145356
12	0x3be086c8	0.0068520047
13	0x3bcd96c8	0.006274078
14	0x3ba1a712	0.0049332464
15	0x3bb361f3	0.005474323
16	0x3ba9e858	0.0051851682
17	0x3b88df37	0.004177
18	0x2a7e403d	2.2582019e-13
19	0x3bad8c49	0.0052962643
20	0x3bce12d5	0.006288866
21	0x3bb569b7	0.005536284
22	0x3aa7723c	0.0012775133
23	0x3bac404a	0.0052566873
24	0x3ba93d23	0.005164759
25	0x3af16278	0.0018416187
26	0x3aae24a6	0.0013286069
27	0x3bc1c1b7	0.005912985
28	0x3be2ad78	0.0069176517
29	0x3bbcebed	0.005765429
30	0x3b99d233	0.004694247
31	0x3b91999c	0.0044433605
32	0x3bbc1226	0.005739468
33	0x3b9a52d4	0.004709581
34	0x3b723d01	0.003696263
35	0x3bcc087e	0.0062265983
36	0x3b87d39a	0.004145098
37	0x3b7b998d	0.0038391084
38	0x3b88451b	0.0041586286
39	0x3bbb6bff	0.0057196612
40	0x3be59fbe	0.007007568
41	0x3b9015ad	0.004397115
42	0x3bf74ad6	0.007546763
43	0x3bd372d7	0.006452899
44	0x3bca8cf2	0.006181353
45	0x3bc219b3	0.0059234737
46	0x3b9de694	0.004818747
47	0x3b8b6c6e	0.004254869
48	0x3a9e607e	0.00120832
49	0x3bc4bf71	0.006004267
50	0x3bbc805d	0.005752607
51	0x3bb041ec	0.0053789522
52	0x3a98aa94	0.0011647516
53	0x3be3a117	0.0069466936
54	0x3ba1b0fc	0.0049344283
55	0x3bc8ef62	0.0061320523
56	0x3bad8644	0.0052955467
57	0x3b60bbca	0.0034291619
58	0x3bbf2616	0.0058333976
59	0x3b9b1f26	0.004733938
60	0x3bfb6b78	0.0076727234
61	0x3bb88a48	0.005631719
62	0x3bbe2212	0.0058024013
63	0x3bb5bcd4	0.0055461917

fc2.weight f4 [32, 64]
0	0xbb4f6c5c	-0.003165028
1	0x3c060f42	0.008182349
2	0x3bf7c8aa	0.007561763
3	0x3c000aad	0.007815045
4	0x3c078cb5	0.008273293
5	0x3c3d5946	0.011556929
6	0xbab8d745	-0.0014102241
7	0x3c6c2378	0.014412753
8	0xbc4ca4b6	-0.012490442
9	0x3c7ff85b	0.015623177
10	0x3a7709ac	0.00094237435
11	0x3cb04918	0.021519229
12	0x3c2e846a	0.010651687
13	0x3bd57988	0.006514732
14	0x3c02a483	0.007973793
15	0x3c3654fa	0.011128658
16	0x3c3d7a3f	0.01156479
17	0x3b9b897b	0.0047466136
18	0xb61d5b9c	-2.3448147e-06
19	0x3c767cab	0.015044372
20	0x3c1df9aa	0.009642044
21	0x3c52e172	0.012871133
22	0xbb74a5d7	-0.0037330294
23	0x3c43ff4c	0.011962723
24	0x3c4aea2e	0.012384934
25	0xbc4a9ff0	-0.012367234
26	0xbb71b157	-0.0036879384
27	0x3ccb69e4	0.024830766
28	0x3c0dc2fd	0.008652446
29	0x3c578a91	0.013155595
30	0x3c25451c	0.010087278
31	0x3c81454d	0.015780116
32	0x3bef0f68	0.0072955377
33	0x3bff7d32	0.007796907
34	0x3c130644	0.008973662
35	0x3c84e490	0.016222268
36	0x3c0d7ba7	0.008635438
37	0x3c251b3e	0.010077296
38	0x3b803d31	0.0039135446
39	0x3c010f97	0.007877252
40	0x3c2daffb	0.010601039
41	0x3b9ff4d3	0.0048814802
42	0x3c31ae39	0.010844761
43	0xba05adf7	-0.000509947
44	0x3c366279	0.011131876
45	0x3c533e0a	0.012893209
46	0x3b77f960	0.0037837848
47	0x3bdc15ce	0.0067164665
48	0xbb5bfbf3	-0.0033566921
49	0x3bfeda7d	0.0077775107
50	0x3beba7f9	0.0071916548
51	0x3b9b02b2	0.004730546
52	0xba5d410e	-0.0008440175
53	0xbc45b8c4	-0.012067977
54	0x3c9b74c8	0.018976584
55	0x3bf48da5	0.0074631744
56	0x3c5de0ca	0.013542363
57	0x3c26b916	0.010175964
58	0x3c8b1a02	0.016980175
59	0x3be187a3	0.0068826242
60	0x3c1960de	0.009361474
61	0x3c0ba376	0.008522859
62	0x3b957403	0.004560949
63	0x3c40d8bf	0.011770426
64	0x3c68c00f	0.014205947
65	0x3c62b462	0.013836952
66	0x3b9b3fb6	0.0047378195
67	0xbb1a9d6c	-0.0023592366
68	0x3c42ac55	0.0118819075
69	0xb9ac21d2	-0.00032831595
70	0x3c4c11ef	0.012455448
71	0x3b3bd9b6	0.0028663701
72	0xba9c206d	-0.0011911519
73	0x3c0e64ca	0.008691022
74	0xbb8c2350	-0.0042766705
75	0x38bc7c6e	8.9877154e-05
76	0x3bc7e8c1	0.0061007445
77	0x3bea2fc7	0.007146809
78	0x3c62a972	0.013834344
79	0x3ba8adcc	0.0051476713
80	0xba8eb1d0	-0.0010886732
81	0x3c160a1c	0.009157684
82	0xb48fd1ea	-2.6788558e-07
83	0x3c62a9b2	0.013834404
84	0x3cd07da7	0.02545054
85	0x3b2cd6a6	0.0026373058
86	0x3bb7d718	0.005610358
87	0x3c635a2e	0.013876481
88	0x3c3b2c7a	0.011424178
89	0xbc32be90	-0.010909691
90	0xbbd03b10	-0.006354697
91	0x3c8d5982	0.017254595
92	0x3ca6005f	0.020263849
93	0x3c86fe89	0.016478794
94	0x3bd8402c	0.0065994468
95	0x3b599665	0.0033201214
96	0x3bd20a23	0.0064099
97	0x3be7ae2d	0.007070324
98	0x3c1eb483	0.009686592
99	0xbb1b4e09	-0.0023697636
100	0x3b0a0a66	0.0021063327
101	0xba625edc	-0.0008635351
102	0x3c84f8ce	0.01623192
103	0x3bc26ef8	0.0059336387
104	0x3c1bd3e0	0.009510964
105	0x3c3cb385	0.01151741
106	0x3c42e36d	0.011895043
107	0xbaabb057	-0.0013098818
108	0x3c5592cd	0.013035488
109	0x3c1bb5f4	0.00950383
110	0x3c3ef51f	0.011655121
111	0x3c092eb0	0.008372948
112	0xbc00ec53	-0.007868844
113	0x3b467916	0.0030284575
114	0x3bb43032	0.0054989094
115	0xbbee76fd	-0.007277368
116	0x3baa27e7	0.005192745
117	0x3c72da50	0.014822558
118	0x3c2bdd09	0.010489711
119	0x3c6b21ff	0.014351367
120	0x3c874db1	0.016516538
121	0x3ca642b4	0.020295478
122	0x3c86f2c7	0.016473187
123	0x3c30dda5	0.010795032
124	0x3c3f1c00	0.011664391
125	0x3c853dc2	0.0162648
126	0x3c0af5d3	0.008481461
127	0x3c651e96	0.013984343
128	0xbc1aa765	-0.009439324
129	0xbc147f02	-0.009063484
130	0xbb1bbc89	-0.0023763499
131	0xbbe0dcde	-0.006862267
132	0xbc1c7fc8	-0.00955195
133	0xbc63b90e	-0.013899101
134	0xbc5198d1	-0.012792782
135	0xbc1c0a46	-0.009523934
136	0x3bc13128	0.0058957525
137	0xbc2697ef	-0.01016806
138	0xba6bbee2	-0.00089929823
139	0xbbfa63b1	-0.0076412787
140	0xbc68dc60	-0.014212698
141	0xbc24847f	-0.010041355
142	0xbc427045	-0.011867587
143	0xb96c2015	-0.00022518665
144	0xbbb6fd17	-0.00558437
145	0xb9a539b0	-0.00031514233
146	0x36c36a35	5.823817e-06
147	0xbc313a34	-0.010817099
148	0xbadeb7e0	-0.0016992055
149	0xbcaa75e2	-0.020808164
150	0x3b2131e9	0.00245964
151	0xbbb219b4	-0.005435193
152	0xbc4ec8a7	-0.012621081
153	0x3a8d79dd	0.0010793764
154	0x3add3f18	0.0016879765
155	0xbc1eb873	-0.009687531
156	0xbb8810ae	-0.004152379
157	0xbb5a4414	-0.0033304738
158	0xbc53aa29	-0.012918987
159	0xb8c9131e	-9.587988e-05
160	0xbc15825e	-0.00912532
161	0xba2dcab4	-0.00066296314
162	0xbc0fffb2	-0.00878899
163	0xbbc13c81	-0.005897105
164	0xbc823f0a	-0.0158992
165	0xbbe73e5d	-0.007056995
166	0x399788c0	0.0002890285
167	0xbc2bfc68	-0.01049719
168	0xbc44603b	-0.011985834
169	0xbc26eb43	-0.010187927
170	0xbc6576c0	-0.014005363
171	0xbc66bcb8	-0.01408308
172	0xbc024575	-0.00795113
173	0xbc5273c7	-0.012844986
174	0xbb834adb	-0.004006726
175	0xbbf4a7ce	-0.007466293
176	0x3b8f5a6a	0.004374792
177	0xbb2d6b35	-0.0026461605
178	0xbb5cb88c	-0.0033679334
179	0xbc253249	-0.01008279
180	0xbc37e769	-0.011224606
181	0xbc5440f6	-0.012954941
182	0xbc781b00	-0.015143156
183	0xbc176455	-0.00924023
184	0xbc470186	-0.012146359
185	0x3b8ba9cb	0.0042621843
186	0xbbf0e384	-0.0073513407
187	0x3b86f112	0.0041180933
188	0xbc6f348a	-0.014599929
189	0xbc49e31d	-0.012322214
190	0xbc19cf00	-0.009387732
191	0xbc7dc421	-0.015488655
192	0x3b3966b0	0.0028289966
193	0x3c400025	0.011718784
194	0xbb970d9b	-0.004609776
195	0x3b2a1400	0.0025951862
196	0x3c5cbd16	0.013472816
197	0x3be06a48	0.006848607
198	0x3b3b8e73	0.0028618842
199	0x3c6233ec	0.013806324
200	0xbb2f238c	-0.0026724068
201	0x3c7e0cff	0.015506028
202	0xbb014654	-0.0019725757
203	0x3c9cc08f	0.019134788
204	0x3bcd6b87	0.006268922
205	0xbade396f	-0.0016954372
206	0x38fcd8ef	0.000120567034
207	0x3c8a5a0a	0.016888637
208	0x3c2b04e5	0.010438179
209	0x3b4b97bf	0.003106579
210	0x35d989c4	1.6207855e-06
211	0x3caa0f33	0.0207592
212	0x3bb8a051	0.0056343456
213	0x3bab0b2e	0.0052198386
214	0xbb3d7fe1	-0.0028915333
215	0x3c675b3e	0.014120875
216	0x3c6e2e99	0.014537477
217	0xbb113d89	-0.0022161922
218	0xbac3b619	-0.0014931589
219	0x3ae23de7	0.001726088
220	0x3c5cd63f	0.013478815
221	0x3c17132b	0.009220879
222	0x3c65a7d8	0.014017068
223	0x3c5388dc	0.012911048
224	0x3c6b407e	0.014358638
225	0x3bbdea98	0.005795788
226	0x3b41bd74	0.0029562386
227	0xbb2e2b51	-0.0026576112
228	0x3c514de2	0.012774916
229	0x3a54805e	0.00081062864
230	0xbb0af67a	-0.002120404
231	0x3a7f6152	0.000974198
232	0x3affc060	0.0019512288
233	0x3b96c155	0.0046006837
234	0x39b6a1d3	0.00034834314
235	0x3c6dc3c0	0.0145120025
236	0x3c90fb4f	0.017697958
237	0xbb1bac4d	-0.0023753822
238	0x3c98352d	0.018580044
239	0x3c2efba6	0.010680115
240	0xbb90e652	-0.0044219876
241	0x3bb08972	0.0053874785
242	0x3b8cdb25	0.004298585
243	0x3c769efb	0.015052552
244	0x3bd2179f	0.0064115073
245	0x3bf0addf	0.007344946
246	0xbb316c77	-0.0027072707
247	0x3ca3ed1f	0.02001053
248	0x3b9033e2	0.004400716
249	0x3c4ac4de	0.012376038
250	0x3baa0b45	0.0051893317
251	0xbc32c699	-0.010911607
252	0x3c5b263c	0.013375815
253	0x3b7e66df	0.003881864
254	0x3ca559b1	0.02018437
255	0x3c5bd688	0.013417847

fc2.bias f4 [32]
0	0xb7309f44	-1.0527499e-05
1	0xb5f3f1e1	-1.8175307e-06
2	0x3712d58e	8.752e-06
3	0x35c902c5	1.4976473e-06
4	0x38912b8b	6.922249e-05
5	0xb6df9842	-6.663643e-06
6	0xb6e27d38	-6.7499022e-06
7	0x38736f40	5.8039324e-05
8	0xb720a4b6	-9.575093e-06
9	0x36e34c1a	6.7739866e-06
10	0x35946b44	1.1058078e-06
11	0x36c15d42	5.762705e-06
12	0xb830313d	-4.2007527e-05
13	0xb80d659a	-3.3711643e-05
14	0xb6a76110	-4.9882874e-06
15	0x3873a443	5.8088695e-05
16	0x36b7b57d	5.474953e-06
17	0xb6c59d56	-5.889374e-06
18	0x35e0d4b0	1.6751201e-06
19	0x3699586a	4.570048e-06
20	0x38ba7dbb	8.89259e-05
21	0xb75317ac	-1.2582092e-05
22	0xb398f900	-7.1233444e-08
23	0xb72960c8	-1.0095719e-05
24	0x36e81603	6.9167013e-06
25	0xb58af61c	-1.0353428e-06
26	0xb7cedb34	-2.4659188e-05
27	0x36d742fa	6.4152964e-06
28	0x36e45fe8	6.8060945e-06
29	0xb8d27226	-0.00010034842
30	0x35be352e	1.417158e-06
31	0xb55623a0	-7.9773054e-07

bn2.weight f4 [32]
0	0x3d138049	0.036011014
1	0x3d134bab	0.035960834
2	0x3da9c619	0.08289737
3	0x3d01828d	0.031618644
4	0x3d06f400	0.03294754
5	0x3d206f56	0.03916868
6	0x3d266f2f	0.040633377
7	0x3d26343a	0.04057715
8	0x3d1fa095	0.038971502
9	0x3d1177c0	0.035514593
10	0x3d12ac74	0.035808995
11	0x3d13337a	0.035937764
12	0x3d389b37	0.0450699
13	0x3d215e59	0.039396618
14	0x3d2ec525	0.04266848
15	0x3d28bbfb	0.041194897
16	0x3d039d7f	0.03213262
17	0x3d18cca7	0.037304547
18	0x3d2862e1	0.041109923
19	0x3d133ac9	0.035944734
20	0x3d136650	0.035986245
21	0x3cf3e066	0.029770087
22	0x3d0783f9	0.033084843
23	0x3d1d163a	0.038351275
24	0x3d1f5ce3	0.038906943
25	0x3d139688	0.03603223
26	0x3da3f56a	0.080057934
27	0x3da00261	0.07812954
28	0x3daa548c	0.08316907
29	0x3d0e1e3d	0.034696806
30	0x3d093e19	0.033506487
31	0x3d0e7f06	0.034789108

bn2.bias f4 [32]
0	0x3ca4d037	0.020118816
1	0x3c999098	0.018745705
2	0xbd1dc241	-0.038515333
3	0x3c651237	0.013981394
4	0x3c927dc1	0.01788223
5	0x3c9f2105	0.019424925
6	0x3c9d82b5	0.019227365
7	0x3cbab6e2	0.022792283
8	0x3ca33ce1	0.01992649
9	0x3cacc645	0.021090636
10	0x3c8b38cf	0.016994862
11	0x3c9a5b18	0.018842265
12	0x3c9e12de	0.019296106
13	0x3cb53833	0.022121524
14	0x3ca7ae4e	0.020468857
15	0x3c9cffde	0.019164976
16	0x3c84fe78	0.016234621
17	0x3ca04edf	0.019568859
18	0x3c91822e	0.01776227
19	0x3c98ff24	0.018676348
20	0x3ca73c40	0.020414472
21	0x3c96f640	0.018427968
22	0x3c8a48ac	0.016880356
23	0x3cb34dfd	0.021887774
24	0x3c73fef3	0.014892328
25	0x3c9b55a9	0.018961744
26	0xbd14b74d	-0.03630762
27	0xbd21087d	-0.039314736
28	0xbd0cd9fc	-0.034387574
29	0x3caa5062	0.020790283
30	0x3c98b653	0.018641626
31	0x3cc1dfed	0.023666346

bn2.running_mean f4 [32]
0	0x3bd5a3ac	0.0065197553
1	0x3bcdec34	0.006284261
2	0xbbc94a2b	-0.0061428747
3	0x3bb91e84	0.0056493897
4	0x3bd03c42	0.0063548395
5	0x3ba60812	0.00506688
6	0x3bda7627	0.006666917
7	0x3baef2eb	0.0053390167
8	0x3bd37158	0.0064527206
9	0x3bb9ca81	0.0056698923
10	0x3bd8d15a	0.0066167535
11	0x3ba5926e	0.005052856
12	0x3bc1d72e	0.005915544
13	0x3bb91823	0.0056486293
14	0x3bce482c	0.0062952247
15	0x3bc9ab6b	0.006154468
16	0x3bcd0152	0.006256261
17	0x3bbc63ae	0.0057491874
18	0x3bd1ad08	0.0063988008
19	0x3bba1e21	0.005679861
20	0x3bc49652	0.005999365
21	0x3bb748a0	0.0055933744
22	0x3bd7589d	0.006571843
23	0x3bc6fef0	0.0060728714
24	0x3bc773fd	0.006086825
25	0x3bd30e06	0.0064408807
26	0xbbbf8983	-0.00584525
27	0xbbdadd0e	-0.006679184
28	0xbbcf56a5	-0.0063274675
29	0x3ba5b148	0.005056534
30	0x3bc2ea87	0.005948368
31	0x3bcdb5a2	0.006277756

bn2.running_var f4 [32]
0	0x38d48ec5	0.00010135541
1	0x38c9c0de	9.620351e-05
2	0x38b309e2	8.537226e-05
3	0x38a43548	7.830054e-05
4	0x38c63748	9.451673e-05
5	0x388be88d	6.6713525e-05
6	0x38ccf75b	9.7735516e-05
7	0x388855e2	6.500982e-05
8	0x38e66ff6	0.00010988109
9	0x38a9a63e	8.089513e-05
10	0x38d95075	0.000103623526
11	0x3894b179	7.090247e-05
12	0x38b6d89e	8.7187844e-05
13	0x38b924b5	8.828325e-05
14	0x38d8b327	0.00010333052
15	0x38ae6b93	8.317004e-05
16	0x38b694e0	8.7061664e-05
17	0x38ae2a75	8.304875e-05
18	0x38d03df4	9.9297526e-05
19	0x38a38a3b	7.798193e-05
20	0x38d351cd	0.000100765006
21	0x38a7adcf	7.995555e-05
22	0x38c878c0	9.5592346e-05
23	0x38b35c4e	8.552578e-05
24	0x38c0147a	9.1590875e-05
25	0x38d17d8c	9.9892815e-05
26	0x38ac1f3c	8.207417e-05
27	0x38d8f6ac	0.00010345629
28	0x38b81edc	8.779552e-05
29	0x388094df	6.131245e-05
30	0x38b3327b	8.544788e-05
31	0x38b7b9b4	8.76071e-05

fc3.weight f4 [16, 32]
0	0x3bc5a29f	0.006031349
1	0x3c0ce18e	0.008598698
2	0xbca5f899	-0.020260142
3	0x3c54152b	0.0129445
4	0x3b97eb3b	0.004636196
5	0x3bc6d51f	0.0060678865
6	0x3c40bd3a	0.011763865
7	0x3bff41db	0.007789833
8	0x3c7ccf03	0.015430215
9	0x3c7dfc49	0.015502044
10	0x3c2e46d2	0.010637002
11	0x3c98e76b	0.018665036
12	0x3c3766f8	0.011193983
13	0x3d0c4fc1	0.034255747
14	0x3c06a64d	0.00821836
15	0x3c5c40a4	0.013443146
16	0x3c8cd55b	0.01719158
17	0x3c22e7b1	0.009942935
18	0x3c1dd0f4	0.009632338
19	0x3c4bb99f	0.012434392
20	0x3caa7af5	0.020810584
21	0x3c4699d4	0.012121636
22	0x3c817d39	0.015806781
23	0x3c4713e4	0.012150738
24	0x3c9a2500	0.018816471
25	0x3cacd927	0.02109964
26	0xbcc1dffb	-0.023666373
27	0xbcc35748	-0.02384533
28	0xbca33c4c	-0.019926213
29	0x3cb1c33a	0.021699537
30	0x3c380a53	0.01123293
31	0x3c7364aa	0.014855543
32	0x3c51ed91	0.012812988
33	0x3c0fb6cb	0.008771609
34	0xbc9e77ba	-0.0193442
35	0x3cb14da8	0.021643475
36	0x3c114f61	0.008869023
37	0x3b72d3d3	0.0037052527
38	0x3c8d13f4	0.017221428
39	0x3c7978a6	0.015226519
40	0x3c56139b	0.013066198
41	0x3c98783b	0.018612018
42	0x3c8c33a6	0.017114472
43	0x3c88d9c5	0.016705403
44	0x3c2592fd	0.0101058455
45	0x3c5f9d64	0.013648365
46	0x3cb381bf	0.021912454
47	0x3c439d48	0.011939354
48	0x3c0a2f3d	0.008434114
49	0x3c8bd1d0	0.01706782
50	0x3cb479fa	0.02203082
51	0x3ca33945	0.01992477
52	0x3c8c6d31	0.01714191
53	0x3c448028	0.011993445
54	0x3c0cb72d	0.008588594
55	0x3ca16a28	0.01970394
56	0x3c9fa3bf	0.01948726
57	0x3c28468f	0.010270729
58	0xbc9a2c5e	-0.018819984
59	0xbcaa9920	-0.020824969
60	0xbc8ce9b6	-0.017201286
61	0x3be00c1c	0.006837381
62	0x3c9b6f0f	0.018973855
63	0x3c88238e	0.016618516
64	0x3c1c0a63	0.009523961
65	0x3c8b34f7	0.016993029
66	0xbcf163a1	-0.029466452
67	0x3c6594ee	0.014012558
68	0x3c60f6fd	0.013730762
69	0x3cc65e42	0.024214868
70	0x3c8302ee	0.015992608
71	0x3c6a6d9c	0.0143083595
72	0x3c4fd8aa	0.012685934
73	0x3c34b9c1	0.011030615
74	0x3c8c6666	0.017138671
75	0x3c279690	0.010228768
76	0x3c255f05	0.010093455
77	0x3c481250	0.012211397
78	0x3ca7841f	0.020448742
79	0x3c3aa9a0	0.011392981
80	0x3ca55c56	0.02018563
81	0x3c9ac43e	0.018892404
82	0x3c091f96	0.008369347
83	0x3c4ee69d	0.012628225
84	0x3c977989	0.01849057
85	0x3c397a3d	0.011320648
86	0x3c6c02ac	0.014404934
87	0x3c71cbd7	0.014758072
88	0x3c38efcd	0.011287642
89	0x3c995e7a	0.018721808
90	0xbc84a437	-0.016191585
91	0xbcc7ebbc	-0.0244044
92	0xbc919bf9	-0.017774569
93	0x3c383ec8	0.011245437
94	0x3c00200c	0.007820141
95	0x3caff93a	0.021481145
96	0x3c6f2e81	0.01459849
97	0x3bc56cd5	0.0060249367
98	0xbc984afe	-0.018590447
99	0x3c9022f0	0.017594784
100	0x3c8f02e4	0.017457433
101	0x3c0b8200	0.008514881
102	0x3ba17257	0.0049269604
103	0x3cc88282	0.024476293
104	0x3c9db8e4	0.019253202
105	0x3c64950a	0.013951549
106	0x3ca6c202	0.020356182
107	0x3cbc2aec	0.022969685
108	0x3c18c95f	0.009325354
109	0x3cb79d4c	0.022413872
110	0x3c480d42	0.012210192
111	0x3c722d70	0.014781341
112	0x3c5a48d9	0.013323032
113	0x3c0d1045	0.008609836
114	0x3c055a20	0.008139163
115	0x3c8375f5	0.016047457
116	0x3c81039b	0.01574879
117	0x3c8c514e	0.017128613
118	0x3be19840	0.0068846047
119	0x3c2b8751	0.010469274
120	0x3c5a9da7	0.013343251
121	0x3c186b98	0.009302996
122	0xbcb2e371	-0.021836968
123	0xbc98a34e	-0.018632557
124	0xbc97e696	-0.01854257
125	0x3cc51c79	0.024061428
126	0x3c13cdeb	0.009021263
127	0x3c68e52c	0.014214795
128	0x3c07bec6	0.00828523
129	0x3bd992c3	0.00663981
130	0xbcc41414	-0.023935355
131	0x3c5c3dab	0.013442437
132	0x3c0f866a	0.008760074
133	0x3c9816fd	0.01856565
134	0x3ccd9d6a	0.025099475
135	0x3c6da24f	0.014504029
136	0x3bf6e476	0.007534559
137	0x3c61e57d	0.013787624
138	0x3cbc4386	0.022981416
139	0x3c52ab24	0.012858186
140	0x3cd1d034	0.025611974
141	0x3c84c5d8	0.01620762
142	0x3c8c55a1	0.017130675
143	0x3c8a1853	0.016857302
144	0x3ca624d0	0.020281225
145	0x3cd3903d	0.025825614
146	0x3bc4fb59	0.0060114083
147	0x3c65321f	0.013989001
148	0x3c026e66	0.007960891
149	0x3ba46af0	0.0050176308
150	0x3c5100b4	0.012756515
151	0x3cc1f208	0.02367498
152	0x3c699a00	0.014257908
153	0x3b5c7281	0.0033637586
154	0xbc83a051	-0.016067656
155	0xbc660d35	-0.014041235
156	0xbc84137e	-0.016122576
157	0x3c5f68d9	0.0136358375
158	0x3c61baa6	0.013777411
159	0x3c54f9c1	0.012998999
160	0x3b6cf71b	0.0036158029
161	0x3ca5213e	0.020157453
162	0xbc84ef1a	-0.016227294
163	0x3ca034d8	0.019556448
164	0x3c47473d	0.012162981
165	0x3c6358e0	0.01387617
166	0x3c772d78	0.015086524
167	0x3c2dc7c6	0.010606712
168	0x3c2165aa	0.009850899
169	0x3c20ab41	0.009806455
170	0x3b64588b	0.0034842815
171	0x3c8135b0	0.01577267
172	0x3ccaa251	0.024735602
173	0x3c210d2b	0.0098298
174	0x3c79e71d	0.015252856
175	0x3c954ce6	0.018225145
176	0x3cadf3e6	0.021234464
177	0x3c72f38c	0.014828574
178	0x3c8a9df6	0.016921025
179	0x3c0a022a	0.0084233675
180	0x3c9848c7	0.01858939
181	0x3c4d5842	0.012533249
182	0x3c53cb26	0.012926852
183	0x3c7e58a6	0.015524065
184	0x3ca2c67a	0.019870032
185	0x3c8ba7ca	0.017047781
186	0xbc9a309f	-0.018822012
187	0xbcbfdc78	-0.023420557
188	0xbc834bab	-0.016027292
189	0x3c8d2f87	0.017234577
190	0x3b47a191	0.0030461291
191	0x3c806bec	0.015676461
192	0x3c513ada	0.012770379
193	0x3ca6de5d	0.020369703
194	0xbcb93b4e	-0.022611286
195	0x3be53b45	0.006995591
196	0x3bfaada2	0.007650093
197	0x3ca7fa1a	0.020505
198	0x3c6f3d24	0.014601979
199	0x3c2be84b	0.010492395
200	0x3c2aff2d	0.010436815
201	0xb9ee7ad7	-0.0004548642
202	0x3c91986a	0.017772872
203	0x3c7287de	0.014802901
204	0x3c6f5713	0.014608162
205	0x3c79cf8b	0.015247236
206	0x3c8cbd9e	0.01718026
207	0x3c48408a	0.012222419
208	0x3c7c8a2b	0.015413801
209	0x3c2ae4a2	0.010430487
210	0x3cb76a41	0.022389533
211	0x3c1dc174	0.009628642
212	0x3c1aaf29	0.0094411755
213	0x3cae7218	0.021294639
214	0x3cc1567b	0.023600807
215	0x3bd579ca	0.0065147625
216	0x3be60e99	0.007020783
217	0x3bf6efa1	0.00753589
218	0xbcc05ca3	-0.023481673
219	0xbca51a93	-0.020154273
220	0xbcb3b187	-0.021935238
221	0x3c49cee5	0.012317394
222	0x3c5fc9df	0.01365897
223	0x3c5897f1	0.013219819
224	0x3c702e02	0.014659407
225	0x3c621159	0.013798081
226	0xbcb14f34	-0.021644212
227	0x3c0e5a95	0.008688589
228	0x3c8489dc	0.016179018
229	0x3c689582	0.014195802
230	0x3c82a4c4	0.015947707
231	0x3c35bd64	0.0110925175
232	0x3bef8ef6	0.0073107434
233	0x3c82cf8e	0.01596811
234	0x3c623802	0.013807299
235	0x3c8669f1	0.016407939
236	0x3c2f2f03	0.010692361
237	0x3c1d3c52	0.009596901
238	0x3c00a945	0.007852857
239	0x3cac8184	0.021057852
240	0x3c9cfb00	0.019162655
241	0x3c83993b	0.016064277
242	0x3c911ff9	0.017715441
243	0x3c228cd7	0.009921274
244	0x3c3f9bd0	0.011694863
245	0x3c5de3c0	0.013543069
246	0x3c9ce1df	0.019150672
247	0x3ca2f8e9	0.01989408
248	0x3c7cb5a3	0.015424165
249	0x3c33b04f	0.010967328
250	0xbc8eceb3	-0.017432546
251	0xbc880f49	-0.016608851
252	0xbc6c6b6e	-0.01442991
253	0x3c8371a7	0.016045405
254	0x3c8cd495	0.01719121
255	0x3d024efd	0.03181361

fc3.bias f4 [16]
0	0x36bc5e6a	5.613828e-06
1	0x36d233f9	6.264538e-06
2	0x3711e956	8.697001e-06
3	0x379c03a1	1.8598339e-05
4	0x378568fd	1.5903724e-05
5	0xb4dd3940	-4.1206113e-07
6	0xb5411db2	-7.1941315e-07
7	0xb6a1e14d	-4.8244024e-06
8	0xb64f6c64	-3.0908495e-06
9	0x372eb9a1	1.0414428e-05
10	0x37063995	8.000429e-06
11	0xb7f0ce55	-2.870631e-05
12	0x37167ff5	8.970489e-06
13	0xb70ec41c	-8.50952e-06
14	0x3696867b	4.486004e-06
15	0xb7072b9c	-8.056781e-06

bn3.weight f4 [16]
0	0x3e44c31a	0.1921505
1	0x3e449a87	0.19199573
2	0x3e444f53	0.19170885
3	0x3e4c3baa	0.19944635
4	0x3e43ece1	0.19133331
5	0x3e49d7b0	0.19711185
6	0x3e48d8f3	0.1961401
7	0x3e4a8548	0.19777405
8	0x3e4e8e29	0.20171417
9	0x3e4ec6e5	0.2019306
10	0x3e3b5539	0.18294229
11	0x3e4a49af	0.1975467
12	0x3e3c8778	0.18411052
13	0x3e429841	0.19003393
14	0x3e41d122	0.18927434
15	0x3e3ed9ed	0.1863782

bn3.bias f4 [16]
0	0x3dd19f1f	0.10235428
1	0x3dd65989	0.10466296
2	0x3dd420bc	0.10357806
3	0x3dd517b5	0.104049124
4	0x3dcd8826	0.10035734
5	0x3dd1665d	0.10224602
6	0x3dd73ac1	0.10509253
7	0x3ddd3586	0.108012244
8	0x3c20fe87	0.009826309
9	0x3ddcab25	0.10774831
10	0x3dd33d46	0.10314421
11	0x3ddc8543	0.10767605
12	0x3dc4fe8c	0.096188635
13	0x3dd0e1bf	0.10199308
14	0x3dd034ad	0.10166297
15	0x3dcf52a4	0.10123184

bn3.running_mean f4 [16]
0	0x3bf98721	0.0076149856
1	0x3c06ed89	0.008235344
2	0x3c03c596	0.008042714
3	0x3bfc1350	0.007692732
4	0x3bfc1a10	0.0076935366
5	0x3c053d8e	0.008132352
6	0x3bf47b53	0.0074609905
7	0x3c0e648b	0.0086909635
8	0xbb1e5b59	-0.0024163334
9	0x3c0c62f2	0.008568512
10	0x3be856f3	0.0070904433
11	0x3c09653c	0.008385953
12	0x3c030494	0.007996697
13	0x3c088f59	0.008334958
14	0x3c0cd8d6	0.00859662
15	0x3c00d109	0.007862338

bn3.running_var f4 [16]
0	0x3970d637	0.00022967985
1	0x3985ac28	0.00025496003
2	0x3975c906	0.00023439908
3	0x395eb12f	0.00021237576
4	0x397a0a7b	0.00023845762
5	0x397b4f60	0.00023966795
6	0x3971e22d	0.00023067808
7	0x39898c84	0.0002623537
8	0x38f5b621	0.000117164345
9	0x3991cb01	0.00027807805
10	0x39657891	0.00021884056
11	0x3984adf7	0.00025306616
12	0x39750890	0.0002336821
13	0x398767fb	0.00025826678
14	0x398a922b	0.00026430315
15	0x3978016d	0.00023651654

fc4.weight f4 [1, 16]
0	0x3e5f5f41	0.2181368
1	0x3e6180d3	0.22021799
2	0x3e61e218	0.22058904
3	0x3e672cb2	0.22575644
4	0x3e5efe2e	0.2177665
5	0x3e65d341	0.22443868
6	0x3e65dc56	0.22447333
7	0x3e68f0fc	0.22748178
8	0xbe4e325d	-0.201364
9	0x3e6b94fe	0.23006055
10	0x3e5a7d1e	0.21336791
11	0x3e67c7d3	0.2263482
12	0x3e56aec3	0.20965104
13	0x3e5f502a	0.21807924
14	0x3e5d70d5	0.21625073
15	0x3e5ca61a	0.21547738
