models/big_model.pth (torch, 51152 bytes, 13 tensors)

fc1.weight f4 [128, 5]
0.04712664 0.37089014 -0.11627861 0.46534526 -0.06884036 0.041787714 -0.28510955 -0.1450513
-0.46808335 0.35065845 0.31233 -0.36145118 -0.26520368 -0.4321927 0.22014827 0.17484424
-0.18615414 0.054177724 -0.5162284 -0.07099478 0.06882535 -0.34196404 0.08998369 -0.19348967
-0.36115864 -0.30470863 0.27306008 0.1757244 0.17345163 -0.19655474 0.35409594 -0.39116275
0.06640158 -0.18721712 -0.3583929 -0.30514342 0.33973905 0.052980285 -0.22132145 0.3828077
-0.13998532 0.22932929 0.21148095 0.1923752 -0.19950996 0.00365861 -0.12909904 -0.01631878
-0.39666224 -0.14192468 0.33440098 -0.21151489 0.18501692 -0.5201506 0.21714818 0.025746943
-0.29941404 0.08345215 -0.473499 -0.23211761 -0.039163653 -0.08166195 0.020506188 0.38638416
-0.109461255 0.33273295 -0.047990702 0.062110122 0.15874264 -0.044920754 0.37701914 0.13261893
-0.1298517 -0.4700479 -0.21302146 -0.35052082 0.08686999 -0.102482 0.035397578 -0.2904826
-0.14147887 -0.33473185 -0.31839055 0.5063607 -0.2665234 -0.1769992 -0.3429771 -0.26747894
0.19295332 0.10561825 0.2109946 -0.26822272 -0.2818917 -0.6281353 -0.23146358 -0.1455128
-0.31801113 -0.046217177 -0.4289727 0.08785931 0.24805717 -0.27884483 0.3334237 0.31473032
-0.0117534315 -0.047423337 -0.17893481 0.2683625 -0.12775154 0.124093495 0.34364069 -0.3535481
0.20549197 -0.042452503 0.338538 -0.27631766 0.3609922 0.32632017 0.50758654 -0.22777207
0.05446846 -0.12043365 0.088052586 0.5555816 0.15343717 -0.11881058 -0.14242488 -0.13059455
-0.45335057 -0.40987548 -0.2761467 -0.09548598 -0.17547953 -0.061070696 -0.3355227 0.36425352
0.1425049 0.20495383 -0.55506253 -0.36799118 -0.18630385 0.3814931 -0.07718843 -0.5019548
-0.16791625 -0.2582273 -0.26118317 0.32719588 -0.11817614 -0.17924923 -0.13766532 -0.14073478
-0.19185436 -0.4127928 0.14780745 -0.022814319 -0.036125503 0.16227914 0.3518116 0.28028634
0.21322918 -0.04846998 -0.2305147 -0.5818964 0.18888816 -0.27765906 -0.17863849 -0.060263354
0.11909954 -0.10121579 0.37892747 0.32811716 -0.29364657 -0.2020227 -0.018814208 -0.27501756
0.27706486 -0.22952497 -0.4630348 0.088454895 -0.010000709 -0.043908965 0.16436383 -0.016221687
0.037640292 0.17924929 -0.141778 -0.04678115 -0.42283025 0.08448353 -0.21088484 -0.117931165
-0.010863878 0.47665808 -0.30027786 0.27316454 -0.28407514 0.19094066 -0.58823866 -0.18811426
-0.068758376 -0.36193195 -0.00060353836 0.56065285 -0.24583502 0.08064758 -0.34100512 -0.040750775
0.5703418 -0.13580574 -0.2193155 -0.045006204 0.24501465 0.36269566 0.32170758 -0.032849655
-0.36329564 -0.020315114 0.10972016 -0.37453365 -0.18168178 -0.15757011 -0.109657064 0.50522447
0.23779169 -0.34521365 -0.022679139 -0.04041984 -0.29654205 0.3096793 0.1511592 -0.13813914
-0.03758113 -0.20196036 -0.35018104 -0.30037305 -0.20744145 -0.15538426 -0.36913583 0.22233747
-0.21071121 0.030984493 0.15153266 0.5940559 -0.004048851 0.0012979526 -0.15442413 0.026650587
0.22848912 0.3651807 -0.25080863 0.113800704 -0.11804783 0.2951891 0.27862924 0.09538321
00000000: dd07 413d 50e5 bd3e 7b23 eebd bc41 ee3e
00000010: 2dfc 8cbd 9829 2b3d e1f9 91be 5488 14be
00000020: 9fa8 efbe 8189 b33e b8e9 9f3e 2110 b9be
00000030: c7c8 87be 5d48 ddbe 8c6e 613e 5e0a 333e
00000040: 319f 3ebe 76e9 5d3d 8b27 04bf b665 91bd
00000050: 4ef4 8c3d e915 afbe 5e49 b83d 2822 46be
00000060: c9e9 b8be c502 9cbe 88ce 8b3e 19f1 333e
00000070: 4e9d 313e a545 49be 104c b53e 7c46 c8be
00000080: 8dfd 873d d8b5 3fbe 467f b7be c23b 9cbe
00000090: 47f2 ad3e db01 593d 17a2 62be 5fff c33e
000000a0: 5058 0fbe 4cd5 6a3e 768e 583e 01fe 443e
000000b0: 574c 4cbe 4ac5 6f3b 8a32 04be f6ae 85bc
000000c0: 5017 cbbe b454 11be 9b36 ab3e 5c97 58be
000000d0: 1375 3d3e 9728 05bf 185c 5e3e 41eb d23c
000000e0: cc4c 99be f6e8 aa3d 766e f2be 3db0 6dbe
000000f0: 116a 20bd 613e a7bd 98fc a73c 25d4 c53e
00000100: 392d e0bd f95b aa3e e691 44bd 2f67 7e3d
00000110: 6e8d 223e d3fe 37bd a708 c13e 42cd 073e
00000120: d8f7 04be 1eaa f0be 4c22 5abe 7777 b3be
00000130: e5e8 b13d 15e2 d1bd 0dfd 103d 23ba 94be
00000140: d6df 10be f961 abbe 1604 a3be dba0 013f
00000150: c175 88be 473f 35be b29a afbe 00f3 88be
00000160: 8e95 453e 624e d83d f80e 583e 7d54 89be
00000170: 1c54 90be 7acd 20bf ca04 6dbe 4f01 15be
00000180: 5bd2 a2be 394e 3dbd 4fa2 dbbe 95ef b33d
00000190: b302 7e3e c0c4 8ebe 83b6 aa3e 5524 a13e
000001a0: 7791 40bc f93e 42bd b03a 37be cf66 893e
000001b0: 4dd1 02be bb24 fe3d acf1 af3e 4204 b5be
000001c0: 7d6c 523e ade2 2dbd da54 ad3e 8279 8dbe
000001d0: f8d3 b83e 7013 a73e 31f1 013f 153d 69be
000001e0: 521a 5f3d eba5 f6bd ea54 b43d 993a 0e3f
000001f0: a21e 1d3e f652 f3bd d4d7 11be 94ba 05be
00000200: 911d e8be 33db d1be 1a63 8dbe 278e c3bd
00000210: e8b0 33be 4425 7abd a2c9 abbe 707f ba3e
00000220: ceec 113e 6bdf 513e 9418 0ebf 5769 bcbe
00000230: 70c6 3ebe 1053 c33e f814 9ebd 1c80 00bf
00000240: 3df2 2bbe 5e36 84be cdb9 85be 3886 a73e
00000250: 5506 f2bd 1c8d 37be 23f8 0cbe c71c 10be
00000260: 7875 44be 9459 d3be d65a 173e 18e5 babc
00000270: 56f8 13bd 812c 263e a620 b43e b181 8f3e
00000280: c058 5a3e 7588 46bd 0c0c 6cbe 2af7 14bf
00000290: e66b 413e 5429 8ebe 02ed 36be b5d6 76bd
000002a0: 76ea f33d 394a cfbd c802 c23e f9fe a73e
000002b0: d858 96be 0adf 4ebe 4120 9abc 1acf 8cbe
000002c0: 72db 8d3e 9808 6bbe e612 edbe d727 b53d
000002d0: 04da 23bc e3d9 33bd fe4e 283e 58e3 84bc
000002e0: b52c 1a3d 208d 373e 412e 11be 979d 3fbd
000002f0: 357d d8be b305 ad3d 32f2 57be e585 f1bd
00000300: 68fe 31bc 870c f43e 05be 99be 39dc 8b3e
00000310: 4c72 91be f385 433e cf96 16bf 06a1 40be
00000320: 31d1 8cbd 254f b9be c636 1eba f286 0f3f
00000330: 2dbc 7bbe 8f2a a53d 3998 aebe 49ea 26bd
00000340: ec01 123f a910 0bbe 3e94 60be 6d58 38bd
00000350: 1fe5 7a3e 3fb3 b93e dbb6 a43e 5c8d 06bd
00000360: e301 babe e26b a6bc f7b4 e03d e0c2 bfbe
00000370: ca0a 3abe 0f5a 21be e293 e0bd 6456 013f
00000380: aa7f 733e d8bf b0be 9ac9 b9bc 468f 25bd
00000390: 5cd4 97be 498e 9e3e 7ac9 1a3e 5974 0dbe
000003a0: acee 19bd b2ce 4ebe ee4a b3be 7fca 99be
000003b0: 886b 54be 0d1d 1fbe 5fff bcbe 6fac 633e
000003c0: aec4 57be 31d3 fd3c 612b 1b3e 0c14 183f
000003d0: 39ac 84bb 1020 aa3a 5c21 1ebe 5552 da3c
000003e0: 0df9 693e f7f8 ba3e fd69 80be 5810 e93d
000003f0: 10c3 f1bd 0723 973e 7ea8 8e3e 4658 c33d

fc1.bias f4 [128]
0.24517514 0.10085252 0.3083283 0.13628232 -0.30093858 -0.344508 -0.31721306 -0.13458793
-0.12614317 0.25786477 -0.0908028 0.26897204 0.15781695 0.2793099 0.10322661 -0.26743707
-0.22440475 0.14640392 0.03458996 0.31977984 -0.41933185 -0.19543347 0.08173332 0.022294471
0.19458905 -0.07963115 -0.07180801 0.09086709 0.12031103 -0.33287305 0.069473594 -0.19995362
0.018800544 0.3160275 0.082943656 0.32452348 -0.35409 0.11558458 -0.12304127 0.095533945
0.045964297 0.015102258 0.07470028 -0.10447288 0.2799445 -0.018754663 0.07182496 0.13148999
0.2823706 0.01347141 -0.2795132 0.07036071 0.006425059 0.27156052 -0.059092287 -0.43705615
0.20683764 0.008965329 0.11979558 0.10450733 -0.01865495 -0.26807812 0.35153237 0.18472636
-0.26328853 0.23873745 0.26509956 -0.31344607 -0.17563795 0.28505233 0.41350445 -0.341307
-0.14761128 0.39386833 0.29086912 -0.36527324 -0.08128287 0.35265684 0.06919321 -0.25998235
0.35139385 -0.11372298 0.11270324 0.344675 0.13731617 0.37687445 0.19272693 0.012267883
0.23751184 -0.19565234 -0.11003544 0.21135937 0.3216646 0.24114504 -0.34619027 -0.17296186
-0.37147152 -0.24960114 0.039181784 -0.067875296 0.37235895 -0.21362324 0.094208896 0.060698766
0.14698814 -0.13375947 0.15808421 -0.27787784 -0.28959963 -0.2848573 -0.09220577 -0.096607
-0.28776953 -0.30449647 0.10801616 0.033352222 0.20894611 0.17161076 0.23693787 -0.06409655
-0.2799446 0.32459053 -0.15036757 0.24549414 -0.19503269 -0.39576608 0.39882097 0.12418807
00000000: 310f 7b3e c48b ce3d 35dd 9d3e 988d 0b3e
00000010: 9f14 9abe 5a63 b0be c069 a2be 6bd1 09be
00000020: ad2b 01be da06 843e d2f6 b9bd b4b6 893e
00000030: c49a 213e b501 8f3e 7968 d33d 83ed 88be
00000040: 5cca 65be e9ea 153e 34ae 0d3d 2fba a33e
00000050: aab2 d6be b61f 48be cd63 a73d e5a2 b63c
00000060: 5a42 473e a815 a3bd 1410 93bd 8618 ba3d
00000070: a165 f63d 566e aabe 2c48 8e3d a4c0 4cbe
00000080: 9903 9a3c 5bce a13e 5dde a93d f127 a63e
00000090: 494b b5be 9cb7 ec3d 10fd fbbd 4da7 c33d
000000a0: 0f45 3c3d 766f 773c 76fc 983d e1f5 d5bd
000000b0: e354 8f3e 61a3 99bc f718 933d 50a5 063e
000000c0: e192 903e 30b7 5c3c 5b1c 8fbe 4719 903d
000000d0: 4d89 d23b fb09 8b3e c10a 72bd d3c5 dfbe
000000e0: 3fcd 533e 51e3 123c 6357 f53d f007 d63d
000000f0: 44d2 98bc 8941 89be 0dfc b33e e828 3d3e
00000100: c1cd 86be 9777 743e 21bb 873e 017c a0be
00000110: 6fda 33be 61f2 913e dbb6 d33e cbbf aebe
00000120: 6927 17be 1ca9 c93e ccec 943e 1805 bbbe
00000130: a277 a6bd 708f b43e 2bb5 8d3d 681c 85be
00000140: e5e9 b33e 98e7 e8bd f5d0 e63d 3e79 b03e
00000150: 9c9c 0c3e b0f5 c03e 355a 453e 3bff 483c
00000160: 4e36 733e 1659 48be 435a e1bd 976e 583e
00000170: 39b1 a43e baee 763e da3f b1be ea1c 31be
00000180: 8431 bebe 7197 7fbe 147d 203d 3402 8bbd
00000190: d5a5 be3e 0dc0 5abe 98f0 c03d 459f 783d
000001a0: 0f84 163e 3ef8 08be d4e0 213e 0146 8ebe
000001b0: 6746 94be d1d8 91be 61d6 bcbd e4d9 c5bd
000001c0: 8756 93be f6e6 9bbe 9437 dd3d 579c 083d
000001d0: f8f5 553e bbba 2f3e d79f 723e 0d45 83bd
000001e0: e654 8fbe bb30 a63e f5f9 19be d162 7b3e
000001f0: a6b6 47be daa1 cabe 4332 cc3e 5156 fe3d

norm1.weight f4 [128]
0.97674733 1.0142655 0.88762116 0.9669179 0.90211767 0.9613259 0.90032625 0.9102963
0.90818274 1.133718 0.9337347 0.98248386 1.0513123 0.8892001 0.88775253 0.86189306
0.99499875 0.8662036 1.1141255 1.0495025 0.9300118 0.86329615 0.9182061 0.93160194
0.95437735 1.0113752 0.8809818 0.90480435 1.0232731 0.92462695 1.0374892 0.93763393
0.9642647 0.82439774 0.8671697 0.91731566 0.867087 0.94313073 0.96585137 0.9383687
1.0672973 1.0123185 0.8810263 0.87247354 0.9681537 0.8845678 0.8480952 0.89199024
1.0072467 0.9550284 0.9479612 0.95932776 0.9950622 0.8213463 0.83303946 0.8623194
0.9588626 1.0303409 0.9289822 0.91843694 1.0314845 1.0260736 0.87393194 0.85092753
0.99061936 0.9100207 0.92367125 1.0102818 0.92321324 0.93861574 0.9081325 0.94936526
0.9211286 0.9595184 0.9606078 0.93621963 0.982136 0.9011862 0.8603117 0.9584078
0.8918431 0.92164946 0.9511476 0.9381073 0.9831264 0.87774295 0.90085864 0.8194344
0.93163663 0.9164879 0.9465568 0.92529094 0.91746485 1.0514622 0.9549296 0.99261135
0.9328403 0.88167685 0.9823952 0.8703288 0.94300234 0.8986255 0.9353966 0.9737199
1.0220926 0.9678138 0.9941494 0.9784953 0.9326642 0.90932053 0.94905764 0.91587555
0.90102184 0.9432348 0.9782295 0.8970844 0.8719004 0.91520107 0.9416558 0.92323416
0.89972705 1.0194763 0.9364711 0.87733555 0.9451058 0.91695774 0.9957832 0.9690073
00000000: 1d0c 7a3f 74d3 813f 243b 633f ee87 773f
00000010: 2ff1 663f 7419 763f c87b 663f 2e09 693f
00000020: aa7e 683f ac1d 913f 3d09 6f3f 1084 7b3f
00000030: 6791 863f 9ea2 633f c043 633f 06a5 5c3f
00000040: 3db8 7e3f 85bf 5d3f aa9b 8e3f 1956 863f
00000050: 4115 6e3f fa00 5d3f 8e0f 6b3f 777d 6e3f
00000060: 1352 743f be74 813f 0688 613f 42a1 673f
00000070: 9dfa 823f 5ab4 6c3f 72cc 843f c708 703f
00000080: 0dda 763f bb0b 533f d5fe 5d3f 33d5 6a3f
00000090: 6af9 5d3f 0471 713f 0942 773f ee38 703f
000000a0: 339d 883f a793 813f f18a 613f 6d5a 5f3f
000000b0: ecd8 773f 0973 623f c41c 593f 7959 643f
000000c0: 76ed 803f be7c 743f 96ad 723f 8196 753f
000000d0: 65bc 7e3f c043 523f 1342 553f f7c0 5c3f
000000e0: 0578 753f 36e2 833f c7d1 6d3f af1e 6b3f
000000f0: af07 843f 6156 833f 01ba 5f3f 63d6 593f
00000100: 3b99 7d3f 1ef7 683f b875 6c3f ea50 813f
00000110: b457 6c3f 1f49 703f 5f7b 683f 9a09 733f
00000120: 15cf 6b3f ffa2 753f 65ea 753f 17ac 6f3f
00000130: 446d 7b3f 24b4 663f 633d 5c3f 375a 753f
00000140: d44f 643f 38f1 6b3f 697e 733f cd27 703f
00000150: 2cae 7b3f c3b3 603f ac9e 663f 74c6 513f
00000160: bd7f 6e3f f39e 6a3f 8c51 723f dedf 6c3f
00000170: fade 6a3f 5096 863f 4476 743f c71b 7e3f
00000180: 9fce 6e3f 93b5 613f 407e 7b3f decd 5e3f
00000190: 9a68 713f 520c 663f 2776 6f3f b545 793f
000001a0: eed3 823f a5c2 773f 9380 7e3f ab7e 7a3f
000001b0: 15c3 6e3f 3bc9 683f 71f5 723f d276 6a3f
000001c0: 5ea9 663f d677 713f 406d 7a3f 53a7 653f
000001d0: dd34 5f3f 9e4a 6a3f 5b10 713f 1359 6c3f
000001e0: 8354 663f 337e 823f 92bc 6f3f 1099 603f
000001f0: 74f2 713f bebd 6a3f a6eb 7e3f dd10 783f

norm1.bias f4 [128]
0.05490933 0.095097624 -0.042171665 0.016642902 -0.0036395227 0.015148122 -0.02988586 0.030715834
-0.010757912 0.1612752 0.00406059 0.047807556 0.05404778 -0.029369324 -0.039981566 -0.027243607
0.06313344 -0.045639135 0.19196872 0.09721513 0.0006248482 -0.06464205 0.001332731 0.018778803
0.015442123 0.119528495 -0.016546857 -0.022904899 0.09414375 0.014606853 0.14116992 0.0075936625
0.06298482 -0.09190293 -0.051954746 0.018760858 -0.05688718 0.008299847 0.058707286 -0.0020998423
0.15829442 0.04271051 -0.050862897 -0.031613942 0.08638705 -0.026549261 -0.06085994 0.00010805206
0.043111395 0.018818868 0.02865184 0.08311284 0.028155498 -0.07077875 -0.049377933 -0.07159663
0.040816687 0.10372098 0.053258218 -0.025877595 0.03886601 0.023676993 -0.034337323 -0.06626463
0.06233922 0.009187775 -0.010286282 0.09852495 0.00081898813 -0.0050506946 0.014262364 0.033703603
-0.020689689 0.02422064 0.030487025 -0.010910006 0.052727196 -0.025930373 -0.047125462 0.0021809721
-0.03128834 0.0044179293 0.007422396 0.01465669 0.06026494 -0.03451734 -0.0025176741 -0.09086155
6.923214e-05 0.017866671 0.07902084 -0.016253464 -0.024591817 0.07595288 0.036650356 0.048808604
0.013525098 -0.03673049 0.01693874 -0.057712086 0.034544166 -0.032785486 0.021043083 0.042585064
0.09436176 0.069362745 0.11555614 0.055937596 0.009741288 -0.04171357 0.014399058 -0.010456266
-0.019869933 0.013371503 0.04049753 -0.02316195 -0.030167228 -0.009010267 -0.0044208574 -0.012554872
-0.006171716 0.0017952204 -0.0047532893 -0.051415756 0.028369641 -0.0056571495 -0.009662519 0.013873203
00000000: 9be8 603d 8bc2 c23d 32bc 2cbd b256 883c
00000010: 0f85 6ebb d42f 783c 31d3 f4bc c69f fb3c
00000020: f441 30bc 5325 253e b30e 853b dbd1 433d
00000030: 3461 5d3d f097 f0bc b6c3 23bd fc2d dfbc
00000040: 1b4c 813d 1af0 3abd 7393 443e ba18 c73d
00000050: dacc 233a 0d63 84bd 08af ae3a 01d6 993c
00000060: f500 7d3c 5bcb f43d 468d 87bc 0ea3 bbbc
00000070: 70ce c03d 9551 6f3c d98e 103e 42d4 f83b
00000080: 2ffe 803d 9a37 bcbd 80ce 54bd 5fb0 993c
00000090: 8802 69bd 15fc 073c 0d77 703d 829d 09bb
000000a0: ef17 223e 37f1 2e3d 9d55 50bd 9f7d 01bd
000000b0: b2eb b03d d67d d9bc 4648 79bd 029a e238
000000c0: 9395 303d 072a 9a3c 43b7 ea3c 1137 aa3d
000000d0: 5ca6 e63c 73f4 90bd 8440 4abd 41a1 92bd
000000e0: 662f 273d aa6b d43d 4a25 5a3d 40fd d3bc
000000f0: f731 1f3d 41f6 c13c 4ba5 0cbd c0b5 87bd
00000100: 6957 7f3d 5288 163c cb87 28bc 73c7 c93d
00000110: 5db1 563a 4c80 a5bb b1ac 693c ca0c 0a3d
00000120: 6c7d a9bc 5d6a c63c edbf f93c e2bf 32bc
00000130: 79f8 573d ef6b d4bc a106 41bd a4ee 0e3b
00000140: 3428 00bd 47c4 903b 9237 f33b 9d22 703c
00000150: 5fd8 763d 0e62 0dbd 90ff 24bb 9f15 babd
00000160: b930 9138 205d 923c aed5 a13d fc25 85bc
00000170: c774 c9bc 2f8d 9b3d af1e 163d 88eb 473d
00000180: 5f98 5d3c b672 16bd 1dc3 8a3c 8263 6cbd
00000190: 2f7e 0d3d 134a 06bd 8b62 ac3c ad6d 2e3d
000001a0: bd40 c13d 0e0e 8e3d b3a8 ec3d d21e 653d
000001b0: ec99 1f3c d9db 2abd 07ea 6b3c c250 2bbc
000001c0: 45c6 a2bc 2614 5b3c bde0 253d 21be bdbc
000001d0: 4321 f7bc cd9f 13bc d7dc 90bb f3b2 4dbc
000001e0: 1b3c cabb 9a4d eb3a 7bc1 9bbb 5499 52bd
000001f0: 7367 e83c 9c5f b9bb 8b4f 1ebc 6e4c 633c

fc2.weight f4 [64, 128]
0.010734685 0.07784925 -0.04966754 0.040932056 -0.028374253 0.091208994 0.036621675 0.036720224
-0.00491508 0.040094987 0.052715115 0.0046614143 -0.00795729 -0.027574196 0.02619547 0.04981045
-0.08490707 0.08227607 0.12754206 -0.0020886092 -0.036573824 -0.109855786 -0.037755333 -0.031917308
-0.050012074 0.100894205 0.057713453 -0.079216525 0.099223495 0.08425415 0.050410498 -0.006114835
0.08900385 0.045197546 0.030757528 -0.043122534 0.035135448 -0.013716715 0.002199727 -0.09793378
-0.045959566 -0.054280315 -0.04079601 -0.029089835 -0.03161194 0.024191804 0.0076712742 -0.045040935
-0.022551207 -0.06514655 0.018866576 0.057076667 -0.027055807 -0.06041793 -0.0034065982 -0.0016715
-0.02441863 0.03663791 -0.018822277 -0.035823215 -0.06867159 0.08798674 0.018775612 0.002228878
0.03911645 -0.024674963 0.003971988 -0.013304403 -0.0362719 -0.055061385 0.014652243 0.03583056
0.038645916 0.0011064445 0.045497853 -0.041725475 0.03839889 0.010307349 0.022742426 -0.056670774
-0.06776993 0.09576646 0.023974875 -0.04267492 -0.034476206 0.034514494 0.026540987 -0.004932381
0.014555054 -0.1124694 0.019926827 0.03732838 -0.059508316 0.0621709 -0.026868014 0.108520314
0.08973462 -0.046918895 -0.03376715 -0.0113370335 0.09765504 -0.030972071 -0.057305526 0.068017125
-0.058344286 -0.03679096 -0.089198485 0.013747489 -0.024189636 0.054492895 -0.11213904 -0.07860857
0.01739276 -0.044729568 -0.128552 -0.05089492 0.047244534 0.06614389 -0.099817984 0.024990266
0.066000454 -0.07773263 -0.026509205 -0.0007521042 0.024884412 -0.04881315 0.10535118 -0.0016919966
0.07495449 -0.092937544 0.039478835 -0.06307898 -0.07536286 -0.010231278 0.023527449 0.027081233
-0.034370843 -0.036273878 -0.046176683 -0.056389175 -0.01488166 -0.013326532 -0.056658633 0.040643033
-0.093206055 -0.0281312 -0.006934534 -0.0377578 0.029900143 -0.08877429 -0.029110815 -0.05910266
-0.058344666 -0.05273805 0.018149622 -0.043620728 0.08462809 0.019381363 -0.1464081 -0.066687055
0.003707077 0.04185373 -0.05475225 0.028918039 -0.009923453 -0.060191747 -0.038927402 0.02880543
-0.049123503 -0.0025558602 0.013830377 -0.09531438 0.07417103 -0.0232222 -0.07200198 -0.052898135
0.045909088 -0.036943387 0.10228292 -0.06735524 -0.027506582 -0.119649194 -0.039376203 -0.08507856
0.038252868 -0.009871767 -0.07174057 -0.0331875 -0.11126419 -0.05241083 -0.008571823 -0.14138769
-0.070502765 -0.0058395737 0.028223464 -0.06623454 -0.13508366 -0.008545583 0.055202283 0.040663946
-0.11031981 -0.036811534 -0.054012407 0.05533133 0.003986006 -0.038104236 0.0037560235 -0.050726425
0.020960845 -0.08085707 0.02733842 -0.008240225 -0.06884912 0.014799204 -0.019268243 0.033193048
-0.0012429234 -0.017126335 0.01658768 0.017586982 -0.079188555 -0.020667348 -0.0018933679 0.034421824
-0.010468683 -0.082957715 -0.004320142 -0.09054856 -0.062384527 -0.090758 -0.038191233 -0.054822426
0.009933885 -0.017446728 0.0524483 -0.06465847 -0.016308762 -0.025285369 -0.03772919 -0.0667534
-0.013265269 -0.104601815 0.015749251 -0.057477567 -0.040152475 -0.013936994 -0.048673037 -0.077441305
-0.006466307 0.04651591 -0.07231122 -0.062415116 -0.044549618 0.03056719 -0.025497751 0.00046079958
00000000: 88e0 2f3c 6d6f 9f3d 3170 4bbd 5fa8 273d
00000010: 1f71 e8bc c8cb ba3d 9c00 163d f267 163d
00000020: ae0e a1bb a43a 243d ceeb 573d c7be 983b
00000030: 4b5f 02bc 48e3 e1bc e297 d63c 0b06 4c3d
00000040: c2e3 adbd 5b80 a83d 639a 023e 0ce1 08bb
00000050: 6fce 15bd 12fc e0bd 56a5 1abd b9bb 02bd
00000060: 76d9 4cbd 9fa1 ce3d f164 6c3d 463c a2bd
00000070: b035 cb3d 718d ac3d 3d7b 4e3d f45e c8bb
00000080: a747 b63d 1021 393d 36f7 fb3c 41a1 30bd
00000090: 30ea 0f3d 13bc 60bc 4c29 103b 8191 c8bd
000000a0: 1940 3cbd 0955 5ebd b819 27bd ce4d eebc
000000b0: 867b 01bd e42d c63c 505f fb3b d87c 38bd
000000c0: 4fbd b8bc 8e6b 85bd 148e 9a3c 39c9 693d
000000d0: 24a4 ddbc cb78 77bd 3c41 5fbb 3c16 dbba
000000e0: 9409 c8bc a211 163d 2d31 9abc 5dbb 12bd
000000f0: b1a3 8cbd 6432 b43d 50cf 993c 5e12 123b
00000100: 9238 203d 2623 cabc 7327 823b b6fa 59bc
00000110: d891 14bd 0c88 61bd f60f 703c 11c3 123d
00000120: 2e4b 1e3d 1e06 913a f55b 3a3d 55e8 2abd
00000130: 2848 1d3d 28e0 283c 534e ba3c 9d1f 68bd
00000140: f6ca 8abd 3521 c43d f566 c43c e6cb 2ebd
00000150: ec36 0dbd 125f 0d3d 7c6c d93c d09f a1bb
00000160: 5278 6e3c 5b56 e6bd 963d a33c a5e5 183d
00000170: febe 73bd eaa6 7e3d 4f1a dcbc e63f de3d
00000180: c9c6 b73d 072e 40bd 6c4f 0abd f7be 39bc
00000190: 5eff c73d 24b9 fdbc 33b9 6abd 904c 8b3d
000001a0: 6bfa 6ebd 1eb2 16bd b2ad b6bd 263d 613c
000001b0: 5829 c6bc f133 5f3d 27a9 e5bd 88fd a0bd
000001c0: 437b 8e3c 5a36 37bd 23a3 03be 3177 50bd
000001d0: 7c83 413d 7376 873d 5f6d ccbd 63b8 cc3c
000001e0: 3f2b 873d 4932 9fbd d529 d9bc dc28 45ba
000001f0: 65da cb3c 4cf0 47bd 5cc2 d73d fcc5 ddba
00000200: bd81 993d 0a56 bebd 8fb4 213d 8d2f 81bd
00000210: d857 9abd 17a1 27bc a3bc c03c 76d9 dd3c
00000220: 71c8 0cbd eb93 14bd c323 3dbd 56f8 66bd
00000230: 35d2 73bc 8757 5abc e212 68bd 4f79 263d
00000240: d1e2 bebd 6773 e6bc 163b e3bb eca7 1abd
00000250: 25f1 f43c 4ccf b5bd ce79 eebc a115 72bd
00000260: d1fa 6ebd db03 58bd 84ae 943c a6ab 32bd
00000270: 7e51 ad3d aac5 9e3c 01ec 15be 3993 88bd
00000280: 6ef2 723b d16e 2b3d e543 60bd 86e5 ec3c
00000290: fb95 22bc 9f8b 76bd 5772 1fbd 5df9 eb3c
000002a0: ba35 49bd 3880 27bb ce98 623c 3034 c3bd
000002b0: fbe6 973d 7c3c bebc c675 93bd b7ab 58bd
000002c0: 2b0b 3c3d f351 17bd b579 d13d 8bf1 89bd
000002d0: 7c55 e1bc a30a f5bd f148 21bd ab3d aebd
000002e0: 0aaf 1c3d 31bd 21bc b8ec 92bd 9eef 07bd
000002f0: 7bde e3bd bdac 56bd d570 0cbc efc7 10be
00000300: c163 90bd e559 bfbb e534 e73c f9a5 87bd
00000310: 5f53 0abe c602 0cbc ca1b 623d 3d8f 263d
00000320: 5aef e1bd b1c7 16bd 1d3c 5dbd 1ba3 623d
00000330: 0b9d 823b 3013 1cbd 9e27 763b 83c6 4fbd
00000340: 14b6 ab3c 6498 a5bd d2f4 df3c 0202 07bc
00000350: c400 8dbd 5c78 723c 6fd8 9dbc 6ff5 073d
00000360: 97e9 a2ba 874c 8cbc e3e2 873c 9312 903c
00000370: 9c2d a2bd 924e a9bc e22a f8ba e6fd 0c3d
00000380: d784 2bbc bce5 a9bd fa8f 8dbb 8671 b9bd
00000390: eb86 7fbd 55df b9bd 696e 1cbd 7b8d 60bd
000003a0: bcc1 223c 71ec 8ebc 07d4 563d a96b 84bd
000003b0: f499 85bc 4323 cfbc ec89 1abd 02b6 88bd
000003c0: 9256 59bc 7a39 d6bd 9304 813c 996d 6bbd
000003d0: ec76 24bd fd57 64bc 615d 47bd 8c99 9ebd
000003e0: 51e3 d3bb 7887 3e3d e817 94bd fea6 7fbd
000003f0: a979 36bd 0b68 fa3c a9e0 d0bc 7997 f139

fc2.bias f4 [64]
-0.021286787 -0.11980281 -0.107748225 0.066446394 0.0039183414 0.08388667 -0.06606476 -0.014452804
0.0063085128 -0.05147296 0.06884086 -0.04585536 -0.06335347 -0.059098367 -0.15522411 -0.0120599
-0.115953416 0.014561398 -0.13596925 0.03363216 0.04046483 -0.077554666 0.0023048322 -0.112437
-0.06413057 -0.08603549 -0.07745782 -0.009381222 -0.10511601 0.07629178 -0.008212236 -0.07098103
0.06038348 -0.002821007 0.006131933 -0.017672976 -0.060720153 0.06589383 -0.026440049 -0.058384117
-0.11081004 -0.14103378 0.060262322 -0.12669902 0.049736805 -0.10161577 0.07512579 -0.06106009
-0.109438315 -0.013467992 -0.07230068 -0.022433318 0.008336664 0.035406057 -0.1285575 0.04632796
-0.07610286 -0.042170912 -0.06248501 -0.05796142 -0.06964569 -0.008611573 -0.03903455 -0.015705893
00000000: a161 aebc 2d5b f5bd 1aab dcbd 0c15 883d
00000010: 6e65 803b c6cc ab3d f64c 87bd 74cb 6cbc
00000020: a4b7 ce3b 4fd5 52bd 70fc 8c3d d4d2 3bbd
00000030: 77bf 81bd 2111 72bd 12f3 1ebe e396 45bc
00000040: fc78 edbd ee92 6e3c 863b 0bbe e0c1 093d
00000050: 73be 253d fbd4 9ebd ab0c 173b 5f45 e6bd
00000060: e356 83bd 6033 b0bd 35a2 9ebd b2b3 19bc
00000070: 1047 d7bd dd3e 9c3d 9d8c 06bc 815e 91bd
00000080: ab54 773d a5e0 38bb 62ee c83b ebc6 90bc
00000090: b2b5 78bd 58f3 863d cd98 d8bc 2f24 6fbd
000000a0: 60f0 e2bd 296b 10be a0d5 763d 63bd 01be
000000b0: d2b8 4b3d ee1b d0bd 8ddb 993d 251a 7abd
000000c0: 3221 e0bd daa8 5cbc 6112 94bd 14c6 b7bc
000000d0: 8196 083c f105 113d 94a4 03be 63c2 3d3d
000000e0: d1db 9bbd 68bb 2cbd 48f0 7fbd f468 6dbd
000000f0: 66a2 8ebd 8e17 0dbc b1e2 1fbd a5a9 80bc

norm2.weight f4 [64]
0.9136266 0.86224467 0.8964878 0.91701734 0.89465916 0.9697081 0.95941347 0.86222506
0.95079064 0.93340033 0.99806297 0.9285401 0.90307844 0.9854582 0.8945156 0.94446707
0.87152416 0.93763614 0.8618726 0.9455281 0.925743 0.90391076 0.9691972 0.832404
0.8757721 0.8712658 0.84903 0.9303616 0.893769 0.9211874 0.9375869 0.88687444
0.91516894 0.9421461 0.8839639 0.92731947 0.8675573 0.9500873 0.95236903 0.8617592
0.91598433 0.8683682 0.9657622 0.9048742 0.9446014 0.9232797 0.97319627 1.0320268
0.8413174 0.91095144 0.9346909 0.9010032 0.93049306 0.9760664 0.8639568 0.974717
0.8515972 0.93464965 0.9033116 0.8882536 0.8738926 0.917493 0.95936894 0.9405419
00000000: 6fe3 693f 11bc 5c3f 3980 653f a6c1 6a3f
00000010: 6208 653f ca3e 783f 1f9c 753f c8ba 5c3f
00000020: 0467 733f 53f3 6e3f 0e81 7f3f ceb4 6d3f
00000030: 2630 673f fd46 7c3f f9fe 643f 98c8 713f
00000040: 351c 5f3f ec08 703f afa3 5c3f 210e 723f
00000050: 7efd 6c3f b266 673f 4f1d 783f 6e18 553f
00000060: 9a32 603f 470b 5f3f 085a 593f 2e2c 6e3f
00000070: 0cce 643f f0d2 6b3f b205 703f 340a 633f
00000080: 8348 6a3f 7d30 713f 754b 623f cf64 6d3f
00000090: 3c18 5e3f ec38 733f 75ce 733f 409c 5c3f
000000a0: f37d 6a3f 614d 5e3f 313c 773f d6a5 673f
000000b0: 66d1 713f 0f5c 6c3f 6423 793f 7419 843f
000000c0: 9460 573f 1d34 693f e747 6f3f 25a8 663f
000000d0: cb34 6e3f 7ddf 793f 462c 5d3f 0e87 793f
000000e0: 4602 5a3f 3345 6f3f 6e3f 673f 9764 633f
000000f0: 6db7 5f3f d2e0 6a3f 3499 753f 5bc7 703f

norm2.bias f4 [64]
0.01959778 -0.081455104 -0.03935887 0.0049142903 -0.0238182 0.024100516 0.014638669 -0.044678207
0.038753863 0.043191783 0.026194634 0.028797481 -0.027895097 0.047449965 -0.039632138 0.050151657
-0.06928438 0.0523118 -0.0662553 0.07909007 0.016748698 0.044955384 0.020226683 -0.11618054
-0.040700287 0.033775076 -0.024682205 0.022243176 0.057968587 0.030992119 0.032956526 -0.0063918866
-0.0093090115 -0.002570488 -0.04786886 0.015962334 -0.031369157 -0.005931073 0.0155976545 -0.04016014
0.017591672 -0.029855724 0.017691836 -0.022172041 0.018471085 0.01728595 0.035381276 0.06954524
-0.061312795 0.04716259 -0.0036166264 -0.008803475 0.01513098 0.034455616 -0.061163973 0.016435685
-0.09491431 0.0052649993 0.009910901 -0.030142019 -0.039542075 -0.022944726 0.046959892 0.06036197
00000000: 868b a03c efd1 a6bd c436 21bd 0e08 a13b
00000010: 631e c3bc 726e c53c 07d7 6f3c 7f00 37bd
00000020: 5fbc 1e3d dee9 303d 2196 d63c b2e8 eb3c
00000030: 4284 e4bc e55a 423d 4f55 22bd d36b 4d3d
00000040: f8e4 8dbd e644 563d dcb0 87bd faf9 a13d
00000050: 9134 893c 2323 383d 6eb2 a53c 10f0 edbd
00000060: 58b5 26bd bc57 0a3d 5632 cabc 5237 b63c
00000070: 7870 6d3d 2fe3 fd3c 6cfd 063d 0873 d1bb
00000080: d384 18bc a275 28bb 2312 44bd 71c3 823c
00000090: f27c 00bd 7259 c2bb 4e8d 7f3c f57e 24bd
000000a0: 691c 903c fe93 f4bc 78ee 903c 24a2 b5bc
000000b0: ac50 973c 449b 8d3c f5eb 103d bc6d 8e3d
000000c0: 2023 7bbd 8f2d 413d ec04 6dbb 733c 10bc
000000d0: eee7 773c 5521 0d3d 1387 7abd 21a4 863c
000000e0: 6f62 c2bd 0486 ac3b 5561 223c 65ec f6bc
000000f0: dff6 21bd 94f6 bbbc 0459 403d 1d3e 773d

fc3.weight f4 [32, 64]
0.03687067 0.051866308 0.036363445 0.0091885775 -0.019959342 0.064118765 -0.08163146 0.04174418
-0.16788755 -0.14173631 -0.08274608 0.022304954 0.037633568 0.06214075 -0.022399569 -0.018652687
-0.094082855 -0.028248338 0.021783516 0.018285237 0.111663096 -0.03755612 0.054958288 0.06233498
-0.05157634 0.032668337 -0.0447629 -0.028680963 -0.24212049 -0.03664247 -0.037188645 0.107285015
-0.037685145 -0.090967506 -0.09364141 -0.1115744 0.06394569 -0.043973353 -0.0052654017 0.036346965
-0.16045344 0.018844808 0.08997016 0.11277922 0.028483097 0.04315449 0.06825559 0.047107656
-0.12209132 -0.18917918 -0.09885816 -0.05199882 0.08292532 0.11533615 0.014186898 0.09486602
-0.12317821 -0.10411035 -0.032156147 -0.1541911 -0.016259402 -0.08674972 -0.12472297 -0.14627028
-0.023210997 -0.059412166 0.022312762 -0.0075086225 0.011515473 -0.0724197 0.07043238 0.0024119292
-0.016031217 0.00049271056 0.095515065 -0.022752587 -0.10417169 -0.12540464 -0.0969762 -0.08730911
0.0529537 -0.098633274 0.0153663745 -0.18997933 -0.04379197 -0.21792513 -0.03848138 0.025476106
0.056863837 -0.25771874 -0.12064875 0.098404415 -0.13889942 -0.07248817 0.031033993 0.0746909
0.06052621 0.12472061 -0.13819264 0.12523535 -0.04525789 0.076579385 0.08728639 -0.047954757
-0.09407157 0.018169155 -0.10428836 -0.12373573 -0.02514043 -0.10981507 -0.03377171 -0.111395605
-0.09881291 -0.12579283 0.13429634 -0.015465708 -0.0016168928 -0.028244039 0.074663565 -0.094458014
-0.13687618 0.07610334 0.050018024 -0.04123986 0.030645154 -0.025756191 0.070877954 -0.052126862
-0.015923742 -0.040552862 0.06319626 -0.042441174 -0.116500385 0.10554461 -0.014195515 -0.13920885
-0.20205095 -0.08826711 -0.049442504 0.077705905 0.029241728 0.06880649 -0.069345325 0.16124411
0.028951189 0.058725197 -0.025116622 -0.07915243 0.0016766603 0.040820677 0.021774007 0.05473537
-0.027145393 -0.097867414 0.061716642 -0.08814935 -0.34368634 0.11119687 -0.034281094 0.0034315847
0.0913976 -0.11635271 -0.07856757 -0.0077342554 -0.025893798 -0.06372507 -0.079072274 0.005295932
-0.24005891 -0.13144128 0.054636806 0.03555946 0.10078163 0.028865268 0.09206393 0.065789804
-0.13157897 -0.26437625 -0.06724341 -0.02794603 0.09597802 0.08307541 -0.13179266 0.016215973
0.016225863 -0.06759036 -0.04805323 -0.20412673 -0.027479965 0.033312175 -0.20073998 -0.12617077
0.013415958 -0.06324478 -0.07488015 -0.07618059 -0.13074996 0.15077697 -0.042310033 -0.14289603
-0.123480156 -0.21513498 -0.05414062 0.016353486 -0.0061082533 -0.029957473 -0.043865114 0.064909734
-0.04916576 -0.13480236 -0.045261037 -0.017294437 0.046919454 -0.08880468 0.1260214 -0.053925972
-0.14636491 -0.107127495 0.011504538 -0.065881304 -0.32086203 -0.030859655 -0.057691794 0.019375866
0.03935172 -0.07708 -0.00942874 -0.026395364 0.016764047 0.0011449199 -0.10175856 -0.103903435
-0.21286453 -0.12498345 0.03896431 -0.01507779 0.057192035 -0.05579867 0.07313492 -0.0053240834
-0.1653736 -0.21170227 -0.044822775 -0.048203893 0.12951821 0.10634633 0.058090407 0.056321587
-0.06341537 -0.035947844 0.0075284876 0.02664523 0.0019628925 -0.05498713 -0.057460997 -0.22607213
00000000: b305 173d c471 543d d6f1 143d b08b 163c
00000010: c681 a3bc b350 833d 652e a7bd f2fb 2a3d
00000020: b7ea 2bbe 5323 11be c776 a9bd e1b8 b63c
00000030: a825 1a3d 4d87 7e3d 4d7f b7bc 85cd 98bc
00000040: 83ae c0bd 0f69 e7bc 5873 b23c ecca 953c
00000050: 9faf e43d 72d4 19bd f11b 613d f752 7f3d
00000060: b641 53bd 3ccf 053d 4d59 37bd 57f4 eabc
00000070: 6fee 77be 6a16 16bd 1f53 18bd 3fb8 db3d
00000080: bd5b 1abd 2c4d babd 11c7 bfbd 1e81 e4bd
00000090: f5f5 823d 671d 34bd 6489 acbb 8ee0 143d
000000a0: e84d 24be 6d60 9a3c 4642 b83d cbf8 e63d
000000b0: 6255 e93c c3c2 303d 96c9 8b3d f5f3 403d
000000c0: 040b fabd 30b8 41be 2676 cabd b7fc 54bd
000000d0: c0d4 a93d 5c35 ec3d 2a70 683c 1e49 c23d
000000e0: db44 fcbd cf37 d5bd 2ab6 03bd 46e4 1dbe
000000f0: 7032 85bc d6a9 b1bd c26e ffbd e0c7 15be
00000100: fd24 bebc 2c5a 73bd 41c9 b63c e40a f6bb
00000110: 65ab 3c3c c850 94bd da3e 903d 7511 1e3b
00000120: e653 83bc 3f29 013a 679d c33d a263 babc
00000130: f857 d5bd 136a 00be 759b c6bd 1ecf b2bd
00000140: fbe5 583d 3e00 cabd 3fc3 7b3c f189 42be
00000150: 355f 33bd c427 5fbe a79e 1dbd 44b3 d03c
00000160: 0eea 683d b6f3 83be b116 f7bd 4188 c93d
00000170: a63b 0ebe ad74 94bd 003b fe3c 8bf7 983d
00000180: 55ea 773d 856d ff3d 5f82 0dbe b23d 003e
00000190: 5660 39bd a7d5 9c3d 35c3 b23d 356c 44bd
000001a0: 98a8 c0bd 7bd7 943c 2395 d5bd 2969 fdbd
000001b0: 4ef3 cdbc b9e6 e0bd 3454 0abd 6123 e4bd
000001c0: 6c5e cabd d6cf 00be fb84 093e e263 7dbc
000001d0: ebed d3ba 0b60 e7bc 36e9 983d 3473 c1bd
000001e0: 4529 0cbe 11dc 9b3d b3df 4c3d 21eb 28bd
000001f0: 8c0b fb3c a6fe d2bc 7628 913d fa82 55bd
00000200: 8272 82bc c21a 26bd 0a6d 813d ccd6 2dbd
00000210: c197 eebd c627 d83d 4e94 68bc c48c 0ebe
00000220: 72e6 4ebe 63c5 b4bd 3984 4abd 4624 9f3d
00000230: 598c ef3c 6bea 8c3d ec04 8ebd 2d1d 253e
00000240: 0b2b ed3c d589 703d 60c1 cdbc ab1a a2bd
00000250: 62c3 db3a 9533 273d 675f b23c 3232 603d
00000260: 0460 debc b66e c8bd 97ca 7c3d a587 b4bd
00000270: a8f7 afbe 2fbb e33d 556a 0cbd 70e4 603b
00000280: aa2e bb3d 544a eebd 09e8 a0bd a36f fdbb
00000290: 3b1f d4bc 4a82 82bd a5f0 a1bd 7f89 ad3b
000002a0: 01d2 75be 8b98 06be d8ca 5f3d cca6 113d
000002b0: 9966 ce3d db76 ec3c 048c bc3d cebc 863d
000002c0: a3bc 06be 535c 87be eab6 89bd 13ef e4bc
000002d0: 2090 c43d 7123 aa3d a8f4 06be 5cd7 843c
000002e0: 1aec 843c d16c 8abd 77d3 44bd 9906 51be
000002f0: aa1d e1bc 5972 083d c88e 4dbe e932 01be
00000300: 9bce 5b3c 7b86 81bd c45a 99bd 9204 9cbd
00000310: 51e3 05be 4765 1a3e 494d 2dbd 5653 12be
00000320: 2ae3 fcbd 584c 5cbe 8ec2 5dbd bff7 853c
00000330: be27 c8bb 6069 f5bc e8ab 33bd 65ef 843d
00000340: 0962 49bd a109 0abe a363 39bd 10ad 8dbc
00000350: 9d2e 403d 3adf b5bd c10b 013e 7be1 5cbd
00000360: afe0 15be a965 dbbd 887d 3c3c c7ec 86bd
00000370: 0748 a4be 63cd fcbc 3b4e 6cbd 23ba 9e3c
00000380: 452f 213d 1edc 9dbd 007b 1abc 173b d8bc
00000390: c154 893c 2311 963a cb66 d0bd 53cb d4bd
000003a0: 29f9 59be 53f7 ffbd 0a99 1f3d d608 77bc
000003b0: 3242 6a3d 258d 64bd c3c7 953d a675 aebb
000003c0: b257 29be 7bc8 58be 1698 37bd 7271 45bd
000003d0: 6ca0 043e 1bcc d93d 35f0 6d3d 77b1 663d
000003e0: ebdf 81bd 0c3e 13bd 88b1 f63b 1947 da3c
000003f0: dfa3 003b 2f3a 61bd 395c 6bbd 747f 67be

fc3.bias f4 [32]
0.084171824 -0.052033957 0.13407585 0.13008063 -0.15741359 -0.037707634 0.02645777 -0.088353276
-0.10041661 0.0744198 0.118274495 -0.17019267 0.08696157 -0.13504459 -0.061244383 0.10240002
0.12329759 0.06381849 -0.16584745 0.078598775 0.08235293 -0.09071398 0.06586564 -0.24100867
-0.12801129 -0.052752662 0.13544624 -0.017328039 0.022249537 0.103454694 -0.102642015 -0.065370165
00000000: 4762 ac3d 8f21 55bd 2e4b 093e db33 053e
00000010: 0731 21be 5273 1abd f7bd d83c 90f2 b4bd
00000020: 39a7 cdbd 6869 983d e639 f23d fd46 2ebe
00000030: e818 b23d 2149 0abe 64db 7abd 1ab7 d13d
00000040: 7283 fc3d 45b3 823d ead3 29be 65f8 a03d
00000050: a7a8 a83d 40c8 b9bd 91e4 863d faca 76be
00000060: 6415 03be 2d13 58bd 6bb2 0a3e 88f3 8dbc
00000070: a944 b63c 0ee0 d33d fa35 d2bd cbe0 85bd

norm3.weight f4 [32]
1.59742 1.5020835 1.64883 1.768877 0.95143384 1.6574733 1.5680331 0.938878
0.95571876 1.5316992 1.5515379 0.9382643 1.5846214 0.9439559 1.4661754 1.595106
1.7068925 1.6291991 0.9360882 1.6962379 1.5968665 0.92326826 1.5775579 0.9272908
0.9253844 1.5461159 1.5668508 1.5542134 1.38859 1.6095338 0.9606275 1.552401
00000000: 4278 cc3f 4644 c03f dd0c d33f 906a e23f
00000010: 2b91 733f 1628 d43f 4fb5 c83f 4f5a 703f
00000020: fca9 743f b80e c43f cb98 c63f 1732 703f
00000030: e0d4 ca3f 18a7 713f a3ab bb3f 6f2c cc3f
00000040: 747b da3f 9989 d03f 7aa3 6f3f 531e d93f
00000050: 1f66 cc3f 4f5b 6c3f 6bed c93f ee62 6d3f
00000060: fee5 6c3f 20e7 c53f 918e c83f 77f0 c63f
00000070: 51bd b13f 3405 ce3f afeb 753f 13b5 c63f

norm3.bias f4 [32]
0.5796336 0.41540152 0.55600274 0.5827204 0.057345085 0.52107173 0.42390803 0.017277893
0.03906544 0.452496 0.46471056 0.013505275 0.44445497 0.022917854 0.36285535 0.44905987
0.44632262 0.4834253 0.025860377 0.5186479 0.43109074 -0.0037250575 0.44485372 0.0149262
0.005525921 0.4452909 0.505171 0.52863854 0.39545047 0.548215 0.062698044 0.5005773
00000000: de62 143f 82af d43e 3256 0e3f 2a2d 153f
00000010: aee2 6a3d f564 053f 790a d93e 5e8a 8d3c
00000020: 1503 203d 8ead e73e 8bee ed3e 3b45 5d3c
00000030: 9a8f e33e 39be bb3c 2dc8 b93e 2deb e53e
00000040: 6684 e43e 8583 f73e 24d9 d33c 1cc6 043f
00000050: edb7 dc3e 1820 74bb dec3 e33e 058d 743c
00000060: c912 b53b 2bfd e33e e352 013f db54 073f
00000070: 7c78 ca3e d157 0c3f d567 803d d525 003f

fc4.weight f4 [1, 32]
-0.6236693 0.60190153 -0.62006795 -0.6737792 -0.06019963 -0.7048904 0.6376903 0.0382496
0.056287594 0.6666968 0.5883902 0.023225654 -0.7007636 0.0697224 0.60855216 0.6054231
0.76165473 0.61514187 -0.037699565 -0.6485394 0.6535416 0.018629577 0.5915974 -0.09600947
-0.0062675197 -0.66359895 -0.6426755 -0.6462427 0.54687214 -0.6070305 -0.053074695 0.5223857
00000000: cba8 1fbf 3816 1a3f c6bc 1ebf cb7c 2cbf
00000010: e393 76bd b273 34bf ac3f 233f 9dab 1c3d
00000020: d28d 663d a4ac 2a3f bda0 163f ba43 be3c
00000030: 3e65 33bf 9eca 8e3d 13ca 1b3f 02fd 1a3f
00000040: cefb 423f f079 1d3f dc6a 1abd ae06 26bf
00000050: 814e 273f 0e9d 983c ed72 173f 9da0 c4bd
00000060: c45f cdbb 9fe1 29bf 6286 24bf 2970 25bf
00000070: d0ff 0b3f 5a66 1bbf da64 59bd 12bb 053f
