models/big_small_model.pth (torch, 23465 bytes, 19 tensors)

fc1.weight f4 [64, 14]
-0.004444357 0.019220239 0.01863154 0.021477742 0.030467413 -0.0062142774 0.006543659 0.0036111914
0.0015221261 5.869072e-05 0.003897274 -0.005373886 -0.00051849877 0.0066831354 -0.005295885 0.021495003
0.019399969 0.016726883 0.026986772 -0.00021769099 0.0014133711 0.003970231 -0.0031380756 -0.0013773948
0.004325555 -0.005130898 -0.0012982492 0.0010892285 0.0005883314 0.020830102 0.017040385 0.021046868
0.020931 -0.00101099 0.0065929526 -0.0002348088 0.0016597385 0.0020423874 0.016530713 -0.016313309
0.0012683641 0.0002476526 0.0049578534 0.020761792 0.015191701 0.016918203 0.01413394 -0.0010522376
0.003282846 0.0016767244 -0.0008811035 -0.0012358072 0.026263278 -0.018513763 -0.0012249752 -0.004089367
0.0027397333 0.022581868 0.020412464 0.022002816 0.02394256 -0.0066927504 0.0048458553 0.0027631652
0.00080094114 -0.0015687738 0.013012873 -0.011399491 -0.004238746 -0.00015430847 -0.0024353045 0.021708023
0.017574767 0.019393414 0.022363117 0.002146587 0.009922149 1.9038338e-06 0.0003928538 -0.005524574
-0.010422006 0.004353229 0.00037056478 0.0048378427 0.0023062336 0.01933806 0.01943352 0.017771624
0.01752241 -0.0033038238 0.0041742227 -0.003780392 0.00025595995 -0.00034382383 0.022150919 -0.019459054
-0.0038936324 -0.004012499 0.002893606 0.01777339 0.01822513 0.020807862 0.023781922 -0.006333793
0.008530445 -0.0012210524 7.691375e-05 -0.0014208788 0.011234676 -0.0111295 -0.0003505552 -0.0004025529
0.00039448406 -0.01249946 -0.00982738 -0.011839776 -0.013726218 -0.00018243832 -0.0026395551 -0.0036958598
-0.0031745413 0.00033325105 -0.014988979 -0.011079508 -0.0014984732 -0.0020784999 -0.0008971954 0.023760227
0.021691108 0.021544617 0.022539089 -0.0022896118 0.0036927415 0.0054951436 0.0009780419 0.00069101364
0.0027835371 -0.010046194 0.0019261385 -0.0017279452 -0.0026703628 -0.013816032 -0.010641631 -0.009678156
-0.017403008 0.0018313169 -0.0027092115 0.0019973253 -0.00142839 -0.002094625 0.002357361 0.010171872
-0.0007646409 -0.0013146363 0.00051969715 0.015107111 0.0134313395 0.016305171 0.02646411 -0.009828577
0.0030329518 0.00033148332 -0.0045223436 0.0038730742 -0.028921012 0.015802009 -0.00016381597 -0.0021418966
-0.00041100933 -0.012175219 -0.012474209 -0.007173568 -0.015000969 0.0012742189 -0.0044756453 0.0017782551
0.00028284595 -0.0016018435 0.006276133 0.013732778 0.0001845163 0.003045606 0.0037432944 0.021223327
0.01884855 0.023942811 0.020526137 -0.006938261 0.008029091 -0.0028527088 0.0010072228 0.00059525436
0.0055131577 -0.0054564998 0.00039510144 -0.001771459 0.0033424762 0.015105095 0.015563559 0.017743649
0.016100768 0.0015572025 0.0032142177 -0.0010274345 -1.974863e-05 -0.0018704162 0.024601365 -0.019396592
-0.0006867543 0.000441316 0.0006705521 0.014906551 0.017585397 0.017179966 0.018179731 -0.0037186383
0.0023956343 0.0017044332 0.00050780433 0.0009279748 0.021056378 -0.017650206 0.0018671262 -0.0023381654
0.0031777602 0.016633553 0.021345984 0.019986762 0.023822742 -0.00736562 0.0054287817 0.004503632
-0.0015698782 0.0015293782 0.006260589 -0.0057324925 0.00092100305 -0.00055817346 0.0027065699 0.01615179
0.019854903 0.018192418 0.025189528 -0.0075281137 0.0129498225 -0.0008135694 -0.00018120924 0.0010812054
0.0019206281 -0.0033784958 0.0030492847 0.0016716587 0.00064118585 0.021201918 0.021562634 0.022292666
00000000: f8a1 91bb c373 9d3c 2ca1 983c 17f2 af3c
00000010: cc96 f93c 23a1 cbbb 316c d63b bda9 6c3b
00000020: 1482 c73a ae2a 7638 6869 7f3b 6c17 b0bb
00000030: ddeb 07ba 34fe da3b 1a89 adbb 4a16 b03c
00000040: afec 9e3c d106 893c 5d13 dd3c fb43 64b9
00000050: dd40 b93a b618 823b 2ca8 4dbb b389 b4ba
00000060: 63bd 8d3b 1821 a8bb 042a aaba 72c4 8e3a
00000070: 403a 1a3a e4a3 aa3c 4798 8b3c 7b6a ac3c
00000080: 7d77 ab3c 3283 84ba b209 d83b 0237 76b9
00000090: 958b d93a 93d9 053b 6b6b 873c 7da3 85bc
000000a0: 3d3f a63a 5fd7 8139 7d75 a23b a214 aa3c
000000b0: 9de6 783c 0b98 8a3c 0b92 673c 3ceb 89ba
000000c0: 0425 573b 89c5 db3a dbf9 66ba cffa a1ba
000000d0: 1626 d73c 2daa 97bc 598f a0ba 1900 86bb
000000e0: 198d 333b 9cfd b83c 0a38 a73c 403f b43c
000000f0: 3023 c43c dc4e dbbb fbc9 9e3b 3816 353b
00000100: 40f6 513a 509f cdba f233 553c eec4 3abc
00000110: 2ee5 8abb ddcd 21b9 a199 1fbb 06d5 b13c
00000120: f5f8 8f3c f0de 9e3c db32 b73c c1ad 0c3b
00000130: 8290 223c 3b87 ff35 f2f7 cd39 7c07 b5bb
00000140: 10c1 2abc 88a5 8e3b 5d48 c239 c486 9e3b
00000150: 2e24 173b da6a 9e3c 0c33 9f3c cc95 913c
00000160: 288b 8f3c f784 58bb ebc7 883b 74c0 77bb
00000170: 5d32 8639 4143 b4b9 d875 b53c 9868 9fbc
00000180: 502c 7fbb 487b 83bb a7a2 3d3b 8099 913c
00000190: de4c 953c 4075 aa3c 4ed2 c23c b58b cfbb
000001a0: 48c3 0b3c b80b a0ba c14c a138 c83c baba
000001b0: a611 383c 8258 36bc b9ca b7b9 bc0d d3b9
000001c0: c1d2 ce39 89ca 4cbc 0503 21bc 9ffb 41bc
000001d0: eee3 60bc ea4c 3fb9 63fc 2cbb 3d36 72bb
000001e0: f70b 50bb 33b8 ae39 5694 75bc d386 35bc
000001f0: 6b68 c4ba 7137 08bb c431 6bba cfa4 c23c
00000200: 8db1 b13c 567e b03c e5a3 b83c 500d 16bb
00000210: ec01 723b 9b10 b43b a431 803a 2425 353a
00000220: 016c 363b cb98 24bc 7c76 fc3a 387c e2ba
00000230: 4101 2fbb a35c 62bc 3c5a 2ebc 2191 1ebc
00000240: c190 8ebc cc08 f03a 078d 31bb 8fe5 023b
00000250: d138 bbba fa45 09bb f47d 1a3b eca7 263c
00000260: 2f72 48ba e04f acba 493c 083a d183 773c
00000270: 1f0f 5c3c 6c92 853c 43cb d83c 0a08 21bc
00000280: 7dc4 463b f0ca ad39 2b30 94bb 67d3 7d3b
00000290: c2eb ecbc 3773 813c 04c6 2bb9 105f 0cbb
000002a0: bd7c d7b9 927a 47bc a060 4cbc 4010 ebbb
000002b0: a0c6 75bc b103 a73a 6fa8 92bb 5714 e93a
000002c0: f14a 9439 f3f4 d1ba 05a8 cd3b 72ff 603c
000002d0: b87a 4139 ca98 473b 0f52 753b 8bdc ad3c
000002e0: 4668 9a3c b723 c43c 6e26 a83c 5a5a e3bb
000002f0: 738c 033c 83f4 3abb ca04 843a d80a 1c3a
00000300: b8a7 b43b 70cc b2bb 9e25 cf39 4d30 e8ba
00000310: 720d 5b3b 5c7b 773c 4cfe 7e3c 215b 913c
00000320: c2e5 833c 0c1b cc3a a0a5 523b fbaa 86ba
00000330: dca9 a5b7 c128 f5ba cd88 c93c 9ae5 9ebc
00000340: 4d07 34ba 6e60 e739 fdc7 2f3a 9b3a 743c
00000350: 400f 903c 00bd 8c3c a9ed 943c 66b4 73bb
00000360: 1300 1d3b 4a67 df3a 2c1e 053a 5643 733a
00000370: 6d7e ac3c 2a97 90bc 5cba f43a e83b 19bb
00000380: f841 503b 1743 883c c6dd ae3c 47bb a33c
00000390: e927 c33c 4d5b f1bb ece3 b13b 3493 933b
000003a0: 5fc4 cdba 6b75 c83a a125 cd3b a2d7 bbbb
000003b0: 786f 713a 6352 12ba b560 313b c250 843c
000003c0: c0a6 a23c 4408 953c 455a ce3c 65ae f6bb
000003d0: 7e2b 543c b845 55ba fc02 3eb9 3cb7 8d3a
000003e0: 96bd fb3a c169 5dbb 82d6 473b 8f1b db3a
000003f0: 4115 283a a5af ad3c 1fa4 b03c 1c9f b63c

fc1.bias f4 [64]
-1.15542036e-07 1.0720942e-06 -3.0162695e-07 -1.2020556e-07 -2.4181057e-07 1.3728649e-07 5.3644953e-07 -1.921117e-06
2.5695215e-08 -4.6960484e-08 -8.3332054e-08 -1.0198526e-07 -1.6041824e-06 -9.410492e-08 -2.9985824e-07 -8.076804e-07
-4.509197e-07 3.4314752e-08 -5.5394267e-08 -8.168596e-07 -1.5257114e-06 -2.8290708e-07 -1.3085923e-06 -3.1862783e-08
9.4174885e-07 9.2812286e-07 9.59556e-07 -2.5105146e-07 -1.8859566e-08 -5.536715e-07 -5.116338e-07 6.890667e-07
1.1379577e-07 6.0362834e-07 1.4926091e-07 -2.6497202e-07 4.750282e-07 2.7494627e-07 -2.2530278e-07 3.2511292e-07
-1.5843133e-07 2.4388669e-08 2.3745702e-07 1.8373582e-07 6.779359e-07 4.4876606e-07 3.3765585e-07 2.4942258e-07
-2.508325e-06 -6.758895e-07 -2.8680964e-07 1.4400364e-07 -3.5995345e-07 -1.0610334e-07 -1.14532185e-07 1.557233e-07
-1.3656579e-07 -1.21054e-07 1.1633709e-07 1.0360717e-06 6.1200114e-07 -2.6272136e-07 -1.07176106e-07 -1.0362379e-07
00000000: e81f f8b3 e0e4 8f35 4bef a1b4 da11 01b4
00000010: 31d2 81b4 0669 1334 8800 1035 8aec 00b6
00000020: 60b8 dc32 99b1 49b3 48f4 b2b3 fd02 dbb3
00000030: 4a4f d7b5 ba16 cab3 34fc a0b4 60cf 58b5
00000040: ef15 f2b4 7861 1333 a4ea 6db3 2a46 5bb5
00000050: 0bc7 ccb5 74e2 97b4 e4a2 afb5 80d9 08b3
00000060: 7dcc 7c35 1e24 7935 18ca 8035 40c8 86b4
00000070: a000 a2b2 04a0 14b5 3557 09b5 4ef8 3835
00000080: e35f f433 0609 2235 8744 2034 7a41 8eb4
00000090: 6107 ff34 549c 9334 c2ea 71b4 2e8b ae34
000000a0: 461d 2ab4 407f d132 b0f7 7e34 eb48 4534
000000b0: 66fb 3535 f0ed f034 1147 b534 61e8 8534
000000c0: b254 28b6 c66e 35b5 d1fa 99b4 6b9f 1a34
000000d0: a03f c1b4 eeda e3b3 bcf4 f5b3 e534 2734
000000e0: eba2 12b4 12fb 01b4 fed4 f933 270f 8b35
000000f0: 6648 2435 260c 8db4 b028 e6b3 c887 deb3

bn1.weight f4 [64]
0.031986173 0.029715886 0.03232694 0.03626013 0.03172145 0.029817505 0.033924785 0.030077208
0.01867904 0.028027184 0.01606343 0.038434457 0.015978353 0.027934406 0.033094652 0.031990763
0.034115136 0.023014028 0.027742784 0.039215267 0.030985232 0.019340865 0.026253093 0.033117633
0.027847912 0.026950767 0.030224917 0.034227416 0.0367291 0.03277401 0.035482734 0.026783666
0.014803259 0.034812856 0.029544728 0.03596787 0.028733186 0.027762802 0.029880695 0.035515502
0.039087966 0.030744303 0.028347569 0.032904107 0.029923223 0.031071676 0.0332155 0.03450255
0.03315264 0.030592693 0.028334865 0.033319037 0.02847605 0.033078395 0.035082143 0.0344261
0.02801964 0.032084446 0.028797401 0.014348117 0.034869935 0.032501757 0.033898294 0.02843892
00000000: ef03 033d bb6e f33c 4169 043d 8185 143d
00000010: 5aee 013d d743 f43c b7f4 0a3d 7a64 f63c
00000020: c904 993c 4499 e53c 7497 833c 736d 1d3d
00000030: 09e5 823c b2d6 e43c 428e 073d bf08 033d
00000040: 50bc 0b3d ea87 bc3c d644 e33c 30a0 203d
00000050: bed4 fd3c bc70 9e3c ba10 d73c 5ba6 073d
00000060: 4e21 e43c dbc7 dc3c 3f9a f73c 0c32 0c3d
00000070: 4171 163d 0a3e 063d 5856 113d 6b69 db3c
00000080: 5e89 723c ed97 0e3d c907 f23c 0c53 133d
00000090: dc61 eb3c d16e e33c 5cc8 f43c b478 113d
000000a0: b41a 203d 7adb fb3c 2939 e83c 75c6 063d
000000b0: 8c21 f53c 078a fe3c fa0c 083d 8c52 0d3d
000000c0: 10cb 073d 879d fa3c 851e e83c 8b79 083d
000000d0: 9b46 e93c 367d 073d 4bb2 0f3d 6202 0d3d
000000e0: 7289 e53c fb6a 033d 87e8 eb3c 5d14 6b3c
000000f0: c7d3 0e3d 9020 053d f0d8 0a3d bdf8 e83c

bn1.bias f4 [64]
0.0011275056 0.0009794626 -0.0051485603 -0.0018562077 0.0012497794 -0.0043863766 -0.0022805554 0.0017402602
-0.0048832977 0.0010646178 -0.00229562 -0.023453435 0.0007665374 0.0039051634 -0.0061639734 0.00011700328
0.005824375 0.0012290655 0.001472241 -0.018242078 -0.0036082997 -0.00022652601 0.0048667067 -0.005280878
-0.0014317721 0.002582832 0.0016110569 -0.0016513102 -0.01938797 -0.0033138255 -1.2542993e-06 0.0013279533
0.0012572849 0.0028808005 0.005036793 -0.0043261684 0.00194565 0.004058085 -0.009778861 0.0010170391
-0.02211964 0.002499759 0.0017250532 0.00035401343 0.0011278698 0.0015068544 -0.007462485 -0.006412947
-0.0003337577 0.0023046415 0.0002066495 -0.00073413027 0.0015089562 -0.000924593 -0.003050676 -0.003936742
0.0028734033 0.0005476437 0.0021022249 -0.00020257727 -0.0033759412 0.0028077597 -0.0028061017 0.0048466255
00000000: cfc8 933a 5061 803a 41b5 a8bb ff4b f3ba
00000010: a3cf a33a 98bb 8fbb 5f75 15bb 7119 e43a
00000020: 1204 a0bb a58a 8b3a 1d72 16bb 6b21 c0bc
00000030: 74f1 483a c5ed 7f3b 28fb c9bb a85f f538
00000040: 66da be3b 9818 a13a 36f8 c03a 6970 95bc
00000050: 3979 6cbb 9d87 6db9 e578 9f3b 370b adbb
00000060: 4daa bbba bb44 293b 192a d33a c770 d8ba
00000070: 85d3 9ebc c42c 59bb 6559 a8b5 b80e ae3a
00000080: 7bcb a43a d0cb 3c3b af0b a53b 88c2 8dbb
00000090: 2e05 ff3a aff9 843b 8437 20bc 2b4e 853a
000000a0: 3f34 b5bc ffd2 233b 2e1b e23a e19a b939
000000b0: 08d5 933a a581 c53a dd87 f4bb b323 d2bb
000000c0: 33fc aeb9 7809 173b 0eb0 5839 a672 40ba
000000d0: 2bc8 c53a 6360 72ba daed 47bb c9ff 80bb
000000e0: b54f 3c3b bf8f 0f3a 7bc5 093b ec6a 54b9
000000f0: e53e 5dbb 6402 383b 93e6 37bb 71d0 9e3b

bn1.running_mean f4 [64]
0.014013115 0.013033434 0.01013401 0.007638972 0.012292166 0.012043839 0.008709512 0.010284528
-0.006823746 0.012167907 -0.00717487 0.010921178 -0.0062972223 0.010094474 0.0079599125 0.008194893
0.011428404 0.0106931245 0.013039767 0.011791345 0.010363275 -0.0072355797 0.012576685 0.010143517
0.012605645 0.011182396 0.012161675 0.009823752 0.011278595 0.00935883 0.010596066 0.010412284
-0.006783617 0.012229858 0.010211123 0.0091041485 0.011464387 0.010898391 0.009903411 0.010099078
0.009886749 0.012755867 0.009694323 0.013178464 0.011373467 0.011490773 0.008652356 0.008667608
0.0109388335 0.010096085 0.011986869 0.010966877 0.010878351 0.010431651 0.008286733 0.010649653
0.011369143 0.011195892 0.010789261 -0.0051933154 0.008650214 0.012076787 0.008494229 0.010790854
00000000: 4497 653c 2f8a 553c 1e09 263c 5750 fa3b
00000010: 1565 493c 8653 453c 57b2 0e3c 7080 283c
00000020: bb99 dfbb e75b 473c 2c1b ebbb beee 323c
00000030: ee58 cebb 4b63 253c 4b6a 023c df43 063c
00000040: 333e 3b3c 3732 2f3c bfa4 553c 7c30 413c
00000050: baca 293c 7118 edbb 710e 4e3c fe30 263c
00000060: e887 4e3c 5e36 373c c341 473c cdf3 203c
00000070: dbc9 383c c755 193c 1f9b 2d3c 4998 2a3c
00000080: 1b49 debb be5f 483c 8e4c 273c 9129 153c
00000090: 20d5 3b3c 2a8f 323c eb41 223c 9a76 253c
000000a0: 08fc 213c fcfd 503c f0d4 1e3c 7cea 573c
000000b0: c757 3a3c cc43 3c3c 9dc2 0d3c 9502 0e3c
000000c0: cb38 333c 0d6a 253c 9364 443c 6bae 333c
000000d0: 1c3b 323c 84e9 2a3c 14c5 073c e27b 2e3c
000000e0: a445 3a3c f96e 373c 71c5 303c b02c aabb
000000f0: a1b9 0d3c b7dd 453c 612b 0b3c 1fcc 303c

bn1.running_var f4 [64]
0.004594729 0.004257009 0.0047302535 0.0040460946 0.0045766393 0.004187512 0.004350754 0.004144365
0.0016819247 0.0045494433 0.0017938951 0.0034790253 0.0017457487 0.0038493867 0.0041239955 0.0036643108
0.0036873147 0.003816861 0.004659471 0.0035024297 0.0035142591 0.0015070682 0.004569883 0.0041462947
0.0039139544 0.004742034 0.004165111 0.0041855644 0.0038782211 0.0039589102 0.0038654797 0.0046728
0.0020071615 0.0057773665 0.0040637953 0.0042558745 0.0042591887 0.00392338 0.0029702566 0.0035390232
0.003237488 0.0053904355 0.004422502 0.00495755 0.004096536 0.004374296 0.004097359 0.004089462
0.004280343 0.003566877 0.004863926 0.0047519705 0.004066344 0.005289516 0.0045841625 0.005042838
0.0040429803 0.00511714 0.0037696003 0.0013869039 0.0039808755 0.0053604497 0.004909484 0.004017013
00000000: 618f 963b 617e 8b3b 3e00 9b3b 1a95 843b
00000010: a2f7 953b 6637 893b c590 8e3b 74cd 873b
00000020: 0774 dc3a 7f13 953b 2221 eb3a 5c00 643b
00000030: 9bd1 e43a fe45 7c3b 9522 873b ef24 703b
00000040: e0a6 713b 4d24 7a3b 7aae 983b 0589 653b
00000050: 7c4f 663b d188 c53a f5be 953b a4dd 873b
00000060: a140 803b 1063 9b3b 7c7b 883b 0f27 893b
00000070: c129 7e3b bfb9 813b fd53 7d3b 4a1e 993b
00000080: 958a 033b 1050 bd3b 9629 853b dd74 8b3b
00000090: aa90 8b3b b28f 803b a3a8 423b f5ee 673b
000000a0: 092c 543b 40a2 b03b a3ea 903b f272 a23b
000000b0: 3c3c 863b 4156 8f3b 2343 863b e500 863b
000000c0: 1f42 8c3b 44c2 693b 9261 9f3b 6bb6 9b3b
000000d0: f73e 853b ad53 ad3b be36 963b 643e a53b
000000e0: fa7a 843b aead a73b 660b 773b c6c8 b53a
000000f0: 0172 823b b6a6 af3b bddf a03b 26a1 833b

fc2.weight f4 [32, 64]
0.011526454 0.009301959 0.008518581 0.0068550813 0.0011741165 0.008122971 0.012383011 0.004321098
-0.0039359103 0.0024938162 -0.004670998 0.007963378 -0.0101238 0.0017262434 0.0019813536 0.0069416678
0.004989423 0.008093412 0.003759552 0.0045324787 0.009389871 -0.0045499927 0.0020242995 0.0014670114
0.0041735824 0.007405071 0.0122875115 0.0011595404 0.013790451 0.008792585 0.0067050545 0.0058723018
-0.008310224 0.0074758283 0.0034468211 0.0062586195 0.010177064 0.012743833 0.0064748907 0.009654819
0.0054743257 0.011951315 0.007440348 0.005601909 0.006867072 0.013886971 0.006167735 0.009011689
0.006629366 0.0058427965 0.0032138769 0.003920965 0.007912017 -6.9885435e-05 0.0051548355 0.0082504945
0.005527742 0.0007756386 0.0060657053 -0.004570339 0.0090948725 0.0072169704 -0.00044612258 0.003338775
0.010688876 0.008899716 0.010361793 0.0069060987 0.004692818 0.00771214 0.0049425024 0.0027249602
-0.006391507 5.1911637e-05 -0.004564623 0.0064169522 -0.005209948 0.0045620375 0.0010337976 0.004734343
0.006257494 0.006156618 0.012875082 0.0076613184 0.008209783 -0.002545766 0.0036718233 0.009945789
0.004593324 0.0030751505 0.005460413 0.009307461 0.0014625519 0.0065200212 0.005907947 0.0053332155
-0.0049130693 0.010244161 0.0062623024 0.007358295 0.008949698 -0.0013546855 0.00865634 0.010007614
0.009292853 0.007291408 0.008653454 0.01071199 -0.0026650904 0.0058632502 0.0066805906 0.0090884
0.0041020755 0.008627437 0.0048888805 0.013900752 0.0028630625 0.0040623215 0.012169457 0.0038012932
0.004738391 0.0061288658 0.0043209554 -0.005335437 0.012701783 -0.00023173771 0.009427709 0.0069255712
0.0097330175 0.0073950705 0.0071884543 0.007923297 0.0034007414 -9.724439e-05 0.0041784164 0.008887665
-0.003366084 0.0027901041 -0.0065564006 0.009464832 -0.006695518 0.0028517668 0.004956217 0.010046192
0.0024376716 0.0090004215 0.0065255584 0.003975036 0.009972517 -0.0060648033 0.01456427 0.004245247
0.004566171 0.0070280903 0.00039697296 0.008951752 0.0021218737 0.004659305 0.0068474524 0.0017931387
-0.005427853 0.0035978851 0.0113485055 0.0067640757 0.0046014003 0.0023360937 0.0041775643 0.0065427027
0.005135009 0.0038549975 0.003157903 0.0059124585 0.008044484 0.007764519 0.004181955 0.0067748427
0.0077636484 0.0027347994 0.005142087 0.0054489463 0.0015415688 -0.00015950129 0.009575381 0.0014585702
0.011202356 0.0047431355 0.010355819 -0.006615833 0.009057477 0.008614029 0.0062961746 0.011371638
0.005414263 0.0027610597 0.0023515157 0.012298407 0.0044709207 0.0037421894 0.0017780095 0.0073336256
-0.0019385563 0.0055092117 -0.0051158457 0.0147323795 -0.0046804077 0.011211567 0.004547747 0.0038853143
0.010114601 0.009748734 0.006235576 0.004823506 -0.0006647728 -0.0065832203 0.010108658 0.006809305
0.008267853 0.0014663517 0.0067803813 0.009955437 0.0010441621 0.0027466463 0.010551056 0.005007378
-0.006991325 0.0063625486 0.014409135 0.008625335 -0.002088036 0.006923319 0.006255396 0.0086804265
0.012233628 0.0020827444 0.007639339 0.006955571 0.0024048195 0.0077063614 0.0069475905 0.011929605
0.006151003 0.005762897 0.0035143897 0.009291462 0.009057942 0.008936027 0.00071864075 0.0075439326
0.0032996808 0.008586838 0.0014247603 -0.0043597934 0.008252417 0.003893878 0.0038219793 0.009529985
00000000: 74d9 3c3c 3e67 183c 8591 0b3c 97a0 e03b
00000010: d0e4 993a 3616 053c 1de2 4a3c ff97 8d3b
00000020: cff8 80bb 4b6f 233b 2c0f 99bb d478 023c
00000030: 4bde 25bc 1e43 e23a 99d9 013b ee76 e33b
00000040: 507e a33b 3b9a 043c d162 763b 3085 943b
00000050: f9d7 193c 1b18 95bb 1caa 043b bc48 c03a
00000060: 8cc2 883b 3da6 f23b 8f51 493c b8fb 973a
00000070: 58f1 613c c60e 103c 13b6 db3b 706c c03b
00000080: 9b27 08bc cbf7 f43b 10e4 613b 1b15 cd3b
00000090: b3bd 263c 82cb 503c 522b d43b 3f2f 1e3c
000000a0: f961 b33b 73cf 433c 2ace f33b 3890 b73b
000000b0: 2d05 e13b 2e86 633c b61a ca3b c3a5 133c
000000c0: 273b d93b ee74 bf3b e89f 523b 707b 803b
000000d0: 68a1 013c 758f 92b8 e5e9 a83b 152d 073c
000000e0: 1022 b53b 3a54 4b3a d3c2 c63b c8c2 95bb
000000f0: a902 153c 567c ec3b 8fe5 e9b9 59cf 5a3b
00000100: 6520 2f3c 1dd0 113c 83c4 293c 8e4c e23b
00000110: 36c6 993b 1fb6 fc3b b7f4 a13b 3f95 323b
00000120: d96f d1bb b2bb 5938 d592 95bb 4c45 d23b
00000130: 36b8 aabb 257d 953b 7e80 873a 8c22 9b3b
00000140: aa0b cd3b 74bd c93b 02f2 523c cc0b fb3b
00000150: 5382 063c ded6 26bb f9a2 703b aaf3 223c
00000160: 9883 963b 7788 493b 44ed b23b 527e 183c
00000170: 19b3 bf3a e7a5 d53b 7497 c13b 41c2 ae3b
00000180: d0fd a0bb 20d7 273c 0034 cd3b da1d f13b
00000190: c1a1 123c b48f b1ba 52d3 0d3c faf6 233c
000001a0: 0d41 183c c3ec ee3b 37c7 0d3c 5881 2f3c
000001b0: cca8 2ebb 8220 c03b dbe8 da3b 83e7 143c
000001c0: b46a 863b 185a 0d3c e732 a03b fbbf 633c
000001d0: 38a2 3b3b 391d 853b 6762 473c 1e1f 793b
000001e0: 8144 9b3b a7d4 c83b cd96 8d3b e4d4 aebb
000001f0: 241b 503c 9efe 72b9 ad76 1a3c e7ef e23b
00000200: 3c77 1f3c 5952 f23b 208d eb3b b7d0 013c
00000210: f9de 5e3b afef cbb8 19eb 883b 929d 113c
00000220: 8599 5cbb 2eda 363b 13d7 d6bb 6212 1b3c
00000230: 1366 dbbb b5e4 3a3b c367 a23b c998 243c
00000240: 58c1 1f3b 8176 133c 5ad4 d53b 0541 823b
00000250: c563 233c 42bb c6bb fa9e 6e3c b71b 8b3b
00000260: d29f 953b e54b e63b cf20 d039 5faa 123c
00000270: 220f 0b3b 15ad 983b 9860 e03b c007 eb3a
00000280: 22dc b1bb 7fca 6b3b 15ef 393c 2ea5 dd3b
00000290: 58c7 963b 2619 193b f3e3 883b 2b64 d63b
000002a0: 9443 a83b 20a4 7c3b d2f4 4e3b 4cbd c13b
000002b0: 03cd 033c 826d fe3b c808 893b 80ff dd3b
000002c0: 3466 fe3b 523a 333b f47e a83b 138d b23b
000002d0: 770e ca3a cd3f 27b9 0fe2 1c3c 7f2d bf3a
000002e0: 168a 373c 4e6c 9b3b 74ab 293c a1c9 d8bb
000002f0: d065 143c db21 0d3c 2450 ce3b 1b50 3a3c
00000300: 216a b13b e5f2 343b e31b 1a3b 427f 493c
00000310: cd80 923b 853f 753b 190c e93a e94e f03b
00000320: 2817 feba 9e86 b43b d3a2 a7bb 1460 713c
00000330: 1b5e 99bb b8b0 373c 4405 953b c2a0 7e3b
00000340: b6b7 253c 27b9 1f3c cd53 cc3b 800e 9e3b
00000350: 2644 2eba 0eb8 d7bb c99e 253c 9720 df3b
00000360: e475 073c 9932 c03a f62d de3b 211c 233c
00000370: 44dc 883a 1401 343b 56de 2c3c ee14 a43b
00000380: 7c17 e5bb ed7c d03b 4b14 6c3c 4751 0d3c
00000390: 6ed7 08bb 02dd e23b 11fa cc3b 5938 0e3c
000003a0: 8e6f 483c a77e 083b 6c53 fa3b 8feb e33b
000003b0: 2d9a 1d3b a585 fc3b 9da8 e33b 6474 433c
000003c0: 5a8e c93b afd6 bc3b ad51 663b 373b 183c
000003d0: c367 143c 6a68 123c 2a63 3c3a 1833 f73b
000003e0: 753f 583b cfaf 0c3c 06bf ba3a 99dc 8ebb
000003f0: 2535 073c 6f30 7f3b 2c7a 7a3b a723 1c3c

fc2.bias f4 [32]
1.2212369e-06 6.925747e-07 -1.5760297e-06 1.7765797e-06 -2.1943627e-06 1.6711722e-06 -2.8340492e-05 -2.2393226e-07
-8.759827e-06 3.885667e-06 1.1229097e-06 3.2139474e-06 -1.579102e-06 -9.2259825e-08 4.6463563e-07 -1.8654171e-06
-2.2226195e-06 7.2296467e-07 6.5560594e-06 2.46474e-05 -2.994116e-06 -5.518123e-06 -2.4830083e-06 7.846163e-06
-5.7982393e-06 1.3652789e-06 5.7792445e-06 3.3995016e-06 3.24959e-06 -6.865105e-07 2.4056615e-06 7.5559146e-06
00000000: 61e9 a335 5fe9 3935 f887 d3b5 d072 ee35
00000010: dd42 13b6 0a4d e035 bebc edb7 0872 70b4
00000020: 2cf7 12b7 a061 8236 e2b6 9635 32af 5736
00000030: 88f1 d3b5 6020 c6b3 0973 f934 3e5f fab5
00000040: 5028 15b6 c111 4235 1ffc db36 e3c1 ce37
00000050: 85ee 48b6 5128 b9b6 c2a1 26b6 03a3 0337
00000060: 7f8e c2b6 a03e b735 55eb c136 fe22 6436
00000070: 8813 5a36 a448 38b5 f370 2136 d088 fd36

bn2.weight f4 [32]
0.034323197 0.038452033 0.036369868 0.03365767 0.033550646 0.036361087 0.040358093 0.03602736
0.03501936 0.035641056 0.037760526 0.036047224 0.035132185 0.036796913 0.034772355 0.03428091
0.036670543 0.034748346 0.03459994 0.03443314 0.038148012 0.035802934 0.037654042 0.033270355
0.033243235 0.034053206 0.032388613 0.0355076 0.033645477 0.034602545 0.034392573 0.039841
00000000: 7b96 0c3d e17f 1d3d 92f8 143d a0dc 093d
00000010: 676c 093d 5def 143d 874e 253d 6d91 133d
00000020: 7670 0f3d 5bfc 113d c8aa 1a3d 41a6 133d
00000030: c4e6 0f3d 5cb8 163d 756d 0e3d 246a 0c3d
00000040: da33 163d 4854 0e3d abb8 0d3d c409 0d3d
00000050: 1741 1c3d 19a6 123d 203b 1a3d 7f46 083d
00000060: 0f2a 083d 607b 0b3d eca9 043d 6b70 113d
00000070: d7cf 093d 66bb 0d3d 3adf 0c3d 5130 233d

bn2.bias f4 [32]
0.01920442 0.020275798 0.021217883 0.016980564 0.019154891 0.019576965 0.020020802 0.019178588
0.019837499 0.018789757 0.022025071 0.018619575 0.018029483 0.021080848 0.019212538 0.018265698
0.018051865 0.019285869 0.020598287 0.018180542 0.019835722 0.019207656 0.020522103 0.018728022
0.01750992 0.019470999 0.016336748 0.018439243 0.01922209 0.018889226 0.019135155 0.021239439
00000000: 9652 9d3c 6e19 a63c 20d1 ad3c d31a 8b3c
00000010: b8ea 9c3c df5f a03c aa02 a43c 6a1c 9d3c
00000020: 4082 a23c faec 993c ec6d b43c 1488 983c
00000030: 91b2 933c beb1 ac3c 9d63 9d3c f2a1 953c
00000040: 81e1 933c 66fd 9d3c bdbd a83c 5cef 943c
00000050: 867e a23c 6059 9d3c f81d a83c 826b 993c
00000060: f770 8f3c a581 9f3c a5d4 853c e50d 973c
00000070: a577 9d3c 94bd 9a3c 54c1 9c3c 55fe ad3c

bn2.running_mean f4 [32]
0.004535632 0.004533803 0.0038824426 0.0044933017 0.0041701184 0.003933699 0.0038278918 0.0043075676
0.00422521 0.004694401 0.0042212326 0.004088351 0.004237218 0.0041866135 0.0039681382 0.0045733405
0.0044648936 0.0046749543 0.0042078416 0.004046471 0.004384515 0.0041168616 0.003811006 0.0041923686
0.0042265668 0.0044361437 0.004179994 0.004069245 0.003933346 0.004013574 0.0040767808 0.0042140745
00000000: a49f 943b 4c90 943b 9470 7e3b 8c3c 933b
00000010: 7da5 883b 42e6 803b 5edd 7a3b 7f26 8d3b
00000020: a173 8a3b 7dd3 993b 4452 8a3b 93f7 853b
00000030: 5cd8 8a3b dc2f 893b 2807 823b f6db 953b
00000040: 3e4e 923b 5c30 993b efe1 893b 4298 843b
00000050: faab 8f3b bde6 863b 12c2 793b 2360 893b
00000060: 037f 8a3b 125d 913b 55f8 883b 4d57 853b
00000070: 4ce3 803b 4d84 833b 8496 853b 3816 8a3b

bn2.running_var f4 [32]
6.725702e-05 6.860148e-05 5.199186e-05 6.096684e-05 5.055753e-05 4.9190556e-05 4.5686284e-05 6.251034e-05
5.46419e-05 6.7426256e-05 5.666114e-05 5.6359288e-05 5.3911583e-05 5.323744e-05 5.482496e-05 6.1042534e-05
5.883671e-05 6.536497e-05 5.6179688e-05 5.9126465e-05 6.853182e-05 5.055335e-05 4.8699098e-05 6.0929447e-05
5.303557e-05 7.173652e-05 5.9639995e-05 4.747789e-05 5.9170954e-05 5.5156943e-05 5.54622e-05 4.9419556e-05
00000000: 560c 8d38 24de 8f38 d611 5a38 a5b6 7f38
00000010: bc0d 5438 f551 4e38 469f 3f38 fc17 8338
00000020: 4b2f 6538 3267 8d38 70a7 6d38 5363 6c38
00000030: 1f1f 6238 444b 5f38 daf3 6538 f603 8038
00000040: 70c7 7638 8d14 8938 7ba2 6b38 8ffe 7738
00000050: beb8 8f38 3f09 5438 4242 4c38 7f8e 7f38
00000060: 8272 5e38 4071 9638 f525 7a38 ff22 4738
00000070: 542e 7838 5158 6738 15a0 6838 d847 4f38

fc3.weight f4 [16, 32]
0.009111453 0.0127968285 0.01184262 0.009529894 0.013467477 0.009598652 0.0117845945 0.0154709155
0.0108361235 0.008299234 0.012609103 0.014945181 0.016223634 0.009752867 0.009349244 0.0154012395
0.012185573 0.013179135 0.011063496 0.01568408 0.009788805 0.01519168 0.01460597 0.011380558
0.010476508 0.013310387 0.0101762405 0.01562661 0.011394566 0.01327946 0.0126939155 0.013711766
0.014710518 0.008637197 0.015817035 0.011636978 0.0112906 0.018079462 0.014122869 0.014487385
0.008594242 0.01209327 0.011296105 0.012909235 0.010040165 0.012274744 0.009132798 0.009093327
0.013260209 0.010001671 0.012946132 0.009035679 0.012545455 0.013669686 0.012062179 0.0070190695
0.013495883 0.014244392 0.014314969 0.010755465 0.018434014 0.013881913 0.012915509 0.017128916
0.0133247655 0.014267621 0.012711628 0.0143920295 0.010765746 0.011530456 0.011567804 0.012365698
0.010985808 0.015089115 0.010545301 0.010786292 0.0073554786 0.015587843 0.013879399 0.00845405
0.013184374 0.013187638 0.010602132 0.011635336 0.013416715 0.01753699 0.011436752 0.0150148915
0.0075166603 0.016617427 0.010693608 0.012248655 0.012805647 0.015661942 0.017781075 0.013932889
0.012341388 0.013070772 0.013003942 0.0148233585 0.011698121 0.011841488 0.015449514 0.01207568
0.016015613 0.009670534 0.0105891125 0.010201892 0.01231487 0.012111012 0.015441554 0.010503768
0.007977364 0.008764622 0.01382092 0.011661882 0.012126452 0.015225175 0.0149314115 0.012430774
0.011174498 0.013879268 0.0092341555 0.014191446 0.0064905165 0.015836386 0.014124631 0.012190209
0.0082113305 0.010176473 0.016277775 0.011199374 0.011057042 0.013374943 0.010761716 0.013247941
0.010611329 0.01605073 0.014595572 0.008077606 0.0135875 0.018173017 0.0142232785 0.009596397
0.0106588565 0.015973685 0.013256457 0.00974908 0.013260748 0.010784018 0.015382043 0.017727604
0.008484075 0.012328855 0.012127671 0.013112681 0.013360561 0.014055085 0.0073915888 0.011898751
0.015268718 0.012203716 0.014023083 0.014746494 0.011130935 0.015176396 0.009731879 0.015231629
0.014007734 0.015921094 0.012426098 0.009047743 0.013973888 0.0146346195 0.012240855 0.010368933
0.008577156 0.00761516 0.013031262 0.017569482 0.011416796 0.012712761 0.01580187 0.0110413795
0.012320042 0.011329955 0.012038899 0.009207629 0.011604772 0.01739243 0.006647914 0.013290939
0.013597362 0.010408679 0.0107461065 0.0124869635 0.013359326 0.013093538 0.01580976 0.012875862
0.0061134812 0.007651248 0.0093542915 0.01228543 0.01654291 0.010145495 0.017462013 0.018013686
0.015222306 0.0107777165 0.010865871 0.005364356 0.0103742415 0.01213678 0.017498266 0.013289319
0.010686752 0.008671317 0.009769981 0.0131522985 0.01283336 0.015291733 0.00800073 0.016534854
0.014342197 0.0101834405 0.0150395045 0.015614213 0.012160684 0.0140565885 0.010619101 0.01122893
0.013078057 0.013809125 0.013864809 0.011286302 0.014207377 0.012153006 0.015958691 0.016167458
0.0102327615 0.012370371 0.01101884 0.009240409 0.012952079 0.017448155 0.013153932 0.011603974
0.009427451 0.012709453 0.009976157 0.016027998 0.010671367 0.015553303 0.0067046555 0.01599412
00000000: 3448 153c caa9 513c 8c07 423c 4623 1c3c
00000010: b1a6 5c3c aa43 1d3c 2c14 413c b979 7d3c
00000020: ff89 313c 83f9 073c 6996 4e3c a2dc 743c
00000030: 6de7 843c 7dca 1f3c 922d 193c 7b55 7c3c
00000040: ffa5 473c 4ced 573c aa43 353c e67b 803c
00000050: 3961 203c 86e6 783c e14d 6f3c 8575 3a3c
00000060: a9a5 2b3c cf13 5a3c 3fba 263c 6003 803c
00000070: 46b0 3a3c 1892 593c 24fa 4f3c 51a7 603c
00000080: 6204 713c 0883 0d3c ba92 813c 06a9 3e3c
00000090: 35fc 383c 611b 943c 9b63 673c 7f5c 6d3c
000000a0: ddce 0c3c da22 463c 4c13 393c 4281 533c
000000b0: 817f 243c 021c 493c bba1 153c 2efc 143c
000000c0: 5941 593c 0cde 233c 031c 543c 620a 143c
000000d0: 748b 4d3c d2f6 5f3c 72a0 453c 3900 e63b
000000e0: d61d 5d3c 4f61 693c 5589 6a3c b137 303c
000000f0: ee02 973c f770 633c 929b 533c f151 8c3c
00000100: 1e50 5a3c bdc2 693c 6f44 503c 8ccc 6b3c
00000110: d062 303c 3dea 3c3c e386 3d3c 7f99 4a3c
00000120: d2fd 333c 5638 773c 33c6 2c3c fdb8 303c
00000130: 3a06 f13b 2764 7f3c 6b66 633c db82 0a3c
00000140: 4603 583c f610 583c 91b4 2d3c 23a2 3e3c
00000150: c8d1 5b3c bca9 8f3c 3761 3b3c 0501 763c
00000160: 514e f63b 4521 883c 3e34 2f3c 95ae 483c
00000170: c7ce 513c 794d 803c 9ea9 913c c646 643c
00000180: 8833 4a3c cb26 563c 7c0e 553c acdd 723c
00000190: 7aa9 3f3c cd02 423c f51f 7d3c 13d9 453c
000001a0: 2d33 833c 2971 1e3c f57d 2d3c d625 273c
000001b0: 4fc4 493c 446d 463c 92fe 7c3c ff17 2c3c
000001c0: 7db3 023c 7d99 0f3c 2471 623c 7a11 3f3c
000001d0: 07ae 463c 0373 793c e1a2 743c 72aa 4b3c
000001e0: 3e15 373c df65 633c db4a 173c 3d83 683c
000001f0: 66ae d43b 4fbb 813c ff6a 673c 71b9 473c
00000200: d188 063c 39bb 263c f858 853c 947d 373c
00000210: 9828 353c 9422 5b3c e951 303c e40d 593c
00000220: 24db 2d3c d27c 833c 4422 6f3c ef57 043c
00000230: 1b9e 5e3c 94df 943c c108 693c 353a 1d3c
00000240: 7ca2 2e3c 3fdb 823c 9c31 593c 9bba 1f3c
00000250: 9c43 593c 73af 303c f704 7c3c 7b39 913c
00000260: ca00 0b3c f7fe 493c 24b3 463c 92d6 563c
00000270: 41e6 5a3c 4d47 663c 2435 f23b fbf2 423c
00000280: a529 7a3c 18f2 473c 13c1 653c 479b 713c
00000290: 865e 363c 6ba6 783c 7672 1f3c 158e 793c
000002a0: b280 653c f46c 823c d596 4b3c fc3c 143c
000002b0: bcf2 643c 0bc6 6f3c de8d 483c 75e2 293c
000002c0: 3387 0c3c 9888 f93b 1381 553c e0ed 8f3c
000002d0: 830d 3b3c 2f49 503c ec72 813c e7e6 343c
000002e0: 00da 493c 47a1 393c cd3e 453c 98db 163c
000002f0: f121 3e3c 927a 8e3c bfd6 d93b 3dc2 593c
00000300: 78c7 5e3c 2a89 2a3c 7010 303c 1f96 4c3c
00000310: 13e1 5a3c 4786 563c 7883 813c 48f5 523c
00000320: 9953 c83b 52b7 fa3b be42 193c d448 493c
00000330: ff84 873c 4a39 263c 7f0c 8f3c 7091 933c
00000340: fb66 793c 0595 303c c406 323c 7bc7 af3b
00000350: b9f8 293c 58d9 463c 8658 8f3c 72bb 593c
00000360: 7d17 2f3c 2412 0e3c 4512 203c bd7c 573c
00000370: 0343 523c 2d8a 7a3c 7e15 033c 1a74 873c
00000380: 89fb 6a3c 72d8 263c 4168 763c c2d2 7f3c
00000390: 9b3d 473c 9b4d 663c bdfb 2d3c 8cf9 373c
000003a0: 5945 563c ab3f 623c 3929 633c 2eea 383c
000003b0: 0fc6 683c 671d 473c cdbb 823c 9e71 843c
000003c0: 50a7 273c 19ad 4a3c 5d88 343c 1665 173c
000003d0: f534 543c 6fef 8e3c 9783 573c 981e 3e3c
000003e0: 9875 1a3c 4f3b 503c 0973 233c 264d 833c
000003f0: f5d6 2e3c 48d3 7e3c bab2 db3b 1a06 833c

fc3.bias f4 [16]
1.1720703e-06 -1.4256574e-05 1.0494467e-06 -7.798618e-07 -3.941018e-06 -1.7022783e-05 -3.2703738e-06 -8.542463e-06
-3.922445e-07 9.878744e-06 5.339087e-06 5.2300715e-07 -6.6295784e-06 -1.1710948e-05 -4.102113e-06 3.6247372e-06
00000000: 0750 9d35 852f 6fb7 b7da 8c35 b257 51b5
00000010: 163d 84b6 26cc 8eb7 9878 5bb6 9951 0fb7
00000020: ac95 d2b4 e2bc 2537 6826 b336 c764 0c35
00000030: a573 deb6 237a 44b7 e2a4 89b6 8340 7336

bn3.weight f4 [16]
0.195237 0.1893469 0.19600388 0.19705056 0.19438249 0.19488439 0.19465183 0.19223636
0.19675727 0.19523887 0.19462469 0.18951277 0.19402972 0.19667675 0.19494545 0.19987753
00000000: 35ec 473e 27e4 413e 3eb5 483e 9fc7 493e
00000010: 340c 473e c68f 473e cf52 473e 9cd9 443e
00000020: bd7a 493e b3ec 473e b24b 473e a30f 423e
00000030: baaf 463e a165 493e c89f 473e b2ac 4c3e

bn3.bias f4 [16]
0.11252629 0.11168438 0.114100255 0.11201621 0.112854786 0.11300455 0.11068204 0.11251428
0.11417278 0.1124585 0.1126714 0.11027964 0.10910692 0.114241354 0.11037519 0.114408076
00000000: 2f74 e63d c8ba e43d 65ad e93d c168 e53d
00000010: 6920 e73d ee6e e73d 44ad e23d e36d e63d
00000020: 6bd3 e93d a450 e63d 43c0 e63d 4bda e13d
00000030: 7373 df3d 5ff7 e93d 630c e23d c84e ea3d

bn3.running_mean f4 [16]
0.007933461 0.008159983 0.008171105 0.00804773 0.008174085 0.00813154 0.007941203 0.0082452055
0.008094749 0.008499007 0.007871034 0.007816944 0.00797485 0.007943007 0.0077435523 0.008153868
00000000: 59fb 013c 73b1 053c 19e0 053c a0da 033c
00000010: 99ec 053c 273a 053c d21b 023c e616 073c
00000020: d79f 043c 6b3f 0b3c 82f5 003c a412 003c
00000030: f2a8 023c 6323 023c a0bd fd3b cd97 053c

bn3.running_var f4 [16]
0.00019743267 0.00020357991 0.00020413904 0.00020148531 0.00021642733 0.00020698698 0.00020540143 0.00021355647
0.00020124193 0.00022029415 0.00018467069 0.0001841315 0.00019200519 0.00019882277 0.00019226996 0.00021896887
00000000: ee05 4f39 1178 5539 280e 5639 cd45 5339
00000010: c5f0 6239 a50a 5939 0761 5739 21ee 5f39
00000020: 7804 5339 c3fe 6639 29a4 4139 6c13 4139
00000030: 0055 4939 157b 5039 139c 4939 029b 6539

fc4.weight f4 [1, 16]
0.22853035 0.22411235 0.2312676 0.22822596 0.2283399 0.22872944 0.2274384 0.22656122
0.23032413 0.22733617 0.22777045 0.22303826 0.22415705 0.23123097 0.22678867 0.23275116
00000000: dc03 6a3e b57d 653e 6ad1 6c3e 11b4 693e
00000010: efd1 693e 0d38 6a3e 9de5 683e aaff 673e
00000020: 17da 6b3e d0ca 683e a83c 693e 2464 643e
00000030: 6d89 653e d0c7 6c3e 4a3b 683e 5256 6e3e
