models/big_small_model.pth (torch, 23465 bytes, 19 tensors)

fc1.weight f4 [64, 14]
000000 15 d7 82 3a 3d e4 8b bc 02 43 84 bc 50 a0 9d bc
       0.0009982312 -0.017076606 -0.016145233 -0.019241482
000010 62 c7 ce bc 80 95 91 3a de 78 14 bc ae c4 05 39
       -0.025241558 0.0011107177 -0.00906202 0.00012757137
000020 5b 23 62 b9 61 fe 94 39 8b b7 c5 bc 74 d2 ee bc
       -0.0002156621 0.00028418287 -0.024135372 -0.029153086
000030 4a 13 45 bb ef 27 e4 b8 a8 66 d5 3b cd 22 a0 bc
       -0.0030071312 -0.000108793254 0.0065124817 -0.019547844
000040 f1 a7 7e bc aa 32 a4 bc d8 be da bc 0e aa e2 3a
       -0.01554297 -0.02004369 -0.02670233 0.0017293112
000050 72 db 98 ba 4a c9 56 3b c8 9a 5f bb 5d 72 a4 3a
       -0.001166208 0.0032773786 -0.0034119356 0.001254629
000060 51 23 2b 3c d4 fb af 3c 8e 1b ef 3b ba d9 a3 3b
       0.010445432 0.021482386 0.007296986 0.0050003203
000070 a6 91 14 3c cb 63 82 bc f6 5f 89 bc bd 36 a2 bc
       0.009067928 -0.015916726 -0.01676939 -0.019801492
000080 51 71 c9 bc 67 da a6 3b fe 42 8d bb 9c b5 23 bb
       -0.024590166 0.0050919536 -0.0043109646 -0.0024980074
000090 24 1e 18 3a ad 6d 45 3b 13 eb 76 3c fb 55 d4 3c
       0.0005802831 0.0030125186 0.0150706945 0.025919905
0000a0 7e f6 a3 ba 5a 82 04 3c bc 28 ea 3a 31 09 85 bc
       -0.0012509373 0.008087719 0.0017864923 -0.016239734
0000b0 4d 05 8d bc 66 47 8b bc e4 f5 bd bc da 35 c1 3b
       -0.017214442 -0.017001819 -0.023188539 0.005896312
0000c0 12 84 82 ba 04 21 67 ba 69 19 01 3a 2d eb 22 3b
       -0.0009957573 -0.00088168704 0.0004924746 0.0024859414
0000d0 c8 70 e4 bc 11 10 eb bc 29 22 4c b9 65 25 be 3b
       -0.02788581 -0.028694184 -0.00019467682 0.0058027976
0000e0 68 20 dc 3b 1f 78 9b bc 0b 2d 99 bc f5 f7 8d bc
       0.0067177303 -0.018978177 -0.018698236 -0.01733015
0000f0 57 15 e0 bc e9 97 c3 3b 49 07 3f bc 72 90 6a ba
       -0.027353926 0.005969037 -0.011659452 -0.00089479156
000100 4c 7d 1d 3a 4f a2 06 bb 75 03 57 3c 26 53 d5 3c
       0.00060077454 -0.002054352 0.013123383 0.026040625
000110 43 af 4c b8 a5 57 06 3c 79 d1 16 bb be 1d 84 bc
       -4.8800615e-05 0.008199607 -0.002301304 -0.016127463
000120 8e ad 82 bc 09 0c a2 bc 5b 96 f5 bc 35 49 01 3b
       -0.015951898 -0.01978113 -0.029978922 0.0019727473
000130 cc de ec b8 5b 7e 10 3b 95 4c c4 3a 68 8d d5 3a
       -0.00011294856 0.002204797 0.0014976437 0.0016292753
000140 98 8c bb bc 52 a4 d6 bc 6d ed 09 bb 65 81 81 bb
       -0.022894189 -0.0262014 -0.0021046058 -0.0039521926
000150 58 a8 67 3b 98 2e 99 3c d4 6c a4 3c ea f5 88 3c
       0.0035348143 0.018698975 0.020071425 0.016718823
000160 9e 88 ba 3c cd 24 d0 bb 6c 4f 12 3c 77 3a 89 bb
       0.022770222 -0.0063520432 0.008930068 -0.0041878778
000170 15 32 f1 3a a5 c4 85 3b 48 33 30 bd 40 73 e0 3c
       0.0018401766 0.0040822797 -0.043017656 0.027398705
000180 a2 7e 96 b9 08 56 a0 bb 5b 56 c9 3a f0 0d 9f 3c
       -0.00028704578 -0.004893068 0.0015360819 0.019415826
000190 68 6f dc 3c 81 eb a7 3c ec 95 f1 3c 56 7d c2 bb
       0.026908591 0.02049804 0.029490434 -0.0059353514
0001a0 d1 d2 1c 3b f1 64 82 bb d4 d4 42 bb 87 7a 94 3a
       0.0023929367 -0.0039793183 -0.0029728906 0.001132802
0001b0 50 f2 35 bd bd c8 e3 3c e7 8d 57 3a c0 e5 0c 38
       -0.04442054 0.02780568 0.0008222744 3.3592572e-05
0001c0 f0 52 b1 3b 08 02 aa 3c fb 1a 8b 3c d0 0c a4 3c
       0.0054114982 0.020752922 0.016980639 0.02002564
0001d0 da 8a cc 3c 56 d3 20 bc 31 2e 0c 3c ac 33 73 3b
       0.024968553 -0.009816011 0.008555935 0.0037109656
0001e0 d7 9e 20 3b c9 a9 b0 39 53 0d 18 bd 80 52 f9 3c
       0.0024508738 0.00033695836 -0.037122082 0.030434847
0001f0 01 1e 0e 3a 36 03 0c ba ad d9 78 39 68 9b 97 bc
       0.0005421341 -0.00053410546 0.00023732214 -0.01850672
000200 5b 91 9e bc 29 f0 99 bc 7a 0d dd bc 34 8c 5a 3a
       -0.01935642 -0.018791275 -0.026983965 0.0008336932
000210 0f 54 c5 bb bd cf 36 3a a4 47 3d 3b c5 a0 e9 38
       -0.0060219835 0.00069737044 0.0028881812 0.000111402514
000220 b9 19 db bc 04 4d 09 bd a8 68 0c 3b 9e 20 a8 3a
       -0.026745664 -0.033520713 0.0021424685 0.0012827103
000230 0e 9e 9b 3b 73 a5 a5 bc 37 5e 8f bc b0 57 ae bc
       0.004749066 -0.020220494 -0.01750098 -0.021282047
000240 87 c0 c1 bc 11 60 76 3c f0 c7 15 bc 3a c9 4a 3b
       -0.023651375 0.015037552 -0.009141907 0.0030942694
000250 ef 57 e0 ba 14 c0 79 3b 4a c2 8f 3b 55 e7 a3 3c
       -0.001711605 0.0038108872 0.0043871747 0.020007769
000260 a9 5f b7 bb de c6 c5 3b 05 61 98 bb 97 4a 96 bc
       -0.0055961204 0.0060356697 -0.0046502375 -0.018346114
000270 62 e7 aa bc ec db 89 bc 02 96 d3 bc 64 eb 0c bb
       -0.020862285 -0.0168285 -0.025828365 -0.0021502608
000280 6d 3f 04 bc 9b d6 f1 3b f7 13 26 3a 67 5c 5a bb
       -0.0080717625 0.0073803193 0.00063353725 -0.0033319236
000290 91 f8 08 3a 2c 60 12 3c 50 dd da 3b 00 01 a1 3b
       0.00052250276 0.008934062 0.0066792145 0.0049134493
0002a0 48 59 c2 ba e5 bd a1 3c ac 90 ae 3c 9a 1d 84 3c
       -0.0014827633 0.01974387 0.02130922 0.016127396
0002b0 48 be f8 3c 3f 67 df ba e1 5a 6c 3c 41 82 66 3b
       0.03036417 -0.001704432 0.014425964 0.0035172852
0002c0 69 88 17 3b a7 21 90 3b 31 a9 0a bd ed d4 d4 3c
       0.0023122078 0.004398543 -0.03385276 0.025980437
0002d0 f7 37 9b ba 2f 96 46 3b 7a f8 05 bb 84 b8 68 bc
       -0.001184224 0.0030301919 -0.0020442293 -0.014204148
0002e0 fc 61 9d bc 3e 4c 94 bc 0c c3 cf bc 5e 57 b3 ba
       -0.019211762 -0.018102761 -0.02536156 -0.0013682654
0002f0 0f 6d 3c bc 80 ba ae bb 16 b6 76 3b 46 f7 82 3a
       -0.011500611 -0.005332291 0.0037645153 0.0009991906
000300 b0 21 cd bc 36 2f e3 bc e3 4e ed 39 37 8c 7b 3b
       -0.025040478 -0.027732473 0.00045262938 0.0038383135
000310 b1 a2 28 3a b6 c0 9b 3c 53 a8 a4 3c 65 8f ae 3c
       0.00064329343 0.01901279 0.020099794 0.02130861
000320 eb 9d c6 3c c4 9e b8 ba ef 75 14 3b 92 8e 06 3a
       0.024245223 -0.0014085402 0.0022653302 0.0005132939
000330 ba 9b d1 ba 1f 17 21 bb 66 0f 08 3d ce 24 f2 bc
       -0.0015991845 -0.0024580432 0.03321781 -0.029558565
000340 8e ec 3b 3b 29 d6 60 3a d2 e7 5a 3b 1c 5a 79 bc
       0.0028674933 0.0008576834 0.0033402336 -0.015219238
000350 6f da 7f bc 78 b3 ce bc cf b5 cb bc 39 05 b3 b9
       -0.0156160435 -0.025232062 -0.024866967 -0.00034145432
000360 b7 c1 1c bc 98 fb 19 3c d0 16 95 3a fb 3c 97 3b
       -0.00956767 0.0093983635 0.0011374597 0.0046154237
000370 9f 6d 90 3b 8d 35 12 3b 60 d6 0c bb 7b 2f bc 38
       0.004407599 0.002230975 -0.0021490082 8.9733825e-05
000380 a8 1e 70 bb cf ac b1 3c d0 2d 80 3c 10 0e b3 3c
       -0.0036639366 0.021688847 0.015646845 0.021857291
000390 da 4f bd 3c 5c 28 f4 bb 35 fa 51 bb 35 e6 f8 3a
       0.023109365 -0.0074511003 -0.0032040004 0.0018989505
0003a0 ea 72 25 3b e6 bc 04 bb 97 cc 19 3d 4c b5 df bc
       0.0025245496 -0.0020254194 0.037548628 -0.027308129
0003b0 03 86 e9 ba 22 5d 08 bb 66 65 14 bb de b3 9a 3c
       -0.0017816428 -0.0020807465 -0.0022643446 0.018884595
0003c0 63 20 a8 3c 28 24 c0 3c d2 b5 df 3c cf ac 3a bb
       0.020523256 0.02345474 0.027308378 -0.002848435
0003d0 69 85 04 3c 4e 24 30 3b f3 57 0d bb 60 21 c7 bb
       0.008088448 0.0026877108 -0.0021567314 -0.0060769767
0003e0 0d 3e 00 3d 3c b2 d5 bc 84 20 b1 ba 04 ed 4a ba
       0.031309176 -0.026085965 -0.0013513719 -0.00077410066
0003f0 a3 d6 e3 3a 35 72 c2 3c 64 3a c1 3c f2 7f aa 3c
       0.0017382692 0.023736099 0.023587413 0.020812962

fc1.bias f4 [64]
000000 7e 31 81 35 46 93 79 b4 3f 9a 85 34 e0 61 6e 33
       9.625653e-07 -2.324351e-07 2.488541e-07 5.550271e-08
000010 ac 77 db 35 3d 2a 71 34 9f f7 92 b4 c0 94 21 b3
       1.6351601e-06 2.246024e-07 -2.7374787e-07 -3.762102e-08
000020 30 5c 9e 35 d4 03 59 b5 7c 3d a8 34 51 54 69 35
       1.1798747e-06 -8.084437e-07 3.1337174e-07 8.692196e-07
000030 6a 7a d3 35 13 f2 5f 36 4e df c9 35 40 8e af b1
       1.5756352e-06 3.3370495e-06 1.5040657e-06 -5.1093423e-09
000040 de 0f 62 35 45 59 94 35 ee 79 f6 b3 b9 46 d8 34
       8.421465e-07 1.105284e-06 -1.14774465e-07 4.0284593e-07
000050 e6 2d 12 b4 88 04 37 36 10 7c f9 b3 ac 77 19 b4
       -1.3614007e-07 2.7271763e-06 -1.1617533e-07 -1.4292772e-07
000060 15 dc 2c 35 04 10 0c 35 e1 fc fa b4 20 24 e0 33
       6.4395255e-07 5.217737e-07 -4.6750122e-07 1.0437384e-07
000070 b0 58 cd 33 14 52 5e 34 f4 73 24 35 af 40 87 b5
       9.5621886e-08 2.0705221e-07 6.1263495e-07 -1.0077109e-06
000080 5d ed c1 35 c0 dc 23 b2 2a ca b9 b4 80 fd b1 b3
       1.4448702e-06 -9.5380415e-09 -3.460603e-07 -8.288316e-08
000090 df b8 fb b3 a1 9b a7 34 96 56 ce b5 64 c5 f9 b4
       -1.1721726e-07 3.121941e-07 -1.5373396e-06 -4.6523485e-07
0000a0 74 4c 57 b5 9f f6 89 35 c0 26 b2 35 10 a0 80 34
       -8.0204995e-07 1.0279072e-06 1.3273311e-06 2.395832e-07
0000b0 72 c7 5f 34 ef 4f 00 35 bd 6d 22 b6 90 37 07 b4
       2.0841051e-07 4.7800035e-07 -2.4203757e-06 -1.2593068e-07
0000c0 8a 04 19 35 a2 8b f7 35 77 40 05 b6 18 0a b1 35
       5.7003547e-07 1.8443573e-06 -1.9856068e-06 1.3190465e-06
0000d0 60 c7 e3 b3 c4 ff 2a b4 78 e4 86 b5 75 ca ae 35
       -1.0606777e-07 -1.5925531e-07 -1.0050271e-06 1.3022933e-06
0000e0 90 06 63 b3 48 ee 0d 35 c7 fe 20 36 ba df a8 35
       -5.2858525e-08 5.287334e-07 2.3990158e-06 1.2582088e-06
0000f0 4e 6e 8f b6 13 5a de b4 30 dc 89 33 89 dc 3a b5
       -4.2745733e-06 -4.141626e-07 6.4196115e-08 -6.961132e-07

bn1.weight f4 [64]
000000 eb 2f 15 3d f1 ea a6 3c 50 95 e2 3c b1 e4 11 3d
       0.03642265 0.0203757 0.027659088 0.035618488
000010 ea 26 e7 3c 32 94 0b 3d 93 07 37 3d 7d af 3a 3d
       0.028216798 0.034076877 0.044684958 0.045577515
000020 5e ab 1d 3d 78 27 17 3d 75 91 a9 3c 7a 1b 81 3c
       0.038493507 0.036902875 0.020699242 0.015760172
000030 1f 76 2a 3d f6 be 0c 3d 67 c1 f9 3c c6 35 a0 3c
       0.041616555 0.034361802 0.03048773 0.019556891
000040 59 e4 fb 3c 5d f7 12 3d 01 ba 0e 3d bf 1c ca 3c
       0.030748533 0.035880435 0.034845356 0.02467191
000050 c4 20 a7 3c 9d c8 9f 3c 3d 75 c4 3c fa 21 16 3d
       0.020401366 0.01950484 0.023981685 0.036653496
000060 a8 79 05 3d 61 de 0c 3d 5f 9b 1a 3d 5f ff 15 3d
       0.032586724 0.034391765 0.03774583 0.036620494
000070 22 57 ae 3c 3f 3c 06 3d 50 5d 11 3d 09 a8 1c 3d
       0.021281783 0.0327723 0.03548938 0.03824619
000080 6c 3f 22 3d ed e8 ad 3c 67 38 a4 3c 5c 1f 9a 3c
       0.039611265 0.021229232 0.020046426 0.018813781
000090 a6 4b 36 3d 50 11 97 3c 5c 18 0a 3d 42 e6 8e 3c
       0.044505738 0.018440872 0.033714637 0.01744378
0000a0 63 af 0d 3d 44 ed bc 3c 9f d7 03 3d 44 17 8a 3c
       0.03459109 0.023062356 0.032188054 0.016856797
0000b0 e2 d5 24 3d f0 3b 02 3d 03 85 20 3d 40 b2 08 3d
       0.040243037 0.031795442 0.03918935 0.033373117
0000c0 91 ec 1c 3d 7f 06 2c 3d ba ef 05 3d 00 f5 a5 3c
       0.038311545 0.041998383 0.032699324 0.020258427
0000d0 47 eb a7 3c 76 2c 03 3d ef fa cd 3c 4e 38 02 3d
       0.020497931 0.032024823 0.025144069 0.031791978
0000e0 15 fa 02 3d 70 76 21 3d 63 fb cf 3c 6f 1b 24 3d
       0.031976778 0.03941959 0.025388425 0.040065225
0000f0 84 8b 12 3d f3 94 0e 3d 9e b5 0c 3d 11 f1 31 3d
       0.035777584 0.034810018 0.03435289 0.04344279

bn1.bias f4 [64]
000000 a5 cf 23 bc 7c d5 5e 3b dc 79 19 3b fe 23 f7 bb
       -0.009998237 0.0034001758 0.002341858 -0.0075421324
000010 70 7f d9 bb bb 0f 59 bc 11 bb 65 bc 54 46 8f bc
       -0.006637506 -0.013248379 -0.014021651 -0.01748959
000020 12 90 54 bc 51 f3 41 bc 36 4e cd ba 37 79 b2 3b
       -0.012973802 -0.011837796 -0.0015663567 0.005446579
000030 20 84 2e bc 49 05 2d bc d0 8a aa 3a 0c 14 86 3b
       -0.010651618 -0.010560342 0.001301134 0.0040917452
000040 2c 14 98 b9 5c bc ef 3a 71 46 0a 3b 03 95 c2 3b
       -0.00029006728 0.0018290388 0.0021099115 0.0059381737
000050 56 b3 b1 3b ff 69 30 3c a4 75 30 ba 52 f7 6d 3a
       0.00542299 0.010767459 -0.0006731397 0.0009077686
000060 ee b0 f4 b9 b2 1a 49 bc b8 da 01 bb 5e 43 4a bc
       -0.0004667113 -0.012274431 -0.0019814204 -0.012345163
000070 e5 90 07 3b 86 7a 67 ba d6 f6 8f 3a c1 43 8d 3a
       0.002068573 -0.0008830208 0.0010983597 0.0010777639
000080 3a 5c 79 bc c3 55 9d 3b 90 0a 09 3a d2 a0 58 3b
       -0.015219742 0.0048014834 0.0005227709 0.003305484
000090 3f 90 8f bc 4f 4c 9e 3b 3c ae 14 bc b9 b8 16 3c
       -0.017524837 0.004830874 -0.009074744 0.009199315
0000a0 f7 07 c8 bc d3 7f 0f 3c d3 cc db ba ec 6e 47 3b
       -0.02441786 0.008758503 -0.0016769416 0.0030431105
0000b0 3c bf 93 bc 74 71 91 bb 09 32 68 bc 80 6e 07 3b
       -0.018035524 -0.0044385735 -0.014172086 0.0020665228
0000c0 d6 bc ab bc 80 57 41 bc 72 46 5b b9 d3 c9 a5 3b
       -0.020964067 -0.011800647 -0.0002091171 0.0050594597
0000d0 10 32 0f 3c 86 70 0c bb ec 22 7d 3b 53 8c 48 bc
       0.008739963 -0.0021429374 0.0038625551 -0.012240487
0000e0 4e 95 5b bb 40 cc 3c bb ee cc 1e 38 f4 05 64 bc
       -0.003350574 -0.0028808266 3.786099e-05 -0.013917435
0000f0 75 e7 1b ba 39 1c 34 3a 02 2f 0b ba 5e 4f ad bc
       -0.00059472705 0.00068706606 -0.0005309434 -0.02115601

bn1.running_mean f4 [64]
000000 4f 29 ae 3a ab 54 62 3a 61 19 ff 39 20 ad 18 ba
       0.0013287457 0.00086338323 0.000486563 -0.00058241375
000010 c5 2a 22 ba e8 a3 02 3b 97 cd 58 3b 1f 75 e8 3a
       -0.0006186183 0.0019934122 0.0033081525 0.00177351
000020 5a 33 29 3a c0 53 79 3a 6e 27 97 ba 7c fb 9b b9
       0.00064544904 0.0009511076 -0.0011532137 -0.00029751274
000030 ec d6 27 ba a8 2b 05 3b 27 37 5a bb 96 e3 08 3b
       -0.000640257 0.002032021 -0.0033297034 0.0020887605
000040 08 f2 0f bb ac 18 90 bb 81 ba 11 bb 3c ac ab ba
       -0.002196433 -0.0043974724 -0.002223641 -0.0013097594
000050 93 d6 63 3a 40 9f c6 b7 5c a0 d2 3a b0 ba 79 bb
       0.0008691337 -2.3677596e-05 0.0016069519 -0.003810566
000060 b0 41 d3 ba d4 ef 65 ba 0a bf 2b bb 20 64 29 38
       -0.0016117599 -0.0008771394 -0.0026206397 4.038599e-05
000070 c8 f9 f1 3a 30 c1 74 bb 42 ac 4e bb 28 28 fa ba
       0.0018461281 -0.0037346594 -0.003153578 -0.0019085454
000080 60 30 cd b8 6c 70 23 3b 2c 29 30 3a 77 c0 2c 3a
       -9.784172e-05 0.0024938835 0.0006720002 0.0006589959
000090 54 aa ef ba 61 a4 0f 3b 60 01 4f ba f7 9a e0 3a
       -0.0018285015 0.0021918046 -0.0007896628 0.0017136027
0000a0 83 e1 18 3b 26 ec 33 ba 34 ba 7d bb dc 0f 5c 3b
       0.0023327775 -0.0006863497 -0.0038715722 0.003357879
0000b0 f1 59 ac 3a 59 df 05 bb 82 99 9b 3a d6 3b ff ba
       0.0013149363 -0.0020427315 0.001187131 -0.0019472789
0000c0 d2 d3 d1 3a 46 86 46 3a 10 06 07 bb 97 fc 04 bb
       0.0016008562 0.0007573109 -0.0020602979 -0.0020292157
0000d0 56 3d b2 3a b2 e1 ca ba 81 00 c4 b9 00 fa af 3a
       0.0013598602 -0.0015478639 -0.0003738441 0.0013425946
0000e0 8b 23 10 bb 4a 12 04 bb d8 07 a2 b9 a0 5e df 3a
       -0.0021993842 -0.0020152503 -0.00030904892 0.001704175
0000f0 f5 a3 46 bb b0 f9 23 bb a1 fb 13 bb a8 28 de 39
       -0.0030310128 -0.0025020652 -0.0022580402 0.0004237343

bn1.running_var f4 [64]
000000 69 a6 7d 3b 13 be 92 3b 3d 73 91 3b 95 cd 49 3b
       0.0038703925 0.004478225 0.0044387863 0.0030792702
000010 0f 67 aa 3b 01 12 78 3b f6 59 c9 3b bb b2 01 3c
       0.005200274 0.0037852528 0.0061447574 0.007916148
000020 7e 91 c0 3b d7 95 90 3b ca 07 7b 3b 64 68 85 3b
       0.005876719 0.0044123936 0.0038304203 0.004071282
000030 3b 91 f1 3b 23 ce 88 3b b6 dc a2 3b c8 50 86 3b
       0.007372049 0.004174964 0.0049701585 0.0040989853
000040 2b 97 90 3b 9b 2f b3 3b e8 6f c5 3b ef 35 90 3b
       0.004412552 0.0054683215 0.006025303 0.0044009606
000050 38 78 87 3b b8 e2 82 3b 8d 5e a2 3b cc ed c4 3b
       0.0041342042 0.003994312 0.004955119 0.006009793
000060 44 20 c5 3b ab d5 5a 3b 7f 9c d4 3b 19 8c 96 3b
       0.0060158093 0.0033391516 0.0064883824 0.0045943377
000070 59 09 77 3b 96 ef d4 3b c6 ea da 3b 01 ab a9 3b
       0.003769478 0.0064982874 0.006680819 0.005177856
000080 fa 3d f5 3b 5f 89 a5 3b d8 6b b5 3b d1 4d 7c 3b
       0.007484195 0.0050517763 0.0055365376 0.003849853
000090 47 d1 02 3c e4 b8 8a 3b b5 8c 70 3b b1 0f 80 3b
       0.007984466 0.0042334665 0.0036704962 0.0039081206
0000a0 5f 7e 60 3b e3 13 70 3b 22 23 9d 3b 42 18 8a 3b
       0.003425501 0.0036632947 0.004795448 0.0042143175
0000b0 b0 98 c8 3b d0 96 b9 3b b5 c7 f5 3b 54 a3 b4 3b
       0.0061217174 0.00566373 0.0075006136 0.0055126343
0000c0 1a b7 bc 3b d6 9a d9 3b b4 7b be 3b 87 e0 4e 3b
       0.005759132 0.0066407723 0.0058130864 0.0031566934
0000d0 b1 5d 9d 3b a8 45 bc 3b 38 34 9d 3b c3 d8 82 3b
       0.0048024287 0.0057456084 0.0047974847 0.003993125
0000e0 56 ca c1 3b 68 65 ca 3b b2 b7 8d 3b 6b cf fb 3b
       0.005914013 0.0061766393 0.0043248767 0.0076846383
0000f0 40 a1 b6 3b 3b 39 c9 3b 3a bb ca 3b 2b e3 c9 3b
       0.0055734217 0.0061408556 0.00618687 0.0061611137

fc2.weight f4 [32, 64]
000000 6c a3 64 bc b3 86 b0 bb 95 20 6d bc 2f 5f 51 bc
       -0.013954978 -0.005387151 -0.0144731 -0.012779041
000010 5e 1d 79 bc fc 82 39 bc 8c a7 bc 3b 3f 2d 0b 3b
       -0.015204756 -0.011322733 0.005757278 0.0021236686
000020 60 66 4b bb c6 f0 6c bc 4d b4 3d bc 84 df 3f bc
       -0.0031036362 -0.014461702 -0.011578632 -0.011711005
000030 90 fc 25 bb bc 3b 26 bc a1 17 8b 3b 45 d4 88 bc
       -0.002532754 -0.010146078 0.00424476 -0.01670278
000040 3c 9b ea 3b 22 99 85 3b a0 18 48 3b 4b f8 52 bc
       0.0071596187 0.0040770927 0.0030532256 -0.0128765805
000050 f3 7f 3e bc db a0 7c bc 0e 75 70 bc 9a 37 84 ba
       -0.011627185 -0.01541921 -0.0146763455 -0.0010087371
000060 57 67 96 39 73 75 24 bc e3 2f 4e 3b 97 a5 65 bc
       0.00028687224 -0.010037768 0.0031461648 -0.0140165305
000070 07 cd 6c bc 5b 5c 14 3a b2 c3 68 3b 82 f1 4c bb
       -0.014453179 0.0005659514 0.0035517034 -0.003127188
000080 98 06 cb 3b ec 53 1f bc f0 5e 4b bc 08 a0 31 bc
       0.0061958544 -0.009724598 -0.012412772 -0.010841377
000090 5c ff b0 3b 16 a9 6e bc 39 17 57 bc 62 f5 46 bc
       0.005401535 -0.01456668 -0.013128095 -0.012143465
0000a0 1f c8 8e 3c 0c 97 80 bc f8 79 86 3a 83 33 6b bc
       0.01742941 -0.015697025 0.0010259738 -0.014355543
0000b0 87 99 5a 3a 4b c8 1a 3b 59 b5 18 3c 8a b0 88 ba
       0.00083389174 0.002361792 0.00932058 -0.0010428589
0000c0 b3 ab 44 3b 4e d0 1a 3b ff bc be 3a 5d 26 3a bc
       0.0030009567 0.0023622694 0.0014552175 -0.011361686
0000d0 a9 1c 82 bc a6 ce d9 3b 11 5a a2 bb df 05 4c bc
       -0.015882807 0.006646949 -0.0049545844 -0.012452572
0000e0 16 be 1a 3b 98 03 69 3b 10 a6 e1 bb 13 41 7d bb
       0.0023611835 0.003555512 -0.0068862513 -0.0038643524
0000f0 ae 01 8d 3b 26 07 f9 3b 24 60 53 bb ff 3d 76 b9
       0.0043031787 0.007599729 -0.003225335 -0.00023483484
000100 3f 12 07 bc 04 f5 a2 bb ab fe 0c bc e7 21 96 bc
       -0.008244096 -0.004973056 -0.008605639 -0.018326713
000110 65 7a 28 bc be 9f 28 bc 5f 37 cd 3b ee ae d2 3b
       -0.010283087 -0.010291992 0.0062627043 0.0064295447
000120 20 ba 1a 3c 64 46 bd bb 85 74 72 bb 79 a3 0f bc
       0.00944379 -0.0057762135 -0.003699572 -0.008767002
000130 db f3 c5 3a 54 00 1e bc 6e 25 2f b8 a0 70 f9 bb
       0.0015102582 -0.009643633 -4.175811e-05 -0.007612303
000140 3c 6c f3 3b 7e d8 f2 3a bd 89 bb 3b 3c 6b 52 bc
       0.007428674 0.0018527654 0.005723207 -0.0128429495
000150 ff 37 c5 bb e6 71 5e bc 4c 51 88 bc 00 8c cb bb
       -0.006018638 -0.01357696 -0.016640328 -0.0062117577
000160 d2 16 b7 3b 94 db 83 bc a6 a5 29 3b 52 76 0e bb
       0.005587437 -0.016095914 0.0025886088 -0.0021738005
000170 aa 12 e6 bb 1f bb 01 bb 23 d4 72 3a 36 9d b6 3b
       -0.007021268 -0.001979537 0.0009263178 0.00557294
000180 28 ee 1c 3c 1f 51 2f bc fa d7 f2 bb 93 8c 15 bc
       0.009578265 -0.010700493 -0.0074110003 -0.009127754
000190 46 52 59 3a b5 0f f6 bb 45 fc 24 bc 67 21 63 bc
       0.0008290153 -0.0075091966 -0.010069911 -0.013862944
0001a0 dc ef 8e 3b 1b 03 20 bc b5 68 b7 3b bf 84 46 bc
       0.0043620896 -0.009766365 0.005597199 -0.01211661
0001b0 fc 98 bc 3b 7c 57 34 3b 42 75 b6 3b a1 84 26 3c
       0.005755542 0.0027517965 0.0055681774 0.010163457
0001c0 63 43 31 3b f1 4f 6b 3c 1c ee 01 3a 80 27 30 bc
       0.0027048222 0.014362321 0.00049564405 -0.010751605
0001d0 79 ff 2e bc b8 e3 86 bb 3b 40 1b bc 55 82 2d bc
       -0.010681027 -0.0041165017 -0.009475763 -0.010590156
0001e0 78 61 d6 3b 47 13 27 bb 34 73 77 bc f2 f5 29 3b
       0.006542381 -0.0025493668 -0.01510315 0.0025933948
0001f0 90 f7 0b bb ba bd 9a 3b ba cd 12 bb 16 74 85 3b
       -0.0021357276 0.004722324 -0.0022400455 0.0040726764
000200 75 d8 58 bc e2 38 67 bb c6 79 49 bc 9d cd 2a bc
       -0.013235201 -0.0035281708 -0.012297099 -0.010424999
000210 1c 1b 53 bc a2 c6 65 bc 21 51 27 3b ee 97 e6 3a
       -0.012884881 -0.0140244085 0.0025530534 0.0017592886
000220 2e 42 1b 3c 16 95 d0 bb ff c2 58 bc 84 75 4e bc
       0.009476228 -0.0063654287 -0.013230084 -0.01260126
000230 04 89 4d bb 7e b0 e8 bb 95 99 de b9 b2 55 db bb
       -0.0031362185 -0.0071011176 -0.00042457567 -0.0066935653
000240 a4 99 c7 3a 31 8f a4 3b ea 8e 60 3b 3c 17 3c bc
       0.0015228284 0.0050219526 0.003426487 -0.011480149
000250 19 e2 e1 bb 5f d2 84 bc 4f 91 72 bc 90 37 4c 3b
       -0.006893408 -0.016213594 -0.014805152 0.0031161048
000260 f2 a6 db 3b 97 fb 95 bc 2f 70 9d 3a be 3e 41 bc
       0.006703251 -0.018308444 0.0012011583 -0.011794744
000270 ea fc 2f bc cf 12 29 3a e6 dd b7 3b 97 14 ad 3b
       -0.010741452 0.0006449641 0.005611169 0.0052819955
000280 c1 58 9c bb ba ae 48 bc 29 08 0c bc 0e 50 03 bc
       -0.0047713225 -0.012248689 -0.008546867 -0.008014692
000290 cf 15 5e 3b 82 21 35 bc d3 f1 60 bc ad d5 c5 bb
       0.003388751 -0.011055352 -0.01372953 -0.006037435
0002a0 6a 1e 18 3c bf dd 0e bc 69 55 ab 3b f1 34 be bb
       0.009284595 -0.008719861 0.0052286875 -0.005804651
0002b0 c7 87 46 ba e5 f1 0c ba e9 b7 69 3b ca 59 f7 b8
       -0.0007573333 -0.0005376621 0.0035662598 -0.00011794602
0002c0 b7 4d 8d 3b c1 22 d3 3a 44 09 bf 3a cc 77 f3 bb
       0.004312243 0.001610838 0.0014574905 -0.0074300524
0002d0 77 7b 55 bc fc 5d 88 3b d3 ce 5e bc 10 f0 8a bc
       -0.013029925 0.0041615944 -0.013599115 -0.016960174
0002e0 b6 7e 0c 3b 8e 65 21 3b 73 47 1b bc 4b c0 c2 bb
       0.002143783 0.0024627182 -0.009477484 -0.0059433333
0002f0 f7 c8 bd 3a 71 4e 37 3b cc 37 58 3c 37 a7 e7 3b
       0.0014479448 0.0027970339 0.013196897 0.007069494
000300 13 ed 2e bc 94 04 29 bc 83 49 9e bb c5 4a 9e bc
       -0.01067664 -0.010316033 -0.0048305406 -0.019322762
000310 59 e2 41 bc 8a 0e 51 bc 26 a9 2e bc 32 13 a2 3b
       -0.011833751 -0.012759814 -0.010660445 0.004946136
000320 6d 8b 42 bb 7b 95 13 bc 73 bd 97 ba b5 95 0b bc
       -0.0029685155 -0.009007807 -0.0011576846 -0.00851958
000330 d7 d4 61 bb 5a 4f 7c bc 39 5c 49 3b 3d b8 06 bc
       -0.0034459138 -0.015399778 0.0030725135 -0.008222637
000340 82 d1 db 3b 85 7e 95 3b d4 eb 09 bb 44 5a 10 bc
       0.006708325 0.0045622014 -0.0021045106 -0.0088105835
000350 ab 75 b3 bb 1e 60 29 bc 3d 29 3a bc a6 59 87 3b
       -0.0054766736 -0.0103378575 -0.011362371 0.00413056
000360 8f df 87 bb 34 ba 16 bc 4d d1 97 3b 34 66 97 bb
       -0.0041465233 -0.009199668 0.004633105 -0.004620338
000370 da 04 d4 bb 37 c3 1f ba 96 85 f7 3a 1f c9 98 3b
       -0.006470305 -0.0006094458 0.0018884416 0.0046626474
000380 e5 98 47 bb 3f 00 8a bc eb 78 2f bb 08 93 37 bc
       -0.0030456122 -0.01684582 -0.0026774954 -0.011204489
000390 fb c6 ae 3a 30 68 35 bc d0 37 2a bc d1 56 4f bc
       0.0013334447 -0.0110722035 -0.010389283 -0.012654976
0003a0 e0 2a 18 3c fe 5b 52 bc fb 98 25 3c 59 86 9d bb
       0.009287566 -0.012839315 0.010107274 -0.0048072753
0003b0 8e 53 88 3b 5c e3 28 3c a1 39 92 3b f1 27 c2 b9
       0.004160351 0.010308113 0.0044624363 -0.00037032322
0003c0 ff 00 bc 3b 48 2e 3c ba 05 a8 87 3a af 14 dc bb
       0.0057374234 -0.00071785273 0.0010349756 -0.006716333
0003d0 7d 70 61 bc 07 bc 23 3c 56 78 51 bc 2c f0 2b bc
       -0.013759729 0.00999356 -0.012785038 -0.010494273
0003e0 62 53 2e 3c 5e 05 5c 3b d4 2f 0f bc 1b 5e 41 3a
       0.010639997 0.0033572535 -0.00873943 0.00073763885
0003f0 3a 22 15 3c 43 30 f4 3b 0b 38 a1 b7 01 6b a3 3b
       0.0091023985 0.0074520423 -1.9218793e-05 0.004987121

fc2.bias f4 [32]
000000 5f 08 d4 b6 c6 06 aa 37 1c 61 8b b6 c4 9e 87 b5
       -6.319067e-06 2.0268733e-05 -4.153828e-06 -1.0104491e-06
000010 fc 86 09 36 7e 5b 0f 37 b2 78 c9 b7 89 ff 4c 37
       2.0493162e-06 8.544766e-06 -2.401727e-05 1.2218844e-05
000020 27 8f 39 b7 f3 1a 55 36 ba a4 1e b6 e8 5b 4b 37
       -1.10601895e-05 3.175516e-06 -2.3639718e-06 1.21211415e-05
000030 22 82 0a b6 06 ff 11 37 22 04 25 37 dc 56 b1 b6
       -2.063935e-06 8.702051e-06 9.835729e-06 -5.285123e-06
000040 a7 38 ee 37 e6 70 af b6 4a 64 e1 37 16 cb f3 36
       2.8398192e-05 -5.2285495e-06 2.686879e-05 7.2656067e-06
000050 15 53 8c b6 ee 15 bd 36 8b 87 9e 37 5e 4f ad b5
       -4.181997e-06 5.635192e-06 1.8898185e-05 -1.2912603e-06
000060 66 2e 05 b7 6e 3b 59 b6 50 05 68 37 55 26 38 b6
       -7.938221e-06 -3.2370112e-06 1.38295145e-05 -2.7440449e-06
000070 2c 52 e2 36 1c 47 81 b6 bb 34 b4 35 d6 64 88 36
       6.744891e-06 -3.852778e-06 1.3426392e-06 4.0648547e-06

bn2.weight f4 [32]
000000 7a e5 4d 3d eb 5f 4d 3d d0 c5 52 3d 75 7f 4d 3d
       0.050267674 0.050140303 0.05145818 0.05017038
000010 b8 74 a1 3d f5 ac a4 3d 1f be a0 3d 6d 0a ae 3d
       0.078835905 0.080408014 0.07848763 0.08498082
000020 6b 28 67 3d a9 36 4f 3d da 99 4d 3d a6 3b 9d 3d
       0.05643503 0.050589237 0.050195552 0.07677393
000030 a9 12 99 3d 85 a1 4a 3d 03 17 a3 3d 59 c1 99 3d
       0.07474262 0.049470443 0.079633735 0.07507581
000040 88 d4 a2 3d 08 eb 37 3d 60 a5 44 3d db ba 59 3d
       0.07950693 0.044901878 0.048009276 0.053156715
000050 22 46 51 3d 45 13 9c 3d 25 f3 4b 3d 27 11 56 3d
       0.051092274 0.07620863 0.049792428 0.05226245
000060 68 d7 a5 3d 6d f9 a3 3d 95 69 9b 3d 39 d8 4e 3d
       0.08097726 0.080065586 0.075884975 0.050499175
000070 2a 72 48 3d 16 1d 5d 3d 62 48 42 3d c3 22 30 3d
       0.048937 0.053982817 0.04743231 0.0430019

bn2.bias f4 [32]
000000 bd 51 da bb 95 4d 1f bc 0b 7b a8 bb 86 64 d8 bb
       -0.006662576 -0.009723087 -0.005141621 -0.00660378
000010 5e 1f f9 bc af 88 02 bd ee 4a e1 bc ca 74 0b bd
       -0.030410465 -0.031868633 -0.02750155 -0.034046926
000020 b1 15 1a bc fe d9 61 bb c4 df cd bb 4c 05 e5 bc
       -0.009404586 -0.003446221 -0.0062827785 -0.027956627
000030 21 7a cf bc df 3a 8f bb 64 a3 07 bd 44 b2 e8 bc
       -0.02532679 -0.0043710317 -0.033114806 -0.028405316
000040 fb 36 08 bd 1d bb 03 bb 1b 6d 1a bc 9a 55 80 bb
       -0.03325556 -0.0020100542 -0.009425427 -0.0039164545
000050 6f d5 f9 3a d2 61 00 bd 3b 49 51 bc 41 4d d6 bb
       0.00190608 -0.03134329 -0.012773807 -0.006539971
000060 7d 03 f3 bc 04 9e 02 bd 8b 2d fa bc ab d4 1c bc
       -0.02966475 -0.031888977 -0.030539295 -0.009572188
000070 72 e7 1e bc 43 96 18 bc 41 3c d7 b9 6f 54 93 bb
       -0.009698736 -0.009313169 -0.00041052888 -0.0044961493

bn2.running_mean f4 [32]
000000 d2 6a 57 bb e9 80 04 bb f1 a4 1f bb 65 cf 0f bb
       -0.0032870066 -0.0020218438 -0.0024359787 -0.0021943685
000010 d6 10 93 bb fc 24 a3 bb a7 c7 9c bb 9a 59 b4 bb
       -0.004488091 -0.004978774 -0.0047845426 -0.0055038454
000020 98 c8 0a bb 63 f6 f8 ba b2 07 d8 ba 4a 8d 85 bb
       -0.0021176692 -0.0018994327 -0.0016481786 -0.004075681
000030 fc 5e 7e bb 52 8f ac ba f6 32 9d bb 82 cb 9f bb
       -0.003881394 -0.0013165271 -0.004797335 -0.004876555
000040 f0 30 a6 bb 82 51 f1 ba 35 db 36 bb 5b ce 26 bb
       -0.005071752 -0.0018411132 -0.0027901654 -0.0025452587
000050 bd fe 50 ba 22 4c a3 bb 12 39 0d bb 0f 07 1a bb
       -0.0007972529 -0.004983441 -0.002154891 -0.0023502742
000060 fc 15 9c bb b9 b0 8a bb b1 31 87 bb 46 9c 08 bb
       -0.004763363 -0.0042324928 -0.0041257967 -0.00208451
000070 fa 5c dc ba f1 dd 2f bb d6 1e 28 ba e5 07 b4 ba
       -0.0016812377 -0.0026835168 -0.00064132863 -0.0013735263

bn2.running_var f4 [32]
000000 b6 83 2a 38 2d 59 12 38 0c 3f 19 38 80 f7 06 38
       4.0653824e-05 3.4892164e-05 3.653676e-05 3.2178592e-05
000010 aa c4 a1 38 8d 64 a4 38 dd e8 93 38 1b 64 ab 38
       7.71371e-05 7.8388584e-05 7.0528804e-05 8.1725615e-05
000020 ca b6 32 38 34 d9 1f 38 2a 2c 15 38 e8 4e a3 38
       4.2608743e-05 3.811084e-05 3.55655e-05 7.787143e-05
000030 6a e6 89 38 34 18 0a 38 20 9b 83 38 c2 23 87 38
       6.575587e-05 3.2924305e-05 6.275461e-05 6.443962e-05
000040 5b ff 91 38 05 47 25 38 e4 9b fe 37 5a 81 3c 38
       6.9617025e-05 3.9405208e-05 3.0351752e-05 4.494316e-05
000050 bc 43 3b 38 c3 bb 88 38 5b 07 20 38 9e 89 1f 38
       4.4647357e-05 6.519959e-05 3.8153823e-05 3.803672e-05
000060 44 a7 a3 38 a2 05 8d 38 df bf 7d 38 cf 84 1b 38
       7.803601e-05 6.724453e-05 6.0498594e-05 3.7078567e-05
000070 1c 16 fb 37 3e e2 1a 38 8c 24 2e 38 df 32 0a 38
       2.9931827e-05 3.6927166e-05 4.151887e-05 3.294914e-05

fc3.weight f4 [16, 32]
000000 88 29 72 3c df ee ad 3c d3 26 aa 3c 0e 7f 94 3c
       0.01478041 0.021232067 0.020770466 0.01812699
000010 c4 79 44 bc cd 61 8e bc 30 22 60 bc 39 0e 72 bc
       -0.011991922 -0.01738062 -0.013680026 -0.014773899
000020 6b d4 a9 3c e2 e4 b7 3c f7 b7 d9 3c 5b 74 2a bc
       0.020731172 0.022448007 0.02657698 -0.010403718
000030 61 9d 10 bc fb a4 63 3c 3c b1 92 bc e3 6f 62 bc
       -0.008826585 0.013894315 -0.017906778 -0.013820621
000040 91 8f 93 bc 85 6c 85 3c 75 61 56 3c 79 df b6 3c
       -0.018012794 0.016287098 0.013084759 0.022323357
000050 88 ae ce 3c 44 f6 74 bc a3 09 8b 3c 98 f6 a7 3c
       0.025229707 -0.014951292 0.016972369 0.020503327
000060 1c b2 79 bc f3 56 3f bc b1 b3 4a bc da ec 94 3c
       -0.0152402185 -0.011678445 -0.012371943 0.018179346
000070 92 9a 99 3c b9 e0 96 3c 33 d6 6e 3c 4b ad 5e 3c
       0.018750463 0.018417703 0.014577436 0.013591121
000080 b6 f2 0a bc 1f 79 15 bc b5 07 c4 bb f4 ba 17 bc
       -0.008480718 -0.009123116 -0.005982364 -0.009260882
000090 be 39 fc 3c a9 b4 03 3d 72 79 df 3c 8b e6 07 3d
       0.030789252 0.032154713 0.02727959 0.033178847
0000a0 2c 43 f7 bb 1a 83 06 bc 36 b1 f1 bb a4 a0 ce 3c
       -0.0075458493 -0.008209968 -0.0073758615 0.025223084
0000b0 bb 6f 01 3d fb 80 97 bb 04 a8 c4 3c 41 45 eb 3c
       0.031600695 -0.00462353 0.024005897 0.028719546
0000c0 a8 ec 0b 3d 2a cc e9 bb bc e2 1d bc a2 80 e7 bb
       0.03416124 -0.007134934 -0.009636577 -0.007064895
0000d0 51 a5 20 bb 75 a5 e0 3c 23 45 a5 bb f1 d6 94 bb
       -0.0024512599 0.027422646 -0.005043642 -0.0045422246
0000e0 86 72 05 3d 7c f2 eb 3c b9 4a e3 3c 3d 4f 26 bb
       0.03257992 0.028802149 0.027745591 -0.002537682
0000f0 6b 37 90 bb c0 4b cf bb 37 97 a2 bb 47 69 cc bb
       -0.0044011376 -0.006326169 -0.004961874 -0.006238136
000100 a0 0d c7 3c 90 e3 7c 3c eb 58 65 3c 7e 56 ad 3c
       0.02429849 0.0154351145 0.0139982505 0.021159407
000110 85 d1 6c bc 33 a6 59 bc 9e 85 51 bc 56 1f 55 bc
       -0.01445425 -0.013284254 -0.0127882045 -0.013007959
000120 38 7f ab 3c 8a ac a2 3c 8d a3 9a 3c 5d c3 62 bc
       0.020934686 0.019857664 0.018876815 -0.013840524
000130 2a d5 55 bc 32 f6 ad 3c 4c b4 82 bc 79 5f 3d bc
       -0.013051311 0.02123556 -0.015955113 -0.011558407
000140 4f 13 77 bc 9e d5 93 3c b2 90 c4 3c b6 31 ac 3c
       -0.015080287 0.018046197 0.023994777 0.021019798
000150 d1 f5 b7 3c 9c d7 59 bc 7c 98 95 3c d4 82 6e 3c
       0.022456082 -0.013296034 0.018261187 0.014557559
000160 e2 67 61 bc b1 e2 2d bc 8f f9 87 bc 13 26 95 3c
       -0.013757678 -0.0106131295 -0.016598491 0.018206632
000170 42 35 8c 3c cf 35 b9 3c a0 cc 89 3c 14 71 b2 3c
       0.017115239 0.022608666 0.016821206 0.021782435
000180 ee 3a 11 bc a6 68 29 bc 92 ec fd bb 7a 57 fb bb
       -0.008864148 -0.010339892 -0.0077491486 -0.00767034
000190 67 7d f6 3c 38 ef f6 3c 10 ae 05 3d 99 00 0c 3d
       0.030089093 0.030143365 0.032636702 0.034180257
0001a0 66 e0 f4 bb 01 f1 07 bc c7 15 a8 bb 9e 93 02 3d
       -0.0074730394 -0.008297206 -0.005129549 0.03187906
0001b0 8a 5b d0 3c 56 6e ed bb e7 d1 e1 3c df 9a ca 3c
       0.025434274 -0.007245819 0.02756591 0.024732051
0001c0 db 40 ea 3c 0d 33 1e bc 9e 2b 18 bc a7 6b 48 bc
       0.028595379 -0.009655726 -0.009287743 -0.012232698
0001d0 67 ba de bb 38 56 c6 3c 9d 73 f9 bb 67 75 8e bb
       -0.0067971232 0.024211034 -0.007612659 -0.0043474915
0001e0 d4 2f f2 3c 1b 21 e3 3c 4c 25 e4 3c 09 3d 95 bb
       0.029563822 0.027725747 0.027849816 -0.004554395
0001f0 5b c6 d1 bb ae 6f 22 bc fc 4b f7 bb 84 fa fc bb
       -0.0064018196 -0.009914322 -0.0075469 -0.0077202935
000200 7f 68 d1 bb da 16 0c bc 41 88 09 bc 56 f8 14 bc
       -0.0063906307 -0.00855037 -0.008394302 -0.009092411
000210 e6 76 d5 3c 6e af 02 3d c6 64 fe 3c f5 65 03 3d
       0.026057672 0.031905584 0.031053912 0.032079656
000220 f1 49 8f bb 26 a7 11 bc 8f 60 d2 bb f0 d1 d9 3c
       -0.004372828 -0.008889949 -0.006420202 0.026589364
000230 c6 0d f1 3c 14 18 a2 bb 4c 69 f8 3c 55 e1 f1 3c
       0.029425513 -0.004946718 0.030323647 0.029526392
000240 59 dc 16 3d 4f a4 7d bb 1f 8c af bb a7 9c cf bb
       0.036831234 -0.0038702672 -0.00535728 -0.006335813
000250 ab 68 06 bc 33 98 f7 3c f9 ce 81 bb 13 88 dd bb
       -0.008203666 0.030223941 -0.0039614406 -0.006760606
000260 5b 5a ef 3c 93 e3 e0 3c ae fa ba 3c f0 37 7b bb
       0.02921789 0.027452266 0.022824612 -0.0038332902
000270 2f d1 07 bc c3 59 1c bc 04 ab d0 bb 42 cd c8 bb
       -0.008289619 -0.009542885 -0.006368043 -0.0061279843
000280 82 c1 25 bc a8 de 29 bc 2a 3e a6 bb 1a 87 fd bb
       -0.010116937 -0.010368027 -0.0050733285 -0.0077370526
000290 15 ee e6 3c aa 87 06 3d f0 03 c1 3c d3 1c fd 3c
       0.028189698 0.032844223 0.023561448 0.030897534
0002a0 d1 4c 4c bc 09 49 43 bc 08 68 2b bc 56 ec ff 3c
       -0.012469486 -0.011919268 -0.010461815 0.031240623
0002b0 60 10 f0 3c 93 7b b9 bb 20 ea fa 3c bd b7 e9 3c
       0.029304683 -0.005660483 0.030629218 0.028529996
0002c0 36 21 e9 3c 70 a7 14 bc a8 72 1e bc 82 5f 56 bc
       0.028458219 -0.009073123 -0.009670891 -0.013084294
0002d0 1e c5 e5 bb 0e ac b1 3c b8 e9 20 bc ae d4 ce bb
       -0.0070120236 0.021688487 -0.009821348 -0.0063119745
0002e0 46 32 ee 3c c4 4c a0 3c 9e c8 d9 3c f8 34 d7 bb
       0.029076707 0.019567855 0.02658492 -0.0065675937
0002f0 d9 8a 10 bc bc 02 33 bc eb d6 b8 bb bb b9 15 bc
       -0.008822166 -0.010925945 -0.0056408546 -0.00913852
000300 00 18 18 bc 38 60 20 bc 09 d6 98 bb 9a 6d 5e bc
       -0.009283066 -0.009788565 -0.004664187 -0.013575936
000310 1c ee df 3c 7d 9d 15 3d 12 f0 dc 3c fc b9 14 3d
       0.02733522 0.036527146 0.026969943 0.03631018
000320 74 f4 0b bc 02 33 39 bc 06 1e 36 bc 84 bc 00 3d
       -0.008542169 -0.011303665 -0.011115557 0.031429783
000330 67 fa eb 3c 46 ac b2 bb f5 0b fb 3c 0e f8 f4 3c
       0.028805925 -0.0054526655 0.03064535 0.029903438
000340 e4 61 d6 3c f8 ec cf bb 81 7d 00 bc 25 f9 d7 bb
       0.026169725 -0.0063453875 -0.007842422 -0.0065909796
000350 ee ef f5 bb ab e3 c6 3c d6 21 bb bb 4f ef de bb
       -0.0075054085 0.024278482 -0.0057108207 -0.00680343
000360 7e d0 bd 3c 18 08 d9 3c d6 10 b9 3c 67 41 b7 bb
       0.023170706 0.026493117 0.022591036 -0.0055925134
000370 d5 ba dc bb ff c8 e7 bb 8f b0 1f bc 83 7f df bb
       -0.0067361393 -0.007073521 -0.009746685 -0.0068206205
000380 5a 24 9c 3c e2 d1 70 3c dd 3a a0 3c 2c 5e 94 3c
       0.019060303 0.014698477 0.019559318 0.01811131
000390 9f 2d 38 bc 45 71 4e bc 70 bd 48 bc 9b a5 73 bc
       -0.011241346 -0.012600248 -0.012252197 -0.014871026
0003a0 fd 3e b2 3c d5 4e a1 3c 43 f2 a6 3c 1d f2 61 bc
       0.02175855 0.01969091 0.020379191 -0.013790634
0003b0 8d 25 14 bc c8 38 a0 3c 5a f2 8b bc 07 95 30 bc
       -0.009042156 0.019558325 -0.017083336 -0.010777718
0003c0 18 65 4d bc df 86 8d 3c eb 12 ac 3c 5a 65 c1 3c
       -0.01253631 0.017276226 0.021005115 0.023607899
0003d0 16 90 de 3c 77 aa 84 bc fe c6 70 3c e6 53 a7 3c
       0.027168315 -0.016194565 0.014695881 0.020425748
0003e0 fe 0a 74 bc c3 0d 33 bc cb 6f 75 bc ac 10 a8 3c
       -0.014895199 -0.010928574 -0.014980267 0.020515762
0003f0 ea f4 8a 3c ff ca 76 3c 0b 94 ab 3c bc 67 92 3c
       0.016962487 0.0150630465 0.020944616 0.01787173

fc3.bias f4 [16]
000000 00 a4 53 b4 8f 94 14 b7 69 95 4c 37 af a9 98 b5
       -1.9710569e-07 -8.856076e-06 1.2194135e-05 -1.1374267e-06
000010 0f 64 29 b7 54 85 45 35 af 66 78 37 c0 21 70 b6
       -1.0096482e-05 7.3582237e-07 1.480586e-05 -3.5782432e-06
000020 2c 9b 24 37 91 28 ea 36 1e c1 80 36 0e cb c9 36
       9.8112905e-06 6.978466e-06 3.837179e-06 6.0139055e-06
000030 1d 5f da 36 ce 4d 33 b7 25 45 9b b6 b6 77 73 37
       6.507979e-06 -1.0687347e-05 -4.6274095e-06 1.4511801e-05

bn3.weight f4 [16]
000000 30 13 93 3e 6a e3 94 3e 70 60 96 3e 40 46 95 3e
       0.28725576 0.29079753 0.2937045 0.2915516
000010 ae e7 95 3e dd 2f 93 3e d6 45 96 3e 4b dd 93 3e
       0.2927832 0.28747454 0.29350156 0.2887977
000020 60 df 92 3e a2 2b 94 3e ec 3c 94 3e 9a 00 93 3e
       0.28686047 0.2893954 0.2895273 0.28711396
000030 5b 53 98 3e 51 74 95 3e ed a8 97 3e 1c 88 94 3e
       0.29751095 0.29190305 0.29621068 0.29010093

bn3.bias f4 [16]
000000 4a 85 10 3e 20 08 09 3e 2a 00 12 3e 59 8b 07 3e
       0.14113346 0.13382006 0.14257875 0.1323675
000010 16 26 0a 3e 66 d9 09 3e 4c 08 0c 3e 35 e6 0e 3e
       0.13491091 0.13461837 0.1367504 0.13955005
000020 2b 55 0e 3e 67 56 10 3e cb bb 11 3e 2d 17 0c 3e
       0.13899677 0.1409546 0.14231794 0.13680716
000030 d6 9b 0a 3e 35 e5 0e 3e 42 7a 0a 3e 10 27 06 3e
       0.13536009 0.13954623 0.135232 0.13100839

bn3.running_mean f4 [16]
000000 ac c6 0c 3b 24 05 76 3b 74 aa 1f 3b b5 5a 54 3b
       0.0021480722 0.0037539685 0.0024363073 0.0032402698
000010 d3 73 70 3b de e2 33 3b ad bc 52 3b 1f 0e 22 3b
       0.003669013 0.0027448456 0.0032155917 0.0024727655
000020 cd f8 35 3b d0 38 2e 3b 90 05 10 3b a6 ae 0b 3b
       0.0027766705 0.0026584156 0.0021975972 0.0021313815
000030 0a cd 4f 3b 99 03 17 3b c0 9b 6b 3b 79 d6 67 3b
       0.0031707906 0.0023042916 0.0035950989 0.0035375638

bn3.running_var f4 [16]
000000 31 ce c4 38 fc cc da 38 63 9d c8 38 12 62 df 38
       9.3844144e-05 0.000104332314 9.566059e-05 0.00010651736
000010 c0 1a d6 38 a9 d2 db 38 fa 1c dc 38 cf 52 c4 38
       0.00010209298 0.00010481972 0.00010495815 9.3614326e-05
000020 d8 19 c6 38 f4 ac c5 38 ff 50 c4 38 de 78 be 38
       9.4461895e-05 9.425907e-05 9.361095e-05 9.082419e-05
000030 8a a6 d9 38 61 df c5 38 bd d3 d9 38 52 b9 d1 38
       0.00010378387 9.4352996e-05 0.00010386806 0.00010000415

fc4.weight f4 [1, 16]
000000 3d 15 a4 3e b7 93 a3 be 73 3c a7 3e 55 04 a4 be
       0.32047454 -0.31948635 0.32663307 -0.32034555
000010 7a 82 a4 be c9 58 a2 be a1 90 a5 be 86 52 a4 3e
       -0.32130796 -0.31708363 -0.32336906 0.3209421
000020 8b 6e a3 3e 2d 35 a5 3e 71 5c a5 3e 42 bb a2 3e
       0.31920275 0.32267132 0.3229709 0.3178349
000030 14 a1 a6 be 9b 43 a5 3e 03 04 a6 be 03 a9 a2 be
       -0.32544768 0.3227814 -0.32424936 -0.3176957
