models/big_model.pth (torch, 23303 bytes, 19 tensors)

fc1.weight f4 [64, 14]
0	0xbb9c5771	-0.004771166
1	0x3ca32ed9	0.0199198
2	0x3cb4501f	0.022010861
3	0x3cafafe0	0.021446168
4	0x3d17a301	0.037020687
5	0xb9ed3a2e	-0.0004524751
6	0x3be2d63f	0.006922513
7	0x3a98d14a	0.0011659053
8	0xbb9c487a	-0.004769382
9	0xbb76f05b	-0.0037679884
10	0x3c3bb9ba	0.011457855
11	0xbca2762e	-0.019831743
12	0xba32182d	-0.00067937636
13	0xb6875a59	-4.0338314e-06
14	0x3b600844	0.0034184614
15	0x3cae21fe	0.021256443
16	0x3cc73bae	0.02432045
17	0x3c97cd3e	0.018530484
18	0x3cf7863a	0.030215371
19	0x3a7826c6	0.0009466227
20	0x3c08ab55	0.00834163
21	0x391aa2a5	0.00014747174
22	0xbba5ebad	-0.005063495
23	0xbab90047	-0.0014114463
24	0x3cdbd8f4	0.02683685
25	0xbc9248ad	-0.01785692
26	0xbb404ac8	-0.0029341448
27	0xba2ca85a	-0.00065863656
28	0xbbd36c3c	-0.0064521115
29	0x3cf30b1b	0.029668381
30	0x3cf4323e	0.029809114
31	0x3ca7d5c3	0.020487672
32	0x3d14123b	0.0361502
33	0x3aa7a1fc	0.0012789364
34	0x3c35e616	0.01110222
35	0xbb2513a8	-0.0025188718
36	0x3a6b3206	0.00089719926
37	0xbc6eb708	-0.014570005
38	0xbb8486ea	-0.0040444033
39	0xbbbe583f	-0.0058088596
40	0xbb205e81	-0.0024470391
41	0xba1911ad	-0.0005839121
42	0xbc37e0d6	-0.011223039
43	0xbbecbd13	-0.007224688
44	0xbc5d454f	-0.013505294
45	0xbca62f7d	-0.020286316
46	0xbcaccc1d	-0.021093423
47	0x3aafc787	0.0013410904
48	0xbbbcb499	-0.0057588336
49	0x39fb8130	0.00047970703
50	0x3b597374	0.0033180388
51	0x3b49346b	0.003070141
52	0xbb57340a	-0.0032837414
53	0x3b819b71	0.0039552976
54	0x3b721164	0.0036936635
55	0x3b06ab58	0.0020548906
56	0x3aa5994f	0.001263419
57	0x3c9d5c0d	0.019208932
58	0x3cc698b3	0.024242735
59	0x3cc4d622	0.024027888
60	0x3d3562f1	0.04428381
61	0xbac93b27	-0.0015352712
62	0x3c2a2f3a	0.010387236
63	0xbb163564	-0.0022920007
64	0x3ae9b000	0.0017828941
65	0x3a94ab4f	0.0011342558
66	0x3bf46a63	0.0074589713
67	0xbbedeabf	-0.00726065
68	0x3c211927	0.009832657
69	0x3bc52bb1	0.0060171713
70	0x3ad88430	0.0016518887
71	0xbca16f8f	-0.019706516
72	0xbbde03cc	-0.006775355
73	0xbc92b8cc	-0.017910384
74	0xbce4141f	-0.027841626
75	0x387e2341	6.0591152e-05
76	0xbbb27d49	-0.005447064
77	0x3a1d4329	0.00059990824
78	0xbc03609c	-0.008018639
79	0x3ba613b9	0.005068269
80	0x3b8d72ff	0.004316687
81	0x3c2e7924	0.010648999
82	0xba92f975	-0.001121326
83	0xbacb9f8a	-0.0015535217
84	0x3a22381d	0.0006188171
85	0x3ca96df2	0.020682309
86	0x3ce25dc9	0.02763261
87	0x3caf08b0	0.021366447
88	0x3cb98e04	0.022650726
89	0xba9cacd7	-0.0011953366
90	0x3bd058f1	0.006358259
91	0xbb1121bd	-0.0022145354
92	0x3a695c6b	0.0008902016
93	0xbaadf962	-0.0013273174
94	0x3cdbf7c3	0.02685154
95	0xbcea1363	-0.028573697
96	0x3a9c4a92	0.0011924079
97	0xbaca6d3d	-0.0015443932
98	0xbb6d9e84	-0.0036257813
99	0x3cac6000	0.02104187
100	0x3c8ec9d5	0.017430225
101	0x3ce6f2ea	0.028192002
102	0x3d2cf79c	0.042228326
103	0xbbea7225	-0.0071547204
104	0x3ba4a61a	0.0050246837
105	0x3b63152c	0.003465007
106	0xbbd0fdc1	-0.006377906
107	0xb99762c2	-0.00028874545
108	0x38ed66d6	0.00011320195
109	0xbc08afd6	-0.008342704
110	0xb9824bc6	-0.00024851988
111	0xba209d9c	-0.0006127001
112	0x3c02b85b	0.007978524
113	0xbc4635b7	-0.012097768
114	0xbc43d3b3	-0.0119523285
115	0xbc99c733	-0.018771743
116	0xbce11406	-0.027475368
117	0x3b62c0aa	0.00345997
118	0xbc3af672	-0.011411296
119	0xba848673	-0.001011087
120	0x399380fd	0.0002813413
121	0x3b839385	0.0040153884
122	0xbb8deca4	-0.0043311883
123	0x3b2fb94e	0.002681333
124	0x3a912f92	0.0011076799
125	0x3b905d5b	0.00440566
126	0xbb265b5d	-0.0025384047
127	0x3cfbc868	0.03073521
128	0x3cc2276e	0.023700442
129	0x3cc447e5	0.023960063
130	0x3d228af5	0.0396833
131	0xbc037611	-0.008023755
132	0x3b7b1da9	0.003831724
133	0xba927ae6	-0.0011175543
134	0x3acb0035	0.0015487733
135	0x3b8727c7	0.004124615
136	0x3c58f010	0.013240829
137	0xbc66bbb9	-0.0140828425
138	0xbb0a4fab	-0.0021104615
139	0x3b09db41	0.0021035227
140	0x3b5d7184	0.0033789584
141	0x3c840ec0	0.016120315
142	0x3cec4a61	0.02884406
143	0x3cba4f0d	0.022742772
144	0x3cebb356	0.028772037
145	0xba375833	-0.00069940387
146	0x3bba9932	0.005694532
147	0x3af27e0c	0.00185007
148	0x3ad9efe6	0.0016627281
149	0x3c4a26fb	0.012338395
150	0x3cf173ab	0.0294741
151	0xbc992f69	-0.018699365
152	0x3b7ed0c7	0.0038881765
153	0x3b615708	0.003438415
154	0xbaafb99a	-0.0013406754
155	0x3cc4ec03	0.02403832
156	0x3cb5d6f6	0.022197228
157	0x3cb566fe	0.022143837
158	0x3d3498b9	0.04409096
159	0xbc57d81a	-0.013174081
160	0x3bf0e858	0.0073519163
161	0xbb8d4243	-0.0043108775
162	0x3a486462	0.0007644353
163	0xb73f8fb8	-1.1417949e-05
164	0xbb9d89a6	-0.0048076687
165	0x3b1c54e8	0.002385432
166	0x3b0f85f2	0.0021899906
167	0xbb8f1d58	-0.0043675117
168	0xbb94fed4	-0.0045469794
169	0x3c8c12d6	0.017098825
170	0x3caf0611	0.021365197
171	0x3ce04c62	0.027380172
172	0x3d18e758	0.03733
173	0xbc1af4fe	-0.009457825
174	0x3bf4c6d1	0.00746999
175	0x3bb63c64	0.0055613983
176	0x3bfd3abe	0.00772795
177	0x3c39fc16	0.011351606
178	0x3b9f643a	0.004864243
179	0xbb826fdd	-0.0039806203
180	0xba01fcd9	-0.0004958637
181	0x3bdb075f	0.0066842283
182	0xbb26aae9	-0.002543146
183	0x3c991ace	0.01868954
184	0x3ce322f9	0.027726637
185	0x3c448bbc	0.011996206
186	0x3d239465	0.039936442
187	0xbc049b7f	-0.008093714
188	0x3c079402	0.008275034
189	0x3aed01fa	0.0018082254
190	0x384f773c	4.946369e-05
191	0xbc877030	-0.016532987
192	0x3cad195c	0.021130256
193	0xbc53d9a3	-0.012930307
194	0xbac448aa	-0.0014975269
195	0xb9bae5c3	-0.0003564787
196	0xbb63f635	-0.0034784202
197	0x3cecb73a	0.028895963
198	0x3cb4c26b	0.022065362
199	0x3cd88d80	0.02643466
200	0x3d35f4fe	0.044423096
201	0xba875267	-0.001032424
202	0x3bee1001	0.0072650914
203	0xbba5a284	-0.0050547738
204	0xba698070	-0.00089073833
205	0xb96e5320	-0.00022728415
206	0x3ba2140f	0.004946239
207	0xbacbd1f1	-0.0015550238
208	0x3a1a4904	0.0005885514
209	0xba8835b5	-0.0010391983
210	0x3c0d426f	0.008621796
211	0x3cc676c5	0.024226556
212	0x3c9c2af7	0.019063456
213	0x3c75ccf0	0.015002474
214	0x3d1ab92e	0.037774257
215	0xbbf2905b	-0.0074024624
216	0x3c696b9a	0.014246846
217	0x3b760dc9	0.0037544838
218	0xb9d1630a	-0.00039937376
219	0x3b80693a	0.003918794
220	0xbc0e49c5	-0.00868458
221	0x3bbd2bf1	0.0057730605
222	0x3b59e9a3	0.003325083
223	0x3afa49dd	0.0019095499
224	0x3b5ff3bf	0.0034172384
225	0x3c79a416	0.015236875
226	0x3cdb7b52	0.026792202
227	0x3cf75e33	0.030196285
228	0x3cece152	0.028916035
229	0x3b3139d9	0.0027042537
230	0x3a68ae4b	0.00088760693
231	0x3af538e5	0.0018708972
232	0x3c8fc39e	0.017549332
233	0x3c1cfd5f	0.009581893
234	0x3ccfe879	0.025379406
235	0xbcac9050	-0.021064907
236	0xbb85e00e	-0.0040855473
237	0xbb771d4e	-0.0037706676
238	0xbb32909b	-0.0027246836
239	0x3c776095	0.015098711
240	0x3c8f91b2	0.017525528
241	0x3ccd243c	0.025041692
242	0x3d29772d	0.04137342
243	0xbc0e229b	-0.008675243
244	0x3c228480	0.009919286
245	0xb8927502	-6.983617e-05
246	0xbba16893	-0.0049257963
247	0x3a34918a	0.0006888142
248	0xbcba6579	-0.022753464
249	0x3ca50fd6	0.020149153
250	0x3bc27d90	0.0059353784
251	0x3c0b0ddd	0.008487192
252	0x3b98c117	0.00466169
253	0xbc392434	-0.011300135
254	0xbc4a6b98	-0.012354754
255	0xbc68eced	-0.014216644

fc1.bias f4 [64]
0	0xb5e31004	-1.6917479e-06
1	0x354ef9d4	7.710453e-07
2	0xb5a6cc12	-1.2427356e-06
3	0x344391c6	1.8213822e-07
4	0xb5e91754	-1.7366642e-06
5	0x34999362	2.8605706e-07
6	0xb4ba9e30	-3.4760296e-07
7	0x349995cc	2.8607462e-07
8	0x34430845	1.8163799e-07
9	0x35546dcc	7.913593e-07
10	0x34c356f0	3.6384836e-07
11	0x35c64a1b	1.4773717e-06
12	0xb4423cb4	-1.8089742e-07
13	0x34306d78	1.6431102e-07
14	0x35d46ad4	1.5826322e-06
15	0xb5077a35	-5.0469254e-07
16	0xb61fad87	-2.3793853e-06
17	0x353b3ec3	6.975426e-07
18	0x342d67f3	1.6149697e-07
19	0xb638bdd4	-2.752863e-06
20	0xb25a30b0	-1.270034e-08
21	0x3686e7b1	4.0204836e-06
22	0xb56921d1	-8.6848473e-07
23	0x35e0ab47	1.6739149e-06
24	0x35c8bd4c	1.4956254e-06
25	0xb4bc2e6a	-3.50515e-07
26	0x34c7405e	3.7113472e-07
27	0x33fba0b0	1.1717327e-07
28	0xb52a4f10	-6.3444986e-07
29	0xb23a8a60	-1.0858088e-08
30	0xb41d5340	-1.465205e-07
31	0x3560ade8	8.369957e-07
32	0x35097bae	5.1216455e-07
33	0x34f4d5d0	4.560411e-07
34	0x33eebb9c	1.11168646e-07
35	0xb4aba310	-3.1969876e-07
36	0xb0071600	-4.914398e-10
37	0xb4f351b0	-4.5321713e-07
38	0xb579246c	-9.281273e-07
39	0x3289d280	1.6044623e-08
40	0xb4b03f3c	-3.2828564e-07
41	0x354e43c4	7.683959e-07
42	0x34b4a430	3.3647075e-07
43	0xb4dec59c	-4.1494502e-07
44	0xb5662725	-8.573864e-07
45	0xb5763401	-9.1717817e-07
46	0x34a6d45c	3.107442e-07
47	0x35160310	5.588381e-07
48	0xb58a15fc	-1.02882e-06
49	0x3592765e	1.0912297e-06
50	0xb51e6668	-5.900861e-07
51	0xa6bfcaac	-1.3308222e-15
52	0xb3f1edee	-1.1265716e-07
53	0xb616b300	-2.2455934e-06
54	0x349efc1a	2.961322e-07
55	0xb5cca99b	-1.5248546e-06
56	0x369b3ddc	4.6265613e-06
57	0x3408c010	1.2735859e-07
58	0x3588f86e	1.0205092e-06
59	0xb41facc2	-1.4870878e-07
60	0xb55b2252	-8.16338e-07
61	0xb5ad66f1	-1.2919464e-06
62	0x3697a658	4.5195156e-06
63	0x34f224f6	4.5102905e-07

bn1.weight f4 [64]
0	0x3d1e4835	0.03864308
1	0x3d1dbee4	0.038512126
2	0x3d097fc7	0.033569124
3	0x3c69efcb	0.0142783625
4	0x3d0fc7b4	0.03510256
5	0x3c6858ff	0.014181375
6	0x3d1b0339	0.03784487
7	0x3d05c5c3	0.032659303
8	0x3c6ee6d8	0.014581405
9	0x3d25206b	0.04031412
10	0x3d2944d6	0.041325413
11	0x3d173552	0.036916085
12	0x3d147763	0.03624667
13	0x3d248efb	0.04017542
14	0x3d1c02cb	0.0380886
15	0x3d0d2fa0	0.034469247
16	0x3d3a04b3	0.045414638
17	0x3d39b241	0.04533601
18	0x3c3d91ce	0.011570407
19	0x3d209796	0.039207064
20	0x3d07395c	0.033013687
21	0x3d3040a4	0.043030396
22	0x3d180f8f	0.037124213
23	0x3d02fc9b	0.031979185
24	0x3d04e30f	0.032443102
25	0x3d1187ff	0.035530087
26	0x3d11e568	0.03561917
27	0x3c9ed0f1	0.01938674
28	0x3d24fe2f	0.04028147
29	0x3cff0d9e	0.031134423
30	0x3d20bfad	0.039245296
31	0x3d304530	0.043034732
32	0x3d17e556	0.037083946
33	0x3d2b720e	0.041856818
34	0x3c89b32e	0.016809072
35	0x3d2a58a9	0.04158846
36	0x3d052315	0.03250416
37	0x3d1c9d81	0.038236145
38	0x3d028f6d	0.031875063
39	0x3d2922f2	0.041293092
40	0x3d31c041	0.04339624
41	0x3d2c9757	0.042136516
42	0x3d0da0a5	0.03457703
43	0x3d0be9e5	0.034158606
44	0x3d3d5999	0.046228025
45	0x3d27ef0b	0.040999454
46	0x3d089e24	0.03335394
47	0x3d26d06c	0.04072611
48	0x3d3ebc96	0.04656657
49	0x3d1c9263	0.038225543
50	0x3d116c28	0.035503536
51	0x2f93bfea	2.6875507e-10
52	0x3c901947	0.017590178
53	0x3d355630	0.044271648
54	0x3d0eefb2	0.03489656
55	0x3d3be542	0.045872934
56	0x3d25071e	0.04028999
57	0x3d269dfd	0.040678013
58	0x3d228838	0.03968069
59	0x3cebbdc7	0.028777016
60	0x3d2951f3	0.04133792
61	0x3d23cb85	0.039989013
62	0x3d0bb1e0	0.03410518
63	0x3d0b6202	0.034029014

bn1.bias f4 [64]
0	0x3b314d88	0.002705427
1	0xbaab951f	-0.0013090706
2	0xba8afbd2	-0.0010603613
3	0xb9b4fcfc	-0.00034520763
4	0x3bb8585e	0.0056257686
5	0x3b9829c3	0.0046436503
6	0xbb71ee27	-0.0036915631
7	0xbb1f6164	-0.0024319524
8	0xbbd970e8	-0.006635774
9	0x3bad210d	0.005283481
10	0xbba20e98	-0.0049455874
11	0x3c07dcbe	0.008292375
12	0x3b4452a5	0.0029956487
13	0xbb24d8d5	-0.0025153656
14	0x3c046dff	0.008082866
15	0x3a6ad1d0	0.0008957656
16	0x3a5c6781	0.0008407757
17	0xbc2f5e44	-0.010703627
18	0xbad916c1	-0.0016562567
19	0x3c8af83b	0.016964069
20	0x3b76aaed	0.00376385
21	0x3af331c1	0.0018554257
22	0x3b62c0c7	0.0034599768
23	0x3ba8c204	0.0051500816
24	0x3ba1778b	0.0049275807
25	0x3bfd36a9	0.0077274633
26	0x3c12b793	0.0089549
27	0xbc20f1dd	-0.00982329
28	0x3c0a82e7	0.008454061
29	0x3a9ed07f	0.001211658
30	0xbaaba4f1	-0.0013095421
31	0xbb5fc787	-0.0034146027
32	0xbb19fd51	-0.0023496936
33	0xbc6d852b	-0.014497082
34	0x3b9f833c	0.0048679393
35	0xbc6546fc	-0.013993975
36	0x3af82d1b	0.0018934341
37	0xbb9efd03	-0.0048519387
38	0x3b5fa778	0.0034126919
39	0xbbe2aade	-0.0069173416
40	0xbc32d05d	-0.0109139355
41	0xbc66d01b	-0.014087702
42	0x3ab64161	0.0013904982
43	0xba044c03	-0.0005046727
44	0x3aef1ce1	0.001824286
45	0xbc21b70e	-0.009870304
46	0xbb8cb44f	-0.0042939554
47	0x3bddc89b	0.006768299
48	0x3b8f6597	0.004376124
49	0x39c938b9	0.0003837997
50	0xbb83d248	-0.00402287
51	0xb2d04b39	-2.4248594e-08
52	0x3a8cc538	0.0010739928
53	0xbbe09fe5	-0.0068549984
54	0x3b990417	0.004669677
55	0xba9fdcf5	-0.0012196588
56	0xbb1f40d4	-0.0024300115
57	0xbbc37943	-0.0059653833
58	0x3b8ad1cf	0.004236437
59	0xbaea50ce	-0.0017876865
60	0xbb81229e	-0.0039408943
61	0x3b34e0aa	0.002759973
62	0x3bce6041	0.0062980955
63	0x3b9144d9	0.004433256

bn1.running_mean f4 [64]
0	0xbc7c46c2	-0.015397729
1	0xbc6e3c0c	-0.0145406835
2	0xbc864f4a	-0.01639523
3	0x3c2e5e37	0.01064258
4	0xbc858f50	-0.016303688
5	0x3c2efd7f	0.010680555
6	0xbc5a1f70	-0.013313159
7	0xbc7defca	-0.015499065
8	0x3c471e10	0.012153164
9	0xbc663c0c	-0.014052402
10	0xbc56783b	-0.013090189
11	0xbc5c8ba7	-0.01346103
12	0xbc5776c0	-0.013150871
13	0xbc79aff9	-0.015239709
14	0xbc8683a0	-0.016420186
15	0xbc45125e	-0.012028305
16	0xbc65fac4	-0.014036838
17	0xbc5612a6	-0.01306597
18	0x3c10e932	0.008844661
19	0xbc47aaf2	-0.012186753
20	0xbc817681	-0.015803577
21	0xbc6348d2	-0.013872342
22	0xbc90db5e	-0.017682727
23	0xbc8b9d42	-0.01704276
24	0xbc75f5f8	-0.015012257
25	0xbc78060c	-0.01513816
26	0xbc810a98	-0.015752122
27	0x3bc5a44b	0.006031548
28	0xbc524504	-0.012833837
29	0xbc716c0c	-0.014735233
30	0xbc3ff8c3	-0.011717024
31	0xbc78c45e	-0.015183536
32	0xbc713e3d	-0.014724311
33	0xbc675882	-0.014120223
34	0x3c358716	0.01107957
35	0xbc4f712c	-0.01266126
36	0xbc8835e7	-0.016627265
37	0xbc332273	-0.010933506
38	0xbc5d3d94	-0.013503451
39	0xbc844503	-0.016146189
40	0xbc4cb0d6	-0.012493333
41	0xbc1605b0	-0.009156629
42	0xbc70c124	-0.014694486
43	0xbc60c93c	-0.013719853
44	0xbc52c95e	-0.0128653925
45	0xbc2e953e	-0.010655699
46	0xbc30b2ea	-0.010784844
47	0xbc68d32a	-0.014210502
48	0xbc80449e	-0.01565772
49	0xbc72c9e2	-0.01481864
50	0xbc5323fc	-0.012886997
51	0xb44abadd	-1.8880696e-07
52	0x3c343f37	0.0110014
53	0xbc812464	-0.015764423
54	0xbc882dfe	-0.016623493
55	0xbc268acc	-0.010164928
56	0xbc5ae0e2	-0.01335928
57	0xbc836960	-0.016041458
58	0xbc8807ce	-0.016605284
59	0xbc65e2f2	-0.014031159
60	0xbc5987ec	-0.013277035
61	0xbc764c7a	-0.015032882
62	0xbc5e3ec8	-0.013564773
63	0xbc8e4eba	-0.017371524

bn1.running_var f4 [64]
0	0x3bdf6356	0.0068172617
1	0x3bdbd7c5	0.0067090713
2	0x3c0797f6	0.008275976
3	0x3b301ddb	0.0026873264
4	0x3bfe572d	0.007761857
5	0x3b8a5ae4	0.004222261
6	0x3bcac7c0	0.006188363
7	0x3bccdfee	0.0062522804
8	0x3b5811e6	0.0032969653
9	0x3bf1ac10	0.007375248
10	0x3bd64b62	0.006539748
11	0x3bc76d68	0.0060860403
12	0x3bb75f51	0.0055960794
13	0x3bcc0848	0.006226573
14	0x3c05855d	0.008149472
15	0x3bc3323e	0.005956917
16	0x3be1b9f4	0.0068886224
17	0x3bbc61b7	0.005748953
18	0x3b1e6f18	0.0024175104
19	0x3bc00d62	0.0058609704
20	0x3c061898	0.008184575
21	0x3bf1d4ce	0.0073801046
22	0x3bd5b59f	0.006521895
23	0x3c072cdf	0.008250444
24	0x3c015a09	0.007895001
25	0x3bee01da	0.0072634043
26	0x3bd7280c	0.0065660533
27	0x3b0a25bb	0.0021079618
28	0x3bad4310	0.0052875355
29	0x3bbccd2f	0.0057617645
30	0x3baa5f94	0.005199382
31	0x3bd6181b	0.0065336353
32	0x3bd4c857	0.006493609
33	0x3bfd09fb	0.007722137
34	0x3b862de3	0.0040948256
35	0x3bbfa96d	0.0058490545
36	0x3bfbefd0	0.0076885
37	0x3ba40945	0.005005988
38	0x3bd16794	0.0063905213
39	0x3bfabc63	0.007651852
40	0x3ba5b4b3	0.0050569414
41	0x3bb8390b	0.0056220344
42	0x3be61b95	0.007022331
43	0x3bca3bf8	0.0061716996
44	0x3bb1fd99	0.0054318425
45	0x3bd336c8	0.0064457394
46	0x3bc40e2e	0.0059831357
47	0x3bf06631	0.007336401
48	0x3bf71f77	0.0075415927
49	0x3bee159b	0.007265759
50	0x3badb930	0.005301617
51	0x2d137705	8.38241e-12
52	0x3b5325b4	0.0032218518
53	0x3c0aa0ef	0.008461221
54	0x3bea4214	0.0071489904
55	0x3b9f8f30	0.004869364
56	0x3ba77924	0.0051108766
57	0x3bec55bd	0.0072123692
58	0x3c0e1dd9	0.008674108
59	0x3bd1398e	0.006385035
60	0x3bba7f4d	0.005691445
61	0x3be7b609	0.007071261
62	0x3b8ded7d	0.0043312893
63	0x3c1cd757	0.009572825

fc2.weight f4 [32, 64]
0	0x3c96034e	0.018312123
1	0x3c29f121	0.010372431
2	0x3bd9aa89	0.006642644
3	0xbbc76594	-0.006085107
4	0x3bf86e07	0.0075814757
5	0xbb60f512	-0.003432576
6	0x3c4b8a24	0.012423072
7	0x3b873bff	0.004127025
8	0xbb8412fa	-0.0040305825
9	0x3ca3a1be	0.019974586
10	0x3c193aa5	0.009352361
11	0x3bd28f0f	0.0064257453
12	0x3c1485f9	0.009065145
13	0xbb9ae488	-0.00472695
14	0x3c1985c3	0.00937027
15	0x3c0430fa	0.008068318
16	0x3a17fcd6	0.00057978684
17	0x3c23ee0c	0.010005485
18	0xbb9f1fa9	-0.004856069
19	0x3c5207a5	0.012819205
20	0x3bf5ae1a	0.007497561
21	0x3b8bb4ae	0.004263482
22	0x3b88d636	0.0041759266
23	0x3be03439	0.006842163
24	0x3c16143c	0.009160098
25	0x3c5cff2c	0.013488572
26	0x3b586fd7	0.0033025646
27	0xbb9c4f89	-0.0047702235
28	0x3b28c2ab	0.0025750797
29	0x3b6d7d0f	0.003623787
30	0x3c0190a3	0.007908019
31	0x3a8489ac	0.001011183
32	0x3c57b09c	0.013164666
33	0x3c5949ec	0.013262253
34	0xbb92068a	-0.004456346
35	0xbad254d5	-0.001604701
36	0xbb687f69	-0.0035476333
37	0x3c8672ae	0.016412105
38	0x3c168ffa	0.0091896
39	0x3bcc2f9e	0.0062312623
40	0x3c2907d6	0.01031681
41	0x3c3855f9	0.011250966
42	0x3c2dd26f	0.010609253
43	0x3a9f9903	0.0012176338
44	0x3b6af836	0.0035853512
45	0x3ccbc4c8	0.024874106
46	0x3a723b06	0.00092403626
47	0x3c04025b	0.008057202
48	0x3c061c83	0.008185509
49	0x3c4db00d	0.012554181
50	0x3b326d47	0.002722578
51	0x31ebc898	6.862205e-09
52	0xbc21da2e	-0.009878678
53	0x3ba63dbe	0.005073278
54	0x3bfddbbb	0.007747141
55	0x3c1d937f	0.009617685
56	0x3c5a076d	0.0133074345
57	0x3c34b8f3	0.011030423
58	0x3c8a4806	0.016880047
59	0x3c0abc2c	0.008467715
60	0x3bb979f6	0.005660291
61	0x3c0b55b1	0.008504317
62	0xba53dab8	-0.0008081603
63	0x3a1e3b30	0.00060360413
64	0x3c333fb6	0.010940483
65	0x3ba05a6b	0.004893591
66	0x3bcb93ad	0.0062126727
67	0xbc0bf53d	-0.008542356
68	0x3bddc5cc	0.006767964
69	0xbab95a69	-0.0014141324
70	0x3c36ae8a	0.011150012
71	0x3bdedb0c	0.0068010148
72	0xbc35e4da	-0.011101926
73	0x3b3f221a	0.0029164613
74	0x3c20c7dc	0.009813275
75	0x3cc1d126	0.0236593
76	0x3c100aba	0.00879162
77	0x3b724de9	0.0036972708
78	0x3bf3b688	0.007437531
79	0x3c47521a	0.012165571
80	0x3c89ae51	0.016806753
81	0x3c87ef12	0.01659349
82	0xbb87cbce	-0.0041441685
83	0x3c6f74c1	0.014615239
84	0xba8dc8b9	-0.0010817266
85	0x3bde2127	0.0067788544
86	0x3c7834c1	0.015149296
87	0x3ba8fca6	0.005157071
88	0x3c005be4	0.007834408
89	0x3b9640b8	0.004585352
90	0x3bdfcc0e	0.006829745
91	0xbc38638b	-0.011254202
92	0xbb5c12c4	-0.003358052
93	0x3b9adbb9	0.0047259
94	0x3c6442ab	0.0139319105
95	0x3c1cf5df	0.009580105
96	0x3c7f47c9	0.01558108
97	0x3c52c985	0.012865429
98	0xbc7a4866	-0.01527605
99	0xba967d37	-0.0011481409
100	0x3c68946b	0.014195542
101	0x3b99004c	0.004669225
102	0x3c268f77	0.010166041
103	0x3c3676a9	0.011136689
104	0x3bd10d20	0.0063797385
105	0x3b83bbf5	0.004020209
106	0x3c393fba	0.0113066975
107	0xbb717593	-0.0036843761
108	0x3bf0e3c2	0.0073513696
109	0x3c536277	0.012901894
110	0x3c08ef48	0.00835783
111	0x3c21f2c6	0.009884542
112	0x3c3ad033	0.011402178
113	0x3c437e4a	0.011931965
114	0x3a916707	0.0011093327
115	0xb1f35fc6	-7.083119e-09
116	0x3a6acdd4	0.00089570624
117	0x3c8b1697	0.016978545
118	0x3af1ae1b	0.0018438728
119	0x3c5e1e7a	0.013557071
120	0xbc399aea	-0.011328438
121	0x3c0e992d	0.008703512
122	0x3aedcae4	0.0018142131
123	0xbb926e84	-0.004468741
124	0x3bb1ccc8	0.005426023
125	0x3c58b385	0.013226395
126	0x3bfbca11	0.0076840003
127	0x3b0b0ce7	0.0021217407
128	0x3cd3d617	0.025858922
129	0x3c6bd697	0.014394424
130	0x3c1cd2df	0.00957176
131	0xba0c2aa0	-0.0005346928
132	0x3c3aaf38	0.0113943145
133	0xbb509e91	-0.0031832794
134	0x3c42b92a	0.011884967
135	0xbba57dea	-0.0050504105
136	0xbc21f5a8	-0.009885229
137	0x3b83dc9e	0.0040241024
138	0xbbc77b31	-0.0060876836
139	0x3c2fddd4	0.01073404
140	0x3b2f5748	0.0026754905
141	0x3bfa8299	0.007644963
142	0x3be8dc60	0.007106349
143	0x3cc151af	0.02359852
144	0x3c1034db	0.008801664
145	0x3c3254f6	0.010884514
146	0xbc0e098a	-0.0086692665
147	0x3cadbbd7	0.021207733
148	0xbc127298	-0.008938454
149	0xbbc70728	-0.006073851
150	0x3b9f41ce	0.0048601395
151	0xbaf70ea3	-0.0018848967
152	0xbae85802	-0.0017726424
153	0x3b69039c	0.003555513
154	0x3c6696dd	0.014074055
155	0xbba43187	-0.005010787
156	0x3c619d57	0.013770423
157	0x3a99f7a0	0.0011746772
158	0x3c9c63dc	0.019090585
159	0xb97122c8	-0.00022996508
160	0x3c034819	0.008012795
161	0x3c1482e3	0.009064409
162	0xbbbc524c	-0.0057471152
163	0x3b1d926b	0.002404357
164	0x3b936c45	0.0044989907
165	0x3ba96ff0	0.0051708147
166	0x3b9b85bf	0.0047461684
167	0x3c067c1a	0.008208299
168	0x3c224ac9	0.0099055255
169	0x3c4c37e3	0.012464496
170	0x3c154ec3	0.009113017
171	0x3bb20bf2	0.005433553
172	0x3be28c47	0.006913695
173	0x3c6c8014	0.014434833
174	0x3c04958d	0.008092296
175	0x3c499900	0.012304544
176	0x3b9aa729	0.004719634
177	0xbb020b38	-0.0019843113
178	0xb782c272	-1.5587753e-05
179	0x311efb6a	2.3134938e-09
180	0xbb6495a9	-0.0034879243
181	0x3bb98079	0.005661067
182	0x3be14863	0.0068750842
183	0x3b811b08	0.00393999
184	0x3bdbb036	0.0067043556
185	0xbb2db0f7	-0.0026503184
186	0x3c28fa4e	0.010313584
187	0x3c518d34	0.012790013
188	0x3c21d925	0.009878431
189	0x3c4bc632	0.01243739
190	0x3bb78cd6	0.0056015057
191	0x3c5ab3dd	0.013348547
192	0xbb088980	-0.002083391
193	0x3bb35425	0.0054726773
194	0xbbe7ce5d	-0.007074161
195	0xbc26a24d	-0.010170531
196	0x3b8e18e5	0.0043364638
197	0xbc5953df	-0.013264625
198	0x3b267538	0.0025399458
199	0x3bba9d52	0.0056950236
200	0xbb15e802	-0.0022873883
201	0x3c502765	0.012704705
202	0x3cabd307	0.02097465
203	0x3c0913c2	0.008366527
204	0x3bd78bb8	0.006577935
205	0x3c2108d3	0.009828764
206	0x3c444d3c	0.011981305
207	0x3b36da8f	0.0027901267
208	0x3bb0c0dd	0.005394085
209	0x3c639cb5	0.013892342
210	0xba061757	-0.0005115172
211	0x3bb89804	0.005633356
212	0xb98195dc	-0.0002471645
213	0x3c24f021	0.010067017
214	0x3c3cb586	0.011517888
215	0xba906dad	-0.0011019014
216	0x3b5feb77	0.0034167448
217	0x3c81ed8a	0.015860338
218	0x3c0072b6	0.007839849
219	0xbc0b1ed5	-0.008491238
220	0x3c3d328b	0.011547695
221	0x3b7e43a9	0.0038797653
222	0xbb152188	-0.0022755582
223	0x3c18bece	0.009322835
224	0x3b3dfd71	0.0028990174
225	0x3c835eff	0.016036509
226	0xbc1c0392	-0.009522336
227	0x3c825734	0.015910722
228	0xba97511f	-0.0011544562
229	0x3c35b12f	0.011089607
230	0x3ca91878	0.02064155
231	0x3c8c0186	0.01709057
232	0x3c84611e	0.01615959
233	0x3c3eb165	0.011638974
234	0x3c9544cf	0.018221287
235	0x3c80b097	0.015709205
236	0x3c4dc8fd	0.012560126
237	0x3c4bf969	0.012449601
238	0x3b96cbfc	0.0046019536
239	0xba8bc019	-0.0010662108
240	0x3b674097	0.0035286301
241	0x3c32df67	0.010917521
242	0x3c76d2bc	0.015064891
243	0x31992da8	4.4580766e-09
244	0xbbaad961	-0.005213902
245	0x3bc43135	0.0059873112
246	0x3c8fb6b7	0.01754318
247	0x3c72b361	0.014813275
248	0x3c22aba9	0.009928622
249	0xbc274db1	-0.010211394
250	0xba8381c0	-0.0010033175
251	0x3b580bc2	0.0032965993
252	0x3bb5ff3e	0.005554109
253	0x3bf04724	0.0073326994
254	0x3bba2371	0.0056804945
255	0x3bf911d6	0.007601003

fc2.bias f4 [32]
0	0xb6a88746	-5.022538e-06
1	0xb6c90a90	-5.9914964e-06
2	0xb69ded1e	-4.7065687e-06
3	0x350595c0	4.9764276e-07
4	0x36027a77	1.9442793e-06
5	0xb681e04e	-3.870612e-06
6	0xb7566ae8	-1.2780285e-05
7	0x36821dd7	3.8777757e-06
8	0xb6ae5d5c	-5.1964726e-06
9	0x357c8d3c	9.408284e-07
10	0xb69d5ad2	-4.6895375e-06
11	0xb5ef3854	-1.7823281e-06
12	0xb6046513	-1.9728366e-06
13	0x3714634a	8.844605e-06
14	0x36283222	2.5063132e-06
15	0x35cb1f66	1.5133817e-06
16	0x369fc1c0	4.7611247e-06
17	0x370a6065	8.247885e-06
18	0xb6bf0fea	-5.694096e-06
19	0x36eb731c	7.0169463e-06
20	0x36517d60	3.1216405e-06
21	0xb6ba944c	-5.560496e-06
22	0xb5b03d47	-1.3130856e-06
23	0xb507c550	-5.0578547e-07
24	0xb36f08c0	-5.5654482e-08
25	0x35065b7c	5.005202e-07
26	0x35d1a191	1.5618735e-06
27	0x387321fe	5.7967372e-05
28	0xb74c3618	-1.2171942e-05
29	0x34a530e0	3.0769206e-07
30	0xb4c44410	-3.6557367e-07
31	0xb65d6328	-3.2989283e-06

bn2.weight f4 [32]
0	0x3d1f58ec	0.038903162
1	0x3d2cf929	0.042229805
2	0x3d22656d	0.03964751
3	0x3d1f858b	0.038945716
4	0x3d329997	0.043603506
5	0x3d31fcd7	0.043454017
6	0x3d254239	0.040346358
7	0x3d1fcace	0.03901177
8	0x3d9c70aa	0.076386765
9	0x3d1d4677	0.03839728
10	0x3d1d55fa	0.03841207
11	0x3d355e08	0.04427913
12	0x3d1ebd5f	0.038754817
13	0x3d1a42a5	0.037661213
14	0x3d26be5b	0.04070888
15	0x3d1f3320	0.038867116
16	0x3d1d542d	0.038410354
17	0x3d1d73e7	0.03844061
18	0x3da53a42	0.080677524
19	0x3d2b5273	0.041826677
20	0x3d1b4b4b	0.0379136
21	0x3d2a0aca	0.041514196
22	0x3d2074d3	0.039173912
23	0x3d120add	0.03565489
24	0x3d1f8dec	0.038953707
25	0x3d10ada7	0.035321858
26	0x3d1f466a	0.03888551
27	0x3d1b356e	0.03789275
28	0x3d1ae5f0	0.03781694
29	0x3d30a594	0.043126658
30	0x3d25a4d5	0.0404404
31	0x3d214bb5	0.03937884

bn2.bias f4 [32]
0	0x3cb2d000	0.021827698
1	0x3caa7923	0.020809716
2	0x3caf43c2	0.021394614
3	0x3cca885f	0.02472323
4	0x3cb79dc6	0.0224141
5	0x3cd57bd9	0.026060032
6	0x3c8ac282	0.016938452
7	0x3ca50940	0.020146012
8	0xbd1e8e00	-0.03870964
9	0x3c9f721e	0.019463595
10	0x3ca651f9	0.02030276
11	0x3cc31914	0.02381567
12	0x3caf3068	0.021385387
13	0x3c9b2b30	0.018941492
14	0x3ca93da7	0.020659281
15	0x3cab187b	0.020885697
16	0x3c9eef1c	0.019401126
17	0x3ca37695	0.019954005
18	0xbd215e87	-0.03939679
19	0x3ca9ee1a	0.020743418
20	0x3c8e4b2e	0.017369833
21	0x3caef3a0	0.021356404
22	0x3c9e0e17	0.019293828
23	0x3ca6a5ed	0.020342791
24	0x3cb4785b	0.022030046
25	0x3ca0c2cd	0.019624138
26	0x3cabd61c	0.020976119
27	0x3cb88242	0.02252305
28	0x3cbc6ab2	0.023000095
29	0x3cb087b5	0.021549085
30	0x3ca81b4f	0.020520834
31	0x3cb35d99	0.021895217

bn2.running_mean f4 [32]
0	0x3bd088de	0.006363972
1	0x3bcfca70	0.006341271
2	0x3bceae9e	0.006307437
3	0x3bbfec0f	0.005856998
4	0x3bd3c0d0	0.006462194
5	0x3bd581c1	0.006515712
6	0x3bc3c52c	0.0059744325
7	0x3bcf0b3d	0.0063184784
8	0xbbf6150a	-0.0075098323
9	0x3be1f27a	0.0068953605
10	0x3bd71fe1	0.0065650796
11	0x3bcc5880	0.006236136
12	0x3bcdc4ca	0.0062795626
13	0x3bfce269	0.00771742
14	0x3bc63347	0.006048593
15	0x3bc9e67a	0.006161508
16	0x3be00b41	0.006837279
17	0x3bd06868	0.0063601024
18	0xbbee0d72	-0.0072647864
19	0x3bd8a7f8	0.0066118203
20	0x3bc87861	0.006117866
21	0x3bdb8f81	0.0067004566
22	0x3bd3ce70	0.0064638183
23	0x3bbb8d73	0.005723649
24	0x3bd0e164	0.006374525
25	0x3bd0702e	0.006361029
26	0x3bd036f0	0.0063542053
27	0x3bd2cb0c	0.0064328965
28	0x3be5c714	0.0070122574
29	0x3be65e09	0.007030253
30	0x3be34c58	0.006936591
31	0x3bcb1ea5	0.0061987215

bn2.running_var f4 [32]
0	0x38cc9f45	9.757144e-05
1	0x3902fdf9	0.00012492378
2	0x38e1081f	0.00010730349
3	0x38d33e8d	0.00010072915
4	0x3905af62	0.00012749204
5	0x38f80e98	0.0001182828
6	0x38c4e68f	9.388953e-05
7	0x38e4979d	0.000109001274
8	0x390fb749	0.00013705822
9	0x38f69e3e	0.00011759669
10	0x38da8c2f	0.00010421161
11	0x38ee0a42	0.00011350635
12	0x38d818ff	0.000103043385
13	0x390ae3ae	0.00013245523
14	0x38c49d8a	9.375352e-05
15	0x38e7e89c	0.00011058265
16	0x3907c51d	0.00012948034
17	0x38d9021e	0.00010347761
18	0x390ce8aa	0.00013438115
19	0x3900b930	0.00012276019
20	0x38db0bae	0.00010444909
21	0x38fff6c5	0.00012205312
22	0x390abc13	0.00013230769
23	0x38cae278	9.674294e-05
24	0x38d50fb5	0.00010159557
25	0x38d2e431	0.00010056084
26	0x3906319a	0.00012797714
27	0x38ea0b38	0.00011160079
28	0x38f15b47	0.00011508777
29	0x3902df8c	0.00012481044
30	0x38edeaa7	0.00011344748
31	0x38f81506	0.000118294774

fc3.weight f4 [16, 32]
0	0x3c3c3b4c	0.011488747
1	0x3c86f3f8	0.016473755
2	0x3c6de844	0.0145207085
3	0x3ca4a37e	0.02009749
4	0x3c2c5b65	0.010519837
5	0x3c35f590	0.01110591
6	0x3c804e00	0.015662193
7	0x3c529086	0.01285184
8	0xbcaf112c	-0.021370493
9	0x3c38ecf2	0.011286961
10	0x3ca8b04f	0.020591883
11	0x3c2dbcbc	0.01060408
12	0x3c885ad6	0.016644876
13	0x3cadbbf4	0.021207787
14	0x3cc353ed	0.02384373
15	0x3c127a0d	0.008940232
16	0x3c63f408	0.013913162
17	0x3bcdd1fc	0.0062811356
18	0xbcaed8a3	-0.021343535
19	0x3c714239	0.014725261
20	0x3c9ba829	0.019001083
21	0x3c6b06b9	0.0143448645
22	0x3c1635f3	0.009168136
23	0x3c447f21	0.0119932005
24	0x3c860d6e	0.016363826
25	0x3bc42e40	0.0059869587
26	0x3c27c10c	0.010238897
27	0x3ca8077b	0.02051138
28	0x3ce9270c	0.028461002
29	0x3c3a8c71	0.011386023
30	0x3c8c7f50	0.017150551
31	0x3c6ad030	0.014331862
32	0x3c8ccbfa	0.017187107
33	0x3c825ddb	0.015913894
34	0x3c0f3935	0.008741667
35	0x3bf83c6c	0.007575562
36	0x3c1626d7	0.009164534
37	0x3b8f2a4a	0.004369055
38	0x3c568b53	0.013094741
39	0x3c4c82ca	0.012482354
40	0xbc9d0f4e	-0.019172337
41	0x3c4a9507	0.012364632
42	0x3c882140	0.016617417
43	0x3c925350	0.017861992
44	0x3c05163a	0.008122975
45	0x3c4d5c26	0.012534177
46	0x3cb5b14b	0.022179266
47	0x3c5db989	0.013533005
48	0x3c24aabe	0.010050474
49	0x3c5ed1d0	0.013599828
50	0xbccabc40	-0.024747968
51	0x3c807f8f	0.015685825
52	0x3c80404d	0.015655661
53	0x3cceb87f	0.025234459
54	0x3ca6f1a6	0.020378899
55	0x3cb53ced	0.022123778
56	0x3b10a47d	0.00220707
57	0x3cb6688c	0.022266649
58	0x3c9eaa30	0.019368261
59	0x3c775e09	0.015098103
60	0x3c0f576d	0.008748871
61	0x3ca0c81e	0.019626673
62	0x3c27353b	0.010205562
63	0x3c8cc45d	0.017183477
64	0x3c971f1a	0.018447448
65	0x3c704780	0.014665484
66	0x3c847b3a	0.01617204
67	0x3c358f0a	0.011081466
68	0x3c490f99	0.012271785
69	0x3c7fa993	0.0156043945
70	0x3c505621	0.012715847
71	0x3c64868e	0.013948096
72	0xbc684daf	-0.014178677
73	0x3c997eee	0.018737283
74	0x3c9cd0df	0.019142566
75	0x3cae17ed	0.021251643
76	0x3c32a572	0.010903703
77	0x3c4c94c0	0.012486637
78	0x3c53ac2b	0.012919466
79	0x3c434784	0.011918906
80	0x3c84b280	0.016198397
81	0x3c14b6e9	0.009076812
82	0xbcc4cfd4	-0.024024881
83	0x3c9a207a	0.018814314
84	0x3c31668d	0.010827673
85	0x3c1d00fe	0.009582756
86	0x3c4febc2	0.012690486
87	0x3c891da2	0.016737763
88	0x3c7d687d	0.0154668065
89	0x3c740b21	0.014895231
90	0x3ca7412d	0.02041682
91	0x3c085931	0.008322046
92	0x3c9ec9bd	0.019383306
93	0x3c6020d9	0.0136797065
94	0x3c9ed139	0.019386875
95	0x3c5ce141	0.013481439
96	0x3c8b6f7f	0.017020939
97	0x3ca4748c	0.020075105
98	0x3c23acea	0.009989956
99	0x3c375286	0.011189109
100	0x3c8c64d9	0.017137932
101	0x3c929289	0.017892139
102	0x3c474cfd	0.0121643515
103	0x3c6de7cb	0.014520596
104	0xbcbbd154	-0.022926964
105	0x3c1e0d36	0.009646704
106	0x3c6a6da0	0.014308363
107	0x3cb4040c	0.021974586
108	0x3ca6c8d0	0.020359427
109	0x3beb7e95	0.0071867206
110	0x3cb7b373	0.022424435
111	0x3cac7a4a	0.021054406
112	0x3c55ee59	0.013057315
113	0x3c7e6a72	0.015528308
114	0xbc53cc0f	-0.012927069
115	0x3c8740ce	0.016510393
116	0x3c61da16	0.013784906
117	0x3ccd5a09	0.025067346
118	0x3b9f017e	0.004852473
119	0x3c4c4953	0.012468654
120	0x3c8e0a98	0.017339036
121	0x3be727f0	0.0070543215
122	0x3c515143	0.012775722
123	0x3c758d34	0.014987279
124	0x3c06cf5d	0.00822815
125	0x3c9fc6f0	0.01950404
126	0x3c6e14fd	0.014531371
127	0x3c3c5018	0.011493705
128	0x3c8a7612	0.016902003
129	0x3c3ac349	0.011399099
130	0x3c28cbc4	0.010302488
131	0x3c55641d	0.013024357
132	0x3cc2382e	0.02370843
133	0x3c4b5dcb	0.012412499
134	0x3cbfdd1e	0.023420867
135	0x3c84dec8	0.016219512
136	0xbce82c03	-0.028341299
137	0x3ca66590	0.0203121
138	0x3c06acbd	0.008219895
139	0x3c362a8a	0.011118541
140	0x3c89a6d0	0.016803175
141	0x3c77ac64	0.015116785
142	0x3be568c2	0.0070010135
143	0x3c816703	0.01579619
144	0x3c9689fb	0.018376341
145	0x3c39006c	0.0112916045
146	0xbc840ba1	-0.016118826
147	0x3c38a798	0.011270426
148	0x3c685daa	0.0141824875
149	0x3c660b7d	0.014040825
150	0x3ca4bde5	0.02011008
151	0x3c9ea10b	0.0193639
152	0x3c7aa8a7	0.015298999
153	0x3c485eab	0.012229602
154	0x3bb185ec	0.005417576
155	0x3c501dbe	0.012702404
156	0x3b6c3af8	0.003604589
157	0x3c3e5bd4	0.011618573
158	0x3c87d5c9	0.016581433
159	0x3cad66cb	0.02116718
160	0x3c8bfa23	0.017087048
161	0x3c8e7cba	0.017393459
162	0x3c4ad5f8	0.012380116
163	0x3c2d8a3a	0.010592038
164	0x3c9c35b9	0.019068586
165	0x3cbe35c3	0.023218995
166	0x3c74a4e1	0.014931888
167	0x3c7ff7aa	0.015623013
168	0xbcb9b45e	-0.022669014
169	0x3c63ffc8	0.0139159635
170	0x3c6da422	0.014504464
171	0x3cb07dbc	0.02154433
172	0x3c118c88	0.008883603
173	0x3c4ae6ad	0.012384099
174	0x3c43215f	0.011909812
175	0x3ccfab2b	0.025350174
176	0x3cc1c60b	0.023654005
177	0x3c3fe674	0.011712659
178	0xbc9f735d	-0.01946419
179	0x3c518b1f	0.012789517
180	0x3c53cb9a	0.01292696
181	0x3c37b153	0.011211711
182	0x3b8d2026	0.004306811
183	0x3c53309d	0.012890008
184	0x3c0ba6b1	0.008523629
185	0x3b93c79c	0.0045098793
186	0x3c43464b	0.011918615
187	0x3c6f4f5d	0.014606324
188	0x3beb12f9	0.0071738926
189	0x3c37e271	0.011223421
190	0x3c5b999d	0.0134033235
191	0x3ca4f8bb	0.020138135
192	0xbc333817	-0.010938666
193	0xbc1dbe82	-0.00962794
194	0xbbecdd3d	-0.007228522
195	0xbc22763c	-0.009915885
196	0xbc3d3117	-0.011547348
197	0xbc46f67d	-0.012143728
198	0xbbbdb28d	-0.005789107
199	0xbc1a46fa	-0.009416336
200	0x3d2a6707	0.04160216
201	0xbc514e02	-0.012774946
202	0xbc4d3012	-0.012523668
203	0xbb492ec4	-0.003069804
204	0xbc13ca38	-0.009020381
205	0xbba1934b	-0.004930889
206	0xbc14afc3	-0.009075108
207	0xbc260c30	-0.010134742
208	0xbbee9d9e	-0.007281973
209	0xbc0d8910	-0.008638635
210	0x3d1de8b5	0.038552005
211	0xbc653413	-0.013989466
212	0xbc1096e0	-0.008825034
213	0xbbab0840	-0.0052194893
214	0xbc42c8aa	-0.011888662
215	0xbc0c889c	-0.008577492
216	0xbc6f8619	-0.014619374
217	0xbc387226	-0.011257684
218	0xbc47566a	-0.012166599
219	0xbc325ceb	-0.010886411
220	0xbbf33dd7	-0.0074231434
221	0xbc296f95	-0.010341545
222	0xbbf1b551	-0.007376351
223	0xbc0d6e1a	-0.008632207
224	0x3cd19e12	0.02558807
225	0x3c7240b4	0.014785934
226	0x3c5224fd	0.0128262015
227	0x3c168868	0.009187795
228	0x3c58ff91	0.0132445255
229	0x3cc6330d	0.024194265
230	0x3c7c927e	0.015415786
231	0x3c2989d2	0.0103478
232	0xbca3392f	-0.019924728
233	0x3c9860d3	0.018600857
234	0x3c912833	0.017719364
235	0x3bd0a8d0	0.0063677803
236	0x3c182881	0.009287001
237	0x3c79bcf4	0.015242804
238	0x3c5538c8	0.013014026
239	0x3c849b2b	0.016187271
240	0x3c7e445a	0.015519226
241	0x3c5820b4	0.013191391
242	0xbc9da76e	-0.019244876
243	0x3c7c07a4	0.015382681
244	0x3c1198cb	0.008886526
245	0x3c9b73b1	0.018976064
246	0x3c5fa1ef	0.013649448
247	0x3bcf8e16	0.0063340766
248	0x3c4977fb	0.012296672
249	0x3c641994	0.013922114
250	0x3c482083	0.012214783
251	0x3c77f35a	0.015133703
252	0x3c2d938c	0.01059426
253	0x3cb1a74e	0.021686222
254	0x3bfdee7e	0.0077493777
255	0x3c8df9eb	0.017331084

fc3.bias f4 [16]
0	0x35d62cb8	1.5957257e-06
1	0xb71103ba	-8.643541e-06
2	0x368ee5d0	4.2586835e-06
3	0xb5cf52cf	-1.5446802e-06
4	0xb7d0f5d0	-2.4909998e-05
5	0xb5e8c848	-1.7343637e-06
6	0x37d2a094	2.5108726e-05
7	0xb5a39fe6	-1.2190983e-06
8	0xb7779bf0	-1.4758654e-05
9	0x36810868	3.845478e-06
10	0x358feb40	1.0722797e-06
11	0xb683b688	-3.9253537e-06
12	0x378289ae	1.556132e-05
13	0xb739c5b7	-1.1072893e-05
14	0xb70af192	-8.281686e-06
15	0xb738c453	-1.1012965e-05

bn3.weight f4 [16]
0	0x3e40c8a1	0.18826534
1	0x3e47aa71	0.19498612
2	0x3e41e19e	0.18933722
3	0x3e4a9bc5	0.19785984
4	0x3e49e520	0.1971631
5	0x3e4829f8	0.1954726
6	0x3e4e381a	0.20138589
7	0x3e511783	0.20419125
8	0x3e47ba99	0.19504775
9	0x3e3f9ec8	0.18712914
10	0x3e4be014	0.19909698
11	0x3e513181	0.2042904
12	0x3e4d81d3	0.20069055
13	0x3e4398cb	0.19101255
14	0x3e4e5024	0.20147759
15	0x3e4af381	0.19819452

bn3.bias f4 [16]
0	0x3dd8af40	0.10580301
1	0x3de294ee	0.11063562
2	0x3dd48dc3	0.103786014
3	0x3ddee165	0.10882834
4	0x3ddc5e6e	0.107601985
5	0x3dd870cb	0.105683886
6	0x3b44e432	0.0030043242
7	0x3de4a24f	0.111637704
8	0x3ddb4bb7	0.10707801
9	0x3dd59b9f	0.10430073
10	0x3de6f877	0.1127786
11	0x3de36511	0.11103261
12	0x3c35192b	0.011053364
13	0x3b2ab4c2	0.0026047681
14	0x3ddf1764	0.10893133
15	0x3ba35772	0.0049847895

bn3.running_mean f4 [16]
0	0x3c14a629	0.009072819
1	0x3c14d86f	0.009084805
2	0x3c1964c1	0.0093624005
3	0x3c1f4fb8	0.009723596
4	0x3c0d4cda	0.00862428
5	0x3c1070f7	0.008815995
6	0xbbae6b8a	-0.0053228782
7	0x3c0ebe97	0.008712432
8	0x3c11f5d5	0.008908709
9	0x3c160715	0.009156962
10	0x3c162dbe	0.009166179
11	0x3c1371d9	0.008999311
12	0xbbc2c8fa	-0.0059443684
13	0xbba8be68	-0.0051496513
14	0x3c11f3e8	0.008908249
15	0xbbb0e81b	-0.005398763

bn3.running_var f4 [16]
0	0x399ba640	0.0002968777
1	0x39ae901f	0.00033295245
2	0x39add7d6	0.00033157942
3	0x39af8a33	0.00033481568
4	0x3993fd0a	0.00028226554
5	0x39932736	0.0002806724
6	0x39124d84	0.00013952522
7	0x398c71e5	0.0002678774
8	0x39a139d4	0.00030751398
9	0x399ed9f3	0.00030298493
10	0x399f0c37	0.00030335944
11	0x39a8ec5f	0.00032219567
12	0x392daea0	0.00016563619
13	0x390a57f8	0.00013193476
14	0x399396cd	0.0002815038
15	0x391f2564	0.0001517735

fc4.weight f4 [1, 16]
0	0x3e5d8993	0.21634512
1	0x3e675acd	0.22593231
2	0x3e5cd625	0.21566065
3	0x3e67965c	0.22615951
4	0x3e661108	0.22467434
5	0x3e618baa	0.22025934
6	0xbe4cedff	-0.20012663
7	0x3e6cff14	0.2314418
8	0x3e63b06e	0.22235271
9	0x3e5cb405	0.21553047
10	0x3e6c0016	0.23046908
11	0x3e6d3f6a	0.23168722
12	0xbe4cbb06	-0.19993219
13	0xbe427393	-0.189894
14	0x3e6a63b9	0.22889604
15	0xbe49bb02	-0.19700244
