models/big_small_model.pth (torch, 23465 bytes, 19 tensors)

fc1.weight f4 [64, 14]
0.030522868 -0.22184557 -0.15317984 -0.18141644 -0.7117121 0.21272019 -0.17827655 -0.063606896
0.07863572 0.008493642 -0.022693451 0.06423181 0.007777602 0.03394012 -0.0205601 0.15018006
0.15829605 0.18927164 0.21929114 -0.107410975 0.10871221 0.05585115 0.0009151546 0.015477181
0.31383726 -0.30289745 -0.030784111 -0.03460607 -0.009466344 0.1068442 0.0017851099 0.24444506
0.17153099 -0.05675492 0.018125497 0.050525296 -0.0019079435 0.16366768 0.29356635 -0.25691086
-0.04925255 -0.046536285 -0.019319907 -0.28733057 -0.11732787 -0.17173837 -0.2873645 0.05906276
-0.07218029 -0.03644328 0.11232196 0.028664371 0.12118849 0.23660402 0.011879843 0.04955148
0.012031049 0.20889038 0.14237459 0.20789862 0.18710892 0.029455023 -0.003934643 -0.08484099
-0.040605992 -0.027066415 -0.29469803 0.22862096 -0.019382404 0.05286777 -0.009973091 0.0038953018
-0.23934707 -0.10230818 -0.37851113 0.092318505 -0.10678425 0.037899364 -0.15219244 0.020264074
-0.25198385 -0.23377267 0.0200288 -0.0034144563 0.00378481 -0.114122435 -0.23267983 -0.18753256
-0.8385063 -0.009837185 -0.02205763 0.056844596 -0.08523925 -0.020672215 -0.031344105 0.017057844
-0.023664925 -0.03645981 0.0036960503 -0.15021817 -0.022883534 -0.22494374 -0.5567981 0.036206033
-0.05835729 -0.01590324 0.00024108741 -0.16391185 0.039833244 0.16625674 0.014944248 0.040311698
0.025659082 -0.19434284 -0.22265656 -0.293048 -0.107978374 0.064888984 -0.05443819 -0.03350003
-0.097204596 -0.089131884 -0.22366516 -0.20684607 0.008755435 0.016115448 0.027487602 -0.2481413
-0.27110913 -0.19656266 -0.7317079 0.04869457 -0.08497269 -0.09983348 -0.05159715 0.063076235
-0.050216433 0.042806417 0.052104976 0.044478394 0.038610645 -0.3330844 -0.17803438 -0.20091318
-0.65495807 -0.016015008 -0.14898747 0.0863743 0.1429905 0.09742474 -0.03674804 0.10223551
-0.0446093 0.0009149875 -0.026816603 0.054139175 -0.09775747 -0.11385141 -0.51029056 0.0010760501
0.026990257 0.0038463532 -0.14726292 -0.085559584 -0.17992555 -0.15981242 -0.007686165 -0.025466189
-0.021103524 -0.10831862 -0.20778793 -0.21761167 -0.44503558 0.103412345 -0.14696988 -0.06150898
-0.09308186 -0.037026953 0.05253099 0.181929 -0.029369159 0.028857777 -0.016252326 -0.26905143
-0.2048603 -0.28977415 -0.4885623 0.13297555 -0.1267928 -0.06366455 0.039801907 -0.08672668
0.0146780005 0.16015993 -0.011518013 0.036851887 -0.027911345 -0.13538085 -0.10627055 -0.16789815
-0.3208235 0.06367321 -0.09217124 -0.011480869 -0.023598619 -0.054656867 0.13153048 0.25204048
0.042560127 0.015782563 0.023015285 -0.14036237 -0.32484803 -0.31670392 -0.58176625 -0.0010804578
-0.07207193 0.006069663 -0.19839503 -0.09525748 -0.0886296 -0.057945598 -0.022256209 -0.01814515
0.039906804 -0.25973314 -0.31068277 -0.22062448 -0.42133677 0.0136881955 -0.035005532 -0.09053236
-0.078505255 0.025987692 0.042732667 0.16785502 0.016279384 0.024105312 0.026672892 -0.23350051
-0.28311348 -0.16427754 -0.4694099 0.0634699 -0.06126974 0.048598252 -0.014653184 0.05527101
-0.0013333206 0.0895748 -0.03490652 -0.023855546 0.032078564 -0.11802497 -0.17654528 -0.20663828
00000000: 180b fa3c 7c2b 63be 2ddb 1cbe 3bc5 39be
00000010: c432 36bf 52d3 593e 218e 36be 5544 82bd
00000020: c40b a13d eb28 0b3c 9ee7 b9bc f88b 833d
00000030: 41db fe3b cc04 0b3d a86d a8bc cdc8 193e
00000040: 5c18 223e 6dd0 413e db8d 603e 49fa dbbd
00000050: 82a4 de3d 2dc4 643d fce6 6f3a 0194 7d3c
00000060: 47af a03e 6015 9bbe f62e fcbc 18bf 0dbd
00000070: b918 1bbc 22d1 da3d 59fa e93a ce4f 7a3e
00000080: d2a5 2f3e d977 68bd ec7b 943c 9df3 4e3d
00000090: f613 faba 8098 273e 544e 963e d289 83be
000000a0: 0bbd 49bd d59c 3ebd c844 9ebc fe1c 93be
000000b0: 9849 f0bd 2fdc 2fbe 7121 93be cbeb 713d
000000c0: 43d3 93bd 8c45 15bd 0e09 e63d 8bd1 ea3c
000000d0: ac31 f83d 5348 723e aca3 423c 7ef6 4a3d
000000e0: e01d 453c 5ce7 553e a5ca 113e 60e3 543e
000000f0: 7b99 3f3e a94b f13c 2eee 80bb 1dc1 adbd
00000100: 7852 26bd 63ba ddbc a9e2 96be 9d1b 6a3e
00000110: d9c7 9ebc e08b 583d 2d66 23bc 5248 7f3b
00000120: 6617 75be f386 d1bd 36cc c1be 7c11 bd3d
00000130: b3b1 dabd 5d3c 1b3d 56d8 1bbe d800 a63c
00000140: 0704 81be 1a62 6fbe 7013 a43c 12c5 5fbb
00000150: 930a 783b 06b9 e9bd 9f43 6ebe 8908 40be
00000160: 59a8 56bf 252c 21bc 34b2 b4bc e1d5 683d
00000170: ea91 aebd c758 a9bc ad62 00bd e4bc 8b3c
00000180: f2dc c1bc e256 15bd 6f39 723b cbd2 19be
00000190: 4076 bbbc a757 66be 528a 0ebf c74c 143d
000001a0: 0e08 6fbd 8347 82bc 69cc 7c39 82d8 27be
000001b0: 2f28 233d 353f 2a3e b8d8 743c e11d 253d
000001c0: ff32 d23c cf01 47be 1500 64be 630a 96be
000001d0: c423 ddbd 84e4 843d 94fa 5ebd 5437 09bd
000001e0: 3413 c7bd c78a b6bd 7b08 65be 75cf 53be
000001f0: f572 0f3c 8b04 843c ae2d e13c c118 7ebe
00000200: d1ce 8abe b947 49be 3551 3bbf f573 473d
00000210: 2906 aebd 7f75 ccbd 8857 53bd 1d2e 813d
00000220: bfaf 4dbd c855 2f3d 076c 553d fa2e 363d
00000230: 3226 1e3d 0a8a aabe a54e 36be 2fbc 4dbe
00000240: 55ab 27bf e831 83bc 2c90 18be 02e5 b03d
00000250: 1a6c 123e 9f86 c73d 1d85 16bd da60 d13d
00000260: 3eb8 36bd c6db 6f3a 7eae dbbc 0ac1 5d3d
00000270: 1235 c8bd ee2a e9bd 67a2 02bf 400a 8d3a
00000280: ac1a dd3c 1913 7c3b 17cc 16be dd39 afbd
00000290: 673e 38be dea5 23be 3adc fbbb 789e d0bc
000002a0: 4ce1 acbc 27d6 ddbd 5cc6 54be 98d5 5ebe
000002b0: b4db e3be dac9 d33d 467f 16be d7f0 7bbd
000002c0: b4a1 bebd 93a9 17bd bc2a 573d 994b 3a3e
000002d0: 9797 f0bc 2567 ec3c 9923 85bc 1cc1 89be
000002e0: e6c6 51be 475d 94be d624 fabe be2a 083e
000002f0: f9d5 01be 8f62 82bd 5307 233d c29d b1bd
00000300: ff7b 703c f700 243e 0cb6 3cbc 01f2 163d
00000310: 55a6 e4bc 47a1 0abe 60a4 d9bd 7eed 2bbe
00000320: fa42 a4be 1a67 823d 46c4 bcbd 411a 3cbc
00000330: e451 c1bc e1df 5fbd edaf 063e 730b 813e
00000340: 8753 2e3d 6f4a 813c 8d8a bc3c 27bb 0fbe
00000350: 7b52 a6be 0427 a2be a2ee 14bf 269e 8dba
00000360: 739a 93bd 06e4 c63b 1128 4bbe 5b16 c3bd
00000370: 7083 b5bd 5d58 6dbd a752 b6bc 23a5 94bc
00000380: 5175 233d befb 84be d011 9fbe 62eb 61be
00000390: 74b9 d7be 7444 603c f661 0fbd 0869 b9bd
000003a0: 5dc7 a0bd 24e4 d43c 7308 2f3d 30e2 2b3e
000003b0: 585c 853c 8178 c53c 1c81 da3c c21a 6fbe
000003c0: 40f4 90be 5f38 28be 7f56 f0be 82fc 813d
000003d0: fbf5 7abd f60e 473d e913 70bc db63 623d
000003e0: d1c2 aeba fe72 b73d 24fa 0ebd b56c c3bc
000003f0: d064 033d 13b7 f1bd 49c8 34be fc98 53be

fc1.bias f4 [64]
-0.19321822 -0.06501416 -0.12488372 0.17662013 -0.09126617 -0.124044955 0.06943405 0.00687224
-0.10942618 0.13308807 0.0880103 0.013891566 -0.14395478 0.035461128 0.17434339 0.14710972
-0.08105944 -0.041510936 -0.18958789 0.1787542 -0.1632028 0.068615116 0.18736565 -0.12233218
-0.114950076 -0.17322993 -0.06759349 0.05561032 0.115066424 -0.005850191 0.1707404 0.1970101
-0.0031274066 0.09080486 0.06668446 -0.05310513 -0.11393484 0.15425488 -0.04654543 0.021814203
0.074823745 0.17378956 0.16007572 0.077214435 -0.19058292 0.17589162 0.059973188 -0.18233664
0.007071875 -0.15934372 -0.13180019 0.005593092 -0.118033655 0.08346152 -0.12285779 -0.026323197
0.2009737 -0.08191239 0.096264794 -0.017234264 0.17999665 -0.13933393 0.10192525 -0.18558718
00000000: ffda 45be 2526 85bd 09c3 ffbd e8db 343e
00000010: c2e9 babd 480b febd 7033 8e3d 8730 e13b
00000020: d51a e0bd 3d48 083e bf3e b43d 7399 633c
00000030: e268 13be b03f 113d 1387 323e eea3 163e
00000040: 7e02 a6bd 5f07 2abd 5423 42be 570b 373e
00000050: a31e 27be 1586 8c3d c8dc 3f3e 4b89 fabd
00000060: f26a ebbd 3063 31be 756e 8abd a6c7 633d
00000070: f2a7 eb3d f6b2 bfbb 92d6 2e3e 04bd 493e
00000080: 2df5 4cbb e6f7 b93d dd91 883d c484 59bd
00000090: ab56 e9bd fef4 1d3e 6ca6 3ebd b3b3 b23c
000000a0: 313d 993d e4f5 313e e4ea 233e 9a22 9e3d
000000b0: 2b28 43be ef1c 343e 72a6 753d 75b6 3abe
000000c0: 30bb e73b 002b 23be a1f6 06be 4246 b73b
000000d0: a1bb f1bd e0ed aa3d dd9c fbbd bfa3 d7bc
000000e0: 0dcc 4d3e afc1 a7bd 7a26 c53d df2e 8dbc
000000f0: 0b51 383e 8ead 0ebe 2fbe d03d 910a 3ebe

bn1.weight f4 [64]
0.84893984 0.53459144 0.4897913 0.71454054 0.50843674 0.7649911 0.86540556 0.9586484
0.7939433 0.9241318 0.934546 0.81297714 0.87284476 0.9183369 0.8075836 0.8327338
0.93246394 0.8346115 0.83019286 0.81717074 0.8877877 0.53592664 0.80960053 0.90462756
0.89013696 0.78160733 0.90673816 0.79754156 0.58403736 0.5823389 0.8066069 0.88134223
0.49118444 0.73279375 0.521527 0.58007973 0.85459316 0.88631713 0.78680027 0.88470715
0.5875671 0.77592814 0.931936 0.84984463 0.52080524 0.52326924 0.8523347 0.79493225
0.5367705 0.8066824 0.7812312 0.88927233 0.7613722 0.8615402 0.77730846 0.86855286
0.70059115 0.8666533 0.5137646 0.86052275 0.788911 0.7959847 0.51752734 0.5538354
00000000: 1f54 593f fcda 083f edc5 fa3e 21ec 363f
00000010: e928 023f 75d6 433f 388b 5d3f fb69 753f
00000020: de3f 4b3f e793 6c3f 683e 6f3f 451f 503f
00000030: c172 5f3f 2118 6b3f ccbd 4e3f 0b2e 553f
00000040: f5b5 6e3f 19a9 553f 8587 543f 1a32 513f
00000050: 0e46 633f 7d32 093f fb41 4f3f ac95 673f
00000060: 04e0 633f 6b17 483f fe1f 683f af2b 4c3f
00000070: 7983 153f 2a14 153f ca7d 4e3f a59f 613f
00000080: 877c fb3e 5f98 3b3f cb82 053f 1b80 143f
00000090: 9ec6 5a3f aee5 623f be6b 493f 2b7c 623f
000000a0: cc6a 163f 3aa3 463f 5c93 6e3f 6b8f 593f
000000b0: 7e53 053f f9f4 053f 9b32 5a3f ae80 4b3f
000000c0: cb69 093f bd82 4e3f c5fe 473f 5aa7 633f
000000d0: 4ae9 423f e68d 5c3f b0fd 463f 7b59 5e3f
000000e0: f159 333f fedc 5d3f 1486 033f 384b 5c3f
000000f0: 12f6 493f a7c5 4b3f ac7c 043f 28c8 0d3f

bn1.bias f4 [64]
0.058220357 -0.12903874 -0.18922819 -0.08955937 -0.21376315 -0.18011025 0.07272488 -0.046358436
-0.19213688 0.07608982 0.0411326 -0.09853733 -0.018949071 0.04964863 -0.12283828 -0.01232805
-0.012764936 0.034214847 0.018534036 0.05240185 -0.024637613 -0.22110394 0.04519702 0.059816185
0.07949207 -0.14526606 0.03915601 0.069527276 -0.15045935 -0.11739627 -0.022228261 0.045689717
-0.11102032 -0.13363622 -0.15798877 -0.17192428 0.04067875 0.014527138 0.03347933 0.041925807
-0.12271966 0.044997126 -0.0053279335 0.063344955 -0.14816865 -0.15026538 0.034857493 0.027049817
-0.19255544 0.055887453 0.05299888 0.035729285 0.057604816 0.08853084 0.04496984 0.014970925
-0.13438609 0.04016378 -0.113526575 0.08507802 -0.11891265 -0.13101307 -0.091515094 -0.27920586
00000000: 7878 6e3d bb22 04be 09c5 41be e76a b7bd
00000010: bae4 5abe d26e 38be c8f0 943d 58e2 3dbd
00000020: 88bf 44be fbd4 9b3d a87a 283d f1cd c9bd
00000030: 153b 9bbc 5d5c 4b3d a392 fbbd 97fb 49bc
00000040: 0624 51bc de24 0c3d b1d4 973c 52a3 563d
00000050: d2d4 c9bc 1269 62be 8320 393d d101 753d
00000060: bdcc a23d a0c0 14be 0d62 203d 5164 8e3d
00000070: 0412 1abe 756d f0bd 0b18 b6bc 2425 3b3d
00000080: 9f5e e3bd efd7 08be cfc7 21be eb0c 30be
00000090: c39e 263d 3c03 6e3c 9f21 093d 65ba 2b3d
000000a0: 7254 fbbd e84e 383d f295 aebb 00bb 813d
000000b0: 86b9 17be 2bdf 19be bbc6 0e3d 9497 dd3c
000000c0: 412d 45be 3eea 643d 5b15 593d df58 123d
000000d0: 07f3 6b3d a84f b53d 4c32 383d 9c48 753c
000000e0: 829c 09be c782 243d 9f80 e8bd 633d ae3d
000000f0: 7a88 f3bd 4a28 06be 446c bbbd 12f4 8ebe

bn1.running_mean f4 [64]
-0.06465791 -0.1353916 -0.19015267 0.27700034 -0.17014383 -0.069086805 0.20215255 0.11379342
-0.07108648 0.26568416 0.21685493 0.067276984 -0.053668365 0.1445358 0.26837814 0.2439905
0.016780812 0.06351237 -0.08662147 0.29312736 -0.05439837 0.0025916446 0.28857937 -0.0027100574
0.0012915609 -0.11115787 0.05955288 0.19828361 0.045654163 -0.056356642 0.27118006 0.31318796
-0.100911826 0.17789045 0.0071302373 -0.10612844 0.007356925 0.26641265 0.065119505 0.13819821
0.012485683 0.29309088 0.25865498 0.17297396 -0.28819698 0.113840915 0.17074817 -0.090051435
-0.046414908 -0.034445602 -0.03414034 0.1477214 0.000940945 0.20407464 -0.036030453 0.086614765
0.25432208 0.03939911 0.03775227 0.107422695 0.26334688 -0.06300742 0.052168272 -0.24028818
00000000: 5e6b 84bd 18a4 0abe 62b7 42be fdd2 8d3e
00000010: 2f3a 2ebe 627d 8dbd 1401 4f3e 860c e93d
00000020: ca95 91bd c107 883e 380f 5e3e 84c8 893d
00000030: 5cd3 5bbd 3101 143e dc68 893e a5d8 793e
00000040: ea77 893c c612 823d 9966 b1bd ca14 963e
00000050: d3d0 5ebd 95d8 293b adc0 933e 389b 31bb
00000060: 9849 a93a bda6 e3bd b8ed 733d dc0a 4b3e
00000070: dcff 3a3d 39d6 66bd 1dd8 8a3e 2c5a a03e
00000080: dcaa cebd ea28 363e c4a4 e93b de59 d9bd
00000090: 5c12 f13b 3d67 883e 605d 853d d583 0d3e
000000a0: c090 4c3c 0210 963e 6d6e 843e 1620 313e
000000b0: 8e8e 93be 6d25 e93d 9cd8 2e3e e36c b8bd
000000c0: 8f1d 3ebd d516 0dbd bed6 0bbd 4744 173e
000000d0: c0a9 763a f1f8 503e ab94 13bd 1563 b13d
000000e0: 8136 823e f660 213d 20a2 1a3d 6e00 dc3d
000000f0: 67d5 863e 090a 81bd 66ae 553d 1b0e 76be

bn1.running_var f4 [64]
0.9895549 0.43115398 0.2736221 0.41184947 0.3528037 0.51546675 1.32621 0.6199478
0.3964446 1.3266107 1.2715313 0.4490222 0.5857641 0.84080386 0.36008877 1.1535695
0.7712584 0.7139932 0.8947939 0.7806731 1.0309258 0.39349368 0.6777481 0.7783191
0.95409 0.84063923 1.4057449 1.0232468 0.32272777 0.4686237 0.94615203 1.1213673
0.5576711 0.3476471 0.33056745 0.28263572 0.8293927 0.64664906 0.739891 1.0407314
0.38504604 1.1252338 1.0271769 0.7910755 0.5456647 0.45525756 0.7914153 1.0165558
0.3835328 0.9120373 0.67361397 1.0057422 0.8086352 0.9120102 0.8530556 1.1740383
0.5753193 1.3702219 0.43607742 0.71270144 0.40544415 0.7023812 0.29113886 0.34774315
00000000: 7853 7d3f 37c0 dc3e 3218 8c3e efdd d23e
00000010: b0a2 b43e a1f5 033f 40c1 a93f e6b4 1e3f
00000020: c9fa ca3e 61ce a93f 8ac1 a23f 3de6 e53e
00000030: a3f4 153f ec3e 573f 8e5d b83e 2aa8 933f
00000040: 3171 453f 42c8 363f 3711 653f 31da 473f
00000050: 60f5 833f 0178 c93e e680 2d3f ec3f 473f
00000060: 3e3f 743f 2234 573f 73ef b33f c0f9 823f
00000070: 933c a53e 72ef ef3e 0537 723f f788 8f3f
00000080: 89c3 0e3f cdfe b13e 2340 a93e a1b5 903e
00000090: 1453 543f cb8a 253f 7f69 3d3f b036 853f
000000a0: c124 c53e a907 903f 887a 833f ed83 4a3f
000000b0: afb0 0b3f 8517 e93e 319a 4a3f 801e 823f
000000c0: 695e c43e 477b 693f f771 2c3f 29bc 803f
000000d0: b702 4f3f 8079 693f da61 5a3f e346 963f
000000e0: 2048 133f 6e63 af3f 8a45 df3e 9a73 363f
000000f0: 6096 cf3e 41cf 333f 2710 953e 640b b23e

fc2.weight f4 [32, 64]
0.024013257 -0.092284895 -0.12697099 0.12562113 -0.09996555 0.098057635 0.045422312 0.081972346
0.012051024 0.04816596 0.09125843 0.08773766 0.033149526 0.063771784 0.00026314045 0.081789486
0.0925845 0.07419907 0.089826845 0.07423246 0.027164225 -0.17371096 0.09680607 0.11204874
0.044831395 0.07182583 0.081518784 0.014011558 -0.06636147 -0.085206166 0.10451239 0.073333554
-0.11897112 0.094715655 -0.11904824 -0.07976605 0.055383984 0.058732037 0.06722963 0.11402596
-0.07456436 0.10737166 0.047509156 0.09027531 -0.1308745 -0.09469418 0.06688732 0.06614614
-0.123933345 0.14631279 0.0748499 0.097250976 0.08853795 0.056395 0.048211392 0.013888662
0.12939848 0.060663175 -0.06518581 0.0009825701 0.09941835 0.11074822 -0.06731868 -0.103313774
-0.08004038 0.032500133 0.04109177 -0.13314345 0.008606397 -0.07284782 -0.051530037 -0.06622142
-0.12357545 -0.09942575 -0.08586574 -0.17101268 -0.096207485 -0.07747689 -0.05353452 -0.043743357
-0.12763914 -0.06860873 -0.13286993 -0.10657069 -0.07547314 0.015548374 -0.15337619 -0.10953457
-0.12534054 -0.14127584 -0.050049245 -0.065092415 0.03674089 0.008864113 -0.08185583 -0.10602121
0.026080858 -0.13069536 0.03829996 0.015497862 -0.08191392 -0.10852866 -0.12617111 -0.08213749
0.02439394 -0.065881096 -0.06849296 -0.09159781 0.031094266 0.025024565 -0.11839433 -0.06377553
0.028473666 -0.11109472 -0.03817426 -0.12438937 -0.07503617 -0.10891057 -0.11464167 -0.07377787
-0.13474263 -0.078213096 0.03225561 -0.054759115 -0.108566955 -0.16353767 0.028444761 0.02604004
0.058888495 -0.08819415 -0.10383432 0.14044043 -0.10793731 0.11153164 0.016020037 0.060231622
0.072409675 0.068304256 0.063336775 0.09753043 0.10879443 0.095373124 0.11560062 0.07197051
0.107028514 0.050872967 0.09925825 0.10701847 0.03600225 -0.08886926 0.111025795 0.06736902
0.06665698 0.014498752 0.008123839 0.04895052 -0.08298659 -0.1437148 0.08167055 0.12195244
-0.11114969 0.040293217 -0.13367885 -0.17449519 0.054207135 0.06381783 0.09630984 0.059872076
-0.11471527 0.07693682 0.065259874 0.079197116 -0.13368765 -0.09068227 0.094850935 0.12248597
-0.12873258 0.07110355 0.10069558 0.024303047 0.053328343 0.102231756 0.031671107 0.033399247
0.10999999 0.028026111 -0.14774972 0.04290794 0.06965415 0.11204189 -0.117109895 -0.1195786
0.04810317 -0.1192812 -0.059146274 0.107713796 -0.16967441 0.057198107 0.09182632 0.034937512
0.097461075 0.06151101 0.08287252 0.04774622 0.061215967 0.056721527 0.11266271 0.026081903
0.117529936 0.11891951 0.113430694 0.07540085 0.050043266 -0.12134998 0.03518126 0.04633931
0.08047876 0.09182586 0.117630064 0.09547687 -0.085651234 -0.087511234 0.085388474 0.05768136
-0.1348033 0.10854439 -0.14783606 -0.056105483 0.05942161 0.04262404 0.05718877 0.044744216
-0.10302591 0.0444736 0.09373503 0.04946351 -0.09919952 -0.114597835 0.0014100594 0.072346896
-0.11528934 0.015450053 0.071589835 0.11058885 0.06501344 0.072211154 0.0881881 0.10143782
0.12540333 0.006943767 -0.17071621 0.092617966 0.050773244 0.093255095 -0.085433535 -0.16413018
00000000: 73b7 c43c ddff bcbd af04 02be d3a2 003e
00000010: bdba ccbd 71d2 c83d bf0c 3a3d 1ee1 a73d
00000020: a871 453c ab49 453d b3e5 ba3d cdaf b33d
00000030: ccc7 073d c89a 823d 1df6 8939 3f81 a73d
00000040: f19c bd3d aff5 973d 23f7 b73d 3007 983d
00000050: 8287 de3c 49e1 31be 4342 c63d cf79 e53d
00000060: 20a1 373d 6c19 933d 52f3 a63d bc90 653c
00000070: 86e8 87bd 9280 aebd 980a d63d e72f 963d
00000080: 21a7 f3bd 48fa c13d 90cf f3bd 625c a3bd
00000090: 51da 623d 0191 703d b0af 893d 7186 e93d
000000a0: 33b5 98bd ace5 db3d f698 423d 43e2 b83d
000000b0: f703 06be 06ef c1bd 38fc 883d a177 873d
000000c0: c4d0 fdbd 05d3 153e e84a 993d 852b c73d
000000d0: 6253 b53d 72fe 663d 4f79 453d 458d 633c
000000e0: 0981 043e f379 783d 2380 85bd 95c9 803a
000000f0: d99b cb3d f6cf e23d 60de 89bd 2c96 d3bd
00000100: 36ec a3bd dc1e 053d d84f 283d c256 08be
00000110: d801 0d3c 3d31 95bd 2911 53bd 199f 87bd
00000120: 2015 fdbd ba9f cbbd 61da afbd f31d 2fbe
00000130: 6e08 c5bd 34ac 9ebd 0347 5bbd 3c2c 33bd
00000140: d6b3 02be bc82 8cbd 0e0f 08be bc41 dabd
00000150: a991 9abd 9bbe 7e3c a60e 1dbe a953 e0bd
00000160: 4559 00be 9daa 10be 7000 4dbd 2c4f 85bd
00000170: 9e7d 163d c93a 113c 08a4 a7bd a621 d9bd
00000180: 86a7 d53c 01d5 05be 6be0 1c3d bfea 7d3c
00000190: 7cc2 a7bd 4644 debd 0033 01be b337 a8bd
000001a0: cdd5 c73c abec 86bd 0946 8cbd a297 bbbd
000001b0: 67b9 fe3c 5100 cd3c ba78 f2bd bf9c 82bd
000001c0: 9b41 e93c a185 e3bd 9d5c 1cbd dbbf febd
000001d0: 90ac 99bd 810c dfbd 40c9 eabd da18 97bd
000001e0: f9f9 09be 302e a0bd 751e 043d 184b 60bd
000001f0: 5a58 debd 6b76 27be fd04 e93c ec51 d53c
00000200: 1035 713d 229f b4bd 17a7 d4bd 9ecf 0f3e
00000210: 3d0e ddbd b36a e43d 743c 833c 6fb5 763d
00000220: 864b 943d 1ae3 8b3d b6b6 813d 09be c73d
00000230: 9dcf de3d fc52 c33d 05c0 ec3d 4665 933d
00000240: c431 db3d 2c60 503d e947 cb3d 802c db3d
00000250: 1877 133d 1601 b6bd 7e61 e33d c5f8 893d
00000260: 7483 883d 2c8c 6d3c da19 053c 5780 483d
00000270: e0f4 a9bd f929 13be e442 a73d 33c2 f93d
00000280: 73a2 e3bd 800a 253d 1ce3 08be deae 32be
00000290: 4d08 5e3d ecb2 823d 183e c53d 6c3c 753d
000002a0: d7ef eabd 0d91 9d3d f8a6 853d 1932 a23d
000002b0: 6ae5 08be a0b7 b9bd 3541 c23d edd9 fa3d
000002c0: 79d2 03be bd9e 913d 7c39 ce3d 2f17 c73c
000002d0: d26e 5a3d e25e d13d 90b9 013d a6cd 083d
000002e0: ad47 e13d 0497 e53c b44b 17be 3cc0 2f3d
000002f0: d6a6 8e3d 3876 e53d 50d7 efbd a0e5 f4bd
00000300: d407 453d b449 f4bd 5d43 72bd 0d99 dc3d
00000310: 21bf 2dbe 9048 6a3d 700f bc3d a31a 0f3d
00000320: ac99 c73d f8f2 7b3d 11b9 a93d 8a91 433d
00000330: 98bd 7a3d d554 683d b5bb e63d b7a9 d53c
00000340: 89b3 f03d 128c f33d 5a4e e83d c36b 9a3d
00000350: 2bfa 4c3d 5786 f8bd 3a1a 103d 4ace 3d3d
00000360: 0cd2 a43d 320f bc3d 08e8 f03d 6189 c33d
00000370: ea69 afbd 1739 b3bd 27e0 ae3d 4a43 6c3d
00000380: e009 0abe 854c de3d 5662 17be ddce 65bd
00000390: 1364 733d 8c96 2e3d c63e 6a3d b645 373d
000003a0: 40ff d2bd f329 363d 27f8 bf3d 409a 4a3d
000003b0: 1e29 cbbd 45b2 eabd bed1 b83a 9c2a 943d
000003c0: d11c ecbd 3822 7d3c b19d 923d 687c e23d
000003d0: c425 853d 71e3 933d f69b b43d a2be cf3d
000003e0: bb69 003e 8a88 e33b 3bd0 2ebe 7dae bd3d
000003f0: 9bf7 4f3d 87fc be3d c7f7 aebd be11 28be

fc2.bias f4 [32]
0.0059932857 0.0022863268 0.015071855 0.0007252353 0.07064938 -0.04057686 -0.045733936 -0.005090304
-0.08837911 -0.04188725 -0.076783836 -0.07283789 -0.074923046 -0.0053714584 0.06837903 0.010963454
-0.09092428 5.843356e-05 -0.021751104 0.017459817 0.005284059 -0.0673104 0.011766913 0.03617609
-0.009645756 0.055794876 0.08548101 0.005177488 0.036718797 -0.047921684 0.014112726 0.040121652
00000000: 5363 c43b 33d6 153b f1ef 763c b81d 3e3a
00000010: 9fb0 903d ec33 26bd 8253 3bbd 91cc a6bb
00000020: 1b00 b5bd f791 2bbd d840 9dbd 082c 95bd
00000030: 4171 99bd 0f03 b0bb 4e0a 8c3d 0fa0 333c
00000040: 8236 babd 8f16 7538 5f2f b2bc e407 8f3c
00000050: e625 ad3b 09da 89bd 03ca 403c 612d 143d
00000060: 3c09 1ebc 2b89 643d ab10 af3d eba7 a93b
00000070: 7366 163d 8749 44bd 1039 673c 9a56 243d

bn2.weight f4 [32]
0.5867212 0.7615815 0.6539244 0.63381743 0.63356626 0.608655 0.6350763 0.75233877
0.60421866 0.59875226 0.56520754 0.65232414 0.6147064 0.6467295 0.62997144 0.6161871
0.6134975 0.60047126 0.679459 0.586556 0.63188905 0.5776498 0.71113324 0.7520458
0.5982772 0.63875973 0.6018789 0.6048612 0.6365278 0.6563 0.6242891 0.60205936
00000000: 5c33 163f 01f7 423f 9767 273f dc41 223f
00000010: 6631 223f d0d0 1b3f 5c94 223f 4699 403f
00000020: 13ae 1a3f d447 193f 71b1 103f b7fe 263f
00000030: 665d 1d3f 1190 253f cf45 213f 70be 1d3f
00000040: 2c0e 1d3f 7cb8 193f 06f1 2d3f 8928 163f
00000050: 7bc3 213f dbe0 133f d40c 363f 1386 403f
00000060: b228 193f c285 233f bc14 1a3f 2fd8 1a3f
00000070: 7cf3 223f 4703 283f 69d1 1f3f 9020 1a3f

bn2.bias f4 [32]
0.28585938 -0.46010855 0.2758863 0.24883106 0.26650858 0.25161347 0.30462623 -0.42696646
0.29735115 0.28207356 0.26744542 0.26083335 0.22639604 0.2634873 0.31691274 0.27353895
0.2629283 0.25492454 0.2844703 0.28228137 0.28507835 0.25833118 -0.40672284 -0.4327856
0.29992926 0.30203882 0.2873389 0.2963308 0.27175516 0.33534932 0.25883627 0.25189903
00000000: 295c 923e 5993 ebbe f840 8d3e 92cd 7e3e
00000010: d073 883e 7bd3 803e f8f7 9b3e 599b dabe
00000020: 693e 983e f26b 903e 9bee 883e f38b 853e
00000030: 5dd4 673e cfe7 863e 6342 a23e 4c0d 8c3e
00000040: 8a9e 863e 7885 823e 17a6 913e 2f87 903e
00000050: caf5 913e fc43 843e fa3d d0be 1396 ddbe
00000060: 5490 993e d5a4 9a3e 161e 933e acb8 973e
00000070: 7e23 8b3e e8b2 ab3e 3086 843e e9f8 803e

bn2.running_mean f4 [32]
1.0263921 -1.6554798 0.9692186 1.0069805 1.1202872 0.92399824 1.0593357 -1.8104198
1.015918 1.2579646 0.98780334 0.9195001 0.7613771 0.7791521 1.1822338 1.0723548
0.9224772 0.94149154 1.0675848 1.1937071 1.2251863 1.0619438 -1.8021078 -1.6832281
1.2009996 1.1655786 1.3355477 1.0752506 1.0065898 1.0101024 0.9858992 0.86218286
00000000: d160 833f c3e6 d3bf b61e 783f bde4 803f
00000010: 9265 8f3f 268b 6c3f 5098 873f d6bb e7bf
00000020: 9a09 823f fc04 a13f aee0 7c3f 5c64 6b3f
00000030: 9ce9 423f 8376 473f 7053 973f ec42 893f
00000040: 7727 6c3f 9705 713f 9ea6 883f 65cb 983f
00000050: e8d2 9c3f c6ed 873f 78ab e6bf 0574 d7bf
00000060: 5bba 993f ae31 953f 3af3 aa3f d0a1 893f
00000070: efd7 803f 094b 813f e463 7c3f 04b8 5c3f

bn2.running_var f4 [32]
4.7646623 7.0590234 4.7836633 4.9826045 5.067891 5.091503 4.9441943 8.779104
5.123937 6.60678 5.530962 5.122194 4.5184445 4.035608 4.9439044 5.2797832
5.065552 4.660524 6.041474 5.4915338 6.32125 5.6691966 8.442429 7.825829
5.9583154 5.1915083 6.1748805 4.980574 4.404043 4.6426396 5.007692 3.9601107
00000000: 1d78 9840 85e3 e140 c513 9940 7f71 9f40
00000010: 2a2c a240 98ed a240 d736 9e40 3677 0c41
00000020: 4bf7 a340 be6a d340 a4fd b040 03e9 a340
00000030: 1997 9040 b323 8140 7734 9e40 fcf3 a840
00000040: 0119 a240 0323 9540 c153 c140 a5ba af40
00000050: ae47 ca40 0f6a b540 3014 0741 316d fa40
00000060: 85aa be40 d620 a640 9f98 c540 dd60 9f40
00000070: eced 8c40 8190 9440 033f a040 7472 7d40

fc3.weight f4 [16, 32]
0.10708037 -0.36920357 0.072333924 0.084164344 0.10125731 0.14635487 0.08272541 -0.34842417
0.11435965 0.11219956 0.13993634 0.100980066 0.14552867 0.10711321 0.08896829 0.11396069
0.082818516 0.09667317 0.074367456 0.07959844 0.06232809 0.12453423 -0.3620544 -0.31318495
0.10114817 0.09177811 0.09199411 0.10533668 0.09556883 0.10585865 0.07373735 0.13898961
0.09478613 -0.27346757 0.06355291 0.08020731 0.12531452 0.08908806 0.09168338 -0.31184593
0.10137485 0.07166275 0.102251105 0.07853493 0.10456815 0.07284615 0.10484462 0.100662455
0.0810477 0.12367573 0.12919079 0.103120215 0.11092202 0.07676582 -0.33406013 -0.29474884
0.10379922 0.08526264 0.12746735 0.13387117 0.11721216 0.07636662 0.09587277 0.09989005
0.06847806 -0.3434102 0.08141515 0.090844534 0.10953632 0.10959875 0.13609307 -0.34883827
0.06638802 0.07983299 0.12496726 0.12490592 0.121671006 0.08732496 0.08442799 0.16524044
0.10247397 0.12971598 0.11524952 0.078265324 0.12185759 0.075606115 -0.3070378 -0.35269183
0.08125877 0.090987355 0.09115648 0.09097666 0.11779783 0.11488321 0.13244621 0.090067096
0.080364406 -0.2979261 0.09574846 0.07905512 0.06832811 0.09471207 0.11261301 -0.31676742
0.11243238 0.0878112 0.10285254 0.08683598 0.057048697 0.10630366 0.073635116 0.09998441
0.10451443 0.09783579 0.11135592 0.12005903 0.08512892 0.08071602 -0.33767346 -0.31022117
0.07709383 0.10820662 0.07995865 0.08029519 0.08458494 0.08878679 0.06987049 0.11950285
0.07709838 -0.2960309 0.1377403 0.109554365 0.08099068 0.10057578 0.09911602 -0.33900106
0.09388465 0.11323426 0.12124027 0.10019134 0.13865782 0.11592231 0.09181605 0.07414085
0.14758523 0.12503307 0.10896096 0.11445746 0.092903554 0.074504845 -0.35733643 -0.31828737
0.09531947 0.10320438 0.13194618 0.08941756 0.111631975 0.06372907 0.1173175 0.109151445
0.08548921 -0.32688794 0.100490645 0.12617327 0.099439174 0.06793222 0.08437197 -0.3064274
0.10841796 0.08379613 0.12046545 0.104470715 0.10852669 0.09557047 0.10913066 0.07251895
0.08614208 0.112990975 0.09395493 0.0953635 0.067619 0.06497253 -0.3473548 -0.29984894
0.093781866 0.086492665 0.08723798 0.07262658 0.086179964 0.08120625 0.10744607 0.07875659
-0.04832887 0.1253513 -0.035182405 -0.027025286 -0.022177445 -0.03497091 -0.036808718 0.13821684
-0.028117301 -0.043966763 -0.044707704 -0.040564936 -0.03951948 -0.030322056 -0.038165987 -0.034022845
-0.041282155 -0.026466139 -0.051194344 -0.03152553 -0.025767075 -0.03433716 0.14215642 0.10667685
-0.034234613 -0.034948755 -0.045909543 -0.018907644 -0.0420224 -0.031941485 -0.044405527 -0.019541664
0.0813829 -0.35246754 0.11110311 0.10521475 0.07888115 0.122295044 0.12855731 -0.2910018
0.098823346 0.10783792 0.08719568 0.09478053 0.10340775 0.067116596 0.0850399 0.09245863
0.104077265 0.08191402 0.08712455 0.09627713 0.07856191 0.11309999 -0.3021561 -0.3275745
0.068361424 0.0684456 0.11673031 0.09542311 0.09615511 0.09665764 0.089103766 0.10495557
00000000: f44c db3d 4008 bdbe cf23 943d 5b5e ac3d
00000010: fe5f cf3d 0dde 153e f16b a93d a764 b2be
00000020: 6435 ea3d e2c8 e53d 794b 0f3e a3ce ce3d
00000030: 7805 153e 2c5e db3d 0235 b63d 3964 e93d
00000040: c19c a93d 95fc c53d f74d 983d 8204 a33d
00000050: bd4b 7f3d cd0b ff3d 325f b9be c759 a0be
00000060: c626 cf3d 29f6 bb3d 6867 bc3d c2ba d73d
00000070: 97b9 c33d 6bcc d83d 9c03 973d 4b53 0e3e
00000080: 3b1f c23d f103 8cbe 0728 823d bb43 a43d
00000090: 7352 003e cd73 b63d 7fc4 bb3d 45aa 9fbe
000000a0: 9e9d cf3d ebc3 923d 0769 d13d ecd6 a03d
000000b0: d427 d63d 5d30 953d c7b8 d63d 1e28 ce3d
000000c0: 56fc a53d b349 fd3d 974a 043e b130 d33d
000000d0: 162b e33d 6637 9d3d ee09 abbe 52e9 96be
000000e0: af94 d43d 2e9e ae3d cd86 023e 8615 093e
000000f0: ee0c f03d 1a66 9c3d f158 c43d 2893 cc3d
00000100: 3a3e 8c3d 76d3 afbe fcbc a63d b30c ba3d
00000110: 9454 e03d 4f75 e03d fb5b 0b3e ee9a b2be
00000120: 71f6 873d 7b7f a33d d6ee ff3d adce ff3d
00000130: a62e f93d 6ed7 b23d 95e8 ac3d ca34 293e
00000140: dfdd d13d 44d4 043e f107 ec3d 9249 a03d
00000150: 7990 f93d 61d7 9a3d 0f34 9dbe 0694 b4be
00000160: ff6a a63d 9457 ba3d 40b0 ba3d f951 ba3d
00000170: fd3f f13d e347 eb3d fb9f 073e 1975 b83d
00000180: 1896 a43d c589 98be c517 c43d a7e7 a13d
00000190: 9cef 8b3d 67f8 c13d a6a1 e63d 572f a2be
000001a0: f342 e63d 5cd6 b33d 5aa4 d23d 10d7 b13d
000001b0: e5ab 693d bcb5 d93d 02ce 963d a0c4 cc3d
000001c0: a90b d63d 215e c83d 930e e43d 82e1 f53d
000001d0: 1258 ae3d 714e a53d 89e3 acbe 4fd5 9ebe
000001e0: 5fe3 9d3d 6f9b dd3d 5cc1 a33d ce71 a43d
000001f0: de3a ad3d d9d5 b53d 4218 8f3d e9bd f43d
00000200: c1e5 9d3d 5d91 97be cb0b 0d3e 0a5e e03d
00000210: 71de a53d adfa cd3d 57fd ca3d 8c91 adbe
00000220: 9846 c03d 5de7 e73d d24c f83d 1e31 cd3d
00000230: 51fc 0d3e ad68 ed3d 0e0a bc3d 28d7 973d
00000240: 9520 173e ab08 003e ec26 df3d ac68 ea3d
00000250: 3844 be3d ff95 983d cdf4 b6be 90f6 a2be
00000260: db36 c33d d15c d33d e61c 073e 8e20 b73d
00000270: 4e9f e43d 6384 823d 2844 f03d cb8a df3d
00000280: f814 af3d db5d a7be 0ace cd3d 9133 013e
00000290: c4a6 cb3d 0c20 8b3d 36cb ac3d 0de4 9cbe
000002a0: 3c0a de3d 4e9d ab3d 97b6 f63d bef4 d53d
000002b0: 3e43 de3d 73ba c33d e57f df3d d184 943d
000002c0: 426b b03d d067 e73d 716b c03d f04d c33d
000002d0: d57b 8a3d 5110 853d 7dd8 b1be cd85 99be
000002e0: b510 c03d 1123 b13d d3a9 b23d 3fbd 943d
000002f0: 1f7f b03d 764f a63d af0c dc3d 234b a13d
00000300: 7ef4 45bd 175c 003e 6d1b 10bd 2264 ddbc
00000310: 79ad b5bc a83d 0fbd bdc4 16bd b788 0d3e
00000320: 4156 e6bc 7e16 34bd 6d1f 37bd 6b27 26bd
00000330: 2edf 21bd f665 f8bc f053 1cbd 8a5b 0bbd
00000340: 7a17 29bd 84cf d8bc 29b1 51bd ea20 01bd
00000350: 7915 d3bc 1fa5 0cbd 7491 113e 6479 da3d
00000360: 9839 0cbd 6d26 0fbd a50b 3cbd 34e4 9abc
00000370: ae1f 2cbd 13d5 02bd 92e2 35bd d715 a0bc
00000380: 14ac a63d a076 b4be 078a e33d d57a d73d
00000390: 718c a13d d375 fa3d 87a4 033e 30fe 94be
000003a0: e563 ca3d 21da dc3d a693 b23d 4b1c c23d
000003b0: 71c7 d33d 6d74 893d 6629 ae3d f35a bd3d
000003c0: 7626 d53d 8ac2 a73d 5b6e b23d f22c c53d
000003d0: 11e5 a03d f8a0 e73d 34b4 9abe d8b7 a7be
000003e0: 1301 8c3d 352d 8c3d 4d10 ef3d 316d c33d
000003f0: f8ec c43d 71f4 c53d 097c b63d f2f2 d63d

fc3.bias f4 [16]
0.04878064 0.018781 0.03273366 0.05036275 0.12252371 0.11725877 0.08636003 0.0913159
0.1292653 -0.06254267 0.11615078 0.052627925 0.054137625 0.036872424 -0.023801215 -0.073753506
00000000: 35ce 473d 9dda 993c bb13 063d 2c49 4e3d
00000010: b6ed fa3d 5e25 f03d 87dd b03d d503 bb3d
00000020: 1f5e 043e 5f16 80bd 76e0 ed3d 6190 573d
00000030: 6abf 5d3d 8a07 173d c4fa c2bc 140c 97bd

bn3.weight f4 [16]
0.6328254 0.60658544 0.65493596 0.6549641 0.6456929 0.6408956 0.723114 0.64889365
0.6578755 0.6305077 0.65709215 0.6224492 0.65468687 0.6688173 0.60869056 0.6195314
00000000: d800 223f 2f49 1b3f e2a9 273f baab 273f
00000010: 214c 253f bc11 243f 001e 393f e51d 263f
00000020: 876a 283f f468 213f 3137 283f d558 1f3f
00000030: 8f99 273f 9c37 2b3f 25d3 1b3f 9c99 1e3f

bn3.bias f4 [16]
0.33758277 0.32510683 0.34421134 0.3420114 0.33252528 0.32874113 -0.25740007 0.34285542
0.33338174 0.33968094 0.34649086 0.3274233 -0.2507597 0.35467502 0.31743982 0.31198508
00000000: a6d7 ac3e 6774 a63e 783c b03e 1e1c af3e
00000010: c140 aa3e c250 a83e f1c9 83be bf8a af3e
00000020: 03b1 aa3e a9ea ad3e 4067 b13e 07a4 a73e
00000030: 9363 80be f797 b53e 7987 a23e 82bc 9f3e

bn3.running_mean f4 [16]
1.2784323 1.1681914 1.2189114 1.1384658 1.3529357 1.2183343 -0.32479668 1.2498838
1.2806156 1.1041292 1.3628981 1.206236 -0.4048357 1.1692837 1.1676962 1.0350778
00000000: aba3 a33f 4c87 953f 4a05 9c3f 3fb9 913f
00000010: ff2c ad3f 61f2 9b3f c04b a6be 31fc 9f3f
00000020: 36eb a33f 1b54 8d3f 7273 ae3f f165 9a3f
00000030: a046 cfbe 17ab 953f 1277 953f 6e7d 843f

bn3.running_var f4 [16]
5.011769 4.3197536 4.618324 3.8272521 4.798654 3.9432645 0.5549839 4.3825536
4.427855 4.4337153 5.119676 4.2963986 0.6916568 4.2694693 4.655856 4.049275
00000000: 6960 a040 6c3b 8a40 4fc9 9340 b3f1 7440
00000010: 938e 9940 725e 7c40 6d13 0e3f e13d 8c40
00000020: fdb0 8d40 ffe0 8d40 63d4 a340 197c 8940
00000030: 6c10 313f 7e9f 8840 c6fc 9440 a993 8140

fc4.weight f4 [1, 16]
-0.09519889 -0.09760083 -0.10259798 -0.090943806 -0.09688228 -0.109291986 0.17581037 -0.097057834
-0.10018106 -0.10580035 -0.09271514 -0.1022788 0.18857214 -0.09635236 -0.106274396 -0.10424988
00000000: a3f7 c2bd f2e2 c7bd e41e d2bd bf40 babd
00000010: 386a c6bd 7ad4 dfbd a207 343e 42c6 c6bd
00000020: ba2b cdbd dbad d8bd 6fe1 bdbd 8c77 d1bd
00000030: 0e19 413e 6354 c5bd 64a6 d9bd f680 d5bd
