models/big_small_model.pth (torch, 51260 bytes, 13 tensors)

fc1.weight f4 [128, 5]
00000000: 1dd9 5ebe 5fa1 223e 86d5 bb3c 9826 773e
00000010: 1e56 74be 750b 06bf a52d 0e3e 1bc9 883c
00000020: f73f 5c3e 7077 193c 9b53 ff3c 183c 8dbd
00000030: d1cc 053e 2361 51be 59f1 2dbb b545 04bd
00000040: d8d2 c53e 0527 82be dd89 c23e 74ce 2fbe
00000050: f738 04bf 1080 b43e 907a e83d e888 01be
00000060: c4ad 95be 5136 d63e fd9d 8bbe 0d5d a6be
00000070: b55f 89be 1f2c 91be 01d1 ab3e 4eaa 96be
00000080: 186f b4bd f68d 623e 0cee 8a3e e120 debe
00000090: afa8 a53e 398a 053e 8861 323e b973 61be
000000a0: 6ec6 1abf 6e5e bcbe de19 803e 5084 cbbe
000000b0: c5f1 f7bd 4d66 17be 0827 5b3e a64d 89be
000000c0: 1af5 e23d b65a f1bd cf58 93bd 7120 31be
000000d0: 933b 573e c58a 8e3d 168c 9dbc a8b9 09bf
000000e0: 76c6 263e 36fd a83c 9897 21be 54f6 55bc
000000f0: 0cc2 f9be b50b 9fbd a94f c73e 5845 513e
00000100: 62bf 733d dc94 96be b865 363e b214 82be
00000110: 098c 813e f348 de3c cdc0 0bbe 3250 cb3d
00000120: 2960 0d3d 3ad0 a13e 7afe c9bd e36d a7bd
00000130: e8f9 f3bd 8826 333e bacd c4bd c0ba 453e
00000140: 6261 593e ba6b 0f3d 6740 e5bd 577b 16be
00000150: 14a9 923e 7f74 c73d c57d eabd b54e b43e
00000160: cc29 133e 0dfa 8a3e 1dad 5fbe e4cf 1c3e
00000170: 6c9a c83c 10bf 8dbe 4c20 2bbe 6d59 a33e
00000180: bf0f 103e ed26 79be 5ced 58be b6f3 843e
00000190: 1f8e 7ebe 2039 88bd 2592 063e 4564 d13e
000001a0: 962c ae3d 86f6 f83b 82b8 90bd 3747 1d3c
000001b0: b9e4 a53e 65e6 ffbe f5b3 2bbf fb86 8abe
000001c0: 7a17 f8ba f35d 69be 9c42 30bb 7320 9dbe
000001d0: 37b5 bbbe d3fa f5bd 3334 5e3e 8e33 a8be
000001e0: 9fa5 a4bd 6859 bd3e 81b4 6e3d 1edd f43e
000001f0: 42a9 0c3e fbf3 9ebe b857 a33e 6c51 b5bc
00000200: b3d8 a33e f0d4 b63d f555 f93d 10cf cfbd
00000210: ea67 ce3e 0740 d0be 1246 933e ff81 e3be
00000220: be96 b4bd d539 b63e e638 083e 73e0 68be
00000230: eded 2cbf 52e3 80bd 394d 95bd 483c febd
00000240: e93d 3cbe 7b7b 97bd c18d 80be 3713 89bd
00000250: b892 ea3e ef18 a1be b05b 1b3e 0ed3 393c
00000260: 0e2e a7be 20e2 14bd f19f bb3e 961a 253e
00000270: 8f60 623e 9560 01be caba 433d f154 9a3e
00000280: e193 dd3d 1745 bfbe 3f97 873b 4911 833e
00000290: 44ed f2bd 1423 823d 1507 50be f1e5 663c
000002a0: a588 053e d6b5 b7be 2852 10bf 5907 66be
000002b0: 436f f3bd b1cb 77bd 7e77 39be c8d3 e2be
000002c0: 197f 623d 2398 6fbe 4db3 733e 31c7 d53d
000002d0: b9c3 4cbe df23 48bc aa18 953d 4de3 86be
000002e0: 84d6 1cbe 0bba 03be 1b4b 9b3e d535 b93e
000002f0: 23fc d33e 6dba 773e ded7 92be 2ee1 a1bb
00000300: 160f 693e 3fe1 46be f7b1 4d3e aa51 773e
00000310: bf34 183e 5537 993e 74e9 a03b f4f4 4abe
00000320: 7e41 193f deb5 8fbd e817 fb3d 9ee3 923e
00000330: 0c57 b8be 2050 1c3e a075 8d3e 8555 ccbe
00000340: 8193 8fbd 57fe 34be bc4b 8fbd 73f4 d33e
00000350: a10a 58bc d157 8bbe 9abb b23e 16ca 05be
00000360: efc5 5f3d 08c5 c83c 107c d13e dfd3 0bbe
00000370: 60b6 0abe 826f 293e 906b 8d3c 67b3 cebe
00000380: 6c9c b43e ddc6 f6be e096 9e3c e961 813e
00000390: bbd3 973e c680 823d c8e7 003f f5e3 15be
000003a0: cada 6e3e 65c2 4ebe bc70 833e f262 e8be
000003b0: ad20 983d 8129 a23e 6948 f93d d1c6 14bd
000003c0: 638c e33e e172 39be d165 383d 8018 a63d
000003d0: 920f dfbe 682b 0bbe 7bcd 973d 481a 0abd
000003e0: 0728 90be 558a b3be acc1 403d 505d 91bd
000003f0: 86db 593d 179d 933e b55d c8be 4c81 34bb
-0.2176251 0.1588187 0.022928964 0.24135816 -0.23860976 -0.5236123 0.138846 0.016697457
0.21508776 0.009366855 0.031167796 -0.068962276 0.13066413 -0.20447211 -0.002654156 -0.03229304
0.38637424 -0.25420395 0.37995806 -0.171686 -0.5164942 0.35253954 0.11351502 -0.12649882
-0.29234135 0.41838315 -0.27268973 -0.32492867 -0.2683083 -0.28353974 0.33557895 -0.29426807
-0.08810252 0.22124466 0.2713474 -0.4338446 0.32355258 0.13041009 0.17420018 -0.22016801
-0.6045903 -0.36790794 0.25019735 -0.39749384 -0.12106661 -0.14785118 0.21401608 -0.26817054
0.11081906 -0.1178488 -0.07194673 -0.17297532 0.2101882 0.06960062 -0.019231837 -0.53798914
0.16286644 0.020628553 -0.15780485 -0.0130592175 -0.4878086 -0.07765905 0.38927963 0.20436609
0.05950869 -0.29410446 0.1781224 -0.25406414 0.2530215 0.027134394 -0.13647766 0.099274054
0.034515534 0.31604177 -0.09862991 -0.08175256 -0.119129 0.17495167 -0.09609552 0.1930952
0.21228555 0.035014845 -0.111939244 -0.14695488 0.2864462 0.09739017 -0.1144977 0.352163
0.14371413 0.271439 -0.21843381 0.15313679 0.024487697 -0.27684832 -0.16711539 0.31904164
0.14068507 -0.24331255 -0.21184295 0.25967187 -0.24858902 -0.06651521 0.13141687 0.40896812
0.08504598 0.0075977473 -0.07066442 0.0095994985 0.32401064 -0.49980465 -0.6707147 -0.27056107
-0.0018927895 -0.22789745 -0.002689517 -0.3068882 -0.36661693 -0.120107315 0.216996 -0.32851833
-0.08039402 0.36982274 0.05827761 0.4782495 0.13736442 -0.31045517 0.31902862 -0.022133552
0.32001266 0.08927333 0.12174598 -0.10146916 0.40313655 -0.4067385 0.28764397 -0.44435117
-0.08817814 0.35590997 0.13302955 -0.2274187 -0.67550546 -0.06293358 -0.0729012 -0.124138415
-0.18382992 -0.07396599 -0.2510815 -0.06693118 0.45815063 -0.31464335 0.15171695 0.011341823
-0.32652324 -0.036348462 0.36645463 0.16123423 0.22107147 -0.126345 0.047785558 0.3014293
0.10819221 -0.373574 0.004137903 0.25599125 -0.11861661 0.06354347 -0.20315202 0.014092908
0.13040407 -0.35880917 -0.5637536 -0.2246374 -0.11886456 -0.06049699 -0.18111989 -0.443022
0.05529699 -0.2339788 0.23798867 0.10438383 -0.19996537 -0.012215584 0.07280095 -0.26345292
-0.15316206 -0.12863939 0.30330738 0.36173883 0.41403303 0.2419221 -0.2868032 -0.0049401736
0.22759661 -0.19421862 0.2008742 0.24152246 0.14863871 0.29925027 0.0049106423 -0.19820005
0.5986556 -0.0701711 0.12260419 0.28689283 -0.36003911 0.1526494 0.27628803 -0.39908996
-0.07010556 -0.17675148 -0.06996867 0.41397437 -0.013186128 -0.27215436 0.34908754 -0.13065371
0.054632124 0.024508014 0.40914965 -0.13655041 -0.13546133 0.16546443 0.017263204 -0.40371248
0.3527559 -0.48198596 0.019359052 0.25270012 0.29653725 0.06372218 0.5035367 -0.1463774
0.23325649 -0.20191343 0.25671947 -0.4538799 0.074281074 0.3167229 0.12172014 -0.03632242
0.44443044 -0.18110229 0.045018975 0.08110142 -0.43566567 -0.13590777 0.07412239 -0.03371647
-0.28155538 -0.35066476 0.0470597 -0.07097876 0.05318787 0.28830788 -0.39133993 -0.0027542887

fc1.bias f4 [128]
00000000: 4620 c73e 6234 023d f8b4 963d 7f1a f83e
00000010: 2491 aebe e25c 373e e60a 79be 5c1c 97be
00000020: 94c7 19be bd9b 533e f514 92bc aa66 663e
00000030: 378a 4bbe 5827 223d ee4d 1b3e f74b f93d
00000040: a69e 9fbd 4455 88be 6be5 b63e b6de 99be
00000050: 79dd e73e 5fb6 f4bd 7a08 403e f9e9 2cbe
00000060: 878f 76be ee4b c13e 92fd b2be c4f0 a5bd
00000070: bdb2 fdbd d22e d43e 99bf 69be bcd4 743e
00000080: 6ca4 bebe b929 9cbe 8acd 143e 37c6 3f3e
00000090: 3018 77be a470 053f 6654 bd3e 5891 ae3e
000000a0: eef0 a03e 1e0f e33e e209 d53c 6248 5a3e
000000b0: 3ed7 35be d4a8 e33d 5778 4fbd 374d 2cbe
000000c0: 8d4b 9abe 57d6 d63e a69a 82be f5b7 39be
000000d0: 67ea 0c3e 00db c0be 9d3b 993e 0ab9 b9be
000000e0: fb2e 923e 708a cd3e 7181 d7bc 4756 8dbe
000000f0: 82b1 c73e d3fc c13e d4f3 a23e d0d9 983e
00000100: 194c a8be a231 4a3d 0b47 f2bd b53b 65be
00000110: c7dd ff3d c0d2 9e3e 14f6 593e dfb8 943e
00000120: 6ea7 8ebe 77f1 66be 14b8 6e3e 5d3f a83e
00000130: 0e1a d53d 028d 58be 7d0e d1bd d66d 8bbe
00000140: 3509 053d f3e7 2a3c 6a3d 573d 3aa2 923e
00000150: 2c20 543d a6f9 bbbe f96a 96be c6cb 423e
00000160: c0e6 f9be 1498 a63e 0b53 8f3d 940a c63e
00000170: 9e6e 983e dbaf ec3d 9acb ccbd 4d5a 9f3e
00000180: 9af3 5d3c 4d35 59be 00d6 60be f047 2a3e
00000190: bb9d 3dbe c463 93be 20c5 8b3e 9e8e 0e3d
000001a0: f3e5 3c3e 2255 1dbe 1c64 72be 6cc7 483e
000001b0: 14c1 c5bd da3e 1a3e 88c2 b03d 85da c53e
000001c0: 027e 6c3e c95c 63be bb27 c43e 58e6 c9bc
000001d0: e1ba c53d fdc4 463d 5ed9 da3d 8b14 acbe
000001e0: 74da 7b3e 0094 b2be 528a a6be 2e4f 4fbe
000001f0: 51e0 a93e dea7 a6be acce 23be f646 d33e
0.3889181 0.031788237 0.07358736 0.48457715 -0.34095109 0.17906526 -0.24320564 -0.29513824
-0.1501754 0.20664878 -0.017832259 0.225001 -0.19876944 0.039588302 0.15166447 0.12172692
-0.07793932 -0.26627553 0.35721907 -0.30052727 0.45286158 -0.11948847 0.18753234 -0.16886128
-0.24078189 0.37753242 -0.34959084 -0.08102563 -0.12387607 0.4144197 -0.22826995 0.23909277
-0.3723482 -0.30500582 0.14531532 0.18727957 -0.2413032 0.52125 0.36978453 0.34095263
0.31433815 0.4434747 0.026005689 0.21316674 -0.1775789 0.11116186 -0.050651874 -0.1682633
-0.30135766 0.41960403 -0.25508612 -0.1813658 0.13761292 -0.37667084 0.29928294 -0.36273986
0.28551468 0.40144682 -0.02630684 -0.27604887 0.39002615 0.37888202 0.3182665 0.29853678
-0.32870558 0.04936374 -0.118299566 -0.22386058 0.124934725 0.31020164 0.21285278 0.29047295
-0.27862114 -0.22553049 0.23312408 0.32860842 0.1040536 -0.2114754 -0.102078415 -0.27232236
0.032479484 0.010431278 0.052548803 0.28639394 0.051788494 -0.36713904 -0.2937849 0.19023046
-0.4880886 0.325379 0.06998261 0.38679945 0.29771894 0.11556979 -0.099997714 0.31123582
0.013546849 -0.21211739 -0.21956635 0.16629004 -0.185172 -0.28787053 0.27298832 0.03480398
0.18447094 -0.15364507 -0.23671001 0.19607323 -0.09655967 0.15063038 0.08630854 0.3864328
0.23094943 -0.22203363 0.38311562 -0.02464597 0.09654785 0.048527706 0.10685991 -0.33609423
0.24595052 -0.3487854 -0.32527405 -0.20245048 0.33178952 -0.32549948 -0.15996808 0.41265076

norm1.weight f4 [128]
00000000: 6e60 873f efa7 a23f 6efe 773f 4632 813f
00000010: 6b2b 803f f59a 663f ab6b 5f3f 3564 803f
00000020: 3ecf 833f 0fab 723f c080 683f d4cf 743f
00000030: 3055 773f 41ac 823f fc6f 833f 8348 823f
00000040: 6f79 723f cefe 703f a4ee 6f3f 7d37 753f
00000050: b728 613f ca59 863f 3289 833f 0503 703f
00000060: 9ba7 803f ca9b 733f d0b8 873f d203 713f
00000070: 5004 8a3f 6200 663f bab0 703f 8b97 653f
00000080: 7a1c 813f e366 bc3f e54b 7c3f d1e6 7a3f
00000090: 099a 803f c2fb 733f a5c4 5e3f c57a 643f
000000a0: c15a 5b3f e7d2 663f 72a0 703f 49dc 743f
000000b0: 4cbe 7c3f c050 6e3f 450b 793f 22d3 823f
000000c0: a5d5 833f fa25 663f 22fd 843f b370 833f
000000d0: 55bd 6c3f 3163 743f 7fc2 763f 399a 8f3f
000000e0: ba31 5e3f 12e3 7a3f 348b 653f 0fae 763f
000000f0: 58b9 743f df63 5e3f d768 7e3f 978e 763f
00000100: ca35 803f 496c 7c3f 0994 7c3f bca6 8e3f
00000110: 1c9e 5f3f fb53 6f3f ab14 6f3f 5bb1 663f
00000120: 8718 813f d4f1 8a3f 7e0e 6a3f ba17 663f
00000130: 22b4 693f 6deb 7f3f dc42 743f 3106 7b3f
00000140: 2bc2 993f 910f 673f f4c7 653f 176a 693f
00000150: 7c49 623f 34a4 843f 0741 853f 422c 663f
00000160: 63d8 7c3f 91f8 613f fbda 5f3f d2fb 6c3f
00000170: 4c8b 6a3f 595f 883f dc10 713f ea6d 633f
00000180: 3931 673f d4f6 7e3f 6da8 803f d04b 623f
00000190: d8e0 7d3f 52b8 803f a13d 6b3f 862c 643f
000001a0: 9e4b 643f 05ac 723f 1b80 943f cd79 853f
000001b0: 3ed5 683f 4216 8b3f bb79 643f b6df 613f
000001c0: 8250 663f d767 853f 3e67 693f e502 733f
000001d0: 45eb 863f 54ce 6d3f 2ae4 753f 781a 7b3f
000001e0: 00e4 623f c8d5 813f 1fca 8a3f e9c9 6b3f
000001f0: 6236 843f 1734 853f f6d6 6e3f d12f 6b3f
1.0576303 1.2707499 0.96872604 1.0093467 1.001325 0.90080196 0.87273663 1.0030581
1.029762 0.94792265 0.90821457 0.9562962 0.9661436 1.0208818 1.026855 1.0178379
0.9471654 0.941388 0.9372351 0.95787793 0.8795275 1.0496151 1.0276244 0.9375461
1.0051149 0.9515959 1.0603275 0.94146454 1.0782566 0.89844334 0.94019663 0.8968436
1.0086815 1.4718899 0.98553306 0.9800845 1.0047008 0.95306027 0.87018806 0.8924983
0.85685354 0.9016556 0.9399482 0.9564863 0.9872787 0.93091965 0.9728282 1.0220683
1.0299574 0.899017 1.038975 1.0268768 0.924764 0.95463854 0.9639053 1.121894
0.86794627 0.9800273 0.8966553 0.9635934 0.9559531 0.8687114 0.9937872 0.96311325
1.0016415 0.9860273 0.98663384 1.1144633 0.8735063 0.9348752 0.9339091 0.9011437
1.008561 1.085505 0.91428363 0.89879954 0.91290486 0.99968606 0.9541452 0.9805632
1.201238 0.9025813 0.8975823 0.91177505 0.8839338 1.0362611 1.041047 0.8991128
0.9876768 0.8826991 0.8744351 0.9257175 0.916188 1.0654098 0.9416635 0.8883959
0.9030948 0.9959538 1.00514 0.8839693 0.9917121 1.005625 0.91890913 0.8913044
0.8917788 0.9479373 1.1601595 1.0427796 0.9095038 1.0866168 0.89248246 0.8823198
0.89966595 1.0422314 0.9117316 0.9492629 1.0540549 0.92892957 0.96051276 0.98087263
0.8862915 1.0143366 1.0842932 0.92104965 1.0329096 1.0406522 0.93296754 0.9186984

norm1.bias f4 [128]
00000000: fc2c e73c ec76 fd3c a161 e4bb 38da d0bd
00000010: b1f1 88bc b94b 5ebd e9b3 d9bd 6848 1d3c
00000020: fddd b43c a07a bcbd 1c3e 65bd 8ea5 d9bc
00000030: 4591 80bc 3134 a13c a8df c8bd 4a5c 98bc
00000040: 4439 90bc 9572 6abd 0535 b9bd 4442 34bd
00000050: d8ef 36be f7db 503c 4d1d f6bd 39b9 d33b
00000060: 9151 f1bc 6408 82bd 566d 1fbd 2414 87bc
00000070: 4922 d73c 2a8f 06be 123e 46bd c6a0 a3bd
00000080: 8572 9d3c 9c5b e43c 83bc 1ebd 7b6d 6dbd
00000090: 4e1f b13c 5917 cbbd 1d7c 80bd 77dc e4bd
000000a0: 5544 09be 78cd f1bd 0a86 9abd b28c 14be
000000b0: 260e a2bd 03f9 67bd 13b8 dbbc 6f00 023c
000000c0: 1b0f cb3d 2b57 a5bd 146c 11bd a812 45bd
000000d0: 3aa9 74bd 69c8 f6bd be38 e3bd 8007 4c3d
000000e0: c97f 05be 106c dabd 5619 a1bd 20c6 45bd
000000f0: 787a b1bd 6029 29bd 4859 1fbe 4747 b5bc
00000100: fe09 35bd a39f 49bd 6984 05bd 4a54 753d
00000110: b7e3 04be 567a a9bd ec6f 63bd d30f 9cbd
00000120: 1dec 72bb 6e82 65bc 7c5a 2dbd e288 ffbd
00000130: 9c5e 06be b176 16bd 8757 0cbc 8632 acbd
00000140: ab59 d33b d873 bebd cf03 65bd ed19 68bd
00000150: b496 b2bd 9cf8 e43b 3570 233d 25a2 12be
00000160: 0d24 3ebd 3343 01be e66b c2bd 361d 07be
00000170: 6e66 65bd 0e2b 6a3c 5c65 05bb 7322 dcbd
00000180: c74f a0bd a5a2 8fbd 2dcc aebb 0068 b9bd
00000190: a75e 67bd 78e8 5dbd 9fbd c3bd ee88 fcbd
000001a0: ee18 b5bd bf5d 07bd 0fdc a1bc 4247 bebd
000001b0: 2b10 10bd acb7 75bd bc2e aebd 0a51 ccbd
000001c0: b180 c9bd 45ec 77bd a772 b4bd 4c64 89bd
000001d0: fd1e 1a3d 9dde 13bd 2534 e9bd 9cc6 8bbd
000001e0: 1f06 a0bd 61f2 1b3d 0580 ee3b 4b12 57bd
000001f0: 2455 643b e960 86bc ab97 81bd 0d41 d6bd
0.028219692 0.030940495 -0.006969646 -0.10197872 -0.01671681 -0.054271434 -0.10630018 0.0095997825
0.022078509 -0.09203076 -0.055967435 -0.0265682 -0.01569427 0.019678207 -0.09808284 -0.018598694
-0.017605431 -0.05723818 -0.09043316 -0.04400851 -0.1786493 0.012747756 -0.120173074 0.0064612892
-0.02945784 -0.06349257 -0.03892263 -0.016489096 0.026261466 -0.1314055 -0.04839904 -0.079896495
0.019219646 0.027875714 -0.038753998 -0.057965737 0.021621373 -0.099165626 -0.06273673 -0.11174863
-0.13404973 -0.11806768 -0.07545097 -0.14506796 -0.07912855 -0.05663396 -0.026821172 0.007934674
0.099149905 -0.080732666 -0.035503462 -0.048113495 -0.0597317 -0.12049944 -0.11094807 0.04981184
-0.13037027 -0.106651425 -0.078661606 -0.04828465 -0.08665937 -0.041299224 -0.15561402 -0.022128714
-0.044198982 -0.049224507 -0.03259698 0.059894837 -0.12977491 -0.08275287 -0.05552666 -0.07620206
-0.0037067004 -0.014008148 -0.04232262 -0.1247728 -0.13122028 -0.036734287 -0.00856579 -0.08408074
0.0064498982 -0.09299439 -0.055911835 -0.05666535 -0.087201506 0.0069876444 0.03990193 -0.14319666
-0.0464211 -0.1262329 -0.09493236 -0.13194737 -0.056005888 0.014292492 -0.0020354604 -0.10748758
-0.07827716 -0.07013444 -0.0053343982 -0.090530396 -0.056486752 -0.054176778 -0.09557652 -0.12330805
-0.088426456 -0.033048388 -0.019758252 -0.09290935 -0.03517167 -0.059989616 -0.085050076 -0.099763945
-0.09838999 -0.06052806 -0.08810931 -0.06708583 0.03762721 -0.036100972 -0.11386899 -0.06824991
-0.078136675 0.038072947 0.0072784447 -0.05250768 0.0034840787 -0.016403632 -0.063277565 -0.10461626

fc2.weight f4 [64, 128]
00000000: 54d6 23bb ead1 5dbe a4b9 933c 7472 1dbe
00000010: 113e 28bd f77d acbd 995f 75bd 3c7e 8cbb
00000020: d2fc efbd 6da9 2b3d 9d2c a1bc 7a0c 47bd
00000030: f339 883d f644 93bc 2f39 3bbe 704c 323c
00000040: f648 403d 8fe5 cf3c fea3 08bd 4246 d83d
00000050: 80c6 febc be3f 24be 7576 9fbd c591 853d
00000060: bc31 03be e3e7 01be fc1e c93d 2047 1a3d
00000070: 7c2a 15bd 121c 38bd 0586 9a3c 0b76 223d
00000080: 9e71 94bd bfb3 733d ecdb 2ebc 4930 a13d
00000090: cde9 c9bd e9b6 8ebd fbf3 65bd a71c cebc
000000a0: 8fe6 7eba 6ab1 82bc 2a1f 48bc 501e a1bd
000000b0: d9a3 ebbd 4d84 96bc 2993 cb3c c6dc 1ebd
000000c0: 9d09 ec3d c237 57bc 3643 df3c 9d49 37be
000000d0: 175e 18bd 84cc 893c 55cc c9bd da88 2d3d
000000e0: 5ca5 4ebd 1140 f8bd a6bd 4bbd dd70 0d3e
000000f0: f02d acbd f858 74bd 953e 85bd 013d 553c
00000100: 164e 043d 699e 953d d7d7 8bbc b250 9bbd
00000110: 6504 19bd d86b 4dbd 0ea2 9b3c 15b0 69bd
00000120: 64a4 20bd 5dc7 47bb 7329 9ebc 4b2e fabc
00000130: 05e0 0ebc 5f08 d23d 5da4 973d 28f0 5e3d
00000140: 6b6d 97bd cfc5 373d 2329 123c 40bd bc3c
00000150: 21f4 1e3d e4fd f93d a90f ab3d a35f 9b3a
00000160: 6ad5 ee3d 9754 77bc 5ad3 a73d 0445 09bd
00000170: c79c c3bd c5f5 663d f2e4 8c3d 1d65 113c
00000180: 64a3 ccbc 9c13 e13c 85b0 0f3d 7f1d 9e3d
00000190: ef16 2f3c 8684 773d 49a7 25bc 6d26 3e3c
000001a0: ddc0 1dbd 0b05 4a3c 090b bdbd 0f99 13be
000001b0: 3fa9 15bd c50d a7bd 7316 573d a71c 28bd
000001c0: 814e 0cbd c899 69be 41fc 0abe eab1 493d
000001d0: 8c3b 9e3d 3211 eb3d 7cfa d9bd 1635 273d
000001e0: 5f50 81bc de12 b63d ece8 b63d 7475 2bbd
000001f0: 8487 d93c 5da4 aabd f41c 983d f992 d7bb
00000200: 9854 283d 50af 34be f6fd 3dbc 1c52 3f3c
00000210: 9175 6ebc 8fac 54bb a001 3c3c 0c6d 4bbb
00000220: 59e1 4dbc a6ac 8f3d bd0e 90bd db0e 17bc
00000230: 7734 d8bc 8ec4 8bbc 9dde 8b3d 108d 35bd
00000240: a8c4 723d 906d 413d 275c 873b b1da 3cbc
00000250: 78bd 913d 6730 34bc e324 29bd 84f2 8f3d
00000260: 808f a3bd 1ae4 b13d 2fee d4ba 6f8d e63c
00000270: 0205 d5bd bd83 04bd 2114 773d d6ad 47bc
00000280: ea72 d93d 3e64 b13e 220c 4b3c 8a89 d23c
00000290: e606 a9bd cfba 73bd 998f 8b3d 4da0 4a3d
000002a0: 330f 263d 2e82 f93c 5344 b33d 7269 5f3d
000002b0: 7f83 c03d 4d7d c33c 54b7 263d 8a90 fdbd
000002c0: 6ce0 5f3d 8090 be3c 510a c23c 8707 dd3d
000002d0: fcb4 0cbc 3de6 d23c e48d 95bc dcdb 243e
000002e0: 75b7 b5bc eca2 953d 6b0e 853d 513b a1bc
000002f0: c67c b53c 7082 0fbd aca9 43bd d829 f0bc
00000300: a110 41bd ab26 ecbb f586 84bd 9ab9 76bd
00000310: ef5f ecbc e586 39bd 79fe 03bc 8ef6 41bd
00000320: af03 213d 7985 b43d 7aa0 1b3d 7db8 48bc
00000330: c183 313d e57d 863d b587 ccbd f70a 963d
00000340: 94f5 d4bd 5f30 613d 8e29 2939 1b31 773c
00000350: d3a1 243d 10a0 3b3c 372a d03d 029c cfbd
00000360: ce1f 0f3d 781d 093d 75e7 9b3d 9822 c6bc
00000370: 096b 2dbd 545e 50bd 6e36 78bc 581d abbc
00000380: 6ebd 32bc 4f1b e63d 7c7c 1abd 3b37 8dbc
00000390: 91a1 30bc 6a1e cdbd 7eed 053d 8a5f 913c
000003a0: 8a16 173d e9b7 bc3b 8369 323e 8d12 d43c
000003b0: cf0e a2bc f4cf 0cbe 26cd 92bc 7d2c cf3c
000003c0: 906d 5dbc db75 503d 39e1 df3c 4970 aa3d
000003d0: 5041 f53d 1317 473d 82a6 01be a4aa 26bb
000003e0: 00cb 3bbd 27f3 313d 6b78 1b3c fb21 afbc
000003f0: d0cd c8bc a83b 83bd 1bbf 0fbd f91c 31bd
-0.0024999576 -0.21662107 0.018032856 -0.15375692 -0.041074816 -0.084224634 -0.059905622 -0.0042875092
-0.117181435 0.041909624 -0.019674594 -0.048595883 0.06651678 -0.01797722 -0.18283533 0.010882482
0.04694458 0.025378017 -0.03335952 0.105602756 -0.031100512 -0.1603994 -0.07786266 0.06521944
-0.12811941 -0.12686114 0.09820363 0.037665486 -0.03641747 -0.044948645 0.018862734 0.039663356
-0.07248233 0.05949759 -0.010672551 0.07870538 -0.09859047 -0.06968481 -0.05614088 -0.025160147
-0.0009723687 -0.015953738 -0.012214461 -0.0786711 -0.11505861 -0.018373633 0.024850445 -0.038784765
0.11525271 -0.013135852 0.027253728 -0.17899175 -0.037199106 0.016821153 -0.09853426 0.04236684
-0.050450668 -0.12121595 -0.04974141 0.13812585 -0.084071994 -0.05965516 -0.06506077 0.013015033
0.03230103 0.07305605 -0.017070694 -0.07583751 -0.037357707 -0.050151676 0.018998172 -0.05705269
-0.039219275 -0.003048382 -0.019306874 -0.030539652 -0.008720403 0.10255503 0.07404397 0.05442825
-0.07393917 0.04486638 0.008920941 0.02303946 0.03880704 0.12206629 0.08352596 0.0011854063
0.11661799 -0.015095851 0.08194609 -0.033513084 -0.09551387 0.056386728 0.06879605 0.008874205
-0.024980254 0.02747517 0.03508045 0.0772047 0.01068662 0.06042912 -0.010110685 0.011605841
-0.038514007 0.012330304 -0.092306204 -0.14413856 -0.03653836 -0.08156923 0.052511644 -0.04104295
-0.034254555 -0.22812569 -0.1357279 0.049241938 0.077262014 0.11477889 -0.10643479 0.04082211
-0.015785394 0.088903174 0.08931145 -0.04186006 0.026553877 -0.08332131 0.07427397 -0.0065788
0.0410963 -0.17645001 -0.011596194 0.011677291 -0.014554397 -0.0032451486 0.011474997 -0.0031040339
-0.012565934 0.07015352 -0.07034061 -0.00921985 -0.026392205 -0.017061498 0.068295695 -0.04432398
0.059269577 0.047223628 0.0041308585 -0.0115267495 0.071162164 -0.010997868 -0.041294944 0.07028678
-0.07986355 0.08686085 -0.0016245301 0.028143613 -0.10401346 -0.032352198 0.06032193 -0.012187442
0.10617621 0.3464679 0.012393029 0.02570035 -0.08253269 -0.059504326 0.068144985 0.04946928
0.04054184 0.030457582 0.08753266 0.05454392 0.09400081 0.023863459 0.04070218 -0.12381084
0.054657385 0.023262262 0.02368656 0.10792451 -0.008588072 0.025744552 -0.018256135 0.16099495
-0.022182206 0.073064655 0.06496891 -0.019681605 0.022154223 -0.035036504 -0.047769234 -0.029316828
-0.047135 -0.007206758 -0.064710535 -0.060235597 -0.028854338 -0.04529466 -0.0080562765 -0.047354273
0.039310154 0.088145204 0.03799484 -0.012251017 0.04333854 0.06566981 -0.099868216 0.0732631
-0.10398403 0.05497777 0.00016132576 0.015087391 0.04019339 0.011451736 0.10164302 -0.10137178
0.03494244 0.03347537 0.07612506 -0.024186417 -0.042338405 -0.05087121 -0.015149696 -0.020888016
-0.010909421 0.112356775 -0.037716374 -0.01723825 -0.010780708 -0.10015567 0.032697193 0.017745752
0.03688673 0.0057592285 0.17423062 0.025887752 -0.019782452 -0.13751203 -0.017920088 0.025289768
-0.013514891 0.050893646 0.027329074 0.08322198 0.11975348 0.04860599 -0.12661174 -0.00254313
-0.045847893 0.04344478 0.009489159 -0.021378508 -0.024512202 -0.06407863 -0.03509436 -0.04324052

fc2.bias f4 [64]
00000000: d31d b4bd 1952 a43d bc3d bf3c ee22 983d
00000010: d2c1 b3bd 75cc d2bc ca69 86bc 3804 bcbc
00000020: e8f9 473c 5240 c8b9 c541 38bd e867 aa3c
00000030: 06e1 103d 88cc 393d 2f07 51bd 2d35 5ebd
00000040: f94e a63d 9f07 4f3d 5989 f4bc c786 51bd
00000050: 57c3 323d 305c 8dbd 5ce7 90bd 8e9d a03d
00000060: 81bf c63c 15d4 333d fad9 96bc c031 483c
00000070: 8b9e 683a d579 36bd 55ee 153a 4ef5 5a3d
00000080: 74d8 4dbd 3201 19bc ffce 3abd 575a b63d
00000090: 4f14 bf3d 0147 853d 9c8f b03b 93f1 6c3d
000000a0: eee1 0fbd fb78 553a 569b 00bc 7938 46bd
000000b0: 32db 923c 48d4 a63c e738 26bd d079 b5bc
000000c0: 2a07 ccbc f80b 0a3b 2221 673c ebf2 9e3c
000000d0: 3c8a 303c f418 e53a 16c4 4d3d 11a7 89bd
000000e0: 3f91 0ebb f738 b9bc 701c 253d 4b00 b03d
000000f0: 29cc 75bd 6e8a 5fbc 8c41 60bd 3470 223d
-0.08794751 0.080234714 0.023344867 0.07428537 -0.08777203 -0.025732258 -0.016407866 -0.02295123
0.012205578 -0.00038194895 -0.044984598 0.0208015 0.03537085 0.04536107 -0.05103224 -0.05424993
0.081205316 0.050544377 -0.029850649 -0.051153924 0.04364332 -0.06902349 -0.07075378 0.07842551
0.024261238 0.04390343 -0.018414486 0.012218893 0.00088737224 -0.04454978 0.0005719413 0.053456597
-0.050255254 -0.009338664 -0.045607563 0.0890395 0.093300454 0.065076835 0.0053882133 0.05784757
-0.035127573 0.00081433327 -0.007849535 -0.0483937 0.017926786 0.020364895 -0.04058161 -0.022152811
-0.02490576 0.0021064263 0.014107021 0.019402942 0.010775145 0.001747875 0.05023583 -0.067213185
-0.0021754054 -0.02261017 0.040310323 0.08593806 -0.060009155 -0.013643844 -0.05475001 0.039657786

norm2.weight f4 [64]
00000000: 6ab8 853f 94c9 723f e4d8 723f b909 773f
00000010: 60eb 753f 1b1a 803f acdd 803f 50d4 703f
00000020: b7fe 6c3f bcf1 773f 61d9 783f ff01 5f3f
00000030: c463 7c3f ce71 623f abcd 683f 4359 713f
00000040: 24a3 713f 9df4 7a3f af99 823f 63e3 793f
00000050: f81f 683f 6dfa 5a3f d407 7e3f 3f14 743f
00000060: da6b 7a3f ad1d 803f 9676 653f 2d5e 733f
00000070: 606a 783f cf08 7c3f 160e 6f3f 98d6 733f
00000080: fcd9 7c3f 68a6 633f 4223 893f a03c 683f
00000090: ac5c 6b3f 61be 6c3f 590a 743f c4ec 543f
000000a0: 78af 873f 99d5 7e3f 37b5 6b3f 70c1 783f
000000b0: 5c62 7d3f 26f9 843f b32b 6e3f 70f7 693f
000000c0: d35c 853f 3005 633f 32dc 793f 504d 6a3f
000000d0: beeb 753f 83e2 6a3f c2e9 6e3f 423b 753f
000000e0: f047 823f 1c60 753f 2156 743f 1480 683f
000000f0: eb57 5e3f d538 6d3f 1153 723f 1b9a 733f
1.0446904 0.94838834 0.948622 0.9649921 0.9606228 1.0007967 1.0067649 0.94073963
0.92576164 0.9685323 0.97206694 0.8711242 0.9858973 0.884549 0.90938824 0.9427683
0.9438956 0.980295 1.020315 0.9761259 0.9067378 0.8553837 0.99230695 0.95343393
0.9782082 1.0009056 0.8963407 0.95065576 0.97037315 0.9845094 0.9338087 0.9524932
0.9877012 0.8892579 1.0713885 0.90717506 0.9193828 0.92477995 0.9532829 0.83173776
1.0600424 0.99544674 0.92073387 0.9717016 0.9897821 1.0388534 0.9303543 0.91393185
1.0418953 0.8867979 0.97601616 0.9152422 0.9606284 0.9175188 0.93325436 0.95793545
1.0178204 0.95849776 0.9544392 0.9082043 0.868529 0.92664844 0.94658 0.9515702

norm2.bias f4 [64]
00000000: 8b92 ef3b b35b afbd bcce c5bc a2b8 70bd
00000010: 5a88 87bd fe1b ebbc 90b6 a9bb e52e 09bd
00000020: bd3f fcbd 824c 85bd 8436 3cbd 2e9c a3bd
00000030: a396 62bd 8550 e7bd b5df e0bd 304d 72bd
00000040: 16e3 1bbd 162d 1dbd 5519 02bd c317 74bc
00000050: d6ac 80bd 7e28 f6bd e8c5 a1bb 6154 9abd
00000060: c119 1ebd e765 dabc 39ca 8abd 6530 1ebd
00000070: 2000 75bd a09e 26bd ecd7 babc 80b1 e5bc
00000080: a778 edbc d2d7 32bd 9dc9 79bb 3541 87bd
00000090: fd43 c3bd 6494 abbd dc3b 3cbd d9b0 d4bd
000000a0: 6350 b1bc 1921 8abc 76ff 8dbd 2439 a4bd
000000b0: 50e5 6ebd 0bfd 82bc 1ac9 cabc 3cba 89bd
000000c0: c188 c0bc 9ae6 dbbd 8743 06bd 6316 afbc
000000d0: 04b1 63bd 14a8 b8bd ccc8 b8bc b5a7 0ebe
000000e0: 7ab7 b3bc 8cd6 0fbe 3c09 13bd 5ca7 a8bd
000000f0: 57d9 92bd 1d40 77bd a631 f2bd 5a9d 94bd
0.0073111705 -0.08562412 -0.02414643 -0.05876983 -0.06617804 -0.028699871 -0.005179234 -0.033491988
-0.123168446 -0.06508733 -0.045950428 -0.07988773 -0.05531944 -0.11294655 -0.10980169 -0.059155643
-0.038058363 -0.038373075 -0.03176244 -0.014898243 -0.06282966 -0.12019442 -0.0049369223 -0.07535625
-0.03859878 -0.026659919 -0.06776852 -0.03862037 -0.059814572 -0.04067862 -0.022808038 -0.02803874
-0.028988196 -0.043662854 -0.0038114556 -0.06604234 -0.09534452 -0.08377913 -0.045955524 -0.103852935
-0.021644777 -0.016861485 -0.06933491 -0.08018711 -0.05832416 -0.0159898 -0.024754096 -0.067249745
-0.02350271 -0.10737343 -0.032779243 -0.02137298 -0.055588737 -0.09016433 -0.022556685 -0.13931163
-0.021938074 -0.14046687 -0.03589748 -0.08235046 -0.071703605 -0.060363878 -0.11825876 -0.07256575

fc3.weight f4 [32, 64]
00000000: 1934 843d 7331 83bd 4d65 503b d6d2 c53d
00000010: f118 3a3c 445b 9d3c 1f8b 973c 1470 2dbd
00000020: a3c0 bcbc eb44 3e3d e1f0 a2bd 5b9f ecbc
00000030: 3e90 94bd 84b7 48bd b45f 963c 260d b4bd
00000040: f405 5f3c 7ac2 b4bc 1941 6abb c75d 923d
00000050: 8ffc adbc 842f 68bc 22b3 bb3d 87d3 d9bc
00000060: 120d a03d 8dc5 6fbd 3aa7 e83d 7998 a13c
00000070: 1d3e 143d 3b7b 01bd b95f 6e3a 2e45 88bc
00000080: 7e9f 0f3d 5932 adbd ab4a 8fbd bafa 953d
00000090: 2080 cfbb d452 9e3c 4baa 203d b338 6f3d
000000a0: c86c 48bd 21c7 133e 536a 00bd 43e4 2abd
000000b0: 2475 4abd 09d8 6bbd b716 bebc 03c7 81bb
000000c0: 3e55 16bd 75ce 993d 468f 9ebc 3e29 83bd
000000d0: f51f 4a3c 7009 b0bc ea07 88bd bb21 2ebd
000000e0: 4fe9 2ebd c19b 53bd e8e2 6abd a89a 523d
000000f0: a1ee 3fbd bda0 23bd 3cb6 9ebd 25a7 afbd
00000100: d80e 6f3d c007 423c 3389 a7bb 88b3 513d
00000110: 5e54 9bbd ec51 22bd b732 8c3d 4635 9bbc
00000120: b883 d7bc ef76 1f3e 7678 50bd 7e71 27bd
00000130: c0ad 83bd a978 33bd d3c9 b0bc 08c1 b2bc
00000140: b846 ae3d 5cbb a23c 4e9d 9e3c 6b6b 043e
00000150: 1c7b 10bd 7a61 8fbb 1163 0d3e b284 30bd
00000160: 50f5 cdbc 4af5 acbd 1f32 bc3d 944f 083e
00000170: 5943 4fbd 940d 47bd 4b61 73ba 5364 51bd
00000180: ffda 223d 4731 f7bd ee75 24bd 79b9 da3b
00000190: 54f6 a9bc 3021 1f3d 7689 c8bc f012 913b
000001a0: 6974 3ebd 173d 9f3d c751 5bbc 60b2 e9bc
000001b0: 2b3e 58bd eb8f 40bd 8f1f c8bd ffdd 35bc
000001c0: 65e7 09bd ae39 7e3d dcd2 203d 73de 8dbd
000001d0: e5a0 433c 59c9 9bbc 67bb b9bd ba9f 3abd
000001e0: cc85 adbc d541 6abd d6ae fabb 951f 013d
000001f0: 26c9 29bd 40c5 27bd d974 82bd 8bae 7fbd
00000200: bfae 263d 21b5 1abd 63b9 c83c 2c4d 403d
00000210: ebd3 1fbd c7a8 36bc c901 e13c bbaa e0bc
00000220: 5237 f0bc 5a98 fb3d f5bf 87bd ee43 8fbd
00000230: 3185 a3bd f403 4ebd e498 463c 12c5 81bd
00000240: 2289 f23d 53b5 1abc 94ba bd3a 331a 573d
00000250: f76b 653c 85f5 603a db28 c83d 1d71 89bb
00000260: f5bd dabc 4f13 8ebd 61b8 9d3d 3144 d33d
00000270: 6153 efbc 55e0 5dbd 36e3 103c 1381 18bc
00000280: 3bcb ab3c 644a e7bd 20f6 3fbd 0777 163d
00000290: e604 a7bc 1f8d b3bc 28a8 813c 5c2e 643d
000002a0: bc65 78bd 0cb4 083e c9a6 df3c 82c6 bcbc
000002b0: 4092 c9bd e04b fabc c203 57bd 508d 35bd
000002c0: 6b61 54bd 4cd3 c43c 17e3 293c b8cf 7fbd
000002d0: b8fd 73bb 44d7 edbc 081e bcbd 2970 b3ba
000002e0: 85eb 1bbd 4e64 4cbd 7936 33bd 8246 1c3d
000002f0: 0a92 5fba 2af0 933c 1ce6 b9bd 5ff1 25bd
00000300: bae5 63bc 32bd de3b b480 023d 16c0 ab3d
00000310: d6ee d6bd 85c1 80bd 5b99 82bd 39b3 13bc
00000320: fdfc 5d3d 8dcc bc3c 5444 a23d 650f 9fbd
00000330: e26a f63d 01b8 5b3d 9727 d13d 0408 153c
00000340: f2fe c0ba db44 dfbd d358 91bd a93f f93c
00000350: 1726 85bd 6900 5f3d b33b f3bc 00da 93bc
00000360: 1823 b0bc 306e ebbc 89d0 46bd 06e5 d3bd
00000370: 3053 523c dae5 04bd afb6 f7bd f27b 3fbd
00000380: 5295 20bd 73af 6cbd 15c0 58bd 4c2f 1ebd
00000390: 9134 7e3c cf61 993d 886d 8ebc 9268 8f3d
000003a0: fbec 14be 9cfa a5bd 98cc cf3d 83b3 633d
000003b0: c47d 163e 311b dcbd e81b 95bb ef4c 973d
000003c0: 507e 9dbd 5f76 c13d e13a 1c3d 24de 3bbc
000003d0: 67dd c4bc 1f1a 943d 22d6 82bc b029 d83d
000003e0: 5a6e 06be f3f3 a43d 51c5 85bd 353e ca3d
000003f0: 4047 e33c 5642 963d 7a92 db3b 44c0 cb3d
0.06455249 -0.06405916 0.0031798661 0.096593544 0.011358486 0.019208558 0.018498955 -0.042343214
-0.023041075 0.046452444 -0.079561 -0.02888458 -0.072540745 -0.04900314 0.018356182 -0.0879157
0.013612259 -0.02206539 -0.0035744368 0.07146793 -0.021238593 -0.014171485 0.09165026 -0.026590122
0.07814993 -0.05853801 0.11360021 0.019726025 0.03619205 -0.031611662 0.0009093243 -0.01663455
0.035064213 -0.08456869 -0.06996664 0.07323213 -0.0063324124 0.019326605 0.039224904 0.058403682
-0.048931867 0.1443143 -0.0313514 -0.041721594 -0.04942812 -0.057579074 -0.02320419 -0.0039604916
-0.036702387 0.07510082 -0.019355427 -0.06404351 0.012336721 -0.021488875 -0.066421345 -0.042512637
-0.04270297 -0.05166221 -0.0573453 0.051417023 -0.046858434 -0.039948214 -0.07749602 -0.08576802
0.058363765 0.011842668 -0.005112791 0.051196605 -0.07584451 -0.039628908 0.068456106 -0.018946301
-0.026307926 0.15572713 -0.05089613 -0.04087972 -0.064296246 -0.043816242 -0.021580612 -0.02182056
0.08509582 0.01986473 0.019362118 0.12931602 -0.035273656 -0.004375634 0.13807322 -0.043095298
-0.025141388 -0.08445223 0.09189247 0.13311607 -0.050601337 -0.048596933 -0.0009284212 -0.051121067
0.039759632 -0.12069946 -0.04015153 0.006674942 -0.020747341 0.03885001 -0.024479609 0.0044273064
-0.046497736 0.07775324 -0.013386196 -0.028527439 -0.052793663 -0.04701225 -0.09771644 -0.011100291
-0.03366794 0.062066726 0.03926359 -0.069271944 0.011940216 -0.019016908 -0.09068947 -0.045562483
-0.021181963 -0.05719169 -0.0076502366 0.03152426 -0.041451596 -0.040959597 -0.06369943 -0.062422317
0.040693995 -0.037770394 0.024502462 0.046948597 -0.03902046 -0.011148638 0.027466672 -0.02742516
-0.029323254 0.12284918 -0.0662841 -0.069953784 -0.079843886 -0.05029674 0.012121413 -0.06336416
0.11842562 -0.009442645 0.001447516 0.05251522 0.014002792 0.0008581507 0.097734176 -0.0041943924
-0.026701907 -0.069372766 0.07701183 0.10315741 -0.029214563 -0.054169018 0.008843234 -0.009308117
0.020970931 -0.11293486 -0.046865582 0.036734607 -0.020388078 -0.021917878 0.015827253 0.055708274
-0.060643896 0.13349932 0.027301209 -0.023043875 -0.09842348 -0.030553758 -0.052493818 -0.04432422
-0.051850718 0.024026535 0.010369084 -0.062453955 -0.0037230086 -0.02903331 -0.091854155 -0.0013690043
-0.038066406 -0.049900346 -0.04375312 0.03815318 -0.00085285364 0.018058855 -0.09077093 -0.040513393
-0.013909752 0.006797456 0.031861022 0.08386247 -0.10494773 -0.06286911 -0.063769065 -0.009014898
0.054196347 0.023046756 0.07923189 -0.07766608 0.12032105 0.053642277 0.10212629 0.009096149
-0.0014724417 -0.10901805 -0.0709702 0.030425863 -0.06501406 0.05444375 -0.029691553 -0.018048286
-0.021501109 -0.028739065 -0.04853872 -0.10346417 0.012837216 -0.032445766 -0.12095391 -0.046749063
-0.039204903 -0.05778451 -0.05291756 -0.038619325 0.0155154625 0.07489359 -0.017386213 0.07002367
-0.14543526 -0.081044406 0.10146445 0.055591118 0.14696413 -0.10747374 -0.004550446 0.07387721
-0.07690108 0.094464056 0.03814209 -0.011466537 -0.024031354 0.07231545 -0.015971247 0.10554826
-0.13128033 0.08054342 -0.06531776 0.09875146 0.027743936 0.07336871 0.006700811 0.09948781

fc3.bias f4 [32]
00000000: e764 22bd 87bb d43c d34a d2bc 3f9e edbd
00000010: 0ecd d83d 8de8 ed3d 9523 2cbd 23c4 52bd
00000020: cfbd 04be 5d15 433d a684 993d 3f39 a63d
00000030: 1700 563d fc0c 8dbd 8ecb 49bd e771 75bd
00000040: fd06 8abd 36eb 67bb 3208 25bd 5eab 983a
00000050: c227 bf3b 5c1e 5cbd a2f5 24bb 0d6c bd3d
00000060: 9646 94bd e7de 9d3d b5bd f8bc bcbd 903d
00000070: 7f60 76bd 7014 c73d 017d 40bd a897 583d
-0.03964701 0.025968326 -0.025670445 -0.11602449 0.10585986 0.11616621 -0.04202612 -0.05145658
-0.12963031 0.047627795 0.07496004 0.081163876 0.05224618 -0.06887242 -0.04926639 -0.05992308
-0.06739614 -0.0035388 -0.04029102 0.0011647751 0.005833597 -0.05373989 -0.0025170823 0.09249125
-0.07240026 0.07708531 -0.030363897 0.07067439 -0.06015062 0.09720695 -0.046994213 0.052879006

norm3.weight f4 [32]
00000000: 0a7a 7f3f 6a84 5f3f 22b8 813f 5bbc ca3f
00000010: bae0 823f 8285 773f 7168 c53f e00e a43f
00000020: 7e3d ce3f 4217 be3f 51b3 c43f 4c5b c13f
00000030: 576c ca3f c799 b53f 2364 733f 528f a03f
00000040: 6310 d03f 9f61 883f 9c7f c93f cbc1 b63f
00000050: 619a db3f 8c73 c03f a2c9 6d3f 428f 6e3f
00000060: 15a9 c73f 4994 9b3f 6bd5 863f 6b53 b93f
00000070: d684 d43f 4fc8 be3f 91bb c43f 8fd8 ce3f
0.9979559 0.8731142 1.0134318 1.5838732 1.0224831 0.9668809 1.5422498 1.281704
1.6112516 1.4850848 1.5367223 1.5105987 1.5814313 1.4187554 0.9507467 1.2543738
1.6255001 1.0654792 1.5742068 1.4277891 1.7156488 1.5035262 0.9288579 0.93187344
1.5598475 1.2154628 1.053388 1.4478582 1.6603038 1.4904879 1.5369741 1.6159838

norm3.bias f4 [32]
00000000: 296d a83b 1f7c d6bd d0f3 0c3d 27af 593e
00000010: 98e1 863c 3370 183d ae02 893e c17e 353e
00000020: 9d37 463e 03c5 453e c239 9b3e e375 723e
00000030: 3afe 923e fa74 3b3e 08e1 d33c 151b 5f3e
00000040: a595 843e 2a6a 423d 1f4e 433e 7d46 983e
00000050: c633 ae3e 99f3 7c3e ad2d 15bd d0be dbbc
00000060: 89f5 433e e7e2 333e 5cc9 703d e384 6d3e
00000070: 9af3 6d3e 93f2 2d3e 2171 3d3e 8250 923e
0.005139966 -0.10472893 0.034412205 0.21258222 0.016464993 0.037216377 0.26759857 0.17724134
0.19357152 0.19313435 0.30317503 0.23677783 0.28709584 0.18306342 0.02586414 0.21787675
0.2589542 0.047464527 0.1907277 0.29741278 0.34023875 0.247023 -0.036420513 -0.026824385
0.19136633 0.17567025 0.05878578 0.23195224 0.23237458 0.16987066 0.18500187 0.28577048

fc4.weight f4 [1, 32]
00000000: 604e 44bd 438d ac3c 9540 d7bc 0350 203f
00000010: 10b4 69bd 1137 08ba 8a33 22bf e165 cc3e
00000020: 9422 363f 15b4 213f 4493 06bf cf42 24bf
00000030: 2e8a 18bf 30bb 0dbf 55a8 883c a11e 9d3e
00000040: 7cd0 3abf adf7 06be 27ef 1b3f 6eee d1be
00000050: d125 27bf ef67 15bf fee9 3ebc c492 8a3c
00000060: 6da0 2b3f da2c a23e f7ca e83d 6952 0bbf
00000070: 5b12 343f 805d 233f 5fac 1f3f f9e3 27bf
-0.047926307 0.021063453 -0.026275912 0.6262209 -0.057056487 -0.0005196194 -0.6335989 0.39921477
0.7114651 0.6316541 -0.5256846 -0.6416444 -0.59585845 -0.5536375 0.01668183 0.3068743
-0.7297437 -0.13180418 0.6091179 -0.4100222 -0.6529208 -0.58361715 -0.011652468 0.016915686
0.67041665 0.31674844 0.113668375 -0.5442262 0.7034051 0.63814545 0.6237239 -0.65582234
