models/big_model.pth (torch, 51152 bytes, 13 tensors)

fc1.weight f4 [128, 5]
0	0x3e005a84	0.12534529
1	0x3e0c3b70	0.13694549
2	0xbe9c72cc	-0.30556333
3	0x3ebde460	0.370883
4	0x3dad9c7b	0.08477112
5	0x3c6c5a8e	0.014425887
6	0x3e98bcea	0.2983163
7	0x3e519c3b	0.20469753
8	0x3e20bc0f	0.15696739
9	0x3c882c30	0.016622633
10	0x3ea1c3b0	0.3159461
11	0xbea2544c	-0.31704938
12	0x3de6f1ca	0.11276586
13	0xbeb4d126	-0.35315818
14	0xbc22d8a4	-0.009939346
15	0x3e78d9c5	0.24301822
16	0xbeb9ee83	-0.36314783
17	0x3d18921d	0.03724872
18	0x3e3dba83	0.1852818
19	0xbf008030	-0.501956
20	0xbe9d9521	-0.3077784
21	0x3d0e453f	0.034734007
22	0x3ab09da8	0.001347472
23	0xbdc5ca87	-0.0965777
24	0xbdd9673a	-0.10615392
25	0x3e13ec7b	0.14445679
26	0xbdc1e577	-0.09467595
27	0xbe3ca353	-0.18421678
28	0x3e27ef97	0.1639999
29	0xbd80ea3b	-0.06294676
30	0xbef6f8d2	-0.4823671
31	0xbe2d4551	-0.16920973
32	0x3d4b680a	0.049659766
33	0xbe0a73b9	-0.13520707
34	0x3b21dd60	0.00246986
35	0x3e529785	0.20565613
36	0xbe1b3684	-0.15157515
37	0x3d8bb8c1	0.068223484
38	0x3e276824	0.1634832
39	0xbd833993	-0.06407466
40	0x3e100eae	0.140681
41	0xbd8fff45	-0.07031111
42	0x3d390e35	0.045179565
43	0x3e8a701a	0.27038652
44	0xbe6add2e	-0.22935936
45	0x3f0bd6e3	0.54624766
46	0x3d44e628	0.048071057
47	0xbe3ad3b0	-0.18244815
48	0x3e23608c	0.15954798
49	0x3d9facf7	0.07796662
50	0x3e531dcd	0.20616837
51	0x3d83ccba	0.06435533
52	0x3d1961de	0.03744685
53	0xbdcfcf1e	-0.10146926
54	0x3e4a9d37	0.19786535
55	0xbdcc5c62	-0.09978558
56	0x3e31a9f4	0.17349988
57	0x3da6cc5e	0.08144449
58	0x3e54be61	0.20775749
59	0x3d85ac3f	0.06526994
60	0x3f10a53e	0.5650214
61	0xbe2666a1	-0.16250087
62	0x3c8cbc5e	0.017179664
63	0xbe1f2872	-0.15542772
64	0x3d8617da	0.06547518
65	0xbf033b1d	-0.51262075
66	0xbea43981	-0.32075122
67	0x3d53e4c1	0.05173183
68	0xbda4f6f1	-0.08054913
69	0x3de29680	0.11063862
70	0x3d95cc20	0.073143244
71	0x3ec118b9	0.37714174
72	0x3d94d3f0	0.07266986
73	0xbdae14dc	-0.08500072
74	0x3e92b5a6	0.28654212
75	0x3f157848	0.5838666
76	0xbe05627a	-0.13025847
77	0x3d1709a0	0.036874413
78	0xbe4045ca	-0.18776622
79	0x3ed92335	0.42409673
80	0x3e676385	0.22596557
81	0x3e36d335	0.17854007
82	0x3c956229	0.018235283
83	0x3ea57e1a	0.3232277
84	0xbea0136c	-0.31264818
85	0x3ddc25ab	0.10749372
86	0xbdc10511	-0.094247945
87	0x3e1957af	0.14974855
88	0x3e4956bf	0.19661997
89	0xbc38decf	-0.01128359
90	0x3e819233	0.25306854
91	0xbdd111f7	-0.10208505
92	0x3d2e3fed	0.042541433
93	0x3e91aa11	0.28450063
94	0xbeb0bf8f	-0.34521148
95	0xbdc9c29c	-0.09851572
96	0x3ea0a21f	0.3137369
97	0x3d5f9fac	0.054595634
98	0x3e8d4e24	0.2759868
99	0x3bfde1c1	0.007747859
100	0xbe78214d	-0.24231453
101	0xbdf07b6c	-0.11742291
102	0x3ea86c2e	0.32895035
103	0xbd737c7e	-0.059444897
104	0x3e314e8f	0.17315124
105	0x3f0c9a9d	0.5492342
106	0x3e5b6105	0.21423729
107	0x3d355ee9	0.044279967
108	0xbeaab156	-0.33338422
109	0x3e815328	0.25258756
110	0x3ef9936b	0.48745283
111	0xbda0bf32	-0.078489676
112	0x3d724129	0.059144173
113	0xbd4bd1b2	-0.049760528
114	0x3d11de7a	0.03561256
115	0x3ecbaa39	0.39778307
116	0xbe723764	-0.23653942
117	0x3d1d150a	0.038350143
118	0x3e964ad1	0.29353955
119	0xbebd85d1	-0.37016156
120	0x3f122c9f	0.57099336
121	0xbe772465	-0.24134977
122	0xbde0203d	-0.10943649
123	0xbdb843d0	-0.08997309
124	0x3b40fb4e	0.0029446664
125	0x3ef001a1	0.46876243
126	0x3e12c753	0.14333849
127	0xbd1143dd	-0.03546511
128	0xbdcad62e	-0.09904133
129	0x3e7a2360	0.24427557
130	0xbf0ed037	-0.5578646
131	0x3e166932	0.14688566
132	0x3c6adbd4	0.014334638
133	0x3e5d1083	0.2158833
134	0x3d83eb29	0.064413376
135	0xbe9e599e	-0.30927747
136	0x3e9de77e	0.30840677
137	0x3d3ffa64	0.04686965
138	0x3e594bdb	0.21220343
139	0xbaca9f8a	-0.0015458923
140	0xbd9f0654	-0.07764879
141	0x3dafe792	0.085890904
142	0x3d26175b	0.040549617
143	0x3e642a8a	0.22281852
144	0xbcd7c226	-0.026337694
145	0x3dde7521	0.10862184
146	0xbec472ec	-0.38368928
147	0x3d42047a	0.04736755
148	0xbeab1282	-0.33412558
149	0x3e9ce81d	0.30645838
150	0x3e7f23c8	0.24915993
151	0xbe35392c	-0.1769759
152	0x3eb2d9f2	0.34931904
153	0x3e0472b2	0.12934378
154	0x3e63ca2c	0.22245091
155	0x3ef14b1a	0.4712761
156	0xbdf0a5ba	-0.1175036
157	0x3c897026	0.01677711
158	0x3e92016c	0.2851671
159	0xbdd21300	-0.1025753
160	0xbedab131	-0.4271331
161	0xbe4e707d	-0.20160098
162	0x3d3c1aba	0.045923926
163	0x3d6862f9	0.056735013
164	0x3dc1d6b4	0.094647795
165	0xbe5e404c	-0.21704215
166	0x3de83593	0.113383435
167	0xbdc96e25	-0.098354615
168	0x3eb31457	0.34976456
169	0x3dfac970	0.122454524
170	0xbeecb10d	-0.4622883
171	0xbd8d8a73	-0.06911173
172	0x3dd1a6c4	0.10236886
173	0x3ce3696c	0.02776023
174	0x3cb6c7ec	0.022312127
175	0x3edec68d	0.43510857
176	0x3e17862c	0.14797276
177	0x3e040f5c	0.12896484
178	0xbe3e9a7a	-0.18613616
179	0x3e4270e9	0.18988384
180	0xbe06fab2	-0.1318157
181	0x3dd61153	0.10452523
182	0x3cc1a37e	0.02363753
183	0x3e2a59e0	0.16635847
184	0x3dd11ec1	0.10210944
185	0x3ef30ce2	0.47470766
186	0x3c827f59	0.015929865
187	0x3d13503a	0.035965182
188	0x3e812ec5	0.25230995
189	0xbee05b8d	-0.43819848
190	0x3ea1b360	0.31582165
191	0xbd876ecd	-0.066129304
192	0x3d817f1f	0.063230745
193	0xbe0cd360	-0.13752508
194	0x3ecada04	0.39619458
195	0x3e149e38	0.1451348
196	0x3d9730e5	0.07382373
197	0x3de38796	0.11109845
198	0xbe2a9f0a	-0.16662231
199	0xbd59c74f	-0.05316859
200	0x3dfc7564	0.12327078
201	0xbec96c5b	-0.3934048
202	0x3bb5bedf	0.0055464352
203	0x3e260f2b	0.16216724
204	0x3e98b6b3	0.29826888
205	0x3ee2800d	0.4423832
206	0x3b3ef397	0.002913689
207	0x3e0a6a1f	0.13517044
208	0x3c1eb7da	0.009687388
209	0x3e22a36a	0.1588265
210	0xbf330fc4	-0.6994593
211	0xbc76e81d	-0.015069989
212	0x3d4614bc	0.048359618
213	0x3d8a316c	0.06747708
214	0x3cedcf14	0.029029407
215	0x3e055f1b	0.13024561
216	0xbd14743f	-0.036243673
217	0xbcf9b61d	-0.030482346
218	0x3d6cdd64	0.057828322
219	0x3d4faef9	0.050703976
220	0x3ecc43e7	0.39895555
221	0x3d1d7671	0.038443033
222	0x3d91d5ca	0.07120855
223	0xbd43a012	-0.047760077
224	0x3e20f496	0.15718302
225	0xbf0d0936	-0.5509218
226	0x3dcec3c9	0.10095937
227	0x3d4a9656	0.049459778
228	0x3e592ece	0.21209261
229	0x3d96b7e7	0.07359295
230	0xbebf1422	-0.37320048
231	0xbc6f2a78	-0.014597528
232	0x3d41b9e4	0.04729642
233	0x3e042472	0.12904528
234	0x3db13ac5	0.086537875
235	0xbbfd520f	-0.0077307294
236	0x3dafd9c5	0.08586458
237	0x3ddd031e	0.1079161
238	0xbcf3ec7c	-0.02977585
239	0x3eaa9cc7	0.33322737
240	0x3dc43d6b	0.09582027
241	0x3d02188b	0.031761687
242	0x3df1dc15	0.118095554
243	0x3e290fa8	0.16509879
244	0x3e5c9fd9	0.21545352
245	0xbdcb87f4	-0.099380404
246	0xbe7c2461	-0.24623252
247	0xbdfc29d5	-0.12312666
248	0xbbc2ef52	-0.0059489394
249	0x3dc6f43d	0.097145535
250	0x3ec95964	0.39326012
251	0xbe1ff315	-0.15620072
252	0xbe28dd73	-0.16490726
253	0x3d4c6d83	0.049909126
254	0xbd61a732	-0.05509109
255	0xbe809dab	-0.2512029

fc1.bias f4 [128]
0	0xbd9c8d20	-0.07644105
1	0x3eb1c40a	0.34719878
2	0xbe581fb4	-0.21105844
3	0xbee0804a	-0.43847877
4	0xbd6a2671	-0.057165567
5	0xbe25282f	-0.1612861
6	0x3e0760cf	0.13220523
7	0x3f1743df	0.5908794
8	0x3dd789d1	0.10524333
9	0x3e4d86df	0.2007098
10	0xbf1f2cbf	-0.6217765
11	0x3e973d57	0.29538986
12	0x3e96a19b	0.2942017
13	0xbd2e5955	-0.042565662
14	0xbe5539ba	-0.20822802
15	0xbda4ed5a	-0.08053084
16	0xbc941d3f	-0.018080352
17	0x3f031ad4	0.5121281
18	0x39299177	0.00016171286
19	0x3e15aed6	0.14617476
20	0x3c9d7b2d	0.019223774
21	0xbccffd4d	-0.025389338
22	0x3e909a8b	0.28242907
23	0x3b161d2c	0.0022905571
24	0x3e1ea16c	0.15491265
25	0xbed81105	-0.42200485
26	0x3df1f102	0.11813547
27	0x3cbb01f9	0.02282809
28	0x3ee55745	0.44793144
29	0xbe426214	-0.18982726
30	0x3e4a2a2e	0.19742653
31	0xbe13ddc7	-0.1444007
32	0xbcf0e432	-0.029405687
33	0x3d52d06e	0.051468305
34	0x3e0117f7	0.12606798
35	0x3da1ca1a	0.07899876
36	0x3ee77846	0.4520895
37	0xbe5c579d	-0.21517797
38	0xbde1b40a	-0.11020668
39	0x3f121d32	0.570758
40	0x3eb8cfa4	0.36095917
41	0x3e913c66	0.28366393
42	0x3ddb0be3	0.106956266
43	0x3f100f44	0.56273293
44	0xbe9679bb	-0.29389748
45	0x3e1e0237	0.15430532
46	0x3d83a7db	0.064285
47	0x3f02db9d	0.51116353
48	0x3ef7c12c	0.48389566
49	0x3eb025d6	0.34403867
50	0x3d212917	0.039345827
51	0xbc73fb19	-0.014891409
52	0x3bcda0de	0.0062752804
53	0x3d5ec1f9	0.054384205
54	0xbea2ce83	-0.3179818
55	0x3e3233ad	0.17402525
56	0xbe360671	-0.17775895
57	0xbda9b83b	-0.08287092
58	0x3ea47f69	0.32128456
59	0x3ea63a21	0.32466224
60	0x3ed33b92	0.41256386
61	0x3adc72c1	0.0016818867
62	0x3efc8e63	0.49327382
63	0xbc245eaa	-0.010032335
64	0xbf029323	-0.5100576
65	0x3ee44783	0.4458581
66	0xbd857838	-0.065170705
67	0x3ea34d33	0.31894836
68	0x3d305a35	0.043054778
69	0x3e90479c	0.28179634
70	0x3eeab550	0.45841455
71	0x3e5374f2	0.2065008
72	0xbf177b2a	-0.5917231
73	0x3ec2fc9d	0.38083354
74	0x3eb785f3	0.35844383
75	0x3b8fea91	0.004391976
76	0xbe8bed17	-0.27329323
77	0x3d4412e2	0.04786957
78	0x3e3ccda9	0.18437828
79	0x3ec2e50c	0.38065374
80	0x3cd5b4e9	0.026087241
81	0x3e1b6cec	0.15178269
82	0xbe6a0065	-0.22851713
83	0x3ee50c70	0.44736052
84	0xbdff7b69	-0.124747105
85	0x3e12d7c4	0.1434012
86	0x3e89d26a	0.26918346
87	0xbe06a7c6	-0.13149938
88	0x3e80a477	0.25125477
89	0x3e02d95e	0.12778232
90	0xbea9a9ae	-0.33137268
91	0x3ec70f4b	0.38878855
92	0xbe53f5ee	-0.20699283
93	0x3e9c6891	0.30548528
94	0x3cd40535	0.02588139
95	0xbe8b2a0a	-0.2718051
96	0xbd416001	-0.047210697
97	0x3ed53fec	0.4165033
98	0x3d988046	0.07446341
99	0x3d474728	0.048651844
100	0x3f0feaf1	0.5621787
101	0xbf11cd2c	-0.5695369
102	0x3d02a9e4	0.0319003
103	0xbe59a551	-0.2125447
104	0x3e7ce809	0.2469789
105	0xbd07fc31	-0.033199493
106	0xbcc3b3e9	-0.023889499
107	0xbef50402	-0.4785462
108	0x3edd16cc	0.43181455
109	0x3e928e72	0.28624302
110	0x3e934670	0.28764677
111	0xbe231bc9	-0.15928568
112	0x3ebfd9fc	0.37470996
113	0xbeaa5650	-0.33268976
114	0x3ed7105a	0.42004663
115	0x3d02a539	0.03189585
116	0x3f14db6c	0.5814731
117	0x3f02a86d	0.5103825
118	0x3e157f5a	0.14599362
119	0x3ea80fe6	0.3282463
120	0x3a6445f4	0.00087079336
121	0x3ceb574d	0.028728152
122	0xbec3cb5e	-0.38241094
123	0x3e4b728c	0.19867915
124	0xbd6c3b4e	-0.057673745
125	0xbbeb8dac	-0.0071885195
126	0x3d1cdfa7	0.03829923
127	0xbf30b45c	-0.69025207

norm1.weight f4 [128]
0	0x3f435058	0.7629447
1	0x3f14ddaf	0.5815076
2	0x3f4a3513	0.78987235
3	0x3fc1a8b5	1.512961
4	0x3f66bc69	0.9013124
5	0x3f406d6c	0.75166965
6	0x3f626976	0.8844217
7	0x3f2c5467	0.6731629
8	0x3f57a805	0.8424075
9	0x3edcb28b	0.43104967
10	0x3fdb039b	1.7110475
11	0x3f59581f	0.8490009
12	0x3f11717e	0.568138
13	0x3f857d78	1.0428915
14	0x3f5c5cdc	0.8607919
15	0x3f278ddf	0.65450853
16	0x3f4918f3	0.78553694
17	0x3f201612	0.62533677
18	0x3f586a97	0.84537643
19	0x3f65a243	0.89700717
20	0x3f4ec8d8	0.80775213
21	0x3f1b8818	0.6075454
22	0x3f0ed7eb	0.55798215
23	0x3f25e142	0.6479684
24	0x3f01a45a	0.50641406
25	0x3f3533a0	0.707819
26	0x3f7e3785	0.99303466
27	0x3f731644	0.9495585
28	0x3f352aaa	0.70768225
29	0x3f85d763	1.0456356
30	0x3f18ad89	0.59639794
31	0x3f2c64eb	0.6734149
32	0x3f967ebc	1.1757426
33	0x3f5baf5d	0.8581446
34	0x3f5dea90	0.8668604
35	0x3f27a1a1	0.65481
36	0x3f4c84d4	0.7989018
37	0x3f30a096	0.68995035
38	0x3f4a2e31	0.7897673
39	0x3f3607e3	0.71105784
40	0x3f32b92b	0.69813794
41	0x3efccfbe	0.49377245
42	0x3f73411b	0.9502122
43	0x3f4434ba	0.76642954
44	0x3f57b8a6	0.84266126
45	0x3f84021b	1.0313143
46	0x3f768f9e	0.9631289
47	0x3f4eba4e	0.8075303
48	0x3f4022b1	0.75052935
49	0x3f480ad8	0.78141546
50	0x3f12e98c	0.57387614
51	0x3f8c1d7a	1.0946496
52	0x3f636b80	0.88835907
53	0x3f390c15	0.7228406
54	0x3f4e06ae	0.8047894
55	0x3f6b535d	0.9192408
56	0x3f64f375	0.89433986
57	0x3f0bf8e1	0.54676634
58	0x3ee89607	0.45426962
59	0x3f496fa1	0.7868596
60	0x3f3ccee3	0.73753184
61	0x3f5f54ba	0.8723866
62	0x3f488152	0.7832233
63	0x3f09efae	0.5388135
64	0x3f5e69ef	0.8688039
65	0x3f3bb8ed	0.7332905
66	0x3f689316	0.90849435
67	0x3f3bcd29	0.73359925
68	0x3f581273	0.8440315
69	0x3f405fb7	0.7514605
70	0x3f493df3	0.7861015
71	0x3ee9d06a	0.4566682
72	0x3f345072	0.7043525
73	0x3eec67c4	0.46172917
74	0x3f39dd9a	0.7260376
75	0x3f324ca4	0.69648194
76	0x3f8e1dc0	1.1102829
77	0x3f9cd9d9	1.2253982
78	0x3f47aaa4	0.7799475
79	0x3f425769	0.7591463
80	0x3f61330e	0.8796853
81	0x3f137474	0.5759957
82	0x3f76705b	0.9626519
83	0x3f2bdc80	0.6713333
84	0x3f1034ef	0.5633077
85	0x3effead9	0.49983862
86	0x3f283239	0.65701634
87	0x3f816bf9	1.0111076
88	0x3f1e8b27	0.6193108
89	0x3f4968e7	0.78675693
90	0x3f8c359d	1.0953861
91	0x3f3394b1	0.7014876
92	0x3f212ea3	0.62961787
93	0x3f340794	0.70324063
94	0x3f431727	0.762072
95	0x3f57278f	0.84044737
96	0x3f400c97	0.7501921
97	0x3f4772de	0.7790965
98	0x3f9a912b	1.2075552
99	0x3f7136ed	0.94224435
100	0x3f1cfca2	0.6132299
101	0x3f80ea19	1.0071441
102	0x3f251a16	0.6449293
103	0x3f3ddd78	0.7416606
104	0x3f39de2a	0.7260462
105	0x3f52c24d	0.8232773
106	0x3f0eaee3	0.55735606
107	0x3fe1fa4e	1.7654512
108	0x3f1ff34d	0.6248062
109	0x3f485aad	0.7826336
110	0x3f4aaf37	0.79173607
111	0x3f16e9c9	0.5895048
112	0x3f4e2647	0.80527157
113	0x3f4081d8	0.75198126
114	0x3efd5630	0.49479818
115	0x3f7c334b	0.98515767
116	0x3f3ca7a3	0.73693293
117	0x3f1c4d6a	0.61055624
118	0x3f06e7c4	0.52697396
119	0x3f3b79bd	0.7323263
120	0x3f4cd8aa	0.80018103
121	0x3f43b0c9	0.7644163
122	0x3f29c865	0.663214
123	0x3f361989	0.71132714
124	0x3f26dafa	0.6517788
125	0x3f60fa13	0.8788158
126	0x3f328b7a	0.69744074
127	0x3f98feab	1.1952718

norm1.bias f4 [128]
0	0xbdd24886	-0.10267739
1	0xbe7c729d	-0.24653096
2	0xbe04c088	-0.1296407
3	0xbd355904	-0.044274345
4	0x3d487345	0.048938055
5	0xbd8a7653	-0.0676085
6	0xbd03606b	-0.032074373
7	0xbe7517e2	-0.23934892
8	0xbdc2c2e0	-0.09509826
9	0xbed5802d	-0.41699353
10	0xbc1f596d	-0.009725911
11	0xbd8e5b6e	-0.069510326
12	0xbe44a032	-0.19201735
13	0xbcaf89ca	-0.021428008
14	0xbbab4638	-0.0052268766
15	0xbe356642	-0.1771479
16	0xbe0079ab	-0.12546413
17	0xbe8fcce6	-0.28086013
18	0xbe371738	-0.17879951
19	0xbde6a4b1	-0.11261881
20	0xbd90ce6e	-0.07070623
21	0xbe9abbd1	-0.30221418
22	0xbe30a802	-0.1725159
23	0xbe924602	-0.28569037
24	0xbe6043da	-0.21900883
25	0xbe4427b7	-0.19155775
26	0x3d7b4eb4	0.061354354
27	0xbc8948dd	-0.016758377
28	0xbded340b	-0.11582192
29	0xbd36e606	-0.04465296
30	0xbe8df71f	-0.277276
31	0xbe3e1880	-0.18564034
32	0xbd877851	-0.066147454
33	0x3cb58430	0.022157758
34	0xbc964c9c	-0.018347077
35	0xbe830f1a	-0.2559746
36	0xbdc512ce	-0.09622727
37	0xbe009613	-0.12557249
38	0xbd010ec1	-0.03150821
39	0xbe226618	-0.15859258
40	0xbe422fbf	-0.18963526
41	0xbea5be9f	-0.32371995
42	0xbd5aae74	-0.053389028
43	0xbe27d645	-0.16390331
44	0xbdd37c15	-0.10326401
45	0xbd843422	-0.06455256
46	0xbab9a3ca	-0.0014163193
47	0xbdb1841f	-0.08667778
48	0xbe2a015a	-0.16602078
49	0xbc87934a	-0.016549725
50	0xbe823a04	-0.25434887
51	0xbde6ed0e	-0.11275683
52	0x3d0e7b9e	0.03478586
53	0xbe764294	-0.24048835
54	0xbe102346	-0.14075956
55	0xbcb82e89	-0.022483127
56	0xbdcf7ec4	-0.101316005
57	0xbe7d1fcd	-0.24719162
58	0xbea3a27b	-0.319599
59	0xbd688d6f	-0.056775507
60	0xbe75599f	-0.23959969
61	0x3d06c8e3	0.032906424
62	0xbe2fbdb1	-0.17162205
63	0xbe97a118	-0.29615092
64	0xbe323a90	-0.17405152
65	0xbe3f99d0	-0.18711019
66	0x3d983c98	0.07433432
67	0xbe3c4985	-0.1838742
68	0x3a9f7e5e	0.0012168398
69	0xbe234bf3	-0.15946941
70	0xbdd0a954	-0.10188547
71	0xbe9882f9	-0.29787424
72	0xbe6979be	-0.22800347
73	0xbed9d32a	-0.42543918
74	0xbe47854d	-0.19484444
75	0xbdec43dc	-0.11536381
76	0x3d38cda0	0.045117974
77	0x3cf28691	0.029605182
78	0xbe29aa3c	-0.16568846
79	0xbe7a0c02	-0.24418643
80	0xbd3dae4e	-0.046308808
81	0xbe8d43aa	-0.27590686
82	0xbe075717	-0.13216816
83	0xbe7f44ef	-0.2492864
84	0xbe8adabb	-0.27120003
85	0xbeb6d6a9	-0.35710648
86	0xbe561f4a	-0.20910373
87	0xbd02ce8a	-0.031935252
88	0xbe7d6013	-0.2474368
89	0xbd831264	-0.06399992
90	0x3d9ae964	0.07564047
91	0xbe0b28ce	-0.13589785
92	0xbe8def80	-0.27721786
93	0xbdca4868	-0.09877092
94	0xbdce7248	-0.10080391
95	0xbdbdc9bf	-0.09266996
96	0xbe70afa3	-0.235045
97	0xbe43f129	-0.19134964
98	0x3d2935d2	0.041311093
99	0x3d3ef25a	0.046617843
100	0xbe8d63ce	-0.27615207
101	0xbdec37e0	-0.11534095
102	0xbe360288	-0.17774403
103	0xbd99e691	-0.0751468
104	0xbe79bb82	-0.24387935
105	0xbcff032a	-0.031129438
106	0xbea1855a	-0.31547052
107	0x3d831980	0.06401348
108	0xbe9ae959	-0.30256155
109	0xbdbe96fd	-0.093061425
110	0xbe544d93	-0.20732717
111	0xbe506eb9	-0.20354737
112	0xbe35c07c	-0.17749208
113	0xbe2e5ab3	-0.17026787
114	0xbeaf835b	-0.34279904
115	0x3d81ace1	0.06331802
116	0xbe5aea2e	-0.21378395
117	0xbe994239	-0.29933336
118	0xbeaa8ddf	-0.33311364
119	0xbe41c75e	-0.18923709
120	0xbddb1585	-0.10697464
121	0xbe30e681	-0.1727543
122	0xbe88441b	-0.2661446
123	0xbe4d7e3a	-0.20067683
124	0xbe4d627e	-0.20057103
125	0x3bcaa651	0.0061843772
126	0xbe13ddb5	-0.14440043
127	0xbda52816	-0.080642864

fc2.weight f4 [64, 128]
0	0xbc317ce7	-0.010833002
1	0x3d9e8914	0.07740989
2	0x3d86cedc	0.06582424
3	0x3f1e1407	0.6174931
4	0x3ca940d5	0.020660797
5	0x3c8acf00	0.016944408
6	0xbd85a7b2	-0.06526126
7	0x3dcb9e8b	0.09942349
8	0x3e192791	0.149565
9	0x3da4d0cf	0.080476396
10	0x3ee32ad3	0.4436861
11	0x3e1a737e	0.1508312
12	0x3d95045d	0.07276223
13	0xbe0370d5	-0.12836011
14	0x3d8cd03c	0.06875655
15	0x3de5d6ce	0.11222611
16	0x3e554c44	0.20829874
17	0x3d38a97c	0.045083508
18	0x3e8eef6e	0.27917045
19	0x3d447553	0.04796345
20	0x3d9ac6e7	0.07557469
21	0x3dca2c78	0.09871763
22	0x3dd4f5a3	0.10398414
23	0x3e834ec0	0.2564602
24	0x3dcd60e3	0.10028245
25	0x3da93cd3	0.082635544
26	0xbd946eeb	-0.072477184
27	0xbcee6347	-0.029100074
28	0x3d50e9e9	0.051004324
29	0x3e755a4d	0.23960228
30	0x3d64a974	0.055825666
31	0x3e12bf96	0.14330897
32	0xbe733eb1	-0.23754384
33	0xba557c2e	-0.00081438094
34	0xbd7d448d	-0.061832953
35	0xbbf86a81	-0.0075810556
36	0x3d915d72	0.070979014
37	0x3de91c78	0.11382383
38	0x3d6614e2	0.05617226
39	0x3c6cf01c	0.014461543
40	0x3d1dba6d	0.038507868
41	0x3dfd24d9	0.12360544
42	0xbe3b2fb1	-0.18279912
43	0xbc123efa	-0.008926148
44	0x3db056f0	0.08610332
45	0xbdeac17b	-0.11462685
46	0xbe34ad28	-0.17644179
47	0x3df17b98	0.11791152
48	0xbc253a28	-0.010084666
49	0x3e172846	0.14761457
50	0x3d3f2e14	0.046674803
51	0xbe7265f4	-0.23671705
52	0x3e4a617a	0.19763747
53	0x3e2223f6	0.1583403
54	0x3e0b05cd	0.13576432
55	0xbe1e22a5	-0.15442903
56	0x3e86c403	0.2632142
57	0x3dc815f9	0.09769816
58	0x3ddc79af	0.10765397
59	0x3d3a6272	0.04550404
60	0x3c9b07bc	0.018924586
61	0xbbf0a4f3	-0.007343882
62	0x3d62aec1	0.05534244
63	0x3d5bd765	0.053672213
64	0x3d77c859	0.0604938
65	0x3d03d013	0.032180857
66	0x3d2c8a65	0.04212417
67	0x3e62de27	0.22155057
68	0x3bc6331f	0.0060485746
69	0x3dcac71d	0.09901259
70	0x3df2e9ff	0.118610375
71	0x3d6e9c08	0.05825427
72	0x3db58a12	0.088642254
73	0x3da1efb4	0.07907048
74	0xbd7a8de3	-0.06117047
75	0x3dc062fe	0.09393881
76	0x3e0e6994	0.13907462
77	0xbe302e16	-0.1720508
78	0x3d59ac41	0.05314279
79	0x3e09768a	0.13424125
80	0xbc8ac622	-0.01694018
81	0x3dd1873b	0.10230871
82	0x3e95524c	0.2916435
83	0x3e1076e0	0.14107847
84	0x3da4587a	0.08024688
85	0x3d5dbb21	0.05413354
86	0x3dfb6fbf	0.12277173
87	0x3db446b3	0.08802547
88	0x3dd72223	0.10504558
89	0xbcb768f0	-0.022388905
90	0x3e40c67f	0.1882572
91	0x3de4dd88	0.11175066
92	0x3d8fcc33	0.0702137
93	0xbd6d5514	-0.057942465
94	0x3d56a035	0.05239888
95	0x3db7773d	0.0895829
96	0x3d3e07c6	0.046394132
97	0x3d46ad16	0.04850491
98	0xbd8d8857	-0.069107704
99	0x3d8f8fe8	0.0700987
100	0x3d411633	0.04714031
101	0x3deff3e1	0.11716438
102	0xbce5bd6c	-0.028044425
103	0x3dc9dff9	0.098571725
104	0x3de59ff3	0.112121485
105	0xbd54ded7	-0.05197033
106	0x3db66ef1	0.08907879
107	0x3f2184d3	0.630933
108	0x3a0a74e3	0.00052816997
109	0x3e0dc193	0.13843374
110	0xbc982934	-0.018574335
111	0x3dd275da	0.10276385
112	0x3e292111	0.1651652
113	0x3d1c5593	0.038167547
114	0x3d1f0196	0.03881987
115	0xbe247a86	-0.16062364
116	0x3d14d97b	0.036340218
117	0x3ddd2a0f	0.10799038
118	0x3bb1c23d	0.0054247663
119	0x3d6658cb	0.056237023
120	0x3e026c98	0.12736738
121	0x3e147d1c	0.1450085
122	0x3d875b8d	0.06609259
123	0x3ced78b0	0.028988212
124	0x3dfbccfe	0.122949585
125	0xbd7800ef	-0.060547765
126	0x3d4455b6	0.047933303
127	0x3e4056cc	0.1878311
128	0x3dd49559	0.10380048
129	0x3cde1539	0.02710973
130	0x3def1e18	0.11675662
131	0xbe00f8f3	-0.12594967
132	0x3de87ae3	0.11351564
133	0x3dc470c3	0.0959182
134	0x3e1f4825	0.15554865
135	0x3d12fcab	0.035885494
136	0x3d028691	0.031866614
137	0x3d2cfdf5	0.04223438
138	0xbe91b299	-0.28456572
139	0x3d7ef942	0.06224943
140	0x3da58536	0.080820486
141	0x3e34726a	0.1762177
142	0xbd2e29c4	-0.0425203
143	0x3d9979e4	0.07493952
144	0x3dab4254	0.083622605
145	0x3d951b7a	0.07280631
146	0x3d6df66b	0.05809633
147	0x3d64cbed	0.05585854
148	0x3d70c8c2	0.058785208
149	0x3d3c9567	0.04604092
150	0x3d7b88c3	0.061409723
151	0x3d711374	0.058856443
152	0x3cc854cc	0.024454497
153	0x3dc09d51	0.09405006
154	0x3e1cf87c	0.15329164
155	0x3e563886	0.2092
156	0x3d753df3	0.059873533
157	0x3d91bc8e	0.07116042
158	0x3aabb7b4	0.0013101012
159	0x3d81735b	0.063208304
160	0x3ebf1a0b	0.37324557
161	0x3d1f553f	0.038899656
162	0x3dbef51e	0.09324096
163	0x3d5ee8e9	0.05442134
164	0x3da626e1	0.08112884
165	0x3cbae9ba	0.022816528
166	0x3dab4438	0.08362621
167	0x3d9c9582	0.07645704
168	0x3da9d413	0.08292403
169	0x3cf11715	0.029429952
170	0x3d6e8a63	0.058237445
171	0x3d866204	0.06561664
172	0x3ec219be	0.37910265
173	0x3e443886	0.19162187
174	0x3e57e0f1	0.21081902
175	0x3d388230	0.04504603
176	0x3d5baf83	0.053634178
177	0x3d72d587	0.059285667
178	0x3c32a438	0.010903411
179	0x3e7dacfb	0.24773018
180	0x3db74d45	0.08950285
181	0x3cc9f78d	0.024654174
182	0x3da94b1b	0.08266278
183	0x3dc1eaa9	0.09468586
184	0xbc0256f4	-0.007955302
185	0x3cb85304	0.022500522
186	0x3d17a474	0.03702207
187	0x3c8e55cf	0.017374901
188	0x3c032353	0.008004027
189	0x3d294627	0.041326668
190	0x3d2b0cd2	0.041760273
191	0x3d889721	0.066694506
192	0x3d5e4db1	0.05427331
193	0x3d334f66	0.043776892
194	0x3de6a9bf	0.11262845
195	0x3d4d99d9	0.05019555
196	0x3cd89336	0.026437383
197	0x3c3c9adc	0.011511531
198	0x3db8bb5e	0.090201125
199	0x3d5fe4d0	0.054661572
200	0x3df10d8c	0.11770162
201	0x3d82ef69	0.0639332
202	0x3d1c38d2	0.038140126
203	0x3db42de9	0.08797819
204	0xbcf0d671	-0.029399129
205	0x3e7f66b1	0.24941517
206	0x3d37ff79	0.044921372
207	0x3d84fbd4	0.06493345
208	0x3da69389	0.08133609
209	0x3d5a47bd	0.05329107
210	0x3da1731f	0.07883286
211	0x3c271e09	0.010200032
212	0x3ad15169	0.0015969697
213	0x3d9140bb	0.070924245
214	0x3c948eed	0.018134559
215	0x3d969d0c	0.07354173
216	0x3d794d13	0.06086452
217	0x3d8fcabc	0.070210904
218	0xbb1cee05	-0.0023945582
219	0x3d4f313b	0.05058406
220	0x3cff741c	0.031183295
221	0x3d98a6ef	0.07453715
222	0x3c7bcf17	0.015369198
223	0x3de2a154	0.11065927
224	0x3de1fc04	0.11034396
225	0x3d63debf	0.05563235
226	0x3e30a769	0.17251362
227	0x3dfbf122	0.12301852
228	0x3d022dc1	0.031781916
229	0x3d6ef509	0.058339152
230	0x3dbe554c	0.09293613
231	0x3d824ba7	0.06362086
232	0x3d45df2b	0.048308533
233	0x3dba264c	0.09089336
234	0x3d4667f7	0.048438992
235	0xbe1a2b06	-0.15055475
236	0x3d7f09b8	0.062265128
237	0x3daea080	0.08526707
238	0x3dbf570a	0.09342773
239	0x3ced53b8	0.028970584
240	0xbc16bb67	-0.009199954
241	0x3e872009	0.26391628
242	0x3d6ed442	0.058307894
243	0x3e2986a3	0.16555266
244	0x3c40f901	0.011778117
245	0x3d55cebe	0.052199118
246	0x3d3571d3	0.044298004
247	0x3dcc6c1a	0.09981556
248	0x3db1821a	0.08667393
249	0x3d98c896	0.07460134
250	0x3dbd4b9a	0.092429355
251	0x3ba469d3	0.005017498
252	0x3d086bd2	0.03330595
253	0x3dd0d630	0.10197103
254	0x3d91e0de	0.07122968
255	0x3d47a0f3	0.048737478

fc2.bias f4 [64]
0	0x3db22e68	0.087002575
1	0x3d895632	0.067058936
2	0x3ca1ebf6	0.019765835
3	0x3e96de79	0.29466608
4	0x3daf9522	0.08573367
5	0x3da559aa	0.08073743
6	0x3df6dc0c	0.12053689
7	0x3e144ab4	0.14481622
8	0x3e877354	0.26455176
9	0x3d9bb159	0.07602186
10	0x3d5b7fd2	0.053588696
11	0x3d9d632a	0.0768493
12	0x3d84d08e	0.06485091
13	0x3da77cd3	0.08178105
14	0xbc46ff7f	-0.012145876
15	0x3c447a94	0.0119921155
16	0x3d906094	0.07049671
17	0x3dafef66	0.085905835
18	0x3b5388ce	0.0032277587
19	0xbccf4f90	-0.025306493
20	0x3d9c0239	0.076176114
21	0x3de1a0e8	0.110170186
22	0xbaae3f18	-0.001329395
23	0x3d647f1a	0.055785276
24	0x3dd219af	0.10258805
25	0x3c39f8a2	0.011350783
26	0x3e2b4dae	0.16728851
27	0x3d2b4392	0.041812487
28	0x3e686467	0.2269455
29	0x3d901514	0.0703527
30	0x3bef5ac0	0.0073045194
31	0x3d9e0e05	0.07717518
32	0x3df58847	0.119888835
33	0x3dcf2420	0.10114312
34	0x3b50afd8	0.0031843092
35	0x3dc23993	0.09483638
36	0x3db844c4	0.08997491
37	0x3df0d240	0.11758852
38	0x3e92fd13	0.28708705
39	0x3d023cee	0.03179639
40	0x3e28b382	0.16474727
41	0x3e6539f3	0.22385387
42	0x3baabb01	0.005210281
43	0x3dce0f08	0.10061461
44	0x3d872e2f	0.06600606
45	0x3d875523	0.066080354
46	0x3dd33d3c	0.10314414
47	0x3e70b051	0.2350476
48	0x3e9405eb	0.28910765
49	0x3d95c556	0.073130295
50	0x3de0878f	0.10963356
51	0xbc35c5df	-0.011094539
52	0x3df0f0bf	0.11764669
53	0x3df23ac0	0.11827612
54	0x3de8a990	0.113604665
55	0x3c96dd30	0.018416017
56	0xbbd10d89	-0.0063797873
57	0x3de15d4f	0.11004125
58	0x3c50ee27	0.012752092
59	0x3e93309d	0.28748026
60	0x3ca18992	0.019718919
61	0x3b5ec127	0.003398964
62	0x3cc99a8c	0.024609827
63	0x3e18223e	0.14856812

norm2.weight f4 [64]
0	0x3f4b585e	0.7943171
1	0x3f6472fc	0.8923795
2	0x3f630335	0.8867677
3	0x3f363b4d	0.71184236
4	0x3f698d36	0.91231096
5	0x3f17e2c5	0.593304
6	0x3f2b4029	0.66894776
7	0x3f4981c6	0.78713644
8	0x3f1d7c89	0.6151815
9	0x3f2e5152	0.68092835
10	0x3f351718	0.70738363
11	0x3f9137c7	1.1345147
12	0x3f3b327e	0.7312392
13	0x3f64e80c	0.89416575
14	0x3f8882f2	1.0664961
15	0x3f5668e3	0.83753794
16	0x3f54c0bb	0.83106583
17	0x3f5f895d	0.87318975
18	0x3f76b089	0.9636312
19	0x3f4f6ce3	0.8102552
20	0x3f43cf5a	0.7648827
21	0x3f1f0978	0.62123823
22	0x3f41bb2e	0.7567624
23	0x3f477b31	0.7792235
24	0x3f43c6ff	0.7647552
25	0x3f96842a	1.1759083
26	0x3f471c52	0.7777759
27	0x3f5527a7	0.8326363
28	0x3f2ed539	0.682941
29	0x3f3a21cd	0.72707826
30	0x3f746a73	0.9547493
31	0x3f4b812d	0.7949398
32	0x3f7950a1	0.97388655
33	0x3f3f5345	0.74736434
34	0x3f7034da	0.93830645
35	0x3f2a0368	0.6641145
36	0x3f42440f	0.758851
37	0x3f2dc846	0.6788372
38	0x3f3a2ca8	0.7272439
39	0x3f42a0fa	0.7602688
40	0x3f411548	0.754231
41	0x3f4cc1ed	0.7998341
42	0x3f6b81ba	0.9199482
43	0x3f571529	0.8401666
44	0x3f452902	0.770157
45	0x3f35b5ae	0.70980346
46	0x3f32b1ad	0.6980236
47	0x3f40ee97	0.7536406
48	0x3f3a4cd9	0.7277351
49	0x3f3dd983	0.7416002
50	0x3f18c1bd	0.5967062
51	0x3f7cb034	0.98706365
52	0x3f46d9fb	0.7767636
53	0x3f187f4f	0.5956926
54	0x3f6853f3	0.90753096
55	0x3f69e08f	0.91358274
56	0x3f617d68	0.8808198
57	0x3f6c8a67	0.92398685
58	0x3f545f76	0.8295816
59	0x3f584b88	0.8449025
60	0x3f4b761d	0.794771
61	0x3f57ce22	0.8429891
62	0x3f48a2ce	0.7837342
63	0x3f48126e	0.7815312

norm2.bias f4 [64]
0	0xbe6b386c	-0.22970742
1	0xbd028e11	-0.031873766
2	0xbde11b0b	-0.10991486
3	0xbdc1e3b5	-0.0946726
4	0xbdd5d494	-0.10440937
5	0xbe88fe8c	-0.26756704
6	0xbe5273b3	-0.20551948
7	0xbe303799	-0.17208709
8	0xbe64ca92	-0.223429
9	0xbe5851c6	-0.21124944
10	0xbe01d0e3	-0.1267734
11	0xbcdc72cd	-0.02691021
12	0xbe176387	-0.1478406
13	0xbd1eefbe	-0.038802855
14	0xbd1466bf	-0.0362308
15	0xbe3f3f2d	-0.18676443
16	0xbdb0018b	-0.08594044
17	0xbd77e0c4	-0.060517088
18	0xbd23c9f3	-0.039987516
19	0xbdb33f8e	-0.087523565
20	0xbe1fcefd	-0.15606304
21	0xbe429e90	-0.190058
22	0xbdc9280f	-0.09822094
23	0xbde74cf1	-0.11293972
24	0xbdd8e2dc	-0.10590145
25	0xbd0078d7	-0.03136524
26	0xbe1e1ff4	-0.15441877
27	0xbdc26c2b	-0.09493288
28	0xbde3d217	-0.11124056
29	0xbe3d30ac	-0.18475598
30	0xbbd1b3af	-0.006399594
31	0xbe28f9d5	-0.16501553
32	0xbd6c7945	-0.05773284
33	0xbe177ea9	-0.14794411
34	0xbd65803a	-0.05603049
35	0xbe778112	-0.2417033
36	0xbe585d1e	-0.21129271
37	0xbe699d1d	-0.2281384
38	0xbe00b4f1	-0.12569024
39	0xbe3f51e6	-0.18683586
40	0xbe30feed	-0.17284746
41	0xbdf3ecc2	-0.11910392
42	0xbdcf5546	-0.101236865
43	0xbdf792ed	-0.12088571
44	0xbdd1ec5c	-0.1025016
45	0xbe562597	-0.20912777
46	0xbe6a4f89	-0.22881903
47	0xbdf4d905	-0.11955456
48	0xbd689c8f	-0.05678993
49	0xbe5edd85	-0.2176419
50	0xbe97a7e5	-0.2962028
51	0xbd9bc462	-0.076058164
52	0xbe5c59b1	-0.2151859
53	0xbe24f96c	-0.16110772
54	0xbc92602a	-0.01786812
55	0xbc921a6b	-0.017834863
56	0xbd3fda89	-0.04683927
57	0xbc8006dd	-0.015628273
58	0xbdec3b8a	-0.11534794
59	0xbc571c61	-0.013129325
60	0xbe4c3ad9	-0.19944324
61	0xbdf2769e	-0.11839031
62	0xbde86623	-0.11347606
63	0xbdab3ea0	-0.08361554

fc3.weight f4 [32, 64]
0	0xbe02f323	-0.12788062
1	0x3dab0c99	0.08352012
2	0x3dd235a3	0.10264137
3	0xbd9e56d3	-0.07731404
4	0x3def4a77	0.11684125
5	0xbbd0027f	-0.006347954
6	0xbdacc004	-0.084350616
7	0x3d7c67c7	0.061622407
8	0x3b923d20	0.004462853
9	0xbcd2c085	-0.025726566
10	0x3d92e9a5	0.071734704
11	0x3daa090a	0.08302505
12	0x3da7c1cd	0.081912614
13	0x3d9963fd	0.074897744
14	0xbdf3221d	-0.11871741
15	0x3dad7e80	0.084713936
16	0x3e3a2d68	0.18181384
17	0x3d34ce6a	0.044142164
18	0x3df20de7	0.11819058
19	0x3dcbe1be	0.09955166
20	0xbcc4b411	-0.024011644
21	0xbcde4876	-0.027134161
22	0x3e1c81a7	0.15283833
23	0x3c08a983	0.008341196
24	0x3c1ad4e7	0.009450174
25	0x3d58fd03	0.052975666
26	0x3cc28023	0.023742741
27	0x3d2da249	0.042391095
28	0xbda9425f	-0.082646124
29	0x3d38a409	0.04507831
30	0x3e0a931c	0.1353268
31	0x3ce97f19	0.028502988
32	0x3e1592df	0.14606808
33	0xbc2ee433	-0.010674524
34	0x3e2be34e	0.16785929
35	0x3c037c5b	0.008025254
36	0xbd8c0628	-0.06837112
37	0xbceba7be	-0.02876651
38	0xbdb5783e	-0.08860825
39	0x3d1d0389	0.03833345
40	0x3da05dc8	0.07830387
41	0xbc833f37	-0.016021354
42	0xbc92c9c1	-0.01791847
43	0xbcb24270	-0.021760195
44	0x3de72e84	0.11288169
45	0x3c2b2a7c	0.010447141
46	0xbc9250e1	-0.017860832
47	0xbcf9ae90	-0.030478746
48	0xbcb44c9b	-0.022009185
49	0xbd1f929a	-0.03895817
50	0xbd59db7d	-0.053187836
51	0xbc96ae64	-0.018393703
52	0xbb063f8a	-0.002048465
53	0xb952c78b	-0.00020101496
54	0xbc4c0c43	-0.012454095
55	0x3e20c543	0.1570025
56	0x3de04c13	0.1095201
57	0x3e2b80c1	0.16748334
58	0xbd5889eb	-0.052865904
59	0xbbaa60d8	-0.005199533
60	0xbd9666a8	-0.07343799
61	0x3ddac1db	0.10681506
62	0x3dbe72fb	0.092992745
63	0x3c70e063	0.014701935
64	0xbd98199f	-0.07426762
65	0x3e013e79	0.12621488
66	0x3dc4264a	0.095776156
67	0x3d17f6a7	0.03710046
68	0x3e094168	0.13403857
69	0x3d36cf7c	0.044631466
70	0x3da63c49	0.08116967
71	0xbd4f0b6b	-0.050548
72	0x3d8642cd	0.0655571
73	0x3e05ad23	0.13054328
74	0x3da8812a	0.08227761
75	0xbe1e0334	-0.1543091
76	0x3b40325e	0.0029326896
77	0x3dabf175	0.08395664
78	0xbe857ef6	-0.26073426
79	0x3e0a3710	0.13497567
80	0x3e0ff091	0.14056613
81	0x3d9fc3b2	0.07800998
82	0x3e2ce95f	0.16885899
83	0x3dc675bc	0.09690425
84	0xbd63fc7d	-0.055660713
85	0x3d8872af	0.06662499
86	0x3d032897	0.03202113
87	0x3cf98265	0.030457685
88	0xbdbe1964	-0.092821866
89	0xbe5502df	-0.20801876
90	0x3e108d7b	0.1411647
91	0xbc87ad73	-0.0165622
92	0x3d38a3bf	0.045078035
93	0xbd143afb	-0.03618906
94	0x3e02052a	0.12697282
95	0xbdbc436f	-0.091925494
96	0xbe471201	-0.19440462
97	0xbc92e83f	-0.01793301
98	0x3e2d67d1	0.16934134
99	0x3dbf9d5d	0.093561865
100	0xbdc2a4b2	-0.095040694
101	0xbba72039	-0.005100277
102	0x3cc2c017	0.023773236
103	0xbd2f6fc6	-0.042831205
104	0xbdd65044	-0.10464528
105	0x3e0f46ac	0.13991803
106	0x3e3833ab	0.1798846
107	0xbe0bc4db	-0.13649313
108	0x3d790103	0.06079198
109	0x3d60c391	0.054874007
110	0xbcd89d22	-0.026442114
111	0x3d89fc2f	0.06737553
112	0x3d6bcec2	0.057570226
113	0xbd1f031e	-0.038821332
114	0x3d4a4497	0.04938182
115	0xbe8f9457	-0.28042862
116	0xbdbb6ab9	-0.09151215
117	0x3c9ae6d3	0.018908894
118	0x3e39373e	0.1808748
119	0x3e30b899	0.17257918
120	0x3e4ebcc4	0.20189196
121	0x3e3d673b	0.1849641
122	0xbe1672ae	-0.14692184
123	0x3dc12b35	0.09432069
124	0xbdeccbee	-0.11562334
125	0x3dfab800	0.122421265
126	0x3e0a8a09	0.13529219
127	0x3d977dc1	0.073970325
128	0xbe20a55b	-0.15688078
129	0xbdcea7ec	-0.10090622
130	0xbd214ef0	-0.03938192
131	0x3d822adc	0.06355831
132	0x3e21208d	0.15735073
133	0x3d217cfb	0.03942583
134	0x3d26f3cb	0.040759843
135	0xbe254992	-0.16141346
136	0xb99bc446	-0.0002971014
137	0x3d86072f	0.06544339
138	0xbd812f9d	-0.0630791
139	0xbe781f5c	-0.24230713
140	0xbd950b01	-0.072774895
141	0xbd902364	-0.07038
142	0xbe9e9ed0	-0.3098054
143	0x3e1bce57	0.15215431
144	0x3b9b14f3	0.004732722
145	0x3e128f5a	0.14312497
146	0xbdfcd9ad	-0.12346206
147	0x3bd4d0cc	0.006494617
148	0xbe02f9b5	-0.12790568
149	0xbd9fe8bc	-0.078080624
150	0xbdb13eea	-0.08654578
151	0x3d3b3e13	0.045713495
152	0xbce49995	-0.027905265
153	0xbe38a457	-0.1803144
154	0x3e021847	0.12704574
155	0xbd3867a6	-0.04502072
156	0x3df7bac9	0.12096173
157	0xbcd9e532	-0.026598547
158	0xbe163adf	-0.14670895
159	0xbdb73dfb	-0.08947369
160	0xbe337813	-0.17526273
161	0xbd057d49	-0.032590184
162	0xbd8a67b2	-0.067580596
163	0xbe18d279	-0.14924039
164	0xbe2706ba	-0.1631116
165	0xbdb9e451	-0.09076751
166	0x3e021289	0.12702383
167	0xbcf2d33e	-0.029641744
168	0xbdfbad34	-0.12288895
169	0x3e253fd1	0.16137625
170	0x3ca6471b	0.020297578
171	0xbe2e8d15	-0.17046006
172	0xbc83575d	-0.016032869
173	0x3db11ccf	0.08648073
174	0xbdab31bd	-0.08359096
175	0x3e3acb38	0.18241584
176	0x3e453edf	0.19262265
177	0xbdde3d08	-0.108514845
178	0x3d48c897	0.049019422
179	0xbe1c97af	-0.15292238
180	0xbe16b6a4	-0.1471811
181	0xbc26533b	-0.01015168
182	0x3e2abcf2	0.1667364
183	0xbca5a5af	-0.020220606
184	0xbdb18971	-0.08668793
185	0xbd78a59b	-0.06070481
186	0xbdfacddb	-0.12246295
187	0x3dfe1c6b	0.12407764
188	0xbe1b147c	-0.15144533
189	0x3df2c1a4	0.1185334
190	0xbde73ae7	-0.112905316
191	0x3dfbdd67	0.122980885
192	0xbd29647e	-0.041355602
193	0x3e032c0f	0.12809776
194	0x3e09aa90	0.1344397
195	0x3cd8c82b	0.026462635
196	0x3e31abd1	0.17350699
197	0x3c7f80b7	0.015594653
198	0x3d4ae684	0.049536243
199	0x3ba78aea	0.0051129954
200	0xbba853af	-0.005136929
201	0x3e143ef8	0.14477146
202	0xbcd608ee	-0.026127305
203	0xbe09f745	-0.13473232
204	0x3c02f1ef	0.007992252
205	0x3e01aedf	0.12664364
206	0xbe21e2f3	-0.1580923
207	0x3dcfb4ce	0.10141908
208	0x3c66030f	0.014038815
209	0x3dd4d7c2	0.10392715
210	0x3e221206	0.15827188
211	0x3db81ef7	0.08990281
212	0xbd862e1a	-0.06551762
213	0x3d26d4c1	0.04073024
214	0x3e029d7f	0.12755392
215	0x3dc916cd	0.09818802
216	0xbd66579d	-0.0562359
217	0xbe51df58	-0.20495355
218	0x3db95004	0.09048465
219	0xbda8de8e	-0.08245574
220	0x3ca2b52c	0.01986178
221	0xbd8d3b07	-0.06896024
222	0x3dc550fd	0.09634588
223	0xbd12e1fd	-0.03586005
224	0xbe08709b	-0.13324206
225	0xbd61d89f	-0.055138227
226	0x3e2b66b8	0.16738403
227	0xbd10fe2c	-0.035398647
228	0xbd5603cb	-0.05224971
229	0xbd1e9401	-0.038715366
230	0x3d1bb6f5	0.03801628
231	0xbda9312c	-0.08261332
232	0xbd8034cd	-0.06260071
233	0x3db48acf	0.08815538
234	0x3e769825	0.24081476
235	0xbe093bc8	-0.13401711
236	0x3d8129f7	0.06306832
237	0x3d250759	0.04029021
238	0x3d3d188c	0.046165988
239	0x3dbb144d	0.091347314
240	0x3dc33aa2	0.09532668
241	0xbdac8962	-0.08424641
242	0x3cbf27b8	0.023334369
243	0xbe0fe931	-0.14053799
244	0xbdb0cc66	-0.08632736
245	0x3cda8816	0.026676219
246	0x3e16a6ce	0.14712068
247	0x3e47e14a	0.19519535
248	0x3e077d5b	0.13231413
249	0x3e3dea5e	0.18546435
250	0xbdabb0cf	-0.08383333
251	0x3dd89e55	0.105770744
252	0xbd9996d8	-0.07499474
253	0x3df4ee5c	0.11959526
254	0x3dbef68b	0.09324368
255	0x3de13a0b	0.10997399

fc3.bias f4 [32]
0	0xbdc8cbe4	-0.09804514
1	0xbd9fce4a	-0.078030184
2	0x3e38ac5c	0.180345
3	0xbd3a49e3	-0.04548062
4	0x3c660d67	0.014041281
5	0x3e4c5d56	0.1995748
6	0xbbb4052d	-0.005493781
7	0x3ae66e8d	0.0017580554
8	0x3e96cdf0	0.29453993
9	0xbdf49ed2	-0.11944355
10	0xbda5051e	-0.08057617
11	0x3bece140	0.0072290003
12	0x3d3fc5f3	0.04681964
13	0x3ef9b453	0.4877039
14	0x3e05ee03	0.13079076
15	0x3d9e4eea	0.077298954
16	0x3d111771	0.035422746
17	0x3dbdb627	0.092632584
18	0x3cdb3439	0.0267583
19	0x3d4776bb	0.048697215
20	0x3d99654e	0.074900255
21	0x3e86690a	0.26252013
22	0x3e63b99c	0.22238773
23	0xbcadd336	-0.021218877
24	0x3be08e04	0.006852867
25	0x3cb01110	0.021492511
26	0x3ec95ccf	0.3932862
27	0x3eb4128c	0.351704
28	0xbdb690a7	-0.08914309
29	0xbd8b8875	-0.068131365
30	0xbdb81ad0	-0.08989489
31	0x3e77e73e	0.24209306

norm3.weight f4 [32]
0	0x3fe558d2	1.7917731
1	0x3fcc7c18	1.597537
2	0x3f8a0cab	1.0785116
3	0x3fb785ad	1.433767
4	0x3fe02ca6	1.7513626
5	0x3f995ecf	1.1982058
6	0x3fbe874d	1.488504
7	0x3fd11f5b	1.6337694
8	0x3f47bec7	0.7802548
9	0x3fc113a7	1.5084122
10	0x3fc66f85	1.5502783
11	0x3fbe47c7	1.4865655
12	0x3fd50498	1.6642027
13	0x3efd5133	0.49476013
14	0x3fab6058	1.3388777
15	0x3f929c2d	1.1453911
16	0x3fb454c9	1.4088374
17	0x3fcfd0df	1.6235617
18	0x3fbfe191	1.4990712
19	0x3fcbea11	1.5930806
20	0x3fb18cd5	1.3871104
21	0x3f7e9e33	0.9946014
22	0x3f900dcc	1.125421
23	0x3fd1180b	1.6335462
24	0x3fb28962	1.3948176
25	0x3fb014c5	1.3756338
26	0x3f59a583	0.85018176
27	0x3f59c344	0.85063577
28	0x3fb6682c	1.4250541
29	0x3fc2cb86	1.521836
30	0x3fd12d6a	1.6341984
31	0x3f8fcda5	1.1234633

norm3.bias f4 [32]
0	0x3ed278b0	0.41107702
1	0x3e8d79a1	0.27631858
2	0xbcb49f2d	-0.022048557
3	0x3e7d7a1b	0.24753611
4	0x3e9fd43a	0.31216604
5	0x3e3a7910	0.18210244
6	0x3cabbcd3	0.020964062
7	0x3d805489	0.06266124
8	0xbd970cc8	-0.07375485
9	0x3e8f0b41	0.27938274
10	0x3e97d735	0.29656377
11	0x3e960700	0.29302216
12	0x3da0c3ab	0.07849821
13	0xbec45ad7	-0.38350555
14	0x3e2ff9cc	0.17185134
15	0x3c7ec065	0.0155488
16	0x3e20c994	0.15701896
17	0x3def0509	0.11670882
18	0x3d60755f	0.054799434
19	0x3db1f2b0	0.08688867
20	0x3e65dceb	0.22447555
21	0xbd9653cc	-0.07340202
22	0x3daab95b	0.08336135
23	0x3e9c16ae	0.30486053
24	0x3e879c10	0.26486254
25	0x3e65b492	0.22432163
26	0xbd8e9d8a	-0.06963642
27	0xbdc465f9	-0.09589762
28	0x3d8b1bd5	0.06792418
29	0x3d827679	0.06370253
30	0x3ea3355a	0.31876642
31	0xbbcb5e43	-0.006206305

fc4.weight f4 [1, 32]
0	0xbf44731f	-0.7673816
1	0xbf2b55cf	-0.6692781
2	0xbe5f4833	-0.21804886
3	0xbf1927b9	-0.59826237
4	0xbf54691e	-0.82972896
5	0x3ed2ed85	0.41196838
6	0x3f2ee759	0.6832176
7	0x3f48af40	0.7839241
8	0xbdad22bb	-0.0845389
9	0xbf1e8e64	-0.6193602
10	0xbf2f0bc1	-0.6837731
11	0xbf145a1d	-0.5795
12	0x3f44a581	0.7681504
13	0xbaecd5e4	-0.0018069115
14	0x3f02f975	0.5116189
15	0xbe92c510	-0.28665972
16	0x3f035a54	0.51309705
17	0x3f2e47f7	0.6807856
18	0x3f397386	0.724419
19	0x3f440629	0.765719
20	0x3ef80592	0.4844175
21	0xbe4328db	-0.19058554
22	0x3ea029e5	0.31281963
23	0xbf530531	-0.82429796
24	0xbf093533	-0.535968
25	0x3ef71ef1	0.48265794
26	0xbdda6232	-0.106632605
27	0xbdffd10f	-0.12491047
28	0x3f1d028f	0.6133203
29	0x3f2fb15b	0.6863
30	0xbf374bf5	-0.71600276
31	0x3ea4aa10	0.32160997
