models/big_model.pth (torch, 51152 bytes, 13 tensors)

fc1.weight f4 [128, 5]
0	0xbe67c358	-0.22633111
1	0x3e1ddd22	0.15416387
2	0x3c8fed0c	0.017569087
3	0x3e6900bb	0.22754185
4	0xbe83e685	-0.2576181
5	0xbf04a8dc	-0.5182016
6	0x3e151841	0.14560033
7	0x3c755380	0.014973521
8	0x3e5a5de8	0.21324885
9	0x3c2ebd78	0.01066529
10	0x3ce410ca	0.027840037
11	0xbd9bff97	-0.07617109
12	0x3e085aad	0.1331584
13	0xbe402114	-0.18762618
14	0xbcbac322	-0.022798125
15	0xbcda3909	-0.026638525
16	0x3ecd9d86	0.40159243
17	0xbe81e1cf	-0.2536759
18	0x3eb49151	0.35267118
19	0xbe07c8cf	-0.13260196
20	0xbf04a6e0	-0.5181713
21	0x3eb97b6e	0.36226982
22	0x3e10591a	0.1409649
23	0xbe12dc04	-0.14341742
24	0xbe995d1b	-0.29953846
25	0x3ed9a85a	0.42511255
26	0xbe88a60a	-0.26689178
27	0xbeb4e884	-0.35333645
28	0xbe978303	-0.29592142
29	0xbe8c4fa2	-0.27404505
30	0x3eaa9573	0.33317146
31	0xbea2c54b	-0.31791148
32	0xbdbb1db0	-0.09136522
33	0x3e6c7934	0.2309311
34	0x3e96d6de	0.29460806
35	0xbee67c70	-0.45016813
36	0x3ea3f668	0.3202393
37	0x3e1cf042	0.15326026
38	0x3e2cb17f	0.16864584
39	0xbe71937b	-0.23591416
40	0xbf1fb291	-0.62381846
41	0xbebef537	-0.3729646
42	0x3e83ea76	0.25764817
43	0xbed26d80	-0.41099167
44	0xbe072449	-0.13197435
45	0xbe2d91e9	-0.16950192
46	0x3e55de38	0.20885551
47	0xbe94e67c	-0.29082096
48	0x3dbb64dd	0.091500975
49	0xbde07284	-0.10959342
50	0xbdd77594	-0.10520473
51	0xbe4a5e8d	-0.19762631
52	0x3e6284b7	0.22120939
53	0x3d98f956	0.07469432
54	0xbc8c3b29	-0.017118054
55	0xbf1326e4	-0.5748122
56	0x3e2cf126	0.16888866
57	0x3ccc1c2c	0.024915777
58	0xbe43df38	-0.1912812
59	0x3c467487	0.012112743
60	0xbf0652a9	-0.5246988
61	0xbdcecd40	-0.10097742
62	0x3ec9ecd8	0.3943851
63	0x3e5c8a0e	0.21537039
64	0x3d86a07c	0.06573579
65	0xbea08d69	-0.31357887
66	0x3e32d17f	0.17462729
67	0xbe8764ee	-0.2644419
68	0x3e78a21e	0.24280593
69	0x3d7612c9	0.06007651
70	0xbe11e758	-0.14248407
71	0x3dda2b8e	0.10652839
72	0x3cca4a5b	0.024693659
73	0x3ea133e8	0.31484914
74	0xbdb38212	-0.08765043
75	0xbdadd474	-0.08487788
76	0xbdf5286b	-0.119706
77	0x3e12b1cb	0.14325635
78	0xbdd2e5f7	-0.102977686
79	0x3e3d5494	0.18489295
80	0x3e650999	0.22366942
81	0x3d63153d	0.055440176
82	0xbdf5cdda	-0.12002154
83	0xbe179d87	-0.14806186
84	0x3e920274	0.28517497
85	0x3dbeb375	0.093115725
86	0xbe06cf2d	-0.13164969
87	0x3eb67cf3	0.35642204
88	0x3e3dba14	0.18528014
89	0x3e8bb487	0.2728617
90	0xbe89daa8	-0.26924634
91	0x3e134aad	0.14383955
92	0x3ca316a4	0.019908257
93	0xbe915af9	-0.2838972
94	0xbe393b2b	-0.18088977
95	0x3ea596d5	0.32341638
96	0x3e15f7b4	0.14645272
97	0xbe82dc65	-0.25558773
98	0xbe5334df	-0.20625637
99	0x3e869a00	0.26289368
100	0xbe7f9ef9	-0.24962987
101	0xbdaaeae8	-0.08345586
102	0x3e290e7d	0.16509433
103	0x3ecec1d2	0.40382248
104	0x3df31777	0.1186971
105	0xbb096f2d	-0.0020970807
106	0xbd634e04	-0.055494323
107	0xbc88c239	-0.016694175
108	0x3ea219d5	0.31660333
109	0xbef5ec03	-0.48031625
110	0xbf2cd797	-0.67516464
111	0xbe8c9b12	-0.2746206
112	0xbc9e5cb6	-0.019331317
113	0xbe7b043b	-0.24513333
114	0x3c06860b	0.008210669
115	0xbeae1cfe	-0.34006494
116	0xbec28b8a	-0.37997085
117	0xbe0e13c8	-0.13874733
118	0x3e4c2b16	0.19938311
119	0xbeaa51d3	-0.33265552
120	0xbdb4156b	-0.08793148
121	0x3ebf62dd	0.37380114
122	0x3d69c908	0.057076484
123	0x3ef05f0c	0.46947515
124	0x3e175f0a	0.14782348
125	0xbea715b7	-0.32633755
126	0x3ea389e4	0.3194114
127	0xbd53d615	-0.051717836
128	0x3ea44b95	0.32088915
129	0x3e02442b	0.12721317
130	0x3e16579c	0.14681858
131	0xbdaf558e	-0.0856124
132	0x3ed53b75	0.41646925
133	0xbeba7dfd	-0.36424246
134	0x3e93a49a	0.2883652
135	0xbef2c6b4	-0.47417223
136	0xbdc8e559	-0.098093696
137	0x3ebc8c50	0.368258
138	0x3e09589e	0.13412711
139	0xbe77a736	-0.2418488
140	0xbf2d5f96	-0.6772398
141	0xbd8eb29d	-0.069676615
142	0xbdbfcd14	-0.093652874
143	0xbe07903c	-0.13238615
144	0xbe4b1540	-0.19832325
145	0xbd9f127b	-0.07767197
146	0xbe93c37c	-0.2886008
147	0xbda8f0c4	-0.082490474
148	0x3ee20fa6	0.44152564
149	0xbea06185	-0.31324401
150	0x3e0e4158	0.13892114
151	0x3c519841	0.012792648
152	0xbeb3be21	-0.35105994
153	0xbd260652	-0.04053337
154	0x3ebaa8b9	0.3645685
155	0x3e23b605	0.15987404
156	0x3e6f29ee	0.23355839
157	0xbe18b2b5	-0.14911921
158	0x3d346bc1	0.044048075
159	0x3ea3966e	0.31950706
160	0x3dbf75be	0.093486294
161	0xbebbaafb	-0.36653885
162	0xbca6a7b8	-0.020343646
163	0x3e95c51e	0.2925195
164	0xbe13cb02	-0.1443291
165	0x3d536743	0.05161215
166	0xbe48bbd4	-0.196029
167	0x3c6f1a59	0.014593684
168	0x3df530ba	0.119721845
169	0xbeae9790	-0.34100008
170	0xbf11e731	-0.56993395
171	0xbe764572	-0.24049929
172	0xbe18ddb1	-0.14928319
173	0xbd85d169	-0.065340824
174	0xbe477079	-0.19476499
175	0xbeebacee	-0.46030372
176	0x3d2eee01	0.042707447
177	0xbe7cc460	-0.24684286
178	0x3e6a459b	0.22878115
179	0x3e04be06	0.12963113
180	0xbe53f453	-0.20698671
181	0xbb9ce4b0	-0.004788004
182	0x3daeb527	0.08530646
183	0xbe8bfaf4	-0.273399
184	0xbe334265	-0.17505796
185	0xbdfc8dc2	-0.12331726
186	0x3ea1e0d2	0.31616837
187	0x3eb42790	0.35186434
188	0x3ec6fefa	0.38866407
189	0x3e89c199	0.26905516
190	0xbe9bbdc4	-0.30418217
191	0xbcd1fb63	-0.025632566
192	0x3e845cc2	0.2585202
193	0xbe56fa8e	-0.20994017
194	0x3e69b5bb	0.22823231
195	0x3e796d2b	0.2435805
196	0x3e1a8398	0.15089262
197	0x3e906115	0.28199068
198	0xbaf16dc0	-0.0018419549
199	0xbe40dfe6	-0.1883541
200	0x3f1a58ab	0.60291547
201	0xbd90cad3	-0.07069936
202	0x3e0b30d4	0.13592845
203	0x3e9786e0	0.2959509
204	0xbeb3c616	-0.35112065
205	0x3e2d4782	0.1692181
206	0x3e94b6dc	0.2904576
207	0xbecdb499	-0.40176848
208	0xbdc917c6	-0.098189875
209	0xbe16460d	-0.1467516
210	0xbd9d3ffa	-0.07678218
211	0x3eca929c	0.3956498
212	0xbc881f5a	-0.016616512
213	0xbe839107	-0.25696585
214	0x3eb8ae14	0.3607031
215	0xbe0da3a3	-0.13831954
216	0x3d553a2e	0.052057438
217	0xbc30796c	-0.010771137
218	0x3ed11e97	0.4084365
219	0xbe00c785	-0.1257611
220	0xbe1b25e0	-0.15151167
221	0x3e2d707c	0.1693744
222	0x3c6aba54	0.014326651
223	0xbed19b8e	-0.4093899
224	0x3eb95f83	0.36205682
225	0xbf02a5d0	-0.5103426
226	0xbc59f7e9	-0.013303735
227	0x3e8aef4d	0.27135697
228	0x3e9632b4	0.29335558
229	0x3d84fd7e	0.06493662
230	0x3f048ac2	0.5177423
231	0xbe1585d1	-0.14601828
232	0x3e807294	0.25087416
233	0xbe4982b8	-0.19678771
234	0x3e8165d1	0.25272992
235	0xbef34fa4	-0.47521698
236	0x3db4d2c0	0.0882926
237	0x3ea7c438	0.3276689
238	0x3df7ad3c	0.12093589
239	0xbd6ca00b	-0.057769816
240	0x3ef3cfeb	0.47619566
241	0xbe31818d	-0.17334576
242	0x3d344899	0.044014547
243	0x3dc1b2d9	0.094579406
244	0xbed36baf	-0.41293094
245	0xbe1b294c	-0.15152472
246	0x3d5bcf4d	0.053664494
247	0xbd518527	-0.051152375
248	0xbe980e6b	-0.296985
249	0xbeb7d787	-0.35906622
250	0x3d07cf7b	0.033156853
251	0xbd87822a	-0.06616624
252	0x3daf63bf	0.08563947
253	0x3e99f91c	0.30072868
254	0xbeb21acd	-0.34786072
255	0xbc856059	-0.016281294

fc1.bias f4 [128]
0	0x3ebb1829	0.3654187
1	0x3cb558dc	0.022137098
2	0x3dd532ef	0.104101054
3	0x3eebddbf	0.46067616
4	0xbeb968cf	-0.36212775
5	0x3e2065f3	0.1566389
6	0xbe83f502	-0.25772864
7	0xbea28ea3	-0.31749448
8	0xbe320aaf	-0.17386888
9	0x3e309d27	0.17247449
10	0xbd2b8a7d	-0.04188012
11	0x3e43fb91	0.19138934
12	0xbe4ca81e	-0.19986007
13	0x3bbd3041	0.0057735746
14	0x3e118a0f	0.14212821
15	0x3db22b65	0.08699683
16	0xbdc22343	-0.09479382
17	0xbe67b14e	-0.2262623
18	0x3ea5b0b6	0.32361382
19	0xbe9e7e32	-0.30955654
20	0x3ee143b9	0.4399698
21	0xbe0464c3	-0.12929063
22	0x3e4b7bb4	0.19871408
23	0xbe5b7c8e	-0.21434233
24	0xbe88be35	-0.26707616
25	0x3eb8015b	0.35938534
26	0xbe8f6113	-0.2800375
27	0xbdb75d00	-0.08953285
28	0xbe157049	-0.14593615
29	0x3ed0d4d1	0.40787366
30	0xbe71168d	-0.23543759
31	0x3e5fef89	0.21868719
32	0xbeb18e9c	-0.34679115
33	0xbe99dbc2	-0.30050474
34	0x3e04ba58	0.1296171
35	0x3e269569	0.16267933
36	0xbe85fe10	-0.26170397
37	0x3ef6486e	0.48102134
38	0x3ea6ba4d	0.3256401
39	0x3ea4761c	0.3212136
40	0x3e9c3a4d	0.3051323
41	0x3ed19f52	0.40941864
42	0x3d21361c	0.039358243
43	0x3e4c6cda	0.19963399
44	0xbe454d7c	-0.19267839
45	0x3d99d564	0.07511404
46	0xbd79a7d1	-0.060951058
47	0xbe27771b	-0.16354029
48	0xbea4860a	-0.32133514
49	0x3ed29116	0.41126317
50	0xbe8371b0	-0.25672674
51	0xbe3fba3d	-0.18723388
52	0x3e0563d3	0.13026361
53	0xbe99d9e3	-0.30049047
54	0x3e8f413b	0.27979454
55	0xbe942135	-0.28931585
56	0x3e7b4994	0.24539787
57	0x3ec17527	0.37784693
58	0xbd6793eb	-0.05653755
59	0xbe93cfa6	-0.2886936
60	0x3ebd93f7	0.3702695
61	0x3eb512d3	0.35365924
62	0x3eb14d58	0.3462932
63	0x3e7a6680	0.24453163
64	0xbea9772e	-0.3309874
65	0x3ca39c96	0.019972127
66	0xbe10dd15	-0.14146836
67	0xbe7a0a31	-0.2441795
68	0x3db63e58	0.0889861
69	0x3e910168	0.28321385
70	0x3e495eb5	0.19665034
71	0x3e873cdb	0.26413617
72	0xbe9df86b	-0.3085359
73	0xbe3e0d39	-0.18559732
74	0x3e4b7a53	0.19870882
75	0x3e94603d	0.28979674
76	0x3db730c2	0.08944847
77	0xbe5fb713	-0.21847181
78	0xbe16b645	-0.14717968
79	0xbe6ca810	-0.23110986
80	0x3d1fe7ed	0.03903954
81	0xbc9af141	-0.018913867
82	0x3cb8ef88	0.022575155
83	0x3e84e491	0.25955632
84	0x3c8c2b41	0.017110469
85	0xbeb86f1a	-0.36022264
86	0xbe7c6815	-0.24649079
87	0x3e22a0d4	0.15881664
88	0xbee19898	-0.44061732
89	0x3ea4d225	0.32191578
90	0x3d655fe2	0.055999644
91	0x3ebc73e4	0.36807168
92	0x3e836dc6	0.25669688
93	0x3deeda70	0.116627574
94	0xbdf61117	-0.120149784
95	0x3e93a194	0.28834212
96	0xbc10e677	-0.00884401
97	0xbe5bdc6b	-0.21470802
98	0xbe8032ef	-0.2503886
99	0x3e21cd58	0.15800989
100	0xbe4b5c11	-0.1985934
101	0xbe9d7669	-0.30754402
102	0x3e8122fd	0.25222006
103	0x3c60963a	0.013707692
104	0x3e216346	0.15760526
105	0xbe457fa1	-0.19286968
106	0xbe475c9f	-0.19468926
107	0x3e47a261	0.19495536
108	0xbe10a10f	-0.14123939
109	0x3e1c204d	0.15246697
110	0x3d88fb5f	0.0668857
111	0x3eb0b957	0.34516403
112	0x3e4a552e	0.19759056
113	0xbe7d2009	-0.24719252
114	0x3eb2447b	0.3481787
115	0x3cb41622	0.02198321
116	0x3da26165	0.07928733
117	0x3ca673df	0.020318924
118	0x3da677a1	0.08128286
119	0xbea0c6e5	-0.31401744
120	0x3e720928	0.23636305
121	0xbeb476cc	-0.35246885
122	0xbe84b4f8	-0.25919318
123	0xbe831f24	-0.25609696
124	0x3ea38de1	0.31944183
125	0xbeb2d874	-0.34930766
126	0xbe3daa20	-0.18521929
127	0x3ec8cdb9	0.39219454

norm1.weight f4 [128]
0	0x3f85a794	1.0441766
1	0x3f9ea4b6	1.2394016
2	0x3f7a7285	0.9783099
3	0x3f7e4c53	0.9933521
4	0x3f8092a4	1.0044751
5	0x3f6f1e0c	0.9340522
6	0x3f6816dc	0.9065988
7	0x3f8140e7	1.0097932
8	0x3f84b940	1.0369034
9	0x3f743d73	0.95406264
10	0x3f6decc2	0.9293939
11	0x3f777b3a	0.96672404
12	0x3f7aea6d	0.98013955
13	0x3f831adb	1.0242571
14	0x3f83a810	1.0285664
15	0x3f79ddf8	0.9760432
16	0x3f7c0125	0.98439246
17	0x3f7140a5	0.94239265
18	0x3f73348a	0.95002043
19	0x3f7c49d4	0.9855015
20	0x3f6632b3	0.8992111
21	0x3f829342	1.020119
22	0x3f841c37	1.032111
23	0x3f70be52	0.94040406
24	0x3f826a1a	1.018863
25	0x3f771a8c	0.9652488
26	0x3f86cdbf	1.0531539
27	0x3f7531fa	0.95779383
28	0x3f88ede9	1.0697604
29	0x3f6a9c6e	0.9164494
30	0x3f7414e4	0.95344377
31	0x3f6d07b6	0.9258989
32	0x3f7b7994	0.9823239
33	0x3fad870b	1.3556837
34	0x3f7b880c	0.98254466
35	0x3f79ef7e	0.9763106
36	0x3f81e92a	1.0149281
37	0x3f6f2176	0.9341043
38	0x3f62c816	0.88586557
39	0x3f67f6c4	0.9061091
40	0x3f63d09d	0.88990194
41	0x3f6b7816	0.9198011
42	0x3f707c06	0.93939245
43	0x3f743ebb	0.9540822
44	0x3f7ed7c5	0.9954799
45	0x3f6f652a	0.9351374
46	0x3f814559	1.0099288
47	0x3f844f0b	1.0336622
48	0x3f8a5a6b	1.0808843
49	0x3f6a9422	0.9163228
50	0x3f81be28	1.0136156
51	0x3f842e80	1.0326691
52	0x3f7564c8	0.95856905
53	0x3f7be4a0	0.9839573
54	0x3f75ef33	0.96068114
55	0x3f89af96	1.075671
56	0x3f6459b6	0.8919939
57	0x3f7a8be4	0.97869706
58	0x3f69e4b8	0.9136462
59	0x3f813ed7	1.0097302
60	0x3f762634	0.96152043
61	0x3f64f0f1	0.8943015
62	0x3f7f6a96	0.9977201
63	0x3f731a7b	0.9496228
64	0x3f8571d4	1.0425363
65	0x3f7c845c	0.98639464
66	0x3f7d2438	0.9888339
67	0x3f8d1e2a	1.102483
68	0x3f67a644	0.90488076
69	0x3f73b494	0.95197415
70	0x3f75eb60	0.9606228
71	0x3f6c6736	0.9234499
72	0x3f825286	1.0181434
73	0x3f8c5a1e	1.0965002
74	0x3f6e9cd2	0.9320804
75	0x3f6a52dd	0.9153269
76	0x3f6e5023	0.9309103
77	0x3f83a812	1.0285666
78	0x3f7488a0	0.95520973
79	0x3f8064bc	1.0030742
80	0x3f974482	1.1817782
81	0x3f6fda6a	0.9369265
82	0x3f6d6de6	0.92745817
83	0x3f6c6241	0.92337424
84	0x3f67efab	0.9060008
85	0x3f89ad77	1.0756062
86	0x3f8006fb	1.000213
87	0x3f635200	0.88797
88	0x3f7f7c43	0.99798983
89	0x3f684457	0.9072928
90	0x3f64ca81	0.89371496
91	0x3f741f03	0.9535982
92	0x3f65e26e	0.8979863
93	0x3f875f8e	1.0576036
94	0x3f74d28c	0.9563377
95	0x3f67b2c4	0.9050715
96	0x3f701204	0.9377749
97	0x3f8120a0	1.0088081
98	0x3f80ec8f	1.0072192
99	0x3f67246a	0.9028994
100	0x3f7d11b0	0.98855114
101	0x3f7eb9fa	0.9950253
102	0x3f6db61f	0.9285602
103	0x3f6cfa92	0.9256984
104	0x3f6a1f8e	0.914544
105	0x3f7ba71c	0.98301864
106	0x3f95f747	1.1716088
107	0x3f85e189	1.0459453
108	0x3f715af6	0.9427942
109	0x3f8a73db	1.0816606
110	0x3f6ad013	0.91723746
111	0x3f674389	0.90337425
112	0x3f6b641d	0.91949636
113	0x3f86ab78	1.0521078
114	0x3f6d9e85	0.92820007
115	0x3f70b80b	0.9403083
116	0x3f8aeb14	1.085299
117	0x3f76808a	0.96289885
118	0x3f70c6ff	0.94053644
119	0x3f81d6c8	1.0143671
120	0x3f692436	0.9107088
121	0x3f85cc70	1.0453014
122	0x3f864627	1.0490159
123	0x3f7151af	0.94265264
124	0x3f835c1a	1.0262482
125	0x3f869421	1.0513955
126	0x3f720876	0.9454416
127	0x3f6f7058	0.935308

norm1.bias f4 [128]
0	0x3cf537db	0.02993386
1	0x3cd81512	0.026377235
2	0xbb89eb7e	-0.004208981
3	0xbdb27b9b	-0.08714982
4	0xbc9a807f	-0.0188601
5	0xbcfe4ab9	-0.03104149
6	0xbdadc776	-0.0848531
7	0x3c67b676	0.014142623
8	0x3cb322ec	0.021867238
9	0xbdacf990	-0.08446038
10	0xbd26466a	-0.040594496
11	0xbceda914	-0.029011287
12	0xbc64e5f6	-0.013970843
13	0x3c8007a2	0.01562864
14	0xbda86f3b	-0.082243405
15	0xbc0d901e	-0.008640317
16	0x3c013baf	0.007887765
17	0xbd5579c8	-0.052118093
18	0xbdb37cb3	-0.08764019
19	0xbca9c23e	-0.020722505
20	0xbe148243	-0.14502816
21	0x3c2b0bb5	0.010439803
22	0xbdcae971	-0.09907807
23	0x3b4efda0	0.0031584278
24	0xbcee66c3	-0.029101735
25	0xbd61559d	-0.055013288
26	0xbc43b68a	-0.011945376
27	0xbc945715	-0.01810793
28	0x3ca44ebb	0.020057073
29	0xbdf6551c	-0.12027952
30	0xbd27271f	-0.040808793
31	0xbd78da75	-0.06075521
32	0x3c3df6aa	0.011594454
33	0x3cd8e82e	0.0264779
34	0xbd07b6c6	-0.03313329
35	0xbd6cdc40	-0.057827234
36	0x3cd22bd3	0.025655663
37	0xbdaca0fd	-0.084291436
38	0xbd3b3edf	-0.045714255
39	0xbdb5f324	-0.08884266
40	0xbdd51e43	-0.104061626
41	0xbdbba7e9	-0.09162886
42	0xbd977b98	-0.073966205
43	0xbe07c32a	-0.13258043
44	0xbd79ff67	-0.061034586
45	0xbd74436c	-0.05963461
46	0x39f6cf80	0.00047075376
47	0x3c6a54c9	0.014302441
48	0x3df3534e	0.118811235
49	0xbd71152c	-0.05885808
50	0xbd0f42b2	-0.034975715
51	0xbd2ef5bb	-0.042714816
52	0xbd03c09f	-0.03216612
53	0xbdb4d5bb	-0.08829828
54	0xbdd22f02	-0.10262872
55	0x3d86ed53	0.06588235
56	0xbde601ab	-0.11230787
57	0xbdd65845	-0.10466055
58	0xbd842464	-0.064522535
59	0xbc966d28	-0.018362597
60	0xbd9f2134	-0.07770005
61	0xbc882b37	-0.016622169
62	0xbdfc4bc2	-0.12319137
63	0xbd37801b	-0.044799905
64	0xbc80f24a	-0.015740532
65	0xbd57e474	-0.052708104
66	0xbcf1d0e1	-0.029518547
67	0x3d5d928b	0.054094832
68	0xbdddb3db	-0.1082532
69	0xbd82273a	-0.06355138
70	0xbd24f839	-0.040275786
71	0xbd745315	-0.059649546
72	0x3a58dd7c	0.000827275
73	0xbc3cf3b9	-0.011532717
74	0xbd0ef70f	-0.034903582
75	0xbddac3d0	-0.106818795
76	0xbdcdbf2e	-0.1004623
77	0xbc924e15	-0.017859498
78	0xbd13d699	-0.03609333
79	0xbd641c28	-0.055690914
80	0x3c958361	0.018251123
81	0xbd8fbef8	-0.07018846
82	0xbd0865c4	-0.033300176
83	0xbd51bcbf	-0.051205393
84	0xbd98a4c5	-0.07453302
85	0x3d0deff4	0.034652665
86	0x3d1b7905	0.03795721
87	0xbe059c60	-0.13047934
88	0xbd0c125e	-0.034197204
89	0xbdcbfbde	-0.09960149
90	0xbda1c526	-0.07898931
91	0xbddbbe67	-0.10729676
92	0xbd7135f7	-0.058889356
93	0x3ca8dfde	0.02061456
94	0x3b21a3a2	0.0024664183
95	0xbdb1933c	-0.08670661
96	0xbd57f0b6	-0.052719794
97	0xbd83c17c	-0.064333886
98	0xbc27980e	-0.010229124
99	0xbd9c1eca	-0.0762306
100	0xbd4eeb01	-0.050517086
101	0xbd3d186a	-0.04616586
102	0xbdb03f2b	-0.08605798
103	0xbdcd9e25	-0.10039929
104	0xbd893168	-0.066988766
105	0xbc419259	-0.011814677
106	0xbc8fc5bc	-0.017550342
107	0xbd9724f6	-0.073800966
108	0xbc79bd72	-0.015242921
109	0xbd5e1249	-0.054216657
110	0xbd8603b3	-0.06543674
111	0xbda4bc6e	-0.080437526
112	0xbda8585c	-0.08219978
113	0xbd63814b	-0.055543225
114	0xbd9f32a5	-0.077733316
115	0xbd92687c	-0.07148835
116	0x3d259010	0.04042059
117	0xbca7a3f8	-0.020463929
118	0xbdbd9add	-0.092580535
119	0xbd14b801	-0.036308292
120	0xbd81241e	-0.06305717
121	0x3d72e0ce	0.05929642
122	0x3c6e0b82	0.014529111
123	0xbd878356	-0.06616847
124	0x3a5690e0	0.000818504
125	0xbc55b826	-0.013044393
126	0xbd53a324	-0.051669255
127	0xbdb6ed55	-0.08931986

fc2.weight f4 [64, 128]
0	0xbce63463	-0.028101152
1	0xbe489904	-0.19589621
2	0x3c28d237	0.010304025
3	0xbe0e211e	-0.1387982
4	0xbcf4e80e	-0.029895809
5	0xbdb31cfd	-0.087457635
6	0xbd6332bb	-0.055468302
7	0xbb00978d	-0.0019621581
8	0xbdbefcf7	-0.09325593
9	0x3c94d750	0.018169075
10	0xbcdccf3d	-0.026954288
11	0xbd69df9c	-0.057098016
12	0x3d7d2567	0.061803248
13	0xbd445533	-0.047932815
14	0xbe4ff89f	-0.20309685
15	0x3c100918	0.008791231
16	0x3d49fac5	0.049311418
17	0x3c543184	0.012951259
18	0xbd23dc68	-0.040005118
19	0x3de4a1e0	0.11163688
20	0xbd7b48bf	-0.061348673
21	0xbe1c787f	-0.1528034
22	0xbdbc4163	-0.09192159
23	0x3d33220a	0.043733634
24	0xbdfc1727	-0.123091035
25	0xbe2a3f72	-0.16625765
26	0x3db7cac1	0.08974219
27	0x3cf26f01	0.029593946
28	0xbd366979	-0.04453418
29	0xbd857f60	-0.065184355
30	0x3ca41d9f	0.020033656
31	0x3d2f13fd	0.04274367
32	0xbd52ef35	-0.051497657
33	0x3dbf0b4b	0.09328326
34	0xbd095089	-0.03352407
35	0x3d4b9cb4	0.04970999
36	0xbdb1418e	-0.08655082
37	0xbd8cf15f	-0.068819754
38	0xbd68e176	-0.05685564
39	0xbd073716	-0.03301152
40	0x3a42f11b	0.000743644
41	0xbc75fbf8	-0.015013687
42	0xbd097f42	-0.033568628
43	0xbdd46207	-0.1037026
44	0xbded1082	-0.11575414
45	0xbd0036ae	-0.031302147
46	0x3d178684	0.03699352
47	0xbd0f2061	-0.03494299
48	0x3dff4b50	0.124655366
49	0xbc9c80a1	-0.019104304
50	0x3ce39b80	0.02778411
51	0xbe262231	-0.1622398
52	0xbd0d1aa5	-0.03444924
53	0x3c8ec55f	0.017428098
54	0xbdb4735c	-0.088110656
55	0x3d041d5e	0.03225457
56	0xbd5bd150	-0.053666413
57	0xbe0aa368	-0.13538897
58	0xbdb0bccb	-0.086297594
59	0x3e178d80	0.14800072
60	0xbdbda83d	-0.092606045
61	0xbd83b170	-0.06430328
62	0xbd9fe370	-0.07807052
63	0xbc68be99	-0.014205598
64	0x3d425cbf	0.04745173
65	0x3d4e84dd	0.050419677
66	0xbd39e0d9	-0.045380447
67	0xbda9b268	-0.082859814
68	0xbd276535	-0.040868003
69	0xbd45f65a	-0.048330642
70	0x3c9cf7c9	0.019161122
71	0xbdb8983f	-0.09013414
72	0xbc6e031f	-0.014527111
73	0x3a7cfd57	0.00096507877
74	0xbc8c15ba	-0.017100204
75	0xbcca26a0	-0.024676621
76	0xbcccca25	-0.024998734
77	0x3de77d24	0.113031656
78	0x3da8ba80	0.08238697
79	0x3d745f1d	0.05966102
80	0xbd80e21a	-0.062931255
81	0x3d453bde	0.048152797
82	0x3c2eafbf	0.010662018
83	0x3cad8c71	0.021185132
84	0x3d192fe5	0.03739919
85	0x3e0bfc9a	0.13670579
86	0x3d8637fd	0.06553648
87	0xbb0ff316	-0.002196496
88	0x3dda71b8	0.106662214
89	0xbbb6582e	-0.005564711
90	0x3dabdd54	0.08391824
91	0xbd1282fc	-0.035769448
92	0xbdb55345	-0.08853773
93	0x3d4b7b29	0.049678
94	0x3d7a8d50	0.061169922
95	0x39ea7165	0.00044716444
96	0xbca8d205	-0.020607958
97	0x3ce754ba	0.028238643
98	0x3c5e9769	0.013585904
99	0x3d9a3d45	0.075312175
100	0x3c0d95ad	0.0086416425
101	0x3d992a91	0.07478822
102	0xbd126077	-0.035736527
103	0x3c999c5c	0.018751316
104	0xbd7bd2ec	-0.061480448
105	0x3c9f6c4c	0.01946082
106	0xbdaebf79	-0.08532614
107	0xbe35bfef	-0.17748998
108	0xbd01a372	-0.031650014
109	0xbd966482	-0.07343389
110	0x3d66a869	0.056312952
111	0xbd225264	-0.039629355
112	0xbd0934e5	-0.03349771
113	0xbe62b3de	-0.22138926
114	0xbe08b78c	-0.13351268
115	0x3d01108e	0.03150993
116	0x3da29068	0.079376996
117	0x3e01f338	0.12690437
118	0xbddacb55	-0.10683314
119	0x3d560a18	0.05225572
120	0xbc67ea47	-0.014154977
121	0x3db83a0b	0.08995446
122	0x3da09dc2	0.0784259
123	0xbd1c746b	-0.038196962
124	0xbbd04265	-0.006355571
125	0xbdb866ae	-0.090039596
126	0x3d9cdbf4	0.0765914
127	0xbd3f75e8	-0.046743304
128	0x3d15ae57	0.036543217
129	0xbe21e751	-0.15810896
130	0xbbea55d8	-0.0071513467
131	0x3d00d511	0.031453196
132	0xbc5b2650	-0.013375834
133	0xbb85eaad	-0.0040868134
134	0xbba6cbbf	-0.0050902064
135	0xbb6f7a93	-0.0036541566
136	0xbcbeba39	-0.023282157
137	0x3d983cb1	0.07433451
138	0xbd8a9719	-0.06767101
139	0xbc28e417	-0.010308287
140	0xbd009a76	-0.031397305
141	0xbc92dd9e	-0.017927941
142	0x3d826b9a	0.063681796
143	0xbc8aa753	-0.01692549
144	0x3d648ef5	0.055800397
145	0x3d237949	0.03991059
146	0xbb5f88c2	-0.0034108614
147	0xbce92519	-0.028460072
148	0x3d94f15d	0.07272599
149	0xbc9faa83	-0.019490486
150	0xbd0f46de	-0.034979694
151	0x3d8a4c11	0.0675279
152	0xbd93ee8a	-0.07223232
153	0x3db48847	0.08815055
154	0xbc8d5822	-0.017253939
155	0x3cf533c1	0.029931905
156	0xbdb86155	-0.090029396
157	0xbd0caa87	-0.034342315
158	0x3d207035	0.03916951
159	0xbc960144	-0.01831115
160	0x3daeaebb	0.08529421
161	0x3e88a9e1	0.26692107
162	0x3cc100b9	0.023559915
163	0x3cd75691	0.026286395
164	0xbdad721d	-0.08469031
165	0xbd08a39e	-0.033359163
166	0x3d8b0e76	0.067898676
167	0x3d82386a	0.063584164
168	0x3d328277	0.043581452
169	0x3ceea723	0.029132431
170	0x3d9af0cc	0.075654596
171	0x3d545fb7	0.051849093
172	0x3db8df06	0.09026913
173	0x3caa540d	0.020792032
174	0x3d1fe166	0.039033316
175	0xbdfb99bd	-0.122851826
176	0x3d686e13	0.0567456
177	0x3c785cbc	0.015158828
178	0xbc50b58e	-0.0127385985
179	0x3dd0aa0d	0.101886846
180	0xbc289ad7	-0.010290823
181	0x3d0c4c69	0.034252558
182	0x3bdd08b6	0.006745423
183	0x3e0dc3ef	0.13844274
184	0xbcff36f6	-0.031154137
185	0x3d9075c8	0.07053715
186	0x3d869ac2	0.065724865
187	0xbd0a00a5	-0.03369202
188	0x3ca3847f	0.01996064
189	0xbd02bf19	-0.031920526
190	0xbd3c0c12	-0.04590995
191	0xbccf2b58	-0.025289223
192	0xbd7743e3	-0.060367476
193	0xbab96592	-0.001414465
194	0xbd7a1c58	-0.061062187
195	0xbd550949	-0.05201081
196	0xbd0f97fe	-0.03505706
197	0xbd518c4e	-0.051159196
198	0xbc34694c	-0.011011433
199	0xbd32e480	-0.043674946
200	0x3d1bb16d	0.038011003
201	0x3daadefe	0.08343314
202	0x3d374058	0.044739097
203	0xbc9bfc7e	-0.019041296
204	0x3d36d681	0.04463816
205	0x3d83951d	0.064249255
206	0xbdcf307c	-0.101166695
207	0x3d8cb7a2	0.06870963
208	0xbdb2e147	-0.087343745
209	0x3d41d3f5	0.04732128
210	0xbb8f5fc9	-0.004375432
211	0x3be561a8	0.007000167
212	0x3d20107c	0.03907822
213	0x3b9fc695	0.0048759677
214	0x3d9bc12f	0.07605206
215	0xbd98a19c	-0.074526995
216	0x3d183c28	0.037166744
217	0x3ce5cba1	0.0280512
218	0x3da59f40	0.08087015
219	0xbd13a8e2	-0.03604973
220	0xbc07079d	-0.008241561
221	0xbd33787d	-0.04381608
222	0xbc9d8a28	-0.019230917
223	0xbc94255c	-0.01808422
224	0xbc598433	-0.013276148
225	0x3df4fa55	0.119618095
226	0xbcf3885e	-0.02972811
227	0xbc2277e9	-0.009916284
228	0x3b74398c	0.0037265746
229	0xbdbcf820	-0.092270136
230	0x3cdda135	0.027054409
231	0x3b74d3ef	0.0037357768
232	0x3d1db122	0.038499005
233	0xbc0c4c02	-0.008563044
234	0x3e2bccb7	0.16777311
235	0x3cdf22d9	0.027238296
236	0xbd04d191	-0.03242642
237	0xbe02b1de	-0.12763163
238	0xbcd2c80e	-0.02573016
239	0x3cdca183	0.026932484
240	0xbc6b7ea8	-0.014373459
241	0x3d3cfac9	0.046137605
242	0x3cd576e4	0.026057668
243	0x3d8f3aa2	0.06993605
244	0x3e085f4f	0.13317607
245	0x3d4c9d33	0.049954604
246	0xbdb10a9a	-0.086446
247	0xbc05a1ab	-0.00815622
248	0xbd5721cc	-0.052522466
249	0x3cf3d979	0.029766785
250	0xbca2a7c6	-0.019855391
251	0xbc168b2a	-0.009188453
252	0xbd138490	-0.036015093
253	0xbd75ac81	-0.059978966
254	0xbd1d334c	-0.038379
255	0xbd321c1d	-0.043483842

fc2.bias f4 [64]
0	0xbdb66cb0	-0.08907449
1	0x3da6bd4a	0.08141573
2	0x3cd2cd87	0.025732769
3	0x3d9fcdcf	0.07802927
4	0xbdb6eeea	-0.08932288
5	0xbcb89783	-0.022533184
6	0xbc7bad3a	-0.015361125
7	0xbcda0d13	-0.026617562
8	0x3bf9ee22	0.0076272646
9	0xbb4cfd27	-0.003127882
10	0xbd2528d6	-0.040322147
11	0x3ca59714	0.020213641
12	0x3d30ac2a	0.04313294
13	0x3d289fb8	0.041167945
14	0xbd816838	-0.06318706
15	0xbd58a741	-0.05289388
16	0x3d9dc96e	0.07704435
17	0x3d6ae4cb	0.0573471
18	0xbccacab0	-0.024754852
19	0xbd6d7e80	-0.057981968
20	0x3d370041	0.044677977
21	0xbd9fc328	-0.07800895
22	0xbd9aece6	-0.07564716
23	0x3d9f0a81	0.07765675
24	0x3cb64636	0.022250276
25	0x3d4b7527	0.049672272
26	0xbcc11d64	-0.023573585
27	0x3bf5d659	0.007502359
28	0x3a572581	0.00082071876
29	0xbd25a6e6	-0.04044237
30	0xbb0582dc	-0.0020372188
31	0x3d544d39	0.051831458
32	0xbd57ba2c	-0.05266778
33	0xbc8cad6a	-0.017172534
34	0xbd2e09b1	-0.04248971
35	0x3d9b31b0	0.075778365
36	0x3dc14bf8	0.09438318
37	0x3d7ab601	0.06120873
38	0x3c1a7d3b	0.009429271
39	0x3d3e20fa	0.046418168
40	0xbcfcf90b	-0.030880472
41	0xbb2b09b7	-0.002609832
42	0xbbf1b9ea	-0.007376899
43	0xbd2c36bf	-0.042044397
44	0x3c9f3bf5	0.01943777
45	0x3cd2ea1e	0.025746401
46	0xbd394e9a	-0.045240976
47	0xbcaaee08	-0.020865455
48	0xbca6e3ec	-0.020372353
49	0xbc400f4a	-0.011722395
50	0x3c84087b	0.016117325
51	0x3c869643	0.016429072
52	0x3c7f055b	0.015565242
53	0xbb30ac58	-0.0026958194
54	0x3d41bfb8	0.047301978
55	0xbd98b6f9	-0.07456774
56	0x3ada6619	0.0016662508
57	0xbcd5aad9	-0.026082443
58	0x3d41cc11	0.047313754
59	0x3da51415	0.08060471
60	0xbd88144f	-0.066444986
61	0xbc9299aa	-0.017895538
62	0xbd874080	-0.06604099
63	0x3d22c3a3	0.039737355

norm2.weight f4 [64]
0	0x3f879d61	1.0594903
1	0x3f74a088	0.9555745
2	0x3f76c03a	0.96387064
3	0x3f774823	0.96594447
4	0x3f7338d3	0.9500858
5	0x3f7eef37	0.9958376
6	0x3f83b0bf	1.0288314
7	0x3f74244d	0.9536789
8	0x3f7162da	0.9429146
9	0x3f7ac700	0.979599
10	0x3f76781a	0.9627701
11	0x3f6566b4	0.8960984
12	0x3f7ef0ca	0.99586165
13	0x3f67f839	0.9061313
14	0x3f6bf905	0.9217685
15	0x3f735a17	0.9505934
16	0x3f772aac	0.9654949
17	0x3f7bfb3f	0.98430246
18	0x3f82ce56	1.0219219
19	0x3f7c8396	0.98638284
20	0x3f693a5d	0.9110468
21	0x3f61e7f4	0.8824456
22	0x3f81ce8c	1.0141158
23	0x3f73be84	0.9521258
24	0x3f79b41b	0.97540444
25	0x3f8085b3	1.0040802
26	0x3f694f29	0.91136414
27	0x3f77ba38	0.9676852
28	0x3f76bb51	0.9637957
29	0x3f7c160d	0.98471147
30	0x3f72d380	0.94853973
31	0x3f764c86	0.96210515
32	0x3f7a1e33	0.9770233
33	0x3f666200	0.89993286
34	0x3f88f5bf	1.0699996
35	0x3f6c47f4	0.9229729
36	0x3f6f0882	0.93372357
37	0x3f736bed	0.95086557
38	0x3f76f42e	0.9646634
39	0x3f5ca46c	0.8618839
40	0x3f8784ce	1.0587404
41	0x3f82476a	1.0178044
42	0x3f6e7381	0.93144995
43	0x3f79a69f	0.9751987
44	0x3f7e72bb	0.99393815
45	0x3f83ce39	1.0297309
46	0x3f6ecfa3	0.9328558
47	0x3f6d592b	0.92714185
48	0x3f84ee80	1.0385284
49	0x3f671570	0.90267086
50	0x3f7935a0	0.9734745
51	0x3f6f904f	0.9357957
52	0x3f788e01	0.9709168
53	0x3f6fefb3	0.93725127
54	0x3f70bfe0	0.9404278
55	0x3f76d4dd	0.96418554
56	0x3f82b8a7	1.0212601
57	0x3f779358	0.96709204
58	0x3f75a19f	0.9594974
59	0x3f6e0f23	0.92991847
60	0x3f658362	0.896536
61	0x3f71c3cb	0.9443938
62	0x3f75ada3	0.95968074
63	0x3f732185	0.9497302

norm2.bias f4 [64]
0	0x3ca6bd60	0.020353973
1	0xbda0bf4c	-0.07848987
2	0xbc55590e	-0.013021721
3	0xbd454cef	-0.048169073
4	0xbd697b27	-0.057002213
5	0xbcd5173f	-0.026012061
6	0x3c5ab0d2	0.013347821
7	0xbcb8fb45	-0.022580752
8	0xbdc85e1e	-0.097835764
9	0xbd68b4f4	-0.056813195
10	0xbd178cf4	-0.036999658
11	0xbd61e0d3	-0.05514605
12	0xbd3894b5	-0.045063693
13	0xbdb2d936	-0.08732836
14	0xbda6b540	-0.081400394
15	0xbd4f0000	-0.05053711
16	0xbca870e8	-0.02056165
17	0xbce8ba9e	-0.028409299
18	0xbcb5b163	-0.022179311
19	0xbba9f2ea	-0.0051864283
20	0xbd58c1fd	-0.052919377
21	0xbdc4e804	-0.09614566
22	0x3c2f6db0	0.010707304
23	0xbd87a464	-0.06623152
24	0xbce2e889	-0.027698772
25	0xbca5c314	-0.020234622
26	0xbd68cb65	-0.056834597
27	0xbcbd9296	-0.023141187
28	0xbd507d0d	-0.050900508
29	0xbd062c47	-0.03275707
30	0xbcabc85f	-0.020969568
31	0xbca2c47c	-0.019869082
32	0xbcab17c7	-0.020885361
33	0xbd20909c	-0.03920041
34	0x3b113148	0.0022154618
35	0xbd5627bf	-0.052284
36	0xbdac3ef5	-0.084104456
37	0xbd8e1546	-0.06937651
38	0xbd079616	-0.033102117
39	0xbdb3be37	-0.08776515
40	0xbc774239	-0.015091472
41	0x3ad14b91	0.0015967955
42	0xbd707bde	-0.05871188
43	0xbd8b35d6	-0.06797378
44	0xbd48dfa7	-0.049041416
45	0xbc33562f	-0.010945841
46	0xbc9f66b0	-0.019458145
47	0xbd66d2d2	-0.056353398
48	0xbc8fbc99	-0.017545985
49	0xbdb9129c	-0.090367526
50	0xbcd01132	-0.025398824
51	0xbc6782e1	-0.014130325
52	0xbd33116c	-0.043717787
53	0xbd9ca424	-0.07648495
54	0xbc68237c	-0.014168616
55	0xbdf1ebb8	-0.11812538
56	0xbc6af3f6	-0.014340391
57	0xbde33978	-0.11094946
58	0xbcbf53e9	-0.023355441
59	0xbd825a37	-0.06364863
60	0xbd5fbf7d	-0.054625977
61	0xbd46fccd	-0.048580933
62	0xbdc66272	-0.09686746
63	0xbd8b6bd9	-0.0680768

fc3.weight f4 [32, 64]
0	0x3d7b1290	0.061297
1	0xbd697ba5	-0.057002682
2	0x3c83d24b	0.016091486
3	0x3dd031aa	0.10165723
4	0x3c763dfe	0.0150294285
5	0x3cf4c9cc	0.02988138
6	0x3d22ccbe	0.03974604
7	0xbd1b367b	-0.037893753
8	0xbca3f741	-0.02001536
9	0x3cdf5656	0.027262848
10	0xbda5e02f	-0.080994
11	0xbcd1949e	-0.025583562
12	0xbd8516e6	-0.06498508
13	0xbd7d0bfa	-0.061779
14	0x3d30fc00	0.043209076
15	0xbda0e866	-0.078568265
16	0x3c6e8e5e	0.01456031
17	0xbc78f9eb	-0.015196304
18	0x3c7e7377	0.015530459
19	0x3d947a3d	0.072498776
20	0xbbab5b3b	-0.0052293814
21	0xbcdb3313	-0.026757753
22	0x3db23432	0.08701362
23	0xbd297b4a	-0.041377343
24	0x3d9891e3	0.07449701
25	0xbd4a0b17	-0.049326982
26	0x3dd1e289	0.10248286
27	0x3c44d616	0.012013933
28	0x3cd8983a	0.026439775
29	0xbcd5c7f8	-0.02609633
30	0xbb92edee	-0.00448393
31	0xbc336ac4	-0.010950748
32	0x3d59476d	0.053046633
33	0xbda4bb38	-0.08043522
34	0xbd6e95b8	-0.05824825
35	0x3d7e388b	0.062065642
36	0x3bc264b0	0.005932413
37	0x3b107bc7	0.0022046433
38	0x3d3974f8	0.045277566
39	0x3d52bcd5	0.051449616
40	0xbd1ecd08	-0.03876975
41	0x3e1a2f5e	0.15057132
42	0xbcf88f83	-0.03034187
43	0xbd207b8b	-0.03918032
44	0xbd240d18	-0.04005155
45	0xbd266b74	-0.04062982
46	0xbcf19921	-0.029491963
47	0xbc6e1d6d	-0.014533383
48	0xbcc0383a	-0.02346431
49	0x3d9549e6	0.07289486
50	0x3bebe729	0.0071991873
51	0xbd9b35aa	-0.07578595
52	0x3c9166e1	0.017749252
53	0xbc8d952d	-0.017283047
54	0xbd87078e	-0.06593238
55	0xbce91bc6	-0.028455626
56	0xbcdf5646	-0.027262818
57	0xbd52486f	-0.05133861
58	0xbd2d290e	-0.04227548
59	0x3d3b843f	0.045780417
60	0xbd5157cc	-0.05110912
61	0xbd8ce80f	-0.06880199
62	0xbd9b05e6	-0.075694844
63	0xbd983829	-0.07432587
64	0x3d6c960c	0.057760283
65	0x3c98c260	0.018647373
66	0x3c2d12dd	0.010563579
67	0x3d50d703	0.0509863
68	0xbd8679e5	-0.06566218
69	0xbd0023f9	-0.031284306
70	0x3dbd758d	0.09250937
71	0xbc8dd1d1	-0.017311962
72	0xbce15c9e	-0.027509984
73	0x3e16870e	0.14699957
74	0xbd728b28	-0.05921474
75	0xbd1f6bb5	-0.038921077
76	0xbd78ce6e	-0.06074374
77	0xbd757426	-0.05992522
78	0xbc5d355d	-0.013501492
79	0xbc604d16	-0.013690254
80	0x3db7f10e	0.089815244
81	0x3cee1623	0.02906329
82	0x3d1d0a6c	0.038340017
83	0x3e0b5b16	0.13608965
84	0xbcf85ac3	-0.030316716
85	0xbbf2e9e7	-0.0074131372
86	0x3e183944	0.14865595
87	0xbd4d5a1c	-0.050134763
88	0xbc907b02	-0.01763678
89	0xbd991573	-0.07474794
90	0x3dab474b	0.083632074
91	0x3e0c10a8	0.13678229
92	0xbd5c44fa	-0.05377672
93	0xbd254d62	-0.040357
94	0xba6c3237	-0.0009010168
95	0xbd3dea74	-0.04636617
96	0x3d820e00	0.063503265
97	0xbde52aa4	-0.11189774
98	0xbcbb0367	-0.02282877
99	0x3b3eefc6	0.0029134615
100	0xbc6232da	-0.013806069
101	0x3cd96c60	0.026540935
102	0xbc958753	-0.018253004
103	0xbb39ad40	-0.0028332025
104	0xbd088c31	-0.033336822
105	0x3dc267be	0.094924435
106	0xbc2901c1	-0.01031536
107	0xbd05f8d8	-0.03270802
108	0xbd4cea04	-0.050027862
109	0xbce8ed77	-0.028433545
110	0xbdc73e65	-0.09728698
111	0xbcc2110b	-0.023689767
112	0xbc941eae	-0.018081035
113	0x3d7fdd01	0.062466625
114	0x3d68be23	0.056821954
115	0xbda2ece1	-0.07955337
116	0x3c7d0a5a	0.015444363
117	0xbc51f4c6	-0.012814706
118	0xbdc00152	-0.09375252
119	0xbd288d8e	-0.041150622
120	0xbb0a425c	-0.0021096682
121	0xbd82e16e	-0.063906536
122	0x3c07d644	0.008290831
123	0x3ce71c63	0.028211778
124	0xbd3b59ee	-0.04574006
125	0xbd816be4	-0.06319407
126	0xbd7d1bc5	-0.06179406
127	0xbd71d77e	-0.0590434
128	0x3d2e6e75	0.04258581
129	0xbce4bdfd	-0.027922625
130	0x3d30ab9b	0.043132406
131	0x3d6173cf	0.055042084
132	0xbcf36b80	-0.029714346
133	0xba9106ae	-0.0011064613
134	0x3d587b81	0.052852158
135	0xbcac285a	-0.021015335
136	0xbcf26f3f	-0.029594062
137	0x3de4c673	0.11170664
138	0xbd82ecb2	-0.06392802
139	0xbd831c77	-0.064019136
140	0xbd85946e	-0.06522451
141	0xbd82cc82	-0.06386663
142	0x3cfb19c8	0.030651942
143	0xbd4f8f02	-0.050673492
144	0x3dfafdbc	0.12255427
145	0xbbcce6cf	-0.0062531005
146	0x3c6a667b	0.01430666
147	0x3d68b275	0.056810815
148	0x3cf36c19	0.02971463
149	0xbb4dd55c	-0.003140769
150	0x3dd7062e	0.104992256
151	0xbc86ad13	-0.01643995
152	0xbccca548	-0.024981156
153	0xbd707cb9	-0.058712695
154	0x3d89cbb5	0.06728307
155	0x3dd877a9	0.10569698
156	0xbd28697d	-0.041116226
157	0xbd4295d7	-0.04750618
158	0x3c288451	0.010285453
159	0xbab85f00	-0.0014066398
160	0x3d2563f8	0.04037854
161	0xbdcfddb3	-0.10149708
162	0xbd0ad547	-0.033894803
163	0x3cce02e3	0.02514786
164	0xbc06897d	-0.008211491
165	0xbd21e4f6	-0.039524995
166	0x3cad2065	0.021133611
167	0x3d4ffa2a	0.050775684
168	0xbd5be5d5	-0.05368598
169	0x3e15da2b	0.14634006
170	0x3d03d42a	0.032184757
171	0xbca17d65	-0.019713113
172	0xbdb8bada	-0.09020014
173	0xbc3fe589	-0.01171244
174	0xbd62094b	-0.055184644
175	0xbd5cc278	-0.053896397
176	0xbd1ede57	-0.03878626
177	0x3c9ac1d4	0.018891253
178	0x3d0e600e	0.034759574
179	0xbd912d78	-0.070887506
180	0xbadf06f0	-0.0017015617
181	0xbcb8f389	-0.022577064
182	0xbdb75e76	-0.08953564
183	0x3c9fc0b1	0.019501062
184	0xbccce829	-0.025013046
185	0xbd4f3419	-0.050586794
186	0xbceadbac	-0.0286692
187	0x3d09c1a6	0.033631943
188	0xbb290428	-0.002578983
189	0xbb1b78b9	-0.002372308
190	0xbdc76e1c	-0.097377986
191	0xbcf3ebc7	-0.029775513
192	0xbc85b8a1	-0.01632339
193	0x3c33dbb6	0.010977676
194	0x3cf2838c	0.029603742
195	0x3db11567	0.0864666
196	0xbdd7578b	-0.10514744
197	0xbd51085c	-0.051033363
198	0xbd80c020	-0.06286645
199	0xbc322e94	-0.010875363
200	0x3d678153	0.056519818
201	0x3c9f4aa2	0.019444767
202	0x3d985429	0.07437927
203	0xbd961fe0	-0.073302984
204	0x3df5a73d	0.11994789
205	0x3d8b34ef	0.06797206
206	0x3dc3b88b	0.09556683
207	0x3be1fca9	0.0068965745
208	0x3c54747d	0.012967226
209	0xbdd433bb	-0.10361429
210	0xbd83b6eb	-0.06431373
211	0x3d29ac74	0.04142423
212	0xbd943a6b	-0.07237705
213	0x3d635f84	0.055511013
214	0xbd277361	-0.04088152
215	0xbcb281e7	-0.021790458
216	0xbc202fe5	-0.009777044
217	0xbcaf5935	-0.021404842
218	0xbd66a1a2	-0.05630649
219	0xbde3256f	-0.11091124
220	0x3cb6c84b	0.022312304
221	0xbcb830c5	-0.022484193
222	0xbe02496e	-0.12723324
223	0xbd30d505	-0.0431719
224	0xbcc9a405	-0.024614343
225	0xbd7d54ea	-0.06184856
226	0xbd1ccbc3	-0.03828026
227	0xbd492118	-0.049103826
228	0x3c8a1c30	0.016859144
229	0x3db9efab	0.09078916
230	0xbc869e2f	-0.01643285
231	0x3d9552dd	0.072911955
232	0xbe118ddb	-0.1421427
233	0xbda20041	-0.07910205
234	0x3dd10e33	0.102077864
235	0x3d769270	0.060198247
236	0x3e113a85	0.1418248
237	0xbdc4816e	-0.09594999
238	0xbb10ec8d	-0.0022113652
239	0x3da430fe	0.08017157
240	0xbd81dbbc	-0.06340739
241	0x3dc3c496	0.0955898
242	0x3ceeff14	0.029174365
243	0xbc5127f7	-0.012765876
244	0xbc995b42	-0.018720273
245	0x3da6d9a5	0.08146981
246	0xbca91c69	-0.02064343
247	0x3de01a37	0.109425
248	0xbe0431c0	-0.12909603
249	0x3d998133	0.07495346
250	0xbd9b215d	-0.07574723
251	0x3dcbcc2a	0.099510506
252	0x3cf3cc1d	0.029760415
253	0x3d9e78a9	0.07737858
254	0x3b32723d	0.0027228736
255	0x3dc84269	0.09778292

fc3.bias f4 [32]
0	0xbd43dc74	-0.047817662
1	0x3ca7fcf7	0.020506365
2	0xbcf150f3	-0.029457545
3	0xbde70b5d	-0.11281464
4	0x3dd38d11	0.10329641
5	0x3de376b4	0.11106625
6	0xbd545521	-0.051838998
7	0xbd498e57	-0.04920801
8	0xbe00f8a8	-0.12594855
9	0x3d2c522d	0.042070556
10	0x3d8faf80	0.07015896
11	0x3d9f8f29	0.077909775
12	0x3d4d6b24	0.050151005
13	0xbd8af47e	-0.067849144
14	0xbd4e0b9d	-0.050304044
15	0xbd6dc50b	-0.058049243
16	0xbd859003	-0.06521609
17	0xbc50495f	-0.0127128055
18	0xbd073b5f	-0.033015605
19	0xbbbe0e7b	-0.005800066
20	0x3c4b4b46	0.012408083
21	0xbd4ff938	-0.050774783
22	0xbc35dab9	-0.011099511
23	0x3db416c2	0.08793403
24	0xbd8d5c18	-0.06902331
25	0x3da45e6b	0.08025821
26	0xbd1e54d3	-0.038655113
27	0x3da1d916	0.07902734
28	0xbd7f00fc	-0.0622568
29	0x3dc0790f	0.0939809
30	0xbd375185	-0.044755477
31	0x3d57fc99	0.05273113

norm3.weight f4 [32]
0	0x3f7af8d9	0.9803596
1	0x3f624a8e	0.8839501
2	0x3f81e05e	1.0146596
3	0x3fc41e69	1.532178
4	0x3f81acd6	1.013087
5	0x3f7d341e	0.9890765
6	0x3fc3a013	1.5283226
7	0x3fa1b525	1.2633406
8	0x3fc88b7d	1.5667568
9	0x3fbdf423	1.484013
10	0x3fc0cff3	1.5063461
11	0x3fbd608f	1.4795092
12	0x3fc800df	1.5625266
13	0x3fb3d04f	1.4047946
14	0x3f75ad87	0.95967907
15	0x3f9f80dd	1.2461201
16	0x3fc9a0df	1.5752219
17	0x3f8594fc	1.0436091
18	0x3fc100cc	1.5078368
19	0x3fb0e316	1.3819301
20	0x3fd45774	1.6589189
21	0x3fbe654d	1.4874665
22	0x3f6f7b0f	0.9354715
23	0x3f720673	0.9454109
24	0x3fc1c5db	1.5138506
25	0x3f9a7c6c	1.206922
26	0x3f85a660	1.0441399
27	0x3fb84a66	1.4397705
28	0x3fcc7099	1.5971862
29	0x3fbf2323	1.4932598
30	0x3fc118b8	1.5085669
31	0x3fc95557	1.5729169

norm3.bias f4 [32]
0	0xbb93afb4	-0.0045070294
1	0xbdd3fee1	-0.10351349
2	0x3d06c106	0.032898925
3	0x3e4f726b	0.2025849
4	0x3c6857e2	0.014181109
5	0x3d351c45	0.044216413
6	0x3e888432	0.26663357
7	0x3e3639d1	0.17795493
8	0x3e33c401	0.17555238
9	0x3e31b4d8	0.17354143
10	0x3e9a315e	0.3011579
11	0x3e711930	0.23544765
12	0x3e95c01d	0.29248133
13	0x3e3e101e	0.18560836
14	0x3cd39c2b	0.025831303
15	0x3e6327c9	0.22183146
16	0x3e88bad7	0.26705047
17	0x3cfb4eb8	0.030677184
18	0x3e2f3b47	0.17112456
19	0x3e963503	0.2933732
20	0x3eb15b97	0.3464019
21	0x3e82b71b	0.25530323
22	0xbd1fecfb	-0.03904436
23	0xbcb4836a	-0.02203532
24	0x3e344b75	0.1760691
25	0x3e3884d3	0.18019418
26	0x3d7979a0	0.060907006
27	0x3e7c959d	0.24666448
28	0x3e566c22	0.20939687
29	0x3e1cd4c0	0.15315533
30	0x3e2e1b6f	0.17002653
31	0x3e93fb67	0.28902742

fc4.weight f4 [1, 32]
0	0xbcb79742	-0.022410993
1	0x3cc2a24f	0.023759035
2	0xbc89e4e5	-0.016832778
3	0x3f13509d	0.5754488
4	0xbd190388	-0.037356883
5	0x3c7a6d2f	0.01528482
6	0xbf1e3dd7	-0.6181311
7	0x3ec0dbfa	0.3766783
8	0x3f2a4df3	0.6652519
9	0x3f1f623a	0.62259257
10	0xbeffd08a	-0.4996379
11	0xbf1c9a45	-0.61172897
12	0xbf1481bd	-0.58010465
13	0xbf09f5bc	-0.53890586
14	0x3c8c8cce	0.017156985
15	0x3e967965	0.29389492
16	0xbf30e5a9	-0.69100434
17	0xbdce0697	-0.10059851
18	0x3f0ae9c7	0.54262966
19	0xbebd0f4c	-0.36925733
20	0xbf1aa943	-0.6041452
21	0xbf11bb7f	-0.5692672
22	0xbc16d995	-0.009207149
23	0x3cb67100	0.02227068
24	0x3f1f75f6	0.6228937
25	0x3e9b2cd4	0.3030764
26	0x3dc3c9c1	0.09559966
27	0xbf099569	-0.53743607
28	0x3f23dfcc	0.6401336
29	0x3f2219d5	0.63320667
30	0x3f17838d	0.59185106
31	0xbf1e15ba	-0.617519
