models/big_model.pth (torch, 23303 bytes, 19 tensors)

fc1.weight f4 [64, 14]
0.0026881315 -0.018098818 -0.017604902 -0.018422684 -0.028594183 0.0058834357 -0.004726238 0.0006067149
0.002410956 -0.00066545286 -0.030447278 -0.03391293 -0.003450279 0.00018993497 -0.0053660017 -0.02308108
-0.014211461 -0.022195186 -0.034234628 0.0046066726 -0.011212697 0.0027153515 -0.0024775735 0.0030906762
-0.0032755965 0.0034502214 0.0020630022 0.00078116794 -0.00793107 -0.021685472 -0.017713757 -0.024890536
-0.031803124 -0.0021097031 -0.011710332 -0.0038395447 -0.0032873105 0.0034241977 -0.0049252347 0.0012712078
-0.0026856733 -0.007922517 0.006052285 -0.013584959 -0.022755116 -0.02200086 -0.03385462 0.005180967
-0.00922085 -0.00075636327 0.0058801975 6.307006e-05 -0.029633233 -0.026557336 0.0032331303 0.002601588
0.0030527047 -0.013288017 -0.016339518 -0.024146881 -0.027022135 -0.0021517975 -0.013642564 -0.013426843
0.003779113 0.0052725505 0.015812268 0.032096352 0.0013199105 0.0031273516 0.0019795357 -0.020517252
-0.015006968 -0.017510058 -0.025246877 0.0021327857 -0.0039280416 -0.0024055643 0.0003828106 6.4616333e-06
-0.032262173 -0.038134106 0.0002509362 0.0017631575 0.0041941744 0.027416704 0.026125288 0.022135478
0.03531773 -0.0045067393 0.0035567302 0.0006077512 0.0021859054 -0.001594036 -0.036615323 0.03114708
0.003350675 -1.7874223e-05 0.00030754568 0.02463655 0.031372186 0.012062605 0.030486964 -0.00571052
0.010747594 -0.008465895 0.0013021154 -0.0040776096 -0.04798246 0.024215123 0.0018618228 -0.0028153865
-0.0002769108 0.022886086 0.017684244 0.031580664 0.038010668 -0.0062097404 0.01585054 -0.0024525754
0.0049886093 -0.0019622142 -0.03787265 0.016661786 0.0032737427 -0.0052914876 -0.000614258 -0.018455384
-0.017013578 -0.02316238 -0.030863933 -0.0019363771 -0.010331448 0.009102924 -0.0015447255 0.0034828903
-0.021051483 -0.028275002 0.0033420918 0.011442454 -0.0062929275 -0.016945042 -0.020385636 -0.027061738
-0.038212128 -0.001286835 -0.008699719 -0.0024450389 0.0003799502 0.0012217886 0.008636402 0.020027995
0.0022608137 0.0039109155 0.0024028367 -0.0294324 -0.015754675 -0.01303728 -0.03517816 0.0006846046
-0.006447969 0.0043655774 -0.004772471 -0.0023819334 0.0039129895 0.013636934 -0.0029896027 0.0054565393
0.002540264 0.0018630085 0.010172248 0.012749701 0.0032270378 -0.0038869428 0.006090153 0.00187987
0.0030441792 0.0012289603 -0.05222454 0.039768953 -0.0015953607 -0.0027324667 -0.0030216314 -0.0129902465
-0.013974733 -0.017927002 -0.020702261 0.0010268878 -0.0040699253 -0.0063193403 0.0043824525 0.0027770742
-0.029722547 -0.03262773 0.0007884724 0.0011812928 -0.007391909 0.02640724 0.02308312 0.023442702
0.028975815 -0.0055290856 0.0034692956 0.0018636185 -0.0006225559 -0.00048482258 0.037349217 -0.030974373
-0.0072780917 0.0009232798 0.003863654 -0.017143559 -0.022613911 -0.023486827 -0.028205771 0.007996998
0.003026081 0.0039038693 0.0026687556 0.00077022624 0.006203938 0.017337633 -0.0034083296 0.011728248
-0.007235727 0.024807008 0.01990453 0.025745707 0.029161468 -0.0049722707 0.004536312 0.0011825737
0.0047059585 0.0034283667 0.035554215 -0.03141803 -0.00948198 0.0036210136 -1.720262e-05 0.01830104
0.024433026 0.024613354 0.026443569 -0.009009682 0.0039062737 0.0057387915 0.0070047234 -0.00043406332
0.042549916 -0.028524034 0.008704187 -0.0017542794 0.00043603097 0.029945169 0.022544097 0.020488217
00000000: 5d2b 303b f943 94bc 2838 90bc 2beb 96bc
00000010: 593e eabc d6c9 c03b 8fde 9abb f30b 1f3a
00000020: 2101 1e3b c971 2eba 926c f9bc 49e8 0abd
00000030: 131e 62bb 4829 4739 49d5 afbb 8814 bdbc
00000040: 30d7 68bc aed2 b5bc 9c39 0cbd 92f3 963b
00000050: 76b5 37bc 0af4 313b c95e 22bb f18c 4a3b
00000060: 64ab 56bb 1c1d 623b 6f33 073b 4bc7 4c3a
00000070: 52f1 01bc bba5 b1bc 711c 91bc 3de7 cbbc
00000080: fe43 02bd f242 0abb b1dc 3fbc dfa0 7bbb
00000090: eb6f 57bb 8168 603b dd63 a1bb a89e a63a
000000a0: 1f02 30bb 72cd 01bc 3f52 c63b 7393 5ebc
000000b0: f068 babc 263b b4bc 24ab 0abd 1ac5 a93b
000000c0: 0c13 17bc ae46 46ba acae c03b 7b44 8438
000000d0: 65c1 f2bc c58e d9bc ede2 533b 677f 2a3b
000000e0: e30f 483b fcb5 59bc 74da 85bc aecf c5bc
000000f0: 865d ddbc 2c05 0dbb 1085 5fbc 43fc 5bbc
00000100: ffaa 773b 5cc5 ac3b bb88 813c 7777 033d
00000110: d900 ad3a 41f4 4c3b 19bb 013b cc13 a8bc
00000120: c9df 75bc 4171 8fbc 8ad2 cebc 35c6 0b3b
00000130: cdb6 80bb aca6 1dbb f8b3 c839 02d1 d836
00000140: 5725 04bd 8232 1cbd 1690 8339 c019 e73a
00000150: 496f 893b ff98 e03c b304 d63c 7655 b53c
00000160: 53a9 103d 45ad 93bb 0818 693b 7e51 1f3a
00000170: 6841 0f3b f9ee d0ba f3f9 15bd 2928 ff3c
00000180: 0097 5b3b 9af0 95b7 153e a139 97d2 c93c
00000190: 1f80 003d 3ba2 453c ccbf f93c 501f bbbb
000001a0: ad16 303c 8ab4 0abc beab aa3a 789d 85bb
000001b0: 4289 44bd cb5e c63c 6808 f43a 5982 38bb
000001c0: 572e 91b9 9a7b bb3c 8cde 903c ba5a 013d
000001d0: 13b1 1b3d 147b cbbb fed8 813c 63bb 20bb
000001e0: 7d77 a33b 7e98 00bb 5a20 1bbd 4c7e 883c
000001f0: 4a8c 563b 3764 adbb 2806 21ba bf2f 97bc
00000200: 0f60 8bbc 08bf bdbc 5cd6 fcbc 09ce fdba
00000210: 3c45 29bc 6e24 153c 6378 caba 3441 643b
00000220: 2974 acbc faa0 e7bc ff06 5b3b 2179 3b3c
00000230: e734 cebb 54d0 8abc c7ff a6bc 94b0 ddbc
00000240: 5284 1cbd 04ab a8ba 4489 0ebc f23c 20bb
00000250: 0d34 c739 6c24 a03a b27f 0d3c c011 a43c
00000260: 292a 143b 2327 803b e978 1d3b 371c f1bc
00000270: f30f 81bc 519a 55bc f916 10bd 0977 333a
00000280: 7c49 d3bb 1e0d 8f3b 6362 9cbb 361a 1cbb
00000290: 8938 803b 726d 5f3c 36ed 43bb c5cc b23b
000002a0: 8f7a 263b 3130 f43a 80a9 263c 1fe4 503c
000002b0: b67c 533b 14bc 7ebb e88f c73b f865 f63a
000002c0: da80 473b 1115 a13a 66e9 55bd c5e4 223d
000002d0: 6c1b d1ba 2f13 33bb 9006 46bb 0bd5 54bc
000002e0: 47f6 64bc a6db 92bc ca97 a9bc a398 863a
000002f0: 025d 85bb 7812 cfbb ad9a 8f3b 93ff 353b
00000300: b37c f3bc a8a4 05bd 7db1 4e3a 9cd5 9a3a
00000310: d437 f2bb ff53 d83c d018 bd3c e90a c03c
00000320: b05e ed3c 552d b5bb 1f5d 633b a944 f43a
00000330: 0533 23ba c92f feb9 7efb 183d f8bd fdbc
00000340: 0f7d eebb 4208 723a 5c35 7d3b a670 8cbc
00000350: cf40 b9bc 7267 c0bc ca0f e7bc d705 033c
00000360: 3751 463b 0fd8 7f3b 4ae6 2e3b 02e9 493a
00000370: 674a cb3b a707 8e3c 485e 5fbb d627 403c
00000380: ad19 edbb 1138 cb3c d30e a33c a9e8 d23c
00000390: 08e4 ee3c 6eee a2bb 58a5 943b 9700 9b3a
000003a0: 7134 9a3b 73ae 603b 4ca1 113d 31b0 00bd
000003b0: 4f5a 1bbc 874e 6d3b 584e 90b7 10ec 953c
000003c0: c527 c83c f2a1 c93c 2fa0 d83c 589d 13bc
000003d0: 3300 803b 790c bc3b e187 e53b fe92 e3b9
000003e0: d248 2e3d 3cab e9bc 029c 0e3c d9ef e5ba
000003f0: 169b e439 924f f53c 66ae b83c e8d6 a73c

fc1.bias f4 [64]
-5.6448886e-07 6.5291573e-07 5.47978e-07 8.629895e-07 -3.5604612e-06 5.1694075e-05 -9.777254e-07 9.1073696e-07
1.7637535e-07 -1.672403e-07 -1.7433956e-06 -1.3388087e-06 -9.322109e-07 -8.307038e-07 -3.4726158e-06 2.1526948e-06
-3.9431643e-07 1.4676293e-05 -1.1974458e-07 8.2895855e-07 -2.3623688e-06 -1.7406596e-06 -1.0132835e-06 -0.00018114664
7.2252374e-07 4.1056097e-05 -8.632595e-07 1.8174569e-07 2.4568744e-06 -6.404609e-06 3.4640146e-07 3.164304e-06
-1.5204071e-06 -4.7511978e-07 -1.9953097e-07 1.7017242e-06 -2.5918212e-06 -6.8754184e-07 7.388646e-07 -1.1783209e-05
-2.0084856e-06 -1.082425e-06 5.924388e-07 1.6571362e-06 -1.3050039e-06 4.940468e-05 -3.3521337e-07 1.7308867e-07
-2.2823858e-06 -2.194751e-06 -1.5370601e-06 3.2183648e-06 1.8000388e-05 -2.6554852e-07 -1.2064008e-06 0.00028965942
2.7318813e-06 -5.8219814e-07 1.87721e-06 -5.9445165e-07 6.294758e-05 -2.574234e-07 1.1615324e-06 -7.509775e-07
00000000: 6187 17b5 0744 2f35 c318 1335 30a8 6735
00000010: 42f0 6eb6 17d2 5838 643a 83b5 5e79 7435
00000020: b061 3d34 aa92 33b4 9efe e9b5 1eb1 b3b5
00000030: 0c3d 7ab5 88fd 5eb5 160b 69b6 0477 1036
00000040: 70b2 d3b4 333a 7637 2493 00b4 9985 5e35
00000050: 3089 1eb6 9ca0 e9b5 2800 88b5 2ef2 3db9
00000060: 74f3 4135 a633 2c38 beba 67b5 e025 4334
00000070: c8e0 2436 2ce7 d6b6 0ef9 b934 545a 5436
00000080: ca10 ccb5 f713 ffb4 a83e 56b4 cc66 e435
00000090: 26ef 2db6 848f 38b5 6456 4635 7fb0 45b7
000000a0: 85c9 06b6 d747 91b5 1608 1f35 c46a de35
000000b0: 9827 afb5 df37 4f38 60f7 b3b4 40da 3934
000000c0: 172b 19b6 8949 13b6 fc4c ceb5 16fb 5736
000000d0: 8aff 9637 b690 8eb4 9eeb a1b5 6edd 9739
000000e0: 5d55 3736 5a48 1cb5 72f4 fb35 6892 1fb5
000000f0: ba02 8438 0134 8ab4 f3e5 9b35 c896 49b5

bn1.weight f4 [64]
0.039646707 0.014994698 0.021669026 0.04082358 0.024831794 0.036696885 0.045462523 0.044820253
0.040233433 0.033946153 0.02412345 0.018931976 0.035282783 0.031694654 0.043616995 0.023160301
0.033901427 0.037975244 0.03858166 0.020963803 0.029828938 0.021328347 0.021381706 0.036149435
0.035999596 0.039430905 0.038324755 0.038927004 0.01552618 0.0395585 0.036420237 0.039958507
0.043579523 0.026987685 0.02256217 0.023999905 0.041854218 0.02073186 0.040492326 0.022188505
0.039014712 0.017797573 0.03552507 0.016506596 0.040347006 0.036461625 0.043504514 0.03807572
0.04370141 0.046665303 0.036195662 0.0285909 0.0269459 0.03906002 0.022899343 0.030900432
0.036436524 0.041669875 0.02283778 0.042498644 0.039196983 0.036752682 0.039730236 0.039896984
00000000: 9664 223d 52ac 753c 3e83 b13c a036 273d
00000010: 0c6c cb3c 794f 163d e936 3a3d 7195 373d
00000020: d0cb 243d 1f0b 0b3d 8b9e c53c 3b17 9b3c
00000030: ae84 103d 41d2 013d bca7 323d acba bd3c
00000040: 39dc 0a3d ee8b 1b3d cd07 1e3d 48bc ab3c
00000050: d15b f43c c9b8 ae3c b028 af3c 6e11 143d
00000060: 5074 133d 4d82 213d 6bfa 1c3d ec71 1f3d
00000070: 8561 7e3c 1808 223d 632d 153d 88ab 233d
00000080: 7180 323d 4715 dd3c 4dd4 b83c 739b c43c
00000090: 546f 2b3d ddd5 a93c 48db 253d abc4 b53c
000000a0: e4cd 1f3d 37cc 913c bc82 113d d738 873c
000000b0: e742 253d c958 153d ca31 323d 49f5 1b3d
000000c0: 4000 333d 1e24 3f3d e741 143d 7737 ea3c
000000d0: a6bd dc3c 66fd 1f3d 6797 bb3c e722 fd3c
000000e0: 773e 153d 08ae 2a3d 4c16 bb3c 0f13 2e3d
000000f0: 048d 203d fb89 163d 2cbc 223d 056b 233d

bn1.bias f4 [64]
-0.007762987 0.0077246004 0.006965993 -0.010567622 -0.002781564 -0.013726506 -0.012601202 -0.016483087
-0.017634796 -0.018106563 0.001575377 0.0018326391 -0.027491583 -0.012543471 0.0030777173 0.005233499
-0.0027992334 -0.00065037713 -0.0038272857 0.0032275487 0.005625635 0.009569949 0.0026717857 -0.00063070084
-6.693638e-05 -0.0117453495 0.0015090698 -0.008392736 0.0076337634 -0.00053325313 -0.0042035645 0.0035928376
-0.015077828 -0.0028832003 0.005884743 0.0057778102 -0.021971053 -0.00019335847 -0.010397075 0.0056517962
-0.027881706 0.0043622367 -0.00052269234 -0.00093725824 -0.019255552 0.0005186277 -0.014507185 -0.00429042
-0.021124449 -0.015463289 0.0024184063 0.0036621224 0.0012602749 0.0009380823 -0.006016277 -0.01191892
0.0025463435 -0.0034472954 0.007005468 -0.019724578 -0.000807696 0.0018048603 0.0009140694 -0.023345893
00000000: a860 febb a51e fd3b fc42 e43b d223 2dbc
00000010: e64a 36bb 24e5 60bc 4675 4ebc 8a07 87bc
00000020: d976 90bc 3754 94bc e17c ce3a 2a35 f03a
00000030: 0736 e1bc 2183 4dbc 87b3 493b c67d ab3b
00000040: 5873 37bb 127e 2aba 33d3 7abb 4885 533b
00000050: 3f57 b83b 46cb 1c3c 2019 2f3b 9e55 25ba
00000060: 3260 8cb8 916f 40bc fbcb c53a b081 09bc
00000070: a624 fa3b 03ca 0bba 0ebe 89bb d075 6b3b
00000080: ff08 77bc 13f4 3cbb cdd4 c03b c953 bd3b
00000090: a3fc b3bc 45c0 4ab9 7e58 2abc b432 b93b
000000a0: 2d68 e4bc 18f1 8e3b 4a05 09ba 56b2 75ba
000000b0: d2bd 9dbc 84f4 073a 8baf 6dbc a796 8cbb
000000c0: 2e0d adbc bc59 7dbc 207e 1e3b 3800 703b
000000d0: cf2f a53a a3e9 753a 3024 c5bb 9347 43bc
000000e0: 8ee0 263b 05ec 61bb 208e e53b 7095 a1bc
000000f0: 90bb 53ba 1091 ec3a 299e 6f3a e33f bfbc

bn1.running_mean f4 [64]
0.010075191 0.009133579 0.010912228 0.013026819 0.009045637 0.009809271 -0.010846261 -0.009740502
-0.01046128 0.011231871 0.011215517 0.0072955736 -0.0035386381 0.009408578 -0.009892838 0.006581741
-0.0097421175 -0.0068215937 -0.009564372 0.009814225 0.009771566 0.008201515 0.009811274 -0.008581008
-0.010172086 0.011387897 -0.008595897 0.010091988 0.011554883 -0.00786787 -0.007898992 -0.010799599
-0.013745609 0.012320457 0.009572078 0.009377892 -0.008693938 0.004891935 0.011051772 0.010514011
-0.005184238 0.0049200947 -0.00724701 0.007970234 -0.012436372 -0.008559365 -0.009182513 -0.0074685197
-0.010615818 -0.009402346 -0.00999468 0.0042099236 0.007854088 -0.010130847 0.004001934 0.010236554
-0.0074679325 -0.011353769 0.011383154 -0.010409903 -0.008228637 -0.010175828 -0.007978858 -0.009332219
00000000: 6a12 253c 02a5 153c 34c9 323c 706e 553c
00000010: 2734 143c 11b7 203c 84b4 31bc a096 1fbc
00000020: ca65 2bbc e205 383c 4ac1 373c b50f ef3b
00000030: 7fe8 67bb 7026 1a3c 9215 22bc a5ab d73b
00000040: 679d 1fbc ad87 dfbb e2b3 1cbc d8cb 203c
00000050: eb18 203c a65f 063c 77bf 203c 5b97 0cbc
00000060: d2a8 26bc 4d94 3a3c ced5 0cbc de58 253c
00000070: b150 3d3c 3de8 00bc c66a 01bc cdf0 30bc
00000080: 4335 61bc bedb 493c 34d4 1c3c bba5 193c
00000090: 0571 0ebc 864c a03b 7e12 353c f542 2c3c
000000a0: 8ae0 a9bb bf38 a13b 5378 edbb 9695 023c
000000b0: edc1 4bbc 943c 0cbc 4072 16bc 7cba f4bb
000000c0: f8ed 2dbc 4c0c 1abc bac0 23bc 66f3 893b
000000d0: 6fae 003c dafb 25bc a822 833b 38b7 273c
000000e0: 8fb5 f4bb 2905 3abc 6980 3a3c 4c8e 2abc
000000f0: 68d1 06bc 84b8 26bc c2b9 02bc 2ae6 18bc

bn1.running_var f4 [64]
0.005302237 0.0055038016 0.006615041 0.0061158244 0.0063987286 0.0054228096 0.01048844 0.010308807
0.01066815 0.0062833414 0.007456804 0.005871909 0.0059039197 0.003955482 0.0070049833 0.0044177263
0.0070645344 0.0062106214 0.007995852 0.0053903735 0.005775518 0.0059522805 0.006236997 0.00622982
0.0064652557 0.0058182036 0.006865896 0.0051798397 0.0066574924 0.0061996453 0.006455572 0.0071815527
0.012348815 0.0072659953 0.0054028723 0.0057992805 0.009624193 0.0043165763 0.005866521 0.0058108266
0.007333788 0.0034469469 0.005815947 0.0045960206 0.009673788 0.006906003 0.008365313 0.0066286507
0.010098283 0.008983373 0.006497434 0.004250619 0.0055460166 0.008445756 0.003892404 0.005279085
0.005354228 0.007636626 0.006702509 0.010872864 0.006151002 0.007592324 0.0060483003 0.008337656
00000000: 63be ad3b 3c59 b43b fcc2 d83b 4167 c83b
00000010: 6dac d13b d3b1 b13b b5d7 2b3c 45e6 283c
00000020: 77c9 2e3c 7de4 cd3b 3558 f43b 2569 c03b
00000030: ab75 c13b fd9c 813b 0f8a e53b 93c2 903b
00000040: 9c7d e73b 7882 cb3b 0901 033c bba1 b03b
00000050: 8e40 bd3b 590b c33b b95f cc3b 8523 cc3b
00000060: 7fda d33b a1a6 be3b 4ffb e03b a5bb a93b
00000070: 1827 da3b 6526 cb3b 4389 d33b 3b53 eb3b
00000080: af52 4a3c 9617 ee3b 940a b13b e407 be3b
00000090: cbae 1d3c 1172 8d3b f23b c03b bf68 be3b
000000a0: 4650 f03b 2ce6 613b b393 be3b 379a 963b
000000b0: cf7e 1e3c c14b e23b aa0e 093c 2735 d93b
000000c0: 4573 253c ff2e 133c 6de8 d43b c748 8b3b
000000d0: 5cbb b53b 1160 0a3c b417 7f3b 2dfc ac3b
000000e0: 8572 af3b a93c fa3b b8a0 db3b 1924 323c
000000f0: 588e c93b 08c9 f83b d230 c63b aa9a 083c

fc2.weight f4 [32, 64]
-0.019349407 -0.0067222174 -0.011681058 -0.019040884 -0.013106531 -0.01991106 -5.3777538e-05 0.00721246
0.009830451 -0.011504576 -0.008678159 -0.00086753926 0.0062760785 -0.013315458 0.008915414 -0.013651719
0.003772461 0.009208515 0.011212735 -0.012367191 -0.013646345 -0.015433835 -0.012591646 0.0039652186
0.0050604516 -0.02094437 0.008520154 -0.018633662 -0.013098968 0.0011335914 0.007466914 0.011139568
0.0038403359 -0.0052340725 -0.012825943 -0.005139696 0.005712527 -0.01056896 -0.013106597 -0.005318904
-0.001409176 -0.00669967 0.00899311 -0.002714334 0.012258881 0.009764588 -0.0018438982 0.0017298865
0.012002583 0.0074614813 0.0048374003 -0.010986907 -0.02036096 0.00021907587 -0.010367968 -0.016781878
0.008076066 0.008294679 -0.007645028 -0.0040482543 0.017033456 0.004260492 0.00086412916 0.0075626415
-0.01693961 -0.013918922 -0.01191441 -0.015808307 -0.012503585 -0.018667 0.0046306914 0.00045775442
-0.002315912 -0.006259424 -0.020345764 -0.011095104 0.009569687 -0.015373681 0.010034324 -0.011302903
0.00085824926 0.0051722247 0.013706522 -0.009945823 -0.019193085 -0.015978673 -0.0038242233 0.0024354341
0.0020984935 -0.02002251 0.00043721704 -0.009307106 -0.015937608 0.004168243 0.0016391685 0.006858317
-0.0027690593 -0.008298113 -0.014219408 -0.016706536 0.00524987 -0.012491581 -0.019005502 -0.0060196705
0.019069722 -0.013874572 0.002046871 -0.009664659 0.009504481 0.005415873 0.014469358 0.0007666549
0.003924856 0.0046967617 0.005818437 -0.0065555503 -0.017627575 0.0048319288 -0.007185941 -0.012537644
-0.0049627307 -0.00014091392 -0.018403444 0.015715413 0.0029690217 0.00806792 0.00030289768 -0.012087168
-0.01717776 0.001981331 -0.0022483277 -0.014661169 -0.015189836 -0.012641147 0.013934206 -0.0037224542
0.009954216 -0.019752853 -0.020147245 -0.013142025 0.011929141 -0.01763216 0.007612688 -0.007886476
0.0026995868 -0.0027822426 -0.0062142513 -0.016048616 -0.01264629 -0.012375357 -0.008293484 0.008705527
0.0071818465 -0.015059127 0.010955354 -0.0162402 -0.0031213835 0.009792856 0.012382953 0.016677627
-0.0007479358 -0.015355802 -0.012728721 -0.022655973 0.0010874383 -0.01098871 -0.010838334 -0.005598696
0.0050494354 -0.00953671 0.006694327 -0.005333556 0.012840629 0.0016381897 0.0038481369 0.0057817716
0.0017966059 0.01455585 0.011739664 -0.016130954 -0.012812585 0.0012949064 -0.015095492 -0.014434094
-0.00018431278 0.013708459 -0.009150253 0.0054408074 0.0007919702 -0.0007472599 0.0045521203 0.008122384
-0.011804852 -0.01800854 -0.014022573 -0.025991464 -0.00898439 -0.015626164 0.005967966 0.0052337097
0.00047394578 -0.011353205 -0.014018727 -0.008584105 0.013943233 -0.009828235 0.013266907 -0.014726226
-0.0006419719 0.004367247 0.008029915 -0.0119682 -0.01736079 -0.0071206354 -0.009542738 0.003018195
0.0075012525 -0.018886697 0.007494093 -0.016078735 -0.0127828885 0.002542605 0.0059321695 0.0037634335
0.00078374014 -0.0043885857 -0.0044698757 -0.008366503 0.0007062649 -0.009027026 -0.013964995 -0.015206314
0.014766968 -0.01666204 0.0076786834 -0.0039694267 0.002098654 0.009557957 0.008943183 0.001960235
0.006622618 -0.0048881057 0.017791534 -0.014262708 -0.013527412 0.0020046704 -0.0047438648 -0.015006138
0.0060276445 -0.009878548 -0.008749804 0.005794775 0.011424184 0.009323311 0.0012519527 0.010262319
00000000: a682 9ebc 0c46 dcbb e961 3fbc a1fb 9bbc
00000010: c7bc 56bc 851c a3bc 318f 61b8 8056 ec3b
00000020: e60f 213c b07d 3cbc d62e 0ebc 936b 63ba
00000030: 90a7 cd3b 1429 5abc f511 123c 76ab 5fbc
00000040: 653b 773b 50df 163c 9fb5 373c c29f 4abc
00000050: eb94 5fbc 32de 7cbc 314d 4ebc aaee 813b
00000060: 25d2 a53b 8793 abbc 1e98 0b3c 9fa5 98bc
00000070: 0e9d 56bc 0495 943a 04ad f43b bc82 363c
00000080: 25ae 7b3b 9582 abbb e723 52bc e56a a8bb
00000090: 2630 bb3b 6e29 2dbc 0dbd 56bc 334a aebb
000000a0: 1ab4 b8ba e888 dbbb d657 133c f8e2 31bb
000000b0: 79d9 483c a7fb 1f3c f5ae f1ba 5cbd e23a
000000c0: 7ba6 443c 717f f43b 0e83 9e3b 6e02 34bc
000000d0: 07cc a6bc bbb7 6539 69de 29bc 267a 89bc
000000e0: 7a51 043c 68e6 073c 2583 fabb 38a7 84bb
000000f0: bf89 8b3c 999b 8b3b ba86 623a 09d0 f73b
00000100: f0c4 8abc 310c 64bc a834 43bc 6c80 81bc
00000110: d6db 4cbc 89eb 98bc 0ebd 973b c2fe ef39
00000120: 8ec6 17bb db1b cdbb 29ac a6bc 3dc8 35bc
00000130: 2dca 1c3c e4e1 7bbc 0167 243c d02f 39bc
00000140: 22fc 603a c47b a93b 5291 603c cef3 22bc
00000150: d13a 9dbc b5e5 82bc d29f 7abb ce9b 1f3b
00000160: e186 093b 3f06 a4bc 473a e539 d57c 18bc
00000170: 968f 82bc c295 883b 5ed9 d63a bcbb e03b
00000180: 1b79 35bb cff4 07bc 85f8 68bc 25dc 88bc
00000190: 1a07 ac3b 7da9 4cbc 6db1 9bbc a840 c5bb
000001a0: 1b38 9c3c 2c52 63bc cc24 063b 8558 1ebc
000001b0: afb8 1b3c a377 b13b e310 6d3c 57f9 483a
000001c0: 149c 803b 4be7 993b 96a8 be3b f1cf d6bb
000001d0: b467 90bc 2855 9e3b 0b78 ebbb b16a 4dbc
000001e0: 679e a2bb 4bc2 13b9 d2c2 96bc 9cbd 803c
000001f0: eb93 423b 4f2f 043c 3dce 9e39 4209 46bc
00000200: 60b8 8cbc 38d9 013b ae58 13bb 6635 70bc
00000210: cade 78bc d01c 4fbc 4c4c 643c 6bf4 73bb
00000220: 0217 233c bcd0 a1bc d60b a5bc a651 57bc
00000230: 7272 433c 5271 90bc db73 f93b 4736 01bc
00000240: 8deb 303b 4956 36bb eba0 cbbb 6378 83bc
00000250: 6232 4fbc 02c2 4abc 65e1 07bc a0a1 0e3c
00000260: b255 eb3b 8eba 76bc 167e 333c 2b0a 85bc
00000270: 2090 4cbb 3772 203c dfe1 4a3c 859f 883c
00000280: 1f11 44ba e796 7bbc 208c 50bc 0599 b9bc
00000290: 6088 8e3a fe09 34bc 4593 31bc 4475 b7bb
000002a0: bc75 a53b dc3f 1cbc 165c db3b 1cc5 aebb
000002b0: 8061 523c 86b8 d63a 0631 7c3b 0475 bd3b
000002c0: 177c eb3a a97b 6e3c b857 403c 1025 84bc
000002d0: e0eb 51bc d9b9 a93a 1553 77bc fa7c 6cbc
000002e0: 1644 41b9 7299 603c f1ea 15bc cd48 b23b
000002f0: 389c 4f3a c3e3 43ba f429 953b bf13 053c
00000300: 2369 41bc a586 93bc efbe 65bc 0dec d4bc
00000310: 4333 13bc 7102 80bc ed8e c33b 8a7f ab3b
00000320: ed7b f839 cb02 3abc cdae 65bc 59a4 0cbc
00000330: 2872 643c 9b06 21bc 715d 593c 4546 71bc
00000340: 014a 28ba 201b 8f3b e88f 033c 4516 44bc
00000350: 3738 8ebc 3854 e9bb 2559 1cbc e9cc 453b
00000360: 11cd f53b 46b8 9abc 0291 f53b 8db7 83bc
00000370: 526f 51bc d5a1 263b a562 c23b f0a3 763b
00000380: e973 4d3a 20ce 8fbb 0978 92bb a813 09bc
00000390: a324 393a 17e6 13bc 6fcd 64bc e723 79bc
000003a0: 27f1 713c d57e 88bc 779d fb3b f711 82bb
000003b0: 9289 093b fa98 1c3c 6e86 123c 4977 003b
000003c0: 8c02 d93b 672c a0bb 8dbf 913c 22ae 69bc
000003d0: 14a2 5dbc ca60 033b 6c72 9bbb 4edc 75bc
000003e0: 8c83 c53b a2d9 21bc 575b 0fbc 19e2 bd3b
000003f0: 802c 3b3c cdc0 183c 9018 a43a 4923 283c

fc2.bias f4 [32]
-2.1142894e-05 -3.999726e-05 2.3217013e-05 -8.015211e-06 -6.735267e-06 -6.4188066e-06 -6.1462215e-06 5.575624e-06
-1.6585602e-05 -7.2608173e-06 -2.0345362e-05 -2.5921401e-05 1.0579122e-05 2.1284366e-05 -1.33499e-05 1.0981739e-06
-2.0397983e-06 -2.6191807e-05 8.844427e-08 5.876411e-07 3.1134405e-06 3.8447433e-07 -1.9145513e-05 8.2503375e-06
-1.5175749e-05 -1.0306085e-05 -1.7241746e-07 -7.3652145e-06 -6.8024483e-06 -9.519045e-06 2.2611966e-06 2.6546645e-06
00000000: 055c b1b7 bbc2 27b8 28c2 c237 1279 06b7
00000010: 81ff e1b6 2161 d7b6 a43b ceb6 3f16 bb36
00000020: 4f21 8bb7 f2a1 f3b6 55ab aab7 c971 d9b7
00000030: fc7c 3137 d48b b237 62f9 5fb7 f864 9335
00000040: 78e3 08b6 7ab6 dbb7 c0ee bd33 64be 1d35
00000050: 80f0 5036 c069 ce34 ad9a a0b7 ee6a 0a37
00000060: 589b 7eb7 4ce8 2cb7 c021 39b4 b622 f7b6
00000070: 9640 e4b6 fdb3 1fb7 10bf 1736 ca26 3236

bn2.weight f4 [32]
0.05150453 0.057160642 0.05373228 0.055365916 0.083278894 0.079848036 0.077534355 0.0755055
0.0494941 0.053519133 0.052330017 0.07683402 0.08084585 0.051843964 0.0821914 0.07950731
0.07933672 0.046780746 0.05342082 0.048803374 0.041308675 0.08179613 0.04975395 0.054639276
0.07264963 0.07950968 0.07946854 0.046653815 0.05187576 0.051142097 0.04561314 0.04607621
00000000: 6af6 523d 4721 6a3d 6116 5c3d 5fc7 623d
00000010: 208e aa3d 5e87 a33d 55ca 9e3d a1a2 9a3d
00000020: 53ba 4a3d e136 5b3d 0058 563d 285b 9d3d
00000030: 8292 a53d 565a 543d f753 a83d bbd4 a23d
00000040: 4a7b a23d 2b9d 3f3d cacf 5a3d 0ce6 473d
00000050: 4933 293d bb84 a73d ccca 4b3d 6fcd 5f3d
00000060: 54c9 943d f9d5 a23d 67c0 a23d 1218 3f3d
00000070: ad7b 543d 607a 513d d8d4 3a3d 68ba 3c3d

bn2.bias f4 [32]
-0.0038002967 -0.0069984635 -0.0028496466 -0.011729539 -0.031436846 -0.03633845 -0.026486013 -0.03235575
-0.0017395274 -0.0066228937 -0.0057539954 -0.02719451 -0.02714482 -0.0072950562 -0.028471228 -0.028012833
-0.031232268 0.0031682744 -0.009380639 -0.0008236035 0.003747687 -0.032355588 -0.0027095845 -0.012176686
-0.029108513 -0.03040293 -0.036140252 -0.00013030783 -0.0078034294 -0.004414913 -0.0002765083 0.0005064281
00000000: 660e 79bb 5e53 e5bb 23c1 3abb 412d 40bc
00000010: ecc3 00bd a0d7 14bd 32f9 d8bc 7787 04bd
00000020: db00 e4ba dc04 d9bb 038c bcbb 05c7 debc
00000030: d05e debc 5e0b efbb 7e3c e9bc 2b7b e5bc
00000040: d0da ffbc d3a2 4f3b 40b1 19bc 18e7 57ba
00000050: c19b 753b 4b87 04bd 4993 31bb b980 47bc
00000060: fa74 eebc 910f f9bc cd07 14bd 3ea3 08b9
00000070: e9b3 ffbb f9aa 90bb 51f8 90b9 d1c1 043a

bn2.running_mean f4 [32]
-0.0015067852 -0.0031687832 -0.0019640205 -0.0021672181 -0.0046122214 -0.0057284436 -0.004491713 -0.0050496305
-0.0021988458 -0.0020703485 -0.0032064212 -0.0043674875 -0.0038953905 -0.0030278638 -0.0040683323 -0.0046068085
-0.0051548276 -0.00017519025 -0.0028414272 -0.0020016755 -0.0011789517 -0.004597651 -0.0030513902 -0.0010412817
-0.0046317084 -0.005715829 -0.005428748 -0.0025852162 -0.0021554725 -0.002380858 -0.0029511962 0.00036827818
00000000: 527f c5ba 5cab 4fbb ccb6 00bb e307 0ebb
00000010: 1e22 97bb abb5 bbbb 382f 93bb 5f77 a5bb
00000020: 831a 10bb afae 07bb d222 52bb 241d 8fbb
00000030: cf49 7fbb 206f 46bb a54f 85bb b6f4 96bb
00000040: d4e9 a8bb 46b3 37b9 3d37 3abb 8b2e 03bb
00000050: 0e87 9aba e4a7 96bb d5f9 47bb 9e7b 88ba
00000060: 96c5 97bb d94b bbbb a4e3 b1bb bb6c 29bb
00000070: d442 0dbb 2b08 1cbb db68 41bb 7615 c139

bn2.running_var f4 [32]
6.64397e-05 5.5516182e-05 5.856546e-05 5.6875368e-05 6.822841e-05 7.1430244e-05 5.8415564e-05 4.6997215e-05
4.4200984e-05 6.0674884e-05 3.8396134e-05 6.640346e-05 7.470203e-05 6.0055463e-05 6.664817e-05 6.0910286e-05
6.661412e-05 5.163038e-05 5.622608e-05 5.5629254e-05 3.5720226e-05 6.189067e-05 5.7860412e-05 5.756626e-05
6.540004e-05 7.411676e-05 7.123528e-05 4.693347e-05 4.7102916e-05 4.6381916e-05 4.6057812e-05 4.713461e-05
00000000: 8b55 8b38 0cda 6838 2fa4 7538 768d 6e38
00000010: d915 8f38 d2cc 9538 3c03 7538 e01e 4538
00000020: 7264 3938 297d 7e38 890b 2138 1642 8b38
00000030: 59a9 9c38 10e4 7b38 77c5 8b38 ec79 7f38
00000040: 2fb3 8b38 b38d 5838 4bd4 6b38 7553 6938
00000050: 4dd2 1538 4dcb 8138 25af 7238 4d73 7138
00000060: 6127 8938 226f 9b38 2664 9538 6eda 4438
00000070: 5f90 4538 348a 4238 332e 4138 67b2 4538

fc3.weight f4 [16, 32]
0.024912858 0.032351825 0.015249485 0.029583525 -0.0062142015 -0.01341489 -0.009282082 -0.01192952
0.01583007 0.01406326 0.016809328 -0.014016986 -0.006459791 0.018321294 -0.013356126 -0.010608528
-0.016432328 0.01938322 0.014391582 0.016161853 0.021206526 -0.01749414 0.013672892 0.023997614
-0.00709042 -0.019314721 -0.017460825 0.024107015 0.015287097 0.01233883 0.017762639 0.019300267
-0.010832909 -0.0121653965 -0.009499317 -0.012836989 0.027348232 0.033614177 0.026724761 0.01855781
-0.007007258 -0.0026386974 -0.009621086 0.029802984 0.034451593 -0.0128464075 0.038446855 0.026893586
0.025838178 -0.007430408 -0.01183257 -0.011510854 0.0002933748 0.02581748 -0.00533494 -0.004556601
0.027115058 0.025871461 0.028688794 -0.00017551644 -0.010065759 -0.00846426 -0.008161989 -0.0069117695
0.011073573 0.026797194 0.022102196 0.022562895 -0.012555166 -0.015692726 -0.012969725 -0.013949594
0.022286586 0.010079962 0.01414473 -0.00936947 -0.0124407895 0.021483231 -0.014172652 -0.009800505
-0.014605247 0.015315343 0.015391453 0.021833656 0.02046207 -0.010839746 0.022500286 0.023335721
-0.009514891 -0.020413352 -0.012061765 0.00838659 0.03015655 0.025113802 0.01810475 0.021085436
-0.010202663 -0.009310533 -0.013020339 -0.011398799 0.027817827 0.027318485 0.024132231 0.012500075
-0.003200112 -0.0024914911 -0.0118225645 0.029665086 0.029252714 -0.016952718 0.03532928 0.027500723
0.0150532285 -0.0012004793 -0.006582972 -0.017556738 -0.005796685 0.029682146 -0.007732775 -0.013167237
0.026998186 0.027317557 0.027324721 -0.0050953315 -0.0028210313 -0.011890872 -0.015977817 -0.009846716
-0.011471648 -0.014945596 -0.011450181 -0.016634516 0.029592147 0.028980449 0.024247942 0.028082402
-0.01388436 -0.0062101 -0.0097154025 0.022551179 0.025596168 -0.013888695 0.030307978 0.034935255
0.024564436 -0.013143634 -0.012371146 -0.012267076 0.0027146053 0.021981867 -0.0056631076 -0.015114313
0.02733624 0.03138586 0.02983019 -0.003257763 -0.0061872546 -0.01313987 -0.01047846 -0.005250698
-0.010078924 -0.010474788 -0.0070653525 -0.010195771 0.03672183 0.02490556 0.027017387 0.029589942
-0.005184097 -0.0027279537 -0.012525339 0.02653202 0.03300094 -0.010949477 0.030689463 0.030714454
0.029587267 -0.005968197 -0.010754596 -0.011752786 -0.0035889621 0.029932119 -0.0039003056 -0.0051903618
0.02829384 0.026969917 0.026069175 -0.0059506446 -0.0009729095 -0.00899809 -0.013317504 -0.002345455
-0.006887106 -0.0017670179 -0.0066291555 -0.006463344 0.034178678 0.034661885 0.031032441 0.02163978
-0.008089905 0.004501751 -0.009788563 0.028326726 0.029743874 -0.013137297 0.030523224 0.024723113
0.035059236 -0.003099622 -0.012026407 -0.0043078596 -0.0010811889 0.035955142 -0.010470929 -0.006459818
0.026350856 0.026553342 0.022932198 -0.0037884694 -0.008474523 -0.0091692805 -0.016053516 -0.004744767
0.029894644 0.016837474 0.018398331 0.017657153 -0.016052889 -0.017571598 -0.0098280525 -0.01680833
0.018787201 0.018989332 0.018850282 -0.008174146 -0.012047452 0.02047646 -0.0151448455 -0.007125242
-0.01724409 0.028645085 0.016986137 0.0107645895 0.009455383 -0.008488431 0.024909504 0.0154301105
-0.0094268005 -0.0197598 -0.01599329 0.021694314 0.026211344 0.014674746 0.009301612 0.019166593
00000000: 0d16 cc3c 5983 043d fad8 793c 2659 f23c
00000010: 80a0 cbbb 20ca 5bbc e013 18bc 0974 43bc
00000020: 10ae 813c 9669 663c b7b3 893c 80a7 65bc
00000030: a8ac d3bb 8a16 963c a7d3 5abc 64cf 2dbc
00000040: 179d 86bc 8fc9 9e3c acca 6b3c dd65 843c
00000050: 4fb9 ad3c df4f 8fbc 4404 603c a596 c43c
00000060: c156 e8bb e839 9ebc 010a 8fbc 137c c53c
00000070: bb76 7a3c ce28 4a3c f482 913c 981b 9e3c
00000080: 837c 31bc 5f51 47bc 06a3 1bbc 3c52 52bc
00000090: 6609 e03c 05af 093d e3ed da3c 8c06 983c
000000a0: 249d e5bb ffed 2cbb c2a1 1dbc 6325 f43c
000000b0: 1d1d 0d3d bd79 52bc 737a 1d3d f04f dc3c
000000c0: 96aa d33c c87a f3bb 65dd 41bc 0598 3cbc
000000d0: 19d0 9939 2e7f d33c b8d0 aebb 8a4f 95bb
000000e0: 6620 de3c 63f0 d33c c304 eb3c d60a 38b9
000000f0: daea 24bc aead 0abc ddb9 05bc 207c e2bb
00000100: ee6d 353c ca85 db3c aa0f b53c d2d5 b83c
00000110: 2fb4 4dbc 088e 80bc f87e 54bc d78c 64bc
00000120: 5c92 b63c 6d26 253c 4cbf 673c 6882 19bc
00000130: 74d4 4bbc 9afd af3c 6934 68bc 4c92 20bc
00000140: d94a 6fbc 34ed 7a3c 6f2c 7c3c 7fdc b23c
00000150: 12a0 a73c 3199 31bc 8552 b83c 8e2a bf3c
00000160: 58e4 1bbc e739 a7bc b69e 45bc e867 093c
00000170: df0a f73c 76bb cd3c 6a50 943c 5dbb ac3c
00000180: 1229 27bc 358b 18bc 4353 55bc 07c2 3abc
00000190: 36e2 e33c 04cb df3c f5b0 c53c 1dcd 4c3c
000001a0: f8b8 51bb 4948 23bb 6eb3 41bc 3204 f33c
000001b0: 63a3 ef3c 6de0 8abc 6fb5 103d 3249 e13c
000001c0: d1a1 763c 6759 9dba f9b5 d7bb 26d3 8fbc
000001d0: 1ef2 bdbb f927 f33c 3863 fdbb 65bb 57bc
000001e0: 4d2b dd3c 12c9 df3c 18d8 df3c bdf6 a6bb
000001f0: 0de1 38bb efd1 42bc e9e3 82bc 1f54 21bc
00000200: 94f3 3bbc 60de 74bc 8a99 3bbc 1c45 88bc
00000210: 3b6b f23c 6868 ed3c 9fa3 c63c 110d e63c
00000220: 3a7b 63bc 187e cbbb 5a2d 1fbc 40bd b83c
00000230: 0eaf d13c 698d 63bc 7048 f83c 4518 0f3d
00000240: 5b3b c93c 6658 57bc 59b0 4abc d9fb 48bc
00000250: 85e7 313b 5113 b43c 9791 b9bb 06a2 77bc
00000260: 40f0 df3c 768e 003d 715e f43c 3280 55bb
00000270: 74be cabb 9c48 57bc d9ad 2bbc 0c0e acbb
00000280: 1222 25bc 729e 2bbc 7984 e7bb 2a0c 27bc
00000290: a169 163d bf06 cc3c 9153 dd3c 9b66 f23c
000002a0: 5cdf a9bb 78c7 32bb 1437 4dbc ae59 d93c
000002b0: fe2b 073d 6f65 33bc 7868 fb3c e19c fb3c
000002c0: ff60 f23c dd90 c3bb 0c34 30bc c28e 40bc
000002d0: cb34 6bbb 3434 f53c 459c 7fbb e913 aabb
000002e0: 7cc8 e73c 04f0 dc3c 068f d53c a0fd c2bb
000002f0: da0a 7fba ba6c 13bc a931 5abc 35b6 19bb
00000300: 3cad e1bb 489b e7ba 6339 d9bb 76ca d3bb
00000310: f1fe 0b3d 9ff9 0d3d bf37 fe3c e845 b13c
00000320: 858b 04bc 6d83 933b 3560 20bc 730d e83c
00000330: 6da9 f33c d13d 57bc d70b fa3c 2088 ca3c
00000340: 469a 0f3d 0723 4bbb 680a 45bc f228 8dbb
00000350: aeb6 8dba b345 133d 428e 2bbc e2ac d3bb
00000360: c0dd d73c 6586 d93c 4edc bb3c f847 78bb
00000370: bad8 0abc c03a 16bc aa82 83bc fe79 9bbb
00000380: 9de5 f43c beee 893c 19b8 963c bca5 903c
00000390: 5981 83bc 50f2 8fbc d705 21bc 9fb1 89bc
000003a0: 9ee7 993c 848f 9b3c e86b 9a3c daec 05bc
000003b0: ad62 45bc 40be a73c 1622 78bc dd7a e9bb
000003c0: 7a43 8dbc 19a9 ea3c 8326 8b3c f65d 303c
000003d0: c0ea 1a3c 0f13 0bbc 040f cc3c 93ce 7c3c
000003e0: de72 1abc 4edf a1bc 5c04 83bc 46b8 b13c
000003f0: 2cb9 d63c 596e 703c ca65 183c 4203 9d3c

fc3.bias f4 [16]
-7.3345504e-06 2.2815777e-05 1.8903384e-06 -4.1012754e-08 -1.30807075e-05 3.7659215e-06 5.606157e-06 -6.893815e-06
2.228434e-05 -1.7896538e-05 2.4235775e-05 -1.609638e-05 -2.6507446e-06 4.561523e-06 -2.7640094e-06 -7.2514194e-07
00000000: 4f1b f6b6 8264 bf37 88b7 fd35 0026 30b3
00000010: 3675 5bb7 0aba 7c36 861c bc36 6c51 e7b6
00000020: 41ef ba37 8620 96b7 ee4d cb37 b606 87b7
00000030: 72e3 31b6 2f0f 9936 527d 39b6 60a7 42b5

bn3.weight f4 [16]
0.27864903 0.28726795 0.2864708 0.28170872 0.29439276 0.29552287 0.30138722 0.28111765
0.289402 0.2897642 0.28381586 0.28454894 0.28698003 0.28251368 0.28853568 0.28607818
00000000: 16ab 8e3e c914 933e 4dac 923e 203c 903e
00000010: a6ba 963e c64e 973e 6d4f 9a3e a7ee 8f3e
00000020: 802c 943e f95b 943e 5050 913e 66b0 913e
00000030: 0cef 923e a2a5 903e f3ba 933e d778 923e

bn3.bias f4 [16]
0.13401331 0.13129047 0.14141381 0.1296451 0.1350103 0.13196306 0.13640974 0.13700938
0.13820963 0.14132436 0.140494 0.14000662 0.13402042 0.13359836 0.13259247 0.13249642
00000000: c93a 093e 0271 063e c8ce 103e afc1 043e
00000010: 2440 0a3e 5321 073e ffae 0b3e 304c 0c3e
00000020: d386 0d3e 55b7 103e a9dd 0f3e e55d 0f3e
00000030: a63c 093e 02ce 083e 52c6 073e 24ad 073e

bn3.running_mean f4 [16]
0.0031890527 0.002579348 0.0033212511 0.0018606293 0.0018369256 0.002842807 0.0031812154 0.003143748
0.0038194067 0.0029368266 0.0041166265 0.003026699 0.0020094314 0.0034909442 0.0024398675 0.0018213157
00000000: 6dff 503b 470a 293b 59a9 593b 5ce0 f33a
00000010: ffc4 f03a 634e 3a3b f07b 503b 5707 4e3b
00000020: 034f 7a3b c677 403b c4e4 863b 955b 463b
00000030: aab0 033b 53c8 643b 2fe6 1f3b 37b9 ee3a

bn3.running_var f4 [16]
0.00010895569 0.00011719417 0.000114463925 0.00011501202 0.00012728375 0.000116712996 0.00011322458 0.00011110274
0.00011238874 0.0001166963 0.00010809048 0.00011884427 0.00011972829 0.00011317609 0.00012147591 0.00012063993
00000000: 247f e438 24c6 f538 5a0c f038 9c32 f138
00000010: 7977 0539 d0c3 f438 fc72 ed38 d4ff e838
00000020: 3fb2 eb38 d9ba f438 a2ae e238 083c f938
00000030: a316 fb38 f358 ed38 e2c0 fe38 1200 fd38

fc4.weight f4 [1, 16]
0.3097785 -0.31674471 0.31943727 -0.31236547 -0.32413265 -0.32324478 -0.32959574 0.31279024
0.31914204 0.3217992 0.3169473 0.31717834 -0.3176937 0.31328365 -0.31937307 -0.3164042
00000000: 4a9b 9e3e 5d2c a2be 488d a33e 5eee 9fbe
00000010: b7f4 a5be 5780 a5be c6c0 a8be 0b26 a03e
00000020: 9666 a33e ddc2 a43e eb46 a23e 3365 a23e
00000030: c0a8 a2be b766 a03e de84 a3be bbff a1be
