models/big_small_model.pth (torch, 51260 bytes, 13 tensors)

fc1.weight f4 [128, 5]
00000000: 81e2 4cbd 8358 1d3e 00c4 c33e f510 f93d
00000010: 5759 143e fed8 b13c 78e7 d3be 3890 8abe
00000020: f998 da3c 03d4 4c3e 79ed 31bd 68c2 adbe
00000030: 53c0 8c3d 71ea 973e ee21 c43e 5542 0d3e
00000040: c60a 4cbe 4326 933c 0d7e 88be adab 8a3e
00000050: 2a76 d5be c9f8 04be c5b8 c23e 164f 8ebc
00000060: c211 a43c fc22 14bf d080 38be d372 c03c
00000070: f79e 793d 7196 8c3d 889b 243f 69e3 73be
00000080: 3d23 e0bd 56a1 a2be f61d 5a3e 317d b1be
00000090: 1e4f d93d 9243 0dbc f6f2 94bd 3b7c 15be
000000a0: 9f97 133e a25e dfbd b7b7 a73d 5911 c3bd
000000b0: bb62 e13c a7f2 7b3e b08d a2be 6e0e 9a3e
000000c0: ced8 693d c7ea 3e3e aed2 043f 57dd c0bc
000000d0: ec9d 98be aaa2 4b3e c9ff f3bd cc08 c13e
000000e0: 6a65 e3be bc31 553e b7f6 84be 715f bcbe
000000f0: afa4 ec3e 7872 30be a21d 0e3c 45c0 4e3e
00000100: 86f9 57bd 0583 80be 3d60 943d 07bc c13c
00000110: a568 973d 7db3 2ebd 1ab5 9fbe adb9 a83e
00000120: 7318 ab3c e0c2 a63d eaaf 4ebd 1ce2 423e
00000130: a3f7 25be 1f30 743d 9c31 6ebe f535 b33d
00000140: 2e0a ff3e 1070 7dbe 9081 87bd 3f86 6cbd
00000150: 7829 e9bd 6e93 59bd 9b32 6a3e d19a 1b3c
00000160: 3ac9 ad3e 0aa6 f73d d72a 1bbf e1ef a5be
00000170: 5b44 c53b d1bc a0bd 336b 953d e87e 753e
00000180: d528 25be f221 103e cdb5 04be 0a48 84bd
00000190: f2af b7bd 7f2d 12be 7d4b 1e3e 6f05 0339
000001a0: 9335 17be 2b1e 5cbe ce66 9f3e d1c9 16be
000001b0: 1f08 08bc 82a3 ca3d 636b fa3e 4235 3ebe
000001c0: 3a89 a43c ad6a 63bd 0010 a93e c8ee 353d
000001d0: 8890 153d a0cc 8abe 43dd 53be eec4 c0bd
000001e0: 5d7d b6be 06ed 04bd db32 843d e9fb c33e
000001f0: a9eb bb3e e26e 4b3e 5256 f8bd b065 dcbd
00000200: 9da5 443d 5672 173e 3aea 31bd e034 cf3e
00000210: d4b8 093d 16b3 773d 62bb bcbd 8c53 3b3d
00000220: 7e2d 6a3e 4314 48bd 6d73 a33e cebb 843d
00000230: b3cf 163e 06e1 f53d fc29 71bc 4235 08be
00000240: 6bb2 063e 1232 04bf 662c b5bd 600c ad3c
00000250: 12e9 043d 3f9a c53c 26bf 1d3e ae2e 733d
00000260: ca8a cc3c c93c 51be 2721 973d 1235 28be
00000270: 4a79 b9bd 071d a63c 4c0e 993c f9b0 aa3e
00000280: 6192 61be 7cd6 0e3d 9ca8 8bbe db39 663e
00000290: 8147 03be 5592 8dbd 556d febb 86a2 8f3e
000002a0: b896 883e 2ca5 90bd 8a0a a33e bf6b 57be
000002b0: feb4 59be 3be5 bf3d 46f8 d4be 76e5 0e3f
000002c0: d2b5 02be d04c 653e 66a3 9dbe 5a69 c13e
000002d0: 0b01 abbe 84dc 8c3d 2a27 1fbe 4886 ac3e
000002e0: 06ce d23d f07b 963e 0aad 30be e72d 14be
000002f0: c0f8 6a3e 3f24 223d da21 ad3d dc42 883e
00000300: 9947 b63e f3cc 463c ee55 b3bd a36f a23d
00000310: 1f76 753e 7772 7b3e 39f7 7d3e 339e c3be
00000320: 9944 5ebd f90f 5ebe 5783 fbbb 181a 62be
00000330: 12a6 9c3e 2846 063f 81d1 cbbd 4c7c 9abe
00000340: b302 3c3e d20a d23d a695 b9be d515 343e
00000350: 4166 b63c 48a0 b73d ebb5 b9bd 75a5 e83d
00000360: 6177 62bc cec8 13bd 7ed4 8abe 3d42 afbc
00000370: 7021 c13e f98f c0bc 8e6b 1d3e ef96 b03d
00000380: 562c 843d 5003 c23e 64fe d2b9 12bd 423e
00000390: 7437 69be fb4d 8f3e bd0c 2cbd 0e42 27be
000003a0: a0c1 873d fd70 d33e 9fda 893e 5bbc bd3d
000003b0: 78fc cbbc ecd2 a5be 2849 a23e 3d6f 17be
000003c0: 992c 09be 0c2a 9b3c 2118 643d aee1 523e
000003d0: ceef 78bd 65b9 913e 3c37 213e d4e0 983d
000003e0: 07c1 ddbd be1c cb3e a5e1 043f d1c0 9dbe
000003f0: f028 46be 667e 3f3e 0f1c e0be d1a1 b53e
-0.0500207 0.15365796 0.38235474 0.121614374 0.14487205 0.021709915 -0.41387534 -0.27063155
0.026684271 0.20002751 -0.043439362 -0.33937383 0.068726204 0.29671052 0.38307136 0.13794835
-0.19925985 0.01796258 -0.2665867 0.27084103 -0.41691715 -0.12985529 0.38031593 -0.017371695
0.020027999 -0.5786588 -0.18017888 0.023492252 0.060942616 0.06864632 0.6429982 -0.23817219
-0.10944221 -0.31763715 0.21300492 -0.34665826 0.106107935 -0.008622067 -0.072729036 -0.14598171
0.14413308 -0.10906722 0.08189338 -0.09524793 0.027512899 0.24604283 -0.31748724 0.30089134
0.057091527 0.18644248 0.5188397 -0.023543043 -0.29807985 0.1988627 -0.119140215 0.37702024
-0.4441331 0.20819753 -0.25969478 -0.36791566 0.46219394 -0.17231166 0.008674057 0.20190533
-0.0527282 -0.2509996 0.072449185 0.023649229 0.07393006 -0.042651642 -0.31192857 0.3295416
0.020885682 0.08142638 -0.050460733 0.19031566 -0.16207747 0.059616204 -0.23261112 0.08750526
0.49812454 -0.2474978 -0.06616509 -0.057745215 -0.11384863 -0.053119116 0.22870867 0.00949736
0.33942586 0.12092216 -0.60612243 -0.32409576 0.0060201115 -0.07848514 0.07295837 0.23974192
-0.16128857 0.14075449 -0.12959976 -0.06459053 -0.08969106 -0.14275168 0.15458484 0.00012495158
-0.1476653 -0.21495883 0.3113312 -0.14725424 -0.0083027175 0.09894468 0.48910055 -0.18575004
0.020084966 -0.055521656 0.3302002 0.044417173 0.03651479 -0.2710924 -0.20689873 -0.09412561
-0.3564252 -0.032452606 0.064550124 0.3827813 0.36703232 0.19866517 -0.12125839 -0.10761583
0.048009504 0.1478971 -0.043436266 0.40470028 0.03362353 0.060473524 -0.09215428 0.045733973
0.22868916 -0.048847448 0.31924 0.064811334 0.14727668 0.120058104 -0.0147194825 -0.13301566
0.13153999 -0.516389 -0.08846359 0.021124065 0.032448836 0.024121402 0.15404949 0.05937069
0.024968524 -0.20433344 0.0737937 -0.16426495 -0.09056337 0.020277513 0.018683575 0.33338144
-0.22028495 0.034872517 -0.27277076 0.22483008 -0.12820245 -0.06912676 -0.0077644982 0.28053683
0.2667749 -0.07062754 0.31843978 -0.21037196 -0.2126045 0.09369894 -0.41595668 0.5581888
-0.12764671 0.22392583 -0.30788726 0.3777569 -0.33399233 0.068779975 -0.15542284 0.33696198
0.10293202 0.29391432 -0.17253509 -0.14470635 0.22946453 0.03958535 0.08453722 0.2661351
0.356015 0.012133825 -0.08756624 0.07931449 0.23970841 0.24555384 0.24801339 -0.38206634
-0.05426464 -0.2168578 -0.007675569 -0.22080266 0.30595452 0.524508 -0.09952069 -0.30172956
0.18360405 0.1025597 -0.36246985 0.17586453 0.022265555 0.08966118 -0.09067901 0.113596834
-0.013822407 -0.036080174 -0.27115244 -0.02139389 0.37720823 -0.023506152 0.1537306 0.08622538
0.06453769 0.37893152 -0.00040243857 0.19017437 -0.2277506 0.27989182 -0.042004336 -0.16333792
0.06628728 0.4129714 0.26924607 0.092644416 -0.02490066 -0.32387483 0.3169644 -0.14788528
-0.13395919 0.018940948 0.055687074 0.20593902 -0.06077557 0.28461757 0.15743726 0.074647576
-0.10827833 0.39670366 0.51906806 -0.3081117 -0.19351554 0.18700561 -0.43771407 0.3547502

fc1.bias f4 [128]
00000000: d2a6 673e ff9b f43e a576 46be 04ec 0cbf
00000010: d4d3 63be 9ef9 34bd 849f af3e 0585 79be
00000020: 70da e1be 356a a03d 3c88 883d 7359 ec3d
00000030: 8569 3bbe 0c29 bebc b8f7 35be f204 18bf
00000040: 6601 3a3e f337 013f ade2 31bd df8d d5be
00000050: aedf 093e 9cc9 ad3e 3b46 01bf 28e1 333d
00000060: 4449 f73e e5f1 e0be f331 b23c 105a cb3e
00000070: 25d5 fe3e 2c17 143c 08db cfbe 59c5 93be
00000080: 3dae 8e3d 2ba9 a63e fa05 a83e 6913 9c3e
00000090: 7494 933d 84de bdbe e1cd 0e3e 4500 a03e
000000a0: c59f c2bd 5d7b 9dbb 5227 92bd 6594 3abe
000000b0: 35cd d2be 754b 093e 7389 113f 4e34 d73e
000000c0: dd96 ed3e 74f6 fe3e 1c4a 853e de20 6cbc
000000d0: 4f66 cf3d afac 03bf 8fe6 46bc 6b8d e83d
000000e0: 57b7 1fbe 4631 c63e e1c5 6b3e 98b4 d4be
000000f0: 17a8 df3e 4d42 5e3e f1d1 bc3e 4a4b 47bf
00000100: 6484 a4be b01c 4abe f675 9dbe df64 973e
00000110: 7ca3 46bc d658 e53d 645f c7bd b354 2fbc
00000120: 3b72 f3bd 6bc6 49bd 2228 d9bd 1d83 003f
00000130: bca0 30bd acc1 ad3e 8ef5 44bd 0d10 dfbe
00000140: 9e33 cfbe 5bc9 ff3e a7b1 493e 29f8 5d3e
00000150: 780e e33e e53b 123e 2fc1 fa3b 7455 cdbe
00000160: 7ccd 2b3e 2deb a83e 30e6 dfbd 1e27 aabd
00000170: a11b 99be f50e 863e 2c42 c7bd 936b 023e
00000180: cf18 9b3e c473 4dbe c756 083e 6720 b73e
00000190: d017 7ebc 03af fd3d bb46 aa3e f59a 96bd
000001a0: 7676 883e 4c96 9abe eef7 60be e275 d13e
000001b0: b919 27be 9d6f b4bd 998c d53e 8354 a03d
000001c0: 595a cd3e 07b7 ab3e 398a 62be 1897 d93d
000001d0: 4b2f e53d f6b5 0abe e72d 2abd b558 c33e
000001e0: 0dae 26be 9dff a83d 09bf e43d 13bc f9be
000001f0: 1dd6 e8bb 4d2b 983e 0216 05be 3bc6 c33e
0.2262223 0.47775266 -0.19381197 -0.5504763 -0.22248775 -0.044183366 0.34301388 -0.24367149
-0.44111967 0.078327574 0.0666661 0.115404986 -0.18301971 -0.023212932 -0.17770278 -0.59382546
0.18164596 0.50475997 -0.043429065 -0.41709802 0.13464233 0.33942878 -0.5049779 0.043915898
0.48298085 -0.4393455 0.021752333 0.3971715 0.4977199 0.009038728 -0.40596795 -0.28861502
0.06966827 0.3255094 0.3281706 0.3048356 0.072060496 -0.37083828 0.13945724 0.31250206
-0.0950313 -0.004805966 -0.07136406 -0.1822067 -0.41172186 0.13407691 0.56850356 0.42032093
0.46404162 0.49797404 0.26033103 -0.014412133 0.10126936 -0.5143537 -0.01213993 0.11355098
-0.15597282 0.38709468 0.23024704 -0.41544032 0.4368293 0.21704979 0.36878923 -0.77849257
-0.32132256 -0.19737506 -0.3075406 0.29569146 -0.012123939 0.11198585 -0.09734991 -0.010701346
-0.11887022 -0.04926149 -0.10603358 0.50200063 -0.04312204 0.33936822 -0.04808574 -0.43566933
-0.40469068 0.4995831 0.19696675 0.21676697 0.44346976 0.1428066 0.007652424 -0.40104258
0.16777605 0.32991925 -0.10932577 -0.08308242 -0.29903892 0.26183286 -0.09729418 0.12736349
0.30292365 -0.20063692 0.13314353 0.3576691 -0.015508607 0.123868965 0.33257088 -0.073537745
0.2665288 -0.30192792 -0.21969578 0.4091025 -0.16318406 -0.08810351 0.4170883 0.07828619
0.40107992 0.33538076 -0.2212304 0.10624522 0.11190661 -0.13545975 -0.041547682 0.38153616
-0.16277333 0.08251879 0.111692496 -0.48776302 -0.0071056024 0.29720536 -0.12996677 0.38237175

norm1.weight f4 [128]
00000000: bf01 6c3f 3660 573f 5aa7 6f3f 46b0 863f
00000010: bad4 763f 9bfc 9f3f b41d 423f 5606 823f
00000020: 57d1 8d3f 3cdd 3c3f cca9 3f3f d117 493f
00000030: 1027 673f 5cf6 983f cd31 823f 91ae 953f
00000040: 11ce 503f 5fa6 793f 4394 823f 291b 783f
00000050: 7e14 573f a619 663f 5ca0 663f b6e6 533f
00000060: 5fde 613f 1e4d 6d3f fb68 713f 4f84 573f
00000070: 2900 503f 8104 ac3f 7241 843f 4540 7a3f
00000080: 87c2 723f a691 513f f7d5 483f 8009 343f
00000090: 04ed 783f 7131 5f3f 7780 513f ad57 6a3f
000000a0: 528e 793f 73db 3f3f 1705 8a3f 7e04 613f
000000b0: ec77 683f bcfe 463f 550a 6a3f 9135 5a3f
000000c0: 0ec4 653f 1231 423f e74a 423f bbb0 4e3f
000000d0: 8fb3 5b3f 110a 5b3f 65c2 4d3f a914 523f
000000e0: c0ee 633f afee 6d3f 914e 753f 2b25 6d3f
000000f0: 2ade 653f e1f4 5c3f 3e0d 4c3f 0b4c 7f3f
00000100: 15e7 663f b0ac 723f 0bfe 923f d087 6c3f
00000110: 05ac 753f 6574 813f f113 403f 94ac 4a3f
00000120: e66c 483f 1afe 573f 14aa 833f 0eb4 533f
00000130: af56 793f 50da 563f 4c48 853f 6344 733f
00000140: 49bc 783f 79a3 753f 02bd 7e3f 9a36 513f
00000150: a29f 683f c9bb 7d3f 9a84 4f3f 17b2 5c3f
00000160: 8828 543f 00fd 683f bbe9 7e3f e1b5 883f
00000170: 2415 653f 0919 603f a7c6 723f 74fc 8d3f
00000180: c4c3 633f 7b2e 843f 3bd0 733f ba7c 5b3f
00000190: 117e 433f dbf6 843f 0649 6c3f d9e1 553f
000001a0: 9ed7 4c3f 35bb 613f fcf7 613f c112 853f
000001b0: 1958 553f f508 823f 5654 663f 8046 863f
000001c0: 19ae 4e3f 6e08 6b3f 6d33 823f 7526 4f3f
000001d0: 7e2f 8a3f d0fc 7e3f f41e 473f b373 493f
000001e0: c52c 613f e743 453f dc51 463f 4e13 913f
000001f0: e995 823f a230 5d3f a580 703f 8878 3f3f
0.92190164 0.8413118 0.93614733 1.0522544 0.96418345 1.2498964 0.75826573 1.0158184
1.107951 0.73775077 0.74868464 0.78551966 0.9029398 1.1950183 1.0171448 1.1693898
0.8156443 0.9751949 1.0201496 0.96916443 0.84015644 0.89882886 0.9008844 0.8277391
0.88229936 0.92695796 0.9430081 0.8418626 0.81250244 1.3438874 1.0332472 0.9775432
0.94828075 0.81862867 0.78451484 0.70326996 0.9723666 0.87184817 0.81836647 0.9154003
0.9748279 0.7494423 1.0782803 0.8789748 0.90807986 0.77732444 0.91422015 0.85237986
0.8975228 0.75856125 0.7589554 0.8073842 0.8582086 0.85562235 0.8037475 0.82062775
0.8903618 0.9294233 0.9582301 0.9263484 0.8979212 0.86311156 0.79707706 0.9972541
0.90196353 0.9479475 1.1483778 0.92394733 0.95965606 1.0113646 0.7503043 0.79169583
0.78291166 0.84372103 1.0286279 0.82696617 0.97397894 0.8392687 1.0412688 0.95026225
0.971623 0.95952564 0.99507153 0.8172394 0.9086858 0.9911466 0.8106171 0.86209244
0.82874346 0.9101105 0.99575394 1.0680505 0.89485383 0.875382 0.9483437 1.1092668
0.8897059 1.0326685 0.9523961 0.8573719 0.7636424 1.0387834 0.92298925 0.8354774
0.80016506 0.8817628 0.8826902 1.0396348 0.8333755 1.0158983 0.89972436 1.0490265
0.807344 0.9180974 1.0171944 0.80918056 1.0795743 0.9960451 0.77781606 0.7869217
0.8795894 0.77056736 0.7746866 1.1334016 1.0201999 0.8640233 0.93946296 0.7479329

norm1.bias f4 [128]
00000000: 0f2e acbd 9daa c7bd b4e9 f8bc be48 5a3d
00000010: c339 26bd 4776 f53c 97b3 63be 6441 8bba
00000020: f973 143d dd00 3dbe ed53 62be dccc 36be
00000030: a89c 8fbd 7247 793d b618 98bd 274c 98bc
00000040: 9038 d3bd d4d5 96bc 8d4e d2bb c8c9 65bd
00000050: bff2 afbd db28 81bc d6ad f4bd 8c23 a6bd
00000060: cee0 b6bd 7ce9 9cbd 5cb1 66bd aaad 57be
00000070: d547 47be 1289 8b3d 838b 21bd adc8 aabd
00000080: 3ce5 023d abde afbd 2b34 44be 818c 7cbe
00000090: cfdb 4abd 661b c4bd 6c1a 44bd 92aa b7bc
000000a0: ffdc 833c dbbd 63be 64b8 0ebd 0421 75bd
000000b0: 9949 89bd 7a6c 20be 0172 efbd 96a9 1abe
000000c0: 4f9b 43bd d124 4abe 7943 4bbe 3d8f f6bd
000000d0: 0999 3bbd 2812 f2bd 20fc 34be a7f7 babd
000000e0: 0def 9bbd 56a9 b4bd 4625 6abe e6c3 92bc
000000f0: 891d cebd f0c1 18be 469f 2fbe 7e6d 21be
00000100: 614f 02be 279e 5dbd e7ba e03b 0952 bdbd
00000110: a982 e2bc b1cd 183d ef10 43be c4d6 02be
00000120: 603f 45be c126 29be ea66 8dbd 6f8e 0cbe
00000130: 4d9c 2f3b 1bac 38be f91d 58bd eb51 d6bd
00000140: 9e6a a4bc 9085 3b3c aed8 20bd ef05 10be
00000150: 2271 1bbd 5f21 c1bd 576a 83bd ffa8 39be
00000160: a2a5 3ebe 0c90 c6bd e092 513d 1f8c 6b3d
00000170: af99 a0bd d076 02be 7082 d2bc 44ad 05bd
00000180: 420f 1cbd 89a6 51bd 3773 bcbd 3e78 52be
00000190: f1e3 4abe f710 2bbe 8d22 bfbd 8db7 b9bd
000001a0: 2742 2ebe f7df bbbd d773 b3bd 29e0 6dbd
000001b0: 6faa 0abe e61c 2dbd 3eb2 dabd d69b f5bc
000001c0: 24bc 4abe 2485 f3bd 9651 3d3d fe7f e4bd
000001d0: 6400 e63c f39c 593d 68aa cbbd 6829 64be
000001e0: 174d 11be 9c18 21be ede5 cdbd cbe1 633d
000001f0: 47b4 723c 8de1 2dbe 5179 0d3c 56d0 70be
-0.084072225 -0.09749339 -0.030384876 0.05329203 -0.04058243 0.029963626 -0.22236477 -0.0010624346
0.036243413 -0.1845736 -0.22102328 -0.17851585 -0.07012302 0.06085915 -0.07426588 -0.018591
-0.10313523 -0.018412508 -0.0064180554 -0.056100637 -0.08591222 -0.015766552 -0.11947219 -0.08112249
-0.08929597 -0.07661721 -0.056321487 -0.21062341 -0.19460995 0.068132535 -0.03943969 -0.08339057
0.031956896 -0.085873924 -0.19160526 -0.24662973 -0.049526032 -0.09575538 -0.04787676 -0.022420201
0.01609659 -0.22240393 -0.034843817 -0.05984594 -0.06703491 -0.1566638 -0.116916664 -0.15103754
-0.047755536 -0.19740607 -0.19849958 -0.12039039 -0.045800243 -0.11819869 -0.17674303 -0.09129267
-0.07613955 -0.08821361 -0.22865781 -0.017915677 -0.10064227 -0.14917731 -0.17150602 -0.15764424
-0.12725593 -0.054105904 0.006858218 -0.092441626 -0.027650194 0.037305538 -0.19049428 -0.12777239
-0.19262457 -0.1651869 -0.06904395 -0.13726209 0.0026796043 -0.18034403 -0.05276296 -0.10464843
-0.02007037 0.011445418 -0.03926914 -0.14064763 -0.03794969 -0.09430193 -0.06416767 -0.18130873
-0.18617871 -0.096954435 0.05116546 0.057506677 -0.07841813 -0.12740636 -0.025696963 -0.032635942
-0.03810049 -0.05118421 -0.09201663 -0.20553681 -0.19813515 -0.1670569 -0.09332762 -0.09068213
-0.17017423 -0.09173577 -0.08762329 -0.058075104 -0.13541578 -0.042263888 -0.10678528 -0.029981535
-0.19798332 -0.11890629 0.046220385 -0.11157225 0.028076358 0.053128194 -0.09944612 -0.2228142
-0.14189564 -0.15732044 -0.100536205 0.055635255 0.014813489 -0.16980572 0.008634881 -0.23516974

fc2.weight f4 [64, 128]
00000000: 154c 043e a922 843d bb1e a53d d29e 8fbd
00000010: 46dc 023d 8920 5cbd e572 7bbc 16fd 88bd
00000020: 5c7b ebbd ec29 273c 46ee 92ba 772d 8f3d
00000030: 6210 883c 3c8c 503d b73a ba3d 7458 70be
00000040: 5169 323c 96b8 da3d 0a94 0c3d 5210 043d
00000050: 60b5 853d d162 d5bc 0647 5d3d a081 943d
00000060: 43cc 2abd a433 aa3c 1abc 54bd ae57 ab3d
00000070: 2a30 ad3d 41d0 2cbd b3a8 c3bd 9fbe 87bd
00000080: d073 30bc 69a1 493d 8127 723d 34d1 633d
00000090: 4f34 273c 0cd4 34bd ca2a 8b3b 17e4 cd3c
000000a0: 6170 873c 79aa fd3c e949 383d a6fd 65bc
000000b0: 123f 833d 9a6b ee37 0668 513e f946 183e
000000c0: 41a9 14bd 0317 5a3d 65c3 35bc f417 9eba
000000d0: 9935 7f3d 7e6b d13c a59c ef3c b8cc 1c3d
000000e0: f853 d63d 790a a13d 9e74 c6bc d655 a3bc
000000f0: 7386 12bd e91a 68bd b01d 313a 8a23 26bd
00000100: 2e64 1cbd 8173 df3d 483b b2bd 0300 033e
00000110: 5a6d 133e b657 6f3d c276 a0ba c0b9 ddbb
00000120: b0c5 f9ba 843d db3c 48e8 fabc bf40 7b3d
00000130: ac9f c33c b260 f23c 7e19 48bd ef5a a7bd
00000140: 5a06 d5ba e304 a2bd 86a1 8bbd 5c8b 613d
00000150: e0f5 f83d 5e46 6abd 9943 933d 9662 843b
00000160: 7d0c 163e f39b 62bd 10db 36bd f928 fcbc
00000170: c122 9c3c 028c 05bc 4f73 b4bd c1ac 9ebd
00000180: f25e 3ebc 0d73 eb3b 22ef bfbd 17c0 823d
00000190: 1b73 0c3d 1cad 2fbd 570f abbc b871 cdbc
000001a0: d080 423d 0f34 45bc 45f1 703d 2e24 adbd
000001b0: 774d 683d 6c01 3bbd f142 18bd 40af d03d
000001c0: 46f3 c33c be60 533e 9722 24be 56e3 f03c
000001d0: 1184 6abd 60c5 403c 9af7 323d a85b 6d3c
000001e0: f020 133d 196e 9f3c 0236 cb3c c812 d1bd
000001f0: 8640 7d3d dae0 283e 4bb3 b43c ac3a 433d
00000200: 6b3a 0b3d 2608 933c 4439 713d d9aa 2f3b
00000210: 4d5b 053d 7967 373e 08d3 113c 01cf fe3d
00000220: 52a5 22bd f961 86bc 8a48 723c ed35 303c
00000230: fab1 533d 1583 e93d 653b 1e3e f9d6 233c
00000240: 960f 8cba 1ab2 913c f80d 8b3d d3b4 86bc
00000250: 76f1 863d bf60 f33c 3289 a73d 43e1 c23c
00000260: 14c3 1b3c 897b 743d b3b6 623d d964 2fbc
00000270: ca9b 793a 1b83 883e 0ead c7bd f722 453d
00000280: 09ae a63d 2f32 913c fc23 c73b 9b1a 813c
00000290: d950 c83c 90bc 6f3d 823d 2c3b 304f e23c
000002a0: bcaf e8bc e439 233d e154 3e3e 1aa1 07bd
000002b0: 8eb1 c03d 73ea dd3a 8b48 9b3b 137d d83c
000002c0: 1987 683d 9e20 9238 b9c5 d9bc 2204 4e3d
000002d0: b904 333d cdf6 1ebc db15 dbbc 89a2 523c
000002e0: 5e66 6d3b f91f 1abd 1d34 283e 37e3 aa3a
000002f0: 26e1 3e3d 60ac c6bc af67 5ebc 5107 1ebc
00000300: 6092 623c 7544 3a3c d79e b3bd 65fe 55bc
00000310: 0932 0fbc 32db 233d 8efb 943b b182 973c
00000320: 4709 08bc 6065 bc3b e66b 433d bb4e 543c
00000330: b0c9 1c3d 808f 1fbd e572 963d 74f7 263d
00000340: 5c70 a03d 613a 573c ac28 a33d 947f d2bb
00000350: 8ce3 b23c e8ee 9f3d 32e4 2a3d ee47 09bb
00000360: 1869 973b 6d26 00bb 7889 983d e717 cb3d
00000370: 7fa1 ed3c 2954 8cbc 4b80 3ebc be4d 183e
00000380: e1cd 23bc 3d10 5a3c 82a7 5f3d dbbc 293d
00000390: 13b2 3c3b adaf 4b3e d8c0 0c3d 753b 093d
000003a0: e6cf b93a 94d0 0bbd 71da 133d 00e6 223d
000003b0: 9410 fdbb b7ed 4c3d c146 2d3c f37e 863d
000003c0: b300 043d 6a3c a9bc d4e7 9fbc 14dd f63c
000003d0: b9b3 2c39 6cae 343d 064b 49ba e62b ba3c
000003e0: b020 183b 2d0e 6c3d 82e1 b3bc 06bd d6bb
000003f0: e067 563c 5572 b3bb 9527 90bc f0dd 403c
0.12919648 0.064519234 0.08062502 -0.070127144 0.03194835 -0.053741965 -0.015347217 -0.06688897
-0.11498138 0.010202866 -0.0011209927 0.069910936 0.016609374 0.050914988 0.0909323 -0.23471242
0.010889367 0.10679738 0.03432087 0.032242127 0.06528735 -0.026048096 0.05402281 0.072512865
-0.041698705 0.020776577 -0.0519372 0.08366333 0.08456452 -0.042190794 -0.09553661 -0.06628155
-0.010769799 0.0492262 0.059119705 0.055619434 0.010205342 -0.044147536 0.004247044 0.025133176
0.016533079 0.030965077 0.04499236 -0.014037525 0.06408514 2.8421917e-05 0.20449838 0.14870824
-0.036294226 0.053244602 -0.011093949 -0.0012061582 0.062306974 0.025563952 0.029249499 0.038281173
0.104652345 0.078633256 -0.02422553 -0.01993839 -0.035772752 -0.05666629 0.0006756438 -0.040561236
-0.038181476 0.109107025 -0.08702713 0.12792973 0.14397183 0.058433257 -0.0012242424 -0.006766528
-0.0019056108 0.026762731 -0.030628338 0.061341044 0.023879848 0.029587124 -0.048852436 -0.08171641
-0.0016252503 -0.07911088 -0.068179175 0.055064544 0.12156272 -0.057196014 0.071906276 0.0040400727
0.14653201 -0.055324506 -0.044642508 -0.030781256 0.01905954 -0.008151056 -0.08811056 -0.07747794
-0.011619316 0.007185346 -0.09371783 0.063842945 0.03428946 -0.0428897 -0.020881338 -0.02507864
0.047486126 -0.0120363375 0.058823843 -0.08454166 0.0567145 -0.045655653 -0.037173215 0.10189676
0.023919713 0.20642373 -0.1602882 0.029405277 -0.057254855 0.011765808 0.043693163 0.014487185
0.035920084 0.019461678 0.024806026 -0.1020866 0.061829112 0.16492024 0.02205815 0.047663376
0.03399126 0.017948221 0.058892503 0.0026804714 0.032557774 0.17910565 0.008900411 0.124418266
-0.039708443 -0.016404139 0.0147878025 0.010755044 0.051683404 0.11401955 0.15452345 0.009999984
-0.0010685797 0.01778512 0.06789774 -0.016443646 0.06589024 0.029709218 0.08180465 0.023789054
0.0095069595 0.059688125 0.055350017 -0.010705196 0.00095218106 0.26662526 -0.097498044 0.04812905
0.08138663 0.017724125 0.0060772877 0.015759757 0.024452614 0.058529437 0.0026281779 0.02762565
-0.02840411 0.03985013 0.18587066 -0.033112623 0.09408866 0.0016930833 0.0047388724 0.026426828
0.056769464 6.967898e-05 -0.02658354 0.05029691 0.043705676 -0.009702397 -0.02674382 0.012856134
0.0036224346 -0.037628148 0.1642613 0.0013037686 0.046601437 -0.024252117 -0.013574525 -0.009645299
0.013828844 0.0113688605 -0.08770531 -0.013061141 -0.008739957 0.040003963 0.004546589 0.018494936
-0.008302993 0.0057493895 0.04771032 0.012958224 0.03827828 -0.03895521 0.07346133 0.040763333
0.07833931 0.013136477 0.07966742 -0.0064239 0.021837018 0.078092396 0.04172153 -0.0020947414
0.0046206824 -0.0019554154 0.07448095 0.099166684 0.029007671 -0.017129974 -0.011627267 0.14873406
-0.009997816 0.013309536 0.054603107 0.041439872 0.0028792664 0.19891234 0.034363598 0.03350397
0.0014176338 -0.034134462 0.036096994 0.039770126 -0.0077229235 0.05003139 0.010575951 0.065671824
0.03222723 -0.02065869 -0.019519724 0.030134715 0.0001647015 0.044111654 -0.0007678721 0.02272601
0.0023212843 0.057630707 -0.021958116 -0.006553295 0.013086289 -0.005476276 -0.017597 0.011771664

fc2.bias f4 [64]
00000000: 81df 133d 9f1f 873c 888e 5fbd 3b1b 903b
00000010: 0d43 81bd fb10 113d 916e 373d 93f4 1fbd
00000020: 2bc8 493d 900f d1bc 64c4 17bd 0a4e 843d
00000030: aa13 45bd cd15 f9bc 4c1a 833d d562 953d
00000040: 2285 0bbd b5be 3f3d 4207 5e3d 7ef3 e4bc
00000050: 1ec9 d63c 25f9 c23d 323b 993c 0aa5 d7bc
00000060: 7831 6dbd 1764 a43c 842e 563a b511 b1bd
00000070: cd5a ba3c dd57 ff3b d748 94bc 9b37 293c
00000080: ac58 433d bc22 9e3d 7d0a 09bd 618e 273c
00000090: d9c2 673c e6a5 a3bc 754d ad3d 6fb1 ae3d
000000a0: df2b 883d e5ed e53d 218f f63b fa3a 403d
000000b0: f809 92bc 60d1 67bc 3741 13bc fe04 833d
000000c0: ee97 f6bc 7ca6 ec3c fe61 a5bd fe3e d33c
000000d0: 20c1 ee3c 0a5e 873c 0f75 10bc d98e 88bc
000000e0: ad16 35bd 946a 6b3d f1da 1a3d 685b ac3d
000000f0: c214 453d 4d13 36bd e684 863d baca 163d
0.03610182 0.01649457 -0.054579288 0.0043977774 -0.06311617 0.035416584 0.04478318 -0.039051604
0.04926316 -0.025520116 -0.037052527 0.06460197 -0.048114456 -0.030405903 0.064015 0.07294241
-0.034062512 0.04681273 0.05420614 -0.027948137 0.026218947 0.09520177 0.018704984 -0.026323814
-0.057908505 0.020067258 0.00081703835 -0.086459555 0.022748375 0.0077924565 -0.018101139 0.010328199
0.047691986 0.07721469 -0.033457268 0.010226817 0.014145576 -0.019976567 0.084620394 0.085299365
0.06648993 0.112270154 0.0075243865 0.046931244 -0.01782702 -0.01414904 -0.008987716 0.063974366
-0.030101743 0.02888798 -0.08075331 0.025786873 0.029144824 0.016524334 -0.008816971 -0.016669678
-0.04421108 0.057474688 0.037806455 0.08415872 0.0481155 -0.044452 0.06568317 0.03681443

norm2.weight f4 [64]
00000000: 012b 503f a4a4 753f 8fa0 843f 0ebb 693f
00000010: ab0c 683f eaa2 613f 8e67 643f e0ba 7d3f
00000020: 56c2 643f 768c 823f bb56 733f 9b1a 613f
00000030: 0711 6d3f 7816 7e3f c040 5c3f 2b0e 5d3f
00000040: 43ad 5c3f 51bb 553f fef2 833f 925b 583f
00000050: a653 613f e809 613f 23e7 6c3f 7097 6f3f
00000060: ce1d 793f df11 533f 59d1 493f 3452 773f
00000070: 8306 543f b66c 613f 3276 4a3f 84c8 5a3f
00000080: 0a60 723f 65a8 503f 8e27 4c3f 215d 693f
00000090: aa42 813f 2420 6d3f 707f 5b3f 0ebc 653f
000000a0: 2bdc 463f 6e8e 4c3f 74dd 553f ab4b 773f
000000b0: d469 6d3f 818d 7d3f 02c8 7b3f c155 603f
000000c0: cd62 7e3f 3b52 5f3f c715 813f ccd2 583f
000000d0: b211 523f cc82 7a3f edc3 7f3f c72e 5b3f
000000e0: 5b3b 543f 04bc 703f f9cb 673f 9625 5d3f
000000f0: 8c47 593f abd8 763f a4d9 453f 4d2c 7e3f
0.8131562 0.95954347 1.0361499 0.9130105 0.9064433 0.8813921 0.8922051 0.99113274
0.89359033 1.0199115 0.95054215 0.8793122 0.92604107 0.99253035 0.860363 0.86349744
0.86201876 0.8348895 1.030853 0.84514725 0.8801826 0.8790574 0.92540187 0.9359045
0.97311103 0.82449144 0.78835064 0.96609807 0.82822436 0.88056505 0.790866 0.8546221
0.94677794 0.8150695 0.79747856 0.9115773 1.0098469 0.9262717 0.8574133 0.89740074
0.776797 0.7990483 0.83541036 0.96599835 0.92739606 0.9904404 0.9835206 0.8763085
0.9936951 0.8723485 1.0084771 0.8469665 0.8205825 0.9785583 0.99908334 0.8561825
0.8290307 0.9403689 0.9054561 0.86385477 0.84874797 0.9642436 0.7728522 0.9928635

norm2.bias f4 [64]
00000000: 0511 18be 2c5f 69bd bd28 56bd 2d13 49be
00000010: 2995 02be e680 31be 323e cebd 59a1 62bd
00000020: 2eb4 debd b35b 23bd ca47 adbd 05c9 b6bd
00000030: 54b7 9bbd 6e42 42bd d444 f7bd 867f 01be
00000040: 9411 05be 126a fbbd 0785 54bd c138 08be
00000050: 818e 0fbe 9969 c2bd 17be debd 5462 1ebe
00000060: 3f0f 88bd 122d 2cbe a365 1bbe 30b3 9abd
00000070: 2c05 10be 1f87 4fbe a839 30be adc0 dfbd
00000080: c034 74bd 3d9f 0bbe 8b4d 16be 356a f3bd
00000090: 5950 6bbd b685 41be f7ef e0bd 9400 16be
000000a0: b8ca 23be 1a57 a4bd 8723 d8bd 0f93 89bd
000000b0: a4b8 77bd 3c59 48bd ed80 68bd 671c ebbd
000000c0: feec 8ebd aa0b bfbd 0cca 6cbd d589 fdbd
000000d0: 89d5 02be 0185 82bd 9e21 47bd 63fb ccbd
000000e0: d071 cabd 1e61 a7bd c59e 2ebe 7bc1 e4bd
000000f0: 9a80 69bd f084 8abd d1b6 47be 1786 4dbd
-0.14850242 -0.05697553 -0.052284945 -0.19636221 -0.12752213 -0.17334327 -0.100704566 -0.055329654
-0.1087421 -0.039882373 -0.08460958 -0.0892506 -0.076033264 -0.047426634 -0.12073675 -0.12646303
-0.12994987 -0.12276091 -0.051884677 -0.133029 -0.14019205 -0.094927974 -0.108761005 -0.15467197
-0.06643533 -0.16814068 -0.1517549 -0.075537086 -0.14064473 -0.20266388 -0.17209494 -0.10925422
-0.05962062 -0.13634963 -0.14678018 -0.11885492 -0.057449672 -0.18898663 -0.1098327 -0.14648658
-0.159953 -0.08024426 -0.10553651 -0.06717502 -0.06047882 -0.048913226 -0.05676358 -0.11480027
-0.069787964 -0.093283966 -0.057809874 -0.12379805 -0.1277677 -0.06373025 -0.048616044 -0.10008886
-0.09884989 -0.081728205 -0.17052753 -0.11169716 -0.05700741 -0.06763637 -0.19503333 -0.050176706

fc3.weight f4 [32, 64]
00000000: 0cce ebbd 04b6 afbc fc00 dfbd 9652 3e3e
00000010: c13e fe3d 786b f83d 8a91 dbbd 8ad2 d6bd
00000020: 7a62 e1bd d191 9cbd 5dca 84bd 597d 90bb
00000030: 4798 a93d 7244 a7bc c182 7abd bf5f b23c
00000040: e47e df3d 4b73 cfbd dbfb 93bd 26a1 503c
00000050: 0925 793d 99aa 473d 6712 0cbe 07f7 1c3e
00000060: 0477 babd c55a a2bd fa74 c13c 4175 efbd
00000070: bb38 563d 05e1 123e 0d72 7fbc 488b 84bc
00000080: 1cd9 1f3e c9d5 1f3d 32e1 183d 4e18 a6bd
00000090: c537 a9bd eac0 033e ff02 3e3c b107 993d
000000a0: a408 ca3c 920f 273c d651 793d ca7e dd3d
000000b0: 257b 653d 4850 863d 2ad3 203e fcf3 8abd
000000c0: 34e8 8d3d 349d b13d e8d2 c5bd 1ab8 efbc
000000d0: 3f96 3e3d d75d e5bc b0f6 933d 052d c8bc
000000e0: 21bb 843d a23a b7bd f909 e33d 2812 413d
000000f0: e18d 22bc 39d6 6f3d 189a 4abd 3f1f 043e
00000100: fd17 f9bc f5ed c0bd f313 d1bd d327 d33d
00000110: f606 ca3d a6af 0b3c 5f13 04bd 2b5e 19be
00000120: afd2 d9bc a8e6 0cbe 04ab bbbd d73d 943d
00000130: fd3c ea3d ae86 00be 6390 ff3c 7e0a a93c
00000140: d80d e43d 36e6 bf3c cfbc ddbd be25 d6bb
00000150: 2784 463d 712f 8a3d 7bdb bb3b d829 813d
00000160: 39a1 82bd 4826 be3b 09f7 b43c 2def ffbc
00000170: 0e21 843d ff18 993d d9ab 8b3c c439 77bd
00000180: e116 143e 76c5 3fbd 3ee5 2bbd 857f c1bb
00000190: 8225 f3bd 8f2a 073e 8c60 66bc 5ebc be3d
000001a0: 4cdf 4d3d a5d0 aebc 175e 9f3d 98b8 db3d
000001b0: dc81 5d3d 0e60 003e bb98 2a3e f04c b7bc
000001c0: 2c29 0f3e 566f 0b3d 50ad 86bd b5bb 66bc
000001d0: 8435 993d 2e9f fabd ee85 b73d 1f66 57bd
000001e0: c02a a13c e132 c2bc db02 d03c e76f 4c3d
000001f0: fa04 45bd 8cc2 a63d 3e3e ae3c 1c04 203e
00000200: 5dfe 653d 2eba d6bd 3904 a1bd b682 b63d
00000210: 8075 aa3d 776a 633d 2cba eabd f9f4 dbbd
00000220: 0373 88bd 09af 06be 3362 e1bc 6bcc 873d
00000230: 6df4 693d 290a 92bd 890e 883c 7054 81bd
00000240: 855a bb3c 08b0 b9bb 2c35 8cbd 0062 91bd
00000250: 9a14 0c3d 2126 523d 56cb 953b 1f10 ca3b
00000260: 6c9d 18be eda5 193d d67c c13c 6970 ffbd
00000270: e127 573d 427d c53c f0dd aabb c750 1dbd
00000280: fccc 3d3d c276 07bd 6f16 3e3c 0ac1 f53c
00000290: fb07 d6bd 654a a83d 0ff8 f13a a1ab 0f3d
000002a0: 3a8e 6c3d 73f8 3e3d 8ab4 053d af08 ac3d
000002b0: 982c 0a3e 8e07 0a3d 2648 f23d aa4d 72bd
000002c0: 148d 74bc 18c6 9cbd 0c5c e4bd 1b2e 1cbd
000002d0: 9413 ad3d 0c71 f6bd 7f4e 1b3e 2343 fdbc
000002e0: a91d 6abd 634b c5bb 2abb 4d3d ec1b 58bd
000002f0: e318 0c3c 60c7 d33d 9ff9 ab3c 2657 4a3d
00000300: afff d6bc ca8c 6dbd 7d37 9abd 5773 463d
00000310: 204e b23d f1ce 423d 89e6 cdbd 4a27 b4bd
00000320: d5a6 a6bc c755 06be 12e9 00be 4d80 e33d
00000330: 35d7 393d 67fd a8bd 715f 09bc 6f93 1a3d
00000340: 7716 b23d 7169 7d3c a8e2 cdbd 5441 e7bc
00000350: a623 b03c 60e4 a03d 638b babb e73d b53d
00000360: 875b 89bd f671 133d 54f2 3b3d 9c21 f2bd
00000370: ce6b 8e3c 2f56 ab3d 4c4a 88ba ed3f 46bd
00000380: 758f 6b3d d105 b43c 69ee 883c 3b66 dcbb
00000390: 06fd 82bd 237a e33d 4a97 9cbc 7327 503d
000003a0: c980 543d bead bebb 7fde d13d 85c2 8a3d
000003b0: 2272 9a3d da72 aa3d 9cda 013e f4ed e0bc
000003c0: 85ce b33d 4584 60bd 631a 0ebe 5a5f 7cbb
000003d0: 1868 4f3d 5fb9 0abe 807a 083e 272f 23bc
000003e0: f3bd 08bd 9306 123c 3daf 0a3d 6d65 b9bc
000003f0: 780d 0cbd e52a c73d 2695 9c3d 026c 0b3e
-0.1151391 -0.021449097 -0.1088886 0.18586192 0.12414313 0.12129873 -0.10721119 -0.10489376
-0.11005111 -0.07645 -0.0648391 -0.004409474 0.08280998 -0.02041838 -0.061159853 0.02177417
0.10912874 -0.10129412 -0.07225772 0.012733733 0.060826335 0.04874668 -0.13678895 0.15328608
-0.09104732 -0.07927469 0.02361535 -0.11692286 0.052300196 0.1434365 -0.015591157 -0.016179696
0.15610164 0.03902224 0.037324138 -0.081101045 -0.0826259 0.1286656 0.011597394 0.0747217
0.024662323 0.010196583 0.06086906 0.10815199 0.056025643 0.06558281 0.15705553 -0.067848176
0.06929055 0.08672562 -0.09659368 -0.029262591 0.046530005 -0.027998848 0.07224786 -0.02443553
0.064810045 -0.0894673 0.110858865 0.047136456 -0.009921522 0.058553908 -0.04946336 0.12902544
-0.030406946 -0.09420387 -0.10208883 0.1031033 0.09864609 0.008525765 -0.032245036 -0.14977328
-0.02658972 -0.13759863 -0.09163478 0.072383575 0.11437414 -0.12551376 0.031196779 0.020634886
0.11135453 0.023425203 -0.10827028 -0.006535261 0.048465874 0.0674733 0.005732951 0.06306809
-0.06378407 0.0058029033 0.022090452 -0.031241978 0.06451617 0.07475471 0.017049717 -0.060357824
0.14461853 -0.046819173 -0.04196667 -0.005905094 -0.118723884 0.13199829 -0.0140611045 0.09313272
0.05026178 -0.021339724 0.07781618 0.10728568 0.05407892 0.12536642 0.16659825 -0.022375554
0.1398055 0.034041725 -0.065760255 -0.014082839 0.074809104 -0.12237392 0.08961092 -0.052587625
0.019673705 -0.023705902 0.025391987 0.049911406 -0.04810045 0.081425756 0.021269914 0.15626568
0.056150783 -0.1048473 -0.078621335 0.0891165 0.083231926 0.055521455 -0.11461291 -0.10740084
-0.06662562 -0.13152708 -0.027512645 0.066307865 0.05711787 -0.07130844 0.016608493 -0.06314933
0.022870312 -0.0056667365 -0.06846079 -0.0709877 0.034199335 0.051305894 0.0045713587 0.0061664726
-0.14903802 0.037511755 0.023619097 -0.124726124 0.052528266 0.02410758 -0.0052144453 -0.038407113
0.046338066 -0.03307224 0.011602028 0.029999275 -0.10450741 0.08217315 0.0018460768 0.035075787
0.057752825 0.04662366 0.03264288 0.08400094 0.13493574 0.03369861 0.118301675 -0.059156097
-0.014926214 -0.07654971 -0.11150369 -0.038129907 0.08451 -0.12033281 0.15166663 -0.030915802
-0.057157192 -0.0060209497 0.05022732 -0.052761003 0.008550855 0.10340762 0.020993052 0.049399517
-0.026244966 -0.057995595 -0.07530115 0.04844984 0.087063074 0.047560636 -0.10053737 -0.08796556
-0.020343224 -0.13118659 -0.1258891 0.11108456 0.045371253 -0.08251458 -0.008384571 0.03773826
0.08695691 0.015467034 -0.10052997 -0.028229393 0.021501373 0.07856059 -0.0056928857 0.088496976
-0.067069106 0.035997353 0.0458854 -0.11822817 0.01738539 0.083660476 -0.0010398119 -0.048400808
0.05750986 0.02197543 0.016715245 -0.006726054 -0.06395917 0.1110728 -0.019115109 0.05081887
0.05188063 -0.0058190515 0.10247516 0.06775383 0.075413 0.083226874 0.12681049 -0.027457215
0.08779625 -0.054813642 -0.13877253 -0.0038508982 0.05063638 -0.13547276 0.1332798 -0.009959972
-0.033384275 0.0089127 0.033858526 -0.022631371 -0.034192532 0.09724978 0.07645635 0.1361542

fc3.bias f4 [32]
00000000: 7dd3 023b ed79 9fbd daf9 adbd a3ae afbd
00000010: bec3 0f3d 5694 66bd c728 7ebd 2414 f33d
00000020: 9095 213b 8e80 85bc fc7a 9bbd 7fb9 e0bb
00000030: 2c90 583d 8363 86bd 46bc 91bd 60f2 a33d
00000040: 1055 dfbd cdae b2bd d92d c23c 892c 0a3c
00000050: 1809 e13b 787f 193e 6af9 9abc 5cd4 73bd
00000060: 5237 e3bd e5e2 a23d ef67 2c3c 37ff f7bb
00000070: 1971 b03c 27b5 9d3b f1e5 dc3d da55 a2bd
0.0019962483 -0.07786927 -0.08494921 -0.08578231 0.035098784 -0.056293808 -0.062050607 0.11869076
0.0024655797 -0.016296651 -0.07591817 -0.0068580504 0.052871868 -0.06561949 -0.071159884 0.08005214
-0.10904896 -0.08724747 0.023703502 0.00843347 0.006867539 0.14990032 -0.018917758 -0.059528694
-0.11094536 0.07953433 0.010522827 -0.007568266 0.021538304 0.004812855 0.10786045 -0.07926531

norm3.weight f4 [32]
00000000: 948b ad3f 5c47 bc3f e21d d03f 2e6f d73f
00000010: 8399 7d3f 2233 dc3f 69b9 893f 3cce 963f
00000020: c487 6e3f b589 d53f edff a83f f3e6 de3f
00000030: 1926 773f 4506 cd3f df4d c23f 3612 ac3f
00000040: 5e66 d83f 6fd7 cf3f 0c38 823f f40a d13f
00000050: 3b52 db3f 3bc3 6f3f ae88 d43f 26fe d23f
00000060: e6ff b23f 035a 663f e86e d23f 6b63 7b3f
00000070: 583b 9d3f 5ec9 e33f 1760 af3f 28cd cb3f
1.3558221 1.4709277 1.625912 1.6830804 0.99062365 1.7203104 1.0759708 1.1781688
0.9317591 1.668265 1.3203102 1.741423 0.9654251 1.6017538 1.5180014 1.3443058
1.690624 1.623762 1.0173354 1.6331468 1.713447 0.93657273 1.6604211 1.648381
1.3984344 0.89981097 1.6440096 0.98198575 1.2283735 1.7795827 1.3701199 1.5921984

norm3.bias f4 [32]
00000000: e26d 7e3e cd4f 6b3e f17a 653e 3cf1 833e
00000010: c502 ba3c 6e70 9e3e 00f4 353e be15 7b3e
00000020: b087 8abb 3e2c a13e 2fe1 8c3e 05d1 9e3e
00000030: a164 acbc 9d27 693e 9e80 833e 04d1 8a3e
00000040: eeb0 963e 4881 613e 2ade a2bb 5e26 823e
00000050: ca5d 8c3e 0292 553b 6606 893e 9c22 813e
00000060: 3e4a 663e 088d eb3b 5fd8 7a3e dfcf 803d
00000070: b707 8c3e 1415 a33e 7b77 8a3e 5e9b 6b3e
0.24846604 0.2297966 0.2241018 0.25769985 0.022706399 0.30945152 0.1776886 0.24520013
-0.004227601 0.31479067 0.2751555 0.31018844 -0.021044077 0.22769018 0.25684065 0.2711259
0.29431862 0.22021973 -0.0049703317 0.25419897 0.27415305 0.0032588248 0.26762694 0.25221717
0.22489259 0.007188443 0.24496602 0.06289648 0.27349636 0.3185202 0.2704428 0.23008487

fc4.weight f4 [1, 32]
00000000: 0317 f53e c39d 263f 2b03 4d3f dbfd 423f
00000010: b535 9bbd 01ae 34bf aa42 54be 73af 9a3e
00000020: 51b8 563d cd7c 34bf 4d7e e13e 5250 4dbf
00000030: cba0 56bd 20e8 473f 06b6 10bf 52af ea3e
00000040: a576 51bf c876 3b3f 2b28 33be 148b 44bf
00000050: bc14 3c3f 7334 77bc 89e0 2dbf 6664 3fbf
00000060: 0a9d 0f3f 6d37 46bc 8b31 3b3f 6573 b33d
00000070: ad74 9e3e d439 62bf 0a62 f53e e58e 35bf
0.4786912 0.65084475 0.8008296 0.761686 -0.07578603 -0.7057801 -0.20728555 0.30211982
0.05242187 -0.7050293 0.44041672 -0.80200684 -0.052399438 0.7808857 -0.56527746 0.45836884
-0.8182166 0.7322812 -0.17495792 -0.76774716 0.7346914 -0.015088188 -0.6792074 -0.7476257
0.56099 -0.0120981755 0.7312247 0.08762244 0.30948392 -0.8836949 0.4792636 -0.70921165
