models/odd_even_model.pth (torch, 23438 bytes, 19 tensors)

fc1.weight f4 [64, 14]
000000 2f 2f ef bc 55 22 0c 3f 28 eb 1a 3f 73 a2 2e 3f
       -0.029197304 0.54739887 0.6051507 0.6821663
000010 d4 f4 ac 3f db e5 0a 3e 08 bc 57 3e 33 df 53 3e
       1.3512216 0.13564245 0.21067822 0.20690612
000020 36 19 28 bd e4 c2 2d 3d 7b 64 8a 3f c1 75 2c c0
       -0.041039668 0.04242219 1.0811914 -2.6946871
000030 47 d7 76 bd 46 2d a3 3e 2c f7 1d be bd 32 83 be
       -0.0602639 0.31870478 -0.1542632 -0.25624648
000040 34 2a 93 be 16 0c c5 be f8 71 3c bf 27 55 5e 3e
       -0.28743136 -0.38485783 -0.736114 0.2171217
000050 04 76 93 bd d2 8c 5b bc a9 d9 69 3c 0c e5 1d 3d
       -0.07200244 -0.013400273 0.014273086 0.038548514
000060 41 c0 8f bf f1 2e 50 40 7e c0 34 bd 7a f3 13 be
       -1.1230546 3.252865 -0.044128887 -0.14448348
000070 35 3e da 3d 60 a0 ee 3e f8 5a 1a 3f d2 2f 07 3f
       0.10656396 0.4660673 0.6029506 0.52807343
000080 8e 3c 96 3f 93 76 28 bd 00 48 f7 bd 8f 6e 96 3e
       1.173723 -0.041128706 -0.1207428 0.29381225
000090 82 61 dc bd 29 86 ad 3d b9 97 64 3f 64 87 2c c0
       -0.10760786 0.08472855 0.8929401 -2.6957636
0000a0 42 d0 d0 3c 50 8f 6e 3c 1d 6f c7 3e e2 43 7d 3f
       0.02548993 0.014560536 0.3895196 0.98931706
0000b0 45 07 62 3f 2e 03 62 3f 3d 48 5d 40 da 6e 02 3d
       0.8829234 0.882861 3.457534 0.031843998
0000c0 0e 2a 28 3e f8 1a a9 3e 0c 06 cb 3d e7 22 01 3d
       0.16422293 0.33028388 0.09913263 0.031527426
0000d0 5e 16 9a 3f 25 9f 6c bf 9b fe a0 3e fd 96 6a 3d
       1.2038076 -0.92430335 0.3144425 0.0572729
0000e0 54 64 2f 3e c2 c1 6a 3f 1c ad 50 3f 92 5b 2e 3f
       0.17128116 0.917019 0.81514144 0.68108475
0000f0 02 be f7 3f ac e9 c9 bd fa cf 68 3d 24 a3 18 3e
       1.9354861 -0.098590225 0.056838967 0.14905983
000100 5f 31 b0 3d 14 3e 9c 3d 60 58 8a 3f 84 5f 08 c0
       0.08603167 0.07629028 1.080822 -2.1308298
000110 9b d9 6a 3c 9e b6 7f 3d 6a 1e 8b 3e 95 03 8e bf
       0.014334108 0.062430017 0.27171642 -1.1094843
000120 7a 1d 4f bf 86 07 17 bf 88 db 6a c0 7c 07 26 be
       -0.8090435 -0.58995855 -3.6696491 -0.16213793
000130 78 35 43 3e c5 60 42 3e 6d e3 0e be be b4 21 be
       0.19063365 0.18982227 -0.13953944 -0.15791604
000140 b9 8e f5 bd b0 ca e1 3f bd fe 9e be af d9 4e be
       -0.11990113 1.763998 -0.31053725 -0.20200227
000150 f7 a6 f2 be 77 e9 b5 3e 7c f5 f4 3e 83 c9 c9 3e
       -0.4739301 0.35529682 0.4784354 0.39411554
000160 55 af 59 3f 1c 4d 28 3f c1 91 00 3f 4c 25 6c bd
       0.8503316 0.6574266 0.502224 -0.057652757
000170 63 5d 0c bd 5e 7f 01 3e 53 05 c9 3f 00 33 1c 3f
       -0.034268748 0.12646243 1.570475 0.6101532
000180 71 38 f1 3d 04 ff 7a be 5f de ac 3d 5e ad 7b bf
       0.117783435 -0.24511343 0.084408514 -0.9831141
000190 f6 08 55 bf cd 03 4f bf aa 78 f7 bf da 77 8e bd
       -0.832168 -0.80865175 -1.9333699 -0.069564536
0001a0 36 37 5b 3c 8d cb 84 3d 9a 0d eb bd 3c b9 27 bd
       0.0133798625 0.06484137 -0.11477204 -0.040948138
0001b0 24 10 98 bf a5 d9 eb 3f 39 0d b9 bd 2d 06 0e 3c
       -1.1879926 1.8425795 -0.09035725 0.008668465
0001c0 03 6d b3 be 2b b0 40 3f 4e 61 90 3f 66 a8 49 3f
       -0.35044107 0.7526881 1.1279695 0.7877258
0001d0 e8 f2 59 40 b1 ea 2e 3e 68 2c bd be cb fa 2f be
       3.4054508 0.17081715 -0.36947942 -0.17185514
0001e0 33 79 61 be 90 78 6e 3e 88 b7 82 3f 62 aa bb bf
       -0.2201889 0.23288178 1.0212259 -1.4661372
0001f0 bc c7 75 bd 5d 41 1e 3e 87 82 15 be 5f be 5e 3f
       -0.060004935 0.15454622 -0.14600573 0.87009233
000200 ea d7 6a 3f 5a 2f 25 3f 37 68 63 40 2d 33 5a be
       0.9173571 0.6452538 3.5532358 -0.21308585
000210 fc ba f0 be cc c2 f9 3d db ce b0 3b e4 a6 f4 3d
       -0.47017658 0.12195358 0.005395753 0.11945894
000220 fa 13 9c 3f ca 31 85 bf bf e0 97 be e2 d5 c3 3d
       1.2193596 -1.040582 -0.29663655 0.09562279
000230 3a 13 19 bd bd 8d 4a bf c8 f3 a8 be f8 3e 8d bf
       -0.03737185 -0.79122525 -0.3299849 -1.1034842
000240 13 82 88 bf 2f ee b4 be 3f 6d 58 be f0 a9 83 3e
       -1.0664696 -0.3533797 -0.21135424 0.2571559
000250 ce c1 69 be a2 29 44 3e 21 fd b9 3f e2 6e 74 bf
       -0.22827837 0.19156507 1.4530374 -0.95481694
000260 58 0c cf be f5 33 a0 3f ae 3e b6 3c f8 37 82 3f
       -0.40439105 1.2515856 0.022246685 1.017333
000270 05 b2 61 3f 3f 23 86 3f fc 65 6d 40 8c 7e ee 3b
       0.8816226 1.0479506 3.7093496 0.007278269
000280 b8 b6 47 be e3 5b 47 be ec 44 de 3c 9f 32 1f bd
       -0.19503295 -0.19468646 0.027132474 -0.038866635
000290 e5 34 9c 3f 99 b1 81 bf f4 fe 4e be 66 84 ec 3e
       1.2203642 -1.0132324 -0.20214444 0.46194762
0002a0 cf 37 7b 3e bb 99 99 bf aa 6b e1 be 78 ac 29 bf
       0.24533008 -1.200004 -0.44027454 -0.6627879
0002b0 c1 2d 48 c0 ff 1a f2 be 49 a1 26 3f 36 26 fb bd
       -3.1277926 -0.4728622 0.6508985 -0.122631475
0002c0 63 a0 f5 be 34 6f 53 3d 3f 54 9a bf 8f 88 8f 3e
       -0.47973928 0.051619723 -1.205696 0.28033873
0002d0 78 37 56 be 96 98 14 bf 83 b6 98 bd 2d 9d 56 3f
       -0.20919597 -0.5804533 -0.07456686 0.8383358
0002e0 34 96 39 3f f6 ff 3e 3f a3 a4 e3 3f 9c 20 ec bd
       0.72494817 0.74609315 1.7784618 -0.11529657
0002f0 e6 ce 69 3e 09 d6 20 be 63 cf 8c 3d 59 6e 7d bb
       0.22832832 -0.15706648 0.068754934 -0.0038670509
000300 a1 4e 95 3f 02 0e 04 c0 4a 4d 11 be f9 bf 33 bc
       1.1664621 -2.063355 -0.1418964 -0.010971063
000310 1c 82 4d 3e 59 8b a1 bf 47 1d 85 be 4d 86 42 bf
       0.20069164 -1.262065 -0.259989 -0.75986177
000320 af 54 9b bf ee a2 b1 bf d2 8e 26 bf 06 88 b9 3e
       -1.2135218 -1.3877847 -0.65061677 0.3623659
000330 df 29 2c be ac 01 28 3d 60 19 19 3f b6 92 88 be
       -0.16812848 0.04101722 0.59804344 -0.26674432
000340 0b f7 04 bf 51 10 51 3d cc b5 bb 3d bf 3c 70 bf
       -0.5193946 0.05104095 0.091655344 -0.9384269
000350 f0 ae 57 bf da 98 61 bf e4 2b fa bf 7b 84 b6 3c
       -0.8425131 -0.8812386 -1.9544644 0.022279968
000360 b8 a0 88 be 7f 16 f7 3d 28 aa 96 3c 7c ea e6 3c
       -0.2668512 0.12064838 0.018391684 0.028187983
000370 cc d5 98 bf b8 c0 db 3f 1b 38 30 bc 9a e9 62 3d
       -1.1940246 1.7168188 -0.010755564 0.05539856
000380 00 4a e7 3c ba 89 5e 3f 96 5b 40 3f 29 9a 37 3f
       0.028233528 0.86928904 0.7513975 0.71719605
000390 06 8d ea 3f 51 e4 c9 bd 94 73 60 3d 85 51 9b be
       1.8324287 -0.09858001 0.054797724 -0.30335632
0003a0 56 d0 7b 3d 22 43 cb 3c f7 74 9d 3f 30 6c 03 c0
       0.06147798 0.024812285 1.230132 -2.0534782
0003b0 6a ba f4 3c dd 6a a2 3d 41 94 cc bd 47 82 5b bf
       0.029874045 0.07930539 -0.09989215 -0.8574566
0003c0 05 30 53 bf c1 75 77 bf d8 58 f6 bf 0b e6 29 bd
       -0.82495147 -0.96664053 -1.9245863 -0.04147915
0003d0 d2 c6 12 3d e6 9d 92 bd 33 6d 04 bd 3b 94 61 3d
       0.03583414 -0.07159023 -0.032330703 0.055073004
0003e0 7d 3e 7f bf 78 09 07 40 82 49 c6 bc 64 3c 03 3e
       -0.99704725 2.109953 -0.024204973 0.12816006
0003f0 ca 06 47 3d 28 48 56 bf d3 ae 63 bf 0b 1b 5a bf
       0.04859046 -0.8370385 -0.88938636 -0.85197514

fc1.bias f4 [64]
000000 7f 2f 3a bd 00 fc 78 3c 58 ed 37 3c 30 7f 80 bb
       -0.045455452 0.0151968 0.011226021 -0.003921412
000010 d9 9d 0b bd 11 d2 4c bc ed 24 f8 3b 92 ee a1 3b
       -0.034086082 -0.012501256 0.0075727613 0.00494177
000020 f7 46 94 bb 2e 7c 5e bc 9b 7d b1 bb 50 3c 08 bd
       -0.004525061 -0.013579411 -0.0054165847 -0.033260643
000030 66 32 18 3c 44 b5 b9 3b c3 3d 92 3c 14 83 c1 3c
       0.00928936 0.0056673605 0.017851716 0.023622073
000040 03 b4 f4 3b 89 dc 9d bc f5 ed 39 bc e9 32 48 3c
       0.007467748 -0.019270198 -0.011348237 0.012219169
000050 17 22 16 3c 36 6f 07 3c 97 58 7e bb 97 4c c7 3a
       0.009163401 0.008266261 -0.0038810128 0.0015205321
000060 d3 a5 e3 bb 05 bc de 3c fd 8b 38 bd 38 13 14 3c
       -0.006947258 0.027189264 -0.04505538 0.009037785
000070 8a 72 98 3b e8 67 f3 3b 65 44 13 3c bc 53 64 3c
       0.004652326 0.007428158 0.0089884745 0.013935979
000080 d6 a6 80 3c c3 b3 0a 3c ac 5c 3d bc ab e2 77 bc
       0.015704554 0.00846571 -0.011557739 -0.015129725
000090 47 2c 90 3c 00 07 5e ba 29 78 4e bc ed 6e 4a 3a
       0.017599238 -0.0008469671 -0.012601891 0.00077222177
0000a0 42 d8 fe bc 01 fc a1 3c 0f 03 31 bc 35 0c a3 bc
       -0.03110898 0.019773485 -0.010803952 -0.019903282
0000b0 cb ad de 3a a6 9e 1d 3c cb bb ca bb 59 03 9a bb
       0.001698905 0.009620344 -0.0061869374 -0.004700106
0000c0 81 91 28 3b 6c f0 a0 bc a7 77 47 3c b7 54 02 bc
       0.0025721493 -0.019645892 0.012174523 -0.007954768
0000d0 e3 46 69 bb aa 26 39 3c 49 59 f4 bc a0 e4 5a bc
       -0.003559523 0.011300722 -0.02982773 -0.0133601725
0000e0 de eb 00 bd ba 7e 7b 3b 52 67 b3 3b 71 56 34 bb
       -0.03147494 0.0038375095 0.005474963 -0.0027517343
0000f0 33 4e 20 bd e5 20 58 3c be 8b c6 bc ff 53 07 bc
       -0.039137077 0.013191436 -0.024236556 -0.008259772

bn1.weight f4 [64]
000000 5b a8 5a 3f e1 62 3b 3f 80 c3 7c 3f f4 81 86 3f
       0.8541314 0.7319775 0.9873581 1.0508409
000010 de 08 ac 3f dc 55 9b 3f 93 3b 2d be ad 60 8c 3f
       1.3440206 1.2135577 -0.16917257 1.0967003
000020 5a af 85 3f 4f 41 8a 3f 47 58 5a 3e 42 81 9b 3f
       1.0444138 1.0801181 0.21322738 1.2148821
000030 3f 53 6e 3f 6b 32 bb 3f 8c 92 ba bd 0f a3 97 3f
       0.93095773 1.4624761 -0.09109983 1.1846637
000040 fe 65 8d 3f 38 9f 8d 3f a2 d5 89 3f 5d 1d 7a 3f
       1.104675 1.1064215 1.076832 0.97701055
000050 72 1b 24 3c c1 29 58 3d 58 66 99 3f 34 5a 8f 3f
       0.010016309 0.052774195 1.1984358 1.1199403
000060 0e 28 ae 3f 3b 0c 96 3f c7 82 c0 3f 9b 5d 82 3f
       1.3605974 1.1722482 1.503991 1.0184816
000070 f7 ab 9b 3f fc d3 5c 3d 3e 04 5d 3f 1e 04 9e 3f
       1.2161855 0.0539131 0.863346 1.2345006
000080 f5 e3 27 3f 04 f7 93 3f 0e e5 ae 3f a5 b5 42 3e
       0.6558221 1.1559758 1.3663652 0.19014604
000090 ba 46 78 3f a7 20 82 3f 99 03 9e 3f e9 b1 2d 3f
       0.9698292 1.0166215 1.2344848 0.67849594
0000a0 b2 21 8a 3f 03 ab 81 3f 13 41 35 3f f8 e1 8a 3f
       1.0791533 1.0130314 0.7080242 1.085021
0000b0 fc 38 5c bc a4 cd a1 3f 4b 3e 8c 3d 43 33 a1 3f
       -0.0134413205 1.2640882 0.06847819 1.2593769
0000c0 b0 06 5d 3f 35 c5 92 3f 29 f5 a4 3f a7 94 d1 3d
       0.8633833 1.1466433 1.2887317 0.10233431
0000d0 2a e9 5d 3f 56 36 54 3f e8 ab 76 3f 65 7d 81 3f
       0.86683905 0.8289541 0.9635606 1.0116392
0000e0 e8 b0 80 3f ab 6a af 3f 59 00 6f 3f 32 96 71 3f
       1.0053988 1.3704427 0.93359905 0.94369805
0000f0 38 6e c3 3f 37 5b aa 3f 8d a3 80 3f eb 38 97 3e
       1.5268011 1.3309087 1.0049912 0.29535612

bn1.bias f4 [64]
000000 79 25 8c bf 10 3e 91 bf f7 f6 53 bf dc f7 4a bf
       -1.0948936 -1.1347065 -0.82798713 -0.79284453
000010 1c 61 56 be e8 7c 44 bf e3 89 de be 10 a9 e2 be
       -0.20935482 -0.7675309 -0.43464574 -0.4426961
000020 20 78 5a bf e9 96 4a bf e8 be 94 bf 47 ed 7d bf
       -0.85339546 -0.7913652 -1.162076 -0.9919018
000030 12 85 5c bf 75 66 6b be ca 8c 53 bf 85 59 ef be
       -0.8614055 -0.22988303 -0.826367 -0.46747985
000040 9c e1 93 be f7 83 03 bf 9e e4 07 bf 78 17 0e bf
       -0.28883064 -0.5137324 -0.5308322 -0.5550456
000050 3c 4a e5 be 56 44 a6 be 6e bb 55 bf 27 d2 2f bf
       -0.447832 -0.3247401 -0.8348912 -0.6868004
000060 13 ae d6 be 21 8c ae be 36 2c 6c bd 2b 16 63 bf
       -0.41929683 -0.34091285 -0.05765935 -0.887057
000070 51 6c 61 bf 48 7e 84 bf 07 26 52 bf c3 8b 15 bd
       -0.880559 -1.0351038 -0.82089275 -0.03651024
000080 4a a7 56 bf b0 85 99 be 04 0b 0d be a7 80 32 bf
       -0.8384901 -0.29984808 -0.13773733 -0.6972756
000090 f4 76 02 bf 34 07 31 bf 81 e4 4f bf 30 e6 50 bf
       -0.5096276 -0.69151616 -0.81208044 -0.8160124
0000a0 dc 8d 48 bf c0 94 16 bf 98 50 1f bf ed 8c 80 bf
       -0.7834146 -0.58820724 -0.6223235 -1.0043007
0000b0 73 53 76 bd 5b e0 37 3c f2 5f 8c bf c2 34 0a bf
       -0.060138177 0.011222924 -1.096678 -0.5398675
0000c0 7b 44 4e bf 2e f7 f8 be 89 d4 68 be c1 b7 14 bf
       -0.8057324 -0.48626083 -0.22737326 -0.58092886
0000d0 8b f9 87 bf 69 6e 31 bf f9 67 19 bf b0 1c 84 bf
       -1.062303 -0.693091 -0.59924275 -1.0321255
0000e0 d8 ee ff be d1 49 80 be 03 b9 92 bf 2e 48 85 bf
       -0.4998691 -0.25056317 -1.1462711 -1.0412652
0000f0 32 aa 1d be c8 23 54 bf c6 85 14 bf 00 59 67 bf
       -0.15396956 -0.828671 -0.5801662 -0.9037018

bn1.running_mean f4 [64]
000000 c4 94 86 be 12 31 26 bd 42 88 95 bd fc 48 19 bf
       -0.26285374 -0.04057414 -0.0730138 -0.5987699
000010 92 75 95 be 3a 21 f0 3e c9 ff db be 4a aa 9e 3e
       -0.29191262 0.4690035 -0.42968586 0.30989295
000020 42 15 f5 be 51 5d e0 be b3 9e 7e 3e 5c ef 14 bf
       -0.4786778 -0.43821195 0.24865226 -0.58177733
000030 e4 a5 15 3f 02 c1 65 be 04 90 19 3f 88 79 b4 3e
       0.58456254 -0.22436908 0.59985375 0.3524897
000040 24 48 59 be 38 e7 7e 3e c8 28 8c 3e de bc 80 3e
       -0.21218926 0.2489289 0.27374864 0.25144094
000050 98 29 c4 3e be 32 bd be f6 ea fd be c4 45 f0 3e
       0.38312984 -0.36952776 -0.49593323 0.46928227
000060 92 0c 80 be ed e7 9e 3e bc b5 ad be 0c 36 ab be
       -0.2500959 0.3103632 -0.33927715 -0.33439672
000070 02 94 f1 be 5e 70 4d 3d bf 2c 14 3e ae e8 59 be
       -0.47183233 0.05015599 0.14470194 -0.21280167
000080 64 1b c6 3e bf e6 6f be 3e f1 8e be f7 09 0a be
       0.38692772 -0.23427866 -0.27918428 -0.13480364
000090 e4 27 cd 3e 17 04 7f 3e 30 b6 08 bf 24 0e bd 3d
       0.40069497 0.24903904 -0.53402996 0.09231213
0000a0 c9 d5 04 be 46 86 a3 3e 5d 7b 62 bd 68 6e 28 be
       -0.12972178 0.3193838 -0.05529343 -0.16448367
0000b0 b3 4f 9d 3e b6 b8 8d be 8f 15 03 3f e5 a7 99 3e
       0.30724868 -0.27679986 0.5120477 0.30010906
0000c0 ac 8d c2 3e 14 69 6f 3e c8 cd a4 be a6 e1 b3 bd
       0.37998712 0.23379928 -0.3218825 -0.087832734
0000d0 55 b2 eb be de 58 36 3e 3e bc 4d 3e c4 84 17 bf
       -0.46034494 0.17807338 0.2009134 -0.5918696
0000e0 1e 1a 8b 3e 4a 3a a0 be b2 c6 c9 be 87 a2 2f bf
       0.27168363 -0.3129447 -0.39409405 -0.6860737
0000f0 ec 3c b7 be 4e 43 fe be ac e0 8f 3e f9 7c e4 3d
       -0.35788667 -0.49660724 0.281011 0.11156649

bn1.running_var f4 [64]
000000 69 b6 63 40 d9 01 dc 40 e0 90 46 40 9a 63 a3 41
       3.5580084 6.8752255 3.1025925 20.423634
000010 73 c3 99 40 a6 32 62 41 e4 87 3c 41 1e ef c4 40
       4.8051085 14.137365 11.783176 6.154189
000020 eb 90 79 41 f9 3e 86 41 8f da 60 41 a1 58 ae 41
       15.59788 16.780748 14.053359 21.793276
000030 6d cc 9f 41 d0 2b 97 40 00 04 8a 41 1a 5c da 40
       19.974817 4.724098 17.251953 6.823743
000040 e3 2b 9b 40 19 9c 9d 40 8e 03 aa 40 a1 09 a4 40
       4.8491073 4.925305 5.312934 5.1261754
000050 ea 45 83 41 ea c7 3a 41 f7 f3 9a 41 35 be a1 41
       16.409138 11.673807 19.369123 20.217875
000060 8b 58 a3 40 63 9a a1 40 95 85 ab 40 c9 d3 5d 41
       5.1045585 5.050096 5.3600564 13.864205
000070 8e 6e 76 41 c1 3d 0d 41 b8 71 52 41 d4 0c 94 40
       15.401991 8.827577 13.152763 4.626566
000080 fd 3e 89 41 fb 5c 9d 40 a0 af 9a 40 69 c7 c4 40
       17.155756 4.9176 4.8339386 6.149342
000090 e5 1f 1c 41 66 ed ba 40 4c 52 8c 41 6c 9f f5 40
       9.757787 5.8414793 17.540184 7.6757107
0000a0 36 f7 4a 40 54 5c b7 40 d5 01 9d 40 7f 47 62 40
       3.1713386 5.7300205 4.9064736 3.5356138
0000b0 d1 49 d6 41 b8 da ba 40 9d 4f d6 41 f8 ff c0 40
       26.786043 5.839199 26.788874 6.031246
0000c0 3a f4 ef 40 08 f4 99 40 78 2f c1 40 58 29 c9 40
       7.498563 4.811039 6.0370445 6.286297
0000d0 4f 5d 92 41 b2 40 78 40 d7 52 8d 40 20 1f b2 41
       18.29556 3.8789487 4.4163623 22.265198
0000e0 03 ab bf 40 80 01 9d 40 9c 7e 79 41 b8 7a be 41
       5.9896255 4.906433 15.5934105 23.809921
0000f0 ba 76 d3 40 43 5f 98 41 08 bd b6 40 3e a6 be 40
       6.608243 19.046515 5.710575 5.957793

fc2.weight f4 [32, 64]
000000 34 bc 6a bf 76 ba 47 bf e5 06 1b c0 7f 3a fb 3e
       -0.91693425 -0.7801889 -2.4222958 0.49068066
000010 9c 12 da 3d 07 dc cc 3f a8 5f 00 bc d4 05 17 3f
       0.10648081 1.6004647 -0.007835306 0.5899327
000020 cb dc 0a 40 47 a8 1a 3e c7 f7 a1 3e dc 42 93 3f
       2.1697261 0.15103255 0.31634352 1.1504779
000030 9a 78 91 3f 5b 10 36 3f e7 96 d6 3d c1 22 a8 3f
       1.136493 0.71118706 0.10478001 1.3135606
000040 cd 00 a3 3e d1 85 7f 3f d6 68 d5 3c 27 db 7a 3f
       0.31836548 0.9981356 0.026050966 0.9799065
000050 b4 17 6d bf 15 d3 ae bd 85 9a 95 3f f0 b5 6a 3f
       -0.92614293 -0.085363545 1.1687781 0.91683865
000060 1e 05 41 3e 86 18 0d 3f ce 7b 74 3d 90 fd f4 3e
       0.18849608 0.55115545 0.05968838 0.47849703
000070 27 50 c8 3f 73 6c e8 be 56 72 10 be 8b 66 6b 3d
       1.564946 -0.4539524 -0.14106116 0.05747084
000080 d1 5f 0b 3f 9f 3c 23 3f 44 89 17 3f 3f 09 13 3e
       0.5444308 0.63764375 0.59193826 0.14358996
000090 70 be 2f 3f 55 93 45 3f a1 95 7e 3f a7 19 c7 bf
       0.6864996 0.77177936 0.99447066 -1.5554703
0000a0 7a e9 a7 bf 72 d2 9f 3f e7 ca 98 bf 45 22 f5 bf
       -1.3118126 1.2486098 -1.1936921 -1.9151083
0000b0 3b ae 77 be 87 c5 bb be 2b 5c 42 bf c0 2b 09 3f
       -0.24187557 -0.3667414 -0.7592189 0.5358238
0000c0 0f 41 7c 3d 88 e8 d8 3e d1 81 7b 3e 94 ed 2c 3f
       0.061585482 0.42364907 0.2456124 0.67550015
0000d0 f9 96 63 3f 6e 10 85 be d0 85 ea 3e 56 ab 2f 3f
       0.8890224 -0.25989097 0.45805216 0.6862081
0000e0 60 df 70 3f 26 d7 25 3f 87 f2 24 3f 8b 3d a5 3f
       0.94090843 0.64781415 0.6443257 1.2909406
0000f0 6d 84 80 3e d0 80 b2 3f ff be 82 3f 4a cf 40 3e
       0.25101033 1.394556 1.0214537 0.18829075
000100 14 2a b3 3f 15 55 d6 3f 13 e5 b8 3f 18 dc 35 3e
       1.3997216 1.6744715 1.4444908 0.1775974
000110 91 60 c7 3e 59 5c d9 bf 23 b7 b4 3e c8 af fc 3d
       0.38940862 -1.6981307 0.35295972 0.12338215
000120 df 9d fc bf 1c ab cc bf a4 58 a4 bd 9a 5c 76 bf
       -1.9735678 -1.5989718 -0.08024719 -0.9623505
000130 3c c9 06 c0 44 a7 21 3e e9 f2 89 3f ba 6a 6a 3e
       -2.1060324 0.15786463 1.0777255 0.22892275
000140 16 5d 88 bd e7 9d 6c bc 83 d2 3a 3f d9 1e 27 bd
       -0.0665838 -0.014441944 0.72977465 -0.040800903
000150 f5 02 a9 be 26 fe 30 3f 2a a0 57 bf 37 10 56 bf
       -0.3301007 0.691378 -0.84228766 -0.8361849
000160 86 f1 05 3f 30 90 8a bc 9a e5 82 3e 44 96 9f bf
       0.5232166 -0.016914457 0.25565797 -1.2467732
000170 7b 67 c5 bf 06 d8 43 be b2 53 f7 bf ca 36 ee 3e
       -1.5422205 -0.19125375 -1.9322417 0.46526176
000180 74 7e 16 bf d9 47 2d bf 5e 75 26 3f 10 c7 ac be
       -0.587867 -0.67687756 0.6502284 -0.33745623
000190 85 37 11 c0 67 c3 ce 3e 31 53 0a c0 73 41 f4 be
       -2.2690136 0.40383455 -2.1613276 -0.47706184
0001a0 5b b7 ab 3f 76 fe 78 3e e5 48 a6 bc 34 e9 92 3f
       1.3415331 0.24315819 -0.02029843 1.1477418
0001b0 26 ca 16 3f fc 5a 42 3f a9 e0 09 3e 1c d3 b6 3f
       0.58902204 0.7592008 0.13464607 1.4283175
0001c0 fe a4 ff bf 57 ea b9 3e cd 95 6a be 40 2e 70 3f
       -1.9972227 0.363116 -0.22908707 0.9382057
0001d0 81 e4 7e bf a0 b1 da bf 1c 0b 92 3e 59 64 93 bf
       -0.9956742 -1.7085457 0.285241 -1.1514999
0001e0 bb e7 0e 3f 63 99 95 3e 80 13 5b bf 81 87 75 bf
       0.5582234 0.29218587 -0.8557663 -0.9590989
0001f0 52 ba ea 3e 5e d3 98 bf 07 aa fb 3e cd fc 1f 3f
       0.45845276 -1.1939504 0.49153158 0.6249512
000200 5e 40 ad 3f df 23 06 40 77 2c ba 3f c1 8c df bf
       1.3535268 2.0959394 1.454482 -1.746483
000210 13 28 04 3e 93 e1 c5 bf dc 94 a5 3c 90 b7 1e 3e
       0.12905912 -1.5459465 0.020212583 0.15499711
000220 10 a0 a2 bf aa 03 ae bf 82 bc ed be 5f 67 51 bf
       -1.2705097 -1.3594868 -0.46432883 -0.81798357
000230 8b cf 97 bf 9d 4e 1b 3f 75 12 87 3e 07 5e 73 be
       -1.1860212 0.6066683 0.2638127 -0.23766337
000240 54 fd d9 be b5 f4 45 be 9c 38 f1 bd 64 99 87 3e
       -0.42576087 -0.1933163 -0.117783755 0.26484215
000250 72 b8 61 bf f0 5b 06 be 91 16 25 be 2a 2f c3 bf
       -0.88172066 -0.13121009 -0.1612189 -1.5248768
000260 40 81 2e 3f ce f1 9a 3e 59 57 6e 3f 38 db ae bf
       0.6816597 0.30262607 0.9310203 -1.366065
000270 59 db 9a bf 9e c1 50 3f 0c 17 a3 bf 22 70 51 3f
       -1.209819 0.81545436 -1.2741408 0.81811726
000280 4c fb f0 bf 02 57 21 3f 4f 53 94 be a0 b4 3f 3f
       -1.882669 0.6302339 -0.2896981 0.74884987
000290 51 c2 98 bf ac cd 75 3e f3 bd 54 bf 8c a7 79 be
       -1.1934301 0.24004239 -0.8310234 -0.2438032
0002a0 ae e4 77 3f 7d f2 9f 3e 2e df 70 bf 56 42 f8 3f
       0.9683331 0.3123969 -0.94090545 1.9395244
0002b0 a4 63 8a 3e 4f 7c 35 3e 64 36 00 3f 1f 78 46 3e
       0.27029145 0.17723201 0.50082994 0.1938176
0002c0 d8 98 d4 bf a5 5a ef 3e f7 77 0f 3f f9 d7 ea 3e
       -1.6609144 0.46748844 0.56042427 0.458679
0002d0 b0 a3 94 bf 1e 72 04 c0 ba 30 3c 3e 9d 17 0c c0
       -1.1612453 -2.0694652 0.18377963 -2.1889412
0002e0 03 c6 61 be cd ad 8b 3e cf 5e 95 bf 8c 78 cd bf
       -0.22048192 0.27281037 -1.1669558 -1.6052413
0002f0 dd af 4f 3f 20 a0 0a c0 e8 b8 16 3f 5f 20 0d 3f
       0.8112772 -2.1660233 0.58875895 0.5512752
000300 39 35 27 bf 12 bd 69 bf eb 25 17 bf 6e d0 83 3e
       -0.65315586 -0.91304123 -0.59042233 0.25744957
000310 0f 8a 53 bf df ce 4d bc a8 64 4b bd 8b 2a 1c bf
       -0.82632536 -0.012561529 -0.04965654 -0.61002415
000320 02 18 d7 be af e3 c5 3d e9 cc 11 3f 63 4e 2d 3e
       -0.42010504 0.09662568 0.56953293 0.16924433
000330 d7 3c 3f be c9 e9 62 bf 10 f3 64 be 3d 31 7d bf
       -0.18675552 -0.8863798 -0.22358346 -0.98903257
000340 fd 84 69 bf 02 1f 94 bf 19 5c 61 bf 7a ca d2 bf
       -0.9121855 -1.1571963 -0.88031155 -1.6468041
000350 43 3d 97 3f 07 fa 52 3e a8 b5 69 bf f6 61 24 bf
       1.181557 0.2060319 -0.9129281 -0.64211977
000360 d6 1d 9f bf 73 5e 43 bf 07 cd b9 bf 62 0b b6 be
       -1.243098 -0.76315993 -1.4515694 -0.3555556
000370 dc a6 43 3f c0 73 69 bc f2 99 1a 3f 67 3b 38 bf
       0.7642648 -0.014248788 0.6039115 -0.7196564
000380 dc d8 99 be 3f 33 6b bf 37 4a 96 bf af ad ac be
       -0.30048263 -0.9187507 -1.1741399 -0.3372626
000390 a5 ca 41 3e 5d 29 f4 be 32 bb 12 3f 1f 37 47 3f
       0.18924959 -0.47687808 0.5731689 0.77818483
0003a0 db e0 2b 3c 9e 30 29 bf 65 c9 4c 3f fc 15 14 bf
       0.010490621 -0.6608981 0.79994804 -0.57846045
0003b0 80 6e 4c 3f c1 38 85 be 9c e9 a0 be b3 c9 d9 be
       0.7985611 -0.26019862 -0.3142823 -0.42536697
0003c0 08 0d 75 bd 43 5c 8c bf 12 c7 b5 bf 3a 1a 1f 3f
       -0.05982688 -1.0965656 -1.4201376 0.62149394
0003d0 89 eb bc bd 4e 79 dc bc 68 b1 95 bf bd 35 1c bf
       -0.09224612 -0.026913311 -1.1694765 -0.610195
0003e0 84 80 7c bf 62 f9 c6 bf 3c f1 22 3f 4b 93 e4 bd
       -0.986336 -1.5544856 0.63649344 -0.111609064
0003f0 39 e7 83 bf 54 82 80 bd 2c 87 5f bf 82 a8 85 bf
       -1.0304939 -0.06274858 -0.8731563 -1.044205

fc2.bias f4 [32]
000000 c3 4b 24 bb d5 59 90 bb da b4 c4 3b 81 02 96 bc
       -0.0025069572 -0.00440524 0.0060030045 -0.01831174
000010 90 93 15 3a 14 be 8e ba b4 1a 13 bc f4 69 bb 39
       0.00057058875 -0.0010890388 -0.0089785345 0.0003574636
000020 f6 35 07 bc 49 94 0e bb a6 c2 b5 bb 1f 8f 59 3c
       -0.008252611 -0.0021755865 -0.0055468855 0.013278752
000030 fd 10 38 bc 7d 79 2e 3b 80 9a 1a bb 3f fc aa 3a
       -0.011234519 0.0026622706 -0.0023590624 0.0013045146
000040 f8 bb ba bb 6a 68 70 3a 40 a1 ac 3b c3 6c d9 bb
       -0.005698677 0.00091708323 0.005268246 -0.00663528
000050 f2 f0 bf 3b 87 ce d5 3b 05 f2 de bb 11 54 90 bc
       0.0058575803 0.006524864 -0.0068037533 -0.017618211
000060 5a fc 22 bc de aa ab 3b 04 1a b9 bb ef f6 c2 3b
       -0.009947861 0.005238875 -0.0056488533 0.005949847
000070 52 64 0f 39 ad 34 87 bb 6f d6 a4 bb fe 79 ce 3a
       0.00013674915 -0.0041261525 -0.0050304453 0.0015752909

bn2.weight f4 [32]
000000 da d8 48 3f 2f 1b 4d 3f dc 28 87 3f b6 81 a2 3f
       0.7845589 0.80119604 1.0559344 1.2695835
000010 74 d3 a3 3f 3b e6 9b 3f 8e af a5 3f 89 58 24 3f
       1.2798905 1.2179636 1.29442 0.64197594
000020 10 c3 3f 3f b8 3c 96 3f cd 54 35 3f 13 9a b4 3f
       0.74907017 1.173728 0.7083252 1.410952
000030 e1 3a 4c 3f b2 7b 90 3f 4f 89 65 3f 3b 67 a3 3f
       0.7977734 1.1287749 0.8966264 1.2765878
000040 66 f2 62 3f 51 b7 91 3f b0 1a a8 3f b8 b0 84 3f
       0.8865112 1.1384069 1.3133144 1.036643
000050 f7 b5 90 3f aa df a3 3f 96 ce ab 3f 4a 89 a9 3f
       1.1305531 1.2802632 1.342242 1.3245022
000060 0d ed 96 3f 19 bd 68 3f 7a bd b1 3f a4 e6 70 3f
       1.1791092 0.9091354 1.3885949 0.9410193
000070 81 61 93 3f b5 a8 ae 3f d6 09 99 3f d8 c0 89 3f
       1.1514131 1.3645235 1.1956127 1.0761976

bn2.bias f4 [32]
000000 db 90 e6 3e 4f 50 8c be 14 09 88 be 2c 6a 2a bf
       0.4503239 -0.2740502 -0.26569426 -0.66568255
000010 00 29 30 bf 63 7f 1e bf e9 b5 14 bd b8 46 b6 3e
       -0.6881256 -0.61913127 -0.036306296 0.3560083
000020 f3 b6 72 be b7 1e ac be a5 ca bf 3e 11 32 03 bf
       -0.23702602 -0.33617184 0.37459293 -0.5124827
000030 14 ac e9 be b5 e1 76 be a6 a2 4d 3e 2c b0 18 bf
       -0.45639098 -0.24109538 0.20081577 -0.59643817
000040 01 20 05 bf e4 45 b2 be d0 de 1d bf a4 e8 03 bf
       -0.5200196 -0.34818947 -0.6166811 -0.51526856
000050 bb ee 11 bf 1a 88 05 bf 8a 0d 1c be e2 0f 12 bf
       -0.570049 -0.521608 -0.1523954 -0.57055485
000060 e3 44 31 bf 57 09 40 bd d7 c5 20 bf cc 3b e9 be
       -0.6924574 -0.046883907 -0.6280188 -0.45553434
000070 56 9e 3d bf 93 08 0e bf 29 e3 7f be 12 9b 06 bf
       -0.74069726 -0.55481833 -0.24988998 -0.5258037

bn2.running_mean f4 [32]
000000 9a 08 96 40 fd 69 64 be 47 c2 a7 be 5c 39 e9 c0
       4.68855 -0.22306056 -0.3276541 -7.288252
000010 ec 0e 04 c1 c4 51 ed c0 7c 1a 9d 40 81 4b 7e 40
       -8.253643 -7.416231 4.909483 3.9733584
000020 42 5e 49 3f 66 c4 f2 bf 66 7e 79 40 d9 7f fc c0
       0.7865945 -1.8966186 3.8983397 -7.8906064
000030 7d 8a cd bf 9a 36 a8 40 0d 40 88 40 c8 5a ff c0
       -1.6057888 5.256665 4.2578187 -7.9798317
000040 09 67 1a c0 78 17 a4 40 ac b7 f7 c0 0a b4 e9 bf
       -2.4125388 5.127865 -7.741171 -1.8258069
000050 5a 46 b1 40 7d 0e 09 c1 d7 15 a4 40 48 2d f6 c0
       5.539838 -8.566037 5.127666 -7.6930275
000060 18 dc ee c0 e7 b4 a3 40 f9 de 01 c1 6f e2 f2 bf
       -7.464367 5.115833 -8.116937 -1.8975352
000070 b7 03 e1 c0 f9 36 f0 c0 1f 74 96 40 c2 d2 ec bf
       -7.0317035 -7.5067105 4.701675 -1.8501818

bn2.running_var f4 [32]
000000 e2 c5 67 42 b0 d5 ff 41 68 9b 1b 42 ef 1f 87 42
       57.943245 31.97934 38.901764 67.56237
000010 ff 21 a7 42 f6 74 7c 42 d1 42 8a 42 ad ee 36 42
       83.5664 63.11422 69.1305 45.73308
000020 4d 74 db 41 17 66 89 42 23 00 63 42 94 57 a4 42
       27.431787 68.699394 56.750134 82.17105
000030 f7 11 41 42 9c 29 85 42 df 38 57 42 10 bf 97 42
       48.267544 66.58127 53.80554 75.87317
000040 67 c7 32 42 d7 48 6e 42 80 af 91 42 fc e6 42 42
       44.69473 59.571133 72.84277 48.72557
000050 99 0a 8e 42 de c6 b4 42 f4 9e 66 42 1f 95 7f 42
       71.0207 90.38841 57.655228 63.895626
000060 04 11 83 42 ec 63 8e 42 ec b2 a4 42 79 30 4b 42
       65.53323 71.19516 82.34946 50.797337
000070 4d d6 65 42 12 65 8a 42 7a 11 65 42 59 b3 45 42
       57.45928 69.1974 57.267067 49.425144

fc3.weight f4 [16, 32]
000000 e2 c1 b4 be e0 5e 0c 3f 62 08 3b 3f 5c 33 11 c0
       -0.3530417 0.5483227 0.73059666 -2.2687597
000010 e3 78 20 c0 ad ba a6 bf 4d d3 56 bf b8 e4 70 3b
       -2.5073783 -1.3025719 -0.8391617 0.003675742
000020 84 09 6c 3d b3 c1 c9 3e 09 7a af be ca 71 0d c0
       0.057626262 0.39405593 -0.34272793 -2.2100701
000030 48 ca d9 3e 07 bc b6 be c7 2e 82 bf fa f3 ec bf
       0.4253714 -0.35690328 -1.0170525 -1.8511956
000040 34 0e 99 3e 2a 83 90 bf d6 2f 06 c0 6c 93 09 3f
       0.2989365 -1.1290028 -2.0966697 0.5374057
000050 a9 c1 7c bf f9 dc e8 bf 62 d0 51 bf 5b 1e 0e c0
       -0.98733 -1.8192436 -0.8195859 -2.2206028
000060 65 cf ed bf 20 4f 91 bd b1 0d f6 bf ff ad a7 3b
       -1.8578917 -0.0709517 -1.9222928 0.0051171775
000070 1f db e3 bf b8 ba 05 c0 7f 6d 8c bf d8 54 6c 3e
       -1.7801245 -2.0895214 -1.0970916 0.2307924
000080 9d 53 62 bf fd 57 8c bf 03 b8 51 bf 81 41 da 3e
       -0.88408834 -1.0964352 -0.81921405 0.426281
000090 ba 68 aa 3f 79 0e 02 3f f9 e7 0f bf c5 55 ca bf
       1.331321 0.50803334 -0.5621334 -1.5807425
0000a0 82 a3 5d bf cf 8b b5 bf 7f 15 33 bf 1f 4b 9e 3f
       -0.8657762 -1.4183291 -0.69954675 1.2366675
0000b0 ef 6e 26 bf e1 a6 52 bf cc 12 86 bf 50 97 15 3f
       -0.6501302 -0.82285887 -1.0474486 0.5843401
0000c0 72 d2 35 bf df 2c 5d bf 5d 3a 0b 3f c0 1e 29 bf
       -0.7102424 -0.8639659 0.5438593 -0.66062546
0000d0 2f 4d 0b be e4 6f 80 3f 68 05 ab be 7c 4d cc 3f
       -0.13603662 1.0034146 -0.33402562 1.5961146
0000e0 12 c8 8d 3f 0d ea d4 be 3d 34 63 3f 74 0e 87 bf
       1.1076682 -0.41584817 0.88751584 -1.0551286
0000f0 0c 52 b3 3f a4 eb 06 3f 80 48 61 be bc 40 23 bf
       1.4009414 0.5270331 -0.22000313 -0.6377065
000100 49 f1 88 bf eb 54 75 bf e9 28 91 bf 0a 93 a3 3f
       -1.0698634 -0.958327 -1.134061 1.2779248
000110 ed a8 07 3f 7e 2a ff 3e 07 79 66 bf 7a 73 56 bf
       0.52992135 0.49837106 -0.90028423 -0.83769953
000120 61 e3 88 bf 22 af b4 bf 62 c1 69 bf d4 8d 05 3f
       -1.069439 -1.4115946 -0.91310704 0.5216954
000130 6b 4c 39 bf 16 f4 cc bf cb a8 2b bf 9b e5 12 3f
       -0.7238223 -1.6011989 -0.6705443 0.573816
000140 be f9 9f bf 13 f8 b8 3d 93 1f 98 3f 09 29 b9 bf
       -1.249809 0.090316914 1.1884636 -1.4465648
000150 45 34 c9 be f2 e3 05 3f 7d 1e 58 bf 5d e3 88 3f
       -0.3929769 0.5230094 -0.8442152 1.0694386
000160 1d 83 69 3f 79 43 68 be 2f 88 6d 3f 04 d5 89 bf
       0.9121569 -0.22681989 0.92785925 -1.0768132
000170 56 cd 83 3f 59 56 9f 3f 4c ac 9d bd 6b b4 86 bf
       1.0297039 1.2448226 -0.07698879 -1.0523809
000180 d0 83 1a bf fa 82 e1 be 58 83 a0 bf 62 a0 5f 3f
       -0.6035738 -0.4404524 -1.2540083 0.873541
000190 05 32 7e 3f e9 b2 4f 3f 97 bc 89 bf 68 d8 78 bf
       0.99295074 0.8113237 -1.0760678 -0.9720521
0001a0 e2 60 a3 bf 7e 1a ff bf 68 63 33 bf 30 9a 95 3f
       -1.2763941 -1.992996 -0.70073557 1.1687679
0001b0 16 51 0e bf a2 ee 98 3e 99 ef 9a bf 82 e1 7c bd
       -0.5559248 0.29869562 -1.2104369 -0.0617385
0001c0 73 5d 83 be be 7d 04 3f 63 1a 59 3f 0b cd 3d bf
       -0.25657234 0.5175437 0.8480589 -0.74140996
0001d0 de 75 5c 3e c0 4e 03 3f 5d 25 2c 3f 48 2a 84 3f
       0.21529338 0.5129204 0.6724451 1.0325403
0001e0 0c 3c 70 3f 5c be 50 be 34 a5 e5 3e 78 93 8c bf
       0.93841624 -0.20385116 0.44852602 -1.0982504
0001f0 64 ae 9a 3f 29 f8 b5 3f 65 ad a4 3e bf 6d d0 bf
       1.208447 1.4216357 0.3216354 -1.6283492
000200 a2 94 28 bf 39 0d 7c bf 57 a8 83 bf 1b 52 77 3f
       -0.65851796 -0.98457676 -1.0285748 0.9660966
000210 12 dc ad 3f 8d f4 12 3f 95 20 ab bf a5 73 86 bf
       1.3582785 0.57404405 -1.3369318 -1.0504042
000220 49 60 a8 bf a7 52 ab bf 35 31 80 bf 5b fc c0 3e
       -1.3154384 -1.3384598 -1.0015017 0.37692532
000230 a8 6e a1 3e ad de 8f 3d 43 9c 2b be 3c 01 d7 3f
       0.31529737 0.07024894 -0.16758828 1.6797252
000240 c5 3f 81 bf e7 85 08 3f bc 94 5b 3f c3 77 a2 bf
       -1.0097586 0.5332932 0.85773826 -1.2692798
000250 90 88 88 be 93 2f b7 3e bc 7e 8a bf dc b9 32 3f
       -0.2666669 0.35778484 -1.0819926 0.6981485
000260 a2 d4 58 3f 83 0b 1c be 4a a2 80 3f 05 65 45 bf
       0.8469945 -0.15238766 1.0049527 -0.7710727
000270 ce 8e 8a 3f 8b 26 a1 3f c3 ec 07 bf 7b c7 b3 bf
       1.082483 1.2589887 -0.53095645 -1.4045252
000280 4f 8a b3 bb 5e 50 53 3e 0e be 62 3f 17 74 e3 bf
       -0.005479134 0.20636126 0.8857125 -1.7769803
000290 93 a3 e5 bf 5b 45 e8 bf c8 35 91 bf 4f 30 46 be
       -1.7940544 -1.8146166 -1.1344538 -0.19354366
0002a0 1c 3a 41 3d c2 25 16 be 7d 06 1e be 63 58 06 c0
       0.047174558 -0.14662841 -0.15432163 -2.0991447
0002b0 83 61 7b 3f 5e 9d 8f bf ec ef ac be 58 20 b7 bf
       0.98195666 -1.12199 -0.33776796 -1.4306746
0002c0 84 b3 2c 3f 49 a6 77 3e 59 94 a0 bf 04 93 7e 3f
       0.6746142 0.24184527 -1.2545272 0.9944308
0002d0 09 bf 30 bf f5 90 d8 bf 42 37 26 bf d9 e2 bd bf
       -0.69041497 -1.6919237 -0.64928067 -1.4834853
0002e0 2a a9 e0 bf 9f 0a 98 bf 1e f3 cd bf 6d e2 0e 3e
       -1.7551625 -1.1878241 -1.6089818 0.13953562
0002f0 99 db f4 bf 1c 14 c7 bf d5 0c b4 bc 07 8f 24 3f
       -1.9129516 -1.5553012 -0.021978775 0.6428074
000300 aa ac 92 bf 3b e1 cc be 83 44 3d bf 6f 51 a2 3f
       -1.1458943 -0.40015587 -0.73932666 1.2681102
000310 9e 44 a7 3f ce 43 4f 3f b9 0f d0 bd e6 7a 64 bf
       1.3067815 0.80962837 -0.10159249 -0.8925003
000320 40 c1 89 bf 9a da bc bf 8b c4 78 bf c8 56 d7 3e
       -1.07621 -1.4754212 -0.971749 0.42058396
000330 58 ae aa be 59 70 09 bf 11 0d 67 bf 17 3a 64 3f
       -0.3333614 -0.53687054 -0.9025431 0.8915114
000340 f4 bc 9d bf f5 4e 8d 3e f7 27 0d 3f 5b 0a 5a bf
       -1.2323289 0.27599302 0.55139107 -0.8517205
000350 48 f7 29 bf e3 35 bf 3e 79 da 11 bf ce 86 16 3f
       -0.66392946 0.373458 -0.5697399 0.58799446
000360 90 be 90 3e f3 4d 15 3e ee 90 eb 3f 04 34 98 bf
       0.28270388 0.14580517 1.8403604 -1.1890874
000370 de 85 31 3f 5d 02 9a 3f 8a 69 9b be c1 be 08 c0
       0.6934489 1.2031971 -0.30353957 -2.1366427
000380 2e c5 7e bf 7e 60 a6 bf fc 4f 01 bf 0b 94 92 3f
       -0.9951962 -1.2998197 -0.5051267 1.1451429
000390 b9 0b ea 3f a5 4b e4 3e e0 54 ca be 81 6c 21 bf
       1.8284827 0.44588962 -0.3951788 -0.6305619
0003a0 d1 2e 30 bf fa 3b ad bf 31 c3 6f bf d8 c8 9b 3f
       -0.68821436 -1.3533928 -0.93657213 1.2170668
0003b0 6e b2 84 bf 1f 2b 35 bd 3d d4 23 bf eb be c3 3e
       -1.0366952 -0.044230577 -0.63995725 0.38231596
0003c0 89 c8 02 bf 38 42 b9 be 32 ba 5c 3f e6 aa b8 bf
       -0.5108724 -0.36183333 0.8622161 -1.4427154
0003d0 13 4b 3d be 52 33 2f 3f 90 65 9c 3d f4 e9 63 3f
       -0.1848567 0.68437684 0.07636559 0.8902886
0003e0 ad ab b7 3f af 73 eb be d0 46 d1 3f 9f 00 a3 bf
       1.4349266 -0.45986697 1.6349735 -1.2734565
0003f0 8f 76 82 3f e0 6c 55 3f b0 2f 98 bc 21 69 cf bf
       1.0192431 0.83369255 -0.018577427 -1.6203958

fc3.bias f4 [16]
000000 01 a4 52 3c 29 86 04 3c 27 79 53 3c e9 14 13 3c
       0.012856484 0.008088627 0.012907303 0.008977153
000010 7b c8 44 3b 75 b2 c5 bc 72 7c 37 bc c4 38 b7 bb
       0.0030026722 -0.024132947 -0.011199104 -0.005591484
000020 ed 44 33 bc 0f cd d0 bb e9 91 aa bb 26 e1 43 bc
       -0.010941726 -0.006372101 -0.005205382 -0.011955535
000030 52 d7 37 3c f0 8a 96 3c b4 c3 0e bc ae 8b 88 3c
       0.01122077 0.018376797 -0.008713651 0.016668167

bn3.weight f4 [16]
000000 5c 2c 21 3f 20 35 d6 3e 27 e5 03 3f 96 b3 af 3e
       0.6295831 0.41837406 0.51521534 0.343167
000010 3c dc b8 3e bb d7 17 3f 9b 07 d2 3e 64 67 fa 3e
       0.36105525 0.59313554 0.41021428 0.48907006
000020 67 e4 00 3f b6 5f 49 3f bc 16 b5 3e fd f0 c5 3e
       0.50348514 0.7866167 0.35368907 0.38660422
000030 9a 77 a3 3e 77 2b 28 3f b2 63 25 3f 5e cb 36 3f
       0.31927186 0.6569132 0.6460525 0.71404064

bn3.bias f4 [16]
000000 24 b4 d8 bd 66 dd 12 be d3 28 53 bd 55 35 d5 bb
       -0.10581234 -0.1434227 -0.051552605 -0.006506602
000010 df 5f 84 bd d1 e7 e1 bd 99 55 df bc 65 b1 5c bc
       -0.064635985 -0.110305436 -0.027262496 -0.0134700285
000020 43 b3 a7 bd 14 be ed bd ce e4 87 bc 58 7a 4f bc
       -0.08188488 -0.1160852 -0.016588595 -0.012663446
000030 63 70 82 bd 3e 5d 03 be 48 32 5e be f6 89 3b be
       -0.06369092 -0.12828538 -0.21698868 -0.18314347

bn3.running_mean f4 [16]
000000 0b 7c db c0 81 12 13 c0 da e3 40 c0 63 62 88 bf
       -6.858892 -2.2980044 -3.013907 -1.0655025
000010 75 16 1c c0 e6 4b a8 c0 ed 12 0f c0 65 e4 97 bf
       -2.4388707 -5.259265 -2.2355301 -1.1866575
000020 da 0b dc bf 72 6a bc c0 69 08 04 bf 9e ef df bf
       -1.7191117 -5.887994 -0.5157533 -1.7495
000030 70 04 07 c0 9e d6 ca c0 07 df c1 c0 17 f9 b1 c0
       -2.1096458 -6.3386984 -6.058475 -5.5616565

bn3.running_var f4 [16]
000000 29 65 c0 42 01 68 a5 42 39 a9 ae 42 14 19 62 42
       96.19758 82.70313 87.33051 56.52449
000010 b7 72 8e 42 c9 14 a1 42 69 7a 97 42 f1 e3 7a 42
       71.22405 80.540596 75.73908 62.7226
000020 5f 35 a2 42 87 71 c5 42 fb a5 91 42 b0 0a 8c 42
       81.10424 98.72173 72.82418 70.020874
000030 39 bc 8d 42 7a 19 a6 42 93 54 93 42 d1 dc c3 42
       70.86762 83.04976 73.665184 97.93128

fc4.weight f4 [1, 16]
000000 36 1a 7e 3e 20 71 06 be 3c 37 26 be 3b ae c1 bd
       0.24814686 -0.13129091 -0.16232008 -0.0945706
000010 35 4e 5f bd 9d 2a 2e 3e 26 b4 f8 bd ed 54 60 be
       -0.054517943 0.17008443 -0.121437356 -0.21907397
000020 55 2d 47 be dd b7 a0 3e fd fa 14 be 91 01 1e be
       -0.19450887 0.31390277 -0.1454887 -0.15430285
000030 5b 0e 5e 3b f9 20 8e 3e a9 4a 85 3e 8b 43 9c 3e
       0.0033883068 0.2775953 0.26033524 0.3052028
