models/odd_even_model.pth (torch, 50730 bytes, 13 tensors)

fc1.weight f4 [128, 4]
000000 1b 5f 86 be 1f 60 0c be be c6 af 3e 57 7f 9d 3e
       -0.26244435 -0.13708542 0.34331316 0.30761215
000010 91 52 69 3d ec 5b 1e 3d 89 d6 38 3f 3b ea 3d 3e
       0.056963507 0.038661882 0.72202355 0.18546383
000020 b4 8e 0a 3e 7e c7 ff 3c 31 c4 0f bf 34 81 3a 3c
       0.13531 0.031223055 -0.5615874 0.0113833435
000030 ff 8e bc 3e 91 67 ab be 64 7c 25 bf 3a db d0 3d
       0.36827847 -0.33477452 -0.6464293 0.10198064
000040 df 3b ae 3e 1e f0 a9 3e f0 b8 5c be 35 c9 75 3e
       0.34030053 0.33191007 -0.21554923 0.24002536
000050 06 d2 56 3d 1a 4d 19 3e f0 44 1c bf 69 fc e7 3d
       0.052446388 0.14970818 -0.6104269 0.1132744
000060 61 ba 9f 3d 5d 60 53 3d 3c 8c 2d be 6e a9 31 be
       0.07799221 0.05160557 -0.16948026 -0.17349789
000070 02 9d e9 bd 2f 0c 0c be 21 32 0d 3e e1 7b cf 3e
       -0.114069 -0.13676523 0.13788654 0.405242
000080 6a b2 9f be fc 36 60 3e 2d e3 aa 3e 44 f8 76 3e
       -0.31190807 0.21895975 0.33376446 0.24118143
000090 55 54 f5 bd d7 f1 8c 3d f3 32 0b 3f 23 43 a1 3e
       -0.11978976 0.06882065 0.5437462 0.31496534
0000a0 55 5f fd 3c 88 06 f8 3d 28 ac 0d 3f 1c df 27 be
       0.030929247 0.12110621 0.55340815 -0.16393703
0000b0 95 4d 99 3d 16 0c ab bd 54 cd 1d bf 3e 61 51 3e
       0.07485501 -0.083519146 -0.6164143 0.20447251
0000c0 81 5b 27 3e 53 ee ce 3d fa 7d 55 3c 0d f0 be be
       0.163435 0.101040505 0.013030523 -0.3729252
0000d0 cb 1e 9b be 59 1e f5 3e cf 13 dd 3e 33 11 b1 3e
       -0.3029693 0.47874716 0.43179175 0.34583434
0000e0 a6 6c ea 3d af 88 b3 bc d3 3a 20 bf 6f 2e a3 3e
       0.11446504 -0.021915762 -0.6258976 0.31871364
0000f0 49 b5 f9 3d 28 9f 15 be 22 30 cf be 67 28 17 be
       0.121927805 -0.14611495 -0.4046641 -0.14761506
000100 bb 6f 2c bc c9 8f 74 bc 05 67 35 3f 81 5a 87 3d
       -0.0105246855 -0.014926859 0.7086032 0.06609059
000110 b1 d2 bc 3d 31 f5 03 be ed 4b cc be 06 58 76 3e
       0.09219874 -0.12886502 -0.39901677 0.24057016
000120 f2 8c 12 be 7d 1c ba be 07 34 0d 3f c0 bd 73 bd
       -0.14311579 -0.3634986 0.5515751 -0.05950713
000130 48 09 71 be cb 7b e8 3e a8 56 05 3f fc a1 21 3e
       -0.23538697 0.45406947 0.5208535 0.15784448
000140 e2 e4 9a 3e 6f 95 b0 3e 9a f4 1f bf 14 09 71 be
       0.3025275 0.3448901 -0.6248261 -0.2353862
000150 85 a4 27 3e 19 08 60 be 94 fd d9 3e e2 57 79 bd
       0.16371353 -0.21878089 0.42576277 -0.060874827
000160 41 b1 89 be f5 9e c5 3e 53 c3 76 be a2 0f 50 be
       -0.26893046 0.38597837 -0.24097948 -0.20318463
000170 a4 22 87 3e de 90 bf be d1 7e 42 3f ff 6c cb bc
       0.26393616 -0.37415212 0.75974756 -0.024832247
000180 94 1e 64 be 74 b4 5b bd 3d af c4 bd 1e 26 74 3e
       -0.2227729 -0.05363889 -0.096037365 0.23842666
000190 8b aa c0 3d f4 e1 ae 3e f6 26 16 bd c9 53 94 be
       0.094075285 0.34156764 -0.03665825 -0.28970173
0001a0 55 86 60 3d b1 00 44 3e 09 78 13 bf ad ec 9e 3e
       0.05481561 0.19140889 -0.57605034 0.31039944
0001b0 f4 14 3d be 26 cb 87 be 7d 7b a6 3d 04 57 f0 3e
       -0.18465024 -0.26522177 0.08129022 0.46941388
0001c0 15 4b 6a 3e d5 23 d4 3d a2 d7 b2 3e 3e e0 5e 3e
       0.22880204 0.10358397 0.3493014 0.21765229
0001d0 1e 6d 87 3c cd 31 2b 3d e1 e7 3d 3e 44 d8 f9 3e
       0.016531523 0.04179554 0.18545486 0.4879781
0001e0 64 79 37 ba ed 38 26 bd 45 a2 22 3e 7a 66 80 be
       -0.00069989846 -0.040581632 0.15882213 -0.25078183
0001f0 ab 5b 57 3e 4e b5 dc 3c 8c 82 1c 3f 39 34 a7 3c
       0.21031062 0.026941922 0.611367 0.020410644
000200 30 36 9f 3d de 9e e6 bb ee 75 d8 3e 9d 5e cc bd
       0.07774007 -0.0070379814 0.42277473 -0.099789836
000210 d8 11 d3 3e c5 65 c2 be 8e 8d e8 bd d8 75 54 3e
       0.4122455 -0.3796827 -0.113551244 0.20748079
000220 a7 59 bd 3d 4c cc 2e be af 83 fb be 57 97 07 3e
       0.092456155 -0.1707012 -0.49123904 0.13241325
000230 10 f3 84 3d d9 bb 8b be 75 d3 37 be 00 57 07 3c
       0.06491673 -0.27291754 -0.17951758 0.0082604885
000240 af f5 c2 3e 54 ab 62 be 48 e8 94 3d 1c 5a d0 3e
       0.38078067 -0.22135669 0.07270867 0.40693748
000250 f1 8e 70 3c c7 66 8f bd 0d 43 28 3f 4b f3 c0 3e
       0.014682517 -0.07002025 0.6572731 0.37685618
000260 0d 51 27 3e 47 f0 4f be ea f1 9e be 37 73 0c 3e
       0.16339512 -0.20306502 -0.3104394 0.13715826
000270 a3 fc 61 3e 35 8a 19 3e 6f 49 87 be 40 c8 21 be
       0.2206903 0.14994128 -0.26423213 -0.15799046
000280 bf 38 e4 3d fc 30 9e 3e 12 ca be 3e a0 e0 04 be
       0.11143636 0.30896747 0.37263542 -0.12976313
000290 3f 21 2a be 55 b1 c6 3e 71 7b da 3e 0b c6 05 3f
       -0.16614245 0.3880717 0.42672303 0.52255315
0002a0 2a 1d 86 3e f4 ec 80 3e 0b 4b 82 3d d2 a4 94 3e
       0.26194125 0.2518078 0.063619696 0.29031998
0002b0 1e e9 01 be f1 00 71 bd 23 4c 40 3e 1a 79 de 3d
       -0.12686583 -0.05883879 0.18779044 0.10862942
0002c0 b7 e9 76 be e6 49 8f 3e 16 5d a0 bd 3b a2 d2 3e
       -0.24112593 0.27986068 -0.07830255 0.41139397
0002d0 65 47 4d be 96 82 96 be d8 44 d9 bd bd 5b 9b be
       -0.20046766 -0.29396504 -0.10608834 -0.30343428
0002e0 4d 66 f5 3b 55 a3 57 3e b4 9b ca bd ed be be 3c
       0.007489002 0.210584 -0.09892979 0.0232844
0002f0 21 ac a7 3e 0e 76 8f 3e 96 ca bf 3e 3c 37 9d bd
       0.3274851 0.28019756 0.37459248 -0.07676551
000300 a8 d3 90 3d d8 f2 c6 3e c1 ee cf 3e 18 4c 2e 3e
       0.0707162 0.3885715 0.40611842 0.17021215
000310 f2 2d da 3d d0 bc af bd 77 2e 12 3f ff b6 8c 3e
       0.106532946 -0.08580935 0.5710215 0.27483365
000320 9e 33 a0 be 22 f6 8c be 31 79 e8 3e 1b f9 8f be
       -0.3128938 -0.27531534 0.45404962 -0.2811974
000330 48 44 22 3d 6e 06 5b be c3 e9 b2 3e 4a fe b6 3e
       0.0396159 -0.21389171 0.3494397 0.35740882
000340 eb f6 28 be b1 6d 9c bd 72 0c 88 3d b4 7d 98 be
       -0.16500442 -0.076381095 0.06642999 -0.29783404
000350 bc 2c 48 3e a4 0f ca be 1c f6 a7 be 25 34 9c 3e
       0.19548315 -0.39465058 -0.32804954 0.30508533
000360 4a c9 a0 3e 90 37 78 be 16 26 1c 3f ce 90 cb be
       0.3140357 -0.24239945 0.60995615 -0.39758915
000370 1a 49 6c 3b 9a 24 74 3e aa 41 f2 3e e8 8b 6b 3e
       0.0036054314 0.23842087 0.47315723 0.23002589
000380 f7 38 69 3d 0a 79 1e 3e 7b 22 07 bf 95 a6 4e 3e
       0.05693909 0.1547586 -0.5278699 0.20180734
000390 ed 61 b7 3b c2 e8 ae 3e b6 21 17 3f ce 5a 48 3e
       0.0055963905 0.34161955 0.59035814 0.19565889
0003a0 81 46 f1 bd f5 cb 83 be 94 2a e7 bc 7b ef 0a be
       -0.11781026 -0.25741544 -0.028218545 -0.13567917
0003b0 b3 69 f4 3c 47 a6 fe 3c ba f0 c8 3e ee fd 83 3e
       0.029835558 0.031085147 0.3924616 0.2577967
0003c0 87 48 87 3e af 93 82 3e 8c e7 9c bd c5 e7 fc 3d
       0.2642252 0.255033 -0.076613516 0.12348894
0003d0 38 83 87 be 2b 23 db 3d 29 c3 ec 3e c0 d4 c5 3d
       -0.264673 0.10700067 0.46242645 0.096597195
0003e0 db ef 33 bd 34 4f 4e be 28 1e f0 bd ed f0 fd 3e
       -0.043929916 -0.20147401 -0.11724502 0.49597874
0003f0 e5 9b fa 3c 6d 94 af 3d a7 0d e3 be 50 8b db bd
       0.030591914 0.08573232 -0.44346353 -0.10719931

fc1.bias f4 [128]
000000 ad 02 ee bd 0a 9f 42 be 05 62 ee 3d 7b 7a 55 3d
       -0.11621604 -0.19005981 0.116397895 0.05211876
000010 96 f8 b1 bd b1 d6 6b 3e b5 ad 04 3e b4 1b 84 be
       -0.08689992 0.23031117 0.12956889 -0.25802386
000020 82 d2 a7 3e 3b d4 f4 3e 9c 76 77 3e a0 8a e8 3e
       0.32777792 0.4781817 0.2416634 0.45418262
000030 bb fa c4 be 10 9d 0a 3e 3d bd 7f be b3 ae 2f 3e
       -0.38472542 0.13536477 -0.24974532 0.17156486
000040 73 ce cd 3e e2 a3 93 be 50 6b 8e be f7 f3 6a 3e
       0.4019657 -0.2883597 -0.27816248 0.22944628
000050 d6 06 a5 be 1f c3 5f 3e 61 23 db 3e 1e bc 9f 3e
       -0.32231778 0.21851777 0.4280043 0.3119821
000060 39 10 04 3f 34 d5 d6 be 63 e0 6e bd a0 84 cb bd
       0.51587254 -0.41959536 -0.05831946 -0.099374056
000070 fc 6e 00 bf 96 fc 85 bd 35 07 a4 3e e0 9f 39 3e
       -0.5016935 -0.065423176 0.3203675 0.18127394
000080 95 8c ef bd 70 55 dd be 83 13 39 3e 5d 49 f3 3d
       -0.11696736 -0.43229246 0.1807385 0.11879227
000090 9c 99 9a 3d c4 5a c8 3d 62 2b 8e bd 6e 06 02 bf
       0.0754883 0.09782937 -0.06941868 -0.5079106
0000a0 8f 83 b5 3e 20 41 fc 3d bd f5 8c be 57 ca 71 be
       0.35451934 0.12317109 -0.27531233 -0.23612343
0000b0 13 41 93 3c 93 2e 86 3d ef f5 37 3e 51 f1 e2 be
       0.017975366 0.06551852 0.1796491 -0.44324735
0000c0 90 ac 4c be 58 b6 88 3e 73 b8 56 3e fb fa eb 3d
       -0.19987702 0.26701617 0.209688 0.1152248
0000d0 00 ba 27 3e 13 30 cb 3e a2 8d 94 3e 75 d5 a6 3e
       0.16379547 0.39685115 0.29014307 0.3258473
0000e0 cf f4 a3 bb 83 a8 54 3e eb 4f 1e be c6 f2 73 3d
       -0.0050035487 0.20767407 -0.15460174 0.0595577
0000f0 99 8a 08 3e e9 b3 f8 bc a7 07 e4 bd 95 9c 06 3f
       0.13334121 -0.030359225 -0.11134272 0.52582675
000100 4a fb 97 be ef 8b 27 be af ab ab be e5 d1 5b 3e
       -0.29683906 -0.16361974 -0.33529422 0.21466787
000110 92 99 cc bd 61 6b 49 be 13 f2 77 3e 97 51 9f 3e
       -0.09990229 -0.19669868 0.24213438 0.31116936
000120 36 d3 c4 3e 75 34 8d be b5 25 9a be 47 4a 24 3e
       0.3844239 -0.27579084 -0.30106893 0.1604396
000130 60 8b bc 3d 8d 98 a5 be c5 d4 7b bd a9 46 a6 3e
       0.09206271 -0.3234295 -0.06148221 0.32475784
000140 5c 62 26 be 2f 7f a8 3e d2 08 e1 3e ea db 06 be
       -0.16248459 0.32909533 0.43952042 -0.13169828
000150 45 4a f4 be 0a c0 f5 3d 7f 6f 9b 3e 51 93 c9 be
       -0.47712913 0.11999519 0.30358502 -0.39370206
000160 14 01 ae 3e e2 db b5 bd db 11 96 be af 04 fd 3d
       0.33985198 -0.0887983 -0.29310498 0.12354409
000170 06 6e ab 3e ac 66 da 3e 3a 9e e0 3e b4 7a 85 3e
       0.3348238 0.42656457 0.43870717 0.26070178
000180 82 46 42 be b9 3b ac be a0 80 20 3e a0 59 35 3e
       -0.18972209 -0.33639315 0.15674067 0.1770997
000190 63 5f 83 be e8 f9 94 3e 91 3d 52 bd 3b ac bb be
       -0.25658712 0.29096913 -0.051328246 -0.3665484
0001a0 63 2c b9 be d4 c3 7c bd 17 80 e4 3d f4 b2 7b be
       -0.36166677 -0.061710194 0.11157244 -0.24579984
0001b0 9f 8b 66 3e 07 6e 22 3e d2 d0 6b 3c 81 e3 3e be
       0.22514199 0.15862285 0.014393048 -0.18641473
0001c0 ee 87 a7 bd 35 f7 ca 3e f8 45 80 be f8 28 30 bc
       -0.081802234 0.3964173 -0.25053382 -0.010751955
0001d0 27 d2 57 be 91 44 8a be 30 97 1f 3e d3 2b a6 3e
       -0.2107626 -0.27005437 0.15585017 0.3245531
0001e0 3c d5 a5 3e c7 7b 87 3d 06 fe d1 be 70 05 1a 3e
       0.32389247 0.066154055 -0.41014117 0.15041137
0001f0 03 f8 75 be 86 10 42 3c db 9d 75 3d 20 0f cd 3e
       -0.2402039 0.01184476 0.059964996 0.40050602

norm1.weight f4 [128]
000000 41 f2 59 3f 71 d2 72 3f dd 3e 53 3f 10 3c 56 3f
       0.85135275 0.9485236 0.82517797 0.836854
000010 83 2a 4c 3f 70 71 96 3f f2 d5 74 3f f1 dd 73 3f
       0.7975237 1.1753368 0.95638955 0.9526053
000020 18 6a 60 3f da 04 7d 3f 59 70 69 3f f4 ae 83 3f
       0.87661886 0.9883553 0.91187054 1.0287766
000030 94 14 54 3f 9c 71 74 3f 53 db 86 3f 47 ce 82 3f
       0.828439 0.95485854 1.0535682 1.0219201
000040 2b 96 77 3f 37 41 72 3f 42 6a 79 3f c0 84 59 3f
       0.96713513 0.9463076 0.9742776 0.84968185
000050 d8 d7 5e 3f 9c 32 45 3f 49 3c 5d 3f 7d 73 5e 3f
       0.870481 0.7703035 0.8642011 0.8689497
000060 a8 32 79 3f 69 98 56 3f 46 d7 87 3f 85 b9 58 3f
       0.9734292 0.8382631 1.0612571 0.8465808
000070 5f 43 60 3f 5d f1 6b 3f cc 47 59 3f 3b a8 5c 3f
       0.876028 0.92165166 0.8487518 0.861942
000080 f7 57 80 3f 12 2a 50 3f 0a 6c 86 3f d1 df 70 3f
       1.0026845 0.81314194 1.0501721 0.94091517
000090 f3 fe 53 3f d1 6e 87 3f c0 45 51 3f 82 c4 48 3f
       0.82810897 1.0580693 0.81747055 0.7842485
0000a0 2a 11 50 3f ca c7 61 3f 18 e3 52 3f 02 39 69 3f
       0.8127619 0.8819548 0.8237777 0.9110261
0000b0 28 fa 5c 3f 36 08 74 3f a5 47 76 3f 2f 8c 4d 3f
       0.8631921 0.9532503 0.9620307 0.8029203
0000c0 3d 96 63 3f 91 dc 5f 3f f8 59 78 3f 4b 6b 6e 3f
       0.8890112 0.8744593 0.9701228 0.93132466
0000d0 e0 30 4d 3f e5 4e 55 3f 59 3a 5d 3f 45 bb 62 3f
       0.801527 0.8332351 0.86417156 0.88567
0000e0 cc bb 8f 3f f4 a5 6e 3f 54 9e 78 3f 4b 03 74 3f
       1.1229186 0.93221974 0.9711659 0.95317525
0000f0 b2 81 50 3f 98 39 83 3f 19 3e 67 3f c7 68 8f 3f
       0.814479 1.0251951 0.9032913 1.120385
000100 2a d3 72 3f 1c 3f 52 3f fb 68 75 3f 2a 11 42 3f
       0.9485346 0.8212755 0.9586331 0.7580744
000110 94 c1 85 3f a5 eb 77 3f 18 77 71 3f 3d 66 6e 3f
       1.04497 0.9684394 0.9432235 0.93124753
000120 ed 69 76 3f ca ae 6a 3f 9c d1 58 3f 26 42 69 3f
       0.9625538 0.91672957 0.8469484 0.9111656
000130 5c c5 86 3f 16 8f 5d 3f 48 91 58 3f 4b bb 52 3f
       1.0528979 0.86546457 0.8459668 0.82317036
000140 75 73 86 3f c3 dd 62 3f 3e 3c 80 3f e8 8d 58 3f
       1.0503985 0.8861963 1.0018384 0.8459153
000150 f9 c6 64 3f fe 37 5d 3f e7 e5 56 3f 69 e2 72 3f
       0.8936611 0.8641356 0.83944553 0.94876724
000160 29 d5 56 3f 11 33 4b 3f 17 bd 85 3f 4e b1 5a 3f
       0.83919007 0.79374796 1.0448331 0.85426795
000170 31 ee 63 3f ce 4e 67 3f 4f 6b 6f 3f 0a ec 51 3f
       0.89035326 0.9035462 0.93523115 0.8200079
000180 b3 b1 75 3f c6 6e 82 3f 9c e5 59 3f fd ff 7a 3f
       0.9597427 1.0190055 0.8511598 0.9804686
000190 2b a0 62 3f 76 a9 5d 3f 7e 68 6e 3f ad 63 94 3f
       0.88525647 0.865867 0.9312819 1.1592919
0001a0 48 0c 5f 3f da 9d 4b 3f 08 18 69 3f f8 6e 80 3f
       0.87128115 0.7953774 0.91052294 1.0033865
0001b0 35 b3 88 3f 75 99 49 3f d3 63 80 3f da b8 51 3f
       1.067969 0.7874978 1.0030464 0.81922686
0001c0 38 91 5b 3f a2 a5 71 3f db 3e 4b 3f 4d 7a 8c 3f
       0.8576846 0.9439336 0.79392785 1.0974823
0001d0 a2 b0 87 3f 78 b7 78 3f 00 2d 68 3f 11 ad 89 3f
       1.0600779 0.9715495 0.90693665 1.0755941
0001e0 e4 ba 65 3f 82 29 6d 3f f9 27 5b 3f e4 bc 7f 3f
       0.897383 0.9264146 0.8560787 0.998976
0001f0 a4 d8 89 3f 0e 87 5c 3f 04 de 5d 3f 1c cf 69 3f
       1.0769238 0.8614358 0.86666894 0.9133165

norm1.bias f4 [128]
000000 c9 a9 68 bd 0a 00 71 bd e1 b2 e9 bd 1a 12 99 bd
       -0.056802545 -0.058837928 -0.114110716 -0.07474156
000010 2d 0c cc bd dd f0 11 3e 98 ae 4c 3d e2 a1 7c 3d
       -0.0996326 0.14252038 0.049971193 0.06167782
000020 c6 91 8c 3d 39 a2 8d 3d bb a9 92 3c 5c 09 8f bb
       0.068637416 0.06915707 0.0179032 -0.0043651294
000030 9b 9b 97 bd b5 19 b0 3d 56 20 77 3c 86 92 86 3d
       -0.07402726 0.08598653 0.015083393 0.06570916
000040 3e 3b ad 3d e5 fc 9e 3c bc 14 cd 3d e4 36 29 bd
       0.08458565 0.019407699 0.100137204 -0.041312113
000050 ad 45 69 bd 14 93 10 be 51 71 81 bc 54 30 5c bd
       -0.056951214 -0.14118606 -0.015801104 -0.053757027
000060 80 6d 06 3e c6 99 64 bd 66 1a 53 3d a8 72 41 bd
       0.13127708 -0.055810712 0.051538847 -0.047228485
000070 70 3a 4d bd 35 df c3 3c 7f c8 3f bd 6b f4 6e bd
       -0.05010456 0.023910144 -0.046822067 -0.058338564
000080 e9 4f c6 bb f1 8d b9 bd cc 6f 88 3d 3e d1 cd b9
       -0.0060520065 -0.09060276 0.066619486 -0.00039256545
000090 80 40 74 bd f6 1f 69 3d fc 7e aa bd ff 38 e6 bd
       -0.059631824 0.056915246 -0.083250016 -0.1124134
0000a0 da 59 90 bd 59 27 41 bc ac df 94 bd 0b c0 83 3c
       -0.07048388 -0.011789166 -0.072692245 0.016082784
0000b0 5c d8 0e bd 4a ab a1 3d 13 2c 8c 3d 2a 87 cc bd
       -0.034874305 0.07893999 0.06844344 -0.09986718
0000c0 5b 24 f3 bc 3d d7 4e bd 87 42 0c 3e 7f d8 8f 3b
       -0.029680422 -0.050498236 0.13697253 0.004389822
0000d0 55 fa b4 bd 0a c7 b1 bd 99 48 8e bd f2 6c 49 bc
       -0.088368095 -0.08680542 -0.06947441 -0.012294041
0000e0 6b 14 ba 3d 89 1d 58 3b 68 f0 ae 3d 62 e4 80 bb
       0.09085926 0.0032976589 0.085419476 -0.0039334754
0000f0 ed f0 b0 bd cd a4 e1 3d d4 19 01 bc 27 ae 98 3d
       -0.08639703 0.110177614 -0.007879693 0.07455092
000100 ee 70 99 bc 26 ed d5 bd dc b7 5b 3d 32 3a 07 be
       -0.018730607 -0.10445623 0.05364214 -0.13205793
000110 7f ad 13 3e 6f a5 3e 3b 34 e9 20 3d d0 d1 2e bd
       0.14421652 0.0029090305 0.0392849 -0.04268056
000120 ec 9d d6 3d 05 be 1a 3d 96 09 36 bd 7d ed 32 bc
       0.1047934 0.037778873 -0.044442736 -0.010920879
000130 82 62 ce 3d ea 09 40 bd 1a 04 9d bd f4 23 87 bd
       0.100773826 -0.046884455 -0.07666798 -0.065986544
000140 5a 10 f4 3d ce e7 0e bd 7c 36 1f 3d cc 82 c7 bd
       0.11917181 -0.034889035 0.03887032 -0.097417444
000150 8e e4 91 bd a0 bf 17 bd b5 75 aa bd c2 91 5d 3b
       -0.071236715 -0.037047982 -0.08323232 0.0033808802
000160 36 39 90 bd 0d e9 06 be dd c6 8f 3d 55 d3 94 bc
       -0.07042162 -0.1317484 0.07020352 -0.018167177
000170 c5 d0 93 bc 66 63 5c 3d 65 45 b6 3d 59 e1 b6 bd
       -0.018043885 0.05380573 0.08899955 -0.089297004
000180 e5 d5 af 3d 4e 20 fb 3d 57 71 38 3b d5 0e b4 3c
       0.08585719 0.12262021 0.0028143728 0.021979729
000190 5b 9d fd bc 39 59 a6 bd 4e 0b f6 38 a6 a7 34 3d
       -0.030958822 -0.081224866 0.000117323 0.044105195
0001a0 4d 6c f7 bb 24 ef b8 bd 5b 41 68 3c 06 f7 97 3d
       -0.0075507523 -0.090299875 0.014175738 0.07420163
0001b0 b6 f9 9a 3d 75 b6 e1 bd 8a 76 28 3e 15 08 d5 bd
       0.0756716 -0.11021129 0.16451469 -0.10401932
0001c0 98 8f 05 39 d9 41 9d 3c 5b cb cb bd 99 a6 eb 3c
       0.00012737361 0.019196438 -0.09950896 0.028765963
0001d0 1c 7e 94 3d 1f 3d c3 3d db b1 56 bd 10 b9 c6 3d
       0.07250616 0.09533142 -0.05241571 0.097032666
0001e0 4d 94 52 bd 5b 6b 52 bd 8a f6 59 bd 56 92 a1 3d
       -0.051410962 -0.051371913 -0.053213634 0.078892395
0001f0 da b2 66 3e d2 98 08 bd 58 04 89 bd de b1 35 bd
       0.22529164 -0.033348866 -0.06690282 -0.04435908

fc2.weight f4 [64, 128]
000000 ea f2 65 3d ed 1f 86 3d c8 30 7f bd c1 7b d0 3b
       0.056139864 0.06549058 -0.06230238 0.006362409
000010 c5 a1 41 bd ba cf 3c be e8 1d ab bd 65 30 e2 3d
       -0.047273416 -0.18438616 -0.083553135 0.11044387
000020 7f 8f 43 bc 60 9b 8b 3d f0 8b 51 3d 82 f3 b9 bc
       -0.011936068 0.06816745 0.051158845 -0.022699121
000030 4a 38 85 3d 7c d8 9c 3c 4b 9f 08 be 8f 45 a2 3c
       0.06504877 0.019146197 -0.13342015 0.019808559
000040 57 32 ae 3d a8 78 65 bb cf db 83 3c e8 95 bb 3c
       0.08505695 -0.0035014544 0.016096024 0.02289863
000050 ee 25 1a 3d 60 90 3c 3d d9 87 c0 3b 13 e7 07 bc
       0.03763383 0.046036124 0.0058755693 -0.0082948385
000060 d4 1f 80 bd df 09 d4 3c 19 4e 88 bd 50 37 6c 3c
       -0.06256071 0.025883613 -0.06655521 0.014417484
000070 0a 65 c8 3d 40 45 dd 3d 8f 0c d6 3d dc f4 59 bd
       0.09784897 0.10804224 0.10451614 -0.05321203
000080 e8 14 0b 3e 62 32 05 3d b3 34 9e bd 11 2b 13 bd
       0.13582194 0.032518752 -0.07724895 -0.035929743
000090 a7 0b 73 3d e6 ed 06 3d 03 ba 96 3c 1c 22 60 bd
       0.059337284 0.03294172 0.018399244 -0.05472003
0000a0 8d 01 60 bd 08 fe 98 ba 6d 77 40 3d 18 81 93 3c
       -0.05468898 -0.0011672387 0.046988893 0.018005893
0000b0 59 82 be 3c 18 07 14 3d 36 e4 c9 bd dd 84 8d 3d
       0.023255514 0.036139578 -0.09857981 0.06910107
0000c0 4d 09 28 bb b5 4a 14 3d 7e e8 cb 3c d5 89 89 3d
       -0.002564031 0.03620406 0.024891134 0.067157425
0000d0 ec 6e dc 3c cd 0e 24 3d 71 31 ec bc 0a 0d 10 bc
       0.02690836 0.040053178 -0.02883217 -0.008792171
0000e0 b9 6d 15 be 8e 06 c0 3c e0 a6 e6 3d cc 5a 7c 3d
       -0.14592637 0.023440626 0.11262298 0.06161003
0000f0 a7 df cb bc 61 54 68 bd 55 00 d0 3d d6 b5 31 be
       -0.02488692 -0.056721095 0.10156313 -0.17354521
000100 80 07 bd bd b7 72 39 3d 0f 78 b0 3c 1f 5c 59 3d
       -0.09229946 0.045275416 0.021541623 0.05306637
000110 e4 09 96 3c 7f 96 02 bc 15 0e 13 3d 9a 78 ce 3d
       0.018315263 -0.007970451 0.0359021 0.10081597
000120 81 2a 59 3d 4a cb bc 3d ae b2 fd 3c 4f dd 93 bd
       0.05301905 0.09218462 0.03096899 -0.07219946
000130 7f eb 26 3e 5a ea ab 3d f6 9b db 3c 05 a5 eb bc
       0.16300772 0.083943084 0.026807766 -0.02876521
000140 9f 28 22 3d 1e 6f a7 3d a4 c7 8f 3d 41 c8 84 bc
       0.03958952 0.08175491 0.070205 -0.01620877
000150 2c 84 9c 3c a4 60 e9 bc 5b 96 ac 3a 02 b7 32 bd
       0.019105993 -0.028488465 0.0013167368 -0.04363156
000160 06 81 46 3d 61 3c 1d 3d 99 23 a4 bd ad f1 ac bc
       0.04846289 0.03838766 -0.08014602 -0.021111334
000170 a3 9b 14 3d e4 9f 21 bd 06 da b5 3c 04 b7 94 3d
       0.03628124 -0.039459124 0.022198688 0.0726147
000180 5d 7e 83 3c 4e 8e bd 3d 44 1d 2c 3d ff c8 f8 bb
       0.016051466 0.09255658 0.042020097 -0.00759232
000190 ab 3a 61 bd 16 d2 6f 3d 70 03 52 bd 42 54 27 3e
       -0.05498759 0.058549963 -0.05127281 0.16340736
0001a0 4d 54 0d 3d 20 54 2a 3c dd 5b 15 bd cf b9 99 bc
       0.034504224 0.0103960335 -0.03646456 -0.018765358
0001b0 4c ae 2a bd 81 2d 30 3d 6f ac 7c 3d 33 e0 8e bd
       -0.04167013 0.043012146 0.061687883 -0.06976356
0001c0 e2 1e 58 bd fe 88 33 3d cb c4 3f 3d 98 ae d6 bc
       -0.052763827 0.043831818 0.046818536 -0.0262063
0001d0 a6 81 c8 ba 36 b1 6a 3d 56 90 45 3d 11 b3 e4 bd
       -0.0015297427 0.057297908 0.048233353 -0.11166967
0001e0 fc 79 bf bc 99 71 88 3d 6d 5e 76 3c 85 8e bb bd
       -0.023373596 0.06662292 0.015037161 -0.09158043
0001f0 ae 46 6a 3d 22 22 2a bd b9 4f 8b 3c 72 8e 32 3d
       0.05719631 -0.041536458 0.017005788 0.043592878
000200 48 5f 8c bc 67 34 9f 3d fa 9d 26 3d 54 b6 9f bd
       -0.017135277 0.07773667 0.040678002 -0.07798448
000210 8f 46 a0 bb 5a 7f 10 bd 8b 47 89 3c 6c fe 14 bc
       -0.0048912237 -0.035277702 0.016757747 -0.009093862
000220 f0 f9 e1 bc 76 12 b4 bc a3 33 ba bb bb 61 a5 3d
       -0.027585 -0.02198146 -0.005682425 0.08075281
000230 53 16 b3 3d 25 93 e5 bc c1 18 84 bc 38 a2 a2 bd
       0.087444924 -0.028024266 -0.016125085 -0.07941097
000240 f5 be 25 bd ce 87 84 bc 42 f4 a4 bd 68 6d 9a 3c
       -0.040465314 -0.016178038 -0.08054401 0.018850997
000250 93 47 ac 3a 6a 22 83 3d 4a 9b 9b ba 7b 4f 8a 3d
       0.0013143889 0.06403048 -0.0011871841 0.06753441
000260 00 4e 9d bc be 85 42 3d 16 56 e7 bb bf 8c 43 3d
       -0.019202232 0.047490828 -0.007059823 0.047741648
000270 71 6c 06 3d f1 0c 30 bd be dc 97 3d eb 25 00 3d
       0.03281826 -0.042981092 0.0741515 0.03128616
000280 75 aa 85 3d b7 b5 1f bd 6f 52 30 bd 31 ad c4 3b
       0.06526653 -0.038991656 -0.043047365 0.0060020913
000290 52 f8 cb 3c 77 d2 9a bd ad 37 3b 3d 33 15 8e bd
       0.024898682 -0.07559674 0.045707393 -0.06937637
0002a0 bf 47 d0 3d 84 f4 bb bd f4 1b 29 3c 92 ed c4 bc
       0.101699345 -0.09177497 0.010321606 -0.024039064
0002b0 f7 c5 7f 3d 5e 27 c8 3c 24 9b 1f 3d 79 32 08 3d
       0.062444653 0.024432834 0.038966313 0.03325126
0002c0 1b a2 0d 3d db 03 f3 3a e1 75 a6 bd 70 ea 57 3d
       0.034578424 0.0018540578 -0.08127952 0.05271381
0002d0 57 b5 42 3d 1b 5b 8e 3a 45 92 20 3c fc 0d 17 bd
       0.04753622 0.0010860892 0.009800498 -0.03687857
0002e0 b2 52 b9 3b 9a 25 4c 3d 40 37 8c 3d da ff 05 3e
       0.00565561 0.049840547 0.068464756 0.13085881
0002f0 01 6e 88 bc 93 18 ec 3b e4 9a 1f 3c f7 6b 99 3d
       -0.016654016 0.007205078 0.009741519 0.07491296
000300 32 50 83 bc a2 a3 11 bd 97 db 7b 3d 34 45 a1 bd
       -0.016029451 -0.035556443 0.061488714 -0.078745276
000310 33 d8 16 bd fb 39 51 3c 8b e7 14 bd 14 0f 55 bc
       -0.036827277 0.012770171 -0.03635363 -0.013004083
000320 b9 2e 8f bc ea fc 0d bc 5d 5b be bd 6b 6d 2f 3c
       -0.017478334 -0.008666256 -0.0929477 0.01070724
000330 3b 8e 84 3d 84 dd b8 bc 76 cb 1e bd 4b 51 07 3d
       0.06472441 -0.022566564 -0.038768254 0.03303651
000340 4f 6b e1 bc fb 6c 3e 3d ce 07 20 3c 6b c2 08 3c
       -0.027516989 0.04649065 0.009767486 0.008347134
000350 fe 77 66 bd 78 c7 3f 3b 3a 4a 3e 3d ae ab ae 3c
       -0.056266777 0.002926318 0.046457507 0.021322098
000360 9b ca 8f bb d9 a7 6d bd 94 45 27 bd ed 4e 2e bd
       -0.004388166 -0.0580214 -0.04083784 -0.04255574
000370 95 93 64 3d 56 38 e3 3d 81 39 ac 3d 94 d7 19 bd
       0.055804808 0.110947296 0.084094055 -0.037559107
000380 9b e8 ca 3c a6 95 87 3d bc c5 e7 3c dc 3f 37 bd
       0.024769118 0.0662034 0.02829253 -0.044738635
000390 53 32 b6 bc ba b2 6c bd fb c2 0b 3d e8 9c a2 3d
       -0.022240793 -0.057787634 0.034121495 0.07940084
0003a0 f9 40 6f 3d df 77 8c 3d d2 44 d7 3c 99 8e e7 bc
       0.058411572 0.06858801 0.026277933 -0.028266238
0003b0 f1 5f ad bc 15 d8 22 3c 17 fa ab bd ec f4 c1 3c
       -0.021163912 0.009939213 -0.0839731 0.023676358
0003c0 f7 c3 c9 3d 40 44 1f bd 5f 6d f6 bc 8e 45 b5 bc
       0.098518305 -0.038883448 -0.03008145 -0.022127893
0003d0 88 40 71 3d c9 32 01 3e 71 fd b4 3d 4a 0b dd 3c
       0.058899432 0.12617029 0.088374026 0.026982922
0003e0 11 9e 49 bb 64 34 06 bc dc f7 a8 3d 66 24 0e 3e
       -0.003076438 -0.008191202 0.082504004 0.13881072
0003f0 b9 82 16 3c 9f 3d 6b 3d 60 5f b7 bd 85 ed 83 3c
       0.00918644 0.057431813 -0.08953738 0.01610447

fc2.bias f4 [64]
000000 23 80 15 3d 13 d7 b7 bc 0e 74 52 3d 74 ea c1 3d
       0.036499154 -0.022441423 0.05138021 0.094685465
000010 3b b9 f1 bc 9e 64 f7 3b 2c 23 84 3d f2 9f d6 3c
       -0.02950727 0.0075498363 0.06452021 0.026199315
000020 b0 2f 7f 3d d4 45 43 bc 8e 58 7f 3d d8 7f 0f bd
       0.062301338 -0.011918504 0.06234031 -0.03503403
000030 db 16 ac 3b 31 5f 99 3d 26 ad a0 3d c4 12 11 3d
       0.005251748 0.074888594 0.078455254 0.035418287
000040 0f d4 45 3d 0e 6e 42 3d 86 a6 91 3d 83 3a d5 bb
       0.048297938 0.047468238 0.0711184 -0.0065072193
000050 61 1b f0 3b 9e 5e 2a bd cb 53 bc 3d 69 26 97 3b
       0.0073274826 -0.04159414 0.0919567 0.004612733
000060 c3 b5 14 bd 84 61 c1 b9 80 26 5c 3c 3b 75 21 3d
       -0.036306154 -0.00036884483 0.0134369135 0.03941844
000070 c3 d5 52 3d fa 14 c5 3b 00 23 0c bd 2f c1 03 3c
       0.05147339 0.0060144635 -0.034213066 0.008041664
000080 7f 0a 69 bd ff 4b 9b bc 51 0e f5 ba 46 70 c3 3d
       -0.056894775 -0.018957136 -0.0018696283 0.09542899
000090 a2 fd 6f 3d 8a b3 4f 3d e0 50 85 bd f3 be 7e 3c
       0.058591492 0.05070833 -0.06509566 0.0155484555
0000a0 e1 60 ea 3d 76 1a 00 3d 80 bc 8d 3c 81 ed ab bd
       0.114442594 0.031275235 0.017301798 -0.0839491
0000b0 82 9b 83 3c c1 9b 1c 3d 94 6d d2 3c 9e 79 3d 3d
       0.016065363 0.038234476 0.025687017 0.04625856
0000c0 97 33 00 3d b8 de c5 3d d1 5f 42 bd fe b2 33 bc
       0.0312992 0.09661621 -0.04745466 -0.010967968
0000d0 6a d3 fe 3b b0 3e 7b 3d 00 b4 81 3c 5e 7c a8 3c
       0.0077766674 0.06133908 0.015832901 0.020567115
0000e0 4c e2 63 bd ea 8f 16 bb bc c7 ae 3c 1f 3c c5 bc
       -0.055635735 -0.0022973963 0.021335475 -0.02407652
0000f0 2a 4f e3 bc e2 f7 3e 3d 8c 1c 35 3d ef b7 9f 3d
       -0.02774771 0.04662312 0.044216678 0.077987544

norm2.weight f4 [64]
000000 9e 15 69 3f cb 65 54 3f 21 65 74 3f 3e f1 72 3f
       0.9104861 0.82967824 0.9546681 0.94899356
000010 b0 d4 5f 3f f7 3a 52 3f f5 16 6b 3f 92 b9 52 3f
       0.8743391 0.82121223 0.91831905 0.8231441
000020 e2 62 67 3f 18 71 78 3f c5 dd 5b 3f 5e b8 6f 3f
       0.9038526 0.9704757 0.8588527 0.93640697
000030 9c ea 63 3f 05 2e 4e 3f ba a8 63 3f 26 25 71 3f
       0.8902986 0.8053897 0.8892933 0.9419731
000040 ca a5 6f 3f da 19 7a 3f be 02 61 3f cb a1 69 3f
       0.9361235 0.97695696 0.8789481 0.912625
000050 d3 66 67 3f c9 b7 6a 3f 79 09 74 3f 58 f0 6f 3f
       0.9039127 0.91686684 0.95326954 0.9372611
000060 93 b6 6b 3f e5 46 58 3f cd 4c 64 3f 24 41 57 3f
       0.9207546 0.84483176 0.8917969 0.8408377
000070 12 3a 5b 3f 62 17 5f 3f 0c e7 83 3f 42 2f 4f 3f
       0.85635483 0.87145054 1.0304885 0.80931485
000080 62 35 59 3f 6f f0 6d 3f 95 09 4f 3f 01 03 80 3f
       0.8484708 0.92945 0.80873996 1.0000917
000090 f5 cd 71 3f 96 bf 69 3f 30 0b 67 3f e2 fb 6c 3f
       0.9445489 0.9130796 0.90251446 0.9257184
0000a0 2a 0b 67 3f 26 15 7a 3f 1a e0 72 3f a0 5f 69 3f
       0.9025141 0.9768852 0.948732 0.9116154
0000b0 68 ca 5c 3f 44 e3 5e 3f de a9 7c 3f 49 7f 66 3f
       0.8624635 0.8706553 0.98696697 0.9003797
0000c0 56 96 58 3f 11 65 90 3f b0 5b 5d 3f 42 ed 73 3f
       0.84604394 1.1280843 0.8646803 0.952839
0000d0 77 b3 5c 3f e7 a8 5f 3f a6 65 59 3f 02 b9 68 3f
       0.8621134 0.873671 0.8492073 0.909073
0000e0 27 82 67 3f 70 8f 69 3f 9e 1e 61 3f 27 b8 5c 3f
       0.9043297 0.91234493 0.87937343 0.86218494
0000f0 b9 c0 59 3f 54 a0 69 3f 81 ec 56 3f 4e 63 70 3f
       0.85059696 0.91260266 0.83954626 0.93901527

norm2.bias f4 [64]
000000 7a 06 10 3c 09 ac 89 bd 72 32 be 3c 90 12 98 3c
       0.008790607 -0.06722266 0.023217414 0.018563539
000010 ca 65 e1 bb 55 a6 ef bc 55 70 48 3d 59 45 0a bd
       -0.0068785893 -0.029254118 0.048935253 -0.03375754
000020 b8 df 0f 3d 3b 71 62 3d ee 35 96 bb 87 c6 eb 3c
       0.035125464 0.055283766 -0.0045840656 0.028781189
000030 ea 7b 47 3b 84 f7 92 bd 8a 9d de 3b c1 fa 3b 3d
       0.0030438849 -0.07176116 0.0067936825 0.045893434
000040 e7 a4 9e 3c c6 05 1a 3d 6f 7a 96 bc 4a 83 2b 3d
       0.019365741 0.037603162 -0.018368928 0.041873254
000050 09 32 8c bb e7 4d aa 3c 03 a1 47 3d 5d a1 2f 3d
       -0.0042784256 0.0207891 0.048737537 0.042878497
000060 93 f6 e4 3b 87 69 2d bd 0e d6 04 3c ce 42 75 bd
       0.0069874017 -0.042336967 0.008107675 -0.059878163
000070 55 00 80 bc bf 41 b0 bb 07 a0 10 3d 69 01 94 bd
       -0.015625158 -0.0053789313 0.035308864 -0.072268315
000080 26 f1 80 bd 44 2d 81 bb 16 fc 8b bd 06 e1 b7 3d
       -0.062959954 -0.0039421637 -0.06835191 0.08978467
000090 3b 16 2b 3d 3e 5d 38 3c 53 2b 8f 3c 5f be 2d bc
       0.041769248 0.011252699 0.017476713 -0.01060447
0000a0 4d 7c 8e 3c 19 cf 3a 3d 5b 14 4f 3c 56 a3 6c 3c
       0.017393256 0.04560766 0.0126391305 0.014443239
0000b0 38 bd 17 bd bc f5 81 3c e6 3d 5a 3d 94 15 2a 3d
       -0.037045687 0.015864246 0.053281687 0.041524485
0000c0 1f d7 35 bd b4 4a 0c 3d 01 53 11 bd 55 19 dd 3c
       -0.04439461 0.03425093 -0.03547955 0.026989618
0000d0 f9 c0 e4 bc bd 18 a2 bc 0a 9d 62 bd 06 6f d9 3c
       -0.027924048 -0.019787187 -0.055325545 0.026542198
0000e0 47 dc e2 3c c4 ee 12 3d d9 4c ad bb ef 4d a8 bc
       0.027692927 0.035872236 -0.005288702 -0.020544974
0000f0 09 1b 81 bc 0f 03 07 3d da dc 78 bd d7 d6 ec 3c
       -0.015759962 0.0329619 -0.060757495 0.028911037

fc3.weight f4 [32, 64]
000000 b8 f7 14 bd d8 b5 f9 bc 1c 82 5e bd 87 04 b6 bd
       -0.036369056 -0.030482218 -0.0543233 -0.08887582
000010 f7 3d 0d be 1c 10 bf bd 80 29 03 be 98 91 b5 bd
       -0.13793169 -0.093292445 -0.128088 -0.088656604
000020 86 cb a8 bd 22 83 80 3d 4f 69 b2 bd fe c9 2c 3a
       -0.08241944 0.062750116 -0.08711492 0.00065913785
000030 52 c3 44 bd 90 5a ea bc 06 e9 61 3d 1b dd 18 bc
       -0.048037834 -0.028607637 0.05515387 -0.009330059
000040 81 0a 9a 3d be ec 04 be bb c0 9c bd 17 1a 74 bd
       0.07521535 -0.12980935 -0.07653948 -0.059595194
000050 c3 27 d7 bd 1e 04 b2 bc 21 d0 0b be 90 a0 1b be
       -0.10505631 -0.021730479 -0.13653614 -0.15197968
000060 8e 86 bb bb 49 08 db bd 8a 5b cc 3c a1 4e e2 bc
       -0.0057228273 -0.1069494 0.024945993 -0.027625384
000070 43 f9 d3 bd 35 5f b1 3c fa 2d 2d be df cb 4d 3c
       -0.10350277 0.021651844 -0.1691207 0.012560814
000080 b1 39 fc bd 77 2a 47 bd 8c ab d6 bc 25 1b 14 be
       -0.12315691 -0.048624482 -0.026204847 -0.1446348
000090 2f 0c 9d 3d 3c 65 57 bd e1 4a 4d bb 7a b1 01 be
       0.076683395 -0.05258678 -0.003132515 -0.12665358
0000a0 a7 7b e0 bd 90 06 ba bd 6e da 05 be c0 99 cc 3c
       -0.10961085 -0.09083283 -0.13071606 0.024975657
0000b0 89 e9 81 bd 30 04 9b bd 02 ae 91 3d 79 a0 ef bc
       -0.063433714 -0.07569158 0.071132675 -0.029251324
0000c0 79 f0 dc bd b1 03 d1 3c 58 52 16 3e d9 42 83 3d
       -0.10788054 0.025514456 0.14679849 0.064092346
0000d0 92 29 c5 bd fa f3 c6 3c 4a d1 4d bb 73 a3 c8 3c
       -0.096270695 0.024286259 -0.0031405264 0.024492001
0000e0 d0 28 7e bc b9 a4 0d be 57 3f 4f bd ca b0 af bd
       -0.01551266 -0.13832368 -0.050597515 -0.08578642
0000f0 2e c6 3b bd 11 dd 49 bd 7e bb 01 be 81 5d 3f bd
       -0.045843296 -0.04928309 -0.12669179 -0.04672003
000100 06 73 ae bc 3b af 3c bc ff 32 a2 bd 15 04 a5 bd
       -0.021295082 -0.011516388 -0.07919883 -0.08057419
000110 fb 22 37 be 10 c5 55 bd c4 a1 33 be 9a 75 ed bd
       -0.17884438 -0.052189887 -0.17542177 -0.11594696
000120 f6 21 74 bc 31 af a9 bd db 4c 59 3c 5c 33 e0 bc
       -0.014900675 -0.08285368 0.013262953 -0.02736824
000130 51 21 b2 3c e9 a7 50 bd 97 b2 f0 3b 9b ee 1f bd
       0.021744402 -0.05094138 0.0073455083 -0.03904591
000140 79 f1 82 bd 64 f5 0c be 26 0f 8c 3c 5f fc fb bd
       -0.063937135 -0.13765484 0.017097067 -0.12303995
000150 d7 49 ca bd 76 3a d4 bd 03 ee e8 bd a4 4b 05 be
       -0.09877365 -0.10362713 -0.11373522 -0.13017136
000160 7b 59 ab 3c 16 9b 51 bc 21 ce 39 3b a1 bd 0b 3d
       0.020916691 -0.012793323 0.0028351622 0.03411639
000170 47 65 0d be 8e df 6e 3d 94 0a 1f be a3 f6 b5 bd
       -0.13808165 0.058318667 -0.15531379 -0.08884933
000180 a6 de f4 bd 73 da 3b bd a4 0a 66 bd cd 20 5d be
       -0.11956529 -0.045862626 -0.05616249 -0.21594544
000190 80 6f 5c bd 9b bf ab bd 6c cb 04 be 00 c1 da bd
       -0.053817272 -0.08386155 -0.12968224 -0.10681343
0001a0 23 d3 f7 bd 04 41 3c be 14 bb 8e bd 52 d5 a9 bd
       -0.12100818 -0.18384176 -0.06969276 -0.08292641
0001b0 0e b5 81 bd 80 74 c0 bd d7 1f bb bd 40 79 be bd
       -0.063333616 -0.093972206 -0.09136932 -0.0930047
0001c0 88 c2 98 3d a1 99 2e be d9 45 8e bd 68 76 3d bd
       0.07458979 -0.17050792 -0.06946916 -0.0462555
0001d0 6b 5b 0a be 95 1b 00 bd a0 83 4d 3d f5 40 e3 bd
       -0.13511436 -0.031276304 0.050174356 -0.11096374
0001e0 92 2b 9d bd 0c 5a 0f be c5 91 f8 bc f2 80 fd bd
       -0.07674326 -0.13999194 -0.030342946 -0.1237811
0001f0 d1 43 36 bd ef db 9c bd d3 ac d0 3d c5 d2 4f bd
       -0.04449827 -0.076591365 0.101892136 -0.050738115
000200 0a 00 14 bc 20 25 25 bd 16 7a 9a bd af 37 b8 bd
       -0.009033212 -0.04031861 -0.07542817 -0.08994996
000210 d3 02 17 be 4c a7 b6 bd cc f5 24 be d0 ac 84 bd
       -0.14747171 -0.08918628 -0.16109389 -0.06478274
000220 1f c0 13 3d cd a5 9f bd 57 c2 ad bc 0d e4 e4 bc
       0.036071893 -0.07795296 -0.021210833 -0.027940774
000230 f5 0c c4 bd 36 d7 81 3c 14 27 8f 3d 83 73 97 bd
       -0.09572784 0.01584969 0.069898754 -0.07395079
000240 c4 47 68 bd 8d 9c 0f be b0 0f ca 3c 27 e2 eb bd
       -0.056709066 -0.14024563 0.024665684 -0.115177445
000250 f3 17 c5 bd ee ca c3 bd d7 92 dc bd 2b d1 f2 bd
       -0.096237086 -0.0956019 -0.10770195 -0.11856302
000260 c6 81 fd 3c 17 e8 24 3b 92 a8 12 bd d2 d4 24 3c
       0.03094567 0.002516275 -0.035805292 0.010060506
000270 fe 46 b8 bd bb bd 6e bd dd ae 21 be e8 d5 dc bd
       -0.08997916 -0.05828641 -0.15789361 -0.10782987
000280 e3 47 bc bd bd b3 35 bd f2 6e f4 bd 46 27 54 be
       -0.09193399 -0.044360865 -0.11935224 -0.20718107
000290 de 2f 54 bd 83 dc e5 bd a9 0b d9 bd 81 f4 cf bd
       -0.051803462 -0.112237 -0.10597927 -0.10154057
0002a0 5e 25 06 be 54 af 3e be 28 db 75 bd c2 c3 e2 bd
       -0.13100192 -0.1862157 -0.060023457 -0.11072494
0002b0 33 d4 e7 bc 2b d3 de bd 75 ae a2 bd 38 ec 85 bd
       -0.028299427 -0.10880121 -0.07943431 -0.06539196
0002c0 b5 4f 83 3c 41 3d 2f be f6 a5 b0 bd 7d 65 58 bd
       0.016029218 -0.1711321 -0.086254045 -0.05283116
0002d0 03 2a 9c bd b4 91 b8 3d 7c 5d 92 3d 96 a2 63 bd
       -0.076252006 0.09012166 0.07146737 -0.055574976
0002e0 84 ac ac bd d7 a1 11 be c5 c7 a9 bc a6 35 4b bd
       -0.08431342 -0.14221893 -0.02072514 -0.04961171
0002f0 70 6f 25 bd 48 53 a4 bd 14 b7 85 3d 42 05 7c bd
       -0.04038948 -0.08023697 0.0652906 -0.06152845
000300 43 bd 48 bd e4 d3 9a bd 81 51 34 3d 7f b9 bc 3d
       -0.04900862 -0.07559946 0.04402304 0.09215068
000310 3b 00 a0 bd 00 95 3b bd 3a 74 16 be 63 d3 24 bb
       -0.07812544 -0.045796394 -0.14692774 -0.002515041
000320 99 02 a0 3d c0 8b c8 bd 92 6a 02 3c 5e df c4 bd
       0.078129955 -0.0979228 0.007959979 -0.096129164
000330 0f 9f 49 bd e6 62 1d bd 65 18 31 be 1a 64 cb bd
       -0.049223956 -0.038424395 -0.17294462 -0.09931202
000340 6e 28 4c bd 4a ea 1e bc f5 a3 b6 3c 56 f5 81 bc
       -0.049843244 -0.009699414 0.022294978 -0.015864056
000350 06 17 bd bc e8 86 05 be e8 d1 17 3d d3 92 20 3c
       -0.023082267 -0.13039744 0.037065417 0.009800631
000360 5c f1 c7 bc 94 47 05 3d 9b bd c8 bd 4d 5c 30 bc
       -0.024407081 0.032538965 -0.098017894 -0.010764194
000370 18 be 65 bd a7 2b c5 3c 57 17 37 bc e0 67 95 bd
       -0.05608949 0.024068667 -0.011174998 -0.07295203
000380 51 2c f2 bd 09 ac 15 bc 2a 0e 17 be 6b cb 62 be
       -0.11824859 -0.009135255 -0.14751497 -0.2214791
000390 b4 c8 2a be ae f6 6a 3d 0d 05 d7 bd b5 c8 90 3c
       -0.16678125 0.05736416 -0.1049901 0.01767383
0003a0 cb d0 44 bd ce e8 26 be 5e f5 10 3d 9a 0b 06 be
       -0.048050683 -0.16299745 0.03539025 -0.13090363
0003b0 b9 4b 26 be 3b 76 00 3d 50 95 b5 bd d0 24 19 bc
       -0.16239823 0.031362753 -0.0886637 -0.009347156
0003c0 85 0b 69 bd 55 e4 27 be 8d a2 be bc 9a e4 af bd
       -0.05689575 -0.16395696 -0.02327087 -0.08588524
0003d0 f8 2a fa bd 43 3d 78 3d 5c 38 17 bd 7a 85 c5 bd
       -0.12215227 0.0606053 -0.036918983 -0.09644599
0003e0 0c 4b 09 be de 00 65 bb 87 57 32 bd 4a 1d 1c 3d
       -0.13407534 -0.0034943144 -0.043540504 0.03811387
0003f0 c5 4d d4 bd c9 d1 f6 bd b2 93 0d 3d ad b6 04 be
       -0.10366396 -0.12051732 0.03456468 -0.1296031

fc3.bias f4 [32]
000000 a5 e1 36 bd 5b 13 f7 bd c6 af 27 be 92 a9 0d 3d
       -0.044648785 -0.12064239 -0.16375646 0.034585543
000010 03 6a 84 3d 54 fa 10 be ed 13 72 bd 21 3c 2e 3d
       0.06465533 -0.14157993 -0.059101034 0.042537812
000020 69 17 68 3c e5 42 e9 bc e8 be 33 bc 8f bc af bd
       0.014165738 -0.02847428 -0.010970809 -0.085808866
000030 62 5d ea bc 9e e7 6b 3c 88 ba bb bd f5 73 e3 bd
       -0.028608982 0.014398484 -0.091664374 -0.111061014
000040 41 5c d6 bd c2 ff 8c bd 0e 2a bb bd 15 f9 05 bd
       -0.10466815 -0.068847194 -0.09138881 -0.032708246
000050 d3 71 85 bc ed c2 ec bd 89 bf 13 bd 6b da 1d 3c
       -0.016289627 -0.11560617 -0.036071334 0.009634594
000060 b6 6f ac 3d c1 1c 2f be da 24 c5 bc 65 df ed bd
       0.08419745 -0.17100812 -0.024065424 -0.11614875
000070 b5 70 cd bd f5 b3 47 bd 9c 6d 76 bd 53 86 a4 bd
       -0.10031263 -0.048755605 -0.060163125 -0.08033433

norm3.weight f4 [32]
000000 ba fd e3 3f ea ed 69 3f ff 6c 5e 3f 62 6a e4 3f
       1.7811806 0.91378653 0.86885065 1.7844965
000010 5f 4c ee 3f 9a ce 62 3f 42 9f 66 3f f9 09 e1 3f
       1.8617057 0.885965 0.9008676 1.7581168
000020 ca a9 cc 3f 70 2a e3 3f c9 53 d7 3f ce 68 f2 3f
       1.5989316 1.7747326 1.6822444 1.8938234
000030 da 10 64 3f be 69 d4 3f fd 5a f3 3f 30 e8 dd 3f
       0.89088213 1.659477 1.9012142 1.7336483
000040 aa 65 db 3f ec 57 dc 3f 8a d8 64 3f a8 8e 66 3f
       1.71404 1.7214332 0.8939291 0.90061426
000050 62 58 6b 3f 43 67 65 3f 54 2c df 3f 02 d5 fb 3f
       0.91931736 0.8961069 1.7435403 1.967438
000060 4a 8a 65 3f 2a 86 65 3f 1e ca cd 3f a6 9f f2 3f
       0.8966414 0.89657843 1.6077306 1.8954971
000070 3f 73 02 40 01 7e de 3f bd 5c 65 3f 15 cd f2 3f
       2.038284 1.7382203 0.8959463 1.8968836

norm3.bias f4 [32]
000000 91 f1 1f 3f df 9e f4 3c 18 73 19 bd 61 04 1a 3f
       0.62477976 0.029860912 -0.037463278 0.6016293
000010 8c c8 27 3f 9e 60 b7 3c 70 36 f8 3b aa 7c 0b 3f
       0.65540385 0.022384938 0.007574849 0.544871
000020 dd 01 40 3f a5 0c 24 3f e6 57 25 3f fb 16 34 3f
       0.75002843 0.64081794 0.6458725 0.70347565
000030 b5 66 ab bb 80 9c 0a 3f d4 b9 20 3f 0f 2a 1c 3f
       -0.0052307495 0.5414505 0.6278355 0.61001676
000040 30 7b 29 3f a8 31 fe 3e c0 a0 e1 39 dd ea cb 3b
       0.66203594 0.4964726 0.00043035112 0.0062230662
000050 23 8c d0 3d f7 73 72 bb bf c6 25 3f 8a e4 17 3f
       0.10182979 -0.003699539 0.6475639 0.593331
000060 9d 4f 3a 3d 27 98 a5 3a 5e c0 01 3f ef df 11 3f
       0.04548608 0.0012633846 0.50684154 0.5698232
000070 c3 4b 2f 3f ae f9 d7 3e 83 b4 85 3b 36 ef 2c 3f
       0.6847498 0.42182678 0.0040803566 0.67552507

fc4.weight f4 [1, 32]
000000 d6 14 5b 3f b9 be 80 3d e8 50 b8 3c 5d 65 59 bf
       0.8557867 0.062863775 0.022499517 -0.84920293
000010 c2 43 63 bf 82 7d f4 bc c1 e4 35 3d 66 87 58 bf
       -0.88775265 -0.029845003 0.04440761 -0.845816
000020 0d bb 2d bf d9 16 67 3f 68 93 44 3f 23 59 78 bf
       -0.6786354 0.9026924 0.76787424 -0.9701101
000030 da b6 65 3c 12 f9 39 bf 98 39 6e 3f 6f 0b 6d 3f
       0.014020646 -0.72645676 0.9305663 0.9259557
000040 93 4e 50 3f 55 76 64 bf 4f 33 21 bc 8f a0 05 bc
       0.81369895 -0.8924306 -0.009838893 -0.008155956
000050 e5 9c 2a 3e a5 dc ae 3c 0a 43 61 3f ff fe 62 bf
       0.16661413 0.021345446 0.8799292 -0.88670343
000060 16 cd 44 bd 74 3a 8e 3c a3 37 4f 3f d6 69 5c bf
       -0.048047148 0.017361857 0.8094427 -0.8609899
000070 fd 32 96 3f cc 08 60 3f 3a 59 57 bc b8 7b 71 bf
       1.173431 0.8751342 -0.013143832 -0.94329405
