models/odd_even_model.pth (torch, 23438 bytes, 19 tensors)

fc1.weight f4 [64, 14]
0	0xbc94c30b	-0.01815941
1	0x3f644f62	0.8918363
2	0x3f5c6fd4	0.86108136
3	0x3f66769e	0.90024745
4	0x3ffa09a4	1.9534192
5	0xbd9b2de7	-0.075771146
6	0xbd6d6255	-0.057955105
7	0x3d78f791	0.060782973
8	0xbd483e22	-0.04888738
9	0x3d0123c6	0.031528257
10	0x3fa12bf1	1.2591535
11	0xc00041d1	-2.004017
12	0xbd0c5217	-0.034257974
13	0x3ca3098d	0.019902015
14	0xbec6f46e	-0.3885836
15	0xbda35f59	-0.079771705
16	0xbfb0777e	-1.3786466
17	0x3f41db2c	0.75725055
18	0xbed5d964	-0.41767418
19	0xbeb3db91	-0.35128453
20	0x3b702bbf	0.0036647168
21	0xbe1faef7	-0.15594088
22	0x3f46ca9f	0.77652925
23	0xbf9ee6e5	-1.2414213
24	0xbf4d5c30	-0.8021879
25	0xbfc72b8f	-1.5560168
26	0xbe010b55	-0.12601979
27	0xbeed9429	-0.464021
28	0xbeae57e3	-0.34051427
29	0x3f207df6	0.626922
30	0xbf52aff5	-0.8229974
31	0xbe649d5a	-0.2232565
32	0xbe9272b7	-0.28603145
33	0x3ebe7e62	0.37205797
34	0x3f3afd9c	0.7304323
35	0x3f31322e	0.69217193
36	0x3f8ffe0d	1.1249405
37	0xbef34e3e	-0.47520632
38	0xbd5ae5a1	-0.053441647
39	0xbf9b9a23	-1.2156414
40	0x3e27d08b	0.16388147
41	0x3f440067	0.76563114
42	0x3da8d55a	0.082438186
43	0xbf6db14f	-0.92848676
44	0xbf59ac95	-0.85028964
45	0xbf63812d	-0.8886898
46	0xbff41921	-1.9070169
47	0xbd4f9aa0	-0.05068457
48	0xbdadf1a9	-0.08493359
49	0xbd5c3270	-0.05375904
50	0xbd97d9d2	-0.07414593
51	0x3ca329a1	0.019917311
52	0xbf8b91d3	-1.0903877
53	0x40007a3a	2.00746
54	0xbdd48d56	-0.1037852
55	0x3deb5dfe	0.11492537
56	0x3d462f35	0.048384864
57	0x3bb3f3ea	0.0054917233
58	0x3f4e3bed	0.8056019
59	0x3f76759b	0.962732
60	0x3f825a1a	1.0183747
61	0x3e94fcad	0.29099026
62	0x3e1ef981	0.15524866
63	0xbc9aaf74	-0.01888249
64	0xbf44f8b7	-0.7694201
65	0x3c1f0a9e	0.009707121
66	0x3d940475	0.072274126
67	0x3ff5c9d2	1.9202216
68	0xbe740f3d	-0.23833938
69	0x3f23d9f6	0.64004457
70	0x3d90514b	0.070467554
71	0xbf88c117	-1.0683926
72	0xbf776d81	-0.96651465
73	0xbf2f780a	-0.6854254
74	0xbff1b979	-1.8884727
75	0xbc896666	-0.01677246
76	0xbb70cf4e	-0.0036744657
77	0x3cc751d5	0.024331013
78	0xb9fda86f	-0.00048381413
79	0xbdd6aa29	-0.10481674
80	0xbfa865a2	-1.3156016
81	0x40003c59	2.0036833
82	0x3e89f642	0.26945692
83	0x3df10d08	0.11770064
84	0xbedc0bc0	-0.42977715
85	0xbf392753	-0.7232563
86	0xbf3b97c0	-0.7327843
87	0xbd5e22d9	-0.054232452
88	0xbfaab7e5	-1.333737
89	0xbdc7138c	-0.09720525
90	0xbf32edbd	-0.6989401
91	0xbe04d86a	-0.1297318
92	0xbdba5a60	-0.09099269
93	0xbefdc03c	-0.49560726
94	0x3fafe27e	1.3740995
95	0x40194460	2.3947983
96	0x3ca28448	0.019838467
97	0x3e165d9f	0.14684151
98	0x3e34c474	0.17653066
99	0x3f5e3bce	0.86810005
100	0x3f785fc7	0.97021145
101	0x3f7aae0d	0.9792183
102	0x40035fd8	2.0527248
103	0x3da894c2	0.08231498
104	0x3e6c6731	0.2308624
105	0x3e83d9a3	0.2575198
106	0xbdc54076	-0.096314356
107	0xbd739cf2	-0.059475847
108	0x3f930480	1.1485748
109	0xbffafdb1	-1.960867
110	0xbe2074c6	-0.15669546
111	0x3d83d079	0.064362474
112	0xbdaf1354	-0.085486084
113	0xbf3c5a93	-0.73575705
114	0xbf5a0417	-0.8516249
115	0xbf72d261	-0.9485226
116	0xbfeabf1c	-1.8339572
117	0x3d88b692	0.066754475
118	0xbd9d0180	-0.07666302
119	0xbcd9f378	-0.026605353
120	0x3dc03f81	0.093871124
121	0x3d84f6cb	0.064923845
122	0xbfacd234	-1.3501649
123	0x4001d16c	2.028407
124	0xbdcaf435	-0.0990986
125	0xbd0e60a7	-0.034760144
126	0x3e5d8f8d	0.21636792
127	0x3f66d741	0.901722
128	0x3f6ed881	0.9329911
129	0x3f57fa37	0.8436617
130	0x3fed2235	1.8526064
131	0xbd70198f	-0.058618125
132	0x3c8e76ab	0.01739057
133	0x3b543f80	0.0032386482
134	0x3c47104e	0.012149883
135	0x3cecd0aa	0.028908093
136	0x3fa32fa4	1.2748914
137	0xc0051007	-2.0791032
138	0x3d673060	0.05644262
139	0xbcba55a0	-0.022745907
140	0x3db54b07	0.08852201
141	0xbf63a5b6	-0.8892473
142	0xbf5a1214	-0.85183835
143	0xbf6dc208	-0.92874193
144	0xbfed4489	-1.853654
145	0xbeadf70a	-0.33977538
146	0x3e02d452	0.12776306
147	0xbe6b930d	-0.23005314
148	0xbc354433	-0.011063623
149	0x3c54db1c	0.012991693
150	0xbf83da5e	-1.0301015
151	0x40031fd6	2.048818
152	0x3cc737b4	0.024318554
153	0x3e21f0ed	0.15814562
154	0x3fc59310	1.5435505
155	0xbf24a145	-0.6430858
156	0x3ee07d9e	0.43845838
157	0x3f9111d7	1.1333569
158	0x3f3a3606	0.72738683
159	0x3e38d169	0.18048634
160	0x3ee8dc98	0.454808
161	0xbeeb1f3d	-0.4592227
162	0xbf49a822	-0.78772175
163	0x3dd101e3	0.10205438
164	0xbeb8ee65	-0.3611938
165	0x3f8791ac	1.059133
166	0x3fb10175	1.382857
167	0x3dddec0d	0.10836039
168	0x3e26c8f8	0.16287601
169	0x3f7fe77b	0.99962586
170	0x3f792a85	0.97330505
171	0x3f5889ba	0.84585154
172	0x3ffd2d9f	1.9779547
173	0x3d0e5665	0.03475036
174	0x3ea823a5	0.32839695
175	0x3c9fef08	0.019523159
176	0xbd538846	-0.051643632
177	0x3d8ebe19	0.06969852
178	0x3f96d644	1.1784139
179	0xbff23016	-1.8920925
180	0xbe10fe1e	-0.14159438
181	0x3dd0b13c	0.10190055
182	0x3d1d08ea	0.03833858
183	0xbe51c89d	-0.20486684
184	0x3ef78fc2	0.48351866
185	0x3f37cd8b	0.7179801
186	0x3e6d3787	0.23165713
187	0x3f6e7633	0.9314911
188	0x3f3dd4ad	0.7415264
189	0x3f8db588	1.1071024
190	0xbdb152ac	-0.086583465
191	0xbe06a4a4	-0.13148743
192	0xbe6b51a5	-0.22980364
193	0x3f695f43	0.9116098
194	0xbf38506a	-0.719977
195	0x3f4dc4ee	0.80378616
196	0xbeadf8ed	-0.33978978
197	0x3f7f1f36	0.99657
198	0x3ed12fc4	0.40856755
199	0xbf5351fb	-0.8254697
200	0x3ed8d40d	0.42349282
201	0xbf038d3c	-0.5138738
202	0xbf2e1a72	-0.680091
203	0xbf607444	-0.8767741
204	0x3f1f3123	0.6218435
205	0x3f2b0662	0.66806614
206	0x3cad30f3	0.021141505
207	0x3e27b457	0.16377388
208	0x3e21c794	0.1579879
209	0xbefb3932	-0.49067074
210	0x3d21abac	0.03947036
211	0xbf6d819a	-0.9277588
212	0xbf85a5d0	-1.0441227
213	0xbf6186eb	-0.88096493
214	0xc0059cf6	-2.0877051
215	0x3e16d751	0.14730574
216	0xbdf03d84	-0.11730483
217	0x3a8997b0	0.0010497477
218	0x3d08cefe	0.033400528
219	0xbdc7a036	-0.09747355
220	0xbf9c47c8	-1.2209406
221	0x3ff4959e	1.910816
222	0x3cb441c6	0.02200402
223	0xbd8b9045	-0.068146266
224	0x3d0f5f22	0.035002835
225	0xbf5549f7	-0.83315986
226	0xbf6043f6	-0.876037
227	0xbf5a62e1	-0.8530713
228	0xbfe698d7	-1.8015393
229	0x3d0ecb9e	0.034862153
230	0xbcb96101	-0.022629263
231	0x3df679ea	0.12034972
232	0xbbbd4689	-0.0057762307
233	0xbce43992	-0.027859483
234	0xbfa6affd	-1.3022457
235	0x40036bd1	2.0534556
236	0x3d10ca2e	0.035349064
237	0xbdb141be	-0.086551175
238	0x3f036021	0.51318556
239	0xbf706be9	-0.9391466
240	0x3e998761	0.29986098
241	0x3eb1a09d	0.3469285
242	0xbda29426	-0.07938413
243	0xbf7604c2	-0.9610101
244	0xbfdacb88	-1.7093363
245	0xbf902407	-1.1260995
246	0xbf37d791	-0.71813303
247	0x3d77932d	0.060443092
248	0x3eae3837	0.34027264
249	0x3f6d622e	0.92727935
250	0xbefaf8f4	-0.4901806
251	0xbfac263e	-1.344917
252	0xbe4b69c3	-0.19864564
253	0xbec5febd	-0.38670912
254	0xbde842d7	-0.11340874
255	0x3c3e32ec	0.01160882

fc1.bias f4 [64]
0	0xbbc38597	-0.005966853
1	0xbbbae55f	-0.0057036127
2	0x3bdc1512	0.006716379
3	0x3c9f4d73	0.01944611
4	0x3b917bd5	0.0044398108
5	0x3c0c3263	0.008556935
6	0x3b37acf4	0.0028026672
7	0x3aaa3570	0.0012985896
8	0x3d1efe37	0.038816657
9	0x3bef92b3	0.007311189
10	0x3c9ce72f	0.019153206
11	0x3b7dddab	0.003873686
12	0x3c03c5bd	0.00804275
13	0xbb914515	-0.004433284
14	0x3bd0231d	0.006351842
15	0x3c75fb34	0.015013505
16	0x3c25f060	0.010128111
17	0xbacec3be	-0.0015774888
18	0xbb96664d	-0.004589832
19	0x3b16e105	0.0023022306
20	0x3b4e904b	0.003151911
21	0xbb8f8e84	-0.004381003
22	0x3cb77f5c	0.022399597
23	0x3c326789	0.0108889425
24	0x39b20eea	0.00033961918
25	0x3beab123	0.0071622296
26	0x3af05e57	0.0018338662
27	0x39ced9d6	0.00039453682
28	0x3b987d40	0.004653603
29	0xbb787701	-0.0037912729
30	0xbc855f47	-0.016280783
31	0xbbc69060	-0.0060596913
32	0x3cafa21f	0.02143961
33	0xbb625c27	-0.003453979
34	0xbaa00e16	-0.0012211229
35	0x3bb0da42	0.005397112
36	0x3770e092	1.4357402e-05
37	0xbb8d1af4	-0.0043061916
38	0x3c1f4405	0.009720807
39	0x3b8576d6	0.0040730042
40	0x3a8c7165	0.0010714947
41	0x3b668d40	0.0035179406
42	0x3c0f0921	0.008730204
43	0x3c1fdb6d	0.009756905
44	0x3ab9ba90	0.001416998
45	0xbb24db3d	-0.002515509
46	0x3c03c582	0.008042695
47	0x3bf66f9c	0.007520629
48	0xba0ac679	-0.0005293857
49	0x3ab35cde	0.0013684293
50	0x39d55135	0.0004068703
51	0xbb21ec08	-0.0024707336
52	0x3bcf8ac2	0.00633368
53	0x3c291587	0.010320074
54	0x3d15bd0c	0.036557242
55	0x3aa8f617	0.0012890723
56	0x3c4d036d	0.012513024
57	0x3acb8dda	0.0015529946
58	0x3bc0a5cf	0.005879141
59	0x3c857083	0.016289001
60	0xba27cbcf	-0.0006400914
61	0x3bbd1ccf	0.0057712565
62	0x3bbb038a	0.005707209
63	0xbbedffa9	-0.007263143

bn1.weight f4 [64]
0	0x3fb82271	1.4385511
1	0x3e2e8ad3	0.17045145
2	0x3e523035	0.20526202
3	0x3f9b14f9	1.2115775
4	0x3e08d48c	0.1336233
5	0x3f9f45ad	1.2443138
6	0x3f3a3bbb	0.7274739
7	0x3fb959e2	1.4480555
8	0x3f9fb133	1.2475952
9	0x3fbdd157	1.482951
10	0x3fb3ca50	1.4046116
11	0xbdb11b35	-0.086477675
12	0x3fb869e8	1.440732
13	0xbde4fd11	-0.11181081
14	0xbbc3fcac	-0.0059810486
15	0x3fb9d620	1.4518471
16	0x3fa078e7	1.2536896
17	0xbe7f94ea	-0.2495915
18	0xbd47b98b	-0.048760932
19	0x3dcfb89a	0.10142632
20	0x3e72aa19	0.236977
21	0x3e182b89	0.14860357
22	0x3fdb72e2	1.7144434
23	0x3f99395e	1.1970632
24	0x3ecfff57	0.40624496
25	0xbdc59348	-0.09647232
26	0xbe19d873	-0.15023975
27	0x3e0ff103	0.14056782
28	0xbdb2bbe1	-0.08727241
29	0xbd5d8370	-0.054080427
30	0x3fe1439b	1.7598757
31	0xbdc2fbfd	-0.09520719
32	0x3fcc8a3b	1.5979685
33	0xbf255d9f	-0.6459598
34	0xbf398cdf	-0.7248058
35	0x3fa754a1	1.3072702
36	0x3fee31ed	1.8608986
37	0xbd6772e1	-0.05650604
38	0x3fd6cadc	1.6780658
39	0xbe380a87	-0.17972766
40	0x3d65a6f7	0.056067433
41	0xbd0d98f0	-0.03456968
42	0x3fd4bda0	1.6620369
43	0x3fae7919	1.3630706
44	0x3f919cf5	1.1376024
45	0xbe0cea19	-0.13761176
46	0x3fce019b	1.609424
47	0xbe03a8b1	-0.1285732
48	0xbe090cd1	-0.13383795
49	0x3e851d5c	0.25998962
50	0x3d8b5348	0.06802994
51	0xbf21070c	-0.6290138
52	0x3e415d4a	0.18883243
53	0x3e001de1	0.12511398
54	0x3fa6e966	1.3039978
55	0xbd3c502e	-0.045974903
56	0x3fc88480	1.5665436
57	0xbdf74880	-0.12074375
58	0xbd1bf0df	-0.03807151
59	0x3fc2faaf	1.5232753
60	0xbd70c4d2	-0.058781452
61	0xbe0629f5	-0.13101943
62	0x3dd1210a	0.1021138
63	0x3f8d6cce	1.104883

bn1.bias f4 [64]
0	0xbe870e65	-0.2637817
1	0xbfd33fef	-1.6503886
2	0xbef4f96f	-0.47846553
3	0xbf311a37	-0.69180626
4	0xbf0180c2	-0.50587094
5	0xbf37a442	-0.7173501
6	0xbf252841	-0.6451455
7	0xbeeaaa1a	-0.45832902
8	0xbf13ec5a	-0.5778252
9	0xbecce676	-0.40019578
10	0xbf10ed72	-0.5661231
11	0xbdaac753	-0.08338799
12	0xbed1106d	-0.40832844
13	0xbe822423	-0.25418195
14	0xbdb90192	-0.09033503
15	0xbf064fde	-0.5246562
16	0xbf181456	-0.5940603
17	0xbe07b578	-0.13252819
18	0xbf874da0	-1.0570564
19	0xbeda4e1b	-0.42637715
20	0xbf150051	-0.5820361
21	0xbf001644	-0.50033975
22	0xbe913b1f	-0.28365418
23	0xbf38abb2	-0.72136986
24	0xbf4b61d2	-0.79446137
25	0xbf098e51	-0.5373278
26	0xbea9057f	-0.33012006
27	0xbf42a24c	-0.76028895
28	0xbf09c8eb	-0.538222
29	0xbf42bf0c	-0.76072764
30	0xbe246c66	-0.16056976
31	0xbf614856	-0.88001
32	0xbe989135	-0.29798284
33	0xbf724ae6	-0.94645536
34	0xbfd4c36a	-1.6622136
35	0xbf0cc700	-0.5499115
36	0xbeb1639f	-0.34646317
37	0xbf60f1e4	-0.87869096
38	0xbe8778ca	-0.26459342
39	0xbef555b6	-0.47916955
40	0xbefcea94	-0.4939772
41	0xbf0a1252	-0.53934205
42	0xbe55ca7f	-0.20878027
43	0xbecb8613	-0.39750728
44	0xbf011dcd	-0.504361
45	0xbf075938	-0.5287051
46	0xbe5252a7	-0.20539342
47	0xbeadcabf	-0.33943745
48	0xbfcab5b8	-1.5836706
49	0xbf153e48	-0.5829816
50	0xbee769bf	-0.45197865
51	0xbecffa46	-0.4062063
52	0xbf21a436	-0.6314119
53	0xbf166983	-0.5875475
54	0xbf386334	-0.7202637
55	0xbeef27c4	-0.46710026
56	0xbec2caad	-0.38045254
57	0xbf01c7ef	-0.506957
58	0xbf3e3d66	-0.74312437
59	0xbe73c887	-0.23806964
60	0xbe7c348b	-0.24629419
61	0xbf249343	-0.64287204
62	0xbf6d5c42	-0.927189
63	0xbf2a5a10	-0.66543674

bn1.running_mean f4 [64]
0	0x3cf61212	0.030037913
1	0xbebe63aa	-0.37185413
2	0x3d6c5ad8	0.057703823
3	0x3be839d0	0.00708697
4	0xbee2e764	-0.44317162
5	0xbdba13ea	-0.090858296
6	0xbe5956b6	-0.21224484
7	0x3bddee08	0.0067727603
8	0xba2d71c0	-0.00066163763
9	0x3d915c18	0.070976436
10	0x3c84b7bc	0.016200893
11	0xbec17319	-0.37783125
12	0x3d75e562	0.06003321
13	0xbe8c7fef	-0.27441356
14	0x3e385e8f	0.18004821
15	0xbccd1410	-0.02503398
16	0xbd853514	-0.065042645
17	0xbe2ef8e8	-0.17087138
18	0x3ec6a073	0.38794288
19	0xbf0478a9	-0.5174661
20	0x3e3b833f	0.18311785
21	0x3d28fec0	0.041258574
22	0x3d9cc824	0.07655361
23	0xbdb90cd3	-0.09035649
24	0x3f055be1	0.5209332
25	0xbf5c7482	-0.86115277
26	0xbecc4bf8	-0.3990171
27	0xbf0c4d7c	-0.5480573
28	0xbd3110b8	-0.043228835
29	0x3de296ea	0.11063941
30	0xbd8ffb9e	-0.07030414
31	0xbcc8f660	-0.024531543
32	0x3bdb0280	0.0066836476
33	0xbe7b63d4	-0.245498
34	0x3d685430	0.056720912
35	0xbdbb6c12	-0.09151472
36	0x3d4de830	0.05027026
37	0xbeb7141a	-0.35757524
38	0x3c2f69e4	0.010706399
39	0x3e25778a	0.16158882
40	0xbdc5c716	-0.09657113
41	0xbf405138	-0.7512393
42	0x3cfcc5f9	0.03085612
43	0xbd819553	-0.063273095
44	0x3cda405e	0.02664202
45	0x3cd862a8	0.02641423
46	0x3d80ab82	0.062827125
47	0x3d1b40bc	0.037903532
48	0xbea2a76e	-0.31768364
49	0xbf82b932	-1.0212767
50	0xbf045dbc	-0.5170553
51	0x3ebd1c66	0.3693573
52	0x3e034a96	0.12821421
53	0xbdbcb0e0	-0.09213424
54	0xbcf1a016	-0.02949528
55	0xbe756619	-0.23964728
56	0x3d9e64b8	0.07734054
57	0xbe8226b2	-0.25420147
58	0xbec71cf8	-0.3888929
59	0x3ca903ec	0.020631753
60	0x3e31d48b	0.17366235
61	0xbe0ce8df	-0.13760708
62	0xbec4a56e	-0.38407463
63	0xbdb5313f	-0.088472836

bn1.running_var f4 [64]
0	0x40a16289	5.043278
1	0x419d15c1	19.635622
2	0x4129fa2f	10.62358
3	0x40a0fecb	5.0311027
4	0x41828b1f	16.31793
5	0x40b52610	5.6608963
6	0x40b98890	5.79792
7	0x40bb7395	5.857859
8	0x40a79f03	5.2381606
9	0x409b9ac7	4.8626437
10	0x40a49627	5.143329
11	0x414d98e0	12.849823
12	0x40bd5493	5.916574
13	0x415e6ac0	13.901062
14	0x40efa751	7.4891744
15	0x40cbf4c4	6.3736286
16	0x4096bd7e	4.7106314
17	0x419500a7	18.625319
18	0x411586b2	9.345385
19	0x418825c5	17.018442
20	0x41b91f83	23.140387
21	0x40e84e3e	7.259551
22	0x40935e87	4.605289
23	0x4096a5e6	4.7077513
24	0x4149cdbb	12.612727
25	0x412e7b4d	10.905103
26	0x413d41e7	11.828589
27	0x414754c3	12.458194
28	0x414038dd	12.013883
29	0x419d8a71	19.692598
30	0x40b16ee4	5.5447865
31	0x412475f5	10.278798
32	0x40ac84a5	5.391192
33	0x41177749	9.466622
34	0x417efea2	15.937166
35	0x40b00250	5.5002823
36	0x40828546	4.0787687
37	0x41972d70	18.897186
38	0x40ab80c5	5.359469
39	0x4110b95c	9.045254
40	0x4146c847	12.423896
41	0x4132056d	11.126325
42	0x40a57e26	5.171649
43	0x40adccd9	5.431256
44	0x409b4ff2	4.853509
45	0x4198e8a4	19.113594
46	0x40919a5a	4.5500917
47	0x417c2f85	15.761601
48	0x4129052a	10.563761
49	0x41d0ef45	26.11683
50	0x41366c01	11.401368
51	0x415c6ec4	13.777042
52	0x41341c7b	11.256953
53	0x40eec536	7.4615736
54	0x409372f2	4.6077814
55	0x4117d79e	9.490141
56	0x40869742	4.205964
57	0x418e4da1	17.787905
58	0x40e30df3	7.095453
59	0x40a43ffd	5.132811
60	0x41096c2c	8.588909
61	0x415c31eb	13.762187
62	0x411539c6	9.326605
63	0x408aed48	4.341465

fc2.weight f4 [32, 64]
0	0xbf4b4071	-0.79395205
1	0xbf77d7c5	-0.96813613
2	0xbed770bc	-0.42078197
3	0xbf46ef40	-0.77708817
4	0x3ee91623	0.455247
5	0xbf6d283d	-0.92639524
6	0x3fa820f4	1.3135056
7	0xbf43de95	-0.7651151
8	0xbf2dc424	-0.6787741
9	0xbf17ba5b	-0.5926873
10	0xbf3bb847	-0.7332806
11	0xbf4e47be	-0.8057822
12	0xbec3b8e0	-0.38226986
13	0x3e3d9f69	0.18517841
14	0xbe4db3d3	-0.20088129
15	0xbf439923	-0.76405543
16	0xbf1c92e7	-0.61161655
17	0x3ebb31af	0.36561343
18	0xbf5dcf91	-0.86644846
19	0x3e595648	0.2122432
20	0xbf2b3ad5	-0.66886646
21	0xbeacc277	-0.33742115
22	0xbf6e628b	-0.93119115
23	0xbf795d39	-0.9740787
24	0x3eedd002	0.4644776
25	0xbefb2210	-0.49049425
26	0xbecbb3af	-0.39785525
27	0x3f2bac48	0.67059755
28	0xbe45e65b	-0.19326155
29	0xbeb5da96	-0.3551833
30	0xbf18bd80	-0.59664154
31	0x3f0cd7fe	0.5501708
32	0xbf07b67a	-0.5301281
33	0x3f1d5d76	0.61470735
34	0x3fbee87d	1.49147
35	0xbf3995f5	-0.7249444
36	0xbf72569c	-0.94663405
37	0xbf60345a	-0.8757988
38	0xbf3519a0	-0.70742226
39	0x3ead189c	0.33807838
40	0x3eebb7d5	0.4603869
41	0xbf3421e2	-0.703642
42	0xbf2ee2ee	-0.6831502
43	0xbf2a383c	-0.66492057
44	0xbe9529ff	-0.29133603
45	0xbfa4afac	-1.2866111
46	0xbf688b08	-0.90837145
47	0xbed947cf	-0.42437598
48	0xbf9dbe4a	-1.2323697
49	0xbdd60907	-0.104509406
50	0x3eb0fa19	0.3456581
51	0x3ecb2b2e	0.3968138
52	0xbe23f3ae	-0.16010925
53	0x3d7d59a4	0.061853066
54	0xbf89ab25	-1.0755354
55	0xbd4bf24c	-0.04979162
56	0xbf6d1452	-0.9260913
57	0x3c84699e	0.016163643
58	0xbf5fdd2d	-0.8744686
59	0xbf94a2ec	-1.161222
60	0xbecb273f	-0.3967838
61	0x3f9172d8	1.1363173
62	0x3ed72f25	0.42028156
63	0xbf76360b	-0.96176213
64	0xbf2e1f00	-0.6801605
65	0x3cca8601	0.024722101
66	0x3f860cc7	1.0472649
67	0xbf50ae02	-0.81515515
68	0xbe328982	-0.17435268
69	0xbf9f2bb5	-1.2435213
70	0x3ebf70a2	0.3739062
71	0xbf283397	-0.6570372
72	0xbf204914	-0.6261151
73	0xbf30dd12	-0.69087327
74	0xbf220759	-0.6329246
75	0x3f1d18e0	0.6136608
76	0xbf282812	-0.6568614
77	0xbd7aef1f	-0.0612632
78	0xbf85fd31	-1.0467893
79	0xbf3e30ab	-0.7429301
80	0xbf3bbfeb	-0.7333972
81	0xbf1ef9ed	-0.62100106
82	0xbd2aba2f	-0.041681465
83	0x3f21587c	0.6302564
84	0x3e6e7657	0.2328733
85	0xbd6ce8b7	-0.05783912
86	0xbf3a1c76	-0.7269968
87	0xbf58bca3	-0.84662837
88	0x3ea9461f	0.3306131
89	0xbf421703	-0.75816363
90	0x3e985a68	0.29756474
91	0x3fa471ed	1.2847267
92	0x3f5fc54b	0.8741042
93	0xbeaa0355	-0.33205667
94	0xbf1b16e6	-0.60581815
95	0x3fc06d35	1.5033327
96	0xbf8fbdcf	-1.12298
97	0x3eaf6d7a	0.3426321
98	0x3f32632a	0.6968256
99	0xbf5e0b10	-0.8673563
100	0xbf4cbf10	-0.7997904
101	0xbfd336ee	-1.6501138
102	0xbf1cff49	-0.61327034
103	0xbf7c548b	-0.985665
104	0x3ea7247f	0.32645032
105	0x3e8c021e	0.27345365
106	0xbf0fb3dc	-0.5613382
107	0xbf6cea55	-0.9254506
108	0xbecb7bbb	-0.39742836
109	0xbe6f591b	-0.23373835
110	0xbf5c188f	-0.85974973
111	0x3cde2956	0.02711932
112	0xbf648a6b	-0.8927371
113	0xbe97fb3a	-0.29683858
114	0xbef4a784	-0.47784054
115	0x3ddb6f4c	0.107145876
116	0xbe5fdb77	-0.21861063
117	0x3f5628e8	0.8365617
118	0xbf3dfdb4	-0.74215245
119	0xbea0af77	-0.3138387
120	0xbf2892b2	-0.6584884
121	0xbe1e9005	-0.15484627
122	0x3f0e4bb1	0.55584246
123	0xbf8aeddb	-1.0853838
124	0xbd41ce00	-0.047315598
125	0x3c3dabe6	0.011576628
126	0x3f817ca1	1.0116159
127	0xbf791f40	-0.9731331
128	0x3f5bb90a	0.8582922
129	0xbf1b04bf	-0.60554117
130	0xbf4591a1	-0.7717534
131	0x3e24f72c	0.16109914
132	0x3fc731c8	1.5562067
133	0x3fc6c67b	1.5529321
134	0x3f3cc9f6	0.7374567
135	0x3e087540	0.13325977
136	0x3f811ffe	1.0087888
137	0xbc388297	-0.011261604
138	0x3f2ac55b	0.6670739
139	0xbf311437	-0.6917147
140	0x3eb03966	0.34418792
141	0xbe0db0da	-0.13836995
142	0xbe1cec0f	-0.15324424
143	0x3e41bff4	0.1892088
144	0x3f96a5ce	1.176935
145	0xbd553738	-0.052054614
146	0x3de183b1	0.11011446
147	0xbe0d832e	-0.13819572
148	0x3e2a5543	0.16634087
149	0xbe0d19f1	-0.13779427
150	0x3ed4e6cf	0.41582343
151	0x3f492bf8	0.78582716
152	0x3d26dace	0.040736012
153	0xbf881735	-1.0632082
154	0x3ebb69b3	0.3660408
155	0x3dabaae6	0.08382206
156	0xbe7d150c	-0.2471506
157	0x3ef6b11c	0.48182
158	0x3f48a707	0.78379864
159	0x3fd0b0b3	1.6303924
160	0x3f1c5a86	0.6107563
161	0x3f1714da	0.5901619
162	0x3fdc04ce	1.7188966
163	0x3f31dc6e	0.69476974
164	0x3f5730c9	0.84058815
165	0x3f03da48	0.51504946
166	0x3f4d9750	0.8030901
167	0x3f7caa33	0.98697203
168	0x3fa9476e	1.3224924
169	0xbf2cef65	-0.6755279
170	0x3f34c7ce	0.7061738
171	0x3f2456fd	0.64195234
172	0xbe605aff	-0.21909712
173	0x3f00afc9	0.50268227
174	0x3e05fa81	0.13083841
175	0xbd23e3ea	-0.040012278
176	0x3f6d8f5b	0.9279687
177	0xbfc41cdc	-1.5321307
178	0xbf04672f	-0.51719946
179	0xbd823da8	-0.06359416
180	0x3c845097	0.01615171
181	0xbe658f98	-0.22418058
182	0xbf655dd4	-0.89596295
183	0x3f69867c	0.9122083
184	0x3f136173	0.5757057
185	0xbf5f56be	-0.87241733
186	0x3e0f130f	0.13972114
187	0x3f409107	0.75221294
188	0x3e93d33c	0.28872097
189	0x3e3d6bf1	0.18498208
190	0x4000fedb	2.0155551
191	0x3ea04d59	0.31309012
192	0xbf240564	-0.64070725
193	0x3f044a07	0.51675457
194	0xbf31da88	-0.6947408
195	0xbeeaf8ed	-0.4589304
196	0xbf4e3784	-0.8055346
197	0xbf7bef0e	-0.98411644
198	0x3e7433ab	0.23847835
199	0xbf5bc2ae	-0.8584393
200	0xbfa0fb99	-1.2576782
201	0xbf381d6d	-0.719199
202	0xbf4cd4ed	-0.800124
203	0xbd95b095	-0.07309071
204	0xbeb3f6ff	-0.3514938
205	0x3f088fa5	0.53344184
206	0xbd20b6a1	-0.03923667
207	0xbf374d02	-0.7160188
208	0xbece550e	-0.40299267
209	0xbf5910fb	-0.84791535
210	0xbf636180	-0.8882065
211	0x3bb583f5	0.005539412
212	0xbe92393f	-0.285593
213	0x3ea13c53	0.31491336
214	0xbf65aca4	-0.89716554
215	0xbf0cb401	-0.54962164
216	0x3e9e201e	0.30883878
217	0x3f0ee1b4	0.55813146
218	0xbf02dda4	-0.51119447
219	0xbfb138d7	-1.3845471
220	0x3edcc568	0.4311936
221	0xbe2359fb	-0.15952294
222	0xbf71bbaf	-0.9442701
223	0x3e65e9ef	0.2245252
224	0xbf88eb9e	-1.0696905
225	0x3f80c1cd	1.0059143
226	0xbe4d9df0	-0.2007978
227	0x3ea7780a	0.3270877
228	0xbf5acc90	-0.8546839
229	0x3e057af9	0.13035192
230	0xbf1b7807	-0.6073002
231	0xbe89b89d	-0.2689866
232	0x3f4d9176	0.8030008
233	0xbf5b1e21	-0.8559285
234	0xbf61ed4d	-0.8825272
235	0x3d99e66e	0.07514654
236	0xbf3666b8	-0.71250486
237	0x3f0f83d9	0.5606056
238	0xbf3a94bb	-0.72883195
239	0xbf32f3b4	-0.6990311
240	0xbf0d326d	-0.5515507
241	0xbf91aba5	-1.1380507
242	0xbf43ed27	-0.7653374
243	0xbe2563ad	-0.16151305
244	0x3f000943	0.5001413
245	0xbe1b7d2f	-0.15184473
246	0xbf36818f	-0.7129144
247	0xbe07dda3	-0.13268141
248	0xbee8be6d	-0.45457783
249	0xbf82e005	-1.0224615
250	0xbeb07569	-0.34464577
251	0xbf92a95b	-1.1457933
252	0xbe4adc6a	-0.19810644
253	0xbf213784	-0.62975335
254	0x3ef3181f	0.4747934
255	0xbf835e6a	-1.0263188

fc2.bias f4 [32]
0	0x3bc9543f	0.006144076
1	0xbaea7a2d	-0.0017889194
2	0xbac071b7	-0.0014682327
3	0xbbc87ea7	-0.0061186138
4	0x3aff9942	0.001950063
5	0xbb23f61c	-0.0025018519
6	0xbba968e1	-0.0051699732
7	0xbae9092b	-0.0017779222
8	0xba994c0f	-0.0011695641
9	0xbbd88f56	-0.006608884
10	0xbb8732bd	-0.0041259215
11	0x3c3407e5	0.01098821
12	0x3b1896d6	0.0023283265
13	0xba11650c	-0.0005546368
14	0xbbfdcb88	-0.00774521
15	0x3b90d795	0.0044202306
16	0x3ba4a3ba	0.0050244005
17	0x3b96272d	0.004582307
18	0x3bae4683	0.0053184642
19	0xbc2f722d	-0.010708374
20	0x3af7f68c	0.0018918081
21	0xbac94c91	-0.0015357902
22	0x3b354fb5	0.0027665917
23	0xbab20c69	-0.0013584021
24	0xb7b1a86e	-2.1178475e-05
25	0x3a82fb1e	0.0009993052
26	0xbad94ca6	-0.0016578629
27	0xbb121078	-0.0022287648
28	0x3b0bdce9	0.002134139
29	0xbb1841d6	-0.00232326
30	0xbab0f0b8	-0.0013499474
31	0x3c1a0cab	0.009402434

bn2.weight f4 [32]
0	0x3fa17efd	1.2616879
1	0x3fb894fa	1.4420464
2	0x3f1f76e7	0.62290806
3	0x3f949a53	1.1609596
4	0x3fabeb09	1.3431102
5	0xbcb4311d	-0.021996075
6	0x3fb66f56	1.4252727
7	0xbf3c21d9	-0.7348915
8	0x3fb5b738	1.4196539
9	0x3f9f07c5	1.2424246
10	0x3fa21fce	1.2665956
11	0x3faab4ca	1.3336422
12	0x3fc5d5a6	1.5455825
13	0x3fa4e831	1.2883359
14	0x3fb5e7f4	1.4211411
15	0x3f9c2e6c	1.2201667
16	0x3fae249a	1.360492
17	0x3f9ea6f5	1.2394701
18	0x3face68a	1.3507855
19	0x3fbbecc2	1.4681628
20	0x3f98071c	1.187717
21	0x3e38dc41	0.1805277
22	0x3fa51b99	1.2899047
23	0x3fa4542c	1.2838187
24	0x3d85c8c6	0.06532435
25	0x3f6a3819	0.9149185
26	0x3f90c446	1.1309898
27	0x3fc078da	1.5036881
28	0x3f65feb1	0.89841753
29	0xbddc4bcc	-0.107566446
30	0x3f1e7746	0.61900747
31	0x3fa4f258	1.2886457

bn2.bias f4 [32]
0	0xbef19752	-0.4718576
1	0xbf0fe831	-0.5621367
2	0xbf0eb078	-0.5573802
3	0xbedd7e61	-0.43260482
4	0xbeebb45d	-0.46036044
5	0xbecf981e	-0.40545744
6	0xbf0817b9	-0.531612
7	0xbfa6e461	-1.3038446
8	0xbed9c96e	-0.4253649
9	0xbf03b1e1	-0.51443297
10	0xbf21ec7f	-0.6325149
11	0xbf04c50c	-0.5186317
12	0xbeb6a8d8	-0.35675693
13	0xbf0ff1e9	-0.562285
14	0xbef3d60f	-0.4762425
15	0xbf134769	-0.5753084
16	0xbf19927a	-0.5998913
17	0xbf0eed45	-0.55830795
18	0xbf1e91a3	-0.61940974
19	0xbeba5ec3	-0.36400422
20	0xbf301769	-0.6878572
21	0xbf2908e8	-0.66029215
22	0xbf0c0bca	-0.5470549
23	0xbf021409	-0.5081182
24	0xbf513d94	-0.81734586
25	0xbf1428b9	-0.5787464
26	0xbf23892f	-0.638812
27	0xbec35dc5	-0.38157478
28	0xbf08ec2c	-0.5348537
29	0xbf85c0bb	-1.0449442
30	0xbf460e6f	-0.77365774
31	0xbf1474c4	-0.5799067

bn2.running_mean f4 [32]
0	0xc0e3145e	-7.096236
1	0xc0e2f63e	-7.092559
2	0x409d32f0	4.912468
3	0xc0e41a9b	-7.1282477
4	0xc0e79ad8	-7.237652
5	0x3f9524a8	1.1651812
6	0xc0e3b450	-7.115761
7	0x4098b03c	4.771513
8	0xc0e5647c	-7.168516
9	0xc0e96a9b	-7.2942634
10	0xc0ddb0ff	-6.927856
11	0xc0d13ee2	-6.538926
12	0xc0edc4f6	-7.430293
13	0xc0d9c1c1	-6.8049016
14	0xc0fb794a	-7.858556
15	0xc0eaab55	-7.3334146
16	0xc0dd9a00	-6.925049
17	0xc0e1bb93	-7.0541472
18	0xc0e20978	-7.063656
19	0xc0d64bb6	-6.696742
20	0xc0e18a6d	-7.0481477
21	0x3fb5fa15	1.4216944
22	0xc0ed0751	-7.407143
23	0xc0ed20de	-7.410262
24	0xbfafa496	-1.3722103
25	0xbea038d8	-0.31293368
26	0xc0dc9ba6	-6.894
27	0xc0e00fba	-7.0019197
28	0x3fbe2e0e	1.4857805
29	0xc087141f	-4.221206
30	0x40b4eb0d	5.6536927
31	0xc0e21851	-7.0654683

bn2.running_var f4 [32]
0	0x42adef75	86.96769
1	0x42a3db56	81.92839
2	0x4236a83d	45.664295
3	0x42a392ff	81.7871
4	0x42c19001	96.78126
5	0x421858c2	38.086678
6	0x42b24bbe	89.147934
7	0x42f627b4	123.077545
8	0x42be44dd	95.1345
9	0x42b332a8	89.59894
10	0x42a534f1	82.6034
11	0x428e6a9b	71.20821
12	0x42c3cf38	97.904724
13	0x429fa65b	79.82491
14	0x42e42bed	114.08579
15	0x42c1f668	96.98126
16	0x42a982a9	84.755196
17	0x42a95249	84.66071
18	0x42b94403	92.632835
19	0x429f0f5b	79.52999
20	0x42adc4e8	86.88458
21	0x420bab30	34.917175
22	0x42c42699	98.075386
23	0x42aca368	86.31915
24	0x41b9c38c	23.220482
25	0x42b6c1e0	91.37866
26	0x42b3ff13	89.99819
27	0x42a202ed	81.005714
28	0x426692f8	57.643524
29	0x42353c9a	45.30918
30	0x426fb930	59.930847
31	0x42b65701	91.16993

fc3.weight f4 [16, 32]
0	0x3f2e4ebb	0.68088883
1	0x3face330	1.3506832
2	0xbf680e8f	-0.90647215
3	0x3f26c2c4	0.6514094
4	0x3f28b0db	0.6589486
5	0xbf03af8c	-0.5143974
6	0x3fdce72c	1.7258048
7	0x3f405755	0.7513326
8	0x3f74b660	0.9559078
9	0x3eb9adb1	0.3626533
10	0x3f62a12b	0.8852717
11	0x3fa2b8c6	1.2712638
12	0x3f98b081	1.1928865
13	0x3e6783e1	0.22608902
14	0x3f588fcf	0.84594434
15	0x3ea95ff5	0.33081022
16	0x3fd22a1b	1.64191
17	0x3f91665c	1.1359363
18	0x3fb23cd4	1.3924813
19	0x3fa959c4	1.3230519
20	0x3fb41c75	1.4071184
21	0x3d3170bd	0.043320406
22	0xbd2e34a6	-0.04253068
23	0x3fb8d430	1.4439754
24	0xbf336aa8	-0.7008462
25	0xbed21816	-0.41034
26	0x3eb8f1ea	0.36122066
27	0x3f84cbd6	1.0374706
28	0x3ebc24f3	0.3674694
29	0xbefad634	-0.4899155
30	0xbecf1acd	-0.40450135
31	0x3fe02c2c	1.751348
32	0x3f74e5d6	0.956632
33	0x3f5259e2	0.821684
34	0xbf89b575	-1.0758501
35	0x3ed1c3f2	0.40969807
36	0x3ef6c3da	0.48196298
37	0xbe7efe1b	-0.24901621
38	0x3e9587e9	0.29205254
39	0xbe54452c	-0.20729512
40	0xbd63eaa7	-0.055643704
41	0x3ed12331	0.4084716
42	0x3fbf3f10	1.494112
43	0x3f5ab74f	0.85435957
44	0x3f640345	0.8906749
45	0x3f96701a	1.1752961
46	0x3fb3de3d	1.4052197
47	0x3f94e295	1.1631647
48	0x3fa27e74	1.269484
49	0x3e5ab931	0.21359707
50	0x3f06ea45	0.52701217
51	0x3f8865a0	1.0656013
52	0x3f8a3dda	1.0800126
53	0xbea5e4a0	-0.3240099
54	0x3f1b23b2	0.6060134
55	0x3f2b18f5	0.66834956
56	0x3f01d508	0.50715685
57	0x3e574389	0.21021856
58	0x3f243090	0.641366
59	0x3fd8026b	1.6875738
60	0xbf102d6f	-0.56319326
61	0xbd6be500	-0.05759144
62	0x3e82cff4	0.2554928
63	0x3f5247e9	0.82140976
64	0x3e9eae85	0.30992523
65	0x3ee67468	0.45010686
66	0xbf416f45	-0.7556041
67	0x3f82e1d1	1.0225164
68	0x3f521367	0.82060856
69	0xbf2a72ed	-0.6658161
70	0x3f7d8fd7	0.9904761
71	0x3eb4e652	0.3533197
72	0x3f83711b	1.0268892
73	0x3eed05c9	0.46293476
74	0x3deecd3d	0.1166024
75	0x3f459712	0.7718364
76	0x3f0d58c8	0.55213594
77	0x3f2afd3d	0.6679266
78	0x3db5c611	0.08875669
79	0x3f82d0fe	1.0220029
80	0x3f7af738	0.98033476
81	0x3f468e20	0.77560616
82	0x3d5c27ec	0.05374901
83	0x3fd28196	1.6445796
84	0x3f2ece1b	0.6828324
85	0x3ee993ed	0.4562067
86	0x3f220893	0.63294333
87	0x3ea3b375	0.31972852
88	0xbe6946a4	-0.22780854
89	0x3f0afab7	0.5428881
90	0x3efa12e7	0.48842546
91	0x3f3eccd6	0.74531305
92	0xbf03dd81	-0.51509863
93	0xbf0d08ef	-0.55091757
94	0xbf67f511	-0.90608317
95	0x3e61cedf	0.22051571
96	0x3f67b53c	0.90510917
97	0x3fc4c18e	1.5371568
98	0xbf0224a5	-0.50837165
99	0xbe3b9b9f	-0.18321083
100	0x3f5f0c26	0.8712791
101	0xbf677282	-0.904091
102	0x3fd12fa1	1.634266
103	0xbe31e6c8	-0.17373192
104	0x3fa5b0a7	1.2944535
105	0x3fc82286	1.5635536
106	0x3ed80a8b	0.42195544
107	0x3f593a19	0.84854275
108	0x3f4ee96b	0.8082492
109	0x3f8e8fbe	1.1137617
110	0x4014fcc8	2.3279285
111	0x3f92d8b3	1.1472381
112	0x3f3eacc4	0.7448237
113	0x3fb66f14	1.4252648
114	0x3fa7981c	1.3093295
115	0x3efca8d4	0.49347556
116	0x3f4ecd42	0.8078195
117	0xbeef347b	-0.46719727
118	0x3f836631	1.0265561
119	0x3fc4d6e4	1.537808
120	0x3e56a965	0.20963056
121	0xbcd682a4	-0.026185341
122	0x3f4738b4	0.778209
123	0x3f71ed96	0.9450315
124	0xbe91d03c	-0.28479183
125	0x3d418224	0.047243252
126	0xbee3bba9	-0.4447911
127	0x3f5cc0fd	0.86231977
128	0x3f8499b5	1.0359408
129	0x3f5476fa	0.82994044
130	0xbf5433f1	-0.82891756
131	0x3ed0dd00	0.4079361
132	0x3f67582b	0.9036891
133	0xbe2416d5	-0.16024335
134	0x3f26aef1	0.6511069
135	0x3ecf2655	0.40458933
136	0x3f955228	1.1665697
137	0x3ee6f4ef	0.45108745
138	0x3f4da45f	0.80328935
139	0x3fbcd183	1.4751438
140	0x3f6237fa	0.88366663
141	0x3fe6ad6e	1.8021677
142	0x3f901aba	1.1258156
143	0x3d9074fa	0.070535615
144	0x3fae617c	1.36235
145	0x3f308a08	0.6896062
146	0x3fb75f10	1.4325886
147	0x3f63e871	0.8902655
148	0x3f8bb2f6	1.091399
149	0xbe106be3	-0.14103656
150	0x3f42a85f	0.76038164
151	0x3fb840f3	1.4394821
152	0x3f89ce03	1.0765995
153	0xbf7c1a54	-0.98477674
154	0x3f83e89f	1.0305365
155	0x3f6ccdf4	0.9250176
156	0xbf9062f0	-1.1280193
157	0xbe8326c4	-0.25615513
158	0x3e5ba86f	0.21450971
159	0x3fbb3bb7	1.4627599
160	0x3eb87852	0.36029297
161	0x3fc96b03	1.5735782
162	0xbddcb2a2	-0.10776259
163	0x3f753dd4	0.9579747
164	0x3f58029e	0.84378994
165	0xbd924aa4	-0.07143143
166	0x4003c27d	2.0587456
167	0x3f9dd26f	1.2329844
168	0x3f436642	0.7632791
169	0x3ef4d28c	0.47816885
170	0x3fa4314c	1.2827544
171	0x3fc6f90d	1.5544754
172	0x3fc3b5ec	1.5289893
173	0x3f445567	0.76692814
174	0x3f567e25	0.8378623
175	0x3fb421f3	1.407286
176	0x3f877488	1.0582438
177	0x3e9b4f11	0.3033376
178	0x3f56996b	0.8382785
179	0x3fca64cc	1.5812011
180	0x3fc703b6	1.5548007
181	0xbe715281	-0.23566629
182	0x3f838fba	1.0278237
183	0x3ef9e7bf	0.4880962
184	0xbf1036f6	-0.56333864
185	0xbebaa965	-0.36457363
186	0x3d55573a	0.05208514
187	0x3db5c39a	0.08875199
188	0x3eaf1482	0.34195334
189	0xbec49a00	-0.38398743
190	0xbf1fbf93	-0.62401694
191	0x3fc7c80d	1.5607926
192	0x3faf6bef	1.3704814
193	0x3fb9bd78	1.4510946
194	0xbf4dec8b	-0.8043906
195	0x3f7a1af9	0.97697407
196	0x3f86de2f	1.0536555
197	0xbf34fb1a	-0.7069565
198	0x3ebe659c	0.37186897
199	0xbf02c227	-0.510775
200	0x3f2d5e91	0.6772242
201	0x3f03bea3	0.51462764
202	0x3f0c3f2b	0.54783887
203	0x3fd62c8d	1.6732346
204	0x3f8f7e22	1.1210368
205	0x3f6e9fde	0.9321269
206	0x3eddc58f	0.43314788
207	0x3e93bcfb	0.28855118
208	0x3f88993a	1.0671761
209	0x3f189531	0.5960265
210	0x40111e5f	2.2674787
211	0x3ffc33c4	1.9703298
212	0x3f82f204	1.0230107
213	0x3eed11b3	0.46302566
214	0x3f2ed652	0.68295777
215	0xbc19857b	-0.009370203
216	0xbe6238a9	-0.22091927
217	0xbf54719a	-0.8298584
218	0x3fa67eff	1.3007506
219	0x3f336d2c	0.7008846
220	0xbe57dbd8	-0.21079957
221	0xbe7fb481	-0.249712
222	0xbe32aea4	-0.17449433
223	0x3e366bbf	0.1781454
224	0x3f04586f	0.5169744
225	0x3f620c83	0.8830034
226	0x3d7423f5	0.059604604
227	0x3f402b7c	0.7506635
228	0x3fab1a95	1.3367487
229	0xbe177c7b	-0.1479358
230	0x3f7c52e2	0.9856397
231	0x3e7f28fb	0.24917977
232	0x3d06fde3	0.03295697
233	0x3f4e58b4	0.806041
234	0x3f851887	1.039811
235	0x3fae0c5f	1.3597525
236	0x3fa19b55	1.2625529
237	0x3fde4a59	1.7366439
238	0x3fe6f596	1.8043697
239	0x3f3befa2	0.73412526
240	0x3f2d9970	0.6781225
241	0x3f030e8d	0.5119408
242	0x3f9ce19a	1.2256348
243	0x3f821b08	1.0164499
244	0x3f9fef2f	1.2494868
245	0xbf09f2a0	-0.5388584
246	0x3fd41018	1.6567411
247	0x3fb1d212	1.3892233
248	0x3ead00b1	0.3378959
249	0xbf0c596a	-0.54823935
250	0x3fa24884	1.267838
251	0x3f657572	0.8963233
252	0xbe97edfd	-0.29673758
253	0xbea0acd0	-0.31381845
254	0xbeb4f55a	-0.35343438
255	0x3f819aca	1.0125363

fc3.bias f4 [16]
0	0xbb2e93fa	-0.0026638494
1	0x3b504192	0.0031777364
2	0x3b3dd04e	0.002896327
3	0xbb765b50	-0.0037591048
4	0x3bb75b95	0.005595634
5	0xbbd69097	-0.006547998
6	0xbb6ef1e9	-0.0036460108
7	0x3b0a6493	0.0021117076
8	0x3acea706	0.001576633
9	0x3af86e0a	0.0018953693
10	0xbba304de	-0.0049749454
11	0xbae0b2d2	-0.0017143136
12	0x3960bc02	0.00021432343
13	0xbbeba9df	-0.007191881
14	0xb99acdc5	-0.0002952648
15	0x3b71d237	0.003689898

bn3.weight f4 [16]
0	0x3e273ced	0.16331835
1	0xba26292e	-0.0006338534
2	0xbdff4ad6	-0.12465446
3	0x3de11326	0.109899804
4	0x3e1f0154	0.1552785
5	0x3e4eeb8b	0.2020704
6	0x3e359669	0.17733158
7	0x3e4784e8	0.19484293
8	0x3e229eeb	0.15880935
9	0x3e7f52dd	0.24933954
10	0x3e389bb0	0.1802814
11	0xbebd29f2	-0.36946064
12	0x3ea15f00	0.31517792
13	0x3ec77154	0.3895365
14	0x3e12be6b	0.14330451
15	0x3e33b88d	0.1755087

bn3.bias f4 [16]
0	0x3dd9f40d	0.10642252
1	0xbd933d03	-0.071893714
2	0xbe5a7d89	-0.2133695
3	0x3da92903	0.082597755
4	0x3e0de29b	0.13855974
5	0x3ddba829	0.107254334
6	0x3dd852b8	0.10562652
7	0x3dcc5dbd	0.09978817
8	0x3df1d789	0.11808688
9	0x3e10ff81	0.14159967
10	0x3d65125e	0.05592572
11	0xbdeabac3	-0.11461403
12	0xbc08efa4	-0.008357916
13	0xbd863589	-0.0655318
14	0x3d6ede7b	0.058317643
15	0x3d98ea7f	0.074666016

bn3.running_mean f4 [16]
0	0x409c59e1	4.8859715
1	0x4085ce88	4.1814613
2	0x404ff277	3.2491739
3	0x40a3c8ee	5.1182775
4	0x408beccc	4.372656
5	0x409b0a5e	4.8450155
6	0x4085dbc4	4.183077
7	0x40a6d129	5.2130322
8	0x4096d032	4.7129145
9	0x40ac5a3d	5.3860154
10	0x40a2dfe9	5.089833
11	0x4089f136	4.3106947
12	0xc0870a73	-4.2200255
13	0xc08349af	-4.1027446
14	0x40ad107c	5.4082623
15	0x40a2d3c1	5.088349

bn3.running_var f4 [16]
0	0x426ef431	59.73847
1	0x423c3639	47.05295
2	0x41e89069	29.070513
3	0x4286259a	67.07344
4	0x42819217	64.78533
5	0x426dacfd	59.418934
6	0x4260a8ac	56.16472
7	0x428f0392	71.50697
8	0x428ab560	69.35425
9	0x42853c9c	66.61838
10	0x4291af4b	72.84237
11	0x41e91694	29.136024
12	0x420042c1	32.06519
13	0x41f07fbc	30.06237
14	0x429363aa	73.69466
15	0x428aef48	69.46735

fc4.weight f4 [1, 16]
0	0xbdb76187	-0.08954149
1	0x3bf57acd	0.0074914456
2	0x3cc2f70e	0.023799445
3	0xbd39a878	-0.04532668
4	0xbdfccb7a	-0.123434976
5	0xbe0f1dd5	-0.13976224
6	0xbe0b9927	-0.13632642
7	0xbe089646	-0.13338575
8	0xbdc13d0e	-0.094354734
9	0xbe3c3d42	-0.18382743
10	0xbda50664	-0.080578595
11	0x3e359dc5	0.17735966
12	0x3dd2e018	0.10296649
13	0x3dde639f	0.10858845
14	0xbda9951a	-0.08280392
15	0xbdf676fe	-0.12034415
