models/odd_even_model.pth (torch, 23438 bytes, 19 tensors)

fc1.weight f4 [64, 14]
0	0xb4962866	-2.796907e-07
1	0x35405cae	7.166044e-07
2	0xb492fba3	-2.737771e-07
3	0x33710800	5.611946e-08
4	0x34a82456	3.1318876e-07
5	0xb3ae29c2	-8.110102e-08
6	0x33d312b2	9.828854e-08
7	0xb4a13b3a	-3.003168e-07
8	0x353bbdcf	6.9939136e-07
9	0xb48aa912	-2.5827518e-07
10	0x33388f4b	4.2971163e-08
11	0x34bbb390	3.4962113e-07
12	0xb4293181	-1.5757361e-07
13	0xb4d91d0b	-4.044053e-07
14	0xba6cee4d	-0.0009038195
15	0xbbbb16fb	-0.0057095266
16	0xbbb87f1c	-0.005630387
17	0xba507903	-0.00079526025
18	0xbcb4f5bd	-0.022089833
19	0x3b373d2a	0.002796004
20	0xbaf148ff	-0.0018408595
21	0xba862857	-0.0010235411
22	0x3a9ee6cf	0.001212323
23	0xba8ca396	-0.0010729905
24	0x3bfd3af4	0.007727975
25	0x3d14ed3b	0.036359053
26	0x3a4e1474	0.0007861324
27	0x3b1ca2ca	0.002390074
28	0x3ab04b7a	0.0013450228
29	0xbb40623e	-0.0029355432
30	0x3b494f7f	0.003071755
31	0x3ab0bfcb	0.0013484893
32	0x3ac24548	0.0014821673
33	0x3b31531d	0.0027057596
34	0x3b376b2b	0.002798746
35	0xbb5df572	-0.003386822
36	0xbb99a2d8	-0.004688602
37	0x3a7cf18b	0.000964903
38	0xb9daddf4	-0.00041745568
39	0x3a5dbf5a	0.00084589946
40	0x398cd321	0.00026860184
41	0xbb82de90	-0.0039938167
42	0xb6658f9f	-3.4207258e-06
43	0xb680ca0f	-3.83822e-06
44	0x37b2f85f	2.133491e-05
45	0x36e1ead1	6.7328588e-06
46	0x37594eac	1.2952525e-05
47	0xb4db7800	-4.087924e-07
48	0xb5b5c70a	-1.3543479e-06
49	0xb457653c	-2.0060264e-07
50	0xb6412123	-2.877853e-06
51	0x374aa888	1.20793775e-05
52	0xb63c0d39	-2.802188e-06
53	0x381c2a96	3.723296e-05
54	0x35ed1777	1.7664705e-06
55	0xb62780a2	-2.4959813e-06
56	0xbae6216b	-0.0017557567
57	0xbad6e92a	-0.0016396393
58	0x3bbd948d	0.005785531
59	0xbb6ab8aa	-0.0035815635
60	0x390a6191	0.00013197052
61	0x3abce16e	0.0014410445
62	0xb99eb407	-0.0003027024
63	0x39d0764c	0.0003976099
64	0xbb744782	-0.0037274067
65	0x3be55fd8	0.006999951
66	0xbba08807	-0.004899028
67	0xbb66ee1f	-0.0035237146
68	0x3b522b3a	0.0032069222
69	0xbb8eb474	-0.004355008
70	0x39b74a11	0.00034959664
71	0xbb68f8b1	-0.0035548622
72	0x3b59dde0	0.003324382
73	0xba83c2a2	-0.0010052512
74	0xb9d17de0	-0.0003995737
75	0x3af683ab	0.0018807551
76	0x3b58f363	0.0033104054
77	0x39707b41	0.00022934099
78	0xbba9d845	-0.005183252
79	0x3b4b5c85	0.0031030488
80	0xbb647d57	-0.0034864747
81	0xbb08f00e	-0.0020895037
82	0xbaf9ab83	-0.0019048307
83	0x3acc2868	0.0015576007
84	0xb4ada5dd	-3.2344443e-07
85	0x333f8ad0	4.4596902e-08
86	0x33381a4b	4.286475e-08
87	0xb103e85e	-1.9195094e-09
88	0x337ad973	5.840543e-08
89	0x350a4d3d	5.15214e-07
90	0x35185b9f	5.675774e-07
91	0x351bebe4	5.8085266e-07
92	0x32878d33	1.5780278e-08
93	0x316ddb11	3.4612564e-09
94	0x3404644f	1.232995e-07
95	0xb2a55444	-1.9246848e-08
96	0xb51816f8	-5.6657836e-07
97	0x34fba6b5	4.6873689e-07
98	0x018c0546	5.1435445e-38
99	0x000437ce	3.87361e-40
100	0x01394f81	3.4036175e-38
101	0x00066614	5.87632e-40
102	0x8188be16	-5.023127e-38
103	0x819419d3	-5.440367e-38
104	0x817fc07c	-4.6974204e-38
105	0x023fae94	1.4082565e-37
106	0x0152aa30	3.8693012e-38
107	0x0115b0bc	2.7493779e-38
108	0x801690ce	-2.072327e-39
109	0x017258de	4.451214e-38
110	0x00d15174	1.9222839e-38
111	0x806f9ad0	-1.0249276e-38
112	0x396bcb57	0.00022487096
113	0xbcf6f1de	-0.030144628
114	0xbce96bce	-0.028493788
115	0xbce79c69	-0.028272824
116	0xbd3f53f0	-0.04671091
117	0xba2158fd	-0.0006154923
118	0xbb0f59fd	-0.0021873706
119	0xbab557dd	-0.0013835389
120	0xb9f67d69	-0.00047014214
121	0x3aa6157d	0.0012671199
122	0xbd0e5c3e	-0.034755938
123	0x3d6693d6	0.05629333
124	0xb9faf057	-0.00047862783
125	0x3ab119b3	0.0013511687
126	0xb99bd3d2	-0.00029721722
127	0x3cce4e02	0.025183681
128	0x3ccb52fd	0.024819845
129	0x3cc3e8a7	0.023914648
130	0x3d38d79f	0.045127507
131	0xbb28ae44	-0.0025738636
132	0x3a9d226c	0.0011988408
133	0x3a961801	0.0011451246
134	0x3b304c4b	0.0026900943
135	0x3ac2ab72	0.001485212
136	0x3cf4262c	0.029803358
137	0xbd521190	-0.05128628
138	0x3a10214f	0.00054981274
139	0xba9d608f	-0.0012006926
140	0x37e61ba0	2.7431e-05
141	0x38ec744d	0.0001127502
142	0xb8386252	-4.3960586e-05
143	0x373dbd91	1.1309415e-05
144	0x3811684e	3.4667835e-05
145	0xb7d4acfb	-2.535292e-05
146	0xb57a10ca	-9.315669e-07
147	0xb8cfd0e2	-9.9094366e-05
148	0x38e1cb94	0.000107667554
149	0xb81810b1	-3.625517e-05
150	0xb85291e4	-5.0203773e-05
151	0x384953da	4.8000227e-05
152	0x36bd974b	5.6502518e-06
153	0xb885e3a8	-6.3843385e-05
154	0x3ae0ae0a	0.0017141711
155	0xbb49df71	-0.0030803347
156	0x3ae6312a	0.001756226
157	0xb9e9ce9b	-0.00044595156
158	0xba30b6d3	-0.000674111
159	0xbb9bdccd	-0.004756546
160	0xbb722c9f	-0.0036952866
161	0xbb0ec3d8	-0.0021784212
162	0xbb3be3ab	-0.0028669636
163	0x3ad95981	0.001658246
164	0xb84579c4	-4.7081863e-05
165	0x3acdc4bc	0.001569889
166	0xbb36b0c9	-0.0027876368
167	0xbadcc13f	-0.001684226
168	0xba912cc3	-0.0011075962
169	0xbcf1a89d	-0.029499346
170	0xbce9e2a0	-0.028550446
171	0xbcef8c15	-0.029241601
172	0xbd4206f5	-0.047369916
173	0x3ae75c97	0.0017651495
174	0xbb20b832	-0.0024523851
175	0xb9624474	-0.0002157854
176	0xb98387e3	-0.0002508751
177	0x3a22ea01	0.0006214679
178	0xbd068acb	-0.032847207
179	0x3d796cac	0.060894653
180	0xbab31998	-0.0013664244
181	0x3a9421af	0.0011301542
182	0x37fca603	3.0118046e-05
183	0x3812b30b	3.497586e-05
184	0xb69d8069	-4.6939135e-06
185	0xb6c55923	-5.8814344e-06
186	0xb6e67c9b	-6.86904e-06
187	0x3730e528	1.0543772e-05
188	0xb65cee2a	-3.2921184e-06
189	0xb7817a96	-1.5435082e-05
190	0x3816c75c	3.5948455e-05
191	0xb72010b7	-9.540635e-06
192	0x38483cdb	4.7740392e-05
193	0x37cfe3df	2.4782434e-05
194	0x3688b8b3	4.0746177e-06
195	0xb8471cf0	-4.7472247e-05
196	0xb341b7b3	-4.5103388e-08
197	0xb315a8ee	-3.4845407e-08
198	0xb305f582	-3.1189764e-08
199	0xb2f8c089	-2.8958555e-08
200	0xb380e6bd	-6.0024355e-08
201	0xb271cf7a	-1.4075221e-08
202	0xb34e7bcf	-4.8075716e-08
203	0x32928f0c	1.7061687e-08
204	0xb1e6092b	-6.6949233e-09
205	0xb1f3c4b7	-7.0945947e-09
206	0xb313a2f9	-3.4374327e-08
207	0xb338057a	-4.284582e-08
208	0x33084fe4	3.1737628e-08
209	0x3292bf33	1.7083584e-08
210	0x3a1f83ac	0.0006084989
211	0x3c4b60f8	0.012413256
212	0x3c3877b4	0.011259008
213	0x3c3276b5	0.01089256
214	0x3cc2e7fc	0.02379226
215	0xb9105e2e	-0.00013767995
216	0xba042669	-0.0005041124
217	0x3930cfe3	0.00016862112
218	0xb9d7f19e	-0.00041188014
219	0xba154a3d	-0.00056949613
220	0x3c792394	0.015206236
221	0xbccfe4d3	-0.025377667
222	0xba462f5a	-0.00075601565
223	0x39bcfbe5	0.0003604583
224	0x3a7fbdbf	0.00097557524
225	0xbce54b5c	-0.027990036
226	0xbcf34b5d	-0.029699022
227	0xbceaf4e8	-0.028681234
228	0xbd46489a	-0.048409082
229	0x3a7f14a2	0.00097305526
230	0xbb38dfdd	-0.0028209605
231	0x393b0e28	0.00017838983
232	0xb94917c7	-0.00019177712
233	0x3a6a17bf	0.000892993
234	0xbd097f9c	-0.033568963
235	0x3d78741e	0.060657613
236	0xb8af6a15	-8.3644096e-05
237	0x3a83bc69	0.0010050657
238	0x39592cfd	0.00020711492
239	0x3cf3b5f4	0.029749848
240	0x3cfa2986	0.030537378
241	0x3cf25415	0.029581109
242	0x3d454d17	0.04816922
243	0xb9522630	-0.00020041387
244	0x3a58e0b3	0.0008273229
245	0x3a853bb0	0.0010164883
246	0xba23c178	-0.00062467856
247	0x3a2c9354	0.0006583233
248	0x3d089e81	0.033354286
249	0xbd7f6e11	-0.062360827
250	0xba0f23c9	-0.00054603495
251	0x3ac8b114	0.0015311562
252	0xba427dc6	-0.00074192544
253	0xbceba13f	-0.028763412
254	0xbce2fad9	-0.027707504
255	0xbce38b36	-0.027776342

fc1.bias f4 [64]
0	0x29693474	5.178189e-14
1	0x3684a233	3.952789e-06
2	0x35544017	7.906942e-07
3	0xabbd5f1c	-1.3455656e-12
4	0x34796e22	2.3229998e-07
5	0x34365f66	1.6984777e-07
6	0xaa40304c	-1.7069782e-13
7	0x00a80bc0	1.5432578e-38
8	0xb69270c2	-4.364266e-06
9	0x35bb7420	1.3966383e-06
10	0x2ecb72c2	9.251756e-11
11	0xb3865570	-6.255402e-08
12	0x34e49cfd	4.2582533e-07
13	0xacf04edc	-6.8299654e-12
14	0x23fc8800	2.7379493e-17
15	0x3635c464	2.7085416e-06
16	0xb5aa2886	-1.2677781e-06
17	0x3612c37a	2.1869478e-06
18	0xb5d689b3	-1.5984318e-06
19	0x00ae48c0	1.6005474e-38
20	0x029afea8	2.2774432e-37
21	0xb3f85a7c	-1.1564859e-07
22	0x2834b8f8	1.0032116e-14
23	0xb64fb4cb	-3.095064e-06
24	0xb49dd121	-2.939569e-07
25	0x29971202	6.708871e-14
26	0x2c3a7ebe	2.6502546e-12
27	0xb5509d98	-7.771537e-07
28	0x8205585b	-9.796654e-38
29	0x36192dd4	2.2825452e-06
30	0x2d982f8b	1.7301513e-11
31	0xb5f7df14	-1.8467858e-06
32	0x3579ae4e	9.3013375e-07
33	0xb4c95e3f	-3.750774e-07
34	0xb04802b5	-7.2763423e-10
35	0xb35d21c2	-5.1486275e-08
36	0xb5dbfccc	-1.6390345e-06
37	0x34a42589	3.057469e-07
38	0x3691007c	4.321393e-06
39	0x27807c22	3.566172e-15
40	0xb5d22f88	-1.5660053e-06
41	0xb3bd31f2	-8.810083e-08
42	0x2e805e6a	5.8375374e-11
43	0x35643938	8.5019883e-07
44	0x35b79084	1.3676622e-06
45	0x322dd209	1.0117682e-08
46	0x01d52b34	7.8305836e-38
47	0xb6ef87c0	-7.1385584e-06
48	0xb5afdcbf	-1.3102762e-06
49	0x34dc3e38	4.1023463e-07
50	0xb5836a78	-9.791247e-07
51	0xb418218e	-1.416831e-07
52	0x34d96316	4.0491494e-07
53	0x3581e46a	9.677726e-07
54	0x80fdd898	-2.331208e-38
55	0x2394fb00	1.6152495e-17
56	0xb35fd2f2	-5.2113087e-08
57	0x92a4d01f	-1.0401161e-27
58	0xb414e89d	-1.3868198e-07
59	0x367bc0bc	3.75141e-06
60	0x35474c5f	7.424441e-07
61	0x352f88e7	6.53918e-07
62	0xb2348f9a	-1.051003e-08
63	0xb63b6ccd	-2.7928502e-06

bn1.weight f4 [64]
0	0x37886d4a	1.6263355e-05
1	0x3c9c7329	0.019097881
2	0x3b1ab41b	0.0023605886
3	0xb6efd9ea	-7.1481236e-06
4	0x3ba16058	0.004924815
5	0xbb630440	-0.0034639984
6	0x37911219	1.7293774e-05
7	0x801c64f7	-2.607613e-39
8	0x3d4d392b	0.050103348
9	0xbd420636	-0.047369204
10	0xba3101f7	-0.0006752307
11	0x3aeb9ad6	0.0017975222
12	0xbd4a0e2b	-0.049329918
13	0xb78d74f6	-1.6862974e-05
14	0xb622328f	-2.416931e-06
15	0xbced081a	-0.028934527
16	0xbd483039	-0.048874114
17	0x3d4d0626	0.05005469
18	0xbd4822f0	-0.048861444
19	0x80047712	-4.10056e-40
20	0x800b8c8e	-1.060612e-39
21	0x3cd89931	0.026440235
22	0x35e2cf63	1.689867e-06
23	0xbd462594	-0.04837568
24	0x3b609d80	0.0034273565
25	0xb90f9744	-0.00013693894
26	0x37c09005	2.2955248e-05
27	0xbd44a9bf	-0.048013445
28	0x800fe814	-1.460786e-39
29	0x3d4acd4d	0.049512196
30	0x37dc6536	2.6273174e-05
31	0xbd4fe237	-0.050752845
32	0x3d479d97	0.048734274
33	0x3c9a3a91	0.018826755
34	0xba42c350	-0.00074296165
35	0xba9a6070	-0.0011778008
36	0x3d476a49	0.048685346
37	0x3b77af00	0.0037793517
38	0x3ca8752c	0.020563684
39	0x358f2d82	1.0667575e-06
40	0xbd447fde	-0.047973506
41	0x3c9dc229	0.019257622
42	0x390eb435	0.00013609308
43	0xbd2d03d8	-0.042239994
44	0x3d49faaf	0.049311336
45	0xba58f8be	-0.00082768116
46	0x800195df	-1.45599e-40
47	0x3ca3deb6	0.020003658
48	0x3d3e37c3	0.046439897
49	0x3c94e0f8	0.01817368
50	0x3ce14a9c	0.027501397
51	0x3d1e955f	0.03871667
52	0xbb986c9c	-0.004651619
53	0x3d4f159f	0.05055773
54	0x8b8e4767	-5.4803845e-32
55	0x2fa1701f	2.9365396e-10
56	0x3a92a1f9	0.0011187188
57	0x1ca3d494	1.0841385e-21
58	0x3b35320d	0.002764824
59	0xbd44b071	-0.04801983
60	0x3d39b616	0.045339666
61	0x3d4c2983	0.049844276
62	0xbb6a0eeb	-0.0035714458
63	0xbd4af7b7	-0.049552646

bn1.bias f4 [64]
0	0xb808aa30	-3.2583426e-05
1	0xbc9cc762	-0.019138042
2	0x3b1885ec	0.0023273183
3	0xb9be8767	-0.00036340507
4	0xbafc6d8f	-0.0019258725
5	0x3b086db5	0.0020817344
6	0xb8977654	-7.2222814e-05
7	0xb2614718	-1.31128886e-08
8	0xbcc926fb	-0.02455472
9	0xbcb82395	-0.022477904
10	0xba3f7509	-0.00073035114
11	0xb9c67b76	-0.00037857488
12	0xbc24533e	-0.010029612
13	0xba0127e2	-0.00049269025
14	0xb82adb48	-4.073538e-05
15	0xbc523b98	-0.012831591
16	0xbc1d9b9a	-0.009619618
17	0xbc0e0e2e	-0.008670373
18	0xbc118a2c	-0.00888304
19	0xb6a74ce5	-4.9859395e-06
20	0xb6171618	-2.2513614e-06
21	0xbd06d595	-0.03291853
22	0xb8a39d32	-7.8017256e-05
23	0xbcbf7517	-0.023371262
24	0xb89270e8	-6.982853e-05
25	0xba1177da	-0.00055491703
26	0xb9a23849	-0.00030940984
27	0xbc14cb04	-0.009081606
28	0xb6fabcb3	-7.472548e-06
29	0xbcc5466f	-0.024081437
30	0xb9334ce3	-0.00017099413
31	0xbc0f588e	-0.00874914
32	0xbc0a1828	-0.008428611
33	0xbcc6acd9	-0.024252342
34	0xbaf4878e	-0.0018656121
35	0x3ab16850	0.0013535116
36	0xbcc95e24	-0.024581023
37	0x39837272	0.00025071535
38	0xbcb258e8	-0.02177091
39	0xb787e550	-1.6200036e-05
40	0xbc037157	-0.008022628
41	0xbcb77723	-0.022395676
42	0xb9cb0d7f	-0.00038729233
43	0xbc068f2b	-0.008212845
44	0xbc0df4dc	-0.008664336
45	0x3a66a5c5	0.00087985053
46	0xb4197e8e	-1.4295276e-07
47	0xbcae8ebe	-0.0213083
48	0xbcb4b798	-0.0220602
49	0xbcbdaf02	-0.02315474
50	0xbd06bf47	-0.03289726
51	0xbbf86ea5	-0.007581549
52	0x39d28caf	0.0004015914
53	0xbcc61b29	-0.024182873
54	0xb99a1a0f	-0.00029392584
55	0xb8129203	-3.4945097e-05
56	0x387ef870	6.0789695e-05
57	0xb8060129	-3.194917e-05
58	0xb8c29044	-9.2775124e-05
59	0xbcc35680	-0.023844957
60	0xbcb76209	-0.022385614
61	0xbc0b2d84	-0.0084947385
62	0xbb7198a2	-0.0036864658
63	0xbcc2327c	-0.023705713

bn1.running_mean f4 [64]
0	0xb502cf20	-4.873018e-07
1	0xbb880071	-0.0041504432
2	0x3ab10d8c	0.0013508066
3	0xb6969fc9	-4.48895e-06
4	0x3b4fb69c	0.0031694537
5	0x3b4ab734	0.0030931951
6	0x330806a6	3.1671014e-08
7	0x80936b70	-1.3538359e-38
8	0x3b5d80fd	0.0033798807
9	0xbb4f9492	-0.0031674248
10	0xb88a03b2	-6.581041e-05
11	0x396ce93a	0.00022593598
12	0x3b1457db	0.0022635374
13	0xb7f99cbc	-2.9756098e-05
14	0x330564fa	3.1058313e-08
15	0xbad341b8	-0.0016117608
16	0x3b07f64e	0.0020746174
17	0xbaea6b8a	-0.0017884832
18	0x3b153a76	0.002277044
19	0x000622df	5.63522e-40
20	0x80b21122	-1.6352864e-38
21	0x3bd7c0cf	0.006584264
22	0x32e5767d	2.6712991e-08
23	0xbb01647f	-0.0019743738
24	0x3a5caefe	0.000841841
25	0xb9c2cd82	-0.0003715568
26	0xb7fe8179	-3.033945e-05
27	0x3aa390de	0.0012479087
28	0x003fdb5b	5.864326e-39
29	0x3b2176ba	0.0024637417
30	0x379ccd96	1.8692383e-05
31	0x3b222507	0.0024741308
32	0xbafabdfe	-0.0019130108
33	0xbbbfe574	-0.0058562104
34	0xb68df7e6	-4.2309866e-06
35	0xba5da170	-0.0008454537
36	0x3b2e70c4	0.0026617507
37	0xba2215d4	-0.0006183062
38	0xbbc684e5	-0.0060583227
39	0x317fcd60	3.7224126e-09
40	0x3ae4cbac	0.0017455718
41	0xbbad4d35	-0.005288745
42	0x360c9420	2.0947846e-06
43	0x3a5ac678	0.0008345614
44	0xbb11aa7b	-0.0022226858
45	0x3aa14ff5	0.0012307154
46	0x800a5969	-9.50429e-40
47	0xbb982347	-0.0046428773
48	0x3b162f2c	0.00229163
49	0xbba30351	-0.0049747606
50	0x3be42c7c	0.0069633108
51	0xbaa8a354	-0.0012866058
52	0xbaca4b80	-0.0015433878
53	0x3b3a4dc8	0.002842771
54	0x8a6c0828	-1.1364521e-32
55	0x2d1eaa70	9.019105e-12
56	0xb704b6a0	-7.910334e-06
57	0x9c926cce	-9.689595e-22
58	0xb8f75166	-0.000117930394
59	0xbb4066b6	-0.0029358095
60	0x3b2bd7be	0.0026221122
61	0xbb0623e4	-0.002046817
62	0xbaf54d3f	-0.0018715038
63	0xbb568026	-0.003273019

bn1.running_var f4 [64]
0	0x2c71429a	3.4285131e-12
1	0x39fa8b4e	0.00047787506
2	0x39178913	0.00014451546
3	0x319bb2cc	4.5314206e-09
4	0x39a2121e	0.00030912546
5	0x3920fbb9	0.00015352563
6	0x2c9de593	4.4876962e-12
7	0x00000004	6e-45
8	0x3b9aec7a	0.0047278972
9	0x3b6b8f4a	0.0035943561
10	0x33a18999	7.5221756e-08
11	0x392d7f6d	0.00016546035
12	0x3b8dd293	0.004328081
13	0x3253f2df	1.2337039e-08
14	0x2961843a	5.0074724e-14
15	0x3a6f704b	0.00091338594
16	0x3b928f96	0.004472683
17	0x3b951eb2	0.0045507783
18	0x3b895ab9	0.004191723
19	0x00000004	6e-45
20	0x00000004	6e-45
21	0x3aa21962	0.0012367184
22	0x2ad3c394	3.761684e-13
23	0x3b897fa5	0.0041961246
24	0x38f74b66	0.00011791922
25	0x388cca29	6.7133755e-05
26	0x341dfb51	1.4713193e-07
27	0x3b54c911	0.0032468478
28	0x00000004	6e-45
29	0x3b861180	0.0040914416
30	0x37b757bc	2.1856154e-05
31	0x3b99ab9c	0.004689647
32	0x3b910328	0.004425425
33	0x3a21cbb6	0.0006172018
34	0x3524b4ae	6.1357684e-07
35	0x38a2542b	7.7404395e-05
36	0x3b9735f9	0.0046145883
37	0x39102cb9	0.0001374957
38	0x3a156607	0.0005699102
39	0x26828614	9.056904e-16
40	0x3b7ee048	0.0038891006
41	0x3a128557	0.0005589327
42	0x33024671	3.033205e-08
43	0x3acef54e	0.0015789659
44	0x3b796d10	0.003805939
45	0x38f00a2a	0.00011445985
46	0x00000004	6e-45
47	0x3a1319ee	0.0005611469
48	0x3b6fee14	0.0036610411
49	0x3a03f18c	0.00050332467
50	0x3aad9448	0.0013243044
51	0x3aa0c2fa	0.0012265139
52	0x39be519b	0.00036300425
53	0x3b977a46	0.0046227304
54	0x00000004	6e-45
55	0x1dbf05df	5.056335e-21
56	0x3932fc19	0.00017069317
57	0x007b121c	1.1302262e-38
58	0x39206b14	0.00015298679
59	0x3b7febd7	0.0039050484
60	0x3b75b450	0.0037491508
61	0x3b917419	0.0044388887
62	0x39df50e0	0.0004259413
63	0x3b8f1ac5	0.004367205

fc2.weight f4 [32, 64]
0	0x361956a4	2.2849208e-06
1	0x3b3ddf34	0.002897215
2	0xba96223c	-0.0011454294
3	0x3931a8f1	0.00016942971
4	0x3a888426	0.001041536
5	0x3b8c63ce	0.0042843586
6	0xb7eeb67b	-2.8456785e-05
7	0xb2981c5a	-1.7708022e-08
8	0xbbfefa9a	-0.007781339
9	0xbc35c6d1	-0.011094765
10	0xb837af83	-4.3794058e-05
11	0xb9ca99d2	-0.00038643047
12	0xbc1a1806	-0.009405142
13	0xb9496d18	-0.00019209494
14	0x353fee40	7.1499744e-07
15	0xbc663f83	-0.014053228
16	0xbc282ede	-0.01026508
17	0xbc2f3496	-0.01069369
18	0xbc062ce3	-0.008189413
19	0xb447ceeb	-1.8608596e-07
20	0xb5ff99bf	-1.9043727e-06
21	0x3bf8d20f	0.0075934003
22	0x36e32f71	6.77065e-06
23	0xbc1cf70f	-0.009580388
24	0x3ae84242	0.0017719942
25	0xb963dbcb	-0.00021730286
26	0x39a237b8	0.00030940562
27	0xbc3041cf	-0.0107578775
28	0xb6fd46d1	-7.5482317e-06
29	0xbc37116c	-0.011173587
30	0x3b055e4f	0.0020350402
31	0xbc0f6a69	-0.0087533975
32	0xbc43d1f2	-0.01195191
33	0x3b7d6256	0.003866335
34	0xb83c2daa	-4.486522e-05
35	0xbb777641	-0.0037759694
36	0xbc01ef50	-0.007930592
37	0x3a741ab5	0.0009311841
38	0x3c077b76	0.0082691815
39	0xb701498e	-7.706125e-06
40	0xbc19e0bb	-0.009391959
41	0x3aa29287	0.0012403288
42	0x3959f2fb	0.0002078525
43	0xbc3af65a	-0.011411274
44	0xbc3b92df	-0.011448591
45	0x3a9bcaf1	0.0011886043
46	0x3408ebd8	1.2751786e-07
47	0x3b40e5a3	0.002943375
48	0xbbf66cb9	-0.007520285
49	0x3b6f807f	0.0036545095
50	0x3bf1eed5	0.0073832073
51	0xbc1fbcda	-0.009749616
52	0xba1af403	-0.00059109944
53	0xbc0eeb93	-0.008723157
54	0xb92738d3	-0.0001594753
55	0x36d4b5eb	6.3392704e-06
56	0xbaaa3c0c	-0.0012987866
57	0xb6becd27	-5.686324e-06
58	0xbb3d043d	-0.0028841638
59	0xbc0c3b97	-0.008559129
60	0xbc470234	-0.012146521
61	0xbc21da2b	-0.009878675
62	0xbb40fd62	-0.0029447903
63	0xbc28442a	-0.010270158
64	0xb6ddfa18	-6.615428e-06
65	0xbb7bf183	-0.0038443513
66	0xbb91d778	-0.0044507347
67	0xb871cc8b	-5.7649373e-05
68	0xbba315b4	-0.0049769524
69	0xbb6167ce	-0.0034394148
70	0xb7a4670e	-1.9598312e-05
71	0x33fade2f	1.1681947e-07
72	0x3c263c9d	0.010146287
73	0x3c30f96a	0.010801652
74	0x3751d266	1.2506358e-05
75	0xba6c8590	-0.0009022588
76	0x3c1440df	0.00904867
77	0x39b12836	0.0003379003
78	0x36f14f64	7.191602e-06
79	0x3c8a7268	0.016900256
80	0x3c0462a1	0.008080156
81	0x3c143388	0.009045489
82	0x3c32f60f	0.010922923
83	0x353d4bd0	7.051831e-07
84	0xb5df054e	-1.6616339e-06
85	0xbb63526c	-0.0034686578
86	0xb7c17ab3	-2.306453e-05
87	0x3c4f6932	0.012659358
88	0xba9809a8	-0.0011599557
89	0xb8f406ac	-0.000116360694
90	0xba4483c7	-0.0007496443
91	0x3c4dfa9c	0.012571957
92	0x366e7d1c	3.5537587e-06
93	0x3bc9405a	0.0061417045
94	0xbabc6d85	-0.0014375901
95	0x3c1d157d	0.009587643
96	0x3c0ce8ba	0.008600408
97	0xbb838f25	-0.004014867
98	0xb8f81a20	-0.00011830428
99	0xbb34d278	-0.002759127
100	0x3c17bc3a	0.009261185
101	0xbb30416d	-0.0026894466
102	0xbc1926a4	-0.009347592
103	0x36169564	2.2438699e-06
104	0x3c0d3195	0.008617778
105	0xbbac1f3f	-0.0052527483
106	0xb8c5e37d	-9.436065e-05
107	0x3c32f4f8	0.010922663
108	0x3c1d2163	0.00959048
109	0x3b40de3b	0.0029429335
110	0xb3646532	-5.3177423e-08
111	0xbc26ed92	-0.010188477
112	0x3c1ff315	0.009762545
113	0xbb685502	-0.003545106
114	0xbb62d2e7	-0.003461057
115	0x3c4492b5	0.011997868
116	0x3b0b9097	0.00212959
117	0x3bfcf9d4	0.0077202115
118	0x388b7439	6.649685e-05
119	0x3782ae81	1.5578467e-05
120	0xba1aa9db	-0.0005899944
121	0xb6c25c56	-5.7924e-06
122	0x3a5181b9	0.00079920475
123	0x3c2f8841	0.010713638
124	0x3c28648f	0.010277881
125	0x3c1ba9b8	0.009500913
126	0x3af742af	0.0018864478
127	0x3c14ef47	0.009090251
128	0xb6649077	-3.4058737e-06
129	0x3b77ae43	0.0037793077
130	0x3b63bd38	0.0034750234
131	0x38366e85	4.349511e-05
132	0x3bdb54bf	0.006693452
133	0x3ad3d281	0.0016160758
134	0xb7d869b1	-2.5798423e-05
135	0xb381a833	-6.037626e-08
136	0xbc1e34fa	-0.009656185
137	0xbc12f3f8	-0.0089692995
138	0xb932e823	-0.0001706188
139	0xba9575ea	-0.0011402939
140	0xbc1e22ed	-0.009651882
141	0xb9615702	-0.00021490085
142	0x35d37bb9	1.5756733e-06
143	0xbc8454b6	-0.016153675
144	0xbc200eae	-0.009769125
145	0xbc2318d3	-0.009954649
146	0xbc1a9eec	-0.009437304
147	0x36afdc32	5.2410405e-06
148	0xb3393d8e	-4.3129653e-08
149	0x3be73bb4	0.0070566777
150	0xb64a8eb4	-3.018341e-06
151	0xbbedf006	-0.007261279
152	0x39ae3cdf	0.0003323322
153	0xba846cc7	-0.0010103219
154	0xb9fd33a2	-0.0004829439
155	0xbc10cad3	-0.00883742
156	0x37849a2a	1.5807414e-05
157	0xbc284d63	-0.010272357
158	0x3abb10c6	0.0014271967
159	0xbc293173	-0.010326731
160	0xbc3e9531	-0.01163225
161	0x3c0fa9e3	0.0087685315
162	0x39e8f9bc	0.00044436555
163	0xba0dbab4	-0.0005406544
164	0xbc118de9	-0.008883932
165	0x38e44b24	0.00010885883
166	0x3b216987	0.002462955
167	0xb6643a07	-3.4008424e-06
168	0xbc0b7a6c	-0.008513074
169	0xbb843a10	-0.004035242
170	0x393e877b	0.00018170282
171	0xbc24d17e	-0.010059712
172	0xbc0a4652	-0.008439617
173	0xb9e228e4	-0.00043136545
174	0x3375c572	5.7223083e-08
175	0xba86c009	-0.001028062
176	0xbc0ec928	-0.008714952
177	0x3b9818f8	0.0046416484
178	0x3b8acab1	0.0042355885
179	0xbc626d05	-0.013819938
180	0x3a90a370	0.0011035036
181	0xbbe5c1b0	-0.0070116147
182	0xb810ac43	-3.4492707e-05
183	0xb7ffd0eb	-3.0495654e-05
184	0x3aff4c83	0.0019477758
185	0xb77696a7	-1.4697819e-05
186	0xbadf6771	-0.0017044378
187	0xbc3478d9	-0.01101514
188	0xbc061cb1	-0.0081855515
189	0xbc1e0505	-0.009644751
190	0xbb6b4c71	-0.0035903717
191	0xbc47af7c	-0.012187835
192	0x373c5e73	1.1227664e-05
193	0xb9b3df4c	-0.0003430791
194	0x39bccf52	0.0003601262
195	0x376e51d6	1.4204959e-05
196	0xb8a34371	-7.7850076e-05
197	0x3b58a8d2	0.003305961
198	0x37630512	1.3531435e-05
199	0xb2abd0f4	-2.0002041e-08
200	0xbc31bc19	-0.010848069
201	0xbc47d273	-0.012196171
202	0xb55e2be6	-8.2765325e-07
203	0x3b4e5c63	0.0031488172
204	0xbc1c2c85	-0.009532099
205	0x39f2fbb0	0.0004634536
206	0xb7ca9ef0	-2.4154288e-05
207	0xbc5249a6	-0.012834942
208	0xbc107b0b	-0.008818398
209	0xbc59ad19	-0.013285899
210	0xbc5bc11c	-0.01341274
211	0x363a1777	2.7729818e-06
212	0xb5bf5dca	-1.4257905e-06
213	0x3bd6be81	0.0065534716
214	0xb5c0880d	-1.4344711e-06
215	0xbc1ef530	-0.009702012
216	0x3b9b18a8	0.004733164
217	0xba3e295a	-0.00072540867
218	0x3a1237ed	0.00055777916
219	0xbc3436d1	-0.010999397
220	0x36d6dd2d	6.4034452e-06
221	0xbc3b4548	-0.011430092
222	0x388beaa4	6.671742e-05
223	0xbc1ea0a7	-0.009681857
224	0xbc10d8e3	-0.008840772
225	0x3c048f95	0.008090873
226	0xb9494586	-0.00019194753
227	0xba62c64d	-0.0008650765
228	0xbc29b791	-0.010358707
229	0x3a81c887	0.0009901681
230	0x3ab83969	0.0014055195
231	0x3503d636	4.911302e-07
232	0xbc08b43b	-0.008343752
233	0x3c1cee39	0.009578281
234	0x38292875	4.033042e-05
235	0xbc64bb48	-0.013960667
236	0xbc1e4323	-0.009659561
237	0xbb4ad6d2	-0.0030950797
238	0xb2b31659	-2.0848505e-08
239	0x3bae8ec8	0.0053270794
240	0xbc2be2ed	-0.010491115
241	0x3c507edc	0.012725558
242	0x3a5420d7	0.0008092052
243	0xbc551f1b	-0.013007904
244	0xbbbdb472	-0.005789333
245	0xbc170076	-0.0092164185
246	0xb8f89e93	-0.00011855098
247	0xb777b0ab	-1.4763481e-05
248	0x3b0c3211	0.0021392147
249	0xb7a99bd9	-2.0218942e-05
250	0xbb799e13	-0.0038088604
251	0xbc35638b	-0.011071096
252	0xbc0aa2b4	-0.008461643
253	0xbc13c495	-0.009019037
254	0xbb856061	-0.004070327
255	0xbc192aff	-0.00934863

fc2.bias f4 [32]
0	0xb5dee9ba	-1.6608312e-06
1	0xb74f1d75	-1.234502e-05
2	0x379c9fb2	1.8671013e-05
3	0xb70d5a0c	-8.425221e-06
4	0xb803e489	-3.1445674e-05
5	0xb617614f	-2.2557394e-06
6	0x36012b80	1.9247818e-06
7	0xb52a58e0	-6.3459265e-07
8	0xb6ee01c9	-7.0931605e-06
9	0xb6a5a51c	-4.9366045e-06
10	0x3585b05c	9.9606e-07
11	0xb66c6f0e	-3.5231383e-06
12	0x36e0440d	6.6836424e-06
13	0x36a26ff7	4.8410107e-06
14	0x362b8ca4	2.556285e-06
15	0x372df93f	1.0369636e-05
16	0x370393b8	7.842602e-06
17	0xb803e542	-3.1446347e-05
18	0xb78f1a47	-1.7059165e-05
19	0xb6165360	-2.2400272e-06
20	0x3729b9fb	1.0116487e-05
21	0xb5bc3970	-1.4023808e-06
22	0x3703b24e	7.849723e-06
23	0x34efeea8	4.4690864e-07
24	0xb6bc2c1c	-5.6079716e-06
25	0xb69beb9a	-4.6467876e-06
26	0xb70b7eae	-8.3145405e-06
27	0x370d9b44	8.4404055e-06
28	0x3510c588	5.3931626e-07
29	0x341d4936	1.4648398e-07
30	0x3825016f	3.93404e-05
31	0x37004a51	7.646698e-06

bn2.weight f4 [32]
0	0x3d979399	0.07401199
1	0xbd9adb49	-0.075613566
2	0x3d9dca5d	0.07704613
3	0x3d9b5ad8	0.075856864
4	0x3d9f389a	0.07774468
5	0x3d9e99c4	0.07744172
6	0x3ca6cc71	0.020361157
7	0x3d99f4f7	0.075174265
8	0x3d99c83e	0.07508896
9	0x3d98ac3e	0.074547276
10	0x3cb5a88a	0.022175092
11	0x3cb34e02	0.021887783
12	0x3d9af5c5	0.07566408
13	0x3d9c1881	0.07621861
14	0x3d9e4ca5	0.077294625
15	0x3d9a4937	0.07533496
16	0x3d981bcf	0.07427179
17	0xbd9bee39	-0.07613797
18	0xbd9423e5	-0.07233409
19	0xbcae4db8	-0.021277294
20	0x3d9a33c3	0.07529404
21	0xbcc4f034	-0.024040319
22	0x3d978c20	0.073997736
23	0x3caaf518	0.020868823
24	0x3d9b8824	0.07594326
25	0x3cbcef15	0.023063222
26	0xbcabd359	-0.020974802
27	0x3d9a58fb	0.07536503
28	0x3d9ee231	0.07757986
29	0xbca80125	-0.020508358
30	0x3d9a301a	0.07528706
31	0xbd9e8774	-0.077406794

bn2.bias f4 [32]
0	0xbcea7000	-0.028617859
1	0xbcd2f32f	-0.025750725
2	0xbce83eed	-0.028350318
3	0xbcd68d74	-0.026190497
4	0xbce6fbbd	-0.02819621
5	0xbceb94cb	-0.028757473
6	0x3c1e2117	0.009651444
7	0xbcd7ffab	-0.02636703
8	0xbcd7ab69	-0.026326852
9	0xbcddb25b	-0.027062586
10	0x3c153629	0.009107151
11	0x3c0c9d5c	0.008582439
12	0xbce64cdb	-0.02811282
13	0xbcd77bfa	-0.026304234
14	0xbcd410c3	-0.025886899
15	0xbcd20fc9	-0.025642293
16	0xbcd2a658	-0.025714085
17	0xbcd4b1bb	-0.025963655
18	0xbcc8099b	-0.024418643
19	0x3c06e9d3	0.008234459
20	0xbcd53b22	-0.026029173
21	0x3c1e0c91	0.009646551
22	0xbccc7fbd	-0.024963254
23	0x3bf9a4d5	0.0076185265
24	0xbce2bc7f	-0.027677773
25	0x3c191a87	0.0093447035
26	0x3c0bbc97	0.00852885
27	0xbce5f4b8	-0.028070793
28	0xbcd6f482	-0.026239637
29	0x3c0d3396	0.008618256
30	0xbce0d111	-0.02744344
31	0xbcd771d1	-0.02629939

bn2.running_mean f4 [32]
0	0xbb3c215b	-0.0028706405
1	0x3b367610	0.0027841367
2	0xbb37c8b9	-0.0028043224
3	0xbb47552d	-0.003041576
4	0xbb378e72	-0.0028008488
5	0xbb32c90d	-0.002728048
6	0x3aa6939e	0.0012708788
7	0xbb2f7a8b	-0.0026775922
8	0xbb29954c	-0.0025876341
9	0xbb315f68	-0.0027064923
10	0x3ab55270	0.0013833772
11	0x3aa65ae1	0.0012691879
12	0xbb33c222	-0.0027428945
13	0xbb2f3eee	-0.002674039
14	0xbb339d95	-0.0027407159
15	0xbb3b35fd	-0.0028566115
16	0xbb26049c	-0.0025332337
17	0x3b31eb6e	0.0027148384
18	0x3b39047f	0.002823144
19	0xbab2982b	-0.0013625672
20	0xbb36f817	-0.002791887
21	0xbac68d3e	-0.0015148295
22	0xbb14512e	-0.0022631395
23	0x3ac7bb06	0.0015238232
24	0xbb3e2228	-0.0029012058
25	0x3ab5eea0	0.001388032
26	0xbabb7397	-0.0014301416
27	0xbb2f38d4	-0.0026736753
28	0xbb31222f	-0.0027028432
29	0xbacfaee2	-0.0015844966
30	0xbb34f784	-0.002761335
31	0x3b40e3d4	0.002943267

bn2.running_var f4 [32]
0	0x376ca7d3	1.4105771e-05
1	0x3757dbeb	1.2866202e-05
2	0x375d6e88	1.3198362e-05
3	0x377975de	1.4869e-05
4	0x3760385a	1.3364561e-05
5	0x3751a808	1.2496494e-05
6	0x36602a5a	3.3403253e-06
7	0x37446c47	1.1707721e-05
8	0x3746f16b	1.1857929e-05
9	0x37554eb8	1.27141175e-05
10	0x36893a20	4.089685e-06
11	0x3639457c	2.7607593e-06
12	0x374feb8a	1.2393002e-05
13	0x3747f0f1	1.1917423e-05
14	0x37591f56	1.2941504e-05
15	0x376a222f	1.3955446e-05
16	0x37331324	1.0673688e-05
17	0x37561256	1.2759663e-05
18	0x375b327e	1.3065173e-05
19	0x369309e5	4.3820933e-06
20	0x37624e16	1.34888305e-05
21	0x369e2b73	4.713825e-06
22	0x370eab17	8.5036945e-06
23	0x36b8aeff	5.5039995e-06
24	0x37621504	1.3475543e-05
25	0x366e8b80	3.5545963e-06
26	0x3687bc9f	4.045272e-06
27	0x3745d19f	1.1790921e-05
28	0x37456853	1.1766405e-05
29	0x36b7841b	5.469204e-06
30	0x3751aa8c	1.2497079e-05
31	0x3770f4a2	1.4362073e-05

fc3.weight f4 [16, 32]
0	0x801e2398	-2.767834e-39
1	0x01d6b864	7.887577e-38
2	0x0207cb23	9.976531e-38
3	0x0141b23c	3.5576378e-38
4	0x822d0060	-1.271014e-37
5	0x80749668	-1.0706873e-38
6	0x00d27db0	1.9330542e-38
7	0x020f37b0	1.0521962e-37
8	0x00020f66	1.89195e-40
9	0x001dae00	2.725649e-39
10	0x821305e8	-1.0801549e-37
11	0x8007352a	-6.6192e-40
12	0x0002e63b	2.66262e-40
13	0x01a4150e	6.02743e-38
14	0x80ed4160	-2.1788465e-38
15	0x01d3ad80	7.775812e-38
16	0x011cbb20	2.878693e-38
17	0x800c904d	-1.153791e-39
18	0x01d67db8	7.879158e-38
19	0x020021e4	9.413681e-38
20	0x0003d0d6	3.50423e-40
21	0x024c5e05	1.5014535e-37
22	0x81682e7c	-4.264502e-38
23	0x819f6448	-5.855127e-38
24	0x818074de	-4.718747e-38
25	0x801d58c0	-2.695067e-39
26	0x80bb08a0	-1.7176332e-38
27	0x81e5ab70	-8.4367315e-38
28	0x8188e7e0	-5.0291234e-38
29	0x81f797bc	-9.09512e-38
30	0x81fdb25a	-9.3193444e-38
31	0x8005b489	-5.23941e-40
32	0x3cb85ac6	0.022504222
33	0x3ca968bf	0.02067983
34	0x3ccb257e	0.024798151
35	0x3ce5af9d	0.02803784
36	0x3cc9852e	0.024599638
37	0x3cca7592	0.024714265
38	0xbbb2731e	-0.005445852
39	0x3cd0faab	0.025510153
40	0x3cac64ad	0.0210441
41	0x3cbe09bf	0.023198007
42	0xbbe7d0e9	-0.0070744646
43	0xbbc0b3ba	-0.0058808
44	0x3ca1ebfb	0.019765845
45	0x3cae4d8b	0.02127721
46	0x3cb15bc1	0.021650197
47	0x3ce1f48b	0.027582427
48	0x3cd78878	0.02631019
49	0x3cc1e8dd	0.023670608
50	0x3cd7acb6	0.026327472
51	0xbbbaa7cc	-0.0056962725
52	0x3cbf752d	0.023371303
53	0xbbe068d6	-0.006848435
54	0x3ca114c3	0.01966322
55	0xbb8d4879	-0.004311618
56	0x3cc19992	0.023632798
57	0xbbe62db1	-0.00702449
58	0xbbbb14b2	-0.005709254
59	0x3ccd3588	0.02504994
60	0x3cb5f3c6	0.022210967
61	0xbc012c87	-0.007884151
62	0x3ccbab3c	0.024861924
63	0x3ce9f2ea	0.028558213
64	0x3cbeba1b	0.023282101
65	0x3cc2d657	0.023783846
66	0x3cd1b6e7	0.02559991
67	0x3ca3aa9a	0.01997881
68	0x3cba86bb	0.022769323
69	0x3cc449de	0.023961004
70	0xbbe5b9b4	-0.007010663
71	0x3ccbd4a9	0.024881678
72	0x3cce2485	0.025163898
73	0x3caa0210	0.020752937
74	0xbbed50dd	-0.0072423057
75	0xbba3b2d2	-0.0049956823
76	0x3cc804f3	0.024416422
77	0x3cc28a3a	0.023747552
78	0x3cb2cab6	0.021825176
79	0x3cc5cde4	0.024146028
80	0x3cc16071	0.023605557
81	0x3cce2fb7	0.025169237
82	0x3cbd4d27	0.023108078
83	0xbbb8012e	-0.005615375
84	0x3cc43d78	0.023955092
85	0xbbf7a6c9	-0.007557724
86	0x3cbb58d8	0.022869512
87	0xbbd74f9a	-0.0065707685
88	0x3cb828a2	0.022480313
89	0xbbf16382	-0.0073665986
90	0xbbc1fb6f	-0.005919866
91	0x3cbe3da5	0.023222754
92	0x3cbeb32c	0.023278795
93	0xbbddf33d	-0.006773381
94	0x3ccb7b11	0.024838956
95	0x3cdc1686	0.026866209
96	0x3cc5803b	0.024108997
97	0x3cc1bee0	0.023650587
98	0x3cdfdec7	0.027327908
99	0x3cdf8048	0.027282849
100	0x3c9b20fd	0.018936628
101	0x3cd36db2	0.025809143
102	0xbbbf4edf	-0.0058382596
103	0x3caadb29	0.020856457
104	0x3cbecc8e	0.023290899
105	0x3caf77f5	0.021419505
106	0xbc16cfad	-0.009204787
107	0xbc0af889	-0.008482107
108	0x3cbdd807	0.023174299
109	0x3cd249bd	0.025669927
110	0x3cb5172f	0.022105781
111	0x3cbd9339	0.02314149
112	0x3ca50990	0.020146161
113	0x3cc13818	0.023586318
114	0x3ca61f00	0.020278454
115	0xbb6fccff	-0.0036590693
116	0x3cbb1a82	0.022839788
117	0xbbbc6f63	-0.005750583
118	0x3ce142d0	0.027497679
119	0xbbe49818	-0.006976139
120	0x3cc9b214	0.024621047
121	0xbbfd75e6	-0.007735002
122	0xbbc76f0d	-0.0060862363
123	0x3cc9fa61	0.024655523
124	0x3cc178cd	0.023617173
125	0xbbcf2310	-0.0063213184
126	0x3cb4942d	0.022043312
127	0x3cfd040b	0.030885717
128	0x3cc3ab2d	0.023885334
129	0x3cd6d4df	0.026224552
130	0x3ca9c09e	0.02072173
131	0x3ccfceba	0.02536713
132	0x3cccf9b9	0.02502142
133	0x3cba3901	0.02273226
134	0xbbf8cf48	-0.007593069
135	0x3cdd5c13	0.027021443
136	0x3cc0adf5	0.02352045
137	0x3cbd45e7	0.023104621
138	0xbbc12341	-0.005894095
139	0xbbb63628	-0.005560655
140	0x3cc6f476	0.02428649
141	0x3c9e33c8	0.0193118
142	0x3ce10c38	0.027471647
143	0x3cad02b6	0.021119457
144	0x3cb0f2b6	0.021600109
145	0x3cc5b5d4	0.024134554
146	0x3cb5cac4	0.022191413
147	0xbbcbc3ac	-0.0062183943
148	0x3ca436e9	0.020045714
149	0xbbd2fd01	-0.006438852
150	0x3c9ac5f8	0.018893227
151	0xbbe74d99	-0.007058811
152	0x3cde386f	0.027126519
153	0xbbc1d64a	-0.005915438
154	0xbbdfffb8	-0.006835904
155	0x3cd46653	0.025927698
156	0x3cc9ff8a	0.024657983
157	0xbb91549a	-0.004435134
158	0x3cc4ddaf	0.024031488
159	0x3ce77c82	0.028257612
160	0x3cf87fe6	0.030334424
161	0x3c97acab	0.018514952
162	0x3cb8d3a8	0.022561863
163	0x3ccb0e75	0.024787167
164	0x3ccb9150	0.024849564
165	0x3cdbcdd0	0.026831537
166	0xbc05609b	-0.008140708
167	0x3c9df195	0.019280234
168	0x3cace4a5	0.02110512
169	0x3cd88f6f	0.026435582
170	0xbbf6b778	-0.0075291954
171	0xbbb040b8	-0.005378809
172	0x3cc4c38a	0.024019022
173	0x3ccfbc4a	0.025358338
174	0x3cb26162	0.021774951
175	0x3cb85fd6	0.022506636
176	0x3c9f8eb1	0.01947722
177	0x3cac168e	0.021006849
178	0x3cb1e405	0.021715173
179	0xbba0d6f6	-0.004908438
180	0x3cb26498	0.021776482
181	0xbbe17cd2	-0.006881335
182	0x3cc34a19	0.023839043
183	0xbbbe404d	-0.005806005
184	0x3cdcb1a6	0.026940178
185	0xbc15e778	-0.009149425
186	0xbbcb64c6	-0.0062070815
187	0x3c99181e	0.018688258
188	0x3cb33870	0.021877497
189	0xbbd51fa1	-0.0065040146
190	0x3cd3210f	0.0257726
191	0x3cde55ee	0.027140584
192	0x3cb7499c	0.022373967
193	0x3ce2ee4f	0.027701525
194	0x3ca17085	0.019706974
195	0x3cbf097a	0.023319948
196	0x3cc2bbfc	0.023771279
197	0x3cd92ecd	0.026511574
198	0xbbb86c80	-0.0056281686
199	0x3cb20135	0.021729091
200	0x3c9bd558	0.019022629
201	0x3cd2cf01	0.025733473
202	0xbc2cec0f	-0.010554328
203	0xbbf4e23b	-0.007473258
204	0x3cc1eeb3	0.023673391
205	0x3cccaa38	0.02498351
206	0x3cdbbce1	0.026823463
207	0x3cc41feb	0.023941
208	0x3cb335b5	0.021876195
209	0x3cb4e370	0.022081107
210	0x3cb33c67	0.021879388
211	0xbbdfa19c	-0.0068246853
212	0x3cca8aaa	0.024724323
213	0xbc109dca	-0.008826682
214	0x3cc3d262	0.02390403
215	0xbbf36c1e	-0.00742866
216	0x3caa48bc	0.020786636
217	0xbc09becc	-0.008407306
218	0xbbf3a8af	-0.00743588
219	0x3cc3b4b8	0.023889884
220	0x3ce71ab5	0.028210977
221	0xbb9cf444	-0.004789861
222	0x3cb4b6ef	0.022059886
223	0x3cbc0460	0.022951305
224	0x3cc76bf7	0.024343474
225	0x3cad4268	0.021149829
226	0x3cee8a96	0.029118817
227	0x3cb142d1	0.021638306
228	0x3cc73e96	0.024321835
229	0x3ce78918	0.028263614
230	0xbbc054b2	-0.0058694715
231	0x3cb73496	0.022363942
232	0x3cb5633e	0.022142049
233	0x3ca6af00	0.020347118
234	0xbbff3509	-0.0077883047
235	0xbbcef705	-0.006316068
236	0x3cc09af1	0.023511382
237	0x3cba5a49	0.02274813
238	0x3cce7d53	0.025206244
239	0x3ccbc646	0.024874818
240	0x3cc6aa05	0.024250994
241	0x3cd1b081	0.025596859
242	0x3ca32045	0.019912848
243	0xbb82a58c	-0.00398702
244	0x3ca13a65	0.019681165
245	0xbc03f1ba	-0.008053238
246	0x3ca4c308	0.02011253
247	0xbbc486fe	-0.0059975376
248	0x3cc4d1f9	0.024025904
249	0xbc048e9e	-0.008090643
250	0xbb9d2c32	-0.0047965283
251	0x3ce28f73	0.027656293
252	0x3cb04046	0.021515023
253	0xbbc3d92f	-0.005976818
254	0x3ca1ed84	0.019766577
255	0x3caf6450	0.021410137

fc3.bias f4 [16]
0	0x817d18bc	-4.6486507e-38
1	0x35eed06b	1.779304e-06
2	0xb78fef01	-1.7158223e-05
3	0x3580037f	9.537761e-07
4	0x36ca0603	6.020769e-06
5	0xb702e349	-7.801523e-06
6	0xb5fa4fec	-1.8649712e-06
7	0x374432c4	1.169433e-05
8	0xb6f4c220	-7.294366e-06
9	0x0207ef1e	9.986857e-38
10	0x81de64c8	-8.1694535e-38
11	0x339dc060	7.345875e-08
12	0x3659eb84	3.2472608e-06
13	0x80554db0	-7.833886e-39
14	0x3663eeb1	3.3964573e-06
15	0x35aaed52	1.2735056e-06

bn3.weight f4 [16]
0	0x800c9fa3	-1.159293e-39
1	0x3e5a2957	0.21304832
2	0x3e5d5968	0.21616137
3	0x3e5a80e7	0.21338235
4	0x3e5d3989	0.21603979
5	0x3e5b5d3b	0.21422283
6	0x3e58ff07	0.21191035
7	0x3e57e461	0.21083213
8	0x3e58c31d	0.2116818
9	0x00081a5c	7.4414e-40
10	0x000b255f	1.023597e-39
11	0x3e5c92ec	0.21540421
12	0x3e591b32	0.2120178
13	0x8004cdd2	-4.41176e-40
14	0x3e56b8f3	0.2096899
15	0x3e5629b5	0.20914347

bn3.bias f4 [16]
0	0x8000d88c	-7.7682e-41
1	0x3dbb3c14	0.09142318
2	0x3dbcd862	0.09220959
3	0x3dbbbd37	0.09166949
4	0x3db9b5b2	0.09067859
5	0x3dbb462b	0.09144243
6	0x3dbb60fd	0.091493584
7	0x3db49bcf	0.08818781
8	0x3db610ac	0.08889899
9	0x80058bdf	-5.09354e-40
10	0x8004e20c	-4.48432e-40
11	0x3dbacc90	0.091210485
12	0x3db9da96	0.09074895
13	0x8007afc9	-7.05908e-40
14	0x3db55ba5	0.088553704
15	0x3db6503c	0.08902022

bn3.running_mean f4 [16]
0	0x80358db3	-4.918113e-39
1	0x3b44c643	0.00300254
2	0x3b41a04e	0.0029545012
3	0x3b403a50	0.0029331632
4	0x3b452dde	0.0030087153
5	0x3b35ea18	0.002775794
6	0x3b3c425b	0.0028726074
7	0x3b3b82b5	0.0028611843
8	0x3b397083	0.0028295822
9	0x8013cbda	-1.818003e-39
10	0x00089b7f	7.90465e-40
11	0x3b41ec89	0.0029590449
12	0x3b3f0788	0.0029148776
13	0x003ab4e7	5.391354e-39
14	0x3b415cea	0.0029504844
15	0x3b3eea5c	0.0029131388

bn3.running_var f4 [16]
0	0x00000004	6e-45
1	0x383b4547	4.4648794e-05
2	0x383bb52a	4.4752996e-05
3	0x3839568a	4.4188033e-05
4	0x3838e466	4.408173e-05
5	0x382b90ed	4.090455e-05
6	0x38409a60	4.592014e-05
7	0x38313fb3	4.2259413e-05
8	0x3834ea72	4.313369e-05
9	0x00000004	6e-45
10	0x00000004	6e-45
11	0x383b0916	4.4592736e-05
12	0x3840ccfe	4.596728e-05
13	0x00000004	6e-45
14	0x383635dd	4.3442345e-05
15	0x3831ece1	4.24207e-05

fc4.weight f4 [1, 16]
0	0x8002abf2	-2.45353e-40
1	0xbe6cac2e	-0.23112556
2	0xbe6fbff5	-0.2341307
3	0xbe6cd9f5	-0.23130019
4	0xbe6f182e	-0.23349068
5	0xbe6daad0	-0.23209691
6	0xbe6baa4d	-0.23014183
7	0xbe698abd	-0.2280683
8	0xbe6afe93	-0.22948675
9	0x00057608	5.01519e-40
10	0x80049275	-4.19881e-40
11	0xbe6e67b6	-0.2328175
12	0xbe6b8db2	-0.23003271
13	0x80058bf0	-5.09378e-40
14	0xbe68a8a3	-0.2272058
15	0xbe6891bf	-0.22711848
