models/odd_even_model.pth (torch, 50730 bytes, 13 tensors)

fc1.weight f4 [128, 4]
00000000: ec7b 4fbe 1444 b1be c245 e53d 8421 82be
00000010: f21b 21be acb4 b6ba 72ab cc3e bd67 153f
00000020: fd4c ad3d f07d 3abe e4c5 a43d f724 c9be
00000030: a612 03be 984e 173d 65ec 6ebe 10ed 4a3e
00000040: 1ab0 563e 3146 693e d345 34be 30ae 223e
00000050: 8d49 453e 5b03 a63d 9d06 10bf 2b07 553e
00000060: 3ffe aa3e b95a 7c3e c79b 47bc 8df0 90be
00000070: 989d a2be db62 80bc aeee e73e f5f4 c83e
00000080: e451 263c e424 03bd 6c75 2b3f 0564 28bc
00000090: 2c97 c23e 9c08 333e 8af4 92be bec4 0f3e
000000a0: 6bd2 5dbe d72f b23e d094 b8be 8424 ae3d
000000b0: 4be7 6c3c e9b6 e0bc 9da4 e73e 0cec 46bd
000000c0: a04b b03c ac5d d93e 9cf1 1e3f 2e78 e23d
000000d0: 5833 23be 066d ca3e 66b3 99bd 4cbc cd3e
000000e0: f735 fd3c 632a 713d 30b4 edbd ad45 cf3e
000000f0: 486b 9ebe e708 253e 7ee3 d9be 19d9 1abd
00000100: 1e00 85bd 978b 51be a05e 23bf 7af8 163e
00000110: 8e91 343e a01c 57bd 5247 2abf 7d26 e93d
00000120: 58a2 9f3e 86ac 0cbe 9860 20bf b33d 8fbe
00000130: 2896 913e 083a bcbe 0ac7 d23e 0836 55be
00000140: 0332 023e 9ca3 703e 1325 eb3e 1300 83be
00000150: 7336 983e 8276 4dbe e551 86be d1d1 04be
00000160: eb52 ccbd 75ab 7f3e c6f6 57be d9e2 d43e
00000170: 0e06 273d 076a 1dbe b992 3a3e 7357 d3bd
00000180: 5af2 e6bd ce47 b3be 0604 c23e 374c f3bd
00000190: cc7f 2fbe de08 273e 5320 2e3e 5124 a6bd
000001a0: 0f92 8cbe ca5a 45be 6dd1 ddbe 8e79 bdbd
000001b0: e090 ffbd 4510 193e 420e 243d f7ae 4bbe
000001c0: 2389 1fbd 2100 143d b898 e7be 0e22 7a3e
000001d0: 21d3 a83c 1c5b a7be ec1b edbe 2ec4 8b3e
000001e0: 5b60 5f3d 975a b1be 5a70 2b3e 6080 923e
000001f0: 849a 0e3e a936 063e 132e 1ebf 0ce0 adbd
00000200: f431 793e f5f3 3a3e 1d1f 9abd 3b47 893d
00000210: b17a a23d a118 1b3e 2280 f13d 8c33 7b3e
00000220: f38a fd3d 2906 3cbe c7fb 16bf d38c c9bc
00000230: 34a0 9a3e 317d 423e 3657 f33c 30b6 5c3e
00000240: 7532 a8be 35be 8abe ec86 c3be 0b4c 19be
00000250: 4f3d bf3d faf7 bbbd fafa cb3e d654 7c3e
00000260: 243a 37be c2b5 303d 4694 7d3e 15a3 9d3e
00000270: 69c1 673d 7050 acbe bacd f7be eaf3 723d
00000280: cad2 8a3d ed89 9dbe b97c ad3e 256f c6bc
00000290: 1343 983e adf1 523c 563e dc3e 8507 bcbe
000002a0: 628d bb3d c4ec 323d 769f 2dbe 063d 493c
000002b0: 00f9 65be d430 483c 0966 08bf 0bb2 503e
000002c0: 6bb5 5a3d 1621 0ebe 5f1b 46be 724f cf3e
000002d0: 3a50 923e 3e2c 993d ad3e eb3e 8175 bd3d
000002e0: e99c 293e c273 4ebb 9bc5 043f 8ff3 26bc
000002f0: b982 b1be 7b5d 5a3c b94b 543e be20 3cbe
00000300: bcd2 e23b 413c e7bc 53ca 14bf 2d09 28be
00000310: 0d06 fe3d 70a6 583e af56 f5be 8947 673d
00000320: f8c4 8f3e 02f2 e73a c29e 0a3f ff87 86be
00000330: 025e b7be 37e4 babe 3831 c33e 1713 be3e
00000340: 9c0c d33e 4203 aa3e 0fc5 c93e 2c7b a1bd
00000350: 72cd aa3e ef6a ca3e 682b c03e ff14 193e
00000360: e493 90bd 1fcc ffbe 886b a83e be42 d63e
00000370: 7aeb 3e3d 1ebe 8dbe 0062 e63e cf27 003e
00000380: f096 aa3c ed70 afbe ab12 0cbe 1415 e63e
00000390: b26d 2a3e 8b13 17be 6ff5 ea3e 3291 e53d
000003a0: 399a 54bd f52e 95be f3a9 65be 9471 923e
000003b0: 6a0e 033d 7ad6 d03e c1e3 c3be 642b 443e
000003c0: 46e8 913e 069e 373d ca08 013f 1a2e 39be
000003d0: 0f70 aa3e 73ca 023d 7910 cbbe a071 8d3e
000003e0: 77ed e7ba 3c2e af3e f4f7 d23d fb6b a9be
000003f0: 748d bc3d c758 e9bd 0ad7 8b3e 5cb1 d2be
-0.20262116 -0.34622252 0.11194946 -0.25416195 -0.15733317 -0.0013939342 0.39974552 0.5836142
0.0846195 -0.18212104 0.08045557 -0.39286014 -0.12800083 0.036940187 -0.23332365 0.19816995
0.20965615 0.22780682 -0.17604761 0.1588676 0.19266339 0.08106109 -0.5626009 0.20803516
0.333971 0.24643983 -0.012183136 -0.28308526 -0.3176086 -0.015672138 0.45299286 0.39249387
0.01015136 -0.032017604 0.66976047 -0.010277753 0.3800596 0.17483753 -0.28702193 0.14039895
-0.216623 0.34802124 -0.36051035 0.085030586 0.014459441 -0.027430968 0.45242777 -0.048564956
0.021520436 0.42454278 0.62087417 0.11058079 -0.15937555 0.39536303 -0.07504921 0.40182722
0.030909522 0.058878314 -0.11606634 0.40482846 -0.30941224 0.16116677 -0.42556375 -0.037804697
-0.06494163 -0.20463406 -0.6381626 0.14743224 0.1763365 -0.052517533 -0.66515076 0.11384294
0.31178546 -0.13737687 -0.6264739 -0.2797676 0.28434873 -0.36763024 0.4116748 -0.20821393
0.1271439 0.23499912 0.45926723 -0.25585994 0.2972904 -0.20064738 -0.26234356 -0.12970664
-0.09976753 0.2496775 -0.2109023 0.4157932 0.04077726 -0.15372477 0.18220033 -0.10319414
-0.11276694 -0.3501572 0.37893695 -0.11879771 -0.17138594 0.16311976 0.17004518 -0.081123956
-0.27455184 -0.19272915 -0.43323842 -0.092517 -0.124788046 0.14947613 0.04005266 -0.19890963
-0.038949143 0.036132935 -0.45233703 0.24427053 0.020608487 -0.32686698 -0.46310365 0.2729811
0.05453525 -0.34639427 0.16742077 0.28613567 0.1392613 0.13106789 -0.61789054 -0.08489999
0.24335462 0.18257125 -0.07525466 0.06703039 0.07933558 0.15146114 0.117920175 0.24531382
0.12380018 -0.18361725 -0.5897793 -0.024603283 0.3020035 0.18993069 0.029704671 0.21553874
-0.32850996 -0.2709824 -0.38188875 -0.14970414 0.093378656 -0.09178157 0.39839917 0.24641737
-0.17893273 0.043142088 0.24763593 0.30788484 0.056580935 -0.3365512 -0.48399144 0.059314646
0.06778486 -0.30769292 0.33884218 -0.02422292 0.29738674 0.012875003 0.4301631 -0.36724487
0.09157826 0.04368283 -0.16955361 0.0122826155 -0.22458267 0.012218673 -0.53280693 0.20380418
0.05339567 -0.13879809 -0.19346379 0.404903 0.28576833 0.07479142 0.45946255 0.09250928
0.16563763 -0.0031502103 0.5186402 -0.010189905 -0.34670046 0.013327952 0.20732011 -0.18371865
0.006922094 -0.028226973 -0.5812122 -0.1640975 0.12403498 0.21157241 -0.47917697 0.056464706
0.28079963 0.0017696025 0.54148495 -0.26275632 -0.3581391 -0.3650224 0.38123488 0.3712394
0.41220558 0.3320561 0.39408156 -0.07884821 0.33359867 0.3953471 0.37533116 0.14949416
-0.07059458 -0.4996042 0.3289454 0.41847795 0.046611287 -0.2768411 0.44996643 0.12515186
0.020823926 -0.34265843 -0.13678996 0.44937956 0.16643408 -0.14753549 0.45890376 0.112093344
-0.05190489 -0.29137388 -0.22428112 0.28602278 0.03199617 0.40788633 -0.382597 0.19157177
0.28497523 0.044828437 0.50404036 -0.18083993 0.3328862 0.031931352 -0.39661005 0.27625751
-0.0017694671 0.34214962 0.103011996 -0.33090195 0.092066675 -0.11393886 0.273125 -0.4115094

fc1.bias f4 [128]
00000000: 7e80 643e 05af 28be 96b3 723c d54e f93e
00000010: 7a06 383e 6b43 a13d 425e 01be e5bb 683e
00000020: 9683 3e3c a308 31be d403 4ebe c56d f13e
00000030: 2497 95bc 28ab c13e ddba 9f3e ba96 9dbe
00000040: 0ded a7bc 1d0b 993e e66c 9bbc c112 913d
00000050: 954a 6a3e 3724 62be 1816 0cbd 2f94 983e
00000060: 3112 123e 92c1 d4be 3aa3 793e f314 a2be
00000070: a2a9 1d3e 854e e1bd 8f50 51bd 3c63 023e
00000080: 06f7 bcbe 120a a23e bf78 1a3e 2b5b 08be
00000090: 2a4d c13e 12a9 58be eb2a 6c3d e46e 913e
000000a0: 0517 27be d4ab b43d f818 01be ba96 9bbe
000000b0: 110b b3be 7899 33be 3614 9d3d 634c d83e
000000c0: 5ae9 a4bd 3b51 483e 6291 63be ef9c 6c3e
000000d0: 19d2 7ebe a6c3 16be ee77 68be 6423 80bc
000000e0: 7242 b5be dea9 cfbd abb3 c2be 7bf8 86be
000000f0: 622f 81be bc4e a03e 5c1b 51be 605a c9be
00000100: f19b bc3e 65de 103d 406d 9c3e d7ba 46be
00000110: 761e e7be 86dc 38be 3ecd 19be 7fe7 f63d
00000120: 0c3c 71bd 3233 633e 794b cbbd 6ec3 28be
00000130: 81fb 9abe 1d81 dbbe ca68 9d3e db5e c7bd
00000140: 0605 3f3e 6f76 d13d 2d91 963e 5188 71be
00000150: 1a06 a33e 2903 9fbc 8771 43be fccd e33c
00000160: 2e7b d03e 1ef0 4ebe f4db 613e 80cf 36bd
00000170: 0414 bcbc 49ff b73e f21c 9a3e c196 7bbe
00000180: d43d 96be 81c9 8ebd 3a03 a43e aa71 cd3c
00000190: 5bea 15be bf6c a43e 367b 833e 18d0 4dbe
000001a0: 8c03 a6be 4d34 d4bd bb54 6f3e ebb7 933e
000001b0: ddd4 223e 02b1 b43e afec 313d cdf6 963e
000001c0: bef9 503c 0293 173e c136 bcbe 2de7 babd
000001d0: 0881 0f3d 6bcb 38bd b207 4a3e 386e 0fbe
000001e0: 99d3 d43d b0ff 213e c5b4 d8bd 4751 8b3e
000001f0: 4776 25bd b67f bb3e b7b4 dfbe 033a e43d
0.22314641 -0.16473015 0.014813324 0.48692957 0.1797122 0.07874187 -0.12633613 0.22727926
0.011628052 -0.17288451 -0.20118648 0.4715406 -0.018260546 0.37825894 0.31197253 -0.30779058
-0.020498777 0.2989129 -0.018972825 0.07083655 0.22880013 -0.22084127 -0.034200758 0.29800555
0.14264752 -0.41553932 0.24378672 -0.31656608 0.15396741 -0.110013045 -0.051102217 0.12733167
-0.36907214 0.31648308 0.15085123 -0.13316028 0.37754184 -0.21158245 0.057658117 0.28404915
-0.16317375 0.08821836 -0.12607181 -0.30388433 -0.3496938 -0.17539012 0.076698706 0.42245778
-0.08052321 0.19562237 -0.22223428 0.2310674 -0.24884833 -0.14723071 -0.22702 -0.015641876
-0.35402256 -0.101398215 -0.380277 -0.2636145 -0.25231463 0.3131007 -0.20420593 -0.39326763
0.36837724 0.035368342 0.305521 -0.19407211 -0.45140427 -0.18052873 -0.150197 0.12055873
-0.058895156 0.22187498 -0.09926505 -0.164808 -0.30270007 -0.42871943 0.3074401 -0.09734889
0.1865426 0.102276675 0.29407635 -0.23587157 0.31840593 -0.019410687 -0.19086276 0.027808182
0.4071898 -0.20208785 0.22056562 -0.04463148 -0.022958763 0.35936955 0.3010021 -0.24569227
-0.29344046 -0.069720276 0.32033712 0.025078613 -0.14640181 0.32114217 0.2567994 -0.20098913
-0.3242458 -0.10361538 0.23372166 0.28851256 0.15901513 0.35291296 0.04343861 0.2948517
0.012754856 0.14802173 -0.36760524 -0.091261245 0.035035163 -0.04511587 0.19729498 -0.14006889
0.103919216 0.15820193 -0.10581354 0.27210447 -0.040396 0.36620873 -0.43692562 0.11143877

norm1.weight f4 [128]
00000000: fe51 4d3f 20fb 8c3f 2e90 523f 579e 633f
00000010: be6e 5a3f 5dcc 613f 19df 543f d4d1 613f
00000020: 3032 963f b280 503f 2f61 683f 781a 733f
00000030: 202e 643f 4214 563f 9ff8 5a3f 8ca7 643f
00000040: e530 823f 948b 5e3f fe7c 653f d649 4e3f
00000050: f40d 573f d512 593f 3442 4f3f b243 4c3f
00000060: 6f08 6e3f beb3 543f 9885 453f d950 5e3f
00000070: 78ea 6a3f c424 7d3f 2da5 523f 8007 6c3f
00000080: fc47 533f 2e0b 4f3f b1de 693f 2910 533f
00000090: bfe4 4c3f 810f 5e3f 3532 7d3f dd75 7a3f
000000a0: 69d7 783f 9de9 5c3f b167 5f3f c165 753f
000000b0: 6f29 7b3f 7a9d 543f 42f5 5c3f 8ff7 5f3f
000000c0: deee 863f 61f4 6c3f b46b 553f 75a4 4f3f
000000d0: 496b 5c3f 5fda 4b3f e95b 7f3f 8f1d 763f
000000e0: d07b 573f e739 523f 23ed 553f da7b 6b3f
000000f0: 3b85 593f dadc 4a3f e344 5d3f 113b 643f
00000100: 9a64 763f ccc2 583f ee2e 5b3f 445b 513f
00000110: 9607 4d3f 1deb 633f dad2 883f 0af4 4f3f
00000120: b7b6 763f e37c 793f e873 6f3f 5f49 643f
00000130: 0497 843f 002d 4c3f 5b5a 3d3f cfac 563f
00000140: 84ee 5c3f b62f 7a3f 108a 313f af9c 523f
00000150: 82ff 443f f57b 553f ef39 453f e243 843f
00000160: f9bc 763f f1a0 803f 77f1 563f 6164 723f
00000170: e661 5e3f f740 533f 9c0a 433f 25a3 5f3f
00000180: 1ccf 6e3f a090 743f 495e 3d3f 37f6 613f
00000190: 6c15 583f e942 5b3f ea6d 673f 24c0 4c3f
000001a0: c894 753f b6ee 723f e303 553f de20 803f
000001b0: 34f3 563f fd4c 553f eb67 573f 0a94 8d3f
000001c0: c9a9 4f3f 127d 7c3f cad9 613f ca30 613f
000001d0: e997 813f c860 4e3f f5a5 5a3f 0c2f 413f
000001e0: f3f6 543f 0ee9 513f ad6c 883f 69eb 653f
000001f0: 63c2 853f 373e 553f edd9 4a3f 3de7 703f
0.80203235 1.1014137 0.8225125 0.8891348 0.8532523 0.8820246 0.8315292 0.882108
1.1734066 0.81446373 0.9077329 0.94962263 0.8913288 0.8362466 0.85535616 0.89318156
1.0171171 0.8693173 0.8964385 0.80581415 0.84005666 0.8479436 0.8096039 0.79790795
0.9298162 0.83086765 0.7715697 0.86842114 0.9176402 0.98884225 0.8228329 0.92198944
0.82531714 0.80876434 0.91355425 0.82446533 0.8003654 0.8674241 0.98904735 0.97836095
0.9720369 0.86293966 0.87267596 0.9585839 0.981101 0.8305279 0.86311734 0.8748712
1.0541646 0.9256039 0.83367467 0.81110317 0.86101204 0.7963008 0.9974962 0.9613885
0.841733 0.821196 0.83564967 0.9198586 0.8496892 0.7924324 0.8643324 0.8915263
0.96247256 0.84672236 0.85618484 0.81779885 0.800897 0.8903063 1.0689347 0.8123175
0.9637255 0.97456187 0.93536234 0.89174455 1.0358586 0.79756165 0.73965997 0.83857435
0.86301446 0.9772905 0.6935129 0.8227033 0.76952374 0.8339227 0.77041525 1.0333216
0.963821 1.0049115 0.83962196 0.94684416 0.8686813 0.82521003 0.76188064 0.87358314
0.93284774 0.9553318 0.7397199 0.8826632 0.8440769 0.8564897 0.9040209 0.79980683
0.9593015 0.94895494 0.83209056 1.001003 0.8396485 0.833206 0.8414294 1.1060803
0.81118447 0.9862834 0.88222945 0.8796507 1.0124484 0.80616426 0.8540948 0.7546241
0.83189315 0.8199624 1.0658165 0.8981233 1.0449947 0.8329806 0.7923878 0.9410284

norm1.bias f4 [128]
00000000: 9c30 16bc 6f02 493e f7c1 e3bc 9a37 873d
00000010: 4281 50bb 11d0 763c 67cb babc 192d 123e
00000020: 4cef ad3d e549 64bd a982 8a3d 4200 5b3d
00000030: 49b4 143c 892d e33b 5a91 783c 236f 813d
00000040: 3421 543e 937d aebb 7981 b83c b4ce 74bd
00000050: 9ca8 a1bc 5aa0 86bc f879 2cbd d8db 26bd
00000060: 0979 b03d 55da 2fbd 4734 25bd 3aad ba3b
00000070: 4ff0 ac3d efaf f23d 41ea 4dbc 392f 633d
00000080: 5ed9 11bd 451c 18bd 6c0c 033d 8d90 ecbc
00000090: 81d6 00bd 8394 113c b6e9 973d 9be4 b63d
000000a0: f06a 073e 3677 f93b 3d2f 87bb 4d80 7a3d
000000b0: 326a 663d d691 49bd 980d 1ebc 358c 91bb
000000c0: 61c6 9a3e 7677 383d de9d 01bd f9af ba3b
000000d0: ab8f 673a b3a5 97bd 0868 303e 7692 003e
000000e0: 9f4b eebb 7e22 04bd 50c0 21bd 4656 b33a
000000f0: d0f1 a2bc 6b69 8bbd fc40 943c 5056 013c
00000100: c024 c63d 071c 67bc 2cb2 c8bb f3c7 24bd
00000110: 9db7 90bd 04d3 de3c 59cf 583e b4b2 2abd
00000120: f308 3f3e b548 fd3d e579 a53d 50c0 103c
00000130: 87b6 8c3d d482 09bd 8035 b8bd a043 34bd
00000140: 5a1e 073c 159b 253d 629b 09be 41a9 2fbd
00000150: a4ce 33bd 86f9 b23c a55e 88bd f4e7 b93d
00000160: d8a7 a73d ce99 0b3e 39c4 1fbd fd15 973d
00000170: 600c ce3b 611b 1e3d b08f a5bd 27e4 9d3b
00000180: 2981 c03d f1b4 673d 22f3 76bd fb7e 8e3c
00000190: ce07 513d 83ae 02bd 7074 3f3d f102 98bd
000001a0: cce5 1d3d 1b5a d83d 3340 ecbc 176b d73c
000001b0: ab53 9fbc 5f32 e7bc ea24 8fbc 4825 5d3e
000001c0: 8181 5dbd 9b22 b13d fe59 f73b 7f5a 013d
000001d0: 15f6 353e bf56 3ebd 83b3 2a3d b8df cdbd
000001e0: bbe3 2bbc 3a8e 0fbd 4ada a13e 7963 423d
000001f0: 3ae3 113e 8709 b7bc a282 87bd 28fc 393d
-0.009166863 0.19629835 -0.02780245 0.06602402 -0.0031815325 0.015064255 -0.022802068 0.14275016
0.08492908 -0.055734534 0.06763203 0.053467043 0.009076186 0.0069329184 0.015171373 0.06320026
0.20715791 -0.005325028 0.022522675 -0.05976744 -0.01973372 -0.016433883 -0.042108506 -0.040737003
0.086168356 -0.042932827 -0.04033306 0.0056969197 0.08444273 0.11849963 -0.0125680575 0.055464957
-0.035607688 -0.037136335 0.03199427 -0.028877521 -0.031454567 0.008885506 0.07417624 0.08930322
0.13224387 0.007613088 -0.0041255043 0.061157513 0.05625362 -0.049211346 -0.009646796 -0.004441763
0.30229476 0.0450358 -0.031644695 0.005697247 0.0008833359 -0.074046515 0.17227185 0.1255587
-0.0072721983 -0.032259457 -0.039490044 0.0013682328 -0.019890696 -0.06807216 0.018097393 0.007894114
0.09674978 -0.014105803 -0.0061247554 -0.04022975 -0.070662715 0.02720023 0.21172847 -0.04167433
0.18655758 0.123673834 0.0807989 0.008834913 0.06870752 -0.033572033 -0.08994579 -0.044009805
0.0082469825 0.0404311 -0.1343818 -0.042886022 -0.04389824 0.021847498 -0.06658677 0.09077445
0.081863105 0.1363289 -0.039005492 0.07377241 0.0062880963 0.03860033 -0.08084047 0.0048184576
0.09399635 0.056569044 -0.060290463 0.017394533 0.051032834 -0.03190471 0.046741903 -0.07422436
0.03854923 0.10564061 -0.028839206 0.026296182 -0.019449076 -0.028222261 -0.017473657 0.21596253
-0.054078583 0.086491786 0.0075485697 0.031580444 0.17769654 -0.046469446 0.041675102 -0.100524366
-0.010491307 -0.035047747 0.31611854 0.047458146 0.14246836 -0.02234341 -0.06616713 0.04540649

fc2.weight f4 [64, 128]
00000000: 0899 013a 79d3 c13d 6fef efbd 8001 5d3d
00000010: 8e34 103d cc88 8bbb f056 523c 2b96 61bd
00000020: 07e2 acbb aeef 51bc e496 bbbd 2ea7 67bd
00000030: 8f5a ab3c 674d 42bd 7998 d83c aa9b dabc
00000040: 31ea 9cbc 64d7 babd 03da b6bd 1401 9cbd
00000050: 9d96 63bb 4ae6 86bb 5c48 b5bc e844 dfbc
00000060: bb77 8c3d ded2 0cbe 23a1 92bd f838 22be
00000070: 3942 c6bd 42d2 b1bc b169 8cbd 64dc 1cbd
00000080: 203b a1bd 25c2 97bd b401 5e3b 0c09 773d
00000090: 18e1 f4ba 376b 023c 0139 993d b470 be3d
000000a0: 418e afbc ba49 373d 13e7 383c 45cc ebbc
000000b0: ab3a a7bd c596 8f3d e24e debd 1883 01be
000000c0: e8fb 34bd 9a61 92bd 8110 413d ffc0 ce3c
000000d0: 1aa1 1c3c a924 debd 9a42 8b3c f8e4 69bc
000000e0: f933 84bd 07a2 88bd b2b1 ee3c 8201 81bd
000000f0: 013c fb3c 4ec5 28bd aeff 41bc b9d2 ddbd
00000100: 7c14 71bc 97bb babd 298f 5bbd 05f0 adbd
00000110: 9641 083d bf53 d2bb 5ddf 69bc 303c a53d
00000120: fe6a 92bc 8d22 a4bd e37d cfbd 0597 2dbc
00000130: 8b77 d2bc 7a73 bfbc 1ae6 41bc c4ab 13bd
00000140: bb67 ae3c 493b 05be 432e 49bb 0404 dcbd
00000150: 9cd4 28bd f018 e9bd 5cdd b6bb 3fec d5bd
00000160: be49 08bc 5b23 cabd 2fa3 16bd 500e ad3c
00000170: e093 bbbd e155 7b3a ee19 833c 9b66 183d
00000180: 9365 4a3d eef5 06bd 00d2 de3a 4657 92bd
00000190: 66fe d4ba c24a 9fbc 53bb ddbd aed1 603d
000001a0: 603d 423c 0efb 723d 6daf 1dbd 6356 08be
000001b0: 6385 403d 162a e9bd 457d 5b3c 67ec bfbd
000001c0: 4402 3fbd 04c1 6cbc 7613 86bd 3a1a 073d
000001d0: 5a6c ac3d ede9 0abc 5fca ccbc 6922 83bd
000001e0: 49ed 60bc 2ebc 0d3d a862 76bd cf6b 653d
000001f0: 076f 663d 47d5 c7bc ca58 ebbc 51b7 9b3d
00000200: 1529 51bd 94f3 5c3d 5fe6 e2bd 6b49 393b
00000210: 0ac1 a3bd 5036 fc3c e4da 0bbc f722 0cbd
00000220: 7467 723d 1850 dc3a acc0 f2bd 80c4 5c3c
00000230: 227a b7bd a635 81bd b3ee 033d 261d 1c3c
00000240: ad16 96bd 6e82 2dbd b803 8cbd fd88 53bd
00000250: 5b10 a6bd 0db4 64bd 71d5 583d 410f dbbd
00000260: 47a2 b0bd 0591 763b 7633 00be 2bb1 a3bd
00000270: e278 f3bd efcb 8c3a 028e cabd 119c d2bd
00000280: ba42 debd 268e b63c e0fd 9fbd e8f9 3e3d
00000290: 6ebe e3bd cddc d2bc 8609 413d de92 32bd
000002a0: ac94 aa3c 84ca 8d3d a85e f6bd 1402 83bc
000002b0: 2229 b7bd 57ad 483d 23a7 b1bd 1c59 1fbc
000002c0: 5316 64bd b200 493c 8a39 c8bc 9b4c 0d3c
000002d0: 3510 5bbd ded8 3ebc 5164 80bd d3b4 04bd
000002e0: b074 9f3b bad0 d0bd eb9f f23b e1fb 5bbc
000002f0: 2fd4 663c 11c0 ddbd 6c0f 52bd 9e7d 66bc
00000300: 242a 0dbe cb39 54bd 1edf 66bc 8bc2 c4bc
00000310: 93c1 5a3d e52d 63bd 8e49 de3b d436 55bd
00000320: 254f 52bc 0c44 f5bd 6558 bf3d 3b60 c8bc
00000330: eefe fabc 58d0 f13d cc31 5b3d 2486 80bb
00000340: 8ae9 52bd 146b 8bbd 789d 1bbd 7452 1bbc
00000350: d118 16be bcf1 813c 2003 1bbe 9306 bebd
00000360: c88e c7bc b2c9 e4bd 47d6 07bd f61a 8a39
00000370: cea3 b5bc 488c b8bd 2766 673d f256 10bc
00000380: dcd1 88bc 9c2e ccbd f1c7 913c 8f16 023c
00000390: 078d 063b 9ad2 da3b 9ea8 c6bd 0941 e5bd
000003a0: 8aba cabb 4344 97bd 4c33 04bc 8e17 afbd
000003b0: badb 19bc e4b4 08bc 4ed1 eebc 72f7 aebd
000003c0: 936b 78bc 7826 babd 6d63 42bc 7e77 233c
000003d0: 0a30 90bd 34d7 4abd a4b0 99bd 9686 bbbd
000003e0: dd88 38bd 52f3 43bd db46 a9bc b263 e2bc
000003f0: d2aa 24bd 793b 98bd 1683 0abc ca6f 5c3d
0.0004943763 0.09464163 -0.1171559 0.05395651 0.03520637 -0.004258251 0.01283811 -0.055074852
-0.005275968 -0.012813492 -0.091596395 -0.05655592 0.020917205 -0.047437098 0.026439892 -0.026685555
-0.01915464 -0.09123114 -0.08928301 -0.07617393 -0.0034727224 -0.004116808 -0.02212923 -0.027254537
0.06858774 -0.13752314 -0.07159641 -0.15842044 -0.096806 -0.021706704 -0.068560965 -0.03829612
-0.07872605 -0.07410077 0.0033875527 0.060311362 -0.0018682806 0.007960132 0.07481576 0.0929884
-0.021430137 0.044748046 0.011285561 -0.028783927 -0.08165487 0.07011179 -0.108548895 -0.12647665
-0.04418555 -0.07147522 0.04713488 0.025238512 0.009559894 -0.10846836 0.016999532 -0.014275782
-0.064552255 -0.06671529 0.029137466 -0.06299116 0.03066826 -0.04120379 -0.011840744 -0.10831208
-0.0147143565 -0.09117811 -0.053603325 -0.08493046 0.033265673 -0.0064186747 -0.014274445 0.080681205
-0.017873283 -0.080144025 -0.10131433 -0.010595088 -0.025691768 -0.023370493 -0.011834646 -0.03605248
0.021289697 -0.13010897 -0.003069774 -0.107429534 -0.041218385 -0.113817096 -0.0055805873 -0.10445451
-0.008318363 -0.09870025 -0.036776718 0.021124989 -0.09159064 0.0009587687 0.016003575 0.037207227
0.049413275 -0.03294938 0.0016999841 -0.07145552 -0.0016250133 -0.019444827 -0.10826745 0.054887466
0.011855453 0.059321456 -0.038497377 -0.13314204 0.047002207 -0.113849804 0.013396566 -0.09371262
-0.04663302 -0.014450315 -0.06546681 0.032983996 0.08419104 -0.008478624 -0.024998842 -0.064030476
-0.013728448 0.03460329 -0.06015268 0.056011017 0.056258228 -0.02439369 -0.028728861 0.07603324
-0.05106457 0.05394323 -0.11079096 0.002827252 -0.07995804 0.030787617 -0.008536074 -0.034213033
0.05918069 0.0016808538 -0.118531555 0.013474584 -0.08958842 -0.06309061 0.032210063 0.009528434
-0.07328544 -0.042360716 -0.06836647 -0.051644314 -0.08108588 -0.055835772 0.05293793 -0.10696269
-0.08624702 0.003762306 -0.12519631 -0.079927765 -0.11888291 0.0010741929 -0.09890367 -0.102836736
-0.10852571 0.022284579 -0.07812095 0.046625048 -0.11120306 -0.025740052 0.047128223 -0.043597095
0.020822845 0.069233924 -0.12029773 -0.015992202 -0.08943392 0.048993435 -0.08674457 -0.009725835
-0.055685353 0.012268232 -0.0244415 0.008624221 -0.053482253 -0.011648385 -0.06269134 -0.03239901
0.004866205 -0.101960614 0.0074043176 -0.013426752 0.014088674 -0.108276494 -0.05128424 -0.014068035
-0.13785607 -0.05181293 -0.014091281 -0.024018547 0.053407263 -0.05546369 0.0067836707 -0.05205424
-0.012836252 -0.119758695 0.09343032 -0.024459949 -0.030639138 0.118073165 0.053514287 -0.003922241
-0.05149225 -0.06807533 -0.03799197 -0.009480108 -0.14657904 0.015862338 -0.15137911 -0.09278598
-0.024360076 -0.11171283 -0.033163335 0.000263415 -0.022172835 -0.090111315 0.056493904 -0.008809792
-0.016701631 -0.099698275 0.017795535 0.007939949 0.0020530836 0.0066779377 -0.0970013 -0.11194045
-0.006186788 -0.07386067 -0.008068871 -0.085494146 -0.009390766 -0.008343909 -0.029152539 -0.0854329
-0.015162366 -0.090893686 -0.011864525 0.00997722 -0.07040413 -0.04952164 -0.07504395 -0.091565296
-0.045052398 -0.04783947 -0.02066367 -0.027635429 -0.04020197 -0.074332185 -0.008454105 0.053817548

fc2.bias f4 [64]
00000000: 811c f9bd e4bc 74bd 8553 65bd 48ad abbd
00000010: 46c3 b9bc 9000 763c 2184 5dbc c60b fcbd
00000020: 8315 29bc 94da 133d 9785 963d 139c fdbd
00000030: 1437 b6bd 5dd6 56bc 2b9a 7c3c c1d6 643d
00000040: 29a7 78bc 28af 49bd d32c 07be 9b03 49bd
00000050: ddab 26bd c5a1 283c e3e7 e8bc a997 38bd
00000060: 5e19 a1bd 9b9c a4bd fb45 bc3c 7a55 dc3c
00000070: 0ec4 b83c 840a 70bc 1f0b 67ba bada f73c
00000080: 6e43 13be c054 d53c 985b 0cbe 584e 153d
00000090: 926a 1ebe ac01 283c ce72 543c 68b2 3abd
000000a0: 9406 afbd 4f58 b23b 9d07 633c 100e e8bd
000000b0: 75fb 033d 0ce7 94bc cd8e 5abd fe54 9ebd
000000c0: 6c1c 97bb 07e2 20bd f14a a8bd 561a e5bd
000000d0: 5603 0d3b c7fb 5abd a2f4 98bd c414 a23d
000000e0: d444 b8bd 7475 05bd ba2b b2bd 0bb1 0ebe
000000f0: 71e9 96bd 2d55 8bbd ffeb 27bd 8d04 fb3c
-0.1216364 -0.059750453 -0.055987854 -0.0838266 -0.022676121 0.015014783 -0.0135202715 -0.12306933
-0.01032007 0.036097124 0.07349699 -0.123832844 -0.08897224 -0.013112632 0.015417616 0.055868868
-0.015176573 -0.049239308 -0.13200693 -0.049075704 -0.040691245 0.010292475 -0.028430885 -0.04506651
-0.078661665 -0.080376826 0.022982588 0.026896227 0.022554424 -0.014650945 -0.0008813608 0.030255664
-0.14381191 0.026041389 -0.13706815 0.036451668 -0.15470341 0.010254305 0.012966825 -0.045580298
-0.085461766 0.005442656 0.013856796 -0.11330807 0.03222223 -0.018176578 -0.05335884 -0.07731055
-0.0046115424 -0.039278056 -0.08217419 -0.11186664 0.002151688 -0.05346277 -0.07468535 0.07914117
-0.08997503 -0.032582715 -0.086997464 -0.13934724 -0.07368744 -0.06803355 -0.040996548 0.030641818

norm2.weight f4 [64]
00000000: 4983 473f 97f6 4a3f 433f 753f 1120 5b3f
00000010: f0b9 4f3f 8340 583f 4a3d 553f 4d35 4f3f
00000020: 61bc 533f f7b2 5d3f 8487 5a3f 29d9 513f
00000030: 8229 633f 1568 583f 7b32 5d3f 8776 643f
00000040: fe98 863f 9e07 6c3f 4625 533f 299b 523f
00000050: 84ce 843f 0283 533f 8279 553f 3e7f 563f
00000060: 94dd 4f3f 8ffc 573f 7bca 4f3f 04dd 693f
00000070: e7f6 5e3f a79e 623f 9590 7e3f 8e22 593f
00000080: 34e5 513f 0287 5c3f 0563 613f e24d 5a3f
00000090: f133 4b3f 359c 573f 003a 5c3f ff3b 483f
000000a0: f966 533f 5de5 763f fedf 573f bd1f 4e3f
000000b0: fd93 703f cf11 5c3f dadd 693f 9525 593f
000000c0: 0af2 5e3f 5842 4c3f e41c 503f 2d01 513f
000000d0: eaf6 563f 8fe4 3e3f 0af5 633f 2461 603f
000000e0: 808b 713f 6219 563f 05b4 4d3f d98b 4e3f
000000f0: 5568 543f 61c2 553f e695 613f b319 673f
0.779347 0.79282516 0.95799655 0.85595804 0.81143093 0.8447344 0.83296645 0.80940706
0.8270932 0.86601204 0.8536303 0.81971985 0.8873521 0.84533817 0.8640515 0.8924336
1.051544 0.9219912 0.8247875 0.82268006 1.0375524 0.8262178 0.8338853 0.83787906
0.81197476 0.8436975 0.81168336 0.9135287 0.87095493 0.88523334 0.99439365 0.8481835
0.8199036 0.86143506 0.88041717 0.8527509 0.7937613 0.8422273 0.86026 0.78216547
0.82579 0.9644373 0.8432616 0.8051718 0.9397581 0.85964674 0.91354144 0.8482297
0.8708807 0.7978873 0.81294084 0.8164242 0.8397051 0.745675 0.89045775 0.87648225
0.94353485 0.8363248 0.80352813 0.8068214 0.829717 0.83499724 0.8811935 0.9027359

norm2.bias f4 [64]
00000000: fca2 1cbd 2d3e 49bd 256d d83d 0d13 cfbc
00000010: 778b 28bd a675 ecbb 5a7d 07bd 9a51 8cbd
00000020: de95 593b 5726 c33c 5d0d a13d 29e0 56bd
00000030: c542 cd3d a222 2c3c b62e 313b 65b8 c03b
00000040: d105 ba3d 6785 163d a272 17bd 8494 06bc
00000050: 2e69 0b3e c0be cd3c bed8 24bc afd0 a4bc
00000060: 664e 5abd 4345 5bbc ada2 00bd f678 583c
00000070: 7d31 8a3d 8076 9abc 0eb9 0c3e 2f54 f93c
00000080: 8c37 d5bb b95f ff3c 5bd0 933d 7e1d 73bc
00000090: db94 113a 2774 0d3c 5d17 a73b 5d9a bebd
000000a0: dafc e1bc a237 6d3d b86c 67bc f4d2 6dbd
000000b0: 3d52 043d 69a9 65bc 6f96 a53d 5c73 2d3d
000000c0: 1eb0 a13d 7d4e 2dbd a1ca 67bd 71b8 3bbd
000000d0: 30f7 483c b5c7 9ebc ed09 e33c 5a01 073d
000000e0: 5127 f33d 43f0 863c 99af 76bd 225c 71bc
000000f0: 1474 94bb 3422 853b fec0 273b d339 16bc
-0.03824137 -0.04913156 0.10567693 -0.025277639 -0.04114863 -0.007216173 -0.03307853 -0.06851502
0.00332009 0.023821993 0.07863877 -0.05245987 0.10022501 0.010506304 0.0027035899 0.0058813565
0.09083141 0.036748316 -0.036974557 -0.00821412 0.13614342 0.02511537 -0.010061441 -0.02011904
-0.053297423 -0.0133832125 -0.03140514 0.013212433 0.067477204 -0.018855333 0.13742468 0.03043565
-0.006506866 0.031173574 0.07217475 -0.014838574 0.0005553492 0.00863365 0.0050992207 -0.09306786
-0.02758639 0.057914384 -0.014125042 -0.05806251 0.03230499 -0.014017441 0.080853336 0.042346343
0.0789492 -0.04231118 -0.056589726 -0.045830194 0.012265965 -0.019382337 0.027714694 0.032960273
0.118727334 0.016471988 -0.060226057 -0.014731439 -0.004530439 0.004062915 0.002559721 -0.00916906

fc3.weight f4 [32, 64]
00000000: a60e 2abe f369 da3c bd1e 1ebe ba61 02bc
00000010: e066 b73c 1a63 9ebd 79d2 b4bd 5043 dbbc
00000020: c9bf 003d d425 f6bd c77e 2fbe 316a e73c
00000030: ca1a 12be 1185 15bd bba9 2fbd d159 eebd
00000040: 55d6 d7bd cad9 01bc e8be 613b 537c 23be
00000050: 7efe b5bc 54e3 27be c181 38bd 15e8 38bd
00000060: a871 bfbc a543 acbd be9e eebc b739 23bd
00000070: eff8 4abe 6b8f 193d bd75 5dbe 0b2b 1fbe
00000080: aaa6 77bd 5a15 ed3d 7548 02be 91cd 54bc
00000090: bc35 11be 5f8e debc 6ad9 a2bd b0f0 0cbd
000000a0: 22dd a0bd bec8 fcbd da21 cabc bee8 21bd
000000b0: d48b abbd 8046 8c3d 780c 23be 7025 76be
000000c0: cccd 2ebd 56f0 c13c c3e4 11bd dead 6fbd
000000d0: f421 bfbd e26b 01be 6b58 7ebd 0ae8 07be
000000e0: 0f37 72be 4d69 7fbe 3ad2 9cbd 4e3b b9bd
000000f0: 4b66 2ebd e288 b63d 1de0 60bd 8fe7 14bc
00000100: 4e29 0abd 60fc 4b3d fb7a 1bbe 32d4 38bd
00000110: 516e 013d 3c6a d1bb 0840 723d ea37 46bd
00000120: 3210 4abd 8b03 19bd 5426 1ebd 0388 d63c
00000130: ff5c 3fbe 7ea6 f7bc dc00 8f3d 0153 87bc
00000140: a180 59be 7b6a 00be aece 4dbc c943 d4bd
00000150: 6573 08be bcb9 19be a239 4b3d 8342 9f3d
00000160: 3617 bdbd f9d0 8cbc f70f a03b 62df 0f3d
00000170: 61d7 11be cf41 3ebd 3909 6bbd b0e2 95bd
00000180: 1233 13be f9a9 dbbd 9ea9 03be 4953 6cbd
00000190: f5ce 00be af89 1dbd 746f 8f3b 230e a3bd
000001a0: 026b a0bc 6498 2bbc e3ad 67bd e889 bc3a
000001b0: 7b5d 833d 2119 debd 9357 cabd 866d 35be
000001c0: 835a 39be d1a9 233d c0aa b7bd c499 89bd
000001d0: af4c 59bd cd41 13be 0c47 c2bd 77b0 38bb
000001e0: 8627 84bd b737 5fbe d647 1b3c 50fd b0bd
000001f0: d9e9 04bd 36a3 fbbc 4a60 203c 091e dfbc
00000200: 07b9 19bd b539 18bd 75dc 02be fe58 c9bd
00000210: d7f2 7abd 1c48 ddbc cafc 1dbe 2ee3 b73d
00000220: 02d6 2e3d 4128 1fbd 3b1b be3d 3408 2dbb
00000230: 6b25 2cbe b06a d5bc 95d1 3fbd 1c87 4dbd
00000240: 8a74 4dbe fddf eebd af7c aabd 4ebc 74bd
00000250: 726a 17be 5234 86bd bde3 e7bd dcac 9f3b
00000260: 4897 a5bc 81c8 143e 4e17 80bd 17e0 8ebd
00000270: f3af 2f3c b36c 8fbd fd39 3a3d dbfa 0b3d
00000280: b518 273d 1e02 14be 23cd 07be dfad 54bd
00000290: d83d 09be f948 47bc d262 e93b a878 5a3d
000002a0: c9cf 0abd 034c 82bc 66c6 e4bd 6328 d3bc
000002b0: 408f eebc 401e 67bd e84a d23d a905 adbc
000002c0: bf30 43bd 8101 83bd 7df5 2dbd 59af 93bd
000002d0: e148 f5bd 46c7 07be 6ff8 59bd 8f38 9abc
000002e0: b2e5 3e3c 04c9 893d 6226 15bd 1505 c33d
000002f0: 5d6c 8ebd 526f cabd d7ed 85bd 09fc c5bd
00000300: fbeb 7abd 0414 9cbc 299f 03be a612 39bd
00000310: 4ffd 09bb 0857 14bc 2466 1c3d 9dc5 b13b
00000320: 782b 4abd 3560 73bb 154d c5bd afe9 ce3d
00000330: 0ec4 40be bbdf 963d 105b 8abc a227 013d
00000340: bee3 52be 27d5 ebbd 6413 36bc 189c 05be
00000350: 8a62 12be c2df 1dbe f141 57bd 83f3 d1bd
00000360: 96ef 8e3c cfe5 bbbd 9830 5bbd 45ec 403d
00000370: 6eb9 e7bd d2b7 b3bd 923b ffbd fb8e cbbd
00000380: 4e34 0abe 1641 b0bd f041 24be 1340 bcbd
00000390: e95f 3ebe d37d b4bb 4330 ef3c 7ac3 f33b
000003a0: b84c 483d 6961 70bd 8d5c b3bd 97ce c03c
000003b0: 08c4 b43c 7001 85bd 5953 d7bd 067a b5bd
000003c0: 2133 e2bd b328 803d d25f 8f36 7f53 06bc
000003d0: 48c9 c1bb 909c d0bd cff4 abbd 007f 40bc
000003e0: 5591 eabd 7db7 56be bc45 633d ea8b b3bd
000003f0: a0d1 6bbd ea44 7bbd 947d 063d 227e 93bc
-0.1660715 0.026661849 -0.15441413 -0.00795787 0.022387922 -0.07733746 -0.08829207 -0.026765496
0.0314329 -0.12018934 -0.17138205 0.028248878 -0.14268032 -0.036503855 -0.042886477 -0.11638225
-0.105389275 -0.00792546 0.0034446064 -0.15965395 -0.022216078 -0.16395313 -0.045045618 -0.045143206
-0.023369625 -0.0841134 -0.029128429 -0.039849963 -0.19821523 0.03749029 -0.21626945 -0.15543763
-0.060461678 0.11576338 -0.12722953 -0.012988464 -0.14180654 -0.027167497 -0.07951625 -0.034409225
-0.07854678 -0.12342976 -0.024674345 -0.0395286 -0.083762795 0.06849384 -0.15922725 -0.24037719
-0.042676732 0.023674171 -0.035618555 -0.058515422 -0.09332648 -0.1263881 -0.06209604 -0.1327211
-0.23653816 -0.24942513 -0.07657285 -0.090445146 -0.042578023 0.08912827 -0.05490123 -0.009088411
-0.033730797 0.04980123 -0.15183632 -0.04512424 0.031599347 -0.006390838 0.059143096 -0.048393168
-0.04933185 -0.037356894 -0.03861077 0.026187902 -0.18687819 -0.030230757 0.06982586 -0.016519072
-0.21240474 -0.12540619 -0.012561483 -0.103644915 -0.1332527 -0.15012258 0.04961551 0.07776358
-0.09232943 -0.01718949 0.0048847157 0.035125144 -0.14242317 -0.04644948 -0.057381842 -0.07318628
-0.1437495 -0.10725779 -0.12857673 -0.057696614 -0.12578948 -0.038461383 0.0043773 -0.07961681
-0.019582275 -0.0104733445 -0.056562316 0.0014384361 0.06414314 -0.10844637 -0.09879985 -0.17717561
-0.18100934 0.03995687 -0.08968115 -0.067187816 -0.053051647 -0.1438057 -0.09486207 -0.0028181353
-0.06452851 -0.21798597 0.009477576 -0.086420655 -0.032449577 -0.030717473 0.009788582 -0.027236002
-0.03752997 -0.03716441 -0.1277941 -0.09831427 -0.061266746 -0.027011923 -0.15428463 0.08978878
0.042684563 -0.03885675 0.092825375 -0.0026402595 -0.16811149 -0.02605185 -0.046830732 -0.05017768
-0.20063987 -0.11663816 -0.08324563 -0.059749894 -0.147867 -0.06552948 -0.113227345 0.0048729014
-0.020213738 0.14529611 -0.06254445 -0.069763355 0.010723102 -0.070031546 0.04546546 0.03417478
0.040795047 -0.14453933 -0.13261847 -0.05192363 -0.13402498 -0.012163394 0.007122376 0.053337723
-0.033889566 -0.015905386 -0.11170654 -0.025776094 -0.029121041 -0.056425333 0.102681935 -0.021120863
-0.04765391 -0.06396771 -0.042470444 -0.07211179 -0.11976791 -0.1325961 -0.05321544 -0.018825797
0.011651443 0.06727794 -0.036413558 0.09522454 -0.069542624 -0.09884514 -0.06539505 -0.096672125
-0.061260205 -0.019052513 -0.12853684 -0.0451838 -0.0021055525 -0.009053953 0.038183346 0.0054251687
-0.04935786 -0.0037136201 -0.09633843 0.10103165 -0.18824789 0.07366892 -0.016889125 0.031531937
-0.20594689 -0.11515265 -0.0111130215 -0.13047826 -0.14295402 -0.15417388 -0.05255312 -0.10251524
0.017448228 -0.09174692 -0.05351314 0.047100324 -0.11314665 -0.08775295 -0.12462534 -0.09939381
-0.13496515 -0.08606164 -0.16040778 -0.09191909 -0.18591274 -0.0055081635 0.029197818 0.007439074
0.04890129 -0.058686648 -0.08757887 0.02353601 0.022066131 -0.06494415 -0.10513944 -0.08861165
-0.11044908 0.06257763 4.272887e-06 -0.008198618 -0.005913887 -0.10186112 -0.08396303 -0.011749029
-0.11453501 -0.20968433 0.055486426 -0.08766921 -0.05757296 -0.06134502 0.032834604 -0.01800448

fc3.bias f4 [32]
00000000: 006e b43d cdb1 67bc 8364 15be 4d3d ebbc
00000010: dc59 eebd ddc8 5fbe aeac bebd 3c9b 29be
00000020: e827 5a3c 2510 ce3d 6baf a53d da5b 2cbe
00000030: 19eb ccbd 2250 5abe d13a 713c cc40 f3bd
00000040: b42f 31be e3d8 0e3d 1577 f4bd aa81 fbbd
00000050: fbed 793d 44a5 e1bc d1d3 b9bd 5b8b d3bd
00000060: 16a3 16bd 8c24 3d3d a361 5fbd 9cc1 703c
00000070: 4b63 09be 1a2e 87bd 1aaa fa3d 3366 ebbd
0.08810043 -0.014141512 -0.14589123 -0.028715754 -0.11638233 -0.21853967 -0.0931028 -0.16563123
0.013315178 0.10061673 0.08090099 -0.16831914 -0.10005779 -0.2131963 0.014723496 -0.118775934
-0.17303354 0.034874808 -0.119367756 -0.12280591 0.06101797 -0.027544625 -0.09073604 -0.10329314
-0.036776625 0.046177432 -0.054536473 0.014694598 -0.13416784 -0.0660059 0.122394755 -0.11494102

norm3.weight f4 [32]
00000000: d2ac da3f 7693 d13f 0381 9b3f fb22 e53f
00000010: 1180 613f bfcb 5d3f 32ac d43f f006 643f
00000020: 1f4c d73f bac0 ed3f 759b d53f 77e8 593f
00000030: da73 633f 41c3 693f bcf9 d53f f8d9 e43f
00000040: 0e65 5d3f a4d3 cc3f b421 5e3f cbf7 553f
00000050: 786f d43f ca76 cc3f c0ae c03f 1644 5d3f
00000060: 5f28 ee3f 93b7 ce3f 9f6a c23f a2ac d83f
00000070: 2fff 593f 467f cb3f bae2 c73f be12 623f
1.708399 1.6373127 1.2148746 1.79013 0.8808604 0.86639017 1.661505 0.89073086
1.6820105 1.857444 1.6688067 0.8512034 0.8884865 0.9131356 1.6716838 1.7879019
0.8648232 1.6002088 0.86770177 0.8358123 1.6596518 1.5973752 1.505333 0.86432016
1.860607 1.6149772 1.5188788 1.6927683 0.85155004 1.5898216 1.5616066 0.8830985

norm3.bias f4 [32]
00000000: e9b3 1b3f f864 053f f186 133f 137d 453f
00000010: b8ac 4c3d 6068 e33c 7695 033f 4873 a63d
00000020: 5bad 163f ca06 383f 6a1e 233f 706b 1cbc
00000030: c059 643d e6a0 b53d b6a9 233f 8295 1a3f
00000040: 2496 1c3c 4313 2c3f 752c 5d3c 53b7 33bd
00000050: 6f10 133f 284b f83e b8b6 083f 9997 e23c
00000060: cb01 2f3f d5a8 153f 1524 e33e 5e2c 163f
00000070: 58d5 3ebb 279c 0e3f 2988 043f 8d2c 3d3d
0.60821396 0.5210719 0.5762778 0.77143973 0.049969405 0.02775973 0.51399934 0.08127457
0.5885827 0.7188536 0.63718283 -0.0095470995 0.055749655 0.088685796 0.63930833 0.6038438
0.009557281 0.6721689 0.013499369 -0.043876003 0.5744695 0.4849484 0.53403807 0.027660178
0.6836211 0.5846074 0.44363466 0.5866145 -0.0029118862 0.5570702 0.51770264 0.046185065

fc4.weight f4 [1, 32]
00000000: 3515 3b3f 7a79 46bf 34fe 30bf 9860 60bf
00000010: 36e8 1f3d d232 f0bc 9232 363f 293e bcbd
00000020: 788b 50bf 6420 4abf 9428 41bf 43bd aa3c
00000030: e65e 87bd 4f25 703d 9b2e 4dbf dbf0 713f
00000040: ea2f 7bbc c541 343f 6e2c 8f3c b32a dfbb
00000050: 4ac4 423f 0c5d 42bf ef9b 3abf 9530 54bd
00000060: f427 5d3f eedd 4cbf ef46 393f c4bd 3f3f
00000070: fb7f e4bd 449b 2c3f 347d 323f af57 16bd
0.73079234 -0.7752911 -0.69137883 -0.8764739 0.039039813 -0.029321108 0.71170914 -0.091915436
-0.8146281 -0.78955674 -0.7545254 0.0208422 -0.06609897 0.05862933 -0.8014924 0.9450814
-0.015331248 0.70412856 0.01747724 -0.00681051 0.76080763 -0.7592323 -0.72894186 -0.051804144
0.8638909 -0.8002614 0.7237386 0.74898934 -0.11157223 0.67424417 0.69722295 -0.036704715
